lasa_models/1/skel_model_WShape.pt (torch, 99247 bytes, 18 tensors)

R f8 [20, 20]
00000000: 60f8 1856 7c6f b63f 5a8d 66e1 9cf6 de3f
00000010: 519b b06b 99f2 e33f a12b 6d59 e9f7 db3f
00000020: 408e c932 f0d2 d43f 29a2 ee98 5601 e13f
00000030: 7ba7 9e2b 81ae e73f 0bef f953 e24b c53f
00000040: 5ccb d6d6 6dad da3f f878 10ef b164 c93f
00000050: 66c5 0a2e f4d3 d23f eec1 18b1 9b07 bc3f
00000060: a896 6451 7665 eb3f 1b86 3dde a8a8 b6bf
00000070: e320 3dbf d751 d73f ec74 86c8 37cc de3f
00000080: b9bc 187f c023 ea3f 7661 55b5 7888 ea3f
00000090: dc30 d02e 7f28 d63f 449a e5e5 8582 bf3f
000000a0: 35dc b1f4 ca46 e93f dc65 7d7f 107a c53f
000000b0: e30e 766e a4b0 ed3f 3045 26d7 2458 b23f
000000c0: 1945 579b 5c2c e03f d0ba 6900 d628 e23f
000000d0: fa65 e09a 1420 b1bf 8f2f 90e8 698a de3f
000000e0: a598 9bd1 9562 e83f ba13 df59 c1f6 e63f
000000f0: 2e03 0e1a 0256 ef3f 82a3 6bac 2ff0 d33f
00000100: 9ef5 41cf d4e6 cd3f 4885 3278 cebc e03f
00000110: 7ab8 140c 23f7 db3f 1f5c a273 2666 e13f
00000120: 897f 5340 efcd 953f 0a67 5a6a f199 d63f
00000130: 9c1f aba7 572e e03f 74cc 115f 998a df3f
00000140: 65e2 f9dc dcf2 eb3f a164 554b ad30 e73f
00000150: c4ec 649c b295 cd3f 30bc 5498 306e b3bf
00000160: dc80 e157 efde d13f a795 032a 9055 ec3f
00000170: a5ac 7195 57cf eb3f 866f 0c94 6dc8 db3f
00000180: 5087 8b5b 00dc cb3f b979 174f 19d5 d73f
00000190: 9718 806c c445 e63f ff5c 013d 35ca ab3f
000001a0: 5750 08e1 03b3 d23f a9e4 1110 3d5e e93f
000001b0: 49b5 23ce 476c e63f 0877 847d fc25 e33f
000001c0: 5343 b451 7ee1 bf3f f50b 84f4 adb7 e43f
000001d0: f271 9fd3 5954 e13f d360 d9a8 6a89 ee3f
000001e0: ae1f 9fe1 bb69 d83f 63f2 ff95 bd81 e73f
000001f0: ea41 6d25 3392 e83f 75e1 a985 6392 e73f
00000200: cbe3 3d0e 4211 c03f d62c 29e8 ad8e da3f
00000210: 556c 04cc f251 c33f 79a7 8d57 e668 ed3f
00000220: 350b 879a dbfe ef3f 6d0a 2b0b 89ed ea3f
00000230: 8d7f 0570 6332 b53f c8e8 e95f 269b a73f
00000240: 7c4b eecc baa4 d43f 1f26 c98b 58d9 d53f
00000250: 8868 6130 4a37 f13f 342c 1141 7082 d13f
00000260: b1a4 70e8 a29c d93f 23af a385 d220 84bf
00000270: d351 d4c1 1a1e c83f 7604 934e a840 da3f
00000280: 652c ae74 3a96 e83f 6937 c978 4576 eb3f
00000290: 6c63 3229 b6ad e33f 5607 fa89 def7 dd3f
000002a0: 5463 8a73 c415 d23f 8ebb 913a 0288 e53f
000002b0: 8bcf fdca 334d e53f fcad 9c47 65cb e63f
000002c0: e3c8 c960 73c8 a4bf 5fb7 864f 3313 ef3f
000002d0: e800 ea5c ff35 e03f b8a9 89fc 00ca f03f
000002e0: 8319 bdcc 63f0 e73f a80e e0f9 277c db3f
000002f0: 6ec7 1c59 95d3 cf3f 1b6b ece3 2a56 e23f
00000300: db33 f3af d803 df3f 212e 0939 8267 ca3f
00000310: 8c49 c62e 0c16 e93f ddf7 d00d f875 ce3f
00000320: 48c8 223e 3672 d73f 5b59 6ff5 5c63 dc3f
00000330: 84d6 0124 199f c4bf 0d13 7abc fdf8 e03f
00000340: a377 bad8 11de e83f bc8d b20f 49c6 ca3f
00000350: 31f1 808f 6174 d33f 61dd 7d6e 34cf e73f
00000360: f067 a511 f5ad e53f 640d 62c0 a826 e93f
00000370: aa3c 47d1 26dd d83f bde2 48d5 b7ca d03f
00000380: 55ea 0665 14f3 e33f c30a 0b7b ea9e d03f
00000390: 3dde b16f 3e50 ef3f aee1 55a9 316c de3f
000003a0: efc0 9fd7 e073 d63f 6a95 8d5a 3a91 e53f
000003b0: b27f 91e3 16d7 d33f 2711 68e1 1fd9 ba3f
000003c0: 5eb5 f9bc 2160 d83f da1d 44aa 1ac6 e13f
000003d0: 00e4 1e81 8eca d73f c10a 074a 7366 d13f
000003e0: 55fb f8c8 a703 d83f 8be2 cef3 f74a d73f
000003f0: fc86 1f3d 300f e93f 277e f519 be74 ab3f
00000400: 8ea7 399d 7a18 d63f 71ec 6805 b477 de3f
00000410: 35f6 7d14 bbf5 e03f ba4a 6414 8a83 f23f
00000420: deff 9e6d 6e0f d33f f993 d738 f424 f03f
00000430: 227f f2f3 04b6 eb3f dfa3 8adb 812f d33f
00000440: 8ca4 3a9f 3b3f f13f 78c2 4f59 0be3 dc3f
00000450: 0ee7 1386 cee2 d03f 4524 8500 53b0 bf3f
00000460: af0e 499d 09e9 d53f d7be 0f55 7303 e53f
00000470: 2083 2da7 0ec6 f13f e54a c585 adc7 ea3f
00000480: a4dd ce58 746b e03f 3213 0879 1954 f03f
00000490: e216 1123 34b0 c13f 8470 7cbb d273 c53f
000004a0: 88dd 57b4 dbbd d73f 70e2 f151 8f11 ea3f
000004b0: f84a db7a 5801 dd3f 03bf fe22 bcd9 ce3f
000004c0: 852a b281 7cab ee3f 7ecc f033 62e0 e33f
000004d0: ca0b b2e9 2330 c53f e2eb b22c 03b3 eb3f
000004e0: 8880 7252 1045 ec3f e511 cbcd f1d7 cc3f
000004f0: 14a8 eb62 d097 ea3f 1d78 e11e 7e9d d03f
00000500: baee 171f b69c f13f 7985 895a b7bb d13f
00000510: 58a0 d75e 5c73 e33f 142f 2dc7 909f ec3f
00000520: e01e 57d4 ea16 c43f 558b e026 e15c 60bf
00000530: 1c99 4420 877d ea3f df77 d4cb 0846 ef3f
00000540: b02a 5b37 fc42 a03f 8b00 2001 c20e bb3f
00000550: f808 1ee0 e1d6 d0bf 30cf 304a ae50 ed3f
00000560: a335 3ad8 67ac d53f e99d 33af 13a1 de3f
00000570: 98c3 45bf 25d6 e23f 4962 e4d0 89f3 dc3f
00000580: b1ef d3b3 7d4d ed3f e55d 83f5 f2f5 bfbf
00000590: d770 7a8e 57ff ce3f 5256 39e0 8d52 d63f
000005a0: ba1a 8901 2723 c83f 5077 2366 53b4 e73f
000005b0: 86ef 459d 0cc3 d63f 936f 6a89 b777 a43f
000005c0: 3307 b2d1 00f4 e03f 5812 b81b 028c df3f
000005d0: a437 9a67 0787 e33f 4852 f0da d072 a13f
000005e0: 4b7f 5752 cae3 e23f fe64 84b8 8518 d53f
000005f0: 9dcb 746a 0d5a e43f a856 ea39 8744 da3f
00000600: b85f 04db f183 b53f 1e1a 961d f663 d93f
00000610: dacb 338e 7cce c73f 766b 7828 83c9 d53f
00000620: 9e7a 581e 8928 e03f 7ba1 be26 3123 c73f
00000630: ac2f 95a5 0268 d93f 7a5b 157f 0cd3 d63f
00000640: 2091 34d1 6b14 d93f 9c45 75fc 926d de3f
00000650: 03b2 ca7e 89cc cd3f b6da 6ed2 e1e0 e33f
00000660: c291 a68b 20ec d03f 87b7 3bd4 44c9 ce3f
00000670: fcdd 7618 d638 ee3f 5d5b bbb6 d772 cb3f
00000680: 5eca 3f4b cd58 dc3f 730e 21c0 96a1 e33f
00000690: 14ba d673 ac8e e13f 1fb2 e067 824b 8c3f
000006a0: 63d5 2ef0 e10c e63f ca13 2f21 a811 c43f
000006b0: 64cd a520 5200 e53f bc24 4737 dd28 c2bf
000006c0: ce7e 27ba bfdf e83f df11 5f7d db97 da3f
000006d0: ef05 9ee7 e36a e73f 513a 1ba9 67b7 e23f
000006e0: 3e9f a02d 20f7 d33f 2baa 722a b539 eb3f
000006f0: 39c1 f552 8e2a e73f 5cd9 a0f9 b168 e83f
00000700: ab7d c5db ffe9 bb3f eeec 5da1 c8bc d43f
00000710: a766 2881 dfca e83f abcc def3 a549 e53f
00000720: 66b3 710d 12c3 dc3f 47a1 dc6e d298 e03f
00000730: fbc8 ef5b 8aec e03f 2431 608d fd59 cf3f
00000740: 1ca1 777d 9933 e73f eefc e5a2 1cc7 e93f
00000750: f73c 1e8f 83ea e83f 03e1 d07e 3b64 ea3f
00000760: 0d89 afd0 76be d73f 57a5 795c ed45 ee3f
00000770: f3c5 db9a 43f8 ec3f 1e5e 73dc dbb9 e63f
00000780: 7ec7 943f 7c7a e53f 4ab3 be6e 2197 c73f
00000790: 25c2 4918 856b dd3f df35 7ae4 d990 e63f
000007a0: c086 f2a3 66e5 e93f 12fc d0b9 2e09 f23f
000007b0: 4fd5 5f85 04d0 f03f da2f 7a12 9279 c03f
000007c0: a004 3fde 3f60 e63f 2e90 c583 61b5 e13f
000007d0: f555 d52c badb ac3f 3cab d77e a1a7 db3f
000007e0: fe37 4953 adaa d13f 0517 a722 3a70 ec3f
000007f0: 0614 4705 b5a4 e93f 5102 1d25 f12c e53f
0.08763863660803528 0.4838020516565017 0.6233641722982189 0.4370063184075495 0.32537465057086834 0.5314133631664549 0.740051827616511 0.1663782987633272
0.4168352697408204 0.19838546917976152 0.2941866349820742 0.10949109147691846 0.8561355199533027 -0.08851104188718077 0.36437028575575264 0.48121447165051623
0.8168642504077958 0.8291591207189828 0.34622172900777826 0.12308537352291987 0.7898916987604766 0.16778761124696373 0.9278127820438978 0.0716574692981069
0.505415252113525 0.5674848564211405 -0.06689575940290374 0.47719810210468777 0.7620343297865203 0.7176214938450507 0.9792490490800441 0.3115348037522879
0.23360691185000076 0.5230476710895937 0.4369590394952706 0.5437195070725273 0.021293390561254042 0.35314593683288875 0.5056570315145907 0.4928344181454982
0.8733963313998855 0.7246920081480718 0.23113091122090712 -0.07590011328714819 0.2792318685733457 0.8854447193704588 0.869060317881481 0.4341081567561037
0.21765140981647813 0.37238152240561423 0.6960165137432054 0.05427709932035362 0.2921762178023121 0.792753726374163 0.7007178331529441 0.5983869983208203
0.12453450674753457 0.6474218154620518 0.5415467389353223 0.9542744920572893 0.3814534858070101 0.7345874719317859 0.7678466540328917 0.7366197214715117
0.1255266732730703 0.41495845481831617 0.1509383674791446 0.9190551481271846 0.9998605745425723 0.841496011555433 0.08280011639499048 0.04610557480641969
0.32255430233742977 0.3413907399268243 1.075998486505826 0.27358633379180053 0.4001853246614458 -0.009828228667593536 0.18841871704411392 0.41019637749929616
0.7683384207642915 0.8581874236203763 0.6149550251603677 0.4682537410191022 0.2825785759283026 0.6728526252680795 0.6656741108586045 0.7123285673782784
-0.040591817440956544 0.9710938027617252 0.5065914931037954 1.049317347026415 0.7480944632341536 0.42945289041402157 0.24864451266472137 0.5730184985762635
0.48460976774805226 0.20628383431390865 0.7839413560453052 0.2379751269781413 0.36634594028430856 0.4435646435571436 -0.16110529192126333 0.5303944283665217
0.7771081192947701 0.2091761900565937 0.30397833837538984 0.7440435560264796 0.6774850220347144 0.7859691388588712 0.38849802434283254 0.2623729307993406
0.62342281085814 0.25969945922785714 0.978545396951581 0.4753536370913264 0.3508226495460027 0.6739780205358958 0.31000301574203626 0.10487555745209375
0.3808674188101885 0.5554326367864022 0.371738077253724 0.2718780730175859 0.37522310854176527 0.3639507180155667 0.783104056721839 0.0536250502288989
0.3452440772440405 0.476056103976311 0.5299964332804793 1.1571141048959093 0.29781685548004855 1.0090219707865329 0.8659691586107992 0.29977461280446777
1.07793771933419 0.45135768625099315 0.263843184409425 0.12378424418160801 0.34234848365688725 0.6566712056500944 1.1108538179761993 0.8368747341831663
0.5131170019657714 1.0205321052355427 0.1381898089622871 0.16759714274019555 0.370963026157789 0.8146435356603217 0.45320713041034777 0.24101974209542484
0.9584333928226704 0.6211405767884484 0.1655316248980781 0.8656020997071858 0.8834306345270457 0.22534010456560263 0.831031983570258 0.2596125890321462
1.1007596220578493 0.27708228913805716 0.6078321316135868 0.8944782152334221 0.15694938057116925 -0.0019974133965815857 0.827823222182619 0.9772991162351409
0.03176105666860474 0.10569393660989783 -0.2631153763433214 0.916098732856403 0.3386478053660886 0.47858135327848444 0.5886410461226772 0.4523644008600383
0.9157093536627966 -0.12484663480733323 0.2421674199766872 0.3487887086570015 0.18857276511172022 0.7407624239819857 0.3556548629637678 0.0399758677715162
0.5297855468381613 0.4929204245275165 0.6102330230221367 0.034079100347444824 0.5903064354169855 0.3296217252660226 0.6359927252982406 0.41043263107108396
0.08404456708046737 0.3967261589936316 0.185988969263774 0.34042433693109986 0.5049481957137976 0.18076147453144728 0.3969732872981193 0.3566313973473637
0.3918714087506192 0.47543787626372036 0.23280447665219137 0.6212014303226485 0.26441205632934495 0.24051723826363178 0.9444380262202112 0.2144422189946579
0.4429200396399774 0.6134752037546164 0.5486662161327467 0.013815897746178028 0.6890725794861904 0.15678884144122512 0.656289161457988 -0.14187207411877079
0.7773131023240809 0.415518639023757 0.7317981265807115 0.5848882963999334 0.3119583554821367 0.8507943944035267 0.7239448185264684 0.762780177645975
0.1090392982055081 0.32402244337545383 0.7747647783864594 0.6652402651874544 0.4494061595240083 0.5186550297994835 0.5288745685232067 0.244933790236595
0.7250487757237667 0.8055556470498269 0.7786271853709924 0.8247354008554172 0.3710000074335234 0.946036034217438 0.9053056740360134 0.7101878457714894
0.6712018243617732 0.1842996397730537 0.4596874940098437 0.705182024235622 0.8092530443284076 1.1272418268633868 1.0507855615554325 0.1287100401135593
0.6992492047067067 0.5533912252108217 0.0563638858535959 0.4321063746162286 0.2760423005428264 0.88869959610085 0.8013558486060226 0.6617360806340661

L f8 [40, 40]
00000000: 5dd0 7a5f 1fff e83f b1c7 5055 3c4a ba3f
00000010: 6b62 1f83 d7b8 e83f 294b f129 be52 d53f
00000020: 95a9 2517 9536 de3f 889c 03c3 8b06 f03f
00000030: ae8f c6d0 e2f2 c83f 2069 f67c c5b9 e03f
00000040: 08b0 c0ef fc41 e93f 74e0 b746 0323 d03f
00000050: 273b 139d 3d18 c93f 2513 00da 37fd d73f
00000060: 41b9 5ffc 36d2 e63f 7dd1 017f c63b eb3f
00000070: 8f4c cbab 6965 c53f 6663 42be 4f1d e33f
00000080: c0c9 7f12 0264 f23f 5404 1046 a385 e63f
00000090: 1bba 07c9 84c7 b43f 60ec 6147 fd05 e13f
000000a0: 217b 021a c7d8 ea3f 8bb7 bf42 657a e73f
000000b0: 6671 4bff 49cf df3f 6fb1 d705 ef52 e53f
000000c0: de1b 7ea1 895b eb3f dcaa f221 4614 ea3f
000000d0: cd04 6c1f 58e8 d93f c420 24ea f2ae df3f
000000e0: 7bcf 7996 7adf d93f 7acc 78b8 7e0c ee3f
000000f0: 9fd0 93ed 818f e03f 0b31 748d 9a4d e63f
00000100: a839 da9e 2242 e73f 65c6 106e 0707 d43f
00000110: 5d9a 7ae8 b0a3 dc3f 3206 a244 f7e4 ea3f
00000120: 9aef 5176 d95e df3f 356f 4080 b3b3 d53f
00000130: 122b 3c12 5977 e03f f03c 1ebd 4a31 e63f
00000140: 5d9f 11ac a658 e83f a3bc a695 7afe d43f
00000150: 84b5 d5df daad e03f ab7a 470f e102 ec3f
00000160: 6a0c 1ae3 bc3d e33f 362e 44f5 5eee d93f
00000170: df30 218e c0e7 d73f b6e6 16d2 67a3 ea3f
00000180: edd4 29a1 1df7 e73f 1ae3 9f23 3ec9 d53f
00000190: 898b ca0c 2e16 e13f a664 bd5f e50f cc3f
000001a0: 45de bc7d 5274 c83f 0771 3809 ad01 d33f
000001b0: d9e6 f3fb b392 e53f 7ea9 ac45 e236 ec3f
000001c0: 7d1d 3279 cf55 cf3f 2d1d 1d0c 9b10 d63f
000001d0: 1b41 08ae b550 e83f fc47 9db0 94ab d43f
000001e0: 878e cecd 7ea0 db3f bf6d af9e 8725 dd3f
000001f0: 0804 7413 9e74 e43f 2dc5 9e12 cd3a e83f
00000200: 2552 8b6b 150d e33f 9414 b3ff ed64 c13f
00000210: de30 bf51 075c eb3f 2ee8 ffef 10c0 e23f
00000220: 61af 28f1 2d31 e33f 7cd2 c027 c1c0 ec3f
00000230: 8dee bccb 99fa c23f 985c 0984 b105 e23f
00000240: 1b6d 88e6 1d05 dc3f 4a6f b982 6c73 c83f
00000250: 8c90 ff94 84af d93f 9ff6 e1fe 26a5 aa3f
00000260: 0ab7 9a40 2f1c ea3f c12b 94ff 1e1e e23f
00000270: 6d09 2143 1b69 c23f 860f fdee 69f6 d33f
00000280: f98d b76a c21b d73f 336f 582c b88a d83f
00000290: c0a6 756a 1286 e13f 2a6c 9b5c a281 e53f
000002a0: 0a31 1933 a2bf e03f dabb 154e f743 e93f
000002b0: c6c9 3d67 356a eb3f ca34 a851 8763 d23f
000002c0: 66b6 72be 1797 f23f bcc7 7a7d 9710 e23f
000002d0: 8205 aa4e d901 b73f c53f 93ff 4d08 e03f
000002e0: a157 aca3 53b7 de3f 50a7 a0d8 f49a ca3f
000002f0: f7ab 2f35 6baf a83f a3c6 0f1a 8ae3 d43f
00000300: 4611 a7df 1313 ec3f b877 9183 80c6 e73f
00000310: a65d d4af 0907 b6bf 61a1 f8aa 2405 e93f
00000320: 94d9 dad4 8379 cbbf f606 134b eb5f e23f
00000330: cc1f 3965 2c56 ea3f a796 7a88 3ab4 e63f
00000340: d2b5 0cdd 8dac ec3f 58c9 7d10 99a8 cd3f
00000350: 33df f48c f461 e83f f87d 099d 90a1 e23f
00000360: 3d65 4c84 cc92 e13f d351 b776 e04e f03f
00000370: 9d64 d63e ec47 e63f f877 fa5d 9225 b83f
00000380: 6474 dfe0 cd5b e83f 42b6 a823 5ff7 e53f
00000390: 2a32 6222 c237 e03f f6bc 585f 82dd de3f
000003a0: eff2 dfd2 d89f da3f 1d37 c2bb 8f6a df3f
000003b0: 7b43 05b4 a605 c53f a040 8954 b0e3 a63f
000003c0: 19fa 120c 50a0 e23f 43b1 3de9 c46c dd3f
000003d0: a4f1 2794 2a78 d93f 233d 279e 7340 d93f
000003e0: 276e 0e46 6a63 c73f d507 fcde 7802 e13f
000003f0: c5a7 51ca b729 db3f 24ad 1079 3762 dc3f
00000400: 6a66 302f 38ff d83f 4ce9 2700 df30 db3f
00000410: 16e0 38ce 5a98 d53f 7ae8 fa42 cdee c83f
00000420: deb2 6613 8c3a e33f 8d60 2905 2741 d93f
00000430: 823a ea79 6e92 e23f ea96 c287 7e20 de3f
00000440: f8b1 3fc1 e0d5 ca3f abbd b0dd b93b d43f
00000450: 1e37 ca35 a77c e23f 7e25 f407 f50c e23f
00000460: 8957 ad7b c5f7 da3f 5c7b 5a63 7fa0 e03f
00000470: f942 fd0a 1c36 cd3f 30cb 68b8 dd28 d43f
00000480: abf4 ff27 0fe2 c33f 7fe5 af89 be9a d23f
00000490: a4d7 11c0 9747 cb3f 3a5e 5c5b d037 d93f
000004a0: baa1 3b0a 042c d73f bbff 2b59 ef93 de3f
000004b0: 3b28 8c66 900f cb3f 29bb f3d0 3d22 df3f
000004c0: 97aa 7436 16df da3f c5f0 2f72 e5d0 e03f
000004d0: 504b 6eec ec0d e83f 0d2c 1eb2 3c5a d63f
000004e0: d037 40ec a905 df3f 32c6 7889 cd4a ce3f
000004f0: ad05 ad7d 95b6 e13f 252e 84bd c0cf d63f
00000500: d988 e622 c1ca e83f 6374 c95f 6bfb e63f
00000510: 4012 aa05 2b1b da3f 2834 c677 1911 d93f
00000520: da43 0a53 920e e03f 1713 e170 0ffa e73f
00000530: 9621 be2e a87f e33f dbe3 1cb2 4a6e d73f
00000540: da31 9e0d a3a8 b73f 359a 537a 1678 c93f
00000550: f84b 3b1a 910b c93f cead c0a1 221c e13f
00000560: 17a1 fce5 6ff1 e03f 9c9c 0ce3 54c8 e33f
00000570: b3a1 2513 b1ef d83f 9fd9 6b44 dcfb e83f
00000580: 874b afd6 81a9 e73f 6cdc 5900 728d e93f
00000590: 6ad9 44f2 3295 d63f 930e 34f7 e184 e63f
000005a0: d588 9084 025e df3f 4c3e 57f5 f008 e23f
000005b0: 826a f950 01d2 e23f f3b6 2041 dbde ed3f
000005c0: c89c f70d 115c c23f 5676 82b2 f2eb dd3f
000005d0: d009 4c49 3f98 c53f 749e 15be 6df2 e83f
000005e0: 197f 3d27 558d de3f 58ae 3855 32fe e23f
000005f0: 1077 936a 65b3 bd3f c715 9de3 503c c13f
00000600: 632d fa4b bd71 ce3f 209d 1f22 41a2 d93f
00000610: c40c 6bbb cc9e cd3f e0f9 6a31 3c88 dd3f
00000620: 0ea8 5c99 ae2f ee3f 6e40 2461 0b73 d13f
00000630: c734 b92b eef0 df3f f1c5 be58 7371 d93f
00000640: 95a2 307b a618 f13f ca5b 0f7e 4e7d a93f
00000650: 808c 4cd6 5915 d63f 6606 3c0d 8f20 b5bf
00000660: 37eb 6d01 f1ed d83f 26d2 bdff 0a13 da3f
00000670: 69e1 ffd0 830c cc3f 089d 0acb b60d e03f
00000680: 167d 2220 f257 d53f 1746 6798 7235 ee3f
00000690: 1208 54f0 478c ec3f cd19 217a 46af c13f
000006a0: 1d62 465c 98bc ea3f 739f 23cd edd7 de3f
000006b0: 9d4f abbb 58de d53f 974e 42d6 32f0 dc3f
000006c0: ae34 561d 1a92 d43f 294d 1a51 9d29 e13f
000006d0: 1787 90a5 aca6 e13f b969 e2cc 5593 e83f
000006e0: e56e c476 afd6 e93f 3e63 e234 e905 db3f
000006f0: 82c8 fa01 6b74 e43f e438 03b2 c9c8 e43f
00000700: 1a45 6e2a c986 d13f a3e3 2aaf 9e9c d63f
00000710: 8673 b914 cee5 ec3f fe4d 8533 e4e4 b2bf
00000720: 05ac b87d 20a9 e73f 3087 8952 6a86 d23f
00000730: f655 6c96 22d2 e33f 5aec 546e e7ae f13f
00000740: d93b fb4a 8bfd e43f 6317 45d0 ca11 ef3f
00000750: 1723 aae2 6f8f bc3f 84db b59c 5e24 f03f
00000760: ed81 92dc bbe6 de3f ecee 335e 8d80 e93f
00000770: a377 bf56 afd7 ec3f fbd6 f2c3 95b1 f13f
00000780: 2584 8418 f945 d93f 297a 77a0 2037 ec3f
00000790: c644 c5a8 e5a7 d83f a788 83ca 4ae6 dd3f
000007a0: bdb8 72df ed95 e73f 9b93 847f 3a0d e23f
000007b0: 4dcf 688b e19c cb3f 29b9 4b80 a70b bf3f
000007c0: ed31 68cd a947 cb3f 1e2a 6710 9cac ec3f
000007d0: 0646 f210 2e55 b63f 2d5e ba27 e4b7 d83f
000007e0: cf06 1b74 feba e23f 02dc e784 3815 a53f
000007f0: 2bac bac2 5a12 f13f 5b15 90e8 7a03 e23f
0.7811428894842823 0.10269524653338526 0.7725637017238801 0.33317522140457584 0.47208144436322047 1.0015981309641422 0.19491229242441704 0.5226771774935379
0.7893051798505448 0.2521370115860073 0.1960522667854658 0.3748302105816939 0.7131609849146018 0.8510467987639881 0.1671573723639068 0.5973280635836147
1.1494160387634196 0.7038132065209859 0.08116941364253487 0.5319811243238171 0.8389621265413078 0.7336908630074829 0.49702691966174084 0.6663737405884101
0.8549240259316055 0.814974848084002 0.4048061663489307 0.4950530325445579 0.4042650670519305 0.9390252688375675 0.5175180092033037 0.6969731104632343
0.7268231489741099 0.31292901753031394 0.44749090865153623 0.8404499378668275 0.49016415171331007 0.3390930893381097 0.5145688396599744 0.6935170835221509
0.760821662971448 0.3280321561277992 0.5212225314877945 0.8753514574453524 0.6012863574582188 0.4051740069560056 0.3735200298294909 0.8324469664869045
0.7489154956553229 0.34040788153611035 0.5339575052097284 0.21923510718150857 0.1910498727754534 0.29697729015767077 0.6741580887748696 0.8816996918515512
0.24480622689973677 0.34476352866154764 0.7598522566859488 0.3229724621534158 0.43167085741354366 0.4554156350766014 0.6392355327553796 0.7571778644252497
0.595347127959546 0.13589262948349712 0.8549839588754613 0.58594557642869 0.599753352178123 0.8985296036176602 0.1482727284254576 0.5631949976767769
0.4378123046205517 0.19102245696091763 0.4013377623616712 0.05204126225815497 0.8159405004314249 0.5661768905423444 0.14383259561334275 0.31191490496370766
0.3610693018110563 0.38346676188097034 0.5476162032402598 0.6720744904263303 0.5233927724853242 0.789546635160032 0.8567149177964033 0.28732474302598787
1.1618878783587205 0.564525361134876 0.08987196131240263 0.5010137550070729 0.47993937476837273 0.20785389497296558 0.04821333908315489 0.32638790650444544
0.87732881242895 0.742981202096181 -0.0860448889037487 0.7818778361588948 -0.21464584248833474 0.574208876256505 0.8230192162527543 0.7095005670168647
0.8960637395263638 0.23170769982568618 0.7619574311310998 0.5822222773676335 0.5491697868302833 1.0192570340487819 0.6962796428007497 0.09432329935449946
0.7612065689132916 0.6864467331376505 0.5068064376405961 0.4822698527450052 0.4160062846492982 0.49087899528318407 0.16423496046129657 0.0447058776086362
0.5820694194624735 0.45976374413909954 0.3979593703113784 0.39455881542831345 0.18272140904160603 0.5315517764249714 0.4244212604304461 0.44349467108505025
0.39057736023241907 0.42485785498833617 0.3374239934814808 0.19478765268815207 0.6008968714646377 0.39460158828797703 0.5803749447967024 0.4707332921774269
0.2096520370099737 0.3161453881211524 0.5777164507469228 0.5640816836686751 0.42137276723712397 0.5195919933793038 0.22821379219615048 0.31499426850057244
0.15533627942196424 0.29069484182362965 0.21312233808901937 0.3940316097445905 0.3620615100794812 0.47777923305693165 0.211412477561966 0.48646493344760927
0.41986613576833903 0.5255000333995886 0.751699888018587 0.34925763506242974 0.48472068854686956 0.23665780270089126 0.5535380797011179 0.35643023021177306
0.774750297703828 0.7181908484304923 0.40790820649298 0.3916686696691749 0.5017787572743331 0.7492749409362628 0.6093331253951415 0.3661066760428732
0.09241694529027403 0.198977288942119 0.1956654909214135 0.5346844825011716 0.5294723026209195 0.6182045397335005 0.389629620264283 0.7807446800568875
0.7394417946874093 0.7985162741523602 0.35285638484074033 0.7037210300627116 0.4901129049850515 0.5635914604008092 0.5881353932885107 0.9334541580226116
0.14343465024942348 0.46752612526492976 0.1687087161918286 0.7795933449351211 0.4773762591557769 0.5935298599701566 0.11601861812547676 0.13465319742151236
0.2378460522635165 0.40052822430011936 0.23140868331220166 0.46144013238872894 0.9433205600118997 0.2726467560432927 0.49908022184247297 0.39754947344326214
1.0685181438549638 0.0497841385728673 0.345053157116304 -0.08252805779559366 0.38952279224001835 0.4074122903323619 0.21913192467742285 0.5016740766194809
0.3334927858176838 0.9440243698720135 0.892124146834478 0.13816147769303058 0.8355218698735062 0.48192925484772003 0.34169596030300814 0.4521605579732095
0.3214173590175261 0.5363298973119629 0.5515959962542379 0.767985248722929 0.8074567145990527 0.42223577656254807 0.6392111815132611 0.6495102383430802
0.2738516725886072 0.3533093176479786 0.9030523686193284 -0.0738051057608615 0.7393953757758714 0.2894540601756601 0.6194012582733979 1.1052011785348186
0.6559502090911976 0.9709219043513538 0.1115636757259718 1.0088792916774034 0.48283287563574967 0.7969424095058151 0.9013287252707766 1.1058557180635364
0.39489581484127917 0.8817294248690973 0.38524762612821595 0.46718091751803076 0.7370519031735722 0.5641148081382313 0.21572512919521572 0.1212715805265573
0.21312449006690262 0.8960705108996228 0.08723724282960896 0.38622383002936794 0.5853264110266653 0.04117752668746989 1.0669810873612373 0.5629248182528203

weight f8 [50, 4]
00000000: 0e6f c1a7 a19f c13f 9b7c 5267 10b4 d93f
00000010: 4330 abf8 e5ce dfbf d235 4a4e 5c0a d9bf
00000020: 82a5 dfc2 6e73 d1bf 0f03 01e0 a3c6 b23f
00000030: 4b59 b7bc 7011 d43f 765f 9f34 61ef b4bf
00000040: 8084 8e4d 1c55 d4bf 71a4 38ea dbb9 d13f
00000050: be77 70b3 5c9c b03f 9857 69f5 a545 cb3f
00000060: 26d6 20d2 fb59 bebf b6c6 30da 0386 7cbf
00000070: f11f 95ee ae1d 98bf 4273 1ed9 8558 d5bf
00000080: 9b15 eb94 ca8c c83f cb3b 692c d62e de3f
00000090: 8762 665d c9d4 d53f f71a 623c 5819 d7bf
000000a0: 98be f1c5 cc76 c5bf 2bda 1436 7926 c6bf
000000b0: f1df e8a6 40ee d8bf e511 2d22 dde7 d73f
000000c0: cfab a30c dc82 b73f 59de b952 d226 d63f
000000d0: ef7e 930a b3bf db3f 5790 c278 38d4 cabf
000000e0: bed7 d9e6 94e5 dabf 71e9 039d f635 debf
000000f0: b0c2 f20a 24b7 ccbf beb6 0f96 31a4 ce3f
00000100: 7a51 e9c5 3894 e23f 46d6 d8c8 cc7e d9bf
00000110: 94d7 519f c7e2 d8bf 41af 029f f408 bebf
00000120: d796 01cf a74b d1bf bf18 6c32 8164 c23f
00000130: 21f5 1de4 614d d7bf 3aa0 a76b 01de d23f
00000140: 0505 5793 6cd2 d93f 6f34 8066 05bf d3bf
00000150: 9db7 014e 2bd9 ca3f 87f6 c2d5 90e2 d8bf
00000160: 8a12 9e70 381b c4bf 56b3 7ee4 7151 cdbf
00000170: 8d86 ce62 e197 d13f c955 bf5e bccc 8c3f
00000180: 0d84 8f75 f157 db3f c3de c8bb aeaf c33f
00000190: b37a 1012 e0e7 c43f 23b0 7e92 f6cd cebf
000001a0: cb4e 9d89 065d d43f a480 5df8 0204 debf
000001b0: 86f0 f928 8101 d73f 3bbe 284e 4fd6 cfbf
000001c0: 57b8 8a1b f003 b8bf ef1d 9fdf 38e7 b7bf
000001d0: 43f4 3252 df14 c5bf 0faf 220d b355 c03f
000001e0: 51be a4c5 6921 d83f cb75 1830 3e1e c53f
000001f0: afb8 baf9 3549 dfbf 77a7 571a 255a b63f
00000200: 6abd 73da 271c b8bf fd78 7f5f 40c0 d7bf
00000210: c380 1783 5a84 c83f c185 61ec 8b74 b03f
00000220: df95 5550 b565 d8bf 90f3 d9d4 5e7f 9d3f
00000230: 5aae 77a3 814a c63f 78cf 622c 7785 d9bf
00000240: 793b f1c6 f13c bdbf 1592 1385 c11a c83f
00000250: f7bd 912d 19d4 c73f 1929 912a 0948 d53f
00000260: 3189 d504 d21a cfbf a6f6 b875 fed0 cf3f
00000270: 7eb3 9eeb 7784 cf3f e8ee fc21 b630 ddbf
00000280: d835 3187 9278 b83f 2a76 f6c1 e3ed dcbf
00000290: 6c7c 9fb7 8802 cb3f 5207 5911 5ef4 adbf
000002a0: 91f1 9ee0 f61b 8d3f fbb2 7262 1c44 cfbf
000002b0: 1a8c ab1c e195 913f 6ddb 9d4d db51 873f
000002c0: 053e fe89 74cb bebf c87e f0af 60c3 bc3f
000002d0: d0aa 5c4b 2178 de3f 1320 fdec 5ca4 c5bf
000002e0: e6f6 be74 99aa d1bf 014a f3c2 2327 c13f
000002f0: bbd2 2c67 a416 d03f 7de2 34df 3217 c53f
00000300: afb1 4591 5bf3 a73f 3b50 14d5 381e d23f
00000310: 8f0e edf2 8a5a b23f 3f3d d0f4 27d1 9dbf
00000320: 791f 9ba6 99a9 a2bf f99a cbad 2837 e0bf
00000330: c5cf 6900 d0e6 8e3f e7bb 9e76 73d0 d03f
00000340: 5f16 e9f9 eda5 ddbf cfc7 d0bd 138f d03f
00000350: 5f11 df27 2950 e6bf dd4b 5ef2 e6c9 ddbf
00000360: d4c8 2f7f 8360 ddbf b3e4 989a e7d4 babf
00000370: f107 d72d 5bce 94bf d7dc 75ec 0805 e23f
00000380: c711 73c2 e064 c9bf 9c7d 0459 c404 d83f
00000390: 5d11 b97d f8d7 993f 0722 0891 312c b03f
000003a0: e437 273b 390a 87bf 8ee7 5335 67b4 d7bf
000003b0: 047d 9830 c3ab c13f 9c33 7bc3 3ce6 d33f
000003c0: 3fc0 cb50 189c dc3f 0fee d898 37f1 d5bf
000003d0: 503e 5afe 8562 debf 0330 9e8b 83ef bbbf
000003e0: 9d9e 700e 0d91 d8bf bd5d 988c a5c8 b03f
000003f0: de03 3411 07a5 d1bf 14dd 44a9 f5b2 c73f
00000400: b5af b03b d62a babf 56e3 6c3f c4a5 cbbf
00000410: 3c30 a1dc f978 d03f e469 147d ec4a e2bf
00000420: 7940 caaa 34e3 d53f 4e34 5da4 fdfc bb3f
00000430: 3553 1d70 384b c7bf 9b58 d5a6 1155 d9bf
00000440: 9598 c363 ffa7 aebf a162 c673 2568 d63f
00000450: d333 54ba d947 e03f 7e9b 4395 11f9 c93f
00000460: 383b 0537 33f6 ddbf d9a1 903b 80ba d73f
00000470: a32e 3096 e093 c03f edc2 0ab8 9bf9 743f
00000480: 5440 f8e5 2dff 923f 61d3 b51e 743c dfbf
00000490: 3a3b 60cc e1b2 db3f 0d2d 45ea 5f53 dcbf
000004a0: ad04 a056 fef9 dd3f 915a 24b7 f09d d4bf
000004b0: f788 5347 ab9c ce3f 8942 408f 8c3b d33f
000004c0: 025a be7c ac26 d8bf 1100 e1c6 5f9f c0bf
000004d0: a42a 6a28 c828 c93f ef8c 27fb 2351 dc3f
000004e0: f7f8 e7d4 e045 de3f cb42 3164 7e91 cd3f
000004f0: 8f72 5f33 31a4 de3f ff42 4d5a 17b2 bdbf
00000500: 08d1 58b7 cfb9 debf 66b7 fcb0 d0c5 a0bf
00000510: 286d 617d 47e5 dd3f 397d 723d 09e1 cb3f
00000520: d959 2449 58db e0bf 6df6 01c1 7b89 d03f
00000530: 8913 45bf b7b4 cebf aabc 794f 0034 d43f
00000540: 4618 c2a4 96f2 e0bf b83c 3885 8190 c63f
00000550: 1806 d385 b8dd 783f a484 20c5 3ee8 d6bf
00000560: b715 f2f0 341c e0bf 1aa9 5415 8fee 9b3f
00000570: 2a0b a1fe a1e0 aa3f d355 c456 22ab d3bf
00000580: 298d 6c79 eab5 ce3f e3c1 1a00 e45d c8bf
00000590: 9db2 cda0 b372 d93f b84d 36ed bbfd e1bf
000005a0: 0ef7 bfb5 788d cb3f 3c23 6ebd a2a7 dbbf
000005b0: 9491 80c6 aa12 cbbf f175 83d8 1171 d83f
000005c0: e982 1b10 f407 89bf a7b3 323e cc46 d63f
000005d0: 2a83 7bd8 3c1b d5bf 454d 8c0e f9be d43f
000005e0: 4db6 7dfd 5e05 dc3f e3ab 6351 8425 723f
000005f0: 4219 4857 2341 d43f 72fd b5ee 6bb0 a43f
00000600: c7ab 8833 cdd2 ca3f afce 2987 81f0 d23f
00000610: 7f08 d148 62b2 75bf f9d1 e417 ed4a d53f
00000620: fc93 b65d 29ca b1bf 6fb5 d3a5 eca8 c03f
00000630: d8ce 2a19 c1e3 adbf 5ba7 ccb1 adc5 c83f
0.1376840657347817 0.4016152390485758 -0.497003071632893 -0.39125735898491343 -0.27267045050265193 0.07334350794645793 0.31356447629277245 -0.08177764448862299
-0.317694736231779 0.27696893571061937 0.06488589650004337 0.21306299670203255 -0.11856054191670093 -0.0069637442093594595 -0.0235507329100812 -0.3335280056287965
0.1917966105594758 0.4716086801244585 0.34111246224487285 -0.36092191597747053 -0.16768798508882266 -0.17304911747642512 -0.38954178142330337 0.3735268434286623
0.09184050854280133 0.3461194808837483 0.43357540161922165 -0.20960145851597886 -0.4202625517276565 -0.47204366048358454 -0.22433901342949047 0.2393857939454644
0.5805934777695676 -0.3983642541310001 -0.3888415389877704 -0.11732415086833915 -0.27024264541101445 0.1436921592905431 -0.36409804608395474 0.294800143367414
0.4034682692400369 -0.30853400239795453 0.20975247677727973 -0.38882847666887027 -0.15708070277118608 -0.22904800087908467 0.2748950447949959 0.014062377587758317
0.42724262695816223 0.15379890603229826 0.1633262718396132 -0.24066049721784663 0.3181778282061997 -0.46899484877031683 0.35946682931513185 -0.24872771564831617
-0.09381008789452615 -0.09337192019949446 -0.16469947351098044 0.12761533872014083 0.37703937817693595 0.16498544071593665 -0.48884343516955203 0.08731300252079942
-0.09417962153724138 -0.37110909772844974 0.19153911019293987 0.06427835961360186 -0.38120777936123135 0.028806192151467125 0.17414875490009046 -0.3987710889298266
-0.11421118838300783 0.1883165263926833 0.18616022801459994 0.332521716660851 -0.24300599323312036 0.2485654902283631 0.24623011593703475 -0.45609811133520717
0.09558978844253063 -0.45201963369058495 0.21101483312574787 -0.05850500070347543 0.0142134940432406 -0.2442660790160501 0.01717330682266658 0.011386597925349762
-0.12029198044751162 0.11235622687717772 0.4760821567494249 -0.1690784604236347 -0.2760375633332458 0.13400694865283927 0.25138197017376357 0.16477046870001635
0.04677854679434589 0.2830946045735378 0.07169407301722173 -0.02911817962381957 -0.03645019682659174 -0.5067332643928629 0.015088677418340421 0.2627228411101314
-0.4632525387317851 0.2587327340762586 -0.6972852495896794 -0.4654481284025545 -0.4590157262856682 -0.10481116794916794 -0.020318436310624525 0.5631146067015845
-0.1983910512409592 0.37529095357055 0.025237925218122615 0.06317434111418417 -0.011249968641006754 -0.37038593490398675 0.13805427429995387 0.31092757310835295
0.4470272816679461 -0.34284772802831837 -0.47476339186775807 -0.10912344130173328 -0.383853210546002 0.06556162531375427 -0.27569748573301733 0.18514891400420963
-0.10221613843231021 -0.21599629494610423 0.25738379045356274 -0.5716459696735083 0.3419925372954889 0.10932908308787256 -0.18198304628699594 -0.39581719677279076
-0.05987547009299125 0.35010658556124424 0.5087708129154812 0.2029134730175563 -0.4681518590268072 0.37075811211482584 0.12951285680207034 0.005120857502945536
0.018551556740988254 -0.48806479453133106 0.4327930923326907 -0.44258878591490786 0.46838339290122627 -0.3221399105545198 0.2391561601899139 0.30050958623272855
-0.3773604601095998 -0.1298637124145903 0.1965570638024775 0.44245242621236874 0.4730150298272657 0.2310026158543422 0.47877149598006324 -0.11599870638498187
-0.4800910273072678 -0.032759210209731646 0.4671190952701232 0.21780505657532404 -0.5267754963450059 0.2583913216438763 -0.23989006842944274 0.3156739021423599
-0.5296128480847606 0.1762849712835981 0.006070824424740738 -0.35792512179075175 -0.5034432130784613 0.02727721755687993 0.05249506219163032 -0.30732019875844435
0.2399266331568495 -0.19036531453231395 0.397625834498095 -0.562223399453095 0.2152548682642465 -0.43210667132420943 -0.21150717442027356 0.3819012274160221
-0.012222201100884305 0.3480711562540883 -0.32978745594850756 0.32415605946262743 0.4378278232096349 0.004430310122397227 0.31647571109387596 0.04040849007560156
0.20955815330793667 0.29592931937734596 -0.005297073291389619 0.33269812901860935 -0.06949099100036443 0.13015516373654232 -0.05837825233666444 0.1935326688920281

bias f8 [50]
00000000: f095 d821 62e4 913f e186 3858 85ec c33f
00000010: bc07 a4ae 6b04 c73f 09fd 20ef 62d8 bdbf
00000020: d8f9 1d56 3dc9 d5bf ed28 4d24 943a cc3f
00000030: 8476 95cb 606f cdbf df2a 5085 e313 cfbf
00000040: 4b42 9a74 9c75 c33f 6af3 d0ed 051f c83f
00000050: 3dcb 587b 3b50 b9bf 5c97 c424 73a8 623f
00000060: b02d 37c2 0786 bebf 09fd 62f5 20d6 dd3f
00000070: f690 948a 0e93 ddbf d846 c6c5 3c38 b2bf
00000080: bc72 640a 971f dc3f 36ae 1087 a6c5 c73f
00000090: c5c4 f5bb 92db c0bf 6806 dfbb 3de9 8ebf
000000a0: 3f6f 8f3d 8d3f c63f 9f0a 1f08 ccb1 d63f
000000b0: 4382 a6d2 d707 c0bf bcee f6a1 d25c a13f
000000c0: 0c81 de14 8595 dfbf 885c 7175 a264 d3bf
000000d0: 287a fadb 27da d1bf 68eb 5839 2d9b df3f
000000e0: f408 a806 2e54 d03f befb d4d7 2e5f ae3f
000000f0: 3c91 9a40 64a3 afbf 1898 034d 34f7 cf3f
00000100: 0807 6840 8c5e c63f f0e1 c5e0 8de7 d23f
00000110: 3a35 77f9 8e92 d23f d039 476e f35e c63f
00000120: 13ba 74f9 8b05 d3bf 8f4d 65a1 dd0e b1bf
00000130: eb66 0245 9f08 d5bf f489 f98c 28e7 c1bf
00000140: b622 d849 3abb 96bf 692f 6c5c 863d b4bf
00000150: b087 f17d c5e3 cebf 16be 4c02 05e3 b83f
00000160: 182c 8246 1af4 c0bf 4c24 3fbd 68ba a73f
00000170: 0278 799b 7818 cc3f 390c 89e9 5c4f de3f
00000180: 6631 cefe ec3a dfbf e3d1 497c 326c c43f
0.017472775760458192 0.15565554435402532 0.17982240702991514 -0.11658304536921461 -0.3404076901423685 0.22053767941026284 -0.22996149006478472 -0.242794456571878
0.15202670758709966 0.1884467517101272 -0.0988804985179685 0.00227758873929222 -0.11923264018621782 0.4661943813661798 -0.4621006348918536 -0.07117061451415496
0.43942810072784844 0.1857193145273059 -0.13170084169136068 -0.01509330968463303 0.17381444459794612 0.3546018676098956 -0.12523935113587656 0.033911306639735156
-0.49350096738818716 -0.30301724881196224 -0.27894016725795945 0.4938462314636838 0.2551379265788818 0.0593199385134464 -0.0617934540617022 0.24973157654238842
0.17476037163583436 0.2953829474495526 0.2901952205837294 0.17477267155341147 -0.297213548287716 -0.0666330832512385 -0.3286512540740733 -0.13986689456494583
-0.022198591954323908 -0.07906379467402548 -0.24132603311141798 0.09721404367586958 -0.13244942133710036 0.046344063855550205 0.21949679938819605 0.473593929349764
-0.48797154315322755 0.15955191677825473

weight f8 [50, 50]
00000000: 2f03 bb07 6fef a83f a9e9 a7bd d634 ba3f
00000010: 4dfa 627e 2312 b63f c27c 7516 68ab 8cbf
00000020: d495 e7b8 96d4 bd3f 1647 e09b 07b1 87bf
00000030: c360 b0aa d320 a03f 8237 8dbd 6d87 9abf
00000040: 2e68 0133 2405 c1bf 5c25 b8df 1211 b1bf
00000050: 4670 5f55 2ca2 a63f ce2e 25ca 7454 b93f
00000060: 5524 2524 e86f 9d3f f2ba 6fc5 514d c13f
00000070: 698e 392b 4320 9f3f 673c dddd 4990 b53f
00000080: bc88 6cc8 6ae5 b1bf 6995 952a 1add b2bf
00000090: 0fce f2cb f783 be3f 9311 ab0a c194 a0bf
000000a0: 6527 e659 c4f8 8cbf 8e26 4b3f 9afb b73f
000000b0: b03e d0c3 c37d acbf 53c2 3d82 1db2 aabf
000000c0: d90c e1b7 3734 82bf 93a0 6758 061d 8d3f
000000d0: 62c3 746f 5e3a 74bf 70a1 c3ba 827a b73f
000000e0: 2ecd 8aeb a6f4 bfbf df27 fdee bacc b0bf
000000f0: 5a8b 5389 01d9 b43f 2ad4 13e7 172e 8cbf
00000100: cb18 c8ed 6dea b33f 324c 822a 021a 9fbf
00000110: d996 16e6 26fb c5bf 4226 629d 9d30 b1bf
00000120: 39ea de92 7cf0 b73f 3da5 f161 da3e 9e3f
00000130: 5b3e 20bc f2ef bdbf 229c b547 bd0d b83f
00000140: 3865 1118 4808 c3bf b62a dcca c1ff ba3f
00000150: 16e6 84ad eb32 b73f 3f3f be67 c5cb 74bf
00000160: a8c8 3076 0cfd b43f ca85 09c2 2596 b2bf
00000170: f11f ad81 76a5 b8bf cf6a 023b 1f47 bcbf
00000180: 7c93 9d74 1818 b8bf f13a bf94 9869 b13f
00000190: 82fb 5e87 022f 6b3f 5b93 55fa 95b3 c23f
000001a0: 62ef fb70 f0e3 a8bf 4493 f42f 20c5 c33f
000001b0: d38e 8d48 fe31 ba3f 6fc2 4db5 6366 b13f
000001c0: 2bc6 54cc ec75 97bf d233 a03a a503 b43f
000001d0: 7849 8a89 6a95 7abf 70ff 56af 155d bb3f
000001e0: 2b18 9cbe 1728 a2bf c587 de07 bc07 b13f
000001f0: 1221 8d5d dc35 bbbf 3165 544b 630d c63f
00000200: 1050 261e 8688 b43f 2781 2fe4 a2d7 c1bf
00000210: 5a88 957a a3fa a93f a26f 784c 4f1c 84bf
00000220: 9719 371b 67f2 a3bf d496 c9b0 5700 af3f
00000230: c108 7ea0 2ae6 b23f 8d05 cbfa da87 a6bf
00000240: ecd0 1b29 8101 bbbf c493 dc72 39fb a03f
00000250: c0ae d425 c797 a9bf afda 44db eb6b b63f
00000260: 5cd9 1213 fe14 b0bf 12ff d6f7 5f32 953f
00000270: f3ef 8b81 30e7 b1bf f6fd f842 5b51 a6bf
00000280: 4d5a e475 7208 a1bf a3f1 1760 2e5e b6bf
00000290: 5939 2f2a 1238 61bf 7924 f1e5 97a7 c63f
000002a0: 319f c979 7b66 a13f d6f4 5872 3965 7f3f
000002b0: de07 a468 496e b1bf 0514 c35a fca9 b1bf
000002c0: 6d78 7d4d 4767 8e3f bcac abba 75e1 bd3f
000002d0: ba7e e433 7910 9cbf 55c7 e453 3b02 b3bf
000002e0: 9e8a cfd3 1cb4 b7bf d9ba 83e5 624c aabf
000002f0: 41f0 65ac 303e cb3f 84b8 81c8 f3f7 a63f
00000300: 961b dcc8 77af bdbf 8d94 1f52 f11c b03f
00000310: 0bce 28e0 75f1 abbf a057 04c7 8ba7 a9bf
00000320: 3597 5ce0 9b1e b9bf 9a08 e115 a3d0 b73f
00000330: 46ac 13ce c3c6 b33f e89f 5ee3 0a4f a53f
00000340: 94e0 520a 2066 83bf 13b4 565e cf65 b1bf
00000350: 9295 8b40 f294 a53f 0d2c 614e 19bb b93f
00000360: 6447 3862 fcc3 a83f 851a 33ad a0f8 a43f
00000370: 6b67 787b cd65 9dbf 6b35 71bf aaa6 c0bf
00000380: d01f d840 1450 c0bf 41d8 39e7 2544 bd3f
00000390: 62b9 f208 6e9f a1bf 9d13 cca4 bd9d 9dbf
000003a0: 18f7 0819 0874 a6bf b92b c005 09c8 473f
000003b0: b1bf 1be6 a5d1 a13f 8ffa 2ebe 5759 bf3f
000003c0: 8a24 a1d5 fd07 8d3f 90b7 8f32 213d 85bf
000003d0: 3244 1663 d431 b63f 5c49 c87f 2615 a9bf
000003e0: 16b1 2919 eb3a ac3f 5fb1 c5e4 53dc ab3f
000003f0: c670 b77e 6326 b03f 3c1b 1f11 bceb b1bf
00000400: 0c86 974f f030 b53f cb50 eb13 9c3c 8abf
00000410: 4d85 145b 7b50 b6bf 818a fe3c 2fd6 b9bf
00000420: 5c70 f48e 0e5b c0bf 19f7 9ecc e31a 9c3f
00000430: eba8 07b8 4c22 90bf 8c8e c965 cc5b a6bf
00000440: c2bd d52e f1d1 c1bf 7b4c 794f c036 babf
00000450: 18f3 5df4 09ba b23f e2b1 2457 4405 ab3f
00000460: bb41 a398 e9c7 c03f 7922 daca 9ed6 b0bf
00000470: da3c 667d 275f babf 3563 e48a e51d 96bf
00000480: fe6c 14ee e680 ba3f 29f0 3cdd 5edc 903f
00000490: 69f8 bc3f 1c69 b9bf 0676 9e23 9406 6fbf
000004a0: 924e d4d9 93a5 91bf ddc9 70b2 1117 bf3f
000004b0: 87d1 7d58 0332 b8bf 53e4 92fa fdb8 c13f
000004c0: a041 ecac 7a8a a93f 7607 57ed 2a81 b9bf
000004d0: 3956 c1f0 32b1 a1bf 3741 4635 1cdf ac3f
000004e0: 44ff 8c37 558a b0bf 8bbe dc53 f71e a33f
000004f0: d943 801b 3b6d acbf 1c1c 4fa2 d6a6 7fbf
00000500: 7b93 01fd 8bef 333f 9ff8 627a 0f10 c73f
00000510: cc52 76f0 d2f8 c0bf bcc9 7f51 0897 9a3f
00000520: 5b75 0236 d438 84bf f39d 1e6c 99b4 b43f
00000530: 74f7 6f7b eac9 8e3f 6b8a 4f9e 782d 90bf
00000540: 1a7f 1b97 7c5c b5bf 9556 15fb bf00 943f
00000550: 1e0e 8c13 e69d aa3f 06a6 2b53 6da3 b4bf
00000560: 2f12 a9d4 7fe5 833f f6db 6e4d f5e1 acbf
00000570: 0999 78d5 a3b8 bb3f 02de 9880 bb44 b63f
00000580: 6511 a005 dc86 c0bf aa37 c4bc e855 a33f
00000590: 9046 8a37 ea11 b1bf 8782 8d3a fc60 c13f
000005a0: da9e dbf7 9b23 babf a5b8 a406 a1aa 873f
000005b0: 948f 5263 cb61 c23f a3c9 5695 48a6 a73f
000005c0: 4005 01f4 a175 b83f 7064 7983 0c41 b2bf
000005d0: 11ec 0a0f 45d4 be3f ab9d d4d4 4466 ac3f
000005e0: ef50 0de8 2d00 c23f 4c25 2d8a d262 96bf
000005f0: 184d db64 9592 b83f 1f2a fadf 4c9c afbf
00000600: 836c 602e 169d c0bf 04d3 0f15 5241 a3bf
00000610: 20b7 5aa2 c474 7abf e60e e733 8116 ae3f
00000620: 5a85 cda8 c347 bfbf 1db6 bd87 4c6f b5bf
00000630: 2b64 35e1 39e6 be3f e42d ebea a903 c0bf
00000640: d6ef 0ab5 046c b1bf 5c05 2f4b 2433 b63f
00000650: b745 6210 3050 bb3f 54d3 3bfc 8dd5 c33f
00000660: 8a65 a98b 8ddc bb3f d4c9 e5ae c5e6 b93f
00000670: 7bce 3147 b55d b03f 418e dfcd 7652 bb3f
00000680: 7fc6 8274 c6b6 bf3f 151b bbd8 6c63 87bf
00000690: a47a 7fe2 2b3b c33f 9717 31ff 3056 7c3f
000006a0: 0374 6522 ff2a bfbf cb47 5765 7ac6 8e3f
000006b0: 02f6 1653 257b bc3f 3135 6933 6d1d 713f
000006c0: cf60 6dc3 a941 a93f 5deb 77a5 944a 66bf
000006d0: eee9 2e6d f8f2 b93f 018b 47e2 1e95 ad3f
000006e0: 7957 7807 338e c0bf f4c9 1e19 aa28 b4bf
000006f0: e2b8 060a d66c babf 4379 00e7 75bb b53f
00000700: e31f 0081 152d b3bf 6903 15d0 ffc3 9a3f
00000710: cf70 5da2 3398 94bf 668a a19d a6cb c23f
00000720: c958 33b2 a49f 30bf 53c3 98a4 668e bebf
00000730: a686 be41 d5b5 983f 7dc0 b850 50ba c63f
00000740: 21ae 39be d9d7 b3bf 6b6c 7c50 faf5 90bf
00000750: b916 3bf3 07d7 c63f feff 4afd 438d a43f
00000760: 7487 47c7 fe6d 763f eeb5 53c5 136f bcbf
00000770: 4365 9fcf 55c5 83bf 6ad1 a299 753b ba3f
00000780: 5d59 1b1a 7b2d 9d3f e942 1a62 4944 b0bf
00000790: f6c1 b075 88e9 c53f d160 d3d0 107c 9d3f
000007a0: 7d57 986e daa5 b33f eb63 703c 8341 a23f
000007b0: 97e8 991e f97c 98bf a8a0 e33a 2ac2 b5bf
000007c0: 9c14 7188 94f0 b9bf 8e21 2406 2aa2 893f
000007d0: feb7 671f 3581 b8bf 01c4 37a8 7ed6 c0bf
000007e0: bee2 5ac8 c604 b83f 1c67 f4fc 7993 bdbf
000007f0: 2c04 525a fb59 c13f 3447 b35b b9ce b4bf
0.04870173425070445 0.10236875658293933 0.08621427379237297 -0.013998807130234051 0.11652509702943031 -0.011568126148663132 0.03150044878583593 -0.025907244390786406
-0.1329694031763337 -0.06666677438638174 0.04420603315495035 0.09894494948565155 0.028747203069802236 0.13517210140658836 0.030396508706316192 0.08423291842085377
-0.06990687745249863 -0.07368625201850922 0.11920117119989747 -0.03238490348079206 -0.014146360391140875 0.09368289990666254 -0.05564700856495841 -0.05214016165598836
-0.008888659762425298 0.014215516636753278 -0.0049384774095394286 0.09171311435387053 -0.12482684374372319 -0.06562393507661522 0.08143624880498859 -0.01375979112570221
0.07779585890975509 -0.03037265190557665 -0.17172704920556361 -0.06714806644790719 0.09351328454696607 0.029536640384695934 -0.11694256871145951 0.09395964623182398
-0.14869023490136057 0.10546504213940974 0.0906207369452193 -0.005077143778080827 0.08198621640693438 -0.07260356890903732 -0.09627476373600509 -0.11046023550663196
-0.09411766860064391 0.06801751739042651 0.003318314494179687 0.14610552523950102 -0.048614038269049656 0.15445329991885093 0.10232533713638796 0.06796858955727612
-0.022910785647758097 0.07818062478345603 -0.00649015060538926 0.10688910990483946 -0.03546213342455958 0.06652426902885995 -0.10629060062376919 0.1722835653134012
0.08020818935466445 -0.13939319745896592 0.05074034568203052 -0.009819621583169017 -0.03895876128403868 0.06054948838281651 0.07382456224698598 -0.0440052443641533
-0.10549170735959351 0.03316669013137344 -0.049986098640457666 0.08758424857374324 -0.0628203198019483 0.020699977399771426 -0.06993392145881198 -0.04358945076500824
-0.03326757134543765 -0.0873745903590533 -0.002101932027904468 0.17698954322466756 0.033985003105782126 0.007664894486478965 -0.06808909229951562 -0.06900002685422642
0.014845425655661349 0.11672149474513821 -0.027406591217298916 -0.07425280378518313 -0.09259205027732739 -0.051364031330981504 0.2128353921688149 0.0448604757556135
-0.11595867780498134 0.06294162993397574 -0.0545765720493386 -0.050106399578154326 -0.09812330463009007 0.09302729877620877 0.07725166112111123 0.04161867166050098
-0.009472132029586335 -0.0679597478217178 0.04215199506669899 0.10051115191997458 0.048370253553129655 0.04095937837842193 -0.02870865884879185 -0.13008627269520487
-0.12744382063124116 0.11432110686459486 -0.034419478027632136 -0.028922045882626802 -0.04385400109866405 0.0007257503561971446 0.03480261262836793 0.12245701211120717
0.014175398904756404 -0.01037050185729152 0.08669783991923977 -0.04898948964923264 0.05513701135791586 0.05441534202222686 0.06308576434770705 -0.07000327508931731
0.08277799552117687 -0.012810916288266935 -0.08716555570255942 -0.10092444647902178 -0.12777883510796328 0.027446326603004587 -0.015755842907233236 -0.043669116425715776
-0.139219425076119 -0.1023979372051133 0.07315122810355168 0.0527745586753985 0.13110084488881832 -0.06577484562343185 -0.10301443873889884 -0.021598421671203034
0.10352938950056864 0.01646564698533851 -0.0992601066218143 -0.0037873166410935548 -0.017233190698859042 0.12144575697383382 -0.0945131388705872 0.13845801100777297
0.0498846374595161 -0.09962719244415816 -0.034555045975747274 0.05638969564745582 -0.06461079221935245 0.03734562777242186 -0.055520865542468996 -0.007727468885554447
0.0003041950958560452 0.18017762638004783 -0.13259350529974367 0.025966768240275093 -0.009874017618410382 0.08088072671545614 0.015033561603555269 -0.01579845873119227
-0.08344248475213725 0.01953411073676266 0.05198592175113624 -0.08061869888810955 0.00971507899988308 -0.056411424352908954 0.10828613244720854 0.08698627366617731
-0.1291155841319195 0.03776480964926006 -0.0666796098323863 0.13577225550672642 -0.10210585404604036 0.011555917754403853 0.14360945081454857 0.04619051764474882
0.09554493147972654 -0.07130506715601981 0.12042647950413278 0.055467749576844604 0.14063047247567037 -0.021861352618804106 0.09598668777771413 -0.06173935159775489
-0.12979390396580834 -0.03760773188688485 -0.00645901499016846 0.05876544722153003 -0.12218878623163701 -0.08372953714361882 0.1207004713845811 -0.1251118084968389
-0.06805447978962262 0.08671786151446298 0.10669231796261767 0.154954670105918 0.10883412036618814 0.10117755432091907 0.06392987239979135 0.10672705198481315
0.1238826784563347 -0.01142010723505175 0.15024326858015968 0.006918136018674212 -0.12174982633355573 0.015027004449539213 0.11125405577237049 0.00417845398494636
0.049329094987741955 -0.0027211097001304378 0.1013636843262373 0.057778325197224596 -0.12933957924604636 -0.07874549020088023 -0.10322320694715217 0.08489167108243571
-0.0749066772406191 0.026138302874872652 -0.0201118533944829 0.1468399305041032 -0.0002536561098173238 -0.11936036604380477 0.024131137979230964 0.1775608438633788
-0.07751236814663588 -0.01656333080528009 0.1784372270250765 0.040140270871688685 0.00547599337412118 -0.11106990401795944 -0.009653730772628882 0.10246977806929683
0.028493808239397612 -0.06354197163660626 0.17118936297039483 0.028793585534771907 0.07674946975779835 0.03565607178479254 -0.02391423463129935 -0.08499397218440896
-0.10132721263024042 0.012516334831631306 -0.09572155014731717 -0.13154586042176677 0.09382288352470433 -0.11553156304981055 0.13555852804350488 -0.08127935875679954

bias f8 [50]
00000000: 6aa4 51ba 0f8a b03f efa5 2fac f3fa 9f3f
00000010: 22f2 c6d8 2554 b1bf 8192 d0ab 0885 a23f
00000020: 0389 f76b 28f8 aebf b8ea 3524 1f7f b5bf
00000030: 5221 46f1 dbe5 c0bf 0fc1 c4c2 4402 b6bf
00000040: 594b d57a 8c71 753f 2565 9e00 4b8d b83f
00000050: e87e c688 682a a83f 6f2b 254a 25b0 c13f
00000060: d71c bb15 63c0 a03f fee7 a681 dec7 903f
00000070: 209c ba2c 937b b8bf 7490 efde 9792 ad3f
00000080: aeb8 7eec 2ed1 adbf 91ef 1fb8 a4a8 c03f
00000090: 053b e42f 4b13 b63f 9861 f1e7 1a30 b03f
000000a0: c0e8 a679 2f64 9bbf eac8 3e8e 37bf c13f
000000b0: 510c 2a91 5145 7d3f 85ed 5a3c 56c9 903f
000000c0: e90d f4ff ebb0 9fbf b308 834f 5bc2 a73f
000000d0: 2354 92c2 814b bf3f aa9a 4a22 c432 783f
000000e0: f9bf 9fd7 8008 bcbf 95b1 6b8c d71f ae3f
000000f0: e2e9 e330 ed3b a93f be46 e968 0432 ab3f
00000100: 3b04 f0ec fe46 a43f d008 dc77 f3d8 bb3f
00000110: 4a3e 927c 06bb b43f b515 5db7 c340 9bbf
00000120: 0290 1f62 c3cd acbf ee23 1498 302f ab3f
00000130: 7b1d b1ce 2ed3 b6bf d1eb f892 9d29 bf3f
00000140: e235 f05e 59fa b03f 18ab 27f0 035c a1bf
00000150: 2da8 03da e519 b7bf e4b3 3915 fcf3 b23f
00000160: bb05 3c81 c13d c2bf ba33 5204 0d46 a9bf
00000170: 9df1 71d6 a8e1 a73f 0394 f6ea 4356 a5bf
00000180: 4fea b596 3cd1 9e3f bee8 a74f 8b8f b0bf
0.06460665034104954 0.031230742821127973 -0.0676902441254659 0.036171217893103076 -0.06048704450565092 -0.08397097238586582 -0.13201474457697288 -0.08597211604206144
0.0052352416508537275 0.09590595975023015 0.047198549934589995 0.13818803902025986 0.032717796709727125 0.016387440360382748 -0.09563560335173849 0.057759042705385705
-0.05823656689550326 0.13014658918825409 0.08623189849116038 0.06323402559917779 -0.026749364662216335 0.13864798017090801 0.007146185513764073 0.01639303916338754
-0.03094834089007562 0.04640469880679756 0.12224589348109353 0.005907789371724684 -0.10950474991091132 0.058836685076900576 0.04928532811932819 0.05311597614912732
0.039604154990236805 0.10877916027314716 0.08097878018656349 -0.02661424452459978 -0.05625734875482637 0.05309440475873105 -0.08915989443004506 0.12172875250045868
0.06632002418356067 -0.03390514666155847 -0.09023891995062235 0.07403541105459471 -0.14250963983799445 -0.049362570550420995 0.046643520524386896 -0.04167377703860355
0.030095049570699136 -0.06469031042789461
