lasa_models/1/skel_model_JShape.pt (torch, 99247 bytes, 18 tensors)

R f8 [20, 20]
00000000: dae9 c691 fadb eb3f be55 b65c b857 e23f
00000010: f416 6142 4e91 e23f eb16 9a28 0952 ed3f
00000020: 7b91 8ead 2711 ed3f 6d00 d42d fa07 d33f
00000030: f637 35c6 46f0 e63f acb4 7961 568e dc3f
00000040: 37a2 4ffe 406f ea3f 900c f0d6 851a ea3f
00000050: ad74 9d66 3e8d d43f ee7a cb59 abc4 ec3f
00000060: 1105 03ee 2f5f e43f cddf 9ad8 a664 b83f
00000070: 91bf 9e7c 82f7 d53f e3eb 8ab1 cf68 ce3f
00000080: 34be 700e 5b52 793f 9478 bbbf fa38 ea3f
00000090: 345f 4033 b801 e33f 8298 9ff8 b3f4 c33f
000000a0: f0eb 251a c31f e23f 2a90 3acc 4b25 e83f
000000b0: 3e63 2827 6eac f03f 6648 9568 ec24 d33f
000000c0: 166d 135f 8343 bc3f 8f2c 4909 909c d53f
000000d0: 3581 0ac6 1606 ee3f 04d6 828d 616e b23f
000000e0: a7f4 e82b efb0 dc3f e2ef 49b7 a9af e23f
000000f0: c7c7 e2c3 c47a ea3f 9757 3da1 4fa8 ab3f
00000100: 5c6e 0678 1355 e63f f970 1473 aea4 d53f
00000110: 0c95 f3d9 b772 e83f 598c 80e0 45a9 e83f
00000120: 3fff 7e86 4dd6 c13f 3807 4e86 8c51 e63f
00000130: a855 9687 4cde ec3f dd54 e1b3 0201 e93f
00000140: 0a55 2504 07bd d23f d44f de63 e23a e93f
00000150: 606d 7282 d8b1 c23f 81a2 5f2e b5c8 e63f
00000160: 4987 87e2 6684 e03f 70e7 6027 f6cd d23f
00000170: aebf 2112 b0c9 df3f 6cde 9539 55c1 ad3f
00000180: 3716 d150 f549 dc3f 2051 02e8 87be d83f
00000190: c040 a675 8a18 e93f 5b27 0997 6aa6 d83f
000001a0: 6356 14f5 0e7d e23f 3516 40ec 2cfb b9bf
000001b0: 7895 fe9d dd08 ba3f 7966 9b89 92d5 ed3f
000001c0: b222 4353 a7a5 ee3f 15fc 8801 e909 e53f
000001d0: 99d0 487c 611f d83f 0f6e 3d27 02c9 e53f
000001e0: 1799 92db 1874 e33f 8921 0f11 8cf2 e83f
000001f0: a3a8 d030 5b43 e63f 2537 0236 ce5f e13f
00000200: 33da 1b11 e719 e73f d6f2 4d38 62e6 e73f
00000210: 7f7d 5444 de4e c73f ad49 2e10 9a54 e53f
00000220: a6d6 48c5 f8eb e63f bbcc 322b 7d6c ec3f
00000230: 3835 bb0f e463 e93f 5859 5c7a e353 e63f
00000240: ecf4 d97d 325e d03f ffec 9ad3 133c e03f
00000250: bb8d f205 25b5 d03f f804 3075 092d d93f
00000260: a5e5 6f69 2d2d dc3f c2d2 b77e 26cd ce3f
00000270: 3d52 a9e7 62ca d53f 4fa1 2d90 a02b d53f
00000280: 29e9 e7c4 a92a da3f ca08 515e df23 ef3f
00000290: 3eb1 be21 ebd4 d13f c5b0 174a 6051 d83f
000002a0: df62 4feb fe83 e73f 8cfb b079 c701 e43f
000002b0: 8891 a542 c101 ea3f c90e 2b9b e734 de3f
000002c0: 5a94 4ff8 86f7 993f 1c23 89b9 1630 e93f
000002d0: 5835 4f83 2487 dc3f 0b69 4c4a 96a8 963f
000002e0: ba20 c9e6 7268 e13f 6aa6 805e e382 db3f
000002f0: a303 8148 0881 d93f 2491 dce1 2db5 ec3f
00000300: 1a69 1c6f 7961 e63f c329 ae83 17f5 83bf
00000310: d2dd f165 4446 d23f 4890 8748 e6a4 ea3f
00000320: 8368 6d19 f9c8 d83f d3f0 2cbb 052e 90bf
00000330: b65b 5e3d 112c e13f d269 a300 2fbb e93f
00000340: b1b0 8a2a 2537 c23f ac66 e4f0 0427 cd3f
00000350: 6cd1 bee1 f89f e53f 8948 a15b 1a9b e53f
00000360: eca4 a08d 2272 ed3f dc63 71a6 e5e5 ea3f
00000370: 04b6 7a55 2be8 bd3f 21e2 277b e66a e13f
00000380: cc53 2dee e808 e23f a2d1 8690 3919 e63f
00000390: 3825 3111 4ae3 e03f a431 86ed 4cce e63f
000003a0: 6d01 fa5f aa9d e23f fda9 029e a6ae a73f
000003b0: e033 51f6 1f22 ce3f 7ca8 78bb 4556 ee3f
000003c0: ca2d a298 030c ea3f 9c96 b9d4 e2c1 db3f
000003d0: d95b 372b d85d ef3f eb41 f9e1 1513 ee3f
000003e0: 7f40 1890 ada1 e23f 8479 2885 49df e33f
000003f0: 408a b057 198e c73f 7a89 c0bb ccc8 e53f
00000400: a5ed a749 94e6 d33f 54bb 10da 4123 df3f
00000410: 88eb 3840 94d7 e33f 6280 199e 5d28 e23f
00000420: aaf4 655c 97ae c83f da76 d55f 2065 f03f
00000430: 3c30 816f 6288 eb3f d879 e810 0ce2 e13f
00000440: bbf8 82df b0a5 c73f e04b 2b46 e771 d93f
00000450: 864e b97b f2fd ca3f 02bb eab3 82c3 ef3f
00000460: 5444 397f 6b36 ee3f ea1d 031e 1de2 e33f
00000470: abb4 a4d7 6546 e83f 35b3 4055 de14 dc3f
00000480: 34a8 d11b 950f e63f cfbd 91c8 6395 e23f
00000490: 6e1e 1c5f 3703 e23f 003a ac5d a088 833f
000004a0: c1b6 7458 791b e43f 27ae 140d e5db df3f
000004b0: 1a43 e439 a354 df3f dbd7 5971 3a98 e73f
000004c0: 8eee d276 22fe d63f c5de 279a 3081 ec3f
000004d0: 0e77 6f39 c1be c23f b0ea 0584 cd84 cc3f
000004e0: e41c 4f95 9fde ea3f faa3 2641 6c4d dc3f
000004f0: 0e85 47fd fa0f d03f 8b0b fe84 52c0 dc3f
00000500: 62ce df99 06df e43f d195 ac33 2ad3 e33f
00000510: 34e6 653e e20a 933f bdcb 4766 0ab6 ec3f
00000520: 4288 7a38 8753 da3f 6128 329d d60c e03f
00000530: eba5 ce63 775b b3bf f106 8312 a1d5 ed3f
00000540: 6dc1 d07b c72b e73f 9dc4 79c3 7827 b63f
00000550: b642 d539 9860 d43f f208 92a3 e79d eb3f
00000560: a33a 34d6 7660 d43f 76cb 0d1c c140 f63f
00000570: 8596 4c50 9179 f33f 879e f14a 82da 9dbf
00000580: 80d4 d608 5634 cc3f 23fd 6530 1670 e23f
00000590: eac5 cfa2 f522 e13f 38a4 2a17 f6f4 e13f
000005a0: 2203 9f7b 477a e13f 856e eef2 4f4c d03f
000005b0: 54bd 8940 1969 ee3f ed83 49be 05a3 c73f
000005c0: af04 e5b4 3363 e13f b1a7 ef5a 2345 d73f
000005d0: 4522 df1d ee07 e93f 0965 4e40 42fb e53f
000005e0: 8356 15c0 75c1 d33f bfed 59f4 c400 e63f
000005f0: 20b8 4824 348d 6ebf 8d7a 4d9b 6b2b d13f
00000600: a65d 18c8 7d06 e83f 94a4 9e64 b568 e93f
00000610: 0aa9 2e55 e97b 9bbf 1d14 82b5 6180 c73f
00000620: ebba f850 5623 d43f eaf8 0582 b1d6 cb3f
00000630: 1b76 d7cb e91e de3f 0640 09b5 9ae1 ea3f
00000640: 2be1 663f cd65 aa3f 5b65 106c 78db eb3f
00000650: a474 951a c6d7 f03f eac9 0313 5fb2 e33f
00000660: 5ae7 268d af23 e43f 4c0e 9ac3 dc93 b23f
00000670: e4fd 7467 d921 f03f 631d 2776 4dd4 603f
00000680: e0aa ea0c 091d e23f 7bfd 825b 7d3d e23f
00000690: 062d 1ec3 8e63 eb3f 5800 d887 6ff4 e33f
000006a0: 7f50 dae1 ffc2 b73f 67f6 9ff0 6115 e03f
000006b0: f3ed 1386 fbff c03f bbee e613 f0ec ec3f
000006c0: 4a2d 7172 9363 c63f 51c7 52d8 89fc e03f
000006d0: 807a e054 1376 d63f d22e 0ac8 9ceb e93f
000006e0: eaac 0b81 1848 e93f aa21 c949 5c3d e33f
000006f0: 8de9 0357 9710 eb3f e61d 33a8 3524 e13f
00000700: 13f5 ac7b a966 ee3f 28f7 e0b1 b3df d03f
00000710: b0a2 e0b7 96ba e73f 9fc1 1a81 bd3b e53f
00000720: a40e bb6f dfe9 bf3f 9e7b ff01 ce42 e53f
00000730: 96a2 235e 1f12 d23f 2036 4878 c20c c43f
00000740: 3dc0 c867 6308 e63f e6d8 3b23 5b09 b73f
00000750: 091a 248c 02c1 d03f dfef f0a1 9d25 ce3f
00000760: a752 c2d4 07a9 e63f 50e4 dd53 d166 dc3f
00000770: b4e2 ab5e 159c ef3f c466 4fe3 d254 cc3f
00000780: 2af9 ef4a 2793 ce3f 0a01 0cfe 0e7e e93f
00000790: 500e 2211 0004 b43f f3ea 9a34 d6db df3f
000007a0: 92df 7441 f90f ef3f 2f20 a54e fd62 e53f
000007b0: 42e3 7034 7bc4 d03f deff e087 4bc4 3e3f
000007c0: f921 4c69 fb4f d93f 2e41 bec3 7578 f13f
000007d0: 836a 2ebc fed8 ea3f 0a0b 011e c6dd af3f
000007e0: 81cf 79cf 8d75 e83f 32d3 f8ca 4dea d83f
000007f0: 3cbc c1f8 9d37 da3f 1f6f 4b07 a3b2 e13f
0.8706028792578835 0.5732080279146243 0.58023751225184 0.9162641327863786 0.9083441152366015 0.2973618934192988 0.71683062279203 0.4461875869663554
0.826080795956904 0.8157376478196898 0.32112083455087764 0.8990074876599843 0.6366195343654529 0.09528582370955903 0.34323179407055543 0.23757358712268148
0.006182056130497982 0.8194555039188054 0.5939599038128791 0.1559052432996318 0.5663772116380397 0.7545527447550786 1.0420972375488442 0.2991286298103034
0.11040516921223217 0.33768082529849947 0.9382432811726519 0.07199678139553362 0.4482992104347638 0.5839432315692614 0.8274864030738563 0.05401848643548062
0.6978852600327161 0.33817635763422477 0.7640036827912424 0.7706632027442409 0.1393525034636642 0.6974547026768283 0.9021361015499467 0.7813733590398005
0.2927873173224077 0.7884380293421551 0.14605242127877727 0.7120004564031462 0.5161623405840398 0.2938208946758243 0.49668504496275545 0.058115638045760004
0.4420140542245891 0.38662908227094483 0.7842457101669638 0.3851572489698946 0.5777659212787508 -0.10148888366537608 0.10169777972494909 0.932320851100669
0.9577213884559426 0.6574597387297013 0.37691533219482093 0.6807871595769387 0.6079220093277254 0.7796078046022085 0.6957221940440558 0.5429450087410471
0.7219119390636649 0.7468730067917828 0.18209436737468462 0.6665773693114737 0.7163051465237984 0.8882432788581335 0.7934437091113642 0.6977403058870477
0.25574934282469886 0.5073336728013657 0.2610561903076946 0.39337383693789674 0.440257409063259 0.24063569247632272 0.3404776823347538 0.3307877929678584
0.4088539526852793 0.9731289713020257 0.27862051291846857 0.37996680484389983 0.7348627658749044 0.6252171875747634 0.8127142240232823 0.4719790473284147
0.02535830393380354 0.7871202110046371 0.4457484514540133 0.02212748363954468 0.5440001018078171 0.42986377934230424 0.39850051002945913 0.8971166049346135
0.6993987245689681 -0.009744819360794637 0.2855387683443641 0.8326293388931925 0.38726642115728555 -0.015800561475075647 0.5366293142895902 0.8040995609729242
0.14230789735063845 0.22775327455820127 0.675777855786277 0.6751834668778126 0.9201824918901855 0.8405636072958447 0.11682387196443506 0.5442993550669294
0.5635876323600484 0.6905792067323555 0.5277452789097543 0.712683166422313 0.5817462801497136 0.04625435522878616 0.2354164078446095 0.9480312978314624
0.8139665585635438 0.43370886587067914 0.9802056163852014 0.9398297704265678 0.5822360815382267 0.6210067368263457 0.18402401715964523 0.6807616869958075
0.31094844048467457 0.4865269307655826 0.6200658087103514 0.5674274528391943 0.19282810222276697 1.0246890777120172 0.8603985002350849 0.558843644164706
0.18474398530628897 0.397577112698114 0.2108748535271056 0.9926160348894373 0.9441430554235333 0.6213517748046204 0.7585934840950775 0.4387737114473567
0.6894021552409471 0.5807360570306005 0.562892614137082 0.009537937983194134 0.628353760495621 0.49779630925579216 0.48954086926919305 0.7373325551877729
0.3592611465826189 0.8907702456335406 0.14644637398208044 0.22280281969491034 0.8396757045929033 0.44222551691433376 0.2509753678733241 0.44923842418227683
0.6522248273235614 0.6195269593487699 0.01859620576713024 0.8972217557587708 0.41134815707676264 0.5015671797020894 -0.07561441599559486 0.9323277818259311
0.7240941446562325 0.08653979084353343 0.3183956684852477 0.8630254931197483 0.31838770788537313 1.390809163651935 1.2171795975386044 -0.029153858017166214
0.2203471701774653 0.5761824555665139 0.5355175189890222 0.561152501342014 0.5461766638255521 0.2546577331902216 0.9503294239529319 0.18466254989019096
0.5433596165750226 0.36359485512241024 0.7822180350713742 0.6869212394696272 0.30868285902156617 0.6875939152227416 -0.00372944053585568 0.26827516714357885
0.7507923992260899 0.7940318074444286 -0.026839872192490545 0.18360539782239096 0.3146568098772337 0.21748942230983143 0.47063679605875713 0.8400395904409386
0.05155793570469521 0.8705408201814565 1.0526791609220618 0.6155238505728537 0.6293561703562134 0.07256870055612658 1.008263973359015 0.002054358760890261
0.5660443546560963 0.5700060641610628 0.8559030352493273 0.6235883382032723 0.09281920684799337 0.502610177965562 0.13281196638841627 0.903923071738482
0.17491381729119332 0.5308274483743195 0.3509567574382473 0.8100112826372998 0.7900507469579712 0.6012402955175749 0.8457752894894824 0.5356701169156934
0.9500319877185198 0.26365368243192444 0.7415269461972311 0.6635425111363026 0.12466236570167638 0.6644048728011176 0.2823561114624139 0.15663939355037915
0.6885239626917677 0.08998651132774035 0.26178039250990587 0.23552294165881357 0.708133616967264 0.44377549352754375 0.9878031586695983 0.22133861636284824
0.23886576804211163 0.7966380082944238 0.07818603914534461 0.4977927697870392 0.9706999090621926 0.6683336769137947 0.2619922649496865 0.0004694637681303941
0.395506718472944 1.0919091840951967 0.838988654653193 0.062238875544173025 0.764349847055641 0.3893007738254709 0.40964459698347233 0.5530562536691582

L f8 [40, 40]
00000000: e3c0 2b66 f90e e83f c23c b032 b597 de3f
00000010: 5457 f97d cef2 ec3f 8303 b4c4 eb9c ea3f
00000020: ebcb b5a3 365c e23f a71d 9a81 a1d3 ea3f
00000030: feaa c2a3 0a30 c4bf 599d 1d21 a69e f03f
00000040: 7ce0 d761 d2fb f03f 37ce c89d 59e4 ed3f
00000050: 1f29 553e 2122 ed3f 06c8 17bf 3eea c43f
00000060: fc6a 2bdc f1de ed3f d321 2bca 985d e83f
00000070: ed25 9e8b 585b be3f b6ef 8df6 9366 d53f
00000080: ff7a a2a4 c0a6 e73f 7989 fef4 6073 e63f
00000090: 49ca 03eb feb2 e43f 886f ec50 a55d d33f
000000a0: 2c82 7514 502d e03f 1cb6 6117 d949 cb3f
000000b0: 1926 12d5 a9eb d53f 0533 334e 55ff e13f
000000c0: 7bf4 53e0 886e cd3f 36b5 74c2 d68b ea3f
000000d0: 5bb5 f7b9 bf43 83bf 0237 bcd9 d634 e53f
000000e0: 9d18 ae0b 7f11 d73f b278 d14e 2719 dc3f
000000f0: 23a6 61b9 4c7f e03f 9c7d ff3a 36ad db3f
00000100: 1d51 2717 342b e43f 8c03 6da8 9a56 de3f
00000110: e965 c9c2 ce7d df3f a66a c4a4 547f d53f
00000120: 0dbc 51b6 1139 c03f 9df4 aa3a 474c cc3f
00000130: ceb9 01fc 6ddd b63f e53e ebf6 3189 ed3f
00000140: 0d0e 73bd d834 c83f 5798 2e07 e444 d43f
00000150: b8f4 ffa0 9772 d33f 8d14 8731 4b88 e03f
00000160: 837b 568d f7db b83f c57e 0fe7 fb70 d33f
00000170: ab94 601d f196 ed3f f3df 19cc 7c6a d53f
00000180: ebbb d4d1 6be1 cc3f 35dc 34a4 e2e9 d73f
00000190: 37c5 1f4c adb7 c23f fb65 aeb2 5ace d53f
000001a0: fc10 fd57 ff97 e93f 5caa 64d5 aa1e ca3f
000001b0: d292 dc14 ba5d da3f b8f8 9b7f 8b9b bc3f
000001c0: 7d8c ea7c 9077 e53f e003 b69b 500d e43f
000001d0: d4eb 41d2 e105 cd3f 7a88 5307 03a5 c93f
000001e0: a6dd 37fa 31fb c63f afe3 2051 5a9e cf3f
000001f0: 90ef d07b 0b33 b03f 4c9c 1ca4 a67f d43f
00000200: 1225 9ca1 ff0c e83f 03fe 486f e4bd e43f
00000210: c3d3 e801 5536 e03f fca0 64cf 4de9 d63f
00000220: 9689 2e08 9c28 e13f d84d 72f5 d72b df3f
00000230: 9b0b a69a 618d d33f a84b 65d2 80f5 d93f
00000240: 32c6 5550 6937 c63f 3d3d d018 142e b13f
00000250: fd9c eeba de34 a5bf 8062 0587 c1cb b33f
00000260: e591 1f8b 0b99 e53f 226a bd6e ead3 ca3f
00000270: 6bff c85b 0997 e43f 7d3f e203 d028 e23f
00000280: 30f2 3b71 b8f2 e83f 4841 1c36 0fab c83f
00000290: 5495 99e7 d3e6 e03f 4168 cc34 da27 e73f
000002a0: 41a3 f7f5 be16 dd3f e39a 2d5e 66c4 db3f
000002b0: 1d1c 4bad a50d ca3f fe82 42c5 ce4d be3f
000002c0: d490 a3d7 28c7 ea3f 0622 474a 8311 dc3f
000002d0: f6e9 f9b0 717b de3f 1844 b89f d983 c33f
000002e0: e1a6 2130 5fda d53f 6b57 08dd 4951 a0bf
000002f0: 7451 3ee1 f297 b73f b28b c783 3fa9 a03f
00000300: 273a b762 8be7 ef3f dab3 f266 d76f ec3f
00000310: 4eaa 4c8b 554d d13f 1ef2 ff93 3237 d73f
00000320: 129f c0bb 4918 c13f 9c76 afa4 7cc1 d93f
00000330: a531 87a9 1a66 e23f d915 7ca0 119f e33f
00000340: 2adc 1a12 adb8 d83f d7e0 f056 0c24 b13f
00000350: a5ac c2d0 17eb e03f 92a1 3a83 188f d43f
00000360: 8ff9 83ec 20e6 d03f 1a9b 8724 f8a2 cb3f
00000370: 7a14 ac77 0eba d53f 3dbb a9c0 afe3 e93f
00000380: ee45 239e cd5a c63f 5a15 e2a1 baf3 ea3f
00000390: d342 999c 9180 df3f 52a6 c42b 5cc3 cd3f
000003a0: 06cd bb69 08f6 eb3f 73df 1a15 fd8f e73f
000003b0: f821 36d6 9e43 e03f 562f 22b0 7f67 dd3f
000003c0: 914f 06d9 ea7b e03f 520e 9b7f b30d e73f
000003d0: f9f6 8d75 ff58 c63f ab87 90b0 0f6d d93f
000003e0: 52d3 1998 54f6 eb3f 6694 eca1 78e8 c33f
000003f0: 4791 4f77 9948 e53f 367e 75c8 13f9 eb3f
00000400: b65a 8e25 539a e03f 0955 8742 3727 e03f
00000410: 9628 9862 4e49 e73f 5229 d03b c11c e93f
00000420: 245d e30e f437 e03f ad70 6218 737a d23f
00000430: 16df c16c b3f9 e53f 6a67 2a3a f1ef e93f
00000440: 19c4 ab07 5f2d cf3f 6ad3 49aa e569 dd3f
00000450: c6cc ccad c14e ee3f 5f52 dd82 8919 f03f
00000460: 30a1 f90b 6eb5 ed3f 85ec e234 b7a8 db3f
00000470: 2fbb b476 7d7c ea3f f305 6a13 1c4c eb3f
00000480: 9af7 b5dd 606a e13f ba50 27c3 7240 e83f
00000490: 6548 4db8 04f6 e13f 437a b337 128e e43f
000004a0: 0354 63c9 bbf3 e13f fffa fba8 9e46 e53f
000004b0: 1225 17b5 77ca e43f c90e 16c1 a169 b83f
000004c0: b1c1 43d1 887a ea3f 7e38 380c 73a8 d13f
000004d0: 89ec b333 a0c4 f03f febb 8e3c 8904 f03f
000004e0: bc69 7845 26bf e73f 22b7 d67b 3940 e53f
000004f0: 5451 498b 9875 b23f 7172 ac02 ad5e d93f
00000500: 0e3a 679d a020 ce3f 2b5b 4a23 5295 ea3f
00000510: 14f1 6370 35a0 76bf 0fd6 f34a 8035 e93f
00000520: 16af da5e 585a e13f 4d45 02e1 c47e 74bf
00000530: adc3 229e 4a2e e13f 0889 b16c 5aa9 e53f
00000540: fb64 acf3 7921 e23f a1e1 f36b 63bd c83f
00000550: c29d ac52 3aed de3f dd38 6edf 4da2 c93f
00000560: 105a f799 51f3 eb3f bef4 5a99 a16a e53f
00000570: d8e0 f5fd 562e c53f cd2a fbcd 9204 f03f
00000580: 25eb 4c2f 1a1e d93f 2005 ff05 e4d1 ca3f
00000590: 2623 e848 5a39 e13f 2adf 9199 76d5 ef3f
000005a0: 0aca addc d1c1 a93f 0a0f 5a1e 6108 dd3f
000005b0: 5ee5 39db 8b72 f03f 3f13 a982 f52e f03f
000005c0: 3ed3 95ec e253 ed3f a449 ea3c 5b17 e33f
000005d0: 4516 a0b4 1f56 c63f 19f9 6b5c 73b0 de3f
000005e0: d1d2 7a40 4ca2 e73f c306 2848 d293 e43f
000005f0: 21f4 63bf 4422 ea3f eaf0 85be 127d dd3f
00000600: 044b 94fb b2ac dc3f 331f fbdc 7838 e83f
00000610: 8ec4 f4b4 4957 e43f 1c52 ad9c 3c54 f03f
00000620: b039 64bd 21ff ea3f b9af da09 a925 afbf
00000630: 2b61 158f 6dfd e73f a972 1e1f cc47 e23f
00000640: 58a0 cfd8 fee3 ad3f 6fc7 4877 087f e03f
00000650: 270e a459 410c e53f 6d89 eebe c994 e53f
00000660: fa27 1cb8 9610 e63f 2703 9872 030e e03f
00000670: 04db 3249 b220 a53f 3fda f65d df14 cb3f
00000680: f648 a3e3 45c0 e73f 3f39 9592 149a d23f
00000690: a87f 53ba d265 e83f a731 4328 1347 e33f
000006a0: 9e91 e2d1 3410 d83f d6b3 4efc beaf e23f
000006b0: c6b3 1a2d a91b e63f 74ca b1af 9c65 c1bf
000006c0: 12a5 cbcd 45c8 d63f eeb0 f96c c682 d43f
000006d0: 85db cfdc d232 b73f 80ff 4faa 5660 c93f
000006e0: 5958 9db8 4472 ce3f 8ad1 85ad 4ae6 ba3f
000006f0: b427 b135 bbbd 8f3f a8d8 cdee fa8d cf3f
00000700: 5e47 8d26 29e2 b03f 19a6 a35d 6eeb d43f
00000710: 13c3 5535 3232 e03f d656 0c7c 32a0 9abf
00000720: 005c 94e4 53c1 e03f 7ece c8c5 8baf e53f
00000730: 166e 2ab7 7a9f ee3f 7049 a211 0e54 a23f
00000740: af4a 5930 5227 e03f 81da 4f5d af5c ea3f
00000750: d50c 348d 3835 a63f 85c7 8fa3 de75 b03f
00000760: 74cc f422 7c47 db3f 00c1 9cbc 8037 e63f
00000770: d3fe 1b51 6e3d b13f 9a15 1980 2722 eb3f
00000780: 12ab 5153 14a1 e33f 1ccb fdfa f1f3 c0bf
00000790: 1dd1 81f4 f02b ea3f 81c3 46f9 bfe5 b13f
000007a0: 45d1 b152 b068 d63f 9a41 89a6 6c47 ce3f
000007b0: c5b9 9bd8 a7dc e23f 1a5d 5a9a defb e23f
000007c0: b20e 2bcb 1ff0 d13f c612 315f 427f e93f
000007d0: 1181 78b8 3f84 d53f 3132 66fa 771a d63f
000007e0: 8026 dea4 8f80 9bbf 95f3 cbe2 89ad e33f
000007f0: 26ad 0633 3a97 bc3f 3e4f 421b 7229 e73f
0.7518279071355461 0.4780095095638438 0.904639478724429 0.8316553918703992 0.5737565228904463 0.8383338481225352 -0.15771611209978426 1.038732652052053
1.0614799329760265 0.934124763653421 0.9104162423548451 0.16339859324176603 0.9334649372279666 0.7614253948786945 0.1185813275207221 0.3343858630903428
0.7391055312653804 0.7015843186421044 0.6468500700123708 0.3025906839627557 0.505531349143046 0.21319116250690306 0.3425087528963516 0.5624186065047928
0.22993575051797052 0.8295701787916758 -0.009406564581662271 0.6627001049652963 0.3604428876937023 0.43903525063604854 0.5155395146113658 0.4324470115807004
0.6302738620966327 0.47403589675746427 0.49205369016780637 0.3358966454558562 0.12674161341007598 0.22107782711637905 0.08931624796398482 0.9229974577555963
0.1891127514883099 0.3167047567498051 0.30386915896071853 0.5166374175393159 0.09710643005972312 0.3037709957552404 0.9246755193495536 0.3346244805502458
0.22562930818227697 0.3736502269343334 0.1462303754520151 0.34071986626949496 0.7998043745542698 0.20406089229193725 0.41197063481585616 0.11174842706165833
0.6708452644128468 0.6266253510694888 0.22674200788955423 0.2003482614300685 0.17954086988150414 0.2470200439581993 0.0632788827214752 0.3202911951688676
0.7515867382473138 0.6481802152192703 0.5066323315901332 0.35798974278669937 0.5362072143364454 0.4870510003031234 0.30550422766116875 0.40560932680562667
0.17356602118120318 0.06710935216709842 -0.041418991392953665 0.07732781931316346 0.6749322621586172 0.2095921555254146 0.6434370796850833 0.5674820018630126
0.7796289645771761 0.19272031919582333 0.528177215903876 0.7236147910327945 0.4545133020424608 0.4338622970303005 0.20354147874442755 0.11837475124276506
0.8368114673326326 0.4385688996667628 0.4762844303401431 0.1524612455255301 0.341453358653423 -0.03187018225814494 0.09216230391604602 0.032541260563241706
0.9970147064248679 0.8886525164322123 0.27034510234321807 0.36274399235824883 0.13355371158217416 0.40243450243529266 0.5749638854118088 0.613167584845253
0.3862717320257071 0.06695630190450018 0.5286978795387723 0.32123387160620454 0.2640459356042805 0.21591092857053057 0.33948098837601715 0.8090437663030127
0.17464609357425281 0.8422520791797681 0.49222221653785175 0.23252441537015273 0.8737833085164375 0.7363267337995992 0.5082544502084252 0.459442064290433
0.5151266325724341 0.7204225055979327 0.17459099998443842 0.39728157274850656 0.8738196345062568 0.15553195864154928 0.6651122408189075 0.8741549411024099
0.5188384755627655 0.5047870921504521 0.7276985097571635 0.7847601097321706 0.5068302431854232 0.2887237299089616 0.6867310642400948 0.810539830784575
0.24357211947020188 0.45958844785427877 0.9471138376742594 1.006234656514742 0.9283972009552937 0.4321725861042938 0.8276965445018954 0.8530407313521081
0.5442356424607511 0.757867222937896 0.5612815475126466 0.6423426711952022 0.5610026296004665 0.6648705769037803 0.6497152840539988 0.09536181415574697
0.827457817764346 0.2759063357669972 1.0480043429986685 1.0011074414758236 0.7420836788981471 0.6640899103856308 0.07210687065645988 0.3964035535916884
0.23537070928291864 0.8307276429430649 -0.005523880716506353 0.7877809013286327 0.5422784664747009 -0.005003708895075687 0.5369008148755846 0.6769230006141536
0.5665864714857486 0.19327967425466588 0.48322923730526324 0.20026563081450535 0.8734519965317435 0.6692665095539707 0.16547667885220707 1.0011165662896702
0.39246229762254564 0.20953035633832773 0.5382510589562102 0.9948075293932324 0.050306852520311265 0.4536364361194819 1.027965408661053 1.011464605705626
0.9164900418096307 0.5966011228322725 0.17450329131695433 0.47951969171107717 0.7385617503519716 0.6430446061424039 0.8166831720442397 0.4607588635042378
0.4480407196835332 0.7568935695680693 0.6356552633570958 1.0205656166264196 0.8436440180828892 -0.060834200337324736 0.7496860308265573 0.5712643249313106
0.05838009258860727 0.5155069665690756 0.6577460051343608 0.674412606156961 0.6895249935053009 0.5017106283340568 0.04126507895982992 0.21157447898959167
0.7422208257724197 0.2906543189500503 0.7624295844252531 0.6024261270882122 0.37598915573678393 0.5839533737067721 0.6908765679305524 -0.13591345385391984
0.3559736737939413 0.3204818786823712 0.09061925784031473 0.1982525188068358 0.2378621961058254 0.10507647262949696 0.015498602462816403 0.24652039203983134
0.06595093909461755 0.32686957497080155 0.5061274568271038 -0.026001728841115256 0.5235995735591814 0.677678953454645 0.9569676949935821 0.03579753842599842
0.5047999328911227 0.8238140890596953 0.043374793278439995 0.06429854863361413 0.4262380925530984 0.6942752536615728 0.0673436115284816 0.8479192258752619
0.6134130122494261 -0.13244461780012606 0.817863919785427 0.06991195522165407 0.35013969493526914 0.23655470019958785 0.5894355040198255 0.5932457937914564
0.2802810176910767 0.7967845782482861 0.33619683279722873 0.34536551907584384 -0.02685760921261826 0.61493391319492 0.11168254609826941 0.7238092930224196

weight f8 [50, 4]
00000000: cc42 7cf5 07b9 c83f 342f 2f28 a9a2 b4bf
00000010: d5b6 7959 2eeb dbbf bfd0 6194 ae14 50bf
00000020: 37b2 9beb 1028 cebf 0bc1 4667 4893 ce3f
00000030: 5f47 f82e dd99 bf3f ff6e 68bf d7d4 b13f
00000040: cdc6 50c1 8719 da3f 314b aabf 34c2 ccbf
00000050: ae15 d5d5 fe12 c23f aa0b f8a7 2d55 d1bf
00000060: dc89 f9e6 662c e03f adac 5052 0dd6 dc3f
00000070: 0749 da17 0eed d33f 4f03 1782 5713 7cbf
00000080: 771a de57 efab c8bf 2f45 cf2e 2ae4 cdbf
00000090: 49bc 2f64 861b da3f 0dee a9fd 4232 dc3f
000000a0: 390b 2008 c776 c63f a23c 332a e687 cc3f
000000b0: a808 0bf7 a587 d0bf 3832 9cf3 05ea 913f
000000c0: 47e1 6702 c99a dc3f b8f2 0fe6 4341 b73f
000000d0: 13e6 17e2 e0fe dbbf 280f cc9f be63 d6bf
000000e0: 6b93 028a f604 c23f ceb8 4567 4d5f d2bf
000000f0: 15f0 619a b6ad dc3f 551a a182 a4ed b5bf
00000100: 3bd3 f8c2 493d cbbf 63fd b504 661f c23f
00000110: eb97 c85e 89ec cdbf 3762 0195 9440 c13f
00000120: d02d a53d 0cce d2bf 3753 8111 522b d5bf
00000130: 99ff 6b49 f5ad dbbf 383d 2748 c937 d53f
00000140: e023 5e34 8a9f 8b3f 5535 c6cf de68 993f
00000150: 396b c231 eace 893f ff1f 9f05 c083 c23f
00000160: 09c5 0ea2 b71a d33f 0aae bb15 3114 c33f
00000170: c37f f671 1499 e53f 6b63 7400 afb2 c53f
00000180: f3ea bb78 7572 e1bf d6bb 6955 2685 b8bf
00000190: 26ba 1f8e 001a cebf c646 9ad8 2788 ac3f
000001a0: 76f2 f24b 5f71 dbbf a92a 1cd0 0a04 d13f
000001b0: bc52 f947 31d3 b0bf b3c9 9ca5 31dd c93f
000001c0: 57dd 2d39 cb19 ccbf 797f a0b1 c698 75bf
000001d0: 4e17 11b5 13c1 c23f 85d8 32a4 bac2 c1bf
000001e0: d4aa c614 ab4b d23f 3a89 842c ecaa b93f
000001f0: fb87 2efd 8c8d d5bf 4195 5792 f916 e0bf
00000200: bb6c f8c7 268b c8bf b357 a153 61eb c1bf
00000210: 93f4 00be 2844 df3f a5ae 67a9 4e09 d4bf
00000220: d3b5 04e0 8680 edbf 8ebc 3a05 4bdf b93f
00000230: a318 5cf3 a9ea c73f 91c3 4fcc 5e92 c63f
00000240: 7ffc b03a e685 c53f 4a16 86e5 58c9 bb3f
00000250: 3522 a7ba 0b70 a0bf 6533 8967 63e1 cd3f
00000260: 4f44 8fee 5839 da3f 9564 c6d7 ec86 d83f
00000270: b4f1 27ef 5fba cfbf be74 45f5 5d4d a6bf
00000280: 0b7d 6ef3 95c0 583f a488 3e07 020d 8bbf
00000290: f75e dd44 a8c2 d6bf 1ecd 20a9 137e b9bf
000002a0: 2e18 5c5a 8837 ddbf 2b8b 2c62 a77b cc3f
000002b0: d062 b20c 2b14 d23f 0d95 531a 7abb d43f
000002c0: 6155 17de 03bd dd3f bca0 0e65 8aa7 ce3f
000002d0: 3e5d a9ca 715e d13f 68ac bfd0 7b8d bc3f
000002e0: 6761 e9b9 d75d b6bf 43c8 0999 ac38 c5bf
000002f0: c767 b87d b904 c03f bdbc 2940 de3c d6bf
00000300: ad0b 0b50 1bfc c93f 6528 72c4 16d5 c0bf
00000310: 956a 4c9f efd1 c1bf e62b 3a52 5e51 d43f
00000320: 1561 7ff6 5ea6 da3f f1fc 275b 4242 db3f
00000330: ec4c dfcc 50c1 cebf a757 5485 b863 8c3f
00000340: 5116 df26 7137 db3f 4158 308a 0409 c63f
00000350: 46d8 aa39 f287 c6bf 0664 c024 a573 933f
00000360: a7ba 6f7a fffa bfbf f563 91f7 8eef d33f
00000370: 0744 ed9d 291b d5bf a7cb a02a 373a c03f
00000380: 6481 3b2c 8260 d8bf ae3e 3c70 f463 debf
00000390: 39ca 4adb ca64 babf 9742 8ab9 8177 d3bf
000003a0: 00aa a4cd 7d85 b03f c7b4 1207 3ff9 dc3f
000003b0: 3dae 745f fc83 cdbf 5472 6805 4d3a d1bf
000003c0: 26e4 3a6b f000 cc3f b190 f199 e7d5 d93f
000003d0: 2ebe b283 6841 5dbf aea5 fcae 7d4c b83f
000003e0: 9f3f 811b e0fb e7bf 878d e415 a0dd c5bf
000003f0: c2f6 8905 9485 bebf 61a4 bd77 65d8 d93f
00000400: 1010 6a62 854b cb3f 407b d03c 80fc dcbf
00000410: 164b f1a5 e3ab c1bf 64d7 8789 815f ccbf
00000420: 4545 a737 78e6 e0bf 3071 9b0b f869 dabf
00000430: 800c 15c1 4be3 cfbf 4f0e b9d0 d675 df3f
00000440: fb66 741b 9a67 df3f bb51 02be 01e4 d0bf
00000450: d353 7460 6742 cdbf 5671 9254 dd0b c23f
00000460: 2d05 c60c ebea c03f 9f93 8fcc 6403 d5bf
00000470: 0a55 5acf c0e7 e3bf 0c8f 12d0 f98c d73f
00000480: 8259 bd1d 7104 6abf e6f0 9eb8 276b d03f
00000490: e31c 304d 2fb2 d03f 84dd 3136 6ae8 c53f
000004a0: a819 4f60 7476 d5bf 662d 4d9b f7ad cb3f
000004b0: 344f b520 6963 bfbf 3c8e bca2 412c 933f
000004c0: 3cef 7e96 ea1d c4bf 8dd4 b18f c490 c03f
000004d0: 6e56 38f6 f19b bd3f dfac 0235 0d61 d1bf
000004e0: 859e a17b 60e1 b7bf c98f 6d25 5242 cebf
000004f0: b76f d5f9 b81a d6bf b54a ad5f ffaf dfbf
00000500: 5a59 b1b4 e4b1 cebf 2c4f 6433 c68c dcbf
00000510: 6d32 c554 e65e e23f 3936 3795 c012 e33f
00000520: e30d 2487 a292 debf a74a 9808 f11d cd3f
00000530: 93ac 4af1 e3f6 cd3f 1f31 3869 426f 94bf
00000540: 57aa 6cb6 b682 c6bf ff3b bbb8 3192 b5bf
00000550: 45fb 6347 73e3 d83f a738 709d c9cf cfbf
00000560: 839d ae01 82e5 ccbf be0b 7303 717d ddbf
00000570: c85f 8221 e2df 983f 60cc 3158 889a ca3f
00000580: 8968 0fcc bd38 d4bf 4f80 6fb8 4c35 bf3f
00000590: bfbd 61cc b23c b53f af8e 7d88 d3e3 d13f
000005a0: 74d0 e0a2 7f6e a6bf 9dba 93dc 54a1 c6bf
000005b0: cdef 736e b717 a43f e1e1 f530 f66e d23f
000005c0: d3ce 46a0 5c50 d23f fac8 0411 f499 c33f
000005d0: fcb0 204e eb35 c33f 956e 1911 9a0e cdbf
000005e0: 2d7b 8bea 6509 c53f fa9a 6a64 8318 b83f
000005f0: 913f 3154 58f9 ddbf c3a9 ec7d 267f ae3f
00000600: 280e b848 54a5 a4bf b2e8 9e60 ef64 c5bf
00000610: 13e7 2bef 3b4e c4bf e1d2 d9f3 9d8d b83f
00000620: f33d d0c5 c963 e0bf bb9b f216 62a6 d23f
00000630: b623 bde7 f3b7 d9bf aa2b 8456 e47d d1bf
0.19314670073119655 -0.08060700636923174 -0.43622931230389145 -0.0009814934615209184 -0.23559772018724498 0.23886971514503616 0.12344152828907572 0.06965397284551143
0.40780824545354905 -0.22467669829037498 0.14120469513924888 -0.27082387355056403 0.5054201613641527 0.4505646995409716 0.3113436921058938 -0.006854383305324798
-0.19274703779611332 -0.23352553640010273 0.40792999061426777 0.4405677296815334 0.1754998006509483 0.22289731083444503 -0.25827931523611847 0.017494290345938718
0.44694733843745776 0.09083961836581522 -0.4374315460150637 -0.3498379288214317 0.1407764600636726 -0.2870667942542128 0.4481026179926187 -0.08565738858406154
-0.2128078653346622 0.14158320646309183 -0.2337810242472068 0.13478333736090217 -0.2938261606220438 -0.3307690783452019 -0.4324925629625738 0.33152992292612593
0.013487891886841241 0.0248141111674632 0.01260168995240961 0.14464569353572185 0.2985056955904644 0.14905370293796266 0.6749365068280827 0.16951549074363056
-0.5452220304572094 -0.09578170380858295 -0.23516852321286413 0.055726285162689446 -0.4287946931542942 0.2658717186283562 -0.0657225418775153 0.2020628031401209
-0.21953716556502442 -0.0052726518133850925 0.14651724187040788 -0.1387551595450455 0.2858684256449753 0.10026432120188114 -0.336764571426215 -0.5028045519108347
-0.19174656643085605 -0.1399957331038287 0.48853510432292885 -0.3130680708261287 -0.9219393134459842 0.10106343152686945 0.18684887297439898 0.17634186721946013
0.16814878335751257 0.10854106525047161 -0.032104841742299696 0.23344080501046985 0.4097502069171854 0.38323517867827067 -0.24787520577946298 -0.043559013548227096
0.0015107597698501031 -0.013208404394223834 -0.355630938769067 -0.09958002928833706 -0.4565144426745772 0.22252361577656052 0.2824809669487367 0.3239426858038577
0.4646615666254857 0.23948793348723096 0.271389434730242 0.11153386923221975 -0.0873694256673666 -0.16579205963677354 0.12514418257415924 -0.3474650980560446
0.2030061856113127 -0.13150295822225924 -0.13921923902747282 0.31746633558276327 0.41640447685269183 0.4259191408345507 -0.24027452472237287 0.013862077301876342
0.4252589110950327 0.17215019938947942 -0.17602374854840458 0.018995838516364237 -0.12492367495699828 0.31149648834758575 -0.3297828714613051 0.1267765958924347
-0.380890410609956 -0.4748507591293486 -0.10310047010242664 -0.3041691123881178 0.06453691740595247 0.45271278086404404 -0.2305903879254049 -0.2691834023296782
0.2187786601623724 0.40368070634418546 -0.0017856140755546745 0.0949171592916602 -0.7494965111927633 -0.17082596844657535 -0.11922574172236991 0.4038327855437896
0.21324221902261842 -0.45291143359093056 -0.1380581436411254 -0.22166461196291742 -0.5281334959965213 -0.4127178300239107 -0.24912402084200735 0.49156732924550267
0.49069836312411014 -0.2639164310033057 -0.2285889836281557 0.1409870779942916 0.13216913341242656 -0.32833213783879417 -0.622040181146674 0.36797948188380825
-0.003175946168919087 0.2565402319849127 0.2608755353725895 0.17115523954610634 -0.33535489468740787 0.21624655802802834 -0.12261063622036944 0.01872351222767875
-0.1571629748194655 0.12941796318378743 0.11566078435165547 -0.2715485589676074 -0.09328272837012193 -0.2363989527467523 -0.3453810157568528 -0.49511703818749747
-0.2398038751877703 -0.4460921766160364 0.5740844398183761 0.596039096295221 -0.4776998824820266 0.22747624320671386 0.2340969970876797 -0.01995567099770412
-0.17586406619496373 -0.08426199684184608 0.38888246509298013 -0.24852867305202617 -0.22575402338155123 -0.46078133904319063 0.024291547103160643 0.20784096056340484
-0.31596321990731063 0.12190703871556362 0.08295743455686642 0.2795304139055856 -0.04381178725489657 -0.17679844637264788 0.039243442757623016 0.2880225637559573
0.28615489627848695 0.15313578444472126 0.15008298220471505 -0.22700811228684317 0.1643493075598256 0.09412404252598697 -0.4683438131514715 0.05956383025325664
-0.04032386195833865 -0.16714279382523994 -0.1586375158147396 0.09591090396299819 -0.5121811736625531 0.29140522232995253 -0.4018525851320719 -0.2733088345418603

bias f8 [50]
00000000: aa9a fcca d18d e03f c8cf a007 fa59 d5bf
00000010: 4270 98ae 3e45 d7bf 9295 2359 043f d13f
00000020: f0c0 ad9b 5d36 cc3f 09e3 b204 8a26 d33f
00000030: e44b da57 4d9f d0bf 960e a0b6 74b8 de3f
00000040: 4ce2 5272 20b6 ddbf f26e 94d4 3715 cfbf
00000050: 0a0f ef74 8b98 bf3f 90bb 0d2d d2ac d3bf
00000060: 18a5 c59e fc8a d03f e900 39cd d1ed d23f
00000070: 83ba ed21 e11b d33f 199b 9f29 1ce5 d3bf
00000080: 0233 b700 acaf dabf e247 a2c7 47a4 bdbf
00000090: 1314 05a7 a12f 6dbf 0783 a540 8ed6 d83f
000000a0: 8016 9f4a caab de3f c1a3 10ea 7a6f da3f
000000b0: 6400 a120 2791 d33f 0e24 5133 58b9 d6bf
000000c0: c1ea 0662 54b8 c03f ba5e c5dd 1ce8 cf3f
000000d0: 1c8b f072 92f3 d0bf 4ebe 21f8 922d ddbf
000000e0: 8e54 155f dd94 cc3f 9a4d 1859 6e26 c93f
000000f0: 7b59 feb5 ed85 bdbf 0bc2 05ea 5a37 a7bf
00000100: 2cfd c186 d89c c73f 0ed6 1148 6fb1 b9bf
00000110: 4393 4616 927b a83f 31bf ea1e 9a8a b6bf
00000120: b7c0 d510 550c d3bf c18a 75a4 496d d13f
00000130: eae8 b81c ae3d c33f b33f 2cf5 39da d53f
00000140: 19cf a136 3494 c03f 0652 3c7b 4faa d9bf
00000150: faa5 5726 c948 d7bf 051c 7b75 4be5 c23f
00000160: 5835 7e73 be3a ccbf 8fed 5d90 cfde dc3f
00000170: 6a25 8685 058e c13f 86c9 1877 862b 893f
00000180: 7f56 ab12 7315 d03f 8c23 94e5 1db1 d83f
0.5173119511208217 -0.33361674065531277 -0.36360137033785034 0.2694712515352303 0.22040910817623383 0.2992272420774929 -0.25972302989356266 0.48000829538816825
-0.4642411343043349 -0.24283502464174195 0.1234213982089011 -0.30742315673608633 0.25848308091242833 0.29576535264278775 0.2985766249975443 -0.3108587652663331
-0.41697216100583046 -0.11578796981692066 -0.003562751510033832 0.3880954390825057 0.4792352417683574 0.4130542074004176 0.3057344263688775 -0.3550625325338509
0.13062529360271039 0.2492710192552659 -0.2648664591271641 -0.455906622234555 0.2232929910921126 0.1964853224786623 -0.11532483761980032 -0.045344201152037376
0.18447405414551932 -0.1003636885596608 0.04781776925964334 -0.08805239920434073 -0.29762770313301296 0.272295389752042 0.15031982805687188 0.34144448225651586
0.12952282588559497 -0.40101992640237005 -0.3638174890935201 0.1476225207936467 -0.22054272307688438 0.4510992917855327 0.1371466543171594 0.012290049085184728
0.2513091738049766 0.38581035060683955

weight f8 [50, 50]
00000000: ae38 d04c 59cb b43f 8e74 28b7 b9d7 bc3f
00000010: 661e e237 9281 943f 8bae 2b61 03a3 c0bf
00000020: d52f 1b76 be54 ba3f 7369 edc9 64c9 bebf
00000030: 8129 63d7 a440 b6bf ea6d 3656 7b93 85bf
00000040: 202c 47b5 12a0 b1bf 64cf a0e4 e572 903f
00000050: 980a c314 ca45 953f bed5 3329 4f06 d3bf
00000060: 2423 8105 0ae0 a9bf 5a52 f97e 48b1 acbf
00000070: dfe1 be35 f34b b5bf be3a d448 f560 b23f
00000080: f4ad b627 9c3d 92bf fb3e 07bd 258c c0bf
00000090: fde7 fb6e bb4d c5bf f290 3cd6 daa7 af3f
000000a0: c087 be98 1f03 8bbf 8634 e8a4 d8aa 9cbf
000000b0: 3c15 fc46 46fd b4bf ad1e e5e2 b04c bdbf
000000c0: 449e 4aa1 32d8 bf3f 04aa 4964 1481 c2bf
000000d0: 5146 3b57 7257 ba3f ea0c 6bd5 0399 b33f
000000e0: 62fb 2c34 6d01 b03f a13d c5c1 82df a73f
000000f0: b85a 4090 506f e33f 4388 27f0 a787 94bf
00000100: e090 2948 a012 ba3f 86ca 8ab1 4977 803f
00000110: fa41 6987 f093 c13f 5ca1 1962 0a3b b73f
00000120: ba1e 9907 6be2 a23f 5975 d5b4 dcb0 623f
00000130: 0067 d3fc e2e8 a53f 6d63 9109 4d93 a2bf
00000140: 61ca f32a a9ce b4bf 804a 6465 62ab 8f3f
00000150: b4da c341 7e88 93bf 3497 21cb e39b 853f
00000160: 9aa5 aa30 b702 433f e9b1 b59b 3b04 c23f
00000170: 8281 1731 27a8 8a3f 3261 6ffa ecbe c73f
00000180: e083 3036 3d1a c23f 65a7 4016 699d b1bf
00000190: b433 d891 4f01 7dbf d21c 883a 5f30 883f
000001a0: 0ec5 1ed4 023c a9bf e942 9597 8aa8 a33f
000001b0: 8da8 9a9e cb77 b53f aa6c 0966 3a32 a7bf
000001c0: df46 ced8 7472 acbf 0a0a 4802 e941 a13f
000001d0: baa7 8b58 6a99 aebf 7255 3e47 a0c8 bf3f
000001e0: 8d3d 9361 1f2e 9e3f b4ff 0dfb 7c11 c13f
000001f0: 7fc1 17ee 67ea b5bf b182 06d8 3ddc b7bf
00000200: b9b8 5bfe 4b02 a8bf b22f 31cd d8ce babf
00000210: 1fc4 d6b3 e811 b5bf a6cc 6706 3bce aa3f
00000220: 56c8 85aa 74e8 893f 80d8 e683 f38d 9c3f
00000230: c1f3 8690 ec34 b0bf 8ef5 fec0 c53f b2bf
00000240: 1ad3 544b f9f1 b3bf d094 6a5b 4a1f b3bf
00000250: 0c15 01dc 0de4 b93f 7f50 fbcb 3af0 a3bf
00000260: 5793 1860 6145 a33f 3e97 62eb f75f b4bf
00000270: d3d7 8d4b 19d8 bf3f 38a8 d0bf de43 bc3f
00000280: 111f 9a10 0793 bf3f 625d eb6c 9bd0 b23f
00000290: 76d6 12a4 1637 943f b1fe cca0 77d8 bdbf
000002a0: b1d2 d878 bd43 b63f 4dc4 aed1 602d b3bf
000002b0: 2372 1e63 1c06 39bf 27f8 744f 2bba 8bbf
000002c0: cbd3 d7b4 02f0 b9bf 335b 8afb 3fb0 b4bf
000002d0: 2b7d 5bae bca4 b53f 3f52 43f1 7c1b bfbf
000002e0: 9ea8 6bff 1377 62bf 2424 4632 2524 96bf
000002f0: dadc e8cd de5a a2bf 44b5 4462 ebe1 adbf
00000300: 7ce8 4514 62fe bdbf a834 91d0 01d5 933f
00000310: ae3f 41c8 5a15 bdbf 0f77 2863 582e bc3f
00000320: 17a5 4d1b 690c 993f 4f5f 746e 3a6c 893f
00000330: b87e c2a4 30df c1bf 50c4 6774 df6c a93f
00000340: 8996 f8d4 e7a5 b23f c3c7 953c c12e 993f
00000350: bf8b 1594 88f6 adbf 935a 2b11 7d73 c6bf
00000360: 1090 b1a7 3b1f a9bf 5fcb e122 b2f1 a4bf
00000370: 0164 740e 8c32 a9bf 1475 0ca4 3c71 d0bf
00000380: eb1a bd0d 7702 ba3f 5422 b850 197f d23f
00000390: 78f1 1252 3266 c53f 92a9 3ecc 1a0b a23f
000003a0: fec7 f479 f210 963f 7135 3ba0 abae ba3f
000003b0: ae83 6042 2c6c c53f 5544 319e 878f ac3f
000003c0: bc40 004f 4de5 a63f c8e9 36fa 2c8a bebf
000003d0: d742 f66f 16fd b1bf f72e a3a1 10aa bc3f
000003e0: e844 693c 53c0 af3f 752c 6572 8d7b b03f
000003f0: bb7f 2c8a e5c8 6cbf 9a60 6b1c 0e4f b4bf
00000400: 33da 41b0 ed2e a0bf fa6a fc3a a214 b6bf
00000410: 06a4 4e07 c879 bbbf 67da 78ca 349b d63f
00000420: 02ed 5903 d733 99bf bda3 147f c857 863f
00000430: f685 b8fa f34e a53f 2f38 cf4f 014d debf
00000440: ce59 39b5 87ea a43f c15b e1e5 c6d7 c13f
00000450: 47cd b22d d2e0 c6bf e9ef fdcc 5876 c43f
00000460: bf57 aaf2 80eb 9a3f 277a 5b14 7337 7f3f
00000470: f037 cf55 2881 5bbf eed2 3567 bac0 d0bf
00000480: f6e1 bd42 be2e b93f e620 cb56 bc5e b53f
00000490: 0c59 6b60 8291 a63f 2ecf 45e8 99fd c33f
000004a0: b77a 4da5 33ee d03f 4015 d41f c089 cf3f
000004b0: f0f9 8cc9 8121 c23f 3ec0 c8ad 44db b93f
000004c0: fc41 a18f d9a0 93bf ff82 2893 9733 a0bf
000004d0: 2e9c c9cf f17a a73f 4307 cc16 6d08 a0bf
000004e0: cec6 db2d 080f b5bf 6643 da7f 6111 a83f
000004f0: 3afa 6d7e ea6f babf 6d48 1e12 10ae b1bf
00000500: 1db8 9701 a704 ba3f aa72 9d56 eae8 a63f
00000510: d138 2e39 d4ed 773f 0510 8c4c 7194 c33f
00000520: 1c4a 6c01 1333 80bf 2cb3 7bc2 5f29 aebf
00000530: 7543 079a 291c abbf 4065 1bfa f1f1 b83f
00000540: 5f4e 3022 0215 90bf 0c24 4fd1 5d68 c13f
00000550: 9962 9934 1799 b3bf ab86 cd1b c904 abbf
00000560: 4414 349c 244a 80bf 76da aa20 b06b b5bf
00000570: 515f 5c4f 410c b4bf e221 b070 160c a3bf
00000580: 0a06 db23 db2a a2bf 733c 8b51 c253 ba3f
00000590: 7605 a126 609a 9ebf d3cd cf11 4b3d a93f
000005a0: abfe e6e5 0dff b43f 98a5 05a0 f1f0 b6bf
000005b0: e157 9876 4e54 a9bf 872c f015 abe6 ba3f
000005c0: d843 f6fa 8711 413f 9f8c 770e e940 91bf
000005d0: 52ff 4cee e994 b4bf b05f 0bed 0e08 6ebf
000005e0: d504 54ed 4e41 a43f 4869 eca4 3229 a83f
000005f0: 4a9c d18f 291e b43f 4049 0c0d 2b72 a93f
00000600: b3a1 26cc 8201 bd3f 4764 1d82 72a0 a93f
00000610: 009f 7e84 581f b5bf 2183 49d6 474f c63f
00000620: 140e 764d 0662 b2bf 6fae 394b a720 a2bf
00000630: c299 27bf 1da0 a8bf d723 7c4e c313 c53f
00000640: 664f deb8 6f04 c23f d488 6a6f 148b bdbf
00000650: 5fee c090 d829 553f bb9f 7603 65ca b63f
00000660: a9e1 83de 8495 8cbf f699 fb08 e0ed 9b3f
00000670: eb07 faf3 5fc8 94bf 296b 782e 059a bb3f
00000680: 79b7 dc7e 4a56 b23f 258e ca89 f316 753f
00000690: a1b2 b567 64e7 943f fd6e e7d7 2421 b83f
000006a0: f7a2 16d3 e9ea a73f 5dd4 281b b691 bbbf
000006b0: be57 7904 b112 813f 1426 1b0f 05b0 a33f
000006c0: 81e5 3433 db7d 92bf b624 16e4 e67a 97bf
000006d0: f3eb a2f9 0494 933f 964c c4cb 4866 b83f
000006e0: edca 21d5 1ac4 b63f c9f1 02b6 e3e8 663f
000006f0: fd9d b7fa b085 bf3f ac80 885a 51a9 bd3f
00000700: 0a4a 8de8 b5ff b53f 7152 22de 19fb bd3f
00000710: e79d ab3c 1590 c13f d36b 9664 711b bf3f
00000720: 5bcb c92d 5b8a b9bf 856a 0d90 1639 aa3f
00000730: 21ae e84e d356 b13f 69c5 1ef7 151a 92bf
00000740: b9bc 7450 db81 b3bf 2cdb 1bd8 7125 ae3f
00000750: d7dd f9b1 af0e c03f c4d2 4dd6 24b2 a33f
00000760: efb1 4341 440e c53f cb65 94c4 2918 b4bf
00000770: 7e66 09b8 b684 ad3f 1a50 d446 1f76 bc3f
00000780: 3746 b7ff c2b9 b1bf a222 a526 a635 ab3f
00000790: 525c 90a0 a86e a73f 40f8 a75d ba0a b53f
000007a0: 0c86 b4e4 3e9f 943f 3279 9280 acbc aebf
000007b0: 085a 69b6 f600 a53f 602c 1b38 3bd0 b6bf
000007c0: c4da 9e0e 0df5 b23f f84a 65ed 1f6c 9bbf
000007d0: d2a7 27ce 10f5 b03f 73e0 d619 ec1f bc3f
000007e0: eb95 623d 1a74 b9bf 43ab 51a4 5a7c a33f
000007f0: a7ed 82ec 44db 99bf df86 f0ea a5f2 a93f
0.08122785687757769 0.11266670915252261 0.020025524769634727 -0.12997476811084527 0.10285559066249957 -0.12026052408092429 -0.08692388781051898 -0.01053520542955418
-0.06884877134068335 0.016063301162105317 0.020774037854389776 -0.29726008437804896 -0.05053740803902532 -0.05604006338095209 -0.08319015562199848 0.07179196384479788
-0.01781314842598465 -0.1292769597043771 -0.16643469733372732 0.061827505733420454 -0.013189551209339956 -0.027995476784827854 -0.08198966248535994 -0.1144514612143392
0.12439266622333728 -0.144564198464039 0.1028968298881179 0.07655357323078574 0.06252176784344735 0.046627126840230966 0.6073382203492974 -0.020048736603605965
0.10184671174789939 0.008040023546844976 0.13732725726960365 0.09074463744184896 0.03688368289709616 0.0022816000625158037 0.042792409288905375 -0.03628006688877048
-0.08127839373245528 0.01546360847399808 -0.0190753677024655 0.010551242481777835 0.0005801577074936893 0.14075417616858424 0.013016039071715783 0.18551408985400425
0.14142575403187063 -0.06880814355159044 -0.007081328219567352 0.011811012243028083 -0.04928597297056046 0.03839524364832931 0.0838591825692296 -0.045305085139909565
-0.055560733285472834 0.03370597985123787 -0.05976421671751049 0.124155061143332 0.029472818689837466 0.13334619768647615 -0.08560800135433587 -0.0932043697744216
-0.046892523574443463 -0.10471873292516312 -0.08230451956366423 0.05235466435615281 0.012650405363022237 0.027885250974315046 -0.06330755737776796 -0.07128559076132587
-0.07791097726005738 -0.07469620448917458 0.10113607999035795 -0.03894218196879339 0.037638705234974416 -0.07958936211306608 0.12439115614492317 0.1104106157587531
0.12333721309016378 0.07349559220471272 0.019741395725495235 -0.11658427882957302 0.08697113228192667 -0.07491116637426494 -0.0003818339638373155 -0.013538683283169274
-0.10131852069009921 -0.08081436053394668 0.08454493767520847 -0.12151318445405311 -0.002254046495513042 -0.021622258370857975 -0.03584953559441724 -0.05836425375523871
-0.11716282839725695 0.01936724505894874 -0.11360709561381441 0.11008217259265173 0.0244614050783741 0.01241346025066972 -0.1396237186900089 0.049658759078632486
0.07284401845444156 0.02459241802484492 -0.05852152640979779 -0.17539943064067084 -0.04906641408959456 -0.040906492956216615 -0.04921376873443962 -0.25691143055321786
0.10160011372964177 0.28900750048390944 0.16718129165191065 0.035240971977447036 0.021549023336042687 0.10422775899788463 0.16736367455544382 0.05578254514751594
0.04471818532340552 -0.1192958937525993 -0.07026806100317216 0.11196998544908952 0.06201419937554836 0.06438526194431111 -0.003513763732726686 -0.07933128541788151
-0.0316080358178862 -0.08625234546745367 -0.1073269861068554 0.3532230355516845 -0.024611816005273297 0.010909620645706991 0.04161798892551964 -0.4734500197781725
0.040851822731088214 0.13939748978256541 -0.1787359927308023 0.15986166009304206 0.026289000331040088 0.007621240167024846 -0.0016787427805300369 -0.26176319197774844
0.09836949471890208 0.08347680205327243 0.04407889773362869 0.1561767944473273 0.26453868048512724 0.2463913112079954 0.14164755193083023 0.1010020183828155
-0.019168280974840343 -0.03164361640324919 0.0458598676821612 -0.0313142862633087 -0.0822606193503603 0.047007605416303375 -0.10327020250949995 -0.06906223718968514
0.10163348950274594 0.044745753358005416 0.005842045781618136 0.15296760785724942 -0.0079099163827197 -0.05890940903723271 -0.052949237873355516 0.09744179111603035
-0.015705140434944528 0.13599751205609356 -0.07655472788008878 -0.05277088608160104 -0.00795391656584788 -0.0836744384531388 -0.0783119982482934 -0.037201596504079296
-0.03548321545305207 0.10284056177919058 -0.029885771138883986 0.04929575531414412 0.08201681959962552 -0.08961401135242963 -0.04947133252805692 0.10508221898651203
0.0005208887068183189 -0.016849175937647783 -0.08039724414720453 -0.003665951874022931 0.039560762854316124 0.047189314491520806 0.07858524094773248 0.04969915899541144
0.11330430492546988 0.050052240737109836 -0.08250954851848391 0.17429445231666654 -0.0718082369913236 -0.03540537637021834 -0.04809658964568399 0.16466561634322716
0.1407603886296968 -0.115403439713677 0.0012917151352799456 0.0890257962661271 -0.013957059898971407 0.02727460913492937 -0.02029561926475047 0.10781891235857856
0.07162919614049014 0.005148841210629783 0.020413941221181123 0.09425573607535039 0.046714121835355664 -0.10769212878297325 0.008336432408366675 0.038452299207687585
-0.018058228493122556 -0.02292977110986235 0.019119336830708943 0.09531073546195254 0.08892982200067552 0.002796597240459973 0.1231337177374527 0.11586483440669565
0.08593308379685297 0.11711274789042549 0.13720956289692696 0.12151249604941876 -0.09976739757420942 0.051216797909281055 0.06773110081183421 -0.017677634437580112
-0.07620020593889167 0.05887943041846308 0.12544819059597387 0.03846850505843727 0.1644978827165597 -0.0784937004977088 0.057653150525493566 0.11117740134460555
-0.06924074881615004 0.05314368459454967 0.04576613388069774 0.08219494616057066 0.0201387240496214 -0.06003321713909528 0.041022977606804345 -0.0891148578622718
0.07405168158480097 -0.026779650558931473 0.06623940499380801 0.10986209517329985 -0.09942783354434652 0.03805812126014143 -0.025250508246910688 0.05067938321032072

bias f8 [50]
00000000: 8ad6 ad42 5867 8ebf 21c4 271a 4f75 b8bf
00000010: 8654 9300 a64c a1bf 94e5 cc9f b330 ab3f
00000020: c203 c9ae 26aa b7bf fa37 6050 9303 93bf
00000030: 8056 5a52 e895 7ebf 5d77 552c 833b 95bf
00000040: 5b5b f527 3e21 ae3f bea6 9c75 3aa0 c63f
00000050: 4eda d9a4 f869 b9bf dc30 0528 054f a5bf
00000060: a970 a1a3 10ea 95bf 4b17 f700 56db bb3f
00000070: 89f0 f864 d028 c13f 45c1 4a57 b23d c13f
00000080: 24fc 8952 b496 7d3f 7708 dcff 239c b7bf
00000090: b27a 5da1 34ea a03f e00c 3451 3e7b c13f
000000a0: 9357 516c f8dc abbf d169 610a 2975 bd3f
000000b0: 8cb7 9dc3 00dd bbbf 9927 4adf edf7 b83f
000000c0: a2af 90de 8a07 b13f 84d0 9874 3791 ae3f
000000d0: 5061 211d e1b7 b3bf 28db 4245 dc3e b3bf
000000e0: 22ea 244e fbe7 b1bf 8864 31e5 2420 b63f
000000f0: 1dcf 9c30 9116 a13f 9a28 6c4c 329d ba3f
00000100: db64 7061 3d0f b9bf 0781 d519 a71d be3f
00000110: 33a5 50e1 7c28 abbf 7bdb 66b1 61b6 8d3f
00000120: f91b 6913 00c8 abbf af6e 9a01 cda3 813f
00000130: 3a2d 0bda 9a0c 5cbf 8d2c 8a82 1ae8 c1bf
00000140: 2af8 4e3a fb03 a83f 0dd7 5f37 2198 933f
00000150: 1b0a 809b 1240 b1bf 1913 4b8d e90d b3bf
00000160: 0671 6d39 5ea9 bc3f c265 bf66 1df6 babf
00000170: 426d 584a 315d a9bf aad7 6567 b3d7 b1bf
00000180: 2f55 c042 0a9a a93f 44de 1817 1802 bf3f
-0.014845552000888124 -0.09553999317701357 -0.03378790623688936 0.05310593915641984 -0.09244004981248025 -0.018568326740982834 -0.007467181688885938 -0.020734834271358128
0.05884737241529222 0.17676478140611168 -0.09927324318582828 -0.04161850083855409 -0.021400699603291305 0.10881555102886613 0.13405804567617377 0.1346953321676755
0.007223801025815244 -0.09222626682825018 0.03303684682645293 0.13657359089857035 -0.054420245382672004 0.11506897452765165 -0.10884098792823077 0.09753309918792609
0.0665213387844106 0.0597016649084319 -0.07702452622595968 -0.07517792406984525 -0.06994600923363994 0.08642798038035171 0.03337529867567766 0.10396112790854986
-0.09788879040606295 0.11763996487343685 -0.053043272499346726 0.014508021570561294 -0.054260256165939276 0.008613206492831564 -0.0017119896148639195 -0.13989573835383276
0.04690537535451285 0.01913501644590725 -0.06738392158880695 -0.07443103503744587 0.11195935155905454 -0.10531791456687414 -0.04953912766014891 -0.06969758295403375
0.050003357551910425 0.12112570346732193
