lasa_models/1/skel_model_Khamesh.pt (torch, 99247 bytes, 18 tensors)

R f8 [20, 20]
0	0x3fea818def73b62c	0.8283147503659101
1	0x3fec17ad7eb47045	0.8778903460220212
2	0x3fd3e4d5e51f6a99	0.3108420121695104
3	0x3fdfd8b969f9c466	0.49760279988465184
4	0x3fe1e628dea88c80	0.5593456600949054
5	0x3fd2914fb600bc54	0.2901191022273839
6	0x3fe1d88354fe5648	0.5576798114804626
7	0x3fd3b9f535aaec08	0.30822496644003694
8	0x3fec3d37adac3ac6	0.8824728385969471
9	0x3fe36c9b20ca9463	0.6070075645881271
10	0x3fead20e155fa013	0.8381414811565285
11	0x3fec870358065aca	0.8914810866579839
12	0x3fe11568bedb276f	0.533863423124087
13	0x3fec1e20e4da5799	0.878677794435805
14	0x3fd3f68a01f9a13a	0.3119225520408865
15	0x3fcc13ebec517900	0.21935795821168114
16	0x3fcfd707b03c13f3	0.24874969582756953
17	0x3fe39953bed9da92	0.6124666907843042
18	0x3febf9066508443f	0.8741485570227566
19	0x3fd010ca81465778	0.25102484344949216
20	0x3febd3f7b187808d	0.8696249453896755
21	0x3fde0b16b18fd8a0	0.46942679729489534
22	0x3fecb29597860e1d	0.8967998465963692
23	0x3fdc3ac39acd1948	0.4410866748552462
24	0x3fe327926d8b2cf5	0.5985805644535548
25	0x3fea4bf3d55f9b2e	0.8217715423059866
26	0xbfb9d7cc7e98e68d	-0.10094907847169506
27	0x3fe6926e8721eae8	0.7053749694162805
28	0x3fe14246262a7957	0.5393400903156288
29	0x3fcc9e50308bfc54	0.22358133669328828
30	0x3fe9cec499215eee	0.8064902296855203
31	0x3fe359e1e5168b33	0.6047219728828622
32	0x3fe2be0dd0de5c50	0.585699947306134
33	0x3fd927799655d6e6	0.39303435975248957
34	0x3f844c4c4be52e10	0.009911151949061142
35	0x3fdb0f372842479b	0.42280367785962775
36	0x3fd74b14e3373770	0.3639576167014331
37	0x3fc1b7eb5417ff8f	0.13842527013912018
38	0x3fe0fee59195fa2a	0.5311153262590029
39	0x3fc915e718097f2b	0.1959809176796566
40	0x3fddf6a9fcb9f517	0.468180176547166
41	0x3fe58145e00c009f	0.6720303893962586
42	0x3fc36e3e7f748488	0.1518018839206301
43	0x3fc8d5b65ac3ecdf	0.1940219824972251
44	0x3fb2fb93a770cf76	0.07415125692278743
45	0x3fad51fb03e11814	0.05726608679155745
46	0xbf93412712cfe77a	-0.018803225062562025
47	0x3feefb0c04ae07b0	0.9681453792002142
48	0x3ff4f499efbd11f5	1.3097171177661242
49	0x3fe0ee3eef4a0a60	0.529082743989715
50	0x3fc23aef2dca3dfa	0.1424235318740868
51	0x3fda307aa590d76b	0.4092089287618054
52	0x3fe86a0ecccd452b	0.7629465103183625
53	0x3fdfe86a0e9b5d97	0.4985604422231175
54	0x3f384e048297e8c9	0.0003708611498890566
55	0x3fd7c457cf651529	0.37135882619289134
56	0x3feafdbe8c68487c	0.8434746496516392
57	0x3fc54e173abd7e82	0.16644564026045222
58	0xbfa863b05d06791f	-0.04763556609690255
59	0x3fe80733bfe862a7	0.7508791683386179
60	0x3fe5c60498667bb1	0.6804221130913587
61	0x3fee1f0f9ee6526b	0.9412916282186193
62	0x3fa6b1cbf215c1da	0.04432523088587788
63	0x3fd925e5366f75ce	0.39293794933277304
64	0x3fec0b7e9c221fbf	0.8764031457403617
65	0x3feac1807303c5fc	0.8361208197003971
66	0x3fde90d6cd07b2bc	0.47759027502506135
67	0x3fe3a06f693526df	0.6133343748890318
68	0x3fefe1d565730867	0.9963175755913313
69	0x3fd9e0d1a864cf38	0.4043468613119674
70	0x3fd7e7c41c191ef9	0.3735208773036756
71	0x3fd634f0b3907c82	0.34698121581636354
72	0x3fe8de4bebc42365	0.777135811310569
73	0x3fe326df3c92f797	0.598495119389315
74	0x3fe9c3e3d8f872ec	0.8051623571114681
75	0x3fe566594f23bedf	0.6687437577911303
76	0x3fbd2ebfdc674748	0.1139945901006999
77	0x3fd82964d63b0824	0.37752648278194756
78	0x3fe07caa2cbc79cf	0.5152178643946231
79	0x3fe71c44319fb616	0.7222004861084226
80	0x3fc2d5c5f0692b64	0.14714884032067765
81	0x3fecad2c27a20d99	0.8961392187197134
82	0x3fddc09532410294	0.4648793211709201
83	0x3fdebf8ce29f0dc1	0.48044130450236017
84	0x3fea1e261679a010	0.8161802710501451
85	0x3fe48f444eedd5b8	0.6424886266310557
86	0x3fd45d8aa80ffc33	0.3182093278155122
87	0x3fde3cfd92577fd4	0.4724725655669293
88	0x3fe831f00f8e0177	0.7560959152033736
89	0x3fe667ea8af54df8	0.7001850809123757
90	0x3feac9b45deaf800	0.8371221384365981
91	0x3fe768c72566e96b	0.7315402727611348
92	0x3fe7466211b76457	0.7273416849158235
93	0x3fe5c506dc3b5958	0.6803011227992029
94	0x3fe3e0e5fbeb97db	0.621203414947327
95	0x3fd053c673001e02	0.2551132319499346
96	0x3fb188a45e19908b	0.06849124238357455
97	0x3fe1d64177571bed	0.557404263578858
98	0x3fe94ecd0d25c0f9	0.7908692604815136
99	0xbfb0bfbde6871e39	-0.06542574766273725
100	0x3fe99f7476b4f202	0.8007147139065298
101	0x3fe4e32d52703ff0	0.6527315721632458
102	0x3fe81e8daf0e371e	0.7537296694806377
103	0x3fe8242624e49025	0.7544127197802523
104	0x3fd3aab650588bc1	0.3072944435718306
105	0x3fe6532c0e8067bd	0.697652843783764
106	0x3fe24f76c9da5d38	0.5722001974526512
107	0x3fe96a59aac016dd	0.7942322096793891
108	0x3fe78030b03a2b72	0.7343982164323803
109	0x3fef7eb63d6cb063	0.9842177581499637
110	0x3fc4ddecdf0ebd88	0.1630226220272386
111	0x3fc7488dcb6dec60	0.18190166886401737
112	0x3fb69e97abf8c8ac	0.08835742901354376
113	0x3fe4f97c72b47966	0.6554548492747869
114	0x3fde45e4d897f543	0.47301598693578145
115	0x3fe54109109c45bf	0.6641888927862779
116	0x3fe90d4e38ceeb0d	0.782874213174496
117	0x3fe78edb85aaef34	0.7361886606881627
118	0x3f935cf0745ca487	0.018909222700277197
119	0x3fe2a49f4c8fc3c6	0.5825954909652118
120	0x3fcbb36c3136d1ba	0.2164130440047652
121	0x3fef57cc4aabba1d	0.9794675310529929
122	0x3ff2003270f84e51	1.1250481045616605
123	0x3feaeba5cae5d56b	0.8412655794951837
124	0x3fe7d7a10d3cb399	0.7450719126260196
125	0x3fd54d745fb78673	0.33285245272973113
126	0x3fed20800901dc76	0.9102173019335982
127	0x3fb92288de85a196	0.09818320686975421
128	0x3fc1575ee15423d8	0.1354788398969322
129	0x3fe9586bb63231da	0.7920435484425596
130	0x3fe2cf3b54feb02f	0.5877968463951272
131	0x3fdf671aec81bcef	0.4906680402409184
132	0x3fe6519ab2354047	0.6974614601731525
133	0x3fd5db630c9fe408	0.3415153144156311
134	0x3fe2be3b0349c6d3	0.5857214988920653
135	0x3fc7f097f4d89f1d	0.18702983336810855
136	0x3fdf391bfb0c4b33	0.48786067501457636
137	0x3fed0231c6de6761	0.9065178760676923
138	0x3feca7ef63329061	0.8954998910380817
139	0x3fd6b21ad7aecfbf	0.35462065756587074
140	0x3fe4119eb1b8dffd	0.6271508666168298
141	0x3fe86f3edfbf42e6	0.7635797853527861
142	0x3fdb27c51dafdf7c	0.42430236720200987
143	0x3fe79eb8bf09b643	0.7381252032479967
144	0x3fe5de59b8d57deb	0.6833923921621453
145	0x3fed3c9ac340b1d7	0.9136480153588832
146	0x3fcbd5674f174b93	0.21745005952706417
147	0x3fe035acc92e3088	0.5065521172814593
148	0x3fe43fb2beb6f216	0.6327756619353433
149	0x3fe71054ea0ee9b3	0.7207436152887595
150	0x3fc63dd925a149ea	0.17376245820430763
151	0x3fe4c179eee19d3d	0.6486177125597475
152	0x3fe818e89caf8425	0.7530406055703948
153	0x3fe5b547e2d72652	0.6783790045239562
154	0x3fde43cce56ac1d1	0.47288820652013636
155	0x3fe386bff16223f9	0.610198947383764
156	0x3fe312d07a3dda69	0.5960466754466555
157	0xbf9e94eee36e4539	-0.02986500990988825
158	0x3fe3d2757e56f00b	0.6194407908983534
159	0x3fc421b3a6ceca80	0.15727849621687895
160	0xbf8a9f95e462d57a	-0.012999697716035586
161	0x3fe52dae5fd24e97	0.6618263122095013
162	0x3fe0a082acf5256a	0.5195935609892051
163	0x3fddc79848479df1	0.4653073030335398
164	0x3fe49a6b806f9f95	0.6438500889316737
165	0x3fe14a7c65b1a3ba	0.5403425203522751
166	0x3feda7c32d309c14	0.9267288096060633
167	0x3fef0230a52f4608	0.9690173364890038
168	0x3fe05cbbbb5a8e03	0.5113199862720993
169	0x3fea335f4404075b	0.8187710121567123
170	0x3fe51c342bed0c12	0.659692846100713
171	0x3fe6f033c205d54b	0.7168215550906692
172	0x3fe05f1fce7c7db8	0.5116118462500969
173	0xbf90f0c0f0836594	-0.01654340236641401
174	0x3fdb25a9c44cf520	0.4241737763403126
175	0x3fe453946d2fca89	0.6352026112129617
176	0x3fc12a58f975b20f	0.13410484486247795
177	0x3fe9d576ba970e3f	0.8073075908982402
178	0x3fd6f8b138c55f0a	0.35892897171059757
179	0x3fd68e8cec939617	0.3524505911176176
180	0x3fb0187b47250ed7	0.0628735588734871
181	0x3feeb8eee5ab4231	0.9600748525354615
182	0x3feb68f5073b525c	0.8565621510738981
183	0x3fe0f4fa7bd9a6cd	0.5299045962285277
184	0xbfb9994256e0ec78	-0.09999479886111995
185	0x3fdb4421b07517a2	0.42603342277686285
186	0x3fceacc17c8899ed	0.2396470888208592
187	0x3fe26551052024bb	0.5748677349194148
188	0x3fd0cc64c196d0b5	0.2624751940268298
189	0x3f6c2585bb9fbb00	0.00343586082180225
190	0x3fc1fa3fb6090501	0.14044948948325245
191	0x3fe82e7b7383680e	0.755674100505759
192	0x3fad6a10c32631b6	0.05744984037582716
193	0x3fde3a7b1a8dae04	0.47231938927754435
194	0x3fdc5ffd27685fa9	0.4433586964455523
195	0x3fda7b1f58be4c37	0.41376479784338777
196	0x3fed5d392ad6c7cb	0.9176297985743472
197	0x3fd89f439d07473e	0.3847207101326723
198	0x3fe6f081b1d00981	0.7168587181952689
199	0x3fea76e726cd00cb	0.8270145185306544
200	0x3feb65a418a05ef5	0.856157348726781
201	0x3fd9efd46797c7de	0.4052630435609198
202	0x3fdad7ee3bc824be	0.419429357891726
203	0x3fdb622050d23d4b	0.4278641499776838
204	0x3fe2f55c3f9fb7a8	0.5924512140897962
205	0x3fe809e847762885	0.7512093921407234
206	0x3fd6ee3f4dbd1d5a	0.35829145995781675
207	0x3fe2de3f8014f00c	0.5896298886868876
208	0x3fe84fc4b10e5fb4	0.7597373445632827
209	0x3fc0ca2f17246ead	0.1311701643943385
210	0x3fe90d84219d064f	0.7828999191771774
211	0xbfb95008946cb601	-0.0988774645199655
212	0x3fe87148511428b2	0.7638284286088235
213	0xbfa1c14fd50fd58d	-0.03467797733166398
214	0x3fe4924cae949df6	0.6428588304306107
215	0x3fe355e7b5d37f27	0.6042364646236579
216	0x3fe2909dff9c49c0	0.5801534645454964
217	0x3fe744c9bd090a5b	0.72714697762451
218	0x3fea9c0995874e08	0.8315475388030231
219	0x3fd96186da817f78	0.3965775617452816
220	0x3fd16b8b62dc22e3	0.27218899397170854
221	0x3fe0a0592a9a986f	0.5195737678630062
222	0xbf99990fb7a887cd	-0.024997945389379873
223	0x3fe7a33a08bad5d6	0.7386751337532427
224	0x3fe9b9f172ff72f9	0.8039481397678109
225	0x3feb86e0a0fade75	0.8602145332469734
226	0x3fdda4f64a259cb6	0.4631934856501617
227	0x3fd5f27157f01659	0.34292253101043496
228	0x3fd742fe4bf0c101	0.36346394935664256
229	0x3fe25ade19d8a1c0	0.5735922341164539
230	0x3fd8a2435886fc9d	0.3849037518047654
231	0x3fea54dc37d98cea	0.8228589144531757
232	0x3ff18c607f8a9252	1.0967717153627246
233	0x3fc59aba5809e3f0	0.16878442095529023
234	0x3fc723afdbda8fa9	0.18077657923742876
235	0xbfc1a484b5d2e35e	-0.13783320310701702
236	0x3fd1e42f4603474f	0.2795522865027253
237	0x3fe3aa52449cde8e	0.6145411815732176
238	0x3fdf14bb4ee7c391	0.4856403608856051
239	0x3fe7e92a349d3383	0.7472125079744817
240	0x3fde90de185bd77a	0.4775920141104205
241	0x3fc532ecd54f0b26	0.16561661162821756
242	0x3fc078368effb127	0.12866861326563958
243	0x3fdf2e4b8fc999eb	0.48720063249348183
244	0x3fe03da7e3f4b764	0.5075263454689147
245	0x3fd299f77ade7782	0.2906473827259718
246	0x3fd2d48cc32cd8c3	0.2942230134971277
247	0x3fe63f3a6f8adf74	0.6952182940067204
248	0x3fd8cc0849c63d21	0.38745314793136926
249	0x3fea76f748e48c95	0.8270222114264408
250	0x3fce91ad4664606f	0.23882070481409154
251	0x3fbe73245c089648	0.1189444279376285
252	0x3feeb4cab90b3375	0.9595693220268077
253	0x3fdacc8336ecfd3b	0.41873245586244295
254	0x3fef9de35efe0319	0.9880234580342374
255	0x3fcb8c2027b4dfc6	0.21521379412456393

L f8 [40, 40]
0	0x3fe19937e4732801	0.5499534093771673
1	0x3fe7a0cfed015492	0.738380396748328
2	0x3fe6fd73e4e12f24	0.7184390516572177
3	0x3fdec625ac9586a1	0.4808439431563816
4	0x3fe7cb8856c72a0b	0.743595284927609
5	0xbfb1f807830bc870	-0.07019087743154429
6	0x3fbbc7c414aab8e4	0.10851693634569731
7	0x3fd8e34e4f71cc53	0.38887365110639854
8	0xbfb6ffc8ec318c79	-0.08984046713298878
9	0x3feaf14301873cbb	0.8419508962487251
10	0x3fe8301d625379a5	0.7558733864241743
11	0x3fa1142c326fd1be	0.03335703006442568
12	0xbf71765276fc9bc9	-0.004263231399625541
13	0x3fdfa2c440ea9553	0.49430948581205775
14	0x3fdf9a04a2bbf652	0.49377551929487595
15	0x3fe47ed6493a94e5	0.6404830389261887
16	0x3fec80ae4cb38073	0.8907081125326058
17	0x3f67a1aea5aec3a4	0.0028847132757267736
18	0x3fe5733171cb8bd1	0.670311662918147
19	0x3fe78b1398c5a963	0.7357271179037465
20	0x3fe6c3fb639f8aa3	0.7114235826268963
21	0x3fd8783bb2a71945	0.38233845182948684
22	0x3fe78659a18daa14	0.735150161298693
23	0x3fe87baad8ae9718	0.7650961143560577
24	0x3fd0ce58a02c1dd9	0.2625943721945681
25	0x3fe0f207935de88f	0.5295446279772181
26	0x3fb1f40462fd304a	0.0701296559975059
27	0x3fd281413a8f6719	0.289139086902297
28	0x3fd7f49de3540c38	0.37430522155790724
29	0x3fe580e30dab9461	0.671983267497705
30	0x3fe6204734b4a18c	0.691440203610044
31	0x3ff1ad210bcd948b	1.104767843347221
32	0xbfa0620876327c24	-0.03199793284260746
33	0x3fe08cf1149ab7ed	0.5172047998837549
34	0x3fd230674520a2ca	0.2842043089936338
35	0x3fe6eabd7746f6c2	0.7161547975190035
36	0x3fc55fde8b9fff1d	0.1669881994021062
37	0x3fe624928a8d6adb	0.6919644075490753
38	0x3fe7b7c7fa935341	0.7411842245152017
39	0x3feae8dd4472fb36	0.840925821008432
40	0x3fd520668577392a	0.3301025679947026
41	0x3fe76b9c6a918c74	0.7318861085335713
42	0x3fd5fcc3df4407a0	0.34355255893034986
43	0x3fd849a9b0ec756a	0.37949602391912285
44	0x3fd322609fd137c2	0.29897323233751305
45	0x3fe682f8b0c09c9f	0.7034877254672159
46	0x3fd7891d9a8245f5	0.36774387444265183
47	0x3f9f14ab3a254cd0	0.03035228292840203
48	0x3fe2141318d6aeec	0.564950512421516
49	0x3fd34920781bee4e	0.30133830766110214
50	0x3fd36ce1a4122224	0.3035205938581689
51	0x3fdbc80776047eea	0.434083810092473
52	0x3fe18c5e72270a31	0.5483848790684701
53	0x3fef476824662616	0.9774666510504086
54	0x3fd530a0cef44460	0.3310930272137451
55	0x3fe100b3870b0831	0.5313356053886819
56	0x3fe6795e86020409	0.7023155801144877
57	0x3fe37f23caab45c4	0.6092699964885289
58	0x3fe09eaff056df5e	0.5193710035446022
59	0x3fe94c1d53501a93	0.7905413272099672
60	0x3fb192f9e03bd86c	0.06864892696816732
61	0x3fe5bf0e70de85c1	0.6795723156430357
62	0x3fc24f7484e9e0aa	0.14304977884217368
63	0x3fca870c2fe7ab69	0.2072463258658346
64	0x3fdbb4b328d83a85	0.4329040430901972
65	0x3fbb4e4b5452bdc2	0.10666342552825994
66	0x3fcb352e4fb9ed75	0.2125604523933863
67	0x3feb9851fdac5b88	0.8623437838131034
68	0x3fdb6a290019ef48	0.428354501818593
69	0x3fd488f641e2af8b	0.32085949358110416
70	0x3fedd909fc89db79	0.9327440197365454
71	0x3fe09b7500c0c94a	0.5189766897877146
72	0x3feada05caf48d6e	0.8391140903444645
73	0x3fe230010681a0d6	0.5683598639561989
74	0x3fd5d7bfbadd8d94	0.34129327057436254
75	0x3fe21cec20b82b38	0.5660305632639853
76	0x3fd794cb4de7c418	0.3684566746515556
77	0x3fea74f43a279013	0.8267766128378774
78	0x3feadbbc6d7301a1	0.8393232476883449
79	0x3fdb522e6493dd5a	0.4268909437373246
80	0x3fd0611e6e044852	0.2559276651746859
81	0x3fe44f776907926b	0.63470049394216
82	0x3fdb24505dea8077	0.4240914265774402
83	0x3fd542ded4b92730	0.33220644735102933
84	0x3fe30ddb335856ad	0.5954414370377968
85	0x3fd8fa0687eb02d2	0.3902603461574873
86	0x3fe73fac4de98223	0.7265225908013843
87	0x3fdde049b9ca12e1	0.4668144525860907
88	0x3fd40fe14711d1ba	0.3134692377127767
89	0x3fe82a7dc6a3e541	0.7551869277660118
90	0x3fe8760e3be07ec9	0.7644110841246966
91	0x3fe3358fe772f842	0.6002883453836676
92	0x3feadcb4c165fac9	0.8394416596709898
93	0x3fe8ab1241991265	0.7708827286920267
94	0xbfad4fbc21c024be	-0.057248953933660016
95	0x3fc8f131378f7c3d	0.19486060345568204
96	0x3fe4937d568d46c6	0.6430041017976798
97	0x3fdc555b0ebd6ca7	0.4427096980995863
98	0xbf8cc3024217ead7	-0.014043824808131529
99	0x3fd1435e0efbc5a2	0.2697367807696428
100	0x3fcaac3c914da9ea	0.2083812436570292
101	0x3fcda3e89b2c4b41	0.23156459404762056
102	0x3fd0e2a76479ceb7	0.26383385479060045
103	0x3fe662b709631bcf	0.6995501693098677
104	0x3fe6949515f148f1	0.7056374958576993
105	0x3fce36a0c46cb331	0.23604211417241452
106	0x3fe642c132323585	0.6956487636941097
107	0x3fe7a02c75056ab4	0.7383024488038559
108	0x3fe9c393e2f0a5f6	0.8051242287085063
109	0x3fe3de68064ad438	0.6208992121597765
110	0x3fde46716a75a366	0.47304950138509694
111	0x3fdfa967acaf27f8	0.4947146593445946
112	0x3ff107b6bcca6572	1.0643832564004154
113	0x3fdedd6c13f46cae	0.48226453732213315
114	0x3fefc28c0152a2ad	0.9924984002910456
115	0x3fdb5a3cfa752735	0.42738270243409043
116	0x3fe0c56526063fac	0.5240960829414596
117	0x3fd23a6e591d4e60	0.2848163481005255
118	0x3fe2846c5f3c8473	0.578664957054697
119	0x3fe4da3eef4ea694	0.6516413377732584
120	0x3fda816af8f5938c	0.41414903938703485
121	0x3fd794ba692b945a	0.3684526469281245
122	0x3fdf572d285fc74b	0.48969582503115267
123	0x3fde324812eab6c2	0.47181894156788584
124	0x3fdab118ca3e6b54	0.4170591330563884
125	0x3fe024dd6d31dae1	0.504500115653027
126	0x3fdedf0c3ea9b327	0.48236375922606317
127	0x3fdac80c669146c1	0.41845998779636423
128	0x3fe120add953c0cd	0.5352391476317507
129	0x3fda329655459eee	0.40933760001506314
130	0x3fdadc2c09a0f191	0.4196882337598931
131	0x3fd6adc84668714f	0.35435683131961054
132	0x3fd08ae27079c607	0.2584768389125149
133	0x3fd471832b98fc17	0.3194282460935382
134	0x3fe6e13151f79335	0.7149893380088544
135	0x3fd273b4159f143c	0.2883119784494885
136	0x3fd353fe2ab4e294	0.302001516061446
137	0x3fc310de1886beec	0.14895225713325233
138	0x3fda249906182435	0.408483749343364
139	0x3fe6fa61640feafc	0.7180640177096786
140	0x3fea0189aacc522e	0.8126877151394802
141	0x3fdec9315799e7c0	0.4810298305015941
142	0x3fd93c24faa1e14c	0.39429592586340756
143	0x3fd2cc91dc8b4e7d	0.2937359479667306
144	0x3fd263b5527537af	0.28733571102645333
145	0x3fd4e2441bdb8c09	0.3263101837202958
146	0x3fc7284c2d32d41e	0.18091728407822044
147	0x3fe2801d70d57542	0.5781390384469562
148	0x3fdf95df25443588	0.4935224403314682
149	0x3fcfbaab5e34640e	0.24788419818722257
150	0x3fe36a8b5cd5c453	0.6067559064087028
151	0x3fd11c0ed9e1782e	0.2673375251523592
152	0x3fdbbc84b3601621	0.4333812476837427
153	0x3fe22599722a897d	0.56708977029875
154	0x3fab536904ffd8b5	0.05337074457195127
155	0x3fcaa95a78d45fd0	0.2082932558048456
156	0x3fe1a56155dbffea	0.5514380146923916
157	0x3fd5076ee7fa52bd	0.3285786881836364
158	0x3fe4afacd4e70c01	0.64644471724057
159	0x3fd8bf86053ccad6	0.3866896678111237
160	0x3fead7badf8d2011	0.8388342252956155
161	0x3fb99e569d3a1c3a	0.10007230127858771
162	0x3fe7e74a38385d5f	0.7469836328554428
163	0x3fd88beccadd35fc	0.3835403424353385
164	0x3ff118dab2a3ecc8	1.0685679414880713
165	0x3fed535ad75a3089	0.916425152406661
166	0x3fcc656400313df8	0.22184419640915087
167	0x3fd697d304a047f7	0.35301661922233
168	0x3fe40c2107a6a836	0.6264805936273266
169	0x3fc87c7ef36eb5e7	0.19129931341505754
170	0x3fe17f6dd2cde26b	0.546805297591232
171	0x3fe767fc5e300269	0.7314435805893257
172	0x3fd4c3357281d61d	0.3244145982965579
173	0x3fe09a71c495f9cb	0.5188530768935434
174	0x3fd502ba5ef904fb	0.3282915046184624
175	0x3fd239d78ad330ff	0.28478039319158194
176	0x3fe2e7182a7d3e1b	0.590709765421653
177	0x3fd5bf40393bf1bd	0.3397980269362753
178	0x3fc6b2febee09559	0.1773374969499553
179	0x3fdc5819f100d883	0.44287727866629484
180	0x3ff0345dbdb09aea	1.0127847108612351
181	0x3ff10fafb13196c1	1.0663296624783671
182	0x3fd601ab9f716daa	0.34385195322621576
183	0xbf99bba2d5c24230	-0.025129837319186332
184	0x3fd276534b373066	0.28847200722953514
185	0x3fc1da08e3b8254a	0.13946639174563763
186	0x3fd52e7e3f6217aa	0.3309627169586472
187	0x3fe43a7156fb16d4	0.632134122738274
188	0x3fc0dfa1359a0b64	0.1318246375777462
189	0x3fee371b2d912d4f	0.9442268266661048
190	0x3fd0d2823daed841	0.2628484346745417
191	0x3fd85122df458b23	0.3799521618258714
192	0x3fe801b6b9a69e41	0.7502092004769524
193	0x3fdc17976fee3c09	0.4389399140426922
194	0x3fd1b731ebea4dd0	0.27680633581732383
195	0x3f93bcf5c42ce044	0.01927551278933516
196	0x3fa6784e33d60c45	0.04388660795941538
197	0x3fe771b3f72ff4bc	0.732629759586096
198	0x3fe2c14fa76274e8	0.5860975522261045
199	0x3fe99ff542ce8000	0.8007761292283249
200	0x3fe6c5f04417b9dd	0.7116624193129685
201	0x3fe5a390090ee3c3	0.6762161423604244
202	0x3fc01014d6b3d6af	0.12549076541443102
203	0x3f945150f0a17d2c	0.01984144657796809
204	0x3fe561663a369be3	0.6681395661333877
205	0x3fe9aba97ee1ab9a	0.8022048452524928
206	0x3fd4a36667dd4e2f	0.3224731458951479
207	0x3fb52e4af95049a7	0.08273762308843989
208	0x3fd1631aa07a120f	0.2716738288075086
209	0x3febffbb37f50433	0.8749672024642962
210	0x3fbcaa3d7e3afecb	0.1119726594142733
211	0x3ff44a5329afaf75	1.2681457165117227
212	0x3fe700446a76d7d5	0.718782623231841
213	0x3fdf80d9f2339ba0	0.4922394623994766
214	0x3fb541fd374d36a6	0.08303816414010132
215	0x3fe4e7b55a14a50d	0.6532847175014084
216	0x3fa6354e5b85468e	0.043375443145703504
217	0x3fe1beb60f87a4af	0.5545301726644051
218	0x3fd682e37b4bf56c	0.3517388061589688
219	0x3fd18379b2a69271	0.2736496204982251
220	0x3fd36ff457746578	0.30370815792556227
221	0x3fd1ac59d714db4b	0.2761444664387695
222	0x3fe2429022159000	0.5706253686626042
223	0x3fd6dede27ff8cf0	0.3573527708633284
224	0x3fce9fbe618273b0	0.23924999009332515
225	0x3fe5e1bec7e7f739	0.683806791726716
226	0x3fedac1842562f45	0.9272576614034526
227	0x3fe0b609247a800d	0.5222211563559555
228	0x3fb656d3691893a6	0.08726235690899262
229	0x3fe9103ce8ec82ec	0.7832321690840138
230	0xbfaed651699e2091	-0.060228866713317626
231	0x3fd092c3ce7dda15	0.25895781674572166
232	0x3fc2f4366700142d	0.1480777743273917
233	0x3fe5ea3dadc9eb31	0.6848438638984132
234	0x3fabc406fd308e00	0.054229944617215864
235	0xbfb116f931e65bd3	-0.06675679653413562
236	0x3fa5fcac4d93c925	0.04294336745251063
237	0x3fbab62a85f68ac0	0.10434213419515981
238	0x3fdbc0a246a22aff	0.43363243959235825
239	0x3fbe1f0b7c5fd804	0.11766120707019928
240	0xbfa1cd7d20ec2f72	-0.034770880001899665
241	0x3fd6f25dbb8ae271	0.3585428554029369
242	0x3fea44d99657e4db	0.8209045349496152
243	0x3fe02ef78a40a07d	0.5057332706683294
244	0x3fe13ebd74924fb0	0.5389086987292924
245	0x3fd45aa7d498c5cb	0.31803317796137937
246	0x3ff008cb3ff0247b	1.0021469590740526
247	0x3fdf63417d803f66	0.49043309455827566
248	0x3fdd076f14742aeb	0.4535787296050972
249	0x3fe925ecb0c00ad0	0.7858794643546734
250	0x3fed85adc88cf3a1	0.9225682179454574
251	0x3fec93a0a2a12325	0.8930209328037547
252	0x3fd1281d76532c3e	0.2680734305874387
253	0x3fde68fd41ac7825	0.47515803731391976
254	0x3feec14e0127d9ad	0.9610967657634341
255	0x3fa81c7b05e93943	0.047092289420663146

weight f8 [50, 4]
0	0xbfe0f292191c6f68	-0.5296106806231196
1	0xbfc826e95214d686	-0.18868748195534496
2	0xbfcbbed960d8b8a4	-0.21676175335727976
3	0x3fb320feb2326547	0.07472221231946206
4	0xbfd5e717771d2211	-0.3422297156544412
5	0x3fd078645c22c1f5	0.2573481464160346
6	0x3fbb5bda7ce08621	0.10687032269245168
7	0xbfdc9e6a385a17d9	-0.44716887953870593
8	0xbfc4f4e6628d33a9	-0.1637237530907474
9	0xbf9771065ce9da60	-0.022892093106259614
10	0xbfae43c056a02324	-0.05911065156403186
11	0xbfa1a79306fa1cd4	-0.03448161564033972
12	0x3fd1104e97c1011d	0.2666203004810244
13	0xbfcbb18d29d48fa7	-0.2163559393167109
14	0xbfdf9459ed40c293	-0.49342964333758593
15	0x3fd16c9ab97000fb	0.2722536860383255
16	0xbfdd15a2dfb52513	-0.4544455704349996
17	0x3fd0a6fac197dbf5	0.26019162087999287
18	0xbfcdc594e7ba61bb	-0.23259221377226233
19	0xbfcc32c2d77931be	-0.22029910584605078
20	0x3faf8c1ec1ac6677	0.0616159068506023
21	0x3fae1524488eeb27	0.05875504861565722
22	0xbfd1b20c023bdc67	-0.2764921209158672
23	0xbfca0a746ebb0a78	-0.2034440556218049
24	0x3fd92d327fd72f1b	0.3933836220210069
25	0xbfcb72588595faaf	-0.21442705652949232
26	0x3f9fc940b86d0edf	0.031041156059713578
27	0xbfcc40b899bc09f3	-0.220725131097495
28	0x3fc81a6ec96bef2b	0.1883066638473506
29	0x3fd06d829e3439db	0.25668397378549707
30	0xbfc8abb03e9fa3ff	-0.19273951585572033
31	0x3f955245b48de91f	0.02082165636554933
32	0x3fd8e324916105fd	0.38886369893234
33	0xbfd29900f9abe3a3	-0.29058861143090037
34	0xbfc6db3adaee5543	-0.17856536569585488
35	0xbfb515cf5045ffbf	-0.08236404142189623
36	0x3fd9a3294cc8dbd1	0.4005835771417284
37	0xbfc746fd88ff9c0f	-0.18185395421389258
38	0xbf861a66e97aa6ff	-0.010792545318810463
39	0xbfc65ed4c457758f	-0.17476901614183446
40	0xbfd8ea6e0894ebd0	-0.38930846059855373
41	0x3fd4aacb2cc1d771	0.3229244172174424
42	0x3fb0a2b352cdb328	0.06498261233873548
43	0x3fc34e1718ba93c5	0.15082062442266256
44	0x3fb59a5d6ec7397f	0.08438667254015363
45	0x3fdce685a958f9a5	0.4515699533257254
46	0xbfdd0f19a944ed9f	-0.454046645452502
47	0x3fc83b359eae667b	0.1893069290934369
48	0xbfe0b69ea1f5270a	-0.5222924388155843
49	0xbfd023a413be1b17	-0.2521753495024525
50	0x3fb6f4a31f31bcff	0.08967036735133503
51	0x3fcca34b645cb1be	0.22373335266583
52	0xbfd5db7c97041548	-0.3415214037671217
53	0x3fda3328a301c9be	0.40937248152399863
54	0x3fd46ebfd9e20127	0.3192596080553067
55	0xbf8e323b7046604b	-0.014744247783525696
56	0xbfb3bbc3bdf159d3	-0.0770838106849177
57	0x3fd53af87ee6db1f	0.3317242850566106
58	0xbfc796817562e520	-0.18428056937936166
59	0xbfa3edeac6a1974e	-0.03892453837106179
60	0xbfe0d8c03f1ad4db	-0.526458857776244
61	0xbfd5cc165cb064f4	-0.340581503407136
62	0xbfbed5d75e777221	-0.12045045906365505
63	0x3fcdd5947db5715d	0.233080445653182
64	0x3fc268f2c087f16c	0.14382776642731743
65	0xbfe09401bb042255	-0.5180672314318807
66	0x3fbda1352a60ce3e	0.11574108395216684
67	0x3fb1b480cd99f4ea	0.069160509296086
68	0xbfc03217a0103cf5	-0.1265286952552526
69	0x3fd693b9d87fb5f2	0.3527664770361688
70	0xbfd32c06ee66f76d	-0.29956219941583734
71	0x3fd03b526d133ac7	0.25362072612635383
72	0x3f73a7b5dab1e4df	0.00479861294581349
73	0xbfe06ba1b1d6c8d1	-0.5131386254709246
74	0x3fbe91df6a2212e7	0.11941334096088561
75	0x3fba08d4f1b53e99	0.10169726277421844
76	0x3f9a98e6b4cfe1bd	0.025973896776095396
77	0x3fa587aab1decfeb	0.04205068036335987
78	0x3fc301d9be81830e	0.14849397470518294
79	0xbfd24abfbd94c94c	-0.28581231607235646
80	0xbfd73b9623dd754e	-0.36301187040756566
81	0x3fb8c5c44617e8b0	0.09676768027557858
82	0xbfd1ba6010917ac2	-0.27700044267650636
83	0xbfc7bb966a2db64a	-0.18541221794605384
84	0xbfe196c2594b8208	-0.5496532196085022
85	0x3fb71220736e22c7	0.0901203424274498
86	0xbfc29e084ad82862	-0.14544776587019032
87	0xbfc5d30a2a6a9b1d	-0.1705029208289596
88	0x3fc8b13f6507b187	0.19290916855915105
89	0xbfd162ccc9f1b8e6	-0.2716552707778547
90	0x3fcfd439766db133	0.24866407663956522
91	0x3fb6b594d68c2123	0.08870821226094398
92	0x3f98412889d51c24	0.02368605939161851
93	0x3fb54a4ea5fd5975	0.08316508820039366
94	0x3fd5a3789602a751	0.33810248040628205
95	0xbfd2384f426c9585	-0.28468686568006546
96	0x3fcc8b86eccbd60b	0.22300802767101432
97	0xbfdd15ebde063498	-0.4544629734235257
98	0x3fdf2a21958dde3f	0.4869464836587873
99	0xbfb5f90c407c293c	-0.08583141874638484
100	0xbfb5a759a4b8a857	-0.08458481093899316
101	0x3fa65c948a76718f	0.0436750811597647
102	0xbfbaa9e041d4c5df	-0.10415460211949988
103	0xbfa5fdc827341eef	-0.04295182684478315
104	0x3f8c24cc5fe47ac4	0.013742062260062034
105	0xbfdfafda8bc4e89d	-0.4951082577641815
106	0x3fd28fe5cd23f783	0.29003281625033867
107	0xbfc5871bc7a55f04	-0.16818568466509742
108	0x3fe030e47a812ae7	0.5059683220545964
109	0x3fdff78f525b1daa	0.49948485415049027
110	0xbfadf51f05c45993	-0.058510751203516474
111	0x3fd09b0089259ebe	0.2594605769468038
112	0xbfb410af489ff1de	-0.07837958834711098
113	0xbf940b31701d764e	-0.019573948352777308
114	0xbfd60b49bc9e8fc7	-0.3444389669405123
115	0x3fdd85b02c20de12	0.4612846785489363
116	0xbfce2e9173db7567	-0.23579614789097578
117	0x3fd34fca147d7a22	0.30174495697966297
118	0x3fd60e36a760572c	0.3446175226721262
119	0x3fe139ce35c8c052	0.5383063364479403
120	0xbfce8ed59b8a7e30	-0.238733960101841
121	0x3fa11b4bb29f594a	0.03341137462091355
122	0x3fcd3e6ee5b3a369	0.22846780982879558
123	0x3fb5fef2d3ac4c40	0.08592145602988044
124	0xbfd8a7d655c42ddb	-0.38524397254579207
125	0x3fd345dd2e6ad40f	0.30113915951670917
126	0xbfd32ee6316e6255	-0.29973749949707457
127	0xbfb1a100d867b36f	-0.06886296542479696
128	0x3fcef3d12b3602e3	0.2418157063475724
129	0xbfdfe6e72464b538	-0.4984681945232583
130	0x3fd847aeb4338203	0.3793751487519616
131	0x3fd4d29b8f89d542	0.3253544713728226
132	0xbfd31a50b9e676f3	-0.2984811606819299
133	0xbfdcaa521baaef39	-0.4478955526535518
134	0xbfb5931acc807ef3	-0.0842758893272693
135	0x3fd7a37ccc1aa7b6	0.3693534844593346
136	0x3fd92e2f75e8cee6	0.3934439326724103
137	0x3fc7d45f5016435e	0.18616858873840675
138	0x3fe02d1bbf0bb4e7	0.5055063945161721
139	0x3fc0484670b052fb	0.12720566275006448
140	0xbfc3107f42677945	-0.1489409517516355
141	0xbfd2ed85bb9ea6a2	-0.2957472164367606
142	0xbfddfcbb5d5f39e8	-0.4685505306087223
143	0xbfce99d546d32840	-0.23906961401218219
144	0xbfd01472300c551a	-0.25124792759136627
145	0xbfc09ee0d6b7060c	-0.12984858020904289
146	0x3fc27906ba88b56c	0.14431842907053338
147	0xbfde70482023aa70	-0.475603133569769
148	0x3fda9e846ed9ebf9	0.4159251291782194
149	0xbfd45582c229f329	-0.3177191635257253
150	0x3fb95341ceb8f907	0.09892665192544224
151	0x3fd71234518b26dd	0.36048610652197316
152	0xbfc15cb2c41cda46	-0.13564142776313498
153	0xbfb6b1cdc45d4dc6	-0.08865057033590693
154	0x3fe052027b853843	0.5100109493739712
155	0xbfc62edcedf1fa80	-0.17330514543933262
156	0xbfd5c632d68ef5a0	-0.3402220816895696
157	0xbfdc0c6a8bcf56ea	-0.4382578244525194
158	0xbfc423b09874c92a	-0.15733916706228374
159	0xbfd2cf9ec743cec1	-0.2939221330591231
160	0xbfccac56fc18dc6f	-0.2240093928282678
161	0x3fc9d67467aa683f	0.2018571382694194
162	0xbfd682c90fe98edf	-0.3517325072664174
163	0xbfd91e2016faa313	-0.39246370548294
164	0xbfe102b6fd1b1ac6	-0.5315813964342275
165	0x3ff35e8a83a49d6e	1.210581316214156
166	0xbff04981aa2b962e	-1.0179459235454362
167	0xbfdaa8a3b72ffd50	-0.4165429390850095
168	0x3fc993c3d6be8777	0.1998219297939234
169	0x3fd1179e30fa01c1	0.26706652434225125
170	0xbfb016e93a0361b7	-0.06284959474886063
171	0xbfd687ff91f3a4af	-0.35205067875956336
172	0x3ff286312ded726e	1.1577617448848758
173	0x3fd63bb699d0ffb6	0.34739460965283386
174	0x3fc4c2bb7f1c73a3	0.16219276148413284
175	0x3fd6270328b2b1be	0.3461311242524764
176	0x3fba0c0ce4d06ec3	0.10174637399944246
177	0xbfe1632c44d8130e	-0.5433560700044795
178	0x3fd9865b706dec75	0.39882551173622655
179	0xbfc9277f65b54a35	-0.19651787248820232
180	0x3fc5fabe42176fc7	0.1717145750725406
181	0xbfd0027b1e94f16d	-0.25015142427925846
182	0xbfd5c4426fe489d9	-0.3401037304594446
183	0x3fcceea0fb432a37	0.22603237408323348
184	0xbfcb4b1ae982bc06	-0.21322952653778787
185	0x3fd3424b74c63742	0.30092131046045634
186	0x3fac7b534c4d8ef1	0.05562839800293585
187	0x3fda9d7548433481	0.41586048180472096
188	0x3fc5f0e8a41bccf7	0.17141445172419598
189	0x3fd36b304cef1845	0.30341727746088437
190	0xbfd9302974cfae25	-0.3935645714506982
191	0xbfc210bc5cd72c73	-0.14113573582867253
192	0x3fc8f056150e021e	0.1948344805532693
193	0xbfd07522742f5607	-0.25714932771856563
194	0xbfd2e538608b7d12	-0.29524049213610326
195	0xbfdf30602bb91174	-0.48732761640373856
196	0x3fac4cd95a3e2fff	0.05527381159399169
197	0x3fd8b45fb633e2a1	0.38600914757948074
198	0x3fd562cc0447e6f3	0.3341550866895055
199	0xbfd629218887c713	-0.34626043637318665

bias f8 [50]
0	0x3fd0f91fae8c9c76	0.2652053074438706
1	0xbfc1053ec10fecb4	-0.13297256876817232
2	0xbfcc0a23294fd6f1	-0.21905936734372447
3	0xbfd031d727eec682	-0.25304201984099717
4	0x3fd5a93c305e526b	0.3384542915676209
5	0x3fca566d6046971c	0.20576255036319757
6	0xbfdb27577d46f82a	-0.4242762301836388
7	0xbfd46794acce1882	-0.3188220679807118
8	0xbfdd58f3b80fd594	-0.4585542008856802
9	0xbfb7ef1fd912ab50	-0.09349249887115474
10	0x3fa39ccee3f2a6bb	0.03830572636190995
11	0xbfd0febe5cdd46c6	-0.26554831570420523
12	0x3fbb2f2156cec815	0.10618790025071718
13	0x3fd71b175c4b8552	0.3610285188024892
14	0x3fc1952fb8aef9d9	0.13736530797719018
15	0xbfcad14a4fcadf46	-0.20951203247181577
16	0xbfc6c913aef47fd8	-0.17801137964943226
17	0x3fb8a6effede87cd	0.09629726383585009
18	0xbfd25ed253c5fadd	-0.28703745060913183
19	0x3fdd24434d3df847	0.455338311607083
20	0xbfb9e48a617129fb	-0.10114350203472348
21	0xbfd68e3a5013d659	-0.3524308950430615
22	0x3fd078dedf2ed01c	0.2573773555297991
23	0x3fc77fc9398c7af8	0.18358722028730035
24	0xbfc61194accee054	-0.1724115222730257
25	0xbfb3feb5341e6008	-0.07810528299739883
26	0x3fd49843b19847e1	0.32179348319288975
27	0x3fbbec70d8389423	0.10907655028184186
28	0x3fd85915cbc3cea2	0.3804373254672361
29	0xbfbb886a257bae62	-0.10755027213206739
30	0x3fc6a1201ede7ceb	0.1767921591499325
31	0xbfce653d867f46e4	-0.23746460978741546
32	0x3fa5554a8c1660f7	0.04166634521533468
33	0x3fdd6392cdcb3d61	0.45920248124180857
34	0x3fc77ab2de542160	0.18343196731462807
35	0xbfbdcae534ca6339	-0.11637718714554247
36	0x3fbeda4feb355ebd	0.12051867954630331
37	0xbfde7a3104f29a1a	-0.47620797618074706
38	0xbfc20b0b5d6285b1	-0.14096204814727067
39	0x3fd4b9888b0552b9	0.32382405830621114
40	0xbfd9caae97f0dfb0	-0.40299572790126614
41	0x3fc53a270c2e8576	0.16583717436609974
42	0xbfd8d24fe4412b6c	-0.3878364304588817
43	0x3f8f8f0744dbdac8	0.015409523762611413
44	0xbfcf2cdd2c18f540	-0.24355663922498572
45	0x3fd42cd31059c461	0.31523586842292245
46	0x3fd6523441627e38	0.34876734147289623
47	0xbfce4006974eb0b4	-0.2363289107137284
48	0x3fb7753f412894b4	0.09163279858383327
49	0xbfd1d7c0d76be04a	-0.2787935355877421

weight f8 [50, 50]
0	0xbfb5653a9a41f5e4	-0.08357588068061933
1	0x3fc9bcf1a2479ef5	0.201078609693688
2	0xbf864f353c2096dc	-0.010893264672698626
3	0xbfb999d8b8727cbe	-0.10000376227479799
4	0xbf92b6f6d54babe8	-0.01827607800343492
5	0x3fb0c0d868ce2cc1	0.06544258650517333
6	0xbfbce4a464a3b5d3	-0.11286380249995114
7	0x3fa7eb4e84d6d283	0.04671712276050235
8	0x3fb49f9e69b4b91b	0.08056058960639627
9	0x3fb0b2de64f23504	0.06522932018761557
10	0xbfc9b4a8e8dce40e	-0.20082579965836128
11	0x3fb16cc59e80abb8	0.06806597823803784
12	0x3fa538c74746dade	0.0414488100536141
13	0xbf8c9063cc452d12	-0.013947276755649916
14	0xbf7d15dead926dbd	-0.00710093482589563
15	0xbfc7b78fecf3ce26	-0.18528937406482376
16	0x3f863d085968bebb	0.010858597973395381
17	0xbfcdc670facfd60f	-0.2326184487025533
18	0x3f8fade3b128da7b	0.015468386501294553
19	0x3fbc8a7f1f9d1a43	0.1114882900411454
20	0x3fa505962022f7aa	0.04105824606220605
21	0x3f90c23ed6fbb4d3	0.0163659876551961
22	0x3fc35ac35c46d52d	0.1512073708123948
23	0x3f8f1e5049b9a365	0.015194537401116379
24	0x3fb8b85377987aa8	0.09656259221854191
25	0x3fb22665817a7b5c	0.07089838420004696
26	0xbf88935460dd48d8	-0.011999758916918443
27	0xbfb207b080ada983	-0.07042983190118517
28	0x3fad2845c7a68267	0.056947880383863496
29	0xbf9cb067dcab2d48	-0.028016684382959484
30	0x3fb4ddf0343da762	0.0815115096608259
31	0xbfab438e6b088153	-0.05324978882367994
32	0xbfa3b2356e4a86a7	-0.03846899958922494
33	0x3fb89c397bae2785	0.09613379735506385
34	0xbfb9397e3c8a7bee	-0.09853352525759337
35	0xbfbd46ab19625e67	-0.11435956353886355
36	0x3fb4b5ab34e6dff2	0.08089704553174196
37	0x3fae13c86f37266c	0.05874468190775137
38	0xbf8f0dd31ce79474	-0.015163087195967352
39	0xbfad7b356a202d57	-0.057580632405086866
40	0x3fbf222c847354e4	0.12161520227103356
41	0x3fca324c3bbdb0ae	0.2046599666313162
42	0x3fbcae7c277a0a88	0.11203742946421802
43	0xbfbfcc77bf4396ae	-0.12421368045360268
44	0x3fb3aa388af2d983	0.07681611435223172
45	0x3fa5337809bf71b4	0.04140830153457689
46	0x3fa342a5a555eb4b	0.03761785166985606
47	0xbf85532b7cec8a96	-0.01041254019725572
48	0x3f90d6319dc4de02	0.016442084555107435
49	0xbfc04f268c6705bd	-0.12741548400485483
50	0x3fb077cee9456526	0.06432812876791569
51	0xbfbc9ed1e5b79010	-0.1117983995277998
52	0x3fad5bc7349a0f5b	0.057340836688154005
53	0xbfb350413e52093e	-0.07544334193702171
54	0xbf81902bebb3c940	-0.008575766687930142
55	0xbfb826509b2cc041	-0.09433463848540759
56	0xbfbbceb5c983e9d3	-0.10862289590651324
57	0x3fa59eaa782ed5f2	0.04222614972188045
58	0xbfa59513f34dcdfa	-0.042152999353586254
59	0xbfabaf67db3f4851	-0.054072614205907706
60	0x3fb86eac1ab744f2	0.09543872501605558
61	0xbfbd07a292b07f62	-0.11339775162968871
62	0xbfad1fc659e5173e	-0.056883047555443586
63	0x3fb0be131cfd8cb2	0.06540030915998576
64	0xbfba42a150a85b41	-0.10257919520550464
65	0xbfc22feee66198c2	-0.14208780526241155
66	0x3fb0d7d078890f79	0.06579306547888376
67	0xbfaf4fc0b159cb50	-0.06115533986021282
68	0x3fc0c714d04d2e6f	0.1310754792306059
69	0x3fae87eef600376b	0.05963083985271463
70	0x3fb828b9e2ff8a8b	0.09437143127392227
71	0x3fb11059c22b34be	0.06665574064682553
72	0xbf89256443b520ae	-0.012278350178022226
73	0xbf705bafeadfa5bb	-0.003993689706456245
74	0xbfa356206b0a542e	-0.03776646906514035
75	0xbfada67b75047cdc	-0.057910783800474624
76	0x3fbc5b2e8a9ab7da	0.11076632388969135
77	0xbfa81dfb62528fe3	-0.04710374427057198
78	0x3f9e3119570c5df0	0.029484172761923888
79	0x3f838a7dd5de97d9	0.00954149540832454
80	0xbfab5f047a2d55d9	-0.05345930091304369
81	0xbfb6f0a5d4953c99	-0.08960949363721439
82	0xbfaec29fc279fec3	-0.060078613748371555
83	0xbfb3605a8a33956a	-0.07568899034557366
84	0xbfa19d382e14aba9	-0.03440261423596464
85	0xbf9d8cddfe2e448b	-0.02885767806907728
86	0xbfb0530e2478ed01	-0.0637673224490989
87	0xbfb57828e604a276	-0.08386474242855421
88	0x3fb9ee5ee7abfb27	0.10129349857377844
89	0x3f51959a8165255f	0.0010732659189492605
90	0xbfab227e81cb4573	-0.052997544616696944
91	0xbfc137b526cbbdbe	-0.13451256174401566
92	0x3f90428a95a8cfde	0.015878835091100878
93	0xbf70cc941c47e4a0	-0.0041013513150513214
94	0x3fa341723bb77853	0.03760869006121994
95	0xbfb69707ea6ddfbb	-0.08824204896325132
96	0xbf46a05069bb78c4	-0.0006904976503070638
97	0xbfb0d0afce6721d3	-0.06568430699474641
98	0xbfb56f469e91bc29	-0.08372918483085869
99	0x3f7a72115b3cc321	0.006456439779683605
100	0x3f8ebda11240abbc	0.015010126466298838
101	0xbfc35812f7433f56	-0.1511253077828722
102	0xbfa15b89b55ec102	-0.03390150393477322
103	0x3fbb7642bfd1a831	0.10727326567726504
104	0x3fc1cb2332a8f71f	0.13901176427491976
105	0x3fa85229579f7686	0.04750184244742876
106	0xbfb1dbc18cf70f5c	-0.06975946132211902
107	0xbf831d3b930b44ca	-0.009333100724150962
108	0x3f87005399888203	0.011231091616594751
109	0x3fbd97562a87f789	0.11559046305043642
110	0xbfbef9f9caaa74f1	-0.12100182721993115
111	0xbf751c4c5d1df655	-0.00515394048295333
112	0xbfb7ba4a3de52673	-0.09268630992041853
113	0xbfa778be97023b80	-0.045843082364732446
114	0x3fcb06590c9cf49a	0.2111312209689558
115	0xbfc3db9ca0d6df6f	-0.15513952115520221
116	0x3fac7b30694200ad	0.05562735829244168
117	0xbfb01aea2cdf27bd	-0.06291068645000926
118	0xbfb0c5f2f160e568	-0.06552046196965977
119	0x3fc0b46298ec26b4	0.13050491778294815
120	0x3fa0b89acd3b6ddf	0.032658422043563944
121	0x3fb3be1f93d0d0d0	0.0771198020818844
122	0x3fab2ba7603667ca	0.053067427153294114
123	0x3fb8ff9c5d795f01	0.0976503112991587
124	0x3faed720a3615cae	0.06023504251850774
125	0xbfab6077c7f4eb76	-0.053470366629389796
126	0x3faba2745b1a8d3c	0.05397380458932807
127	0x3fc4f8014ce4bfcf	0.16381851439063985
128	0xbfa3ee371911bd36	-0.03892681294461868
129	0xbf96732039f2480c	-0.02192354539563017
130	0x3fc2890f811603b3	0.14480775645281838
131	0x3fa6b897315a68b6	0.04437706448989458
132	0xbfbaeb01db0fe773	-0.10514842603870793
133	0xbf857258bc795f33	-0.010472005130551664
134	0xbfb8762cd714786d	-0.09555320979095124
135	0xbf9c51df273d3608	-0.027656065721478412
136	0x3fc6304a8b206083	0.1733487300232391
137	0xbf7d45a76a6a1b4b	-0.007146505324846351
138	0x3fab9b808522a686	0.05392076134860439
139	0xbfa832cecdac5da2	-0.04726263294849821
140	0x3fb5f61ed8445f81	0.08578675060232223
141	0x3fb62265a813490d	0.08646235803033538
142	0xbfb45ad89a5b7deb	-0.07951120155802698
143	0x3fb763a5caaab8ae	0.09136425207063567
144	0x3fa31466cbb9b17f	0.03726502644426243
145	0x3fa3880a7e3698a8	0.038147285372631956
146	0x3fb56094787a7df1	0.08350494328850978
147	0x3fb44f88bb3283bd	0.07933859415290008
148	0x3fc34203f40c6605	0.15045213142802552
149	0xbfae51c9304d3a6d	-0.059217726846885956
150	0x3fb686f059399d05	0.08799650362344742
151	0xbfcec9a4b16777a6	-0.24052866613686524
152	0x3fa5782bc20a1b25	0.0419324564327808
153	0x3fb2e79bac0c8504	0.0738465590516349
154	0x3fc23725b705ca4e	0.14230796276713636
155	0x3fd1a5e8f39a4507	0.27575134076421687
156	0xbf82a9bd74501b34	-0.009112815963829492
157	0x3faf5a2210c3ce0c	0.06123453573846058
158	0x3f6ddb60ae37215d	0.0036446464816643335
159	0x3fbbecc73a0925c8	0.10908169905555731
160	0xbfb507cbf35a0ec5	-0.08215021792608031
161	0xbf829f67bd8fe66e	-0.009093103859402176
162	0xbfab5d7af579b6f5	-0.05344757315184082
163	0x3fbbfcc8a3b305a7	0.10932592388691963
164	0x3fe1ae1efe55ea92	0.5525050132267373
165	0x3fc10f34269e66c8	0.1332764805381912
166	0xbfe99f0d8faefe11	-0.8006656462020506
167	0xbfb9c8602d5893c1	-0.10071374041633786
168	0xbfe9e4311a04c386	-0.8091054447341868
169	0x3fc01861a7dd9091	0.12574406334454527
170	0x3f96b649a7117e54	0.022179747411767828
171	0xbfe8432449986277	-0.7581960141570353
172	0xbf9aa18f2aa8136c	-0.02600692460875413
173	0xbfc5c4addc9ee21a	-0.17006467125408237
174	0x3fe8673e9f92fbd7	0.7626031033213349
175	0xbfb680e6eb5e19fb	-0.0879043888690844
176	0xbfbed5c7223a8a64	-0.12044949136410704
177	0x3fab7d5f9c4654df	0.05369089872980636
178	0x3f9ded384d99dae2	0.02922523473395245
179	0xbfc47a43189d94e3	-0.15998114301616004
180	0xbfa7ad3daa2cd54e	-0.0462435980065644
181	0xbf905718fcd448a1	-0.015957251006576304
182	0xbfb8957002d45833	-0.09603023594931485
183	0x3fa2b2a552b2b74a	0.036519209237083475
184	0xbfe045e609d2a627	-0.5085325424053665
185	0x3fb1cda3b0411cfe	0.06954405835232433
186	0x3fca0bc971ae690d	0.20348470736355076
187	0x3fb9809cf23f9a04	0.09961872972744606
188	0xbfdc79acbe9f5864	-0.4449264394328394
189	0x3f473f251a56daca	0.0007094317594951935
190	0x3fa7e06194ade7e1	0.04663376750882243
191	0xbfd129f32937ed47	-0.268185415508658
192	0xbfc2138c0348e887	-0.14122152481451541
193	0x3fdbe350888653dd	0.4357491811036292
194	0xbfc82ea04920c959	-0.18892291613299042
195	0x3fb7b52d143d2709	0.09260827774155812
196	0x3fbb4f6bcb603e27	0.10668061938508143
197	0xbfa34252bf9622c9	-0.03761538113309865
198	0x3fe62dbeb8205917	0.6930841060846288
199	0xbfc04e8091ef9477	-0.12739569783949253
200	0x3faafc7ddecd62b6	0.05270760864977346
201	0x3fb71131d5b72c60	0.09010611980117877
202	0x3f91c22ca0eaa31e	0.017342278787199843
203	0xbfb7aa8c937af78d	-0.092446123128836
204	0x3fb6fa3725094a5c	0.08975548414427109
205	0xbfa98a4988869b4a	-0.049883172908542564
206	0x3fb32bc8a3ffb778	0.07488683704261045
207	0xbfa4b208c62b6c67	-0.04042079371512202
208	0x3f60c40b6565268b	0.002046606309851045
209	0xbfb346375c8455ce	-0.075290165030615
210	0x3fb53bb45726d37c	0.08294226768232521
211	0xbf9d977ff8b5dd0d	-0.028898238711431868
212	0xbfc0f17ec06fe260	-0.13236984630909188
213	0xbfa4367b348cf491	-0.03947815910803699
214	0xbf96e64649e47aed	-0.022362802753486944
215	0xbfb6a9c1e56ce426	-0.08852779246525752
216	0x3fbbe12eaa2811fb	0.10890475897037526
217	0xbfc0ad08fdfc316a	-0.13028061296098353
218	0xbfb4e616aca26915	-0.08163587298114224
219	0xbfbbd5552e1d299e	-0.10872394920185122
220	0xbfbaa23be1c0dfdb	-0.10403799306447985
221	0xbfb8b86b2206885e	-0.09656400280667429
222	0xbf92e002a100af51	-0.018432656361411507
223	0x3fb90ac134d26d94	0.09782035388564331
224	0x3fb57a5d6854b6eb	0.08389838978902346
225	0x3fb268e11bd63929	0.07191283158883678
226	0xbfbb485dfcd9535f	-0.10657298491544286
227	0xbf93e0e62dbfff65	-0.019412609617574534
228	0xbfba34fa26fdd749	-0.10237086727087531
229	0x3fc12553b58338ae	0.13395162928504106
230	0x3f9d2f6787ee9f54	0.02850114600337801
231	0x3f7738297babf13b	0.005668794673280349
232	0x3fa6577f1d3f8c6f	0.043636295624104864
233	0xbfae85c2615d8bc0	-0.05961425245802543
234	0xbfb22150f1515eec	-0.07082086459683595
235	0xbf9c18f547424fb1	-0.02743895766668886
236	0x3f7c29d8ec5e001c	0.006875846249272424
237	0x3fa41f88bdfd9376	0.039303086464122325
238	0x3f6bbed0fcd86f8e	0.003386886767442427
239	0x3fbefcc8e64e5f19	0.12104468939503156
240	0x3fb47af1fe2a69fe	0.0800009961625747
241	0x3f7f56330ce029c6	0.007650565543381343
242	0x3fbc1f05503ed0f5	0.1098483391677439
243	0x3f7e3dd007b9e941	0.007383167856114093
244	0xbfbcd2d4d5c20350	-0.11259203165719822
245	0xbfa8bbffb79f6ccf	-0.04830931774605462
246	0xbfc1db2e141c7a7f	-0.13950134260172217
247	0x3fb8023a6db0134c	0.09378400018620175
248	0x3fa275eef4175dd7	0.03605601052884893
249	0x3fb17241f340679f	0.0681496828914576
250	0x3fb9954aa38d942f	0.099934258394186
251	0x3fc04cafbf5458ba	0.1273402866579028
252	0x3fc042835c4de231	0.12702981955568896
253	0xbfac73a31838d8d5	-0.05556974096946169
254	0xbfb595700dc63e12	-0.08431148849762618
255	0xbfa693c99b005243	-0.044096279307414686

bias f8 [50]
0	0x3f992e057fe49fdf	0.024589620524380847
1	0xbfba55033c175e2f	-0.10285968987533843
2	0x3fbd0e3906ef0038	0.11349827212598107
3	0x3fb9edad6018dbf1	0.1012829169857097
4	0xbfc0231f52361279	-0.12607184900493332
5	0xbfba7f8fd5c7309c	-0.10350893944922962
6	0xbfb0c8796a6cea61	-0.06555899475362416
7	0x3f853ed641afd2bb	0.010373758201219876
8	0x3f9aba7ec96f27a1	0.026102047962730194
9	0x3fc80fcd83291aef	0.1879822626526315
10	0x3fb1eec31b1463d2	0.0700494710075781
11	0x3f9dfcb9f5899285	0.029284387217915615
12	0x3fbf2400b97a2cae	0.12164310959103616
13	0x3fa0001e5314c7d3	0.03125090374159325
14	0x3fb54a4d58e518fc	0.0831650106457324
15	0xbfb2c6c22598c238	-0.07334531228912844
16	0xbf963b5c2ebb030c	-0.021710815765575694
17	0xbfaf8757d9309e1c	-0.06157946134800005
18	0x3fb3989252cb5cec	0.07654680749270754
19	0x3fc0b95fc1c884fc	0.13065716707300357
20	0xbf9c85645a163b04	-0.02785260009619163
21	0x3facd8a1f414c171	0.05634027580743151
22	0x3fbda56ad06daeaa	0.11580531681618803
23	0xbfb65bcf5463b08c	-0.08733840761459727
24	0xbfb23e20a87e3f76	-0.07126049150087774
25	0xbfbf3d6105af789a	-0.12203031910709897
26	0x3fba19e8771d9908	0.10195782573791601
27	0x3fb58fae08eef58b	0.08422363012410565
28	0x3f9d16acbe7fc83f	0.028406809928078976
29	0xbfbb0a8aec9b637e	-0.10562961842096105
30	0x3f997f5adef9aafc	0.024899883136110454
31	0x3fb444a054e51ba4	0.07917215416556062
32	0xbf77dc6e03a8fe5b	-0.005825452559804124
33	0x3fb54e0ce3ce8bb0	0.08322220384302059
34	0xbf9133632e588464	-0.016797589973183938
35	0xbfba33f058a3963b	-0.1023550239948116
36	0x3fbd36b4a12867d5	0.11411599096791687
37	0xbf6896516bb24158	-0.00300136473158134
38	0xbfb1cddfe6b0b188	-0.06954764730534724
39	0x3fae24cf8d2786d5	0.05887459371639429
40	0x3fbc6ccc71581dd3	0.1110351349562884
41	0xbfbc934f9d025fe1	-0.11162278731569543
42	0xbfc105a8d13256b8	-0.13298521246604422
43	0xbfb9e61b1d897559	-0.10116738768689028
44	0x3f49bac41d80b27f	0.0007852037042588993
45	0x3fa8eb52c1aa9e51	0.04867037405102493
46	0x3fb3c31c95dd939d	0.07719591769052987
47	0xbfb01caa84a5e71c	-0.06293740976789447
48	0xbf67e6b5daa70ddf	-0.002917628463565455
49	0x3f7eb726ff504dff	0.007498886426236861
