lasa_models/1/skel_model_heee.pt (torch, 99247 bytes, 18 tensors)

R f8 [20, 20]
00000000: 805f 293b 212b 893f 7272 b95f 2483 d13f
00000010: 923d 634d 698e 4bbf e037 0338 2050 e33f
00000020: 302d f600 4624 e53f e3dd ea62 9f57 d73f
00000030: cd59 7c52 c007 e53f 118e 482a 6b10 e63f
00000040: 79e4 bdbf a0f2 e83f 5605 2305 051a d93f
00000050: 0fe7 e996 665d e03f 12d8 0fc3 5243 da3f
00000060: acf4 7a96 f501 cf3f 98f7 88b9 2c1e ea3f
00000070: 28be b882 49cc d53f 5089 5494 5518 e03f
00000080: cd90 a096 e5e8 e23f 32ac 49d2 232e e73f
00000090: 5eb2 9413 8316 e43f c5d8 c6d3 cdf6 e03f
000000a0: 8254 f4a8 658d e63f 97e7 7bfc 94b0 eb3f
000000b0: d571 a7e6 444f ea3f 8ca8 08a0 e3ec d73f
000000c0: d9d0 d7ef b4e8 e43f c135 07fb 3daa e23f
000000d0: f49a f5fc 9788 e43f 1a81 f36f 822b e63f
000000e0: 9984 cb38 6858 e03f e19a f2b1 3422 e43f
000000f0: 2392 55ac 9301 ef3f 1c79 0092 0777 f03f
00000100: cbc6 9324 cc30 ed3f 2f2a 07c7 6e07 ea3f
00000110: e778 00e1 c3d7 dd3f 0ea0 7250 6f1f e33f
00000120: 2685 377e 8af4 eb3f 8c07 c6ef 95f7 b53f
00000130: 1a48 9c83 7b75 c93f 4c23 adf1 dfbd d83f
00000140: b915 f334 05b6 b33f d117 7841 1a73 d83f
00000150: 6832 2f76 95eb e23f 1335 86c5 2385 c83f
00000160: 8a4d 1b66 9e95 e33f 078b b54d 3c4f e73f
00000170: 2de9 8c4b 6836 e23f 811c 86de c631 e73f
00000180: f9be 3c28 6ace c93f 5368 96a6 8622 90bf
00000190: b77f 3c25 51cc cc3f 25f3 29d8 8c81 eb3f
000001a0: 18c8 560c ac4a dc3f fa91 30d4 c5fc df3f
000001b0: 1d75 fbe6 8282 e43f 6776 8d41 841c e23f
000001c0: 0403 1be1 e4fb ec3f 69c6 2deb c2e8 c63f
000001d0: 33e9 38a4 e36d e63f 895e 9cdb f325 f03f
000001e0: 4cf2 e244 b2ff e53f 58c6 b950 09dd dd3f
000001f0: 5862 9c89 2c2a df3f 78bc 2337 6302 b93f
00000200: 9936 720c 24ac df3f 7287 e5ae e794 c53f
00000210: 7e9b 06db f4b3 d23f bb90 46b1 ff7b de3f
00000220: 8c64 a1eb f7f0 e03f 74a6 3d1b 986d f03f
00000230: d86d 992f 2e1d d23f 0929 7756 8de6 ed3f
00000240: 7309 50b5 3a43 ca3f 8649 2332 f7c1 c3bf
00000250: 7b24 9368 01be d83f c6c5 d71e 901d 9c3f
00000260: f4c6 6d5a 143b eb3f fc6c b374 6bbd de3f
00000270: 3b00 3f04 2ef1 96bf 524e 6fc7 7952 b93f
00000280: b0b9 c4b8 8c97 e63f 99a7 820c 2582 e83f
00000290: 073e 26b5 6a94 cf3f 1a8f ffb8 e3bb c23f
000002a0: c67a 0d5d cdf8 d73f 10da 004e 9545 d83f
000002b0: e7d8 5d26 a2ac c43f 110f e359 aeec eb3f
000002c0: ca44 43a2 c6cf cd3f e62a 2e98 75d3 d13f
000002d0: 92c4 4e48 9b3c e53f a0a1 464f 71eb bd3f
000002e0: 53a5 8d4f 17a8 ef3f 3d8a 2be9 feb7 cd3f
000002f0: d52a 6588 4095 e93f 7bfc 79c1 f819 d83f
00000300: 6bc0 d18b a278 d43f c518 08f9 e0f2 c03f
00000310: fb1e 6546 f1ed d33f 1230 1870 5b65 e13f
00000320: a139 c72c 2016 c83f c3b2 05ca b03c ef3f
00000330: a570 3caa d7c5 b33f 1ff7 d9e6 94ee e83f
00000340: e17e 03cf 7455 ed3f f8f5 c227 a347 b33f
00000350: d172 20a2 cfdd de3f 0d2c 6455 dcd3 e03f
00000360: 1854 9f30 20e8 eb3f bb47 7eba f86d ea3f
00000370: e0c1 5cfe 53d8 e13f 2862 3100 5928 dc3f
00000380: 85ca 1c51 ccd5 d73f b6e0 1efa ad9c ec3f
00000390: 0a11 e917 fc66 e43f d01c e8c6 ce3d ba3f
000003a0: 8635 5cd2 bbeb eb3f ad39 6bfa 5265 c93f
000003b0: bfbd bc3a 82fc e73f bfa1 9669 f3a5 d93f
000003c0: f35b 8644 b480 d83f a084 015d 06de d13f
000003d0: e3d7 4641 6b80 eb3f 5a05 4f05 23dc c23f
000003e0: e75d 9da3 af47 cc3f f0c2 ebf1 9f33 e03f
000003f0: e7e1 97c4 c884 eb3f d110 bae0 5340 d83f
00000400: a020 a648 05eb bbbf fe03 cf50 37ba ad3f
00000410: 1f1b 998c 7f33 db3f 2a66 cb85 1b0d eb3f
00000420: def0 b44e 5c0c bf3f 7271 7630 e067 e63f
00000430: c625 e0e2 4852 d83f ba19 6557 0695 e73f
00000440: 35f9 41cb 542c e53f 6bca 6889 36f8 ea3f
00000450: d650 560d 0d3f e93f 7ebf d0bc 4711 9abf
00000460: e320 d23c 40ba ed3f 554a 93fa 8da4 d93f
00000470: 9331 c49d c7f7 ea3f 1d70 62f9 9948 ec3f
00000480: 5cfa 53c6 7586 cc3f 7420 2044 de96 e83f
00000490: 8636 4a9f f00e e43f 987f a1ae 7b51 e63f
000004a0: 7366 4ffc 5dec ec3f c969 f8ef 0728 a73f
000004b0: 7c01 9fde da8e be3f 5a79 e1b1 fedf d23f
000004c0: e110 99b5 473e d93f b792 0e60 3cb9 d13f
000004d0: 1c3a 1c2a 6ee5 d93f e893 b6f4 2678 e93f
000004e0: 59ea dac1 6714 e13f d7cb 14e4 f215 ec3f
000004f0: d1b1 4bd7 e352 cc3f c59b a544 8528 d13f
00000500: feb9 caf9 0183 e83f e565 90e2 3c25 e33f
00000510: aa83 8258 c8e7 cf3f 4971 935d 54df e73f
00000520: d285 c661 43b4 ca3f 9237 a46a 3d04 e23f
00000530: aacf aa77 427f e73f 6773 416c be22 91bf
00000540: e916 d15f 3806 e83f 364c 73a7 65a8 c23f
00000550: a63d 0bd0 6329 e13f 13d0 8ceb acdb 4e3f
00000560: 9533 2f1e 75b9 e13f d4d5 e995 215d f13f
00000570: dcc1 2cd5 5a63 e33f 01a6 ac4c 35c2 e23f
00000580: 4d99 d31f 973c e83f 2df9 d806 3448 ea3f
00000590: 1594 988b 1721 bf3f 527f 3ecc 513d bb3f
000005a0: 2a53 a9b3 dd85 a73f 192c 7d3b d5e4 e53f
000005b0: 2bb7 8b08 16e2 da3f 6b60 0f5e 9db2 ed3f
000005c0: fcbd 9cb3 c987 d63f 9310 54df 6881 ca3f
000005d0: edc3 c901 4fc5 e43f 2b17 9723 d891 ed3f
000005e0: dfb7 46f9 5af9 e43f 9eae 7852 92bf e73f
000005f0: b092 aac5 69be f03f cc25 76db d358 ae3f
00000600: ae98 57a6 ae46 e23f ef4d c7f8 a47c d03f
00000610: 8634 4cf7 c82a e93f 55bf b3e8 ae26 e43f
00000620: fff8 bba5 1c0c d33f bd57 8a7e 2f3e e43f
00000630: f931 6ed8 7e8d b0bf 333e 25c5 182b e53f
00000640: 1835 9cd7 aead f13f 8cf1 308c acd5 a83f
00000650: 85b2 488c 1321 f03f c2b9 0265 5636 d13f
00000660: a60e 1cc3 2bba e13f fc1b dfb3 4193 ec3f
00000670: 9a6f 5c4b 1732 ec3f d853 41a1 beb4 d73f
00000680: 10c4 9b3a a1e8 e43f 8dd2 7dfa c42b e63f
00000690: 3a21 5125 ab22 ea3f c41b 2ddd 99ae d73f
000006a0: 1579 be8b b500 e13f 870b c28f 447f f03f
000006b0: 029b aa8f 5490 e73f c531 8da2 c615 ea3f
000006c0: 4371 a82d 16e8 e13f 23b4 a202 069e d93f
000006d0: 08f1 cc6c 5a47 a03f 10f1 2906 e8c1 f43f
000006e0: 3947 4905 5ee5 e93f d94f f1ae 4ecc ee3f
000006f0: b4f5 a0fd ec18 de3f 2be5 47cd 7932 e93f
00000700: 523c 0d53 7f00 e23f fe72 d3eb cdac bd3f
00000710: ac9b 04a4 c2be e63f 9e7c d3b3 b5ae b53f
00000720: e612 b7b2 da58 eb3f 66fb 9963 dff2 c53f
00000730: d4d1 3c8e b739 d43f 28ab 37be fc57 d33f
00000740: f429 4cd9 ad2d ee3f 69de 6ec8 0997 e03f
00000750: 1ada 618b 19cf e53f 3e1c 1eed d392 ef3f
00000760: 2ca3 9b61 b79d cb3f 5d10 b846 e91c a43f
00000770: 304a c483 48d5 de3f 9721 0021 6d5d cb3f
00000780: 40d3 8d58 d3e5 e73f fca2 7c41 4466 cb3f
00000790: a0fb bf95 e4d2 a83f 0153 58ce cc00 74bf
000007a0: b26a d675 9985 9b3f 5c18 05e8 2e1d b63f
000007b0: 23f1 7dfc f17b cc3f be7c 78f0 32af c33f
000007c0: 6830 6f4e c03b e23f 1abd 53c6 4680 e03f
000007d0: 9f6b 3670 e9ee d93f 85b7 867a aed8 d43f
000007e0: 86ad f6ac 526c de3f f869 ca43 19f1 d53f
000007f0: 39a1 f85c 8e2a d73f 1024 5419 7275 d83f
0.012289294832200204 0.2736292776878947 -0.0008409513636937086 0.6035309881206068 0.6606779116422441 0.3647230592718797 0.6571961985635483 0.6895042253349307
0.7796176667171856 0.39221311093941347 0.5114014575512743 0.4103590874577786 0.24224729392691324 0.8161834357958808 0.3405936981752995 0.5029704949450124
0.5909297887742696 0.7243823153670574 0.6277480490148937 0.5301274429573587 0.7047603893175991 0.8653054171875166 0.8221764092409624 0.373833566935567
0.6534065899309339 0.5832815077680423 0.6416740360844799 0.692811220793405 0.5107918843533695 0.6291755176106016 0.9689424863723314 1.0290599539944827
0.9122067179107146 0.8134073149934177 0.4662942597659722 0.5975872584576807 0.8736011948750828 0.08580910781713963 0.19889778066914304 0.38658903695300206
0.07699615996087673 0.3820253028246699 0.5912577923096025 0.19156310219515457 0.612014007021956 0.7284223096615684 0.5691415286631006 0.7248262735528358
0.20161177601539018 -0.015756706159301647 0.22498525922946808 0.8595642301512255 0.44205762104968604 0.49980302545216626 0.6409315596935447 0.5659810333560927
0.9057487866012655 0.17897831424083968 0.7009142119852981 1.0092657640979346 0.6874629350127832 0.4666159904801126 0.48694909514009543 0.09769268127614505
0.494881641535224 0.1686067203509612 0.29223367108573217 0.47631828605723187 0.5294150926739731 1.0267563881010604 0.2830310311162214 0.9343935669687947
0.20517667630344824 -0.15435686061989545 0.38659701549892816 0.027456523783205865 0.8509618536174615 0.4803112640053795 -0.022404402741585932 0.09891472929967307
0.7059997185477211 0.7658868069022332 0.2467168221014477 0.146358933764639 0.3745606812207537 0.3792470227957958 0.16151835320824334 0.8726417308430162
0.23290331767069566 0.2785314546714929 0.6636482631930838 0.1168738192124068 0.9892689279342143 0.23217760453469963 0.7994692481964544 0.3765851869029075
0.3198629727767243 0.13241207275149783 0.3113978564692698 0.5436227025361424 0.18817522226750064 0.9761585183856244 0.0772375860801185 0.7791237362687048
0.9166816752658314 0.07531184883824682 0.48228827316942807 0.5258618991659901 0.872085661855297 0.8259242670485415 0.5576572387708971 0.4399626256831959
0.37242420121325664 0.8941259274643218 0.637571379375488 0.10250561100120881 0.8725260838124747 0.19840466716273167 0.749573816987258 0.4007538348328374
0.3828554791629692 0.27917632181749674 0.8594261431633153 0.1473430419846789 0.22093768586158477 0.5063018536585258 0.85995901486518 0.3789262480352252
-0.10905488036780975 0.05806134091790936 0.4250182030704525 0.8453500378774994 0.12128235742142432 0.700180143979692 0.3800222602445412 0.7369415003711801
0.6616615266682745 0.8427994426513811 0.7889466534129734 -0.025456543826464444 0.9289857089907197 0.4006686160111362 0.8427465516447675 0.8838624831000775
0.22285339530931736 0.7684165316177443 0.626823721993518 0.6974466715582706 0.9038534095700029 0.045227287333733886 0.11936729369245386 0.29492156382720724
0.39442627653285284 0.2769308984809799 0.4046283160431885 0.7959170131258562 0.533740881560628 0.8776792959891918 0.22127960216984247 0.2680981798534357
0.76599215304833 0.5982956338004298 0.2492609436203826 0.7460119083075735 0.20862619661515552 0.5630175669518727 0.7342846238375291 -0.016734099728967246
0.7507593032284748 0.1457640712384049 0.5363024772031408 0.0009417147003660829 0.5538888539828003 1.0852371078484468 0.605878273350807 0.5862070558115989
0.7573962804424724 0.8213138707867863 0.12159869344812109 0.10640441166333162 0.04594319170124657 0.6841837083715091 0.42004919848010286 0.9280535542593616
0.3520378355051148 0.20707426933961823 0.6490855250286792 0.9240532584305802 0.6554388874699234 0.7421352015275777 1.0464875909175753 0.05927145055745661
0.5711282013769698 0.25760769171503645 0.7864727811844581 0.6297220749820364 0.29761425194728014 0.6325910064213002 -0.06465904983469518 0.6615108347413695
1.1049030706665857 0.048505203355008936 1.008075283035539 0.2689414965087985 0.55397594554275 0.8929756653895988 0.8811146232505849 0.3704067778356239
0.6533971924492352 0.692842950097274 0.8167319992872202 0.37003180121649515 0.5313365678191838 1.0310712447687551 0.7363684469208638 0.815158193095663
0.5595808879620922 0.4002699876535322 0.03179438188678502 1.2973404160284794 0.809248934101766 0.962439862904371 0.4702713467448476 0.7874115952865045
0.562560713014941 0.11591803557844213 0.7107861712910242 0.08469710960661067 0.8545964708833622 0.17147438395837894 0.31602276697529175 0.3022453172294939
0.9430760616390317 0.5184372820576303 0.6815307352360975 0.9866733199313626 0.21575062051786043 0.03928307522076644 0.4817677771363007 0.2137886439452472
0.7468048791475681 0.2140584296951359 0.04848398521425357 -0.004883575461936075 0.02687682897303984 0.08638280071781551 0.2225325091238882 0.15378414861422657
0.5697938472672037 0.5156587480140928 0.40520702322253926 0.3257251926942149 0.47536150828337786 0.34284049625571766 0.36197241858691914 0.38216831658843464

L f8 [40, 40]
00000000: 645b 8f8d b66d e03f ec9d 06bc 97d4 ce3f
00000010: 2358 eb39 b249 e83f 72cf 5c7a 695a e33f
00000020: 0060 7c1d 61fd e83f 07e1 9e66 b757 e93f
00000030: 1807 7ed1 3116 d93f 2f5a 1764 2bd3 dd3f
00000040: ae5b de6f 7aa3 dc3f a3c1 da17 48cd e13f
00000050: eade d785 17e2 e43f bdb1 3098 2bbd df3f
00000060: 1100 2eb1 1a25 dc3f 5e5a 4976 df3a d93f
00000070: 60ce c28e e699 cb3f 091a 7231 d069 da3f
00000080: 3001 4c28 588a df3f a52c c282 7c14 e23f
00000090: 8177 3f49 207a e83f 0cc6 34a9 c9e5 e43f
000000a0: f3cd 8d5b d560 cf3f 1477 b2d3 d4e4 db3f
000000b0: de5e 2b3e 677e e43f 96d1 eb19 69b5 e23f
000000c0: fa1c 0b18 0f7d 883f f74f 7dd8 cddd e23f
000000d0: f1f6 4b5c 1cf8 e33f ff81 9842 505a e13f
000000e0: 25ff f185 5a28 dc3f 47a5 9fde e5d6 e83f
000000f0: 1187 267f 2fe1 e73f 0d0e fd50 7760 e93f
00000100: a4d4 73f2 c519 e83f 96c7 0859 82b0 e43f
00000110: 099a 8807 c2b1 e53f d47e c4f4 8331 e13f
00000120: 4f2e bc77 e03d df3f 3023 ddde 4791 d23f
00000130: cd3d 1195 a79d ea3f 7901 509d b3c2 d03f
00000140: c784 8a4e 64de e93f b5a6 213c 5e9a ef3f
00000150: b824 39b9 ed1c e93f ebae 72cb a5d8 c53f
00000160: bf72 08c9 cdaf e03f b002 a3c6 1d75 da3f
00000170: 2fb2 8822 44fb dd3f d6d7 3a35 d139 943f
00000180: bd34 8e62 9c56 babf 84f4 2475 2b8a e13f
00000190: ae68 6c9a 2a25 d43f 6342 f606 f698 ab3f
000001a0: 911c 5ed2 a673 e63f 08ec 73de 5e21 ef3f
000001b0: d3f2 2685 15e6 d83f a819 3706 254b e13f
000001c0: f6ed 08f2 1a62 eb3f 07e9 7d6d bf76 e93f
000001d0: 4bb9 6e71 da73 a53f c85a a649 535d f03f
000001e0: 79b8 ed2c b3ce ae3f 6baa e9d7 54df c23f
000001f0: f67d ffad cc05 c13f 40a3 1bb1 7220 d43f
00000200: d0da 1a42 ea8f de3f 5043 542f 5eaf df3f
00000210: 1ca7 37cb 764a e43f c7e3 8b94 ba0a e93f
00000220: f537 2162 66f3 c83f 77af 7a33 305c e43f
00000230: 0568 cbb8 e2bd d73f e4a2 3a22 da12 e33f
00000240: e8e4 30d8 9547 e23f 5807 b86a 43d3 e43f
00000250: 0065 9ee6 b0d7 c53f 098c 046e c6d5 df3f
00000260: 11e2 5098 06d3 c53f 5023 b116 bd5d e73f
00000270: 2d72 371a 48e3 d73f b676 d68a 60ae dc3f
00000280: 054f a7ef 400c b13f 1232 a427 ea9c ef3f
00000290: c538 fd8d f392 dd3f b6db 9944 3c2f e43f
000002a0: acff e507 8a11 ce3f 0a97 14d6 83ba e53f
000002b0: 1139 b129 c386 df3f ca40 9de8 082e d73f
000002c0: 827d c33b 61ca e23f 4b1f 6dee ae18 cc3f
000002d0: ee34 be5d 9b21 e33f 6f49 2878 b059 d43f
000002e0: 2f8e 867c 8d82 e63f 68fc dee7 1590 bbbf
000002f0: ccfb 01fc 2c25 e03f 1967 f769 4e3d eb3f
00000300: 747f e823 b6c5 d93f 557b 0ddb 09aa e43f
00000310: 4544 afe7 13da d33f 3db7 2d8d fff9 cc3f
00000320: 923b 3287 c087 d83f 56c6 7732 86b5 d63f
00000330: 525d 32d4 b5c5 e33f 53d0 032d b2c7 d33f
00000340: 16d5 caf5 d50d e13f 93ab 6ceb bdda e43f
00000350: 97ee 89a4 b8ad e73f 589e 2e09 ac0b e03f
00000360: 68a8 789c 4f72 d53f 9d26 75c6 fc8b d63f
00000370: 8c36 b62b ef7d e83f 5721 50a9 2b32 de3f
00000380: 1f7d e9ba 76a7 e43f 3d13 4d20 31a6 db3f
00000390: 8714 a8da 8d9c e73f 360f c62c 758a e23f
000003a0: 0a61 c85c 3a8a dc3f b03e 77ae 3e25 c03f
000003b0: 16e5 b5f5 968b e03f 17ab decc 3ab8 cf3f
000003c0: cfae 437c 03a3 e53f 13c9 945e 47aa ed3f
000003d0: a0ee d5fe 66e7 e13f 6c41 c4a2 eee9 dd3f
000003e0: 2ba0 05b8 5afb e63f 5c5f 6a4c 2835 d83f
000003f0: 1135 164d 4077 d83f 5cfd 5597 4274 a73f
00000400: cbba 6d74 b721 cb3f d69a 32e9 4b59 d93f
00000410: 5bab 0e7a be98 df3f 073c b65b 5aba e33f
00000420: 9f8f b4b0 fe93 e03f 20f8 dcfa a94e ef3f
00000430: 12a8 05c4 4067 e63f 22d5 c8b4 fe9a d53f
00000440: c6d2 644c f376 e13f 51e1 b656 449d d63f
00000450: b65e 0906 b784 e53f 7c9f 62e3 8813 e83f
00000460: d07e d139 33e0 c73f cfbf 287c f447 db3f
00000470: 8c1a 9fbb 6e07 dc3f 4ab5 61be 81f5 dd3f
00000480: bfb6 40ef 8870 de3f a51e 26b2 afb7 dc3f
00000490: 7f5a c934 70ce d23f 81be 24c8 602a d93f
000004a0: a56d 9087 9e57 d83f 2acf 7b82 2587 de3f
000004b0: c41e 43e9 ab24 da3f f5fa ba72 ded2 c83f
000004c0: 53cd 7da5 0250 e23f 326e 2ed0 dd33 e53f
000004d0: 96b7 4344 ad9c de3f 2096 39be ee06 d73f
000004e0: 0e93 3a52 a7c7 de3f 2cff 9fae ca4e ea3f
000004f0: 2b01 df65 eac1 83bf a5b6 92df b273 ea3f
00000500: 96f3 af8e 2078 ed3f fa52 9ffe 7496 ea3f
00000510: d9f2 1a0c b78e f13f 9def cac5 e431 ea3f
00000520: 766f 51e8 a69d e43f 76d8 7b89 32e0 d13f
00000530: 9a57 919f a0dd e83f 6046 2404 01ac c73f
00000540: c697 f9f3 e75d e33f c526 2bd5 5cf2 c73f
00000550: 5c07 d3f7 f670 b3bf f53f 9873 5343 e63f
00000560: a5cb 9b4a ecff e13f afa8 32c2 573e eb3f
00000570: 7b4b ddb4 f4a5 db3f c488 d55b d635 eb3f
00000580: a7f8 d176 33af e63f 9098 752d 3d45 e93f
00000590: cc53 971a 549b e63f e51e 4a0f c905 a83f
000005a0: 6d73 4f80 f14c bfbf 4a6e 7adc b6c9 ec3f
000005b0: c80d 2a24 53a9 ef3f 52ec c671 5dba e03f
000005c0: fbf1 033c 315d e43f 0871 d52b 2f59 ed3f
000005d0: 06b0 a431 5527 c63f 5609 3705 f187 c63f
000005e0: 486c 4ca9 17c9 dd3f 1452 b5f7 381b de3f
000005f0: c5ef 51e2 35bd e83f e68f b7c9 8061 da3f
00000600: ec04 6b98 dd7c e73f 284e e6fe d9c2 e13f
00000610: 528b c089 73f8 e33f e2e0 bc27 9a5a cf3f
00000620: 0356 39f6 7d38 d63f d8ee 3dde 3082 d23f
00000630: 6bb6 93e6 f773 d63f 6d20 d436 696f ec3f
00000640: c46b af80 ad94 b73f 1382 0dfa 91ba ee3f
00000650: d53e fbda 6977 ef3f cc37 0975 5f21 eb3f
00000660: d192 9234 658e b1bf 44d0 fe71 a86b c83f
00000670: de0d 5c44 13d2 a63f b237 aed0 0c78 d93f
00000680: b0c6 950d f7f7 e13f a4d7 0e41 0182 9fbf
00000690: d796 827a 4944 e63f 91ba 74d8 d882 d13f
000006a0: 2f6e a9ee f449 cc3f 23b5 3db8 ef61 ce3f
000006b0: 8a77 dc05 e7d4 bd3f c2d1 4c7e ec29 e73f
000006c0: 2abc d9f8 2c56 e23f 2cfe 9bae b5ab e83f
000006d0: f53a a3c0 b957 c73f 2811 1cb9 cefc e13f
000006e0: 3304 9145 f5a9 c0bf ec80 0a31 3632 b73f
000006f0: f62d a795 fd92 e43f 5a83 30ac 09fb ae3f
00000700: b587 32e4 c477 e13f 7f12 2cc9 cae6 e33f
00000710: afd8 44dd f61a df3f e654 e971 8afa ea3f
00000720: bc5a 9c3b 8771 e53f a1cd 9689 8bbf de3f
00000730: 2ded 48ce 78af f03f 49e3 f5f2 cc0c f03f
00000740: 19c6 f667 d27c cf3f 014c f0c2 a5fd e83f
00000750: 38e2 5ad2 5b71 e33f 7188 ba25 a62f e33f
00000760: 6f9a d5ef ff4d e73f 33b1 bf03 5058 ae3f
00000770: 68ce 719a fa7d c5bf caa2 17ef 7586 e83f
00000780: 01f8 7e09 5d95 f33f 739a 543a d353 e83f
00000790: 47ca 561b e5bb f23f d64a 51f8 6bd0 e03f
000007a0: 1f25 3ab4 fb49 e63f b691 50d1 3f31 f03f
000007b0: ba81 9f8b f295 eb3f d3a2 5132 20d8 d13f
000007c0: dee8 7e15 bfe9 cd3f 8081 feb9 828e f13f
000007d0: cdf7 8e54 b09c c73f 43c9 eee7 f3ee f03f
000007e0: c794 7355 c2f7 d63f 18e3 7cd9 e1b7 f63f
000007f0: 17d1 d733 72de c53f b9b5 d8ca af5d c33f
0.5133927121013184 0.24086281472158022 0.7589961177097887 0.6047866239446036 0.7809300971885023 0.7919575695332534 0.3919796510527802 0.4660137631848639
0.4474779217211403 0.5563087907703913 0.65259910718211 0.4959210382683315 0.4397646646757503 0.3942183165685601 0.2156341740679748 0.41270832852060885
0.4928188699268672 0.5650007776142912 0.7649079733489402 0.6530502610023077 0.24514262171179232 0.4358417575220852 0.6404300894018566 0.5846448427460469
0.01195728103756587 0.5895756939230513 0.6240369608564987 0.5422745991418764 0.4399629886684003 0.7762326572530264 0.7462384684951947 0.7930256444746547
0.7531461463355709 0.6465465296698649 0.6779489657536156 0.5372943668953334 0.48815166180495323 0.29011723293347114 0.8317449485274949 0.2618836437468626
0.8083974393849979 0.9875937628214247 0.7847813241616199 0.17067406114562486 0.5214604307580756 0.41339821241494246 0.4684610688443937 0.01975180518521554
-0.10288407713069865 0.5481164253211692 0.31476845817963806 0.05390137515053508 0.701617632745995 0.9728235573560378 0.3890432167352575 0.5404229279891313
0.8557257392162103 0.7957455767166558 0.04189951548265699 1.0227845074602318 0.06017074511952187 0.14744053404440946 0.13298948760983337 0.31448046966265863
0.47753387885624665 0.49507860776889334 0.6340898484315605 0.7825596715257398 0.19492797652713958 0.6362534528211502 0.3709646992334686 0.5960512798820585
0.5712384436111764 0.6507889828064704 0.17064486752205 0.49742279762193725 0.17050249516775343 0.7301927035524418 0.3732471710225436 0.4481431346738235
0.06659322596470581 0.9879046224828605 0.4620942007649201 0.6307660426963284 0.23491025338807725 0.6790179425485985 0.4926002413893836 0.3621847411750535
0.5872045676477884 0.2195032753172604 0.5978524046819567 0.31797420248144354 0.7034366066113246 -0.10766732130922352 0.504538051798471 0.8512336797386723
0.4026923514047589 0.6457566526768043 0.3101854097886341 0.22637934106335847 0.38328564837223056 0.35482935837271634 0.6178845543353566 0.30906347652422034
0.5329389382010585 0.6517018888601903 0.7399562085770012 0.5014248065317117 0.3351019886055213 0.3522941530287456 0.7653728345628266 0.47181216749642857
0.64544235712302 0.4320185485305961 0.7378606100688935 0.5794015764699683 0.4459367662507395 0.1261366226085463 0.5170397566827514 0.24780974391372787
0.6761491229094306 0.927035984734433 0.5594973542460657 0.4674030866163068 0.7181829065493778 0.3782444711919106 0.3822785141754404 0.045808869336719765
0.2119664495944192 0.3960752274819418 0.4936977569547502 0.6164981642958772 0.5180657817149842 0.9783525371237864 0.7001041248852309 0.3375851407502798
0.545770310599061 0.3533488127536844 0.6724505536939975 0.7523846093290412 0.1865295440975303 0.42626678585929495 0.4379536468735885 0.4681095465847035
0.47561858524828077 0.44871132275918973 0.293849994229653 0.39321155114428313 0.3803478549832227 0.47699868910352683 0.40848825244436804 0.1939352092940322
0.5722668869260964 0.6625813547174799 0.47831279436547314 0.35979813172011355 0.4809358885780036 0.8221181307453427 -0.009647208436832052 0.8266233793890093
0.9209139620648894 0.8308663342564551 1.09734253624554 0.8185905326022184 0.6442446267569568 0.2793089239706953 0.7770541302258949 0.18493664457541836
0.6052131428848433 0.1870838204252349 -0.07594245481871326 0.6957185037335863 0.5624906022261383 0.8513602059295148 0.43200414335768017 0.8503219407687301
0.7088868447024382 0.7897020233038052 0.7064610022886142 0.04691913901939219 -0.12226781256272341 0.8996233278480272 0.9894195276578381 0.522749635906971
0.6363760158706663 0.9171367508056685 0.17307534145345488 0.17602360491407393 0.4653987077051096 0.4704115313554962 0.7730969829858557 0.41220111559800754
0.7339923836626929 0.5550355890758896 0.6240785303565224 0.24495245876619892 0.34719800038632814 0.2891962213832193 0.35082814709935545 0.888599974715374
0.09211239234666296 0.9602746852725111 0.983326842973805 0.8478238378390812 -0.06857903035649861 0.19078546110324812 0.04457149705379114 0.39795227412184453
0.5615191712697278 -0.030769366832565162 0.6958358185554187 0.27361127031591886 0.22100698140535388 0.2373637818922499 0.11652988331885986 0.7238676516340592
0.5730194912301887 0.7709606561983882 0.18236467271932325 0.5621102919981569 -0.13018670937347707 0.09060991952219738 0.6429431841765438 0.060509016293741794
0.5458702523212567 0.6219228676932999 0.4860207711057098 0.843083593829445 0.6701084293625494 0.4804409831660568 1.04283981876399 1.003125142158938
0.24599676205029722 0.7809628302951525 0.6075877293106435 0.5995665299308383 0.7282714542642007 0.059267521340958494 -0.16790707150686335 0.7664136571666742
1.2239656802116772 0.7602325572268697 1.170872790139258 0.5254421091034043 0.6965311546383964 1.012023751865042 0.8620541312230252 0.27881627000765014
0.23369587468716352 1.0972926392933857 0.1844692623980663 1.058338075625742 0.35887201638099636 1.4198931213015324 0.17085101634405284 0.15129659084906935

weight f8 [50, 4]
00000000: 18d2 8b81 c1f5 d8bf 97fc 346b cb18 b6bf
00000010: 7452 8b41 ad5a dcbf 90ac 7af9 a84f cb3f
00000020: 6c8a 8028 83f1 dabf 5b84 7bfc e180 d0bf
00000030: 0e1d 9d3e 11f9 cd3f c031 967a 45c1 be3f
00000040: 6655 e742 19d4 dbbf 3e17 967e 09d7 d1bf
00000050: 6c0e 22d3 4703 c1bf b99b 9f23 ba6c c93f
00000060: b425 26e4 b907 c8bf 6429 2824 0939 d8bf
00000070: 74a1 3702 a68d d53f d270 501e b4f9 d23f
00000080: 1751 5c7c ca8d d03f 490f 7772 0aa5 dabf
00000090: 43c2 04a2 2f49 bd3f 16f1 4c73 62f6 893f
000000a0: 02d4 db27 0066 dabf 64a9 b47c 19f4 9abf
000000b0: 3362 23cf 4b87 b73f cb24 94e7 8915 a33f
000000c0: 2671 af81 5447 d03f fe93 22d0 3d3b dc3f
000000d0: 7727 b267 27d0 d23f 9a94 64ff a146 a8bf
000000e0: c57c 9344 c83a c43f 2612 b0f5 c1d8 dc3f
000000f0: eba1 d2f7 01b5 d9bf 0f90 f630 7c9f c63f
00000100: e31c 598e d4d5 c83f 37a8 07f1 b702 b03f
00000110: 9965 c757 76d2 d5bf e336 bbf1 9711 cf3f
00000120: 5958 3e47 ad2a d23f bdd3 798d aad8 873f
00000130: 6645 440b 0d8a d2bf 4ff2 9068 7320 bfbf
00000140: fb79 d967 9fc5 ccbf 4245 d6cd a68e d93f
00000150: 0260 6060 a640 d2bf 1b44 43df 0f1c 92bf
00000160: 1375 872d dea8 c33f 9326 5dae bffd dcbf
00000170: af75 33ba ae75 d9bf bf89 b9fa 8c08 92bf
00000180: 634c b1be daad c93f 3498 56b3 dcb3 a2bf
00000190: 2948 d348 f633 e03f 5cb1 d4c0 7fab d6bf
000001a0: 8a43 dcaa 15a4 dfbf a9e8 d873 1679 de3f
000001b0: c668 aca0 f077 d33f 5cdc 642e df78 d8bf
000001c0: 2bfd d569 f96b dd3f 6649 3577 9aab d53f
000001d0: 419b 3343 6253 d0bf 2787 0be6 36a0 dabf
000001e0: 800a d92d b786 a6bf 06cf 52ab 13b0 e0bf
000001f0: 080e d713 277e bebf f56c 37bc d76c c2bf
00000200: e848 75e4 5dee d13f 5512 ff64 3b28 cd3f
00000210: ad0c a14e e1cd de3f fc5f 4eae 8a05 b83f
00000220: e30b 22b2 016b cfbf 51a4 7261 5d8b d13f
00000230: 9b75 1962 e576 bc3f b861 f257 ff3c 84bf
00000240: ca2b 614e e2db debf 9474 b7b3 00ed c53f
00000250: ca8f fbff 2964 c8bf 6eca 9e92 cc12 b43f
00000260: 8ae9 ffd3 5253 bc3f c904 4038 71c9 d3bf
00000270: 050d 4775 e9cf d6bf e66e 43dd e42b b3bf
00000280: cc8d e9a2 5e92 e8bf 03b4 d0b6 8d8f d5bf
00000290: 1f50 1ae1 bad9 b73f d23f 4f7d b982 cebf
000002a0: e4f9 dac1 1bc3 ba3f f862 fbcd 75e3 c23f
000002b0: 5b49 857f 7834 e2bf aab2 729f 5187 d8bf
000002c0: 2f31 8dcb b377 a6bf affa 6242 8451 c2bf
000002d0: 0f29 b657 71ae b8bf dfe2 c304 0cc4 9c3f
000002e0: 0b6e 679a 485f d3bf cb66 f95f fec3 ccbf
000002f0: 3316 a862 67b8 d3bf c553 ddbd 8a73 d53f
00000300: 6544 f39c 8fba d8bf e180 5e7b d29e d5bf
00000310: a029 af17 1f61 dcbf 57a6 1861 06c2 e13f
00000320: db92 6ef4 0d50 e33f c567 af94 1c65 d03f
00000330: 2cea fca9 fe4f d7bf 3e47 c186 55f6 b3bf
00000340: 7bf5 a09d 0b0e cd3f b11e 0449 a8ed d0bf
00000350: 5058 c611 61b7 debf 2211 aa87 e45b cb3f
00000360: a9ef aa4b 2f46 cabf 6069 a2f6 dd5d ddbf
00000370: 677e a58c 0c1e b3bf dd22 63dc 7d43 d9bf
00000380: bcbd 029e 49cd 853f 2b98 5288 1e60 c6bf
00000390: 0d6f afff bcbb e2bf a9c4 e76e a723 ddbf
000003a0: 0051 a5bf 4f3f dabf 27f1 5cdb 1e35 db3f
000003b0: fa72 cde5 ff47 c9bf 0513 039c ba26 d03f
000003c0: d120 1e4d 6b76 d9bf de47 c599 80c7 d8bf
000003d0: 6697 f943 fd18 d43f 42bf fb19 fa12 bdbf
000003e0: b317 2449 1377 de3f e382 753f 91fa c6bf
000003f0: bf4f b106 e991 bcbf 178e 17ac 9c99 b8bf
00000400: 8b2b 9d1e b71f dcbf c7a7 0bc8 2044 d33f
00000410: 2dea 7a3c 70af d4bf 9e1c 0014 8dca dbbf
00000420: 04f2 11a3 be73 d63f 9ccc a39e 631d d53f
00000430: 6b84 8b1e f1f4 dd3f 3b5f eeef 0b22 bdbf
00000440: 4f10 99a7 7826 9d3f 6651 a930 bded d6bf
00000450: 7acb 7881 c457 ae3f efa5 7556 efe9 a2bf
00000460: 6f5a 5601 8b27 d9bf d776 3074 57bf d63f
00000470: edf7 5797 90bd bd3f d00a 9e2d 1eca d03f
00000480: b101 70a5 d1a4 d3bf 1e54 28a6 bc55 dcbf
00000490: f7df 8168 2135 dc3f f7f9 583d 40f9 debf
000004a0: 3bf3 734b af6f d1bf 69db de47 b8a4 d4bf
000004b0: 80e8 6dc0 4d74 d13f 2e64 2ef3 3eeb d03f
000004c0: d329 e076 fe85 b73f 94a8 9d77 45d9 cfbf
000004d0: 55fb 2cef 0615 d83f 4bff 555d e4be ce3f
000004e0: df0a eb10 8f61 d13f 03be 156d 00a2 a23f
000004f0: 8439 29da 48b8 bb3f 7616 ca84 1d7f bcbf
00000500: 074d 295f 9e66 b43f e968 744b aa23 d93f
00000510: af9e 7f3d 2303 a3bf 55ae 7f1b 6843 da3f
00000520: 233b 2b66 4d25 d73f 6dad 127a fa79 bc3f
00000530: 97c5 0194 1f11 bd3f 87b7 3e48 7618 cf3f
00000540: 91e1 eb6a 7e50 d9bf 3452 4f20 266b d23f
00000550: c948 b129 39f4 d6bf 422a 7e1c 8906 bebf
00000560: f137 5b55 507e cabf 7a2e d94d 4fb7 dfbf
00000570: 4201 ebd8 b1ed d03f 84bf 30e6 151a bbbf
00000580: 6597 bdb8 2eff c8bf 3588 fdf4 7d6a c83f
00000590: 274f 6088 99be c5bf c72d e72e 638b dc3f
000005a0: daca 0516 202a cfbf 7728 8df4 f36f d8bf
000005b0: 3081 62bd 1feb d6bf d6d2 cecd 0cd0 cdbf
000005c0: 5246 16bf 7163 aa3f 20e3 e79f 9d9e e03f
000005d0: 6599 ab92 e911 b9bf a835 f31b 2f73 9bbf
000005e0: dbf8 552f 4e81 dd3f 208f 2ad1 47f3 ddbf
000005f0: 07be ff6e e0cf cc3f 274a e857 45f3 d73f
00000600: 8a03 37a6 daa0 c73f 0d70 3c1c 61ee b83f
00000610: 0971 778a 05c1 e0bf 8ed8 1e98 8875 c23f
00000620: b672 4a1e 2e78 c2bf 99df 0a2a 5802 a8bf
00000630: dc30 8fb6 43ec d93f 9791 6d48 37ff cfbf
-0.3899997487162934 -0.08631583564145938 -0.4430344715195027 0.2133685320053229 -0.42099074321064367 -0.25786637932293893 0.23416343266783496 0.12013658755149148
-0.43482047589835415 -0.27874982225363343 -0.13291261491041284 0.1986305879538273 -0.1877357830056049 -0.37848118334718195 0.33677053658040923 0.2964906974828071
0.2586542334040742 -0.4163232915709512 0.11439798074275935 0.01267697252625814 -0.4124756230588106 -0.02632179092067001 0.09190820509992008 0.03727370216263067
0.2543536440332609 0.4411158115929651 0.2939547073989312 -0.04741388552273769 0.15804389332240568 0.45072983735033956 -0.4016728325027816 0.17674209967401608
0.19402558279600787 0.0625414813472681 -0.34097059795529955 0.24272441199575842 0.28385478932739755 0.01164372677087921 -0.2896759614969454 -0.1215889101303642
-0.2247809655263636 0.39933176137227033 -0.28519591724170834 -0.017685173036458317 0.15359093878843363 -0.4529875948688666 -0.39780777152722185 -0.01761074333479384
0.20061811743889554 -0.03652848900974029 0.5063430235261467 -0.35421747046600216 -0.49438993154131394 0.47614060700619604 0.3041955536915676 -0.38237742930090746
0.45971522651230384 0.33859883920117395 -0.25508934557585766 -0.41602871384940204 -0.04399654802957276 -0.5214937540208389 -0.11911243662239468 -0.14394661607989404
0.28017375288358304 0.22779028350318478 0.4813159244406034 0.09383455997010509 -0.2454530830183038 0.27413115040196084 0.11118920941358683 -0.009881968375609826
-0.482170654814294 0.17129524970269883 -0.19055676459458787 0.07841185168835249 0.11064641643307574 -0.3091700600926513 -0.3564399380959034 -0.07488851930559867
-0.7678673917657135 -0.3368868146233696 0.09316604610131705 -0.23836439722663144 0.1045396183280683 0.1475665336390859 -0.5689051142347056 -0.38325920649621514
-0.04388200626144322 -0.14311269036803284 -0.09641178504367452 0.02809160975536684 -0.3026906497813974 -0.22473125158540194 -0.3081301177447557 0.33517712155781637
-0.38638677909063396 -0.3378187374855895 -0.4434278231898592 0.5549346825038793 0.6035222791730023 0.25617136497532683 -0.36425749397645535 -0.07797750987927274
0.22699113079753971 -0.2645054543540751 -0.4799425767499814 0.2137418425010163 -0.20526686854088652 -0.45885418973343484 -0.07467726167441811 -0.39474436304275945
0.010645461210826983 -0.17480832725885995 -0.5854172700742041 -0.455301149660111 -0.41011422839552836 0.4251172201363879 -0.19750975342585503 0.25236382709071875
-0.3978527310469078 -0.38717665688193204 0.3140252269571334 -0.1135708154140476 0.4760177816646049 -0.17952170942864773 -0.1116014138545429 -0.09609393311944135
-0.4394357489551843 0.3010332063264482 -0.3232079115511251 -0.4342377372090115 0.35081449436964385 0.32991877071544606 0.46807506544980154 -0.11380076034253943
0.02846706889091904 -0.35826043846215894 0.05926336365191438 -0.036941031746049784 -0.393038512521719 0.3554285654698623 0.1161737794390942 0.2623362966043432
-0.3069347491837347 -0.442732965720383 0.4407428284243901 -0.4839630698296839 -0.27244169586610995 -0.3225537015782068 0.27272361556936886 0.2643582701508106
0.0918883362029768 -0.24881809559457635 0.37628339154246265 0.24020056302469536 0.2715795197693022 0.0363922246132198 0.10828070951649776 -0.11131462566307868
0.0796908361747236 0.39280183189988677 -0.03713331342424674 0.4103641766111868 0.3616517541640169 0.11123624306008191 0.11354253161859727 0.24293402221286106
-0.3955379528192902 0.28778985171564675 -0.35865620681319094 -0.11728722520471371 -0.206979791334049 -0.49556334116343914 0.26450773414037 -0.10586678380854947
-0.19528755207573592 0.19074987852497008 -0.16987914237017174 0.4460075338399431 -0.24347306323360024 -0.38183306581470994 -0.35810082907302654 -0.2329116825982484
0.051539949966479384 0.5193622706566181 -0.0979295714456377 -0.02680657966702929 0.4610171758903456 -0.46797366548911334 0.2250938932406685 0.37422307572083685
0.18459637752496533 0.097387380021644 -0.5235622124123732 0.14421183994062797 -0.14429260710757824 -0.0468928862878208 0.4050454409414337 -0.2499760726597173

bias f8 [50]
00000000: 3f47 b0a9 6d8b a73f 5a3f 080a 78ca d33f
00000010: cc3c 50a7 973d da3f 70b4 5471 1a14 d9bf
00000020: 7f27 3ea4 c751 ccbf d647 c028 71f6 c2bf
00000030: f09b 6c5a 1ae8 bebf 0972 9094 6610 c0bf
00000040: 1823 be20 9c40 d6bf f8ff 4f34 16a9 cd3f
00000050: 194b 9372 b709 e03f 5a20 4e00 f59b dfbf
00000060: 4bb1 49e5 c5f3 cd3f 40bd dca8 8965 d9bf
00000070: 92e1 d96c 1f0f a9bf dcee 40ed e4f4 8f3f
00000080: edf9 d8b5 aa45 bb3f 706e 5264 1705 db3f
00000090: 5ef8 cc3f 8137 db3f 8379 a681 82c7 c83f
000000a0: d301 b2b7 b2f3 d9bf fe3b bcad 15c9 d8bf
000000b0: 3c4e 7928 1f06 d2bf 5aa4 a1bc 3716 ddbf
000000c0: a5e5 3978 5ef0 c93f 6bee b1e0 befa c5bf
000000d0: 6f90 1fdf 61db 9dbf bc8d bfdb f283 d5bf
000000e0: a57f 6077 ba48 c03f 8c13 edff 4b4f d6bf
000000f0: d5df 8e68 100c cabf 7606 004c 880c d3bf
00000100: 3289 c5e2 297a c6bf cae7 6ad1 2490 b9bf
00000110: de96 4d82 9101 d13f 5409 d0be 8209 d1bf
00000120: 306c cf7e 494f dbbf a03a 0ea5 943e d5bf
00000130: ddae df83 35ec c8bf 6024 8d1f 0843 e03f
00000140: fae9 6fa9 464f ddbf ca93 c2dd a0f3 d33f
00000150: e859 77dd 01ba bcbf 3de7 3ea7 a70c b43f
00000160: e73f d7c0 c55b b13f bc82 d88c ab9d d0bf
00000170: 0863 bb2d 5518 d5bf a11b 3940 2fe1 bd3f
00000180: d212 3eaa e9a9 b2bf b29b 94e7 a1b1 de3f
0.04598562904733549 0.30923272113522204 0.4100093015594666 -0.39185200755566196 -0.2212457229582547 -0.14814581384467712 -0.12072910983680152 -0.12550050977814944
-0.3476934737923769 0.231722617667401 0.5011861074256984 -0.493893862054852 0.23400186248489727 -0.3968223713918242 -0.048943502461898394 0.0156038174537722
0.10653178157460959 0.42218575284071047 0.4252627490094535 0.1935885556276383 -0.4054991525554474 -0.3872732350000091 -0.28162363960766235 -0.4544810621360448
0.20264798040788637 -0.1717146489280482 -0.02915718960129293 -0.33617850742140454 0.1272194941420796 -0.3485898970869179 -0.2034931669747936 -0.2976399175823653
-0.17560313771088826 -0.09985571015104636 0.26572072720442275 -0.26620548852965453 -0.42671430000126787 -0.33194461935719666 -0.19470852793835194 0.5081825844037091
-0.4579636244449429 0.31174489647156334 -0.1122132459343913 0.07831809838435518 0.06780658681896022 -0.2596234202810981 -0.32961015192044885 0.11671729391046749
-0.07290516287146012 0.4795918237236335

weight f8 [50, 50]
00000000: ba12 926b 3e3a b63f 94d0 deeb 40f5 9a3f
00000010: 5777 293c 20d2 a93f aa94 7f1f e285 aa3f
00000020: bdda 17ec ab34 a1bf b858 c1aa 0d6d b13f
00000030: a1ed 9ba8 ed5b c03f b2c1 8d01 497c a7bf
00000040: bc65 5e9a 2fdd c13f 755b fa51 0115 b83f
00000050: fadb e1c1 301b a23f 18d3 954d b7ba b53f
00000060: 559b 362e bae0 9ebf 6ffc f4e6 73ee bbbf
00000070: 44b8 5684 c64b 7f3f bf72 76ec 5004 70bf
00000080: ad09 df79 8422 babf 8381 1712 10a3 b1bf
00000090: db84 fe25 9531 c5bf 454f ef92 ebff bcbf
000000a0: 2f3b 61ff 5ddd b9bf 2f7a baaa c11b b7bf
000000b0: c0ef 07fd 8634 95bf c70a ad0b dd48 b1bf
000000c0: 6bc6 2d5f eea2 ba3f 3ba5 9425 8795 9fbf
000000d0: 499d 36c9 8c62 88bf a5ef cfda e126 a1bf
000000e0: 0001 fae1 7a6c 93bf 2a26 be38 aded ae3f
000000f0: ca87 f24c 3749 bf3f eed8 7aaa b366 b63f
00000100: e7ca fbaa 8dc6 a8bf e33c 5ee9 3023 c03f
00000110: a530 d0a6 01e8 b73f 2995 1f42 7d00 c0bf
00000120: b6ec 4bd0 007b bbbf 0d13 0b66 2e50 a3bf
00000130: 40a6 d07a a43b 55bf d1e6 87ea 8335 ba3f
00000140: 2879 24a1 0992 80bf 2e7d 17cf e349 a4bf
00000150: 393b 258f 47cb a6bf 60c8 05d7 40c9 82bf
00000160: 5e2e 4cd6 4a41 b5bf f4ca fdf7 c2c1 6dbf
00000170: 69df ebcc aa0a b7bf 666c c8dd 6c12 c5bf
00000180: a6ea aad1 122e c0bf f9c4 3e0a c0e2 b8bf
00000190: 23ae a66a a5fe ad3f 8a2f 11e1 04ca a73f
000001a0: 5112 9022 8cb5 c0bf 8697 02e9 cd6b c1bf
000001b0: b12c d77c e0e1 bebf c18c 5087 f035 c1bf
000001c0: f223 c6a4 72b1 c03f 2d60 c6f1 fba1 c33f
000001d0: d8a7 711e 19b4 bcbf 8708 c14f d559 bdbf
000001e0: 78ea 5535 76a7 ba3f 8ef5 d784 6a24 8dbf
000001f0: 4824 c181 8e9a bbbf e237 9e53 599e a83f
00000200: 1484 37f9 d9f0 a23f af13 9514 77f1 c4bf
00000210: 5b0f 68d0 b58c ba3f 9bc9 202e e70c bd3f
00000220: 41f8 d674 374c b43f dc3a 9c34 1888 84bf
00000230: 661a e01e fbf5 c13f f475 f8f8 9002 b9bf
00000240: 1c46 ebb7 392d b0bf 3ae7 0cdd 0e4d 923f
00000250: 17c3 47bc 2064 c13f d440 e529 49b2 a2bf
00000260: fab2 c93c 768a bdbf a058 ece1 9f58 a93f
00000270: 32fa ba6e 5aa7 973f 69c0 4fb8 99cf b0bf
00000280: 9d42 a971 f4c0 873f 32b5 985c 395d b3bf
00000290: f530 866f 1b13 a23f 37ed c832 a1c0 bf3f
000002a0: 044d 9f2d 4170 923f fc61 23fe d5bc a13f
000002b0: 9fe2 c7bc da3b bb3f c7db 9b71 bda7 c23f
000002c0: bab8 bf8d ce90 743f 77e9 886e 902c a13f
000002d0: 1fe4 9451 5eed bc3f 9f19 0bea 7c88 bc3f
000002e0: 0ebf 9ca6 ddad ca3f 5909 77c0 56ba 7fbf
000002f0: 5305 c377 4525 bcbf cfa6 6473 b558 a83f
00000300: 1a09 79b9 2e4f a13f 644b 5d0a 81f6 c5bf
00000310: 9fda 0e9d f7f2 86bf 766c aca2 7026 b83f
00000320: 4ea5 7f92 12ab c1bf c6b5 3e92 087a c1bf
00000330: 7223 3bba 97e8 c13f 2bdd 6b7f dac5 853f
00000340: 39a3 93b5 c5f5 93bf bb45 cb08 c351 c13f
00000350: f049 8bb9 cc43 c1bf c67a 53e2 dac2 c13f
00000360: afe2 a30b f627 b7bf 7d40 bb80 c1db aebf
00000370: e81e a372 995f bbbf 968a 7b96 fc2c b33f
00000380: 858d 86d6 adfe b33f 55b6 69a9 8a12 903f
00000390: 3da6 fcc7 dfa3 b9bf fc60 c6c8 86dc 94bf
000003a0: e2e7 65f4 656d 93bf 55b1 f5bb 5bc7 833f
000003b0: 49f3 a67c 4ad2 babf a8a4 407f 50da 6bbf
000003c0: 5c92 0178 c4ea a33f 86da 3df8 e017 81bf
000003d0: c261 dd74 5dcb 8c3f ae27 6440 d48f babf
000003e0: d7e4 85a3 398d bcbf c080 be5f dd4e b13f
000003f0: b38f 5a17 0e15 b13f 6c34 ef96 2233 b83f
00000400: fc2f 2134 6f85 ae3f 532a c11d 823a bc3f
00000410: dc14 be13 2048 a4bf 7808 518c 90cd bebf
00000420: 054e bb28 86b4 c1bf 593f f638 4e85 bdbf
00000430: e3e7 d616 5281 bb3f 5c0c aec1 5537 b13f
00000440: a903 a997 64d0 a5bf 2a55 3844 cc28 7fbf
00000450: 0edb 1ae6 51e9 7fbf 75e3 d1b3 e8c7 c1bf
00000460: 3210 151a 12c6 c03f 1363 359b 2fe5 b7bf
00000470: 8565 92ed 27c4 b0bf d43f 3b83 441b 92bf
00000480: 3c49 0743 9262 a53f 8de8 6bbf eecd 9c3f
00000490: ae2d f9c8 1abf aa3f cef6 0239 5312 b53f
000004a0: 7b67 bfb5 9aa8 a0bf caef a292 9b0b acbf
000004b0: 2782 a896 255a aabf 1f6c ab5a 27c7 b33f
000004c0: 9d5e 52bb 355c b13f 2449 e4ec 2e38 a63f
000004d0: c504 a94f ad70 c53f 7408 e1dc 82f1 abbf
000004e0: 25ba c54c 6c1b b53f cfc9 d0f4 05c5 9ebf
000004f0: a3b3 8535 1529 bbbf 682a 1265 8d09 b53f
00000500: 1cfc e51e a294 ae3f d16c 8a02 7055 a33f
00000510: 96af c27b e1df aabf 98bd d0b5 e7d9 b93f
00000520: d63e 71de 368a b13f dcd0 1201 1d72 c13f
00000530: 5cd2 6e51 1ebe bbbf 687a 9cdd bf65 c43f
00000540: 2582 1f74 2713 a43f 718d 8248 08ad 783f
00000550: d288 a5e8 3bad c0bf 0c77 07c5 ea28 c2bf
00000560: f1e4 f312 77cb 9abf 2b45 ba54 d6eb b73f
00000570: 543a 4551 5916 b13f 24fa 42cc 2986 ad3f
00000580: 4365 4f92 4cad 79bf 5820 438d a8bf 943f
00000590: 03ac f742 d879 c3bf f42a fd37 415a 9ebf
000005a0: f9f7 10d1 8326 d23f b3a3 ac40 c0ab b4bf
000005b0: c660 a6c5 b65b b53f 95c4 8b85 76c4 ae3f
000005c0: c26b 6090 1fb3 b13f 925a feb0 78a1 a3bf
000005d0: be00 04d9 426b 6fbf 2542 1e13 81d7 c03f
000005e0: c488 f8f4 9102 cb3f 8f0b c2a8 fec2 a03f
000005f0: af5a 23b0 22be c03f f696 0fad e259 97bf
00000600: 35ae 03d1 73f8 acbf 7296 4006 7864 b53f
00000610: c421 d4f8 6430 b6bf 6c9d dcf8 cf82 7abf
00000620: 9105 3ea2 b6e0 c03f 4747 8b06 7b82 84bf
00000630: 41ae 47d5 8cc6 743f d899 4d7f e67c c23f
00000640: 0713 6559 188c 9dbf afff 89d7 9b6a a5bf
00000650: 96c5 7d06 da9e bebf 16a4 2a5b 25d8 be3f
00000660: 489f 2ac1 4b38 b7bf ddaa 4b07 d2de c0bf
00000670: 743a f75d 8bb1 b1bf 521d 7aa4 303e a7bf
00000680: 8130 368d 44f7 b2bf 688b 1e9e 2459 7e3f
00000690: b8ae cf7a 1ad7 793f bc8c 8df7 d714 b03f
000006a0: 6da6 e294 99ef b0bf 072a 0b23 f608 c1bf
000006b0: d16c f370 d2cc bd3f 575c 2638 ce24 93bf
000006c0: d0ae 2d21 c886 b8bf 7dc4 ec6c 00dc bc3f
000006d0: cde6 2b8a e0d3 b2bf 5ff8 84b9 20bb 983f
000006e0: c1c6 4bfa 3304 a7bf 05f7 99f1 fe75 943f
000006f0: c25f 759e c62c 943f 6b24 92f5 97cf 9dbf
00000700: f08d e162 3ced b43f b97b 11ec 4309 b43f
00000710: 3424 6265 5507 a03f 871c f845 9a9b 98bf
00000720: f139 0db1 6e9b aa3f dff8 0d31 4342 b1bf
00000730: 2b64 d7d5 b66b b03f 92f8 7c92 16e5 b5bf
00000740: 83ac c9d7 b6eb b6bf 3e89 0641 56cf a93f
00000750: 34b2 30b7 f6ae c13f fed8 c8cb ff75 ad3f
00000760: 270e c509 121e b6bf e61d fa51 ec11 be3f
00000770: 8297 fe91 544b adbf 512e 2c0d 03bc 9e3f
00000780: 64e4 3459 ab5a b43f d707 2132 a14d bdbf
00000790: bd3b 8ed6 32f5 b1bf ba61 7835 7687 c0bf
000007a0: 25ff b4be 6719 a43f 6138 4808 11ab c0bf
000007b0: 1823 4afc 6922 bebf 53bd faad 50fb ad3f
000007c0: ee4a ed75 0137 b5bf 15bd dd75 ebe6 a13f
000007d0: ed07 ec0c c9a1 a4bf bebe 5ffe 6551 8d3f
000007e0: d4a0 9ab8 0494 b1bf f412 96d6 58c2 abbf
000007f0: 448f 7152 a2c2 b43f eaae 8f99 4385 b2bf
0.0868262302993327 0.026326193233857056 0.05043125852965485 0.05180269846440784 -0.03360497719761699 0.06807027262525167 0.12780543072572662 -0.04587009567228807
0.13956255948578 0.09407051326193801 0.03536369673468438 0.08488031047984312 -0.0301541414934506 -0.10910725010488574 0.0076406244819918236 -0.003910366161474498
-0.10208919501659493 -0.06889439050383399 -0.165575641204703 -0.11328003251338455 -0.10103404507502199 -0.09026728075193867 -0.020708188241755243 -0.06751805815751331
0.10404863189412487 -0.030843841236820806 -0.011906719103378054 -0.033499772987823286 -0.018968505899921162 0.06040707891140713 0.1222109377727342 0.08750460540872826
-0.04838984214975089 0.126073945950771 0.09338388750637934 -0.12501493195228733 -0.10734562955251445 -0.03772110934872872 -0.00129595816111773 0.1023790786347505
-0.008091044645479231 -0.03962623503661643 -0.04451964971905515 -0.009172922670334482 -0.08302753192781995 -0.0036324317915669094 -0.09000651839221309 -0.16462479428523408
-0.12640605199506644 -0.09720993280531677 0.05858342100995297 0.04646315810586461 -0.1305403870357105 -0.13610242726752747 -0.12063410804619214 -0.13445860488091024
0.13041527791600022 0.15338086419501576 -0.1121230792356579 -0.11465199658508328 0.10411776353968516 -0.014229614428581863 -0.10782709758599751 0.048083106477051066
0.03699380080411899 -0.16361893181797657 0.10370956743287023 0.1134781348817228 0.07928797342808115 -0.010025204759157295 0.14031924254978206 -0.09769540861494602
-0.06319008579455282 0.017872078172536755 0.13586816018462208 -0.0365164626733773 -0.1153940103919914 0.04950427658893486 0.023099339493223243 -0.06566773175996023
0.011598500937141149 -0.07564123640687084 0.03530202614192205 0.12403304567208272 0.01800634232479316 0.034643828652125536 0.10638205632120411 0.14574401900583053
0.005020911074082141 0.033543122761744586 0.11299695483911919 0.11145764078091823 0.2084309638535093 -0.0077460659735513965 -0.10994371580001898 0.04755179437263523
0.03380723966667372 -0.17158520704341662 -0.01120561073353815 0.09433654757997254 -0.13803321984532108 -0.13653666630618327 0.13991066544829384 0.01063128186568337
-0.01949223442798884 0.13530767373462801 -0.1348815828301464 0.13875900317267148 -0.0904535082262423 -0.06027035423687808 -0.10692748116263895 0.07490519212619015
0.07810484397355395 0.015695730772156875 -0.10015677101605376 -0.020372491840675785 -0.01897200874507366 0.00965758960111233 -0.10477128546967863 -0.0033999988754841066
0.03890050854605384 -0.008346326423390293 0.014059763077668989 -0.10375715801288152 -0.11152992479573541 0.06760963046554291 0.0667275244728092 0.09453025994226188
0.05961177359912992 0.11026776529721731 -0.03961277237889657 -0.12032416749664943 -0.13832165707445668 -0.11531533137008178 0.10744202668766394 0.06725059488785362
-0.04260553695031117 -0.0076072672996095134 -0.007790870587703903 -0.13891323833720617 0.13104463838146924 -0.09334085025092191 -0.06549310255140568 -0.017682142743808374
0.04176766460627099 0.028129320558016025 0.05223926261222843 0.08231086866268386 -0.03253634899711152 -0.05477605977054585 -0.05146901573266787 0.07725759471524939
0.06781326125416816 0.043397394578408105 0.16750112905177708 -0.05457695909764562 0.08244969248128393 -0.030048459117276324 -0.10609562451072789 0.0821770068888924
0.05972773196389644 0.03776121169104275 -0.052489324910623456 0.10098121823170059 0.0685152333328419 0.1362949614755341 -0.10836972702129216 0.1593551475607058
0.03920863430517255 0.006024391514219616 -0.13028668269823257 -0.1418736898476073 -0.026166782886296983 0.09344234055085525 0.0667472670950045 0.05766420954158871
-0.006268786532893702 0.020262368795357893 -0.15215590734382553 -0.02964116958836889 0.28360076347951196 -0.08074571207966023 0.08343069386899335 0.06009264354896363
0.06913945460148255 -0.03834130440298113 -0.003835325777004155 0.13157666619783118 0.21101593457667012 0.03273769197496456 0.13080247498029027 -0.022803823292540458
-0.05658304144330054 0.08356428291934906 -0.08667594027441 -0.006472408667640078 0.13185770914064368 -0.010014496934136153 0.005072164658922741 0.14443665710423548
-0.028854732948519615 -0.04182898527233136 -0.1196113839958087 0.12048562503572699 -0.09070275751093704 -0.13179993969182294 -0.069115362587789 -0.04539634712005615
-0.07408550689268802 0.007409232175549764 0.006308654247714145 0.06281804841778443 -0.06615600476166046 -0.13308598242868205 0.11640658624257873 -0.018695089509119658
-0.09580660638828964 0.11273195895479833 -0.07354548810317425 0.02415133602448127 -0.04495394163485634 0.019981368538075212 0.019702056333102076 -0.029112219203430472
0.08174493230904267 0.07826637757669531 0.03130595076169876 -0.02403107692773834 0.051967105019333 -0.06741733501073409 0.06414358826386095 -0.08552685810443197
-0.08953421371704633 0.050409980237662286 0.13815196938357277 0.05754088747601037 -0.08639633883017749 0.11746098519699152 -0.05721534998092094 0.030014083556166252
0.07950850417991401 -0.1144657847771947 -0.07014768350766949 -0.12913396464206334 0.03925632670370608 -0.1302205362739555 -0.1177126160565759 0.05855800746700859
-0.08287057046008403 0.034964903009376304 -0.04029682429064949 0.014315411401155994 -0.0686648321813011 -0.05421712512455726 0.08109488022597328 -0.07234594821028009

bias f8 [50]
00000000: f438 ad0d 6faa a6bf 79be 33bc 1a40 b93f
00000010: df08 bb96 5d2d a9bf a761 2621 8aa0 c5bf
00000020: 60ee 7e50 efdd a6bf 09f6 1b3e c14c 833f
00000030: 3ef5 4ddd e6da a13f dac9 8774 1ada b53f
00000040: d678 46c2 7abf bebf 2bc6 ab29 99ed b83f
00000050: e44c ad69 0dc4 a83f ed03 3dc7 6b1f b3bf
00000060: 6894 bdae 8837 b53f f331 2a9f 056d 963f
00000070: 2e82 64be 8fc8 93bf fa85 ea4a 130d b4bf
00000080: c525 5a14 f5ab ad3f 664e b6fa fbb6 88bf
00000090: 90cb 9d3f a085 c03f 96e3 7fd5 0237 b33f
000000a0: dca1 0c2f 6cd8 b13f 3336 caca 3000 a3bf
000000b0: 41ae 7748 f5a4 bd3f ef02 fcb3 ac43 c0bf
000000c0: e7b8 a7b6 d72a ba3f a8f3 e185 81c6 c63f
000000d0: 3710 5edd a830 adbf d153 56c0 79ba 9f3f
000000e0: 1b7b ba60 97bd c13f 295f f84f 8f66 c33f
000000f0: 9081 0b80 a9fd a43f 7987 6771 fc23 bfbf
00000100: 6fd3 f9ed b137 a03f ef6a 0cfb 3662 a1bf
00000110: 2bbf 1217 c340 c03f 0a7a 292d e078 abbf
00000120: 75e6 02db 7e07 bcbf a254 28ab a78f b13f
00000130: 183a 15e3 353b bb3f b85f e0f5 78e6 97bf
00000140: 8411 8644 bfa5 bebf 376b 0562 a119 b1bf
00000150: 4e18 ff47 5ebd aabf a316 b2c3 e39a 6f3f
00000160: 1568 d0c0 1e12 a4bf b327 02fe 7f82 bbbf
00000170: 5412 5683 fdf6 acbf 17f0 0340 4f39 b33f
00000180: 075f 2c04 815b 983f 36ae a993 45d6 c13f
-0.04426905672026918 0.09863440603998609 -0.04917423691724009 -0.16896177881859595 -0.04466197831740426 0.00942374201576525 0.03487321330519898 0.08535924286824273
-0.12010924571083889 0.09737546222074715 0.04837076106073271 -0.07469819654671968 0.08287863031508069 0.021900260772371238 -0.019319768901484284 -0.0783245141888286
0.057952555403129526 -0.012067764843585137 0.12907794100064196 0.07505815231696852 0.06970859669366497 -0.03711082911932486 0.11579831141687526 -0.12706526554395434
0.10221622666697137 0.17793292081105716 -0.05701186849822231 0.03098478542741018 0.1385983679110375 0.15156737713618298 0.040997788315283334 -0.12164285439169288
0.03167491941432032 -0.033952444215364135 0.12697638155577215 -0.05365658332151575 -0.1094893727012279 0.06859825066233552 0.10637223047272248 -0.023340120322330654
-0.11971660063688289 -0.0667973388967028 -0.05222601536620229 0.003858036854185469 -0.03920074561774826 -0.10746002150895499 -0.056571886331799576 0.0750932246482424
0.023786559943885368 0.1393515559205853
