lasa_models/1/skel_model_BendedLine.pt (torch, 99247 bytes, 18 tensors)

R f8 [20, 20]
0.36729596012515264 0.6957434641502207 0.2481381186710227 0.8708863426712098 0.6668988493394473 0.19462027261252596 0.04372027025485992 0.2715944361259901
0.3417829506913154 0.15586221991441437 0.639651334328125 0.4821832581815315 1.0523705417703557 0.44282333913561334 0.642175181166111 0.23904572361879486
0.24433830201709755 0.7859973000535376 0.15403681356842747 0.18544211427675095 0.24670053543900955 0.4455421248390442 0.6886718861798625 0.670244428825731
0.6311902712397687 0.9872800269273532 1.0827543017997197 0.5854876217999485 0.8915825033871071 0.10424160380876527 0.9606536237289429 0.5107479405472906
0.8870400543246015 0.8418575755406043 0.6197614364508744 0.3748544382175551 0.881394998480601 0.22259689865719362 0.808277204737078 0.9182825066684748
0.8087306703230781 0.32689266666790673 0.8960698321145115 0.4055542198190569 0.1981497303777804 0.23238664928324435 0.0931211186748935 0.7878230081977695
0.3403300311887602 0.8901450938605229 0.8211380030678637 0.9154140540802731 0.6209998322938767 0.31340008262213753 0.783887314749649 0.47734503143120766
0.5674192892220284 0.411455638988966 0.6024490121473313 0.030336891279034613 0.8795001163881179 0.6247212160936344 0.5660680646442237 0.026102327085267052
0.4830025656377019 0.27680352323084034 0.7767092661318019 0.4489053440637289 0.31529819813541504 0.2974027705935814 0.3158042933644938 0.6786101667996325
0.5395779390174935 0.41891702993416136 0.2812766783129754 0.1326295616060284 1.0602541005889985 0.6526225506828421 0.43761165276123365 0.29123308073921456
0.36100982452685465 0.47081907917096905 0.4266878170198881 0.8753606570981783 0.457357875572901 0.8462338856697881 0.07743317347668428 0.7075769966258068
0.7631037738221597 0.2652603190708198 0.7027147174230897 0.5766550957596877 0.8094649537374826 0.5374756888113081 0.14828014141341347 0.69303757577211
-0.0761309149173387 0.3659757577317947 0.9391095987038409 0.9451546572288884 0.11251868140417717 0.8717549934996662 0.86666226614232 0.41735310744566134
0.6227706265841545 0.004992254093908688 0.7734886444179521 0.1974958728018025 0.007196125331795856 0.1009672041868374 0.9745716582500625 0.32649857876957933
0.12934437595242795 0.5827909725556596 0.7352710601422617 0.151075066130281 0.6432647138514171 0.265169619075809 -0.1827545804503299 0.6595315225312343
1.0312397965171636 0.8453991598369224 0.6774856102822993 0.6979987694836937 0.9070033543714071 0.5585065607083121 0.1014584752162544 0.42343479894946867
0.7594217359019617 0.047535963039072364 0.3401104562274853 0.48024206717637863 0.4286154264253085 0.9021559334556295 0.6524918656019404 0.22984756786478888
0.46251870286900326 0.7281643373209769 0.9923744704049277 0.7607149447944327 0.22126353811748536 0.8194081757489287 0.4709651479045042 0.7221768188602204
0.3488932066574492 0.2538132627639633 0.1902667323086135 0.45810835613034195 0.2674050174694 0.03613252169599273 0.4668923662210384 0.44095609378063305
0.5970632883915284 -0.006482640474627546 -0.15584628866016897 0.9364523433449929 0.8322322827879616 0.2951014866285958 0.4618124380611234 0.010546824352000016
0.782011287483002 0.7521975377085753 0.5362532305223878 0.9045540829821538 0.1424064684438386 0.41637589938227193 0.630398908294566 0.24892723296489894
0.5531176021803911 0.08316826708934352 0.25415335529439487 0.3437199326767318 0.25406363249122277 -0.06647061259066857 0.17915688244131267 0.9028472479879612
0.6918848406698872 0.15494604081536942 0.9109794642993593 1.1438387070380864 0.4672282113189577 0.6214447743694117 0.74736808665178 0.6170561091057797
0.46336983513768937 0.6819115579305318 0.4423905169937317 0.2569857354507782 0.3200904055264413 0.5678726266396512 0.6478717567403042 0.3651174184315769
1.0642081799714025 0.43714213020100356 0.7058039155774984 0.08205664816726614 0.23506095591339293 0.9285521052764975 0.996725452480783 0.12983879899759032
0.9574256106070517 0.8295665957687959 0.07198666093576084 0.11107639457299669 0.08228160542543327 0.6136321063308948 0.8174285934392719 0.7312329043682502
0.23388994738571753 0.3828970676208887 0.07958444271658172 0.2145693974326513 0.38220734028031134 0.4558590488766787 0.0055160432649014966 0.8700386794761259
1.0110847963273055 0.5213451508535301 0.8633439518052813 0.08926544053327157 0.2372304662186407 0.6743735618000846 0.8760663592802622 0.65649702916626
0.8558772951924276 0.6040466274893553 0.521628516587045 0.7804700404710316 0.1938760784821827 0.8196602269896959 0.03702191907135502 0.7370398966294855
0.4422598764265513 0.4165954968256625 0.8272381097705324 1.4279060536109378 0.709663100607339 0.4315050481457724 0.43461667446049873 0.14457549379908077
0.6061441887110238 0.6156017502409344 0.7673973434747041 0.7243281904898513 0.823032810745132 0.5916394007057444 0.8205974609502081 -0.09505940617127895
0.7942505244723925 0.18834287589623613 0.3920467745680297 0.9036211395097572 0.9066492242181169 0.42002112312509554 0.6626903830822738 0.64893627099174
00000000: 5830 2cea c681 d73f 50ca 1dcc 8743 e63f
00000010: 0ea0 4a68 fdc2 cf3f e5c9 0909 4dde eb3f
00000020: 07e5 7441 3c57 e53f 2234 012d 51e9 c83f
00000030: 9174 d5d5 8062 a63f b4f2 3ba1 cd61 d13f
00000040: 532c e398 c5df d53f 7770 9b10 4bf3 c33f
00000050: a106 3913 0678 e43f b460 242b 17dc de3f
00000060: f5d6 427e 82d6 f03f ec8c dfb3 3757 dc3f
00000070: 8d29 2df7 b28c e43f 197f 98de 0c99 ce3f
00000080: e26b 293c 7a46 cf3f 002d 4fcf e326 e93f
00000090: 6406 5472 7ab7 c33f a453 0f34 91bc c73f
000000a0: cae0 ce15 e293 cf3f 8a23 cb1d c383 dc3f
000000b0: 0b26 9a9f 9909 e63f 323f c471 a472 e53f
000000c0: d1e6 90f0 b532 e43f 12b4 7448 cc97 ef3f
000000d0: 6b54 bd2c f652 f13f bcfe 7a89 50bc e23f
000000e0: 4b78 b707 d887 ec3f a2c1 3de7 93af ba3f
000000f0: f063 16ab acbd ee3f 84cc a410 0c58 e03f
00000100: 881e f2d2 a162 ec3f 9dc6 5a4c 7ff0 ea3f
00000110: 931c 9cef 15d5 e33f 17e9 3978 9dfd d73f
00000120: fba0 aa48 6334 ec3f ea3a f61f 0e7e cc3f
00000130: 6556 0e28 68dd e93f f828 d4fe 9162 ed3f
00000140: b4e9 8924 1fe1 e93f 5204 2938 cfeb d43f
00000150: 32a6 fba3 9aac ec3f 542b b8af 99f4 d93f
00000160: 4086 d769 f85c c93f 4b6a 5981 d8be cd3f
00000170: e28d 461f c9d6 b73f 44dd e798 d835 e93f
00000180: 475a 739c f7c7 d53f ec6c 5a90 117c ec3f
00000190: 30bc 9534 c346 ea3f 825a 126a 124b ed3f
000001a0: 07c2 500a 3bdf e33f f53f 5b38 bf0e d43f
000001b0: 042b 93d9 9a15 e93f a2ed b92c d28c de3f
000001c0: 6e80 4a7f 4c28 e23f d297 4d08 4a55 da3f
000001d0: f9c4 9526 4347 e33f e27f 9f4f a210 9f3f
000001e0: 97e2 966d dd24 ec3f 0eaa 0759 b7fd e33f
000001f0: 5f9f 1ec6 3a1d e23f e00d b984 91ba 9a3f
00000200: cf12 d397 83e9 de3f 146b ec1f 26b7 d13f
00000210: f528 1164 cdda e83f c736 f07a ddba dc3f
00000220: 70ad 5e7e d82d d43f 391c 5ca1 a508 d33f
00000230: 04f6 fb35 2336 d43f 9e66 24ab 2cb7 e53f
00000240: 9824 37f4 3844 e13f d07f d35f 89cf da3f
00000250: dcd4 9ee5 6f00 d23f ae54 ca66 01fa c03f
00000260: 9eac f700 cdf6 f03f bd13 faaf 48e2 e43f
00000270: fb4f 3d4e d401 dc3f c172 5213 90a3 d23f
00000280: 9b29 78f3 c81a d73f 41d1 d758 e621 de3f
00000290: 6aee ec6a da4e db3f c922 4e5a f402 ec3f
000002a0: 5ad5 89f7 5945 dd3f f1ff f615 5914 eb3f
000002b0: e535 b513 a9d2 b33f 9c1c 7d83 78a4 e63f
000002c0: c3a6 009b 586b e83f 0c7c d56a 06fa d03f
000002d0: 6c00 3893 a37c e63f e681 2b63 f573 e23f
000002e0: c5f0 f10b 23e7 e93f 58de 3a37 0033 e13f
000002f0: ab28 02fb d7fa c23f 05e4 5a23 5d2d e63f
00000300: d8d6 c8cd 507d b3bf 668f a595 256c d73f
00000310: a45d b992 2f0d ee3f adb9 cefa b43e ee3f
00000320: 7eea d138 06ce bc3f 9495 66ba 6ae5 eb3f
00000330: bc45 3881 b2bb eb3f dc3c d7ce e9b5 da3f
00000340: f1d3 42aa bced e33f 000a 1101 c272 743f
00000350: 7e47 f341 6bc0 e83f 05ad 6375 8b47 c93f
00000360: 34e3 532f af79 7d3f 1b76 f397 fcd8 b93f
00000370: 385c f9e6 b02f ef3f 685f 804b 5ae5 d43f
00000380: ff8f 5144 5b8e c03f 9bfa f040 39a6 e23f
00000390: 4f33 a02c 5787 e73f d4a2 2282 6d56 c33f
000003a0: 4e34 95e1 9f95 e43f 37b2 74fe 89f8 d03f
000003b0: 293b 1d89 8064 c7bf d57c fed9 e11a e53f
000003c0: a4ff 054d f57f f03f 3c18 f289 820d eb3f
000003d0: d889 754d f6ad e53f 2795 f283 0156 e63f
000003e0: 5666 0ce6 2b06 ed3f 17ff 9a26 49df e13f
000003f0: e0b1 f4c0 2ef9 b93f c07b 5e45 8e19 db3f
00000400: 5441 f2cf 2e4d e83f fffa 453d a256 a83f
00000410: 8194 a1a5 5ec4 d53f 1ee7 2b39 49bc de3f
00000420: e6b2 c365 6f6e db3f 6eb2 c21e 76de ec3f
00000430: d552 f59e 36e1 e43f 30af 8525 a56b cd3f
00000440: e115 a70b e899 dd3f 0707 dd4b 1f4d e73f
00000450: 93c8 f81a 88c1 ef3f 9d0e 2fde c657 e83f
00000460: 4584 0116 5d52 cc3f 5a55 9d7e 9738 ea3f
00000470: bf8f f300 4b24 de3f 06e3 5d8f 121c e73f
00000480: e7fa 182c 4454 d63f 8c2f b7fb 793e d03f
00000490: cd21 6408 a95a c83f 3aaa e6b5 a551 dd3f
000004a0: fb4f 34ef 291d d13f a739 033e f67f a23f
000004b0: 77f8 ea84 90e1 dd3f 629f 70e8 9f38 dc3f
000004c0: 2515 2978 241b e33f 83b5 488d 8a8d 7abf
000004d0: 9ecb 7f6c c5f2 c3bf e4bc 9de7 6af7 ed3f
000004e0: b2fd a798 a5a1 ea3f fe87 8458 f1e2 d23f
000004f0: 7ef2 96c1 558e dd3f ac14 59cd 9299 853f
00000500: 83f4 1a89 3c06 e93f c1e1 1292 0012 e83f
00000510: e5f9 ee88 fc28 e13f 51e4 7b67 1bf2 ec3f
00000520: 1f42 5a0a 603a c23f dc1f ac19 e7a5 da3f
00000530: 7ee5 d154 3a2c e43f 7c81 55fa d8dc cf3f
00000540: 6f9d 86af 23b3 e13f 96b6 36fb 834a b53f
00000550: 381e 4a6f 0c44 d03f d51c 75e3 81ff d53f
00000560: e6c6 291c 9442 d03f 79d5 38d3 3704 b1bf
00000570: 1c29 78db 9cee c63f 688a 6ce9 1fe4 ec3f
00000580: 8ecf 68ad eb23 e63f 3b2d f998 45d5 c33f
00000590: 81c9 cf67 be26 ed3f 440a ead0 294d f23f
000005a0: 458b d827 11e7 dd3f a1f9 c526 e0e2 e33f
000005b0: aaca 477a 70ea e73f ab00 0d74 ecbe e33f
000005c0: 68a2 f7f3 d9a7 dd3f f36e 0230 38d2 e53f
000005d0: 6d1c a350 2050 dc3f a62c 534c 7472 d03f
000005e0: e0f6 df77 5c7c d43f dcbf f636 032c e23f
000005f0: 1d74 e68c 5dbb e43f bd44 d772 155e d73f
00000600: 42ce 1128 ff06 f13f 82b1 3afc 22fa db3f
00000610: 4669 d917 f295 e63f bb3b 4c1c aa01 b53f
00000620: 6875 1b37 7a16 ce3f 976c 99e7 b2b6 ed3f
00000630: 4fdd afc6 2ce5 ef3f 2429 b9c9 8e9e c03f
00000640: af1f bd08 3ba3 ee3f 00cb d53e cf8b ea3f
00000650: 2ca3 77c2 b76d b23f e171 0caa 806f bc3f
00000660: 3757 5d44 6810 b53f edef 8ecc dfa2 e33f
00000670: eb61 7402 6028 ea3f d2a9 408c 4266 e73f
00000680: b341 7115 1bf0 cd3f 08a0 cab3 6281 d83f
00000690: 60f4 bc62 a55f b43f 820b 5990 0277 cb3f
000006a0: 9ae2 b2c6 1576 d83f 3cb4 a06e cb2c dd3f
000006b0: ea31 d196 fd97 763f 0e5c 535b 5bd7 eb3f
000006c0: 6b56 5b40 672d f03f da02 9b06 dcae e03f
000006d0: a97f c67e 83a0 eb3f 10e1 c093 19da b63f
000006e0: fa0e 0363 915d ce3f 1efd 26dd 7794 e53f
000006f0: 2081 4751 bc08 ec3f 7c16 c60e 0602 e53f
00000700: 7ab1 07c8 5863 eb3f 936d ca97 5954 e33f
00000710: 11e0 6c49 2eb1 e03f 8c96 6a4e 9cf9 e83f
00000720: d862 476c eed0 c83f f515 9815 a83a ea3f
00000730: e412 4b77 89f4 a23f 18de 7bb1 d495 e73f
00000740: 4871 655e fc4d dc3f e1bb a128 80a9 da3f
00000750: 7604 6f0e bc78 ea3f 774f a004 b4d8 f63f
00000760: d52a 0964 8fb5 e63f 7214 7659 c79d db3f
00000770: e9a9 c674 c2d0 db3f edc5 d524 7381 c23f
00000780: dd93 657f 8865 e33f 43a5 1471 02b3 e33f
00000790: 345b a8df 848e e83f 5031 3750 b22d e73f
000007a0: f9ed b5e7 4856 ea3f 7ccc a1c0 b5ee e23f
000007b0: e9c6 3e9b 5542 ea3f 88cd ae30 d055 b8bf
000007c0: a012 6e13 806a e93f 8557 348e 9e1b c83f
000007d0: fe67 d15a 4b17 d93f ab65 45e1 76ea ec3f
000007e0: 19bd de3b 4503 ed3f f6e4 dc46 a0e1 da3f
000007f0: 57c9 5676 c234 e53f 7f20 a3ff 15c4 e43f

L f8 [40, 40]
0.181663846041024 0.1415246890476437 0.8433889745830521 0.8913430551345011 0.7043105514928288 0.7571222132352584 0.9825383586874336 1.040445023507796
0.42183962508000306 1.0248227866126194 0.4815754066131035 0.17554755301283864 0.8584110085440356 0.5665263773885159 0.652925576641021 0.7254042524386819
0.3374433523527708 0.814750598629637 0.5364150668525558 0.40647856798424103 0.8816439378084997 0.6538270465030058 0.6906596425514985 0.22356766333391453
0.42548134504109303 0.38091550472475383 0.18107451688996312 0.9056226561627543 0.5460719874517828 0.2129637881573524 0.34484355778316816 0.2866751973932327
0.6350098921886389 0.6568651530990869 0.37795602829737485 0.830515562705634 0.625534512587829 0.9360055876563306 0.2642099985011965 0.7568669900089486
0.7030944686226606 0.29072109984802547 0.24921322732669912 0.6213784942791478 0.2708624892381761 0.02734137481662487 0.3696521081806856 0.653380831758274
0.3972469314643659 -0.07758316031859809 0.3919479426822559 0.49835487837046893 0.5464230856489749 0.7392396538163779 0.61497990822452 0.22038647828243255
0.8015173135977693 0.8426630215566195 0.3206186571536744 0.8185392581696148 0.3560008183491706 1.0186043383627 0.8454835901336754 0.2110143098413877
0.33962218383816967 0.37338163269405295 0.44056551359588125 0.3762459639719935 0.09928991571540446 0.201911563877854 0.11107811736398635 0.019847408740893916
0.4676099334063422 0.09634527261479428 0.8695400981790347 0.4589186266454264 0.2574351475785477 0.5478854388619558 0.9599611776133297 0.11754010009770571
0.7012361971539284 0.6877664977682368 0.5968686769967806 0.2745659779885722 0.6342370782985555 0.36256727585395904 0.41625121682262956 0.3065566632301337
0.4774778081300973 0.748496886551763 0.4898251022223079 0.8621961540306763 0.7561818503529161 0.7035905431356495 0.5937145970880291 0.5737864913095828
0.5692701492872495 0.10244777960352117 0.7346576270144705 0.3225217656687412 0.5614656377786976 0.6699602682029814 0.23679585762523986 0.7581530024763041
0.6369640627963273 0.8649734824609375 0.5740359008552407 0.28015127807553736 0.3666476749013631 0.13439824336633086 0.43967532934762676 0.9834097012932844
-0.09176259217049094 0.47883732109519794 0.2777919328992325 0.5815217261369919 0.82627237813107 0.43197553971355335 0.36917449244586437 0.699730262963399
0.22265319838777697 0.17187856898833892 0.5141551851880946 0.659548469908797 0.725496984807665 0.61295213567125 0.661921104154864 0.6932799901120514
0.3010040694247006 0.62966585074113 0.4420949774590286 0.3969551288497557 0.6538984108776607 0.10741884788552444 0.44555622172059384 0.464454277316512
0.3672808492484019 0.6477600095708017 0.8191430781271359 0.18843967075534604 0.6521414735654393 0.39697130007921555 0.5838182197089753 0.4753595141641583
0.8274804015378139 0.3309269060133244 0.08820627998990954 1.0145934526173133 0.33977921139573625 0.2779614912250131 0.13132045317160668 0.23692781867670223
0.7606715026316487 0.24457480803060141 0.6206078702320965 0.5496308533338585 0.6808598648546121 0.4757458219136746 0.5581353333211363 0.7363613800532469
0.5680611622650267 0.5047227775704128 0.022045711081571034 0.30571605237712596 0.2814253710073887 0.15087832343617888 0.44496602833632987 0.3312680415196442
0.6807631246934128 -0.3203932177219783 0.9251636983940656 0.9702810194851572 0.22325388781181954 0.2913510336331857 0.7478821959883738 1.434536180921309
0.43134900749518096 0.508123655277055 0.6717533386273425 0.9041299648285178 0.8702186134476492 0.2994563520110609 0.8638122408264008 0.3090927083837334
0.0861097543819147 0.35908738191406103 0.6020996550820957 0.46267461593306936 0.35339913920538946 0.8440303888244232 0.22755849330636993 0.3574212661352588
0.12381989544036817 0.13548497671536122 1.0875862347851082 0.6916705571933658 0.5854162185318497 0.6717650779240345 0.6713189459841867 0.7152103775102554
-0.11268039012134835 0.3017239395785188 0.8796599683026181 0.19741673146664146 0.9347928872954693 0.3098847722394505 0.20606390415884562 0.39275967233437536
1.2383269690941243 1.011613777647587 0.5708902560416644 0.4548217568823678 0.8373206142908104 0.6548776574053331 0.6128043315143243 0.758732361606816
0.7622264109766973 0.0077119859194851445 0.3770479765338166 0.72286801527159 0.26253202823932614 0.8102888769494786 0.857751777195837 0.5613681719142494
0.3761729791599153 1.0001157061227894 0.7705290543654273 0.7731171179005889 0.4468328604279741 0.26703172287409704 -0.21370519018086287 0.631681120325882
0.14694709852368704 1.0294252459262367 0.6030141103385871 0.4455264149025404 0.13440324768366146 0.5486106411674093 0.071528618236908 0.67818148348483
0.8513043449327745 0.4938941508268267 0.625203528129022 0.5171333800662645 0.735256371958636 0.8968714104955854 0.36685088538139593 0.3390651323519023
0.09143861330855997 0.23954548820781488 0.8539741470204166 0.29925915174414974 0.23554633960539334 -0.04530625813769829 0.08349526766650103 0.8260300562403184
00000000: b74e ceca c240 c73f 2ca2 8423 7b1d c23f
00000010: 9484 f4df 0afd ea3f 9538 eade e185 ec3f
00000020: 2976 1c48 b689 e63f 5675 1d5d 583a e83f
00000030: f118 b448 f470 ef3f ed07 54ae a9a5 f03f
00000040: 6e08 78a0 6bff da3f 0a26 0b94 ac65 f03f
00000050: 0084 7da7 21d2 de3f b49e 8a9b 5778 c63f
00000060: e522 075d 1a78 eb3f 9a8f e6ec fb20 e23f
00000070: e1a4 cc2d c4e4 e43f 9a4f 93fa 8236 e73f
00000080: 76e5 a600 ac98 d53f c357 f0d8 6f12 ea3f
00000090: 04d4 26ee 4f2a e13f 431a 01af be03 da3f
000000a0: 5055 f358 6d36 ec3f d20f bfb2 26ec e43f
000000b0: a19f 2d40 e219 e63f b02c 3b7d dd9d cc3f
000000c0: 109d 801b 163b db3f f741 d56c eb60 d83f
000000d0: d437 1724 732d c73f b68a 575d dcfa ec3f
000000e0: 86bf ebf5 6b79 e13f ec1d afbc 6542 cb3f
000000f0: 418f bab6 ea11 d63f b935 58ed e258 d23f
00000100: 2ac6 f243 0052 e43f df29 ce11 0a05 e53f
00000110: e83f 377b 6e30 d83f b678 945f 9593 ea3f
00000120: 57b0 42f4 6004 e43f 316e 7bfd c1f3 ed3f
00000130: afaf b50d d1e8 d03f 2455 301f 4138 e83f
00000140: 4e73 97f8 bf7f e63f d1ae 06ac 2c9b d23f
00000150: 07a5 8c12 38e6 cf3f b4bb eb26 55e2 e33f
00000160: 7b6e 3f9f cf55 d13f 350b a99a 60ff 9b3f
00000170: d824 e250 61a8 d73f a785 07eb 7ee8 e43f
00000180: fdd9 c464 7e6c d93f 7de8 4970 7ddc b3bf
00000190: 6181 e3d2 ac15 d93f 63ce 19dc 0be5 df3f
000001a0: 4089 5444 4c7c e13f cc86 21eb d9a7 e73f
000001b0: 44af 3058 eaad e33f 9911 5ac6 9f35 cc3f
000001c0: f690 22a3 07a6 e93f 904b e470 18f7 ea3f
000001d0: 1399 bd1d 0485 d43f 3f94 0a3e 7931 ea3f
000001e0: d12b 0aa8 b7c8 d63f e24d 0d10 344c f03f
000001f0: c3b8 1d9a 330e eb3f e0dd e053 8402 cb3f
00000200: bc2f 25af 5ebc d53f 5146 5613 7ce5 d73f
00000210: b8f1 28b2 3932 dc3f ccbf a0f3 6914 d83f
00000220: 78fc d15c 106b b93f 8b11 c5f5 3cd8 c93f
00000230: 922b 6191 9d6f bc3f f157 cf0d e152 943f
00000240: 65f5 d036 52ed dd3f 0637 0173 15aa b83f
00000250: aaaa 87c1 45d3 eb3f e8e8 3d3b ec5e dd3f
00000260: 0036 ec44 d179 d03f 12bc 3b0b 4788 e13f
00000270: bcec e880 00b8 ee3f e461 e3a5 1b17 be3f
00000280: 5f85 b1e4 8670 e63f 7d5e e6e2 2e02 e63f
00000290: 9ca7 f656 8c19 e33f f687 032e 7d92 d13f
000002a0: 0d7e a68e ab4b e43f c71f 1960 4d34 d73f
000002b0: f818 cb24 dca3 da3f 936f bcd6 9f9e d33f
000002c0: 8e02 9f14 ff8e de3f 81b9 1cbe aff3 e73f
000002d0: b47f b362 4b59 df3f 398f 8963 1c97 eb3f
000002e0: 7a06 a347 a432 e83f 185c 9150 d083 e63f
000002f0: 30d4 34c1 b5ff e23f bbf5 e17c 755c e23f
00000300: 87e3 3808 7637 e23f 8ae7 f186 043a ba3f
00000310: 7c17 39b6 5082 e73f 25e8 f254 32a4 d43f
00000320: 11cb 02c9 86f7 e13f 61a3 3184 5070 e53f
00000330: 1a12 2aa0 534f ce3f 74ff df15 ca42 e83f
00000340: 2200 4e75 0262 e43f 6d76 62de dcad eb3f
00000350: aae6 9c89 805e e23f 1917 51a0 ffed d13f
00000360: 56c5 36cf 2777 d73f 87f9 f22d f633 c13f
00000370: 50fd 19fe a323 dc3f 0df6 339f 1778 ef3f
00000380: 5d52 5ed4 c07d b7bf f051 8d4a 45a5 de3f
00000390: e544 b9d0 57c7 d13f c97f 7573 d39b e23f
000003a0: a927 35c5 d270 ea3f 5f77 efbb 7ca5 db3f
000003b0: fba1 e40c 8ea0 d73f 7e60 6eb8 3064 e63f
000003c0: 4c70 b666 e67f cc3f ca16 58f0 1d00 c63f
000003d0: 3e74 2e93 f573 e03f ee52 8c64 051b e53f
000003e0: 950e e373 4537 e73f 7e15 17cc 4d9d e33f
000003f0: 4213 dc2a 752e e53f 3014 9084 592f e63f
00000400: 9216 8992 a643 d33f dfea 8aff 3826 e43f
00000410: 8464 7abb 484b dc3f 1ce8 187c b667 d93f
00000420: 9007 345c bcec e43f 7e6f a436 cd7f bb3f
00000430: 026f 343e fe83 dc3f 72f3 e36e 9eb9 dd3f
00000440: f803 fe88 8781 d73f 776c 1833 73ba e43f
00000450: 55a0 698b 6b36 ea3f 5be4 9487 ca1e c83f
00000460: 9d85 aacb 57de e43f 029d d24f fa67 d93f
00000470: 0fb0 0e8c a3ae e23f 4d5c cb4f 4a6c de3f
00000480: 8ef2 d52d b87a ea3f 7c65 ac0b e82d d53f
00000490: 64c5 dbcf af94 b63f 25a2 1b58 c63b f03f
000004a0: fb8a 334e f1be d53f f2f6 96fe 1eca d13f
000004b0: 647f d5cd 1bcf c03f a551 5d98 a653 ce3f
000004c0: e1aa 59c3 6b57 e83f 595d f530 3a4e cf3f
000004d0: a62f 4909 05dc e33f ba20 7e71 9396 e13f
000004e0: 8bb4 96a0 9ac9 e53f ddfb 949a 9e72 de3f
000004f0: 2267 6ba1 3edc e13f 46b7 abbd 4590 e73f
00000500: 12cb 419a 8e2d e23f 32c2 e661 b026 e03f
00000510: 3b1c 73a0 2693 963f 4e9b b40f da90 d33f
00000520: 1d73 2f8f df02 d23f a3b6 6a1c fb4f c33f
00000530: 6346 e2ca 527a dc3f 9e5b 22df 7e33 d53f
00000540: f930 9cbf cfc8 e53f 7f78 fe8d 5281 d4bf
00000550: c090 81e6 f09a ed3f 06c9 d3c7 8a0c ef3f
00000560: a8a5 6d59 9593 cc3f a00f 47ce 7ea5 d23f
00000570: b9fb a0a4 a6ee e73f aec5 df35 dcf3 f63f
00000580: a9a5 16de 389b db3f 4fa5 378a 8c42 e03f
00000590: 9543 8cdb 007f e53f 29b5 c8f6 a1ee ec3f
000005a0: 8d19 a4b4 d4d8 eb3f d8e2 9df9 4a2a d33f
000005b0: d87b 8791 59a4 eb3f 3d2c 7cc8 2cc8 d33f
000005c0: c0d9 eff2 490b b63f b189 6ea4 49fb d63f
000005d0: dd55 f07e 6644 e33f 1acd 07fe 759c dd3f
000005e0: b896 546c 179e d63f 0e98 9a04 4c02 eb3f
000005f0: 39c5 56ff a220 cd3f ca88 3c72 fddf d63f
00000600: 7eb1 8221 a9b2 bf3f 09c0 0b5c 9257 c13f
00000610: 86b5 dfd2 c066 f13f 230d d84a 2a22 e63f
00000620: 968d 24cb babb e23f 74ea 087a 197f e53f
00000630: 23fe c5de 717b e53f d452 a5df 00e3 e63f
00000640: 29c2 783e 9fd8 bcbf bd3d 3aed 714f d33f
00000650: 7ab9 6ea9 2c26 ec3f 5e8d aa92 f344 c93f
00000660: 63f5 eec5 d2e9 ed3f 91ff 92f0 26d5 d33f
00000670: f6c8 9f50 4d60 ca3f cc48 f776 f922 d93f
00000680: 9e39 a0f0 2fd0 f33f d5de b2ed 912f f03f
00000690: 7eba 69a4 bb44 e23f 086b d4b6 cc1b dd3f
000006a0: 41a9 d499 54cb ea3f e3fb 2dfd c1f4 e43f
000006b0: f26f 56d4 179c e33f 7294 f016 8947 e83f
000006c0: 195b 69a4 2864 e83f cf7f fb74 9a96 7f3f
000006d0: 0016 0fd6 8d21 d83f 1d4f 9d1a bc21 e73f
000006e0: 6730 dc22 53cd d03f 43f0 59f0 e2ed e93f
000006f0: 408b e4da b372 eb3f 5c62 6c62 baf6 e13f
00000700: d05d c8d4 3713 d83f 9736 a053 7900 f03f
00000710: 0ec1 238c 2ca8 e83f b88b 2b1c 60bd e83f
00000720: f43d 94da e898 dc3f 3448 2f39 0c17 d13f
00000730: 58f8 6711 b15a cbbf 179c 2953 bb36 e43f
00000740: a45e 339b 29cf c23f 0de1 4e9b 8678 f03f
00000750: d8c8 5d3f e44b e33f a8ac 6039 8183 dc3f
00000760: 9285 a328 2034 c13f d3a6 41e7 378e e13f
00000770: 153b 0e14 b34f b23f 553e 8aa7 a9b3 e53f
00000780: 1fba 0d9c e23d eb3f 9129 5f36 f69b df3f
00000790: 0e0e 55d4 aa01 e43f d4be 614d 5b8c e03f
000007a0: 509d f75e 3887 e73f 4378 19ac 2bb3 ec3f
000007b0: fd30 ce22 7c7a d73f cc94 aa3d 3eb3 d53f
000007c0: 9979 c05d 8568 b73f b5e2 e032 6da9 ce3f
000007d0: 43a1 2297 c153 eb3f ce44 71db 0f27 d33f
000007e0: 2e1a a6e8 6126 ce3f 31d7 02c2 6132 a7bf
000007f0: 5e96 ff23 f25f b53f 3016 a295 d66e ea3f

weight f8 [50, 4]
-0.0686844813650662 0.3206185689040856 -0.2600345503345413 0.45105192578678494 0.25686241326729503 -0.4978865380358653 0.42019200912361115 0.034818110491155345
0.16893738711013803 0.4184579781590163 0.09523570513710904 -0.17437269311309947 0.23831276371227547 0.2892080168911115 -0.2800735768859028 -0.13842712618582206
-0.5417776458466469 -0.1868380467377369 0.1655333271074965 -0.46282904401076524 0.4382951511892557 0.24418551466715718 -0.48885931197386606 0.10712346324375364
0.4567155958211802 -0.21182604793482615 0.4455351654618596 0.0162863596586118 0.479343332095614 -0.08649968516055273 -0.3586407319879849 0.10913910079040746
-0.47459696458716166 -0.3744845543478338 -0.17358245048633028 -0.1007231240592597 -0.443025153683445 0.20768815179930217 0.24583927214497978 -0.03715761235498765
0.4391826187701932 0.4717087990173009 0.048501071659811594 0.43079402991481086 -0.095708632085405 -0.1401430562043117 0.2586855370536842 -0.07476709840682264
-0.45324519450930584 -0.17976822240148696 0.1611309781294063 -0.12371592377028398 0.12188697999997655 0.4693175639539161 0.3005727734562245 -0.09549147392546524
0.2892428286848627 -0.41453321876969823 0.2803998409040092 0.4462494368682263 0.20172557761126983 0.4511352273715548 -0.20651970551965856 -0.0980262196132513
-0.054511882173174264 0.25632617479884184 0.4566688609995111 -0.3637891950377698 -0.03721316852290251 -0.008272630634942532 0.3734285306739644 0.035287647786876104
0.293644022946148 0.5093255195806103 -0.1979143449221819 0.4283759561217096 0.5808736277936899 -0.365249160308898 -0.0486305165307878 -0.42656034097289286
-0.3300938390744732 -0.21269281900417178 -0.40990092380590204 0.2538780124968315 -0.18009178895441055 -0.9841646293813463 0.12712232056060255 -1.4463821839430175
-0.051575090434874016 -0.368802406723713 0.5275289968242068 0.12021390598019373 0.09588498399144435 0.16833173154068035 -0.45039165182565505 -0.09156969476628928
-0.4582109885160841 0.38198783137560977 -0.09784374778699456 -0.24628026248706877 -0.3679707858800827 -0.22169816753993218 -0.15285488688821988 0.28192318768855945
0.42473229445555694 0.3755918638723673 0.46463947790786764 -0.34149550219815283 -0.43664312952646256 -0.4318536024599886 -0.12212742636696748 0.2308817483769392
0.162404506192343 -0.24646174009432256 0.18332443079627522 -0.34243677456501537 0.40173402602904834 0.18990018397108552 0.2285244580193516 0.28327243204721303
-0.2731625255393952 0.23983933675922287 0.5262483688822185 -0.07041825354474568 -0.34188429635262635 0.3392750869817949 0.035114647852571984 0.16038082478082316
0.0938339539745243 -0.40707163827690523 0.32770248770771754 0.48457057144242127 -0.057771709605468395 -0.13557498179206368 -0.11449099134745473 -0.015255532507675904
-0.2873586321812645 -0.16269061012733407 0.07154591212056603 0.04100126877142584 0.01720296373992332 -0.37714080970765546 -0.06109799572633375 -0.06555866210625112
-0.1929492899371886 0.46579497998685415 -0.2476530758941154 -0.2272062929381824 0.30123076197975845 -0.2677428331707757 0.41118475670410637 0.4370321180440216
-0.2858756583140948 -0.5335629931084392 -0.24366760964893375 0.0893178793086385 0.2010363437373347 -0.7383083565934206 0.036168521428572464 0.2547638068109899
-0.13615630003620338 0.2423888461060462 0.16478659899491443 -0.17659227596815907 0.1030059743820285 -0.2991427059202005 0.1571096221675846 0.11755613421692256
-0.3246663800565855 -0.18337727099180506 -0.1427446193853317 -0.3840775472249536 0.44107170882516217 0.5056891620876938 -0.2525666868225088 0.15202680035759736
-0.21645507712026188 -0.1970732735145818 0.2625633761344645 0.06037752054717315 0.3051639191592396 0.1343322263996842 -0.09221137625093322 -0.3519732895720827
0.3945393211959412 0.1095056250673848 -0.1336425665121461 0.1575231538112287 -0.5051901059442399 0.4258751736503317 0.10475077875017176 -0.2504105406391586
-0.031014868415600513 -0.22947880326580977 -0.6136071570463905 -0.044545988927066786 -0.0704574835885108 0.5052630729136077 -0.139696958367077 -0.041249425203778216
00000000: 7fa7 3461 4e95 b1bf 56bc fbbe 0385 d43f
00000010: 3b15 61f4 67a4 d0bf f554 83e5 08de dc3f
00000020: b17f 230c 6f70 d03f 95e4 7e7f 5fdd dfbf
00000030: 0d7e 4e06 6de4 da3f ff6d bceb add3 a13f
00000040: 97d8 5a84 bd9f c53f 545e bcf8 03c8 da3f
00000050: abb2 f9fe 5d61 b83f 053c 1e2b d851 c6bf
00000060: 678a 2e5b 0881 ce3f 2774 9257 6282 d23f
00000070: 67b7 4cb9 b9ec d1bf a776 ece5 fab7 c1bf
00000080: dfaf d312 3e56 e1bf 7a8c 3122 4fea c7bf
00000090: fd91 2931 3230 c53f 5592 eab5 fd9e ddbf
000000a0: 4d9b 161b 070d dc3f cf80 d38f 7841 cf3f
000000b0: d175 5191 7849 dfbf 5f24 447b 716c bb3f
000000c0: 0502 e80c d43a dd3f bf16 29ae 1d1d cbbf
000000d0: cd1a 38ed a583 dc3f 7f24 6b18 5fad 903f
000000e0: 4d01 baa7 8fad de3f a8fd e0e6 d724 b6bf
000000f0: abb8 b941 f8f3 d6bf e111 9c44 8af0 bb3f
00000100: d7b1 6bf2 cb5f debf 3afd 7110 8ef7 d7bf
00000110: 35c9 ff21 f337 c6bf a414 c99b fdc8 b9bf
00000120: 9f0c 982c 865a dcbf e251 df7d 8695 ca3f
00000130: 67b2 f748 a977 cf3f 7767 b993 5206 a3bf
00000140: 43bc 256a 911b dc3f 92f1 401a 7a30 de3f
00000150: a71e 33e9 21d5 a83f 42f4 721f 2192 db3f
00000160: 1e70 c064 5c80 b8bf 655a 9429 35f0 c1bf
00000170: 5300 66c8 4d8e d03f ba5f 79c2 ef23 b3bf
00000180: e724 df21 f801 ddbf 4987 0926 a502 c7bf
00000190: ee19 b89c f09f c43f fa79 96c6 d8ab bfbf
000001a0: 9879 e830 fc33 bf3f 96b5 2789 4c09 de3f
000001b0: 0500 0496 953c d33f 8b84 8e15 2172 b8bf
000001c0: ff74 735a f482 d23f 852c 6e56 b687 dabf
000001d0: e91f 9f2c 12f2 d13f d746 4dcc 598f dc3f
000001e0: e7b5 4dcb 24d2 c93f 3999 e849 66df dc3f
000001f0: b7de 97da 3c6f cabf 8fb1 630f 3f18 b9bf
00000200: 80b8 5a3e fbe8 abbf e3aa 77e6 a567 d03f
00000210: cc0b c607 103a dd3f 23d3 d479 5248 d7bf
00000220: 67a3 92bb 9a0d a3bf 7852 3bb0 3df1 80bf
00000230: 28d5 a8c7 40e6 d73f 9111 65fa 3811 a23f
00000240: 960d ce4c 10cb d23f e2bd 3308 654c e03f
00000250: f2cd 6cdb 4155 c9bf cdde 7bfc 826a db3f
00000260: e472 4f4a 8496 e23f 6ec3 9a03 3e60 d7bf
00000270: 56b5 2c5c 19e6 a8bf a0f2 8fbe c34c dbbf
00000280: 98e6 dbe8 4120 d5bf 83c5 dbae 8439 cbbf
00000290: aa2d 9615 d13b dabf 523b 3690 893f d03f
000002a0: 8b2d eb6b 3f0d c7bf bb54 22d2 467e efbf
000002b0: 1320 b350 8b45 c03f 4ad6 18a5 6124 f7bf
000002c0: 487c 69dd 0c68 aabf c01f e468 759a d7bf
000002d0: 2ba7 a17d 84e1 e03f 0598 b5aa 56c6 be3f
000002e0: 6cb5 6b16 eb8b b83f b352 ece8 e48b c53f
000002f0: 09e3 be81 37d3 dcbf 276f 538c 1c71 b7bf
00000300: dc0a 962e 5453 ddbf f09a ce16 7d72 d83f
00000310: 98fb dcb0 490c b9bf f720 8494 1c86 cfbf
00000320: 8441 cf56 d58c d7bf c364 9505 9b60 ccbf
00000330: d3fd 1bba bf90 c3bf cbcf c68d 070b d23f
00000340: 5877 8f5c d02e db3f 9e6e fe74 b209 d83f
00000350: 1ade 8238 a7bc dd3f b604 6bf3 0fdb d5bf
00000360: 40b6 5506 f6f1 dbbf 8c6d ce4a 7da3 dbbf
00000370: 87d6 3036 be43 bfbf 40d9 427b 888d cd3f
00000380: abd9 68bd abc9 c43f 99ce b5ec 0e8c cfbf
00000390: ebf5 69c9 2c77 c73f f715 edee 7bea d5bf
000003a0: 1d0d dfa1 02b6 d93f 4b81 d433 a64e c83f
000003b0: 23be c318 4a40 cd3f 0b13 e0b1 2221 d23f
000003c0: 4fce 6bac 7e7b d1bf b86c d62d 0eb3 ce3f
000003d0: e584 bdd1 06d7 e03f 5c20 0440 ee06 b2bf
000003e0: a16e f6ab 6ee1 d5bf a1cc bbda aeb6 d53f
000003f0: 2c53 4610 8cfa a13f 0069 abde 5b87 c43f
00000400: ff2f 9383 8005 b83f 1fd2 6133 760d dabf
00000410: 7570 e1da 13f9 d43f 33c0 3c49 3403 df3f
00000420: ff6b c7e6 4094 adbf 5ef2 7960 855a c1bf
00000430: bd20 8617 484f bdbf d8d5 a0e9 4a3e 8fbf
00000440: d946 dc75 1564 d2bf e37c eec0 0bd3 c4bf
00000450: f766 b838 d550 b23f df80 ef48 1efe a43f
00000460: b404 a15a a79d 913f 119b eb34 1323 d8bf
00000470: 1bd3 fd8a 3c48 afbf cd42 b7d5 73c8 b0bf
00000480: e387 08f5 8fb2 c8bf 10cf 6bbf 95cf dd3f
00000490: 3a09 dc92 18b3 cfbf b0b4 ce86 1815 cdbf
000004a0: 6b24 d063 5d47 d33f 493d 0dd6 b222 d1bf
000004b0: 461a aade d950 da3f 693e 938f 55f8 db3f
000004c0: d29d cb6a c94b d2bf 3b36 b8b2 f212 e1bf
000004d0: 6cb1 440f 8030 cfbf 3524 945a 89dd b63f
000004e0: dc62 d414 8fbb c93f f9d4 bdd8 38a0 e7bf
000004f0: 985c 5c31 ae84 a23f 5d4a 9dda 0c4e d03f
00000500: b861 e6d3 916d c1bf 1167 7803 9906 cf3f
00000510: e048 c02e ba17 c53f a835 0161 939a c6bf
00000520: e76f 437b 995e ba3f c3e8 b072 2725 d3bf
00000530: 6b60 8c08 2b1c c43f 07e7 e7a7 2818 be3f
00000540: 190a 1d7f 55c7 d4bf fea8 de0a e878 c7bf
00000550: d950 f8a7 7445 c2bf 6c61 1dfe b994 d8bf
00000560: f112 26d5 843a dc3f 1877 a309 9b2e e03f
00000570: 4e8d fd76 0d2a d0bf 2261 d33b 9d75 c33f
00000580: 7b70 a4ca ccb4 cbbf d394 5470 b239 c9bf
00000590: e7fd 679e d6cd d03f 6fcd 5368 cde9 ae3f
000005a0: df51 2d3f ce87 d33f d7be 9763 cc31 c13f
000005b0: f720 512d 2a9b b7bf bdc4 f1f9 ba86 d6bf
000005c0: 6572 61da 2140 d93f f777 6486 8f08 bc3f
000005d0: 4ff7 421a 331b c1bf 57b2 fdfc b729 c43f
000005e0: 9862 e970 842a e0bf 6c6a c0f1 8941 db3f
000005f0: ad67 f670 f2d0 ba3f 7c9b a7ee b906 d0bf
00000600: dc94 2396 5cc2 9fbf 8270 93b9 8f5f cdbf
00000610: 9362 037a aba2 e3bf 872e 385b bbce a6bf
00000620: 8167 c56b 8009 b2bf 074b c176 1d2b e03f
00000630: 3dc5 c405 97e1 c1bf d742 7508 a51e a5bf

bias f8 [50]
-0.34718533478375646 -0.35514733374913154 -0.16334485355405673 -0.4482602353800308 -0.04241338149509495 -0.4658703226437495 -0.12045645865574861 0.13275618029445718
0.4849285865153022 0.09784692187717602 -0.28906791091614936 0.4064941167595243 -0.08946879209380548 -0.3492535897007438 -0.2986082216090049 -0.43173990732632117
-0.09846539150455265 0.0030535367937663677 0.31712000626186615 0.128749854491591 0.17806337102270278 -0.3761588859214115 0.3252199035854765 -0.2016435963311363
0.1490402177676473 0.31160733803921714 -0.2801775474584186 -0.04488383315140468 0.36226743462699484 -0.29221591109250733 0.47941014772691853 -0.15760818102827245
-0.4808521672856769 0.23798409175325605 -0.41734896271435606 0.18612504016354442 -0.17689364227637697 0.023170056530827186 0.061712280531687064 0.048068067349702835
-0.09188908137082742 -0.49860604676130105 -0.13847807755168545 0.09331497441719239 -0.31039106122730264 -0.37007657943977357 -0.4640827741183725 0.11060480144686201
-0.06596746852992905 -0.08365493622963704
00000000: ca02 a3d6 4838 d6bf 18b4 ede1 bbba d6bf
00000010: d106 fef1 7be8 c4bf d67c c3b2 4bb0 dcbf
00000020: 0a50 deec 34b7 a5bf cca3 fbc1 d1d0 ddbf
00000030: f0b6 8406 3cd6 bebf fe70 5a8e 27fe c03f
00000040: 81a3 fee8 1109 df3f 7f0b 7af1 7e0c b93f
00000050: 484e edb1 1680 d2bf 72e8 5fe6 ff03 da3f
00000060: 6c36 0e40 6de7 b6bf 789e 71ba 2b5a d6bf
00000070: 4427 88a8 651c d3bf 420e 966b a0a1 dbbf
00000080: 95c5 4c24 0735 b9bf a0d0 5215 bb03 693f
00000090: 7754 f3b5 b14b d43f 76fc 330f e07a c03f
000000a0: 153a 94d1 c7ca c63f e776 48b8 fc12 d8bf
000000b0: f21a 7a24 67d0 d43f c153 d815 75cf c9bf
000000c0: d0e5 8cf6 bf13 c33f 8a9c 84e7 5ff1 d33f
000000d0: c612 dace 6dee d1bf 3441 0287 03fb a6bf
000000e0: 9e3d 08c0 632f d73f a8d7 605d aab3 d2bf
000000f0: a3e3 76e6 a7ae de3f ec9a 8c3f 812c c4bf
00000100: 18f9 2c2b 48c6 debf 2f35 8641 4376 ce3f
00000110: f42b 786c d8b5 dabf ca0b 3c00 f2d2 c73f
00000120: 2943 396c 73a4 c6bf a97c 2f2c e4b9 973f
00000130: 2c54 4a85 c098 af3f b36f 7fb2 609c a83f
00000140: 39e1 58f7 0a86 b7bf 5e5e 1b56 29e9 dfbf
00000150: 8a12 264f a6b9 c1bf b052 597b 7de3 b73f
00000160: b449 3c78 72dd d3bf 6066 6dad 55af d7bf
00000170: 626c 5e3c 88b3 ddbf 37ae fea4 9850 bc3f
00000180: b69a ef77 3ee3 b0bf 8058 41ef 686a b5bf

weight f8 [50, 50]
0.09160713340931816 -0.034279643353087974 -0.026743248792355543 -0.008182729636687102 -0.05413906724382807 -0.024271668460588803 0.1093895055812938 0.036850554689224435
-0.012462369904432257 0.07202735384807098 0.08156485845167859 0.08279630467038028 0.13716272096135534 -0.08939066901363586 0.05269448765524216 0.09148082716997542
-0.06853888820621282 0.06773548292103614 -0.11437223905584624 0.031187169851334566 0.07969529872101457 0.13417640197667932 0.1177544975404164 0.09911345670723656
-0.12481811458565276 0.04327699429559474 0.009159781015739063 -0.08799962751223647 -0.12841823792798143 -0.04931769386493108 0.11518374689658133 0.10272344248464402
-0.08201215564437377 -0.043107651839822486 -0.06780776932119822 -0.01880019134432131 0.05383514142612753 0.5752478904161681 -0.011463642595142536 0.15314151291266706
0.03845483993490741 -0.002372702649404584 0.18409664252514943 -0.09006831178812312 -0.1087185508050455 0.019662009873080873 -0.09729213737353298 0.010032274325510463
0.01533737329230089 0.0918039179956238 -0.07317796975225595 -0.019802641811481867 -0.1728309833935357 0.023486760449658174 0.06404618878638008 -0.07733009054623058
-0.11765300861886999 0.03656044283589986 0.08346031890723736 0.1128690301696411 0.0929636754083654 0.13237745338583645 0.14479726455110437 -0.04747781746230919
-0.04487945734107983 0.07407754816517864 0.049807532198433015 0.08141698836885189 -0.00011517498524807944 -0.0008843207856647658 -0.007676019667672695 0.07193478429834337
0.005771424154723998 -0.015236707292471119 0.08251513973452664 -0.11574821731748289 0.012163387204913976 0.03695813216010205 -0.0076727115871526065 0.11335705613378538
0.08861477878618014 0.015366430823619088 -0.10963022671560148 0.03406371461140677 -0.07568967275508415 0.00304286633433869 0.10495635462658294 -0.044764982553184195
0.05863157365086593 0.2697017436857826 -0.015329191702936715 -0.09168464712765181 -0.02359482881835612 -0.023557797217729517 -0.1341877339332075 -0.04672501904092949
-0.05613547563302159 -0.0304968101548083 0.10035990098625384 -0.06916212161009234 0.00265534905019942 0.06471822839920273 -0.04045818350134796 0.13352336201748327
-0.14108317828345565 -0.031745458397945195 0.018991711470810132 0.14072289562137208 0.06591542520589151 -0.02278272848581145 -0.06431247176905394 0.09845319218064176
-0.04715242322088809 -0.024583493789072354 0.09202160676830838 0.11571873651041996 0.01478921053919994 -0.017701681106668518 0.13539640839569322 -0.17687554128255975
-0.006321321003598624 -0.14604030500598933 0.04565881745926334 -0.1160074417428071 0.075771261723839 -0.004895839079632254 0.017365782504315332 0.038392308455598906
0.09763176947341128 -0.024811889662959444 0.08676075882683891 -0.03897488100038447 -0.02396480892033211 -0.07547712447000413 -0.12233062922567232 -0.18028595929793842
0.11376807806025102 0.05530625475041938 -0.16783749142627208 -0.05244707883318623 0.02064699688115173 -0.09249493042230623 -0.14230541565570484 0.14699314334449157
-0.04685957532252316 0.03242053152792194 0.08663467682960044 -0.0029622800113260623 -0.0989859397770119 0.07138900500812365 -0.057680209851515854 0.08869484795269954
0.006642044160127389 0.030357310713160113 0.09235875409227015 -0.03463341395216849 0.11278686153647374 -0.07532331704215724 -0.020803551308728987 -0.03400459194733882
-0.08232809769843911 0.12392406495599301 -0.0752118628989618 0.12817030390922013 -0.05208332541155244 0.08384330179808175 -0.04556756009096454 0.1329058574668189
-0.10967793703807428 0.11487240767718301 0.11650473780733821 0.10444506288852577 0.12269808575130545 0.12261033611105109 0.07877330042622543 -0.05940190873615899
0.14073475076364603 -0.04871303936880738 -0.1542533736496715 -0.014530993132678353 -0.11684968555841177 -0.09305619070991873 0.09298103466549122 -0.03531137179656151
-0.04213143927014398 0.07275206868400973 -0.03257187765084048 0.038287904081209696 -0.028470708693105598 -0.1192256393495186 0.02227264154484794 0.032249974734160455
-0.15249528905474893 -0.007004195140000643 0.035276147169272444 0.05249476873410595 -0.03658872583298856 -0.04808121578912967 0.1223297738830508 0.02772688476940833
-0.13235477046632485 -0.08661126186450108 -0.14739153878923358 0.018764910760490576 0.04703585311750309 0.06781286868955846 -0.09210025760032597 -0.0564074440048496
0.1404943604412373 0.1493106061326697 0.08506674056742831 -0.010302115374115156 0.07989503913592418 -0.04694348793385838 -0.05586453409907686 0.026369531105320164
-0.24019487644518767 -0.11121077082158934 0.058881148846099025 -0.1340909439724547 0.08095506603546979 0.11143178037822189 -0.0016040724072851256 -0.03187906762831648
-0.021910780640256523 -0.11505227846405643 -0.045984544572218344 0.0870015786415311 0.05690000764355185 -0.13316333966294117 -0.09932747144686084 -0.10768000613686432
-0.058009682719477366 0.03632479033716697 0.025701801146343135 0.10473970665878576 0.8565239820125413 0.09610748522628293 0.17344272237901487 0.007938089258640455
-0.40982438698040435 0.07265629985678672 0.2586594879179464 0.3540046860747858 -0.12249777615754612 -0.01689668355742443 -0.07957680322567447 -0.013808613644585143
0.0836137459465264 0.23766312949095975 0.09592254637607003 -0.049147397465487914 -0.012007396863979851 -0.05964658500434788 -0.04293972052233261 -0.1178626559391778
00000000: c9c5 12aa 9073 b73f 1078 3df6 198d a1bf
00000010: 39ce ce0b 9562 9bbf c6e0 7361 1bc2 80bf
00000020: 4a12 7fa6 1db8 abbf fdc3 0719 acda 98bf
00000030: d94c ff5c f300 bc3f 6898 756e 13de a23f
00000040: 338d 5cf9 de85 89bf f5e3 3179 6270 b23f
00000050: 2f86 8d3f 6fe1 b43f abf7 c97c 2332 b53f
00000060: da33 614c 8c8e c13f 1d2b fb8f 4ee2 b6bf
00000070: 7946 519a c5fa aa3f 61f4 e798 496b b73f
00000080: 0292 59bb c38b b1bf afb3 ecd3 1c57 b13f
00000090: e7ad 50c2 7f47 bdbf aede 438a 87ef 9f3f
000000a0: 59d6 a63d e966 b43f b740 313d b12c c13f
000000b0: b59b e4a3 2825 be3f 06ae 26df 7f5f b93f
000000c0: 9a00 1878 14f4 bfbf 7267 56f6 6628 a63f
000000d0: e57e 35ff 5cc2 823f 2aa9 39c2 2487 b6bf
000000e0: 0729 0e42 0270 c0bf 7a2d 8734 2b40 a9bf
000000f0: 5399 f399 ae7c bd3f 960b 0162 154c ba3f
00000100: cdf6 5da6 bffe b4bf 3402 b8c5 3412 a6bf
00000110: ce35 a697 d95b b1bf defa ed7b 5b40 93bf
00000120: 3dfc 9997 4790 ab3f 1dc6 8d43 6e68 e23f
00000130: 3c38 5010 407a 87bf cb57 cf1e 249a c33f
00000140: 2364 c94f 5ab0 a33f f2ce 0809 eb6f 63bf
00000150: 3376 7991 7a90 c73f 0f32 8985 b70e b7bf
00000160: 741a 2d9c fad4 bbbf 8298 8325 4722 943f
00000170: 2461 2d34 23e8 b8bf c27f 0f11 cd8b 843f
00000180: 3e68 9365 3369 8f3f 2f95 6f29 7680 b73f
00000190: 55a5 df9a cabb b2bf 49a1 d1cb 2447 94bf
000001a0: 9e93 b45e 531f c6bf 2ac1 14d0 e90c 983f
000001b0: 9c5c 45be 5465 b03f 2c8d e4a1 e7cb b3bf
000001c0: 0a47 4bf0 811e bebf 5e6c 9de4 0cb8 a23f
000001d0: 8f66 38cc a75d b53f 0f52 4f19 fce4 bc3f
000001e0: a34a 98a9 77cc b73f 228d 8290 bef1 c03f
000001f0: 660c e67d b788 c23f 8378 9232 034f a8bf
00000200: a696 15b3 70fa a6bf 28c0 bc06 bff6 b23f
00000210: 5d02 c673 5f80 a93f 560e 6266 bed7 b43f
00000220: ca69 092e 4331 1ebf 97de 426d 38fa 4cbf
00000230: 594b fad6 e370 7fbf 4396 016a 516a b23f
00000240: 1424 efdf c6a3 773f 20bb 283c 6c34 8fbf
00000250: 69ac 9552 b61f b53f 72ea f2d7 aca1 bdbf
00000260: d28e 0732 1ee9 883f 24d4 e521 2dec a23f
00000270: c455 6ad5 6b6d 7fbf c48d ddd0 f704 bd3f
00000280: fd33 d448 75af b63f b7e0 bf6e 6f78 8f3f
00000290: dd85 65fe b910 bcbf 4ef8 7898 cc70 a13f
000002a0: 7cc6 20fd 6560 b3bf e7f3 8b6c 5aed 683f
000002b0: c9e8 a06e 6bde ba3f e3d4 2490 6feb a6bf
000002c0: 33dd af26 f504 ae3f be7e 331a cb42 d13f
000002d0: 584a 4e48 e964 8fbf 8264 f520 a578 b7bf
000002e0: d1aa 8428 3e29 98bf 17bb 7602 891f 98bf
000002f0: a43c 624c 102d c1bf 2c1d 5f79 57ec a7bf
00000300: b37c faff c9bd acbf db27 fd48 8e3a 9fbf
00000310: 8bd5 90bc 2fb1 b93f 4df4 6fda 9bb4 b1bf
00000320: 6bf1 8faa abc0 653f 81fc 6db2 5f91 b03f
00000330: bada fc5d efb6 a4bf ccfb 8e24 4b17 c13f
00000340: 8120 5f7a 030f c2bf 723d 3bd3 f040 a0bf
00000350: 1f17 a62e 9072 933f e400 3f35 3503 c23f
00000360: 4dad 8f53 d5df b03f e873 0a07 5b54 97bf
00000370: 2e17 f93a c876 b0bf e147 9a78 3a34 b93f
00000380: f15c 52c7 5c24 a8bf cac6 6157 6a2c 99bf
00000390: bf62 985f ba8e b73f ffc0 d83c be9f bd3f
000003a0: 55d2 cb3c ce49 8e3f ecdb bfb5 6320 92bf
000003b0: 1c16 0765 ab54 c13f 97ac a294 dba3 c6bf
000003c0: 0ec8 a5af 62e4 79bf f904 f3de 72b1 c2bf
000003d0: 7cec 85af 9760 a73f 69c3 60e8 a9b2 bdbf
000003e0: 9a9e 14d3 be65 b33f bb69 bccb a80d 74bf
000003f0: e7b1 b3ef 55c8 913f 0c30 781a 28a8 a33f
00000400: 935c f048 65fe b83f 8113 9eba 4968 99bf
00000410: 53c7 bcfd f335 b63f 9e37 86fe 83f4 a3bf
00000420: 3557 451a 3b8a 98bf b2dd 3105 7852 b3bf
00000430: 03c8 d263 0f51 bfbf bf6a 8e3d 9c13 c7bf
00000440: 40f9 989e e71f bd3f cea7 d5f6 1951 ac3f
00000450: 6ef8 5bec b27b c5bf 11f2 b7f0 57da aabf
00000460: aeec 7581 7c24 953f 65a8 356d bfad b7bf
00000470: df78 2459 1037 c2bf 714e b3db abd0 c23f
00000480: e084 076f fafd a7bf d541 4385 6c99 a03f
00000490: fec2 aeaf b02d b63f 3fce a5f8 5944 68bf
000004a0: d228 1b7e 2457 b9bf 82ca cdc1 8c46 b23f
000004b0: 5a9a e0ad 4288 adbf 47d1 479f b4b4 b63f
000004c0: 1730 2427 b034 7b3f 9083 d4a2 fc15 9f3f
000004d0: f25a 53c4 d2a4 b73f 45fa 8b88 78bb a1bf
000004e0: eeb6 b789 99df bc3f 9182 528f 6348 b3bf
000004f0: b7ed 0bb2 864d 95bf 1cc1 a7c4 0c69 a1bf
00000500: c31c 2847 7413 b5bf f461 2cce 7cb9 bf3f
00000510: 531a 6cab 1541 b3bf b8e2 cd6f e267 c03f
00000520: 7b7c 9e66 aaaa aabf 901f 362f c176 b53f
00000530: 53cb b298 a154 a7bf 4f27 a223 0f03 c13f
00000540: c1d8 ab70 da13 bcbf 12b0 2f32 4768 bd3f
00000550: 9b29 b626 41d3 bd3f cbba 5561 e9bc ba3f
00000560: c66a 9549 2469 bf3f cf9f bf17 6463 bf3f
00000570: 50ed 20ad 7c2a b43f bbfd ae4e ed69 aebf
00000580: 9f64 f8a7 9803 c23f a7a0 f45d eaf0 a8bf
00000590: b4be 8f15 93be c3bf bc1a 44e2 6cc2 8dbf
000005a0: 6e71 056a dce9 bdbf bd18 cacf 87d2 b7bf
000005b0: d759 09e7 9acd b73f ef14 1606 5514 a2bf
000005c0: 64ec 9883 4092 a5bf afd3 b62b e19f b23f
000005d0: 5231 8fda 42ad a0bf a9ec b8df 789a a33f
000005e0: 145f ecea 6c27 9dbf d2d2 d94d 9285 bebf
000005f0: 7463 1fac a3ce 963f 1e62 8f95 1183 a03f
00000600: 1b61 a433 f784 c3bf 2349 fa50 6eb0 7cbf
00000610: 4581 d714 b70f a23f 7d1f d925 98e0 aa3f
00000620: 11c2 b5e9 c1bb a2bf 9982 bbe2 199e a8bf
00000630: 8a9f 270a 0151 bf3f 02e1 37bd 6f64 9c3f
00000640: 81ac 4f49 00f1 c0bf f85e 2cd9 272c b6bf
00000650: a347 67d7 b9dd c2bf 7e5a 1dd8 1b37 933f
00000660: 0a1e c255 1515 a83f 3e04 4525 2f5c b13f
00000670: 2cb9 58ea e193 b7bf 59e9 80be 6fe1 acbf
00000680: e40b af1d b8fb c13f 9193 2425 9c1c c33f
00000690: 4de4 b614 efc6 b53f 703c e484 4619 85bf
000006a0: 3591 3354 0074 b43f 7f47 df12 fa08 a8bf
000006b0: 9d72 ecb5 469a acbf a633 d546 9d00 9b3f
000006c0: 0cda 7fa9 b4be cebf f644 a41f 4f78 bcbf
000006d0: c930 4a81 ab25 ae3f 4896 865d e429 c1bf
000006e0: 7a5f 11a1 78b9 b43f f1a2 750c cb86 bc3f
000006f0: 58b2 e6a1 f747 5abf 9efb c701 7452 a0bf
00000700: fd71 1e99 c76f 96bf 315a 55ed 1074 bdbf
00000710: 9046 1e46 498b a7bf 463b f746 bc45 b63f
00000720: d041 f16f ff21 ad3f c571 700e 7f0b c1bf
00000730: 8169 7571 866d b9bf 2e79 cab8 ea90 bbbf
00000740: df52 43f4 71b3 adbf 127b 10b5 2999 a23f
00000750: 62c3 7cad 9251 9a3f aa2e b1ae 38d0 ba3f
00000760: 4d79 5ffb a468 eb3f b49b f209 809a b83f
00000770: fe6c 2c02 5f33 c63f 7297 114e d841 803f
00000780: 0cc8 cb10 903a dabf 7bb7 bb6f 9a99 b23f
00000790: 8b17 5a86 e08d d03f db9a 5445 03a8 d63f
000007a0: 72ec 6da6 035c bfbf 76f5 283d 5d4d 91bf
000007b0: 2ddf 5f37 255f b4bf 6680 0dc0 b047 8cbf
000007c0: 3a1d 56e0 b567 b53f c278 50d4 be6b ce3f
000007d0: 225f a247 618e b83f 2177 9801 d929 a9bf
000007e0: a922 ba86 5597 88bf f7d1 d247 ff89 aebf
000007f0: 4c83 afee 31fc a5bf 22b0 ad3c 3f2c bebf

bias f8 [50]
-0.006180045669273001 0.03800594754847877 0.10437624912322777 -0.10525873551904628 -0.08792736298397738 -0.13222297422783688 0.10504908450254344 -0.11228422540868337
0.04412945708711149 -0.05012688598618351 -0.09777143391471926 -0.12585613998966913 -0.12543845782792276 0.13496058303438044 0.12317484490366999 0.019451206853697642
-0.03459400080237929 0.13219945519875337 -0.1341387581579643 -0.059532326364405405 0.03666115369508449 0.012492287043795725 0.005228452157741137 -0.0894611584801164
-0.02267942173268815 -0.034575505779971406 -0.020515591754380273 0.12920730518137102 0.06567951511239128 0.07780018010094972 0.11044637226200275 -0.06330366755620674
0.09226433145525312 0.07626605524941285 -0.07372968481899567 -0.0730169066482844 -0.038976927258741155 -0.08336255188772634 -0.07811437400166774 0.06280406197492323
0.023752669413345386 -0.026933665057463085 0.14027081658479393 0.04198639387480926 0.03926272161607755 0.11290298357015593 0.12849422499686916 -0.0007327929331797526
-0.133516518425381 0.05998689035267365
00000000: 89d6 9860 3f50 79bf f364 8cfb 8375 a33f
00000010: 2aa2 76e0 66b8 ba3f a730 ac8a 3cf2 babf
00000020: 6e90 705c 6882 b6bf 0751 0bb3 aeec c0bf
00000030: 26c5 692e 7fe4 ba3f 33ab fcb3 a8be bcbf
00000040: 3371 f5dd 2298 a63f 6d05 ec2f 3baa a9bf
00000050: 0c91 2577 8c07 b9bf 97d2 a0d2 0d1c c0bf
00000060: 950b 040d 5e0e c0bf 65dd 306d 6346 c13f
00000070: 2d17 8dfa 6288 bf3f c9aa 3765 04eb 933f
00000080: 4004 2b0c 4eb6 a1bf 4257 5068 e9eb c03f
00000090: a90e b575 752b c1bf 5e70 9465 057b aebf
000000a0: 60db 4e30 40c5 a23f da59 7162 8e95 893f
000000b0: 734f 6bf0 6d6a 753f 1233 ef2d ede6 b6bf
000000c0: 2c4e 893a 4639 97bf 35a1 2275 e1b3 a1bf
000000d0: 0e96 920e 0a02 95bf 8442 146f dd89 c03f
000000e0: 84c3 6c69 5fd0 b03f aa0f 286d b6ea b33f
000000f0: abbf d3a4 3646 bc3f 67ea de4d ab34 b0bf
00000100: 9e07 309e a29e b73f 1656 1715 2c86 b33f
00000110: d0be 0ad9 f2df b2bf ff05 1c6a 3cb1 b2bf
00000120: 33ee bfa7 c8f4 a3bf a0a2 118a 3f57 b5bf
00000130: e646 afb9 4dff b3bf 1dfe 3c50 ed13 b03f
00000140: 37c5 4aa9 9e52 983f 2038 55aa 7f94 9bbf
00000150: c94e e8e4 64f4 c13f bb78 2399 3d7f a53f
00000160: cc04 9652 3e1a a43f 38fd 0dbe 35e7 bc3f
00000170: c50f 0baf 7f72 c03f 8840 64d7 1c03 48bf
00000180: ff6f 0ebc 1117 c1bf fbc6 8108 9ab6 ae3f
