lasa_models/6/skel_model_BendedLine.pt (torch, 99247 bytes, 18 tensors)

R f8 [20, 20]
000000 70 17 1b f2 c7 e6 c5 3f dd 71 02 19 50 3e cf 3f
       0.17110537835668138 0.24408913823289327
000010 b9 6a 52 ea 7b 2a b6 3f 1f 30 b6 36 f7 65 d4 3f
       0.08658575506926071 0.3187234911245031
000020 0f 79 b7 12 d9 20 b3 bf 6e 72 fc 3f d6 c0 ec 3f
       -0.07471996981573546 0.8985396623352935
000030 26 af a4 c7 ce 3f c6 3f 4f fd 99 c0 22 37 ec 3f
       0.1738222575016774 0.8817304383991685
000040 5e 91 0a 56 0e 6c d6 3f 97 50 bb 9d 0c f4 ac 3f
       0.3503452148672944 0.05654944825588009
000050 32 c3 e2 f2 95 ca c0 3f 0b 9b 4a 21 6b 12 e4 3f
       0.13118242606790315 0.6272483492110451
000060 d4 45 a3 2a 34 4e d6 3f e0 f2 18 e6 aa e7 d7 3f
       0.3485231796631443 0.3735148665471524
000070 f0 b0 8b 9d 15 c6 e3 3f 40 9a 9b 47 ef 98 e9 3f
       0.6179302289069977 0.7999187849607736
000080 a2 d6 91 6c 49 e9 e3 3f 10 ad 70 23 87 07 ea 3f
       0.622227394151839 0.8134189312162636
000090 25 34 42 b0 be 3a ec 3f 04 57 f3 81 ae c2 c8 3f
       0.8821710054923001 0.1934412130855706
0000a0 3a 8a 85 6a 18 c3 e6 3f 78 ee 03 5a 7d b1 b0 3f
       0.7113153534413137 0.06520827720299305
0000b0 95 f5 31 48 0d f5 e4 3f 3b d3 ae a2 a3 4e dc 3f
       0.6549135599195092 0.4422997559261607
0000c0 aa 21 4b d2 45 58 d9 3f 3f e8 41 ae ab 13 e8 3f
       0.3960127404830255 0.7524011996713468
0000d0 b3 0b 4e b2 42 07 93 bf d0 9b 49 46 9c c4 d6 3f
       -0.01858238423620735 0.35575014938370675
0000e0 c9 ff 07 d3 3c c5 de 3f 40 4c bf 94 ab f8 eb 3f
       0.4807884274341601 0.8741052537174099
0000f0 03 46 e9 75 9b 62 e8 3f a6 fc f8 99 b2 d1 a5 3f
       0.7620370200112919 0.042615491195186636
000100 22 15 53 a5 40 23 db 3f 5e ed 34 7f c9 b6 e0 3f
       0.42402664322828987 0.522312878084829
000110 48 61 d4 2b c9 be da 3f 29 93 1a 3f 66 9b d5 3f
       0.4178946426414041 0.3376098266838193
000120 5d 27 2f b7 88 25 e7 3f a1 85 bd af d7 7d df 3f
       0.7233317926231667 0.49205581819668437
000130 a9 63 ee d4 b8 b6 e3 3f 88 fb de 6c ef 8f cd 3f
       0.6160549315273914 0.23095505538909955
000140 eb ef 31 11 1e b1 cb 3f 71 d7 df 84 e6 ba da 3f
       0.2163426956138886 0.4176574990846041
000150 69 f7 cf 92 73 e9 e3 3f 4d 09 17 9a a6 39 e7 3f
       0.6222474925450402 0.7257874497957261
000160 74 8e cf 82 2b 8e e7 3f c8 5e 76 ee e1 30 9f bf
       0.7361047320268441 -0.03045990961035619
000170 f6 1e fd 19 11 e7 d0 3f 5e c8 95 08 59 b0 e7 3f
       0.2641031984135077 0.7402768294980537
000180 c0 bc 12 27 91 af eb 3f 4e ff fc de 72 6b a5 3f
       0.8651815188549321 0.04183539363884724
000190 41 24 f8 18 cf 04 e7 3f 8b e8 be 71 66 c4 e2 3f
       0.7193370330506995 0.5864746305080798
0001a0 5e 41 87 9f 00 a3 ed 3f 54 e1 27 53 6b 7d e5 3f
       0.9261477580821909 0.6715599655281417
0001b0 3f 66 35 74 93 be e2 3f fe 72 a9 7b 7a 03 ef 3f
       0.5857636708926249 0.9691746154090592
0001c0 f6 07 fa ce 47 9d c2 3f fe 00 e0 c5 0f e4 f0 3f
       0.1454248200062122 1.0556791047566203
0001d0 c0 c8 3b c3 cd 89 e3 3f c4 95 79 7b 95 9c d8 3f
       0.6105717480807229 0.38455712373828654
0001e0 f6 30 a3 a5 dc 69 e5 3f 27 85 b6 61 61 ac db 3f
       0.669172595511127 0.43239626447946694
0001f0 3f af 71 0d 73 41 e2 3f cc 91 63 83 70 1d d1 3f
       0.5704894316272443 0.26742184477759845
000200 76 72 ce b2 be 70 d2 3f 64 1d 14 16 e9 96 df 3f
       0.2881314035564978 0.49358584552870455
000210 3d cc 98 00 e0 b8 e1 3f 71 02 bc 7f 33 66 d6 3f
       0.5538177501351879 0.34998786424697587
000220 5e a5 bc 62 2b b9 d8 3f 17 c8 2b 1d 70 b3 e2 3f
       0.3863018478610537 0.5844040460344812
000230 cd a9 f0 b1 f0 87 d4 3f 01 85 2e 14 21 df ea 3f
       0.320797132272358 0.8397374529050979
000240 1a 9a 5d 76 f3 7e ae 3f f3 e5 3a 7f d4 3b d0 3f
       0.05956230945485093 0.25365173744975705
000250 cd 93 b9 a4 eb f4 c1 3f 26 52 44 6d 71 79 e1 3f
       0.14028687995155878 0.5460745939367981
000260 55 c7 1e 3a a8 39 e3 3f 56 00 7f 0b bd 29 e4 3f
       0.6007882247124409 0.6300950264485532
000270 bd 55 b4 b2 51 fa e2 3f 16 8a 65 79 0a 6f d0 3f
       0.5930565347977602 0.2567773995889707
000280 f3 db 5e ce 9d 03 ef 3f 4e 16 ed cb 50 81 46 3f
       0.96919145876643 0.0006868023409444897
000290 c6 3c 96 36 15 9f e8 3f 22 68 9b 80 c4 14 ec 3f
       0.7694192949437813 0.87753510588232
0002a0 cc b7 34 33 2c fc d3 3f 04 c2 c3 ce 74 eb e2 3f
       0.3122663974817186 0.5912422216770783
0002b0 42 24 7c 12 88 08 e8 3f 4a 4f 2e 99 98 ab e5 3f
       0.7510414467843776 0.6771967880072023
0002c0 48 66 7b 37 c0 f1 ea 3f a2 3f b7 f6 a5 f8 d7 3f
       0.842010601390208 0.3745512875875595
0002d0 8f 67 0d a4 84 45 e8 3f 9b 50 32 ed a0 f6 e9 3f
       0.758486099638718 0.8113560326333017
0002e0 c8 aa 3f 69 a5 95 bf 3f c9 c9 97 54 bb 07 e2 3f
       0.12337716884182293 0.5634438183026812
0002f0 59 3c 49 ff 93 d4 e6 3f aa d5 51 b6 5a e5 ed 3f
       0.713449476819629 0.9342473565035807
000300 a5 56 ea 79 24 80 e6 3f 36 fb f4 81 98 c6 ea 3f
       0.703142393222795 0.8367426431867446
000310 0b a5 e1 36 e4 4c ce 3f f0 36 95 ac e1 9e ce 3f
       0.2367215412116724 0.23922367979906012
000320 0a bb e3 e3 61 87 db 3f 32 79 37 3f a3 77 d7 3f
       0.43013808493462646 0.3666771046972769
000330 52 d5 ea 38 59 22 c8 3f 3d 47 d3 6d 30 4a e7 3f
       0.18854823378721136 0.7278062958741668
000340 3c 10 0a aa ff 99 e4 3f 12 50 f8 15 c5 5c db 3f
       0.6437986680107382 0.4275372232962137
000350 ed 30 e5 8b ff ed e2 3f d6 cf 80 3f 1a 80 e1 3f
       0.5915525181131024 0.5468875160499873
000360 fb f9 6e e3 ea 36 e7 3f f7 bf 16 89 11 96 c4 3f
       0.7254538003979286 0.16082972711365048
000370 c9 d8 2a c7 24 21 e0 3f 51 b4 1f 96 0e 91 e0 3f
       0.5040458574283316 0.5177071506601668
000380 18 f2 88 96 fd 29 e9 3f 19 14 e7 96 81 23 df 3f
       0.7863758030067087 0.486542127004499
000390 ed 12 d8 6d 92 05 da 3f fc 21 d8 0c 9c 54 e6 3f
       0.40659008719403184 0.6978283167709942
0003a0 58 4b 11 ba f0 fa d2 3f 1c 83 76 26 d9 98 ec 3f
       0.2965661828103996 0.8936582328061351
0003b0 cc f8 22 f4 a2 98 e6 3f 96 92 75 e8 46 af d5 3f
       0.7061323898594991 0.33882305813885105
0003c0 aa bc ea 26 a0 25 f0 3f 16 f5 eb 5e bd 72 da 3f
       1.0091859359925288 0.4132531573266801
0003d0 af 01 90 c0 4a b8 d3 3f 8d 03 5f 92 d6 9b e9 3f
       0.3081232910626807 0.8002732142268641
0003e0 ea 56 e5 8a 0e 3f dc 3f a1 53 4f c1 69 03 e3 3f
       0.441348682060705 0.5941666389068027
0003f0 48 d6 58 36 27 4c c8 3f 43 76 a9 df 81 6b d9 3f
       0.18982401040709562 0.39718672601688726
000400 32 24 2e 62 d4 ae e8 3f bf 07 4a 75 58 0c ea 3f
       0.7713415067274865 0.8140070238880454
000410 9d 36 ec 62 1f 48 e6 3f c4 9d e0 45 24 a4 82 bf
       0.6963040287098071 -0.009102137930382954
000420 4e 86 8a dc ff ff ce 3f 1f ee 90 3e ed 88 e8 3f
       0.2421874834881685 0.7667146894449991
000430 9c 4c 6b 2d ce e7 d8 3f 9c 83 40 39 e2 70 d7 3f
       0.3891482776209132 0.36626487341896463
000440 0f 3c fd 3b c4 46 e0 3f 92 97 64 e0 50 a0 c3 3f
       0.5086384936965959 0.15332995373426833
000450 aa 1f a9 41 55 25 da 3f 02 16 67 5f 4a 8d d5 3f
       0.4085286275117094 0.33674868885677267
000460 ca a8 c0 f1 60 b9 e6 3f c3 0f ce 79 ef bb ea 3f
       0.7101292344789496 0.8354413393976688
000470 69 e7 02 96 1a 65 df 3f 06 e1 26 53 83 6c e0 3f
       0.4905458893732573 0.5132462143001539
000480 9f bc 48 9b 84 83 c5 3f 3e 79 8f f9 4d 97 d3 3f
       0.1680761106704027 0.3061098992456158
000490 c7 37 20 30 c3 4f d3 3f ca 9a 3c 40 74 f2 ef 3f
       0.30174331378736635 0.9983464483855979
0004a0 77 05 00 9a 07 78 ec 3f 93 1b 44 5d 4d 05 e5 3f
       0.8896520622076157 0.6568972417452293
0004b0 57 4c da 41 23 b1 e8 3f eb 13 17 16 12 f1 92 3f
       0.7716232572733003 0.01849773654773294
0004c0 ad 28 d9 7c 1f c0 b8 3f 55 82 6a 77 c1 ea e1 3f
       0.09668156431249271 0.5599067051262617
0004d0 14 38 ba c3 6d 2c c5 bf 35 c7 2d 05 0b d0 f0 3f
       -0.16541835839274255 1.0507917597100918
0004e0 64 f6 be d6 10 b7 e5 3f 30 70 8d 8f 7e 64 d0 3f
       0.678596896577528 0.25613369005964426
0004f0 2b 13 8c 38 2c a6 eb 3f a3 4c 9b 5a 41 6a d9 3f
       0.8640347580372681 0.3971103081541491
000500 e9 e1 66 c4 bd 37 e3 3f f1 78 7b 91 30 7a dc 3f
       0.6005543552374181 0.44495786864526027
000510 96 f9 8e 0b 56 35 e6 3f da 30 de bb 9c 29 dc 3f
       0.6940107560874818 0.4400398096702368
000520 d3 7a 8a be 89 72 dc 3f f6 62 56 ad 19 ac d2 3f
       0.4444908486129126 0.29175416877255544
000530 fc 73 6e 96 c3 90 bd 3f 96 14 99 bb 4d 6c d9 3f
       0.11549017355578423 0.3972353298198156
000540 5a 74 e0 12 51 45 e1 3f ff e6 dd 7b 82 a2 d4 3f
       0.5397115105330486 0.32241880508773585
000550 00 68 9d 40 0f 78 e0 3f 01 7a fe 6a b7 a8 ee 3f
       0.5146557104119438 0.9580952729918978
000560 6d 97 ba f5 67 7c ef 3f 22 f1 5f 99 bf 55 e1 3f
       0.9839362906829884 0.541717338142494
000570 ba 23 a3 6e 4e 4c c1 3f 41 1f a7 c8 32 3f d7 3f
       0.1351411857815757 0.3632323226452066
000580 de 03 5c 4c a5 e0 dd 3f 32 8f 9b de 91 ae f1 3f
       0.46683628518081643 1.1051195808040117
000590 2d 69 53 01 29 5c c9 3f 21 4c 12 7a db dc dd 3f
       0.1981250053857563 0.4666050617317428
0005a0 29 c4 de cb a6 c4 d8 3f 85 49 9d 23 dc d9 d3 3f
       0.3870026579780324 0.3101721141621499
0005b0 61 b7 f3 16 ec 55 e4 3f f5 3a b6 3b eb 0a e1 3f
       0.6354885528832989 0.5325828710791415
0005c0 31 67 37 06 75 56 80 bf 4f e6 16 84 67 21 ee 3f
       -0.0079774038812733 0.9415776805755715
0005d0 b7 39 ec 3c a8 ee e8 3f 24 78 2b b3 80 6a d7 3f
       0.7791329564950534 0.36587541100550625
0005e0 93 73 6d ff a0 9e b7 bf 82 92 52 69 12 be d1 3f
       -0.09226423488639872 0.2772260693111904
0005f0 e4 3c dc d6 8a 89 e5 3f 18 69 c3 17 c8 9c e1 3f
       0.6730398365488353 0.5503883804442777
000600 3f ff 1d 43 98 bf c5 3f 4f 69 18 11 d7 9c df 3f
       0.1699095084877573 0.4939477602907986
000610 e6 ad 8e 9e 3c d9 e6 3f 40 d9 01 3a 33 27 75 3f
       0.7140181633780542 0.005164337257261231
000620 a0 d9 69 18 85 6f cb 3f 88 4c b9 51 e7 b1 eb 3f
       0.21434081737579636 0.8654667469185293
000630 1d ab 42 22 c9 d8 e7 3f 40 cd 7e 9e 2a 57 e0 3f
       0.7452130955838104 0.5106404395686823
000640 36 52 47 23 d8 e3 f0 3f 40 4a 78 a7 d4 36 c1 3f
       1.0556260469503633 0.13448579957237605
000650 b5 2e 29 3c 19 73 e4 3f e8 96 d8 a6 db 10 bc 3f
       0.6390501189248058 0.10963223288907964
000660 f9 80 70 df c2 da d8 3f 9b cf 0d be 06 88 e3 3f
       0.3883521253610663 0.6103547775260155
000670 d5 ee b2 72 95 4a c2 3f 51 38 46 ac 43 c1 cb 3f
       0.14290111637625694 0.21683545982199573
000680 bc e6 c2 4c e4 15 c9 3f f4 fd 12 25 2a 4c e1 3f
       0.19598058460342382 0.5405474399667001
000690 e0 a2 a3 ca e7 a9 90 3f 39 f4 3a 35 9e 95 ec 3f
       0.01627313780128048 0.8932639159826358
0006a0 71 f2 f8 43 94 75 b6 3f 36 62 1a 02 a0 9f ae 3f
       0.0877316156338084 0.059811592346879314
0006b0 18 e0 19 8f 65 25 e6 3f 06 0f b3 01 94 31 e0 3f
       0.6920650286620029 0.5060520203773826
0006c0 f8 00 e6 8a ae 99 e0 3f a0 e6 b7 bd fc 7e ea 3f
       0.5187599861965557 0.8280013757168554
0006d0 1f a5 92 ca 2f ae df 3f 0d d7 a0 14 4c 8d eb 3f
       0.49500651152136926 0.8609981921096918
0006e0 d5 88 ad 31 45 4c e0 3f 54 ab e4 c4 86 f7 dc 3f
       0.509310338046158 0.4526078150544681
0006f0 0a 79 65 ba 0f 0f e3 3f b9 22 a3 45 67 36 e7 3f
       0.5955885544351827 0.7253910408117782
000700 b5 65 a1 11 0e 95 cb bf db ce 74 0a 0f 0f b3 3f
       -0.21548629628050056 0.07444852834015185
000710 49 ce 9b 0e 3a f5 cf 3f 34 db 61 15 30 bc e4 3f
       0.24967122758208607 0.6479721467611399
000720 19 c9 0c 41 15 25 ee 3f cb 9f d2 d6 46 69 ba 3f
       0.942026736307784 0.1031688951940161
000730 48 86 e2 fb 8f 3b dc 3f 3e 28 8f 94 51 88 d2 3f
       0.4411354026616192 0.2895702315114511
000740 c9 a9 c9 79 a8 07 ef 3f 68 04 8a e2 f5 60 d5 3f
       0.9696848276774342 0.33404299853288544
000750 5a 9a ca 49 05 81 d9 3f 6d 60 ac af 6b 0f 87 3f
       0.39849979597275864 0.011259881304383346
000760 05 fd a6 25 8f 6b 93 bf 6e 12 8f 6e 02 12 df 3f
       -0.018964993165124806 0.4854742126156343
000770 d0 17 f6 d6 b1 1c ed 3f 02 fe 57 2e 9f 58 ef 3f
       0.9097527693236263 0.9795680909300588
000780 df 2c b2 f8 6e 66 e2 3f ee 0d 27 ee 99 6e e2 3f
       0.5750040871947951 0.5760011340539088
000790 b4 0d 3d ff 91 c3 da 3f b8 da bd e9 b7 d9 d4 3f
       0.4181866638720877 0.32578847719507165
0007a0 0f c7 76 9f 68 9a e1 3f 8c f0 71 5a 66 46 ed 3f
       0.5500987162142524 0.9148437277322201
0007b0 3d ce 05 7f b0 85 c8 3f 36 82 71 a0 cb 7c cb 3f
       0.19157987787512978 0.21474595388555578
0007c0 4d fa 46 0e 45 e3 ed 3f ad be 1d f8 13 63 cb 3f
       0.9339928892948791 0.21396112074898124
0007d0 b8 ab 1f 4b 42 7c e9 3f b1 8b 70 28 0b e9 b8 3f
       0.7964183299312628 0.09730596291824047
0007e0 e8 0e df 7c 20 d8 d1 3f 33 0b 49 13 51 b3 c4 3f
       0.2788163394400116 0.16172231141725887
0007f0 d4 97 5f 6e cf 15 dd 3f 55 fa b8 b0 2f 30 b3 bf
       0.4544561937203728 -0.07495401443973411

L f8 [40, 40]
000000 d2 bd 01 c4 76 39 b7 3f 04 9f ec 41 6b 4a d2 3f
       0.09072057996103602 0.28579217374725396
000010 67 d7 bb 30 ec e2 d1 3f c4 7a 93 17 6e 73 e6 3f
       0.27947525748401464 0.7015905819387958
000020 aa fd 67 48 80 d3 da 3f 82 19 f1 8e 85 be e1 3f
       0.419159002980417 0.554507044966883
000030 3d 1c f5 cb 9d 4d e0 3f 58 0e 92 46 63 73 de 3f
       0.5094746573967154 0.47579271213201
000040 bd b3 f0 8e ee b8 ef 3f 8c 3c 00 be ee 9e e3 3f
       0.9913246909906018 0.6131509505229515
000050 5a f2 9f 61 ca 00 b8 3f a3 b0 37 be cd 5f e2 3f
       0.09376206286828773 0.574194785612708
000060 63 60 97 ee a5 e5 ea 3f 18 9b fb 8c b2 0c cf 3f
       0.8405332241045581 0.2425749958412886
000070 ac 1a ac 87 ab e5 d9 3f 15 bd 00 df d8 ac e0 3f
       0.4046429467129353 0.5210995059514142
000080 ca 8a c6 d1 ef 7d ed 3f 5f e0 d1 9d 9c c5 ec 3f
       0.921623143880731 0.8991225321215203
000090 02 23 8a 2d 7c ca ca 3f 63 9f 8e c6 21 d3 de 3f
       0.2093043539391815 0.48163647070258814
0000a0 d8 bd a6 40 d7 7b e9 3f e1 bf 6e 9b a0 f8 d0 3f
       0.7963672888490079 0.26517501048055975
0000b0 6d fe 6a 62 23 a4 e7 3f ef d1 76 6e f7 ac bd 3f
       0.7387864038682445 0.11592050978544653
0000c0 2d 1f a0 a0 87 f8 d0 3f 70 3f 59 79 d0 b4 de 3f
       0.2651690548523103 0.47978603220416627
0000d0 9b 96 cd d9 1b 40 e1 3f 10 15 97 eb 80 56 d3 3f
       0.5390757802931206 0.30215476042606415
0000e0 5a 3d 29 2b ca b8 a2 3f a9 43 c9 6f 35 4e e5 3f
       0.03656608368748478 0.6657969649623868
0000f0 56 52 fb 4a 59 4c ec 3f 03 06 c3 8c e5 b5 d0 3f
       0.8843199219214266 0.261102092230516
000100 07 4d 91 49 ce 0e e9 3f 9d 5e f1 87 65 cf da 3f
       0.7830573498598888 0.41890848422688426
000110 5e 0b 0d a6 9c c5 e9 3f 4d 9d 6a 09 7c c7 ed 3f
       0.805372547453185 0.9306011375346458
000120 c4 75 7f 43 8c f7 e9 3f 52 77 8a aa aa 2d a7 bf
       0.8114682501142672 -0.04527028400228396
000130 6e 6b 70 a5 3b 55 d5 3f b7 ad 36 2a 52 dc ca 3f
       0.3333272090546221 0.20984866200647698
000140 07 cf f0 63 a8 7a e0 3f 52 7f 41 36 54 5c d0 3f
       0.5149728729215618 0.2556353120653415
000150 47 a5 1a 7c 46 d9 e5 3f e6 7b d6 b2 4b 26 d7 3f
       0.6827728675754451 0.36171238388663907
000160 48 30 77 1a 66 94 e2 3f 2a 82 f8 54 d9 50 a8 3f
       0.5806150929361218 0.047491828558353724
000170 ea 6e d1 67 7c dd b3 3f 9c f9 9b 46 33 0b e0 3f
       0.07759835753079938 0.5013672236525966
000180 c5 d7 64 92 20 c6 e7 3f 00 48 9e 84 df 49 ea 3f
       0.7429354533439826 0.8215177145195867
000190 ff e1 ba 9c 20 26 e8 3f 91 e0 19 91 dc 3e e8 3f
       0.7546542225964571 0.7576735338216328
0001a0 70 0a 08 6e 3e ee ec 3f 3d 64 b8 51 2c 6f d4 3f
       0.9040825032282793 0.3192854688691716
0001b0 59 0d 03 ca 92 5b 7c bf 19 42 be 25 15 c8 da 3f
       -0.006923268694836914 0.41846207319125167
0001c0 17 42 51 f6 14 0b ee 3f f8 bd 29 d6 a4 a3 c7 3f
       0.9388527689826017 0.1846815152853052
0001d0 f1 19 79 85 db e6 e6 3f f6 44 21 14 6a 7d dc 3f
       0.7156808478255795 0.44515468564811955
0001e0 0e 95 fc e7 de 9f e4 3f 4f 3a 48 f9 81 b3 ba bf
       0.6445154696454283 -0.10430157028188457
0001f0 a1 21 1b 91 de 76 df 3f 2e 93 61 ac f8 1a e6 3f
       0.4916302125025372 0.690792404825151
000200 5f 10 e4 c9 ba ef e4 3f af 6c 67 ce e0 5e da 3f
       0.6542638724499844 0.4120409026779254
000210 0a 7b 3b 60 46 be d6 3f 39 d2 4b 3a a8 26 ec 3f
       0.3553634586113935 0.8797188891026685
000220 91 37 36 02 b4 11 e1 3f e7 16 45 90 7c d3 e4 3f
       0.5334110301207479 0.6508162324687107
000230 1a c2 30 9c 24 e0 e4 3f ec 5c 91 2d d0 31 f0 3f
       0.6523612070651013 1.0121614246361856
000240 e5 1f 2f 26 5f 6d d4 3f 3b da 63 93 2f 82 bc 3f
       0.31917551735796074 0.11136147831334935
000250 6d 32 83 84 48 45 db 3f 5a 52 df da ca 19 d1 3f
       0.426103715330817 0.26719924329998934
000260 96 05 da 60 f4 ae ab 3f 9b 60 90 5a e5 c1 c4 3f
       0.05406917269011584 0.16216723367756888
000270 b6 6b 9c 4e 0e 8b e6 3f 3a 3d a3 46 38 7a e2 3f
       0.7044745955821472 0.5774194125787411
000280 27 e8 0a f3 ae f2 b0 3f 8a ed 31 07 e5 02 e7 3f
       0.06620305474908204 0.7191033497360177
000290 f7 ec 20 a0 9f f8 ce 3f fe 87 35 fa 7b 08 df 3f
       0.24196238821773594 0.4848928397606186
0002a0 ce bc d8 bc c5 f5 b7 3f 6c fe 6e b5 97 e1 e3 3f
       0.09359393940461588 0.6212881606697471
0002b0 0d 14 72 0d ca 63 e9 3f 9e a3 c6 7e 4a 66 e2 3f
       0.793431307087873 0.5749866939632857
0002c0 39 92 28 ca 51 85 d0 3f 65 a1 fc 4f 13 66 c7 3f
       0.2581371759609144 0.18280259519202527
0002d0 d6 5a a1 9c 08 db e6 3f cb 17 f7 f3 37 a8 9f bf
       0.7142375048814198 -0.030915140405134694
0002e0 6b 9c 9e 6e 04 a7 d9 3f df 59 51 ad de 2c e5 3f
       0.4008189277905731 0.6617272744286388
0002f0 64 ce 70 70 b1 a6 eb 3f 74 5a 9a 30 f8 a6 b6 3f
       0.8640982814890319 0.08848525225253373
000300 82 17 4e 97 f2 fe ac bf 18 35 4f 3a f5 3f e6 3f
       -0.05663259598718097 0.6953073634009881
000310 ac 99 d2 5c 9d c8 d0 3f 26 ee a6 47 51 b4 d5 3f
       0.26224454941475517 0.3391307067610988
000320 5f 89 1b 31 7f 96 ce 3f 98 6f da 5e 50 86 ec 3f
       0.23896779916601482 0.8913957455256307
000330 ca 1b 2b a2 8d 84 e2 3f 6e cc 12 37 59 06 d0 3f
       0.5786808173514768 0.2503874814821704
000340 d4 1d 50 5a b9 5e db 3f 02 4e 4a 21 87 87 e0 3f
       0.4276564962351277 0.5165439272117853
000350 d1 f6 00 87 a0 79 c4 3f c0 6e 20 47 fb 28 d8 3f
       0.15996176330548065 0.37750131555524646
000360 31 13 68 c1 6d 88 d5 3f e5 b8 b7 f9 fa ff e2 3f
       0.3364519489990015 0.5937476041124482
000370 dc 51 6d 2f 4a ee b7 3f 33 f1 91 37 ed 6c d6 3f
       0.09347976358305438 0.35039835383192325
000380 68 e2 b9 99 5f a8 a0 3f bb 2e d2 6c a7 f5 e3 3f
       0.03253458739795151 0.6237370610628753
000390 de f9 c4 a4 9c ef de 3f 01 3e 81 89 e3 41 e1 3f
       0.48337474909558675 0.5392930684701583
0003a0 65 6d d9 40 8b 53 c8 3f 6c ad ea 98 98 d3 e5 3f
       0.19004955927344294 0.6820796000151126
0003b0 a8 e2 2b a1 ec 40 d0 3f 69 6b d4 03 47 91 e6 3f
       0.25396266688725655 0.7052340578842237
0003c0 68 bb 68 7c 64 43 b0 3f 19 37 5f 66 b7 f4 e1 3f
       0.0635283282979181 0.5611226081325383
0003d0 f8 d2 61 63 64 5f a1 bf a8 84 78 0f 5a e3 e7 3f
       -0.03393090928230963 0.7465029050983008
0003e0 50 fb 44 c3 a3 22 c1 3f 18 88 b0 df 3a 65 e1 3f
       0.13386961969987476 0.5436071747719806
0003f0 29 20 0b 43 46 79 d8 3f 03 65 c0 14 94 a1 d6 3f
       0.3824020056458744 0.3536119654323359
000400 45 16 54 64 8d 94 d9 3f d7 cd c3 d8 e2 00 ea 3f
       0.39969191358281747 0.8126081689537682
000410 57 37 0a 3e 58 0d e4 3f 76 79 33 05 9b b8 ea 3f
       0.6266289912907536 0.8350348569472732
000420 f3 b1 19 9a d1 db f1 3f 7d 75 bc bb c2 28 e8 3f
       1.116166688875748 0.7549756685945536
000430 87 cf 54 d2 b0 1f dd 3f e7 7a 7a c7 02 e2 ed 3f
       0.4550592473999519 0.933839215856861
000440 87 ef e4 12 4f d4 d6 3f 6f 9f ac 22 ce 58 d5 3f
       0.3567083057894184 0.3335452402702605
000450 14 9b b7 79 d9 6f e2 3f 98 de 9c 67 86 c6 de 3f
       0.576153505066801 0.48086700552401274
000460 d3 66 de 8d 77 3f dc 3f 0e 7d c8 35 94 7e f0 3f
       0.4413737187802386 1.0309030629067055
000470 50 d3 e4 08 c6 99 ee 3f 8d 97 e3 78 73 c4 d7 3f
       0.9562711881359096 0.3713654213482805
000480 55 d1 35 c5 29 6a bd 3f 0c 51 66 72 39 e7 e4 3f
       0.1149011713476445 0.6532256349915158
000490 eb 5f fd 4b 39 ea c2 3f f6 27 0b 70 93 6e e7 3f
       0.1477729435962368 0.7322480381346839
0004a0 08 cb 9e 62 d7 ba e0 3f 0f 7b 85 69 93 b0 ee 3f
       0.5228077818086101 0.9590546666111964
0004b0 7b a3 85 e2 2c 41 ec 3f 71 7e a8 1e ea a2 dc 3f
       0.8829559730776134 0.4474435138126643
0004c0 16 e7 02 c0 d9 d2 d6 3f 65 3a dc 81 75 75 e9 3f
       0.35661929846865925 0.7955882583936044
0004d0 39 d3 3f f0 c0 9d da 3f f5 6a 1b a7 8b 7c eb 3f
       0.4158785196480497 0.8589533103762209
0004e0 df e1 63 9f f4 c7 e1 3f ee e8 84 95 50 1d e0 3f
       0.5556586373414197 0.5035784645363302
0004f0 54 70 7a 92 95 b5 e6 3f f1 96 a0 37 fa e9 e1 3f
       0.7096660481361234 0.5598116957159772
000500 e2 e4 7f fb ef c9 c2 3f 4f f4 75 80 14 a2 ac bf
       0.14678764133694872 -0.05592407291531087
000510 fd 9c 40 03 12 ea ce 3f 26 3d d5 59 5c 11 bf 3f
       0.24151826056297657 0.12135865395724874
000520 0a 9d 50 bf 19 17 ea 3f 3d 38 11 53 e9 5c cc 3f
       0.8153198944682185 0.2215854316331746
000530 7c ad d6 2f 89 48 df 3f fb 2e 02 01 4e 1d d6 3f
       0.48880223914849075 0.3455386171196861
000540 35 21 80 bc 9e 35 8a bf cb d9 36 61 14 df ea 3f
       -0.012797584655360164 0.8397313975063353
000550 a9 a9 1a 35 d7 7b ea 3f 7f 3c 8e a3 58 9d d4 3f
       0.8276172673407035 0.3221036526892433
000560 35 16 3e ec 2e cc ea 3f 97 c5 fa b7 45 b8 e2 3f
       0.8374247182952731 0.5849941819525836
000570 08 e0 4d c4 aa 39 d2 3f 16 b7 a3 91 02 57 e4 3f
       0.28476971788722993 0.6356213421365478
000580 c0 87 b8 17 60 dc e4 3f 28 d5 28 38 a8 51 e6 3f
       0.6519012893006604 0.697467908560303
000590 6a d0 73 2f 8b 76 e0 3f 74 ec 50 ac 36 c8 b6 3f
       0.5144706656269709 0.0889925165837882
0005a0 dd 91 76 5d cd 0c e8 3f 4b 4b 8a 33 0d a0 c4 3f
       0.7515627694561392 0.16113438622104534
0005b0 58 9d 8d 14 5c b4 f1 3f 75 01 cf 1c 8a 34 e1 3f
       1.1065331271036793 0.5376635134380608
0005c0 dc 45 9b 76 92 1e e0 3f c2 70 4a a7 16 f8 e6 3f
       0.5037319485219842 0.717784239520846
0005d0 a5 6b c7 30 7d bf b4 3f 80 bb 31 b1 96 94 be 3f
       0.0810468906487772 0.11945478273422161
0005e0 1a 9e ae a2 84 81 e6 3f 3f d1 c9 60 60 23 cf 3f
       0.7033103158364071 0.2432671043967591
0005f0 5b 9f 82 b9 4b d2 ec 3f b8 a8 54 0b c4 8f ef 3f
       0.9006708739516215 0.9862995358755802
000600 48 54 d4 2d 51 48 a7 3f 90 b3 d6 e3 aa 95 d5 3f
       0.04547361072960904 0.3372599816310009
000610 c8 55 2d 71 a9 43 e4 3f 3b e7 32 fa ca 78 dd 3f
       0.6332595072259943 0.4604976123188071
000620 f8 11 39 b5 85 43 dd 3f 3f 64 53 2c eb 9e df 3f
       0.45724623391677666 0.494074624335159
000630 88 ae 80 00 33 cd ea 3f 66 95 87 32 bb 74 ed 3f
       0.8375487336938514 0.9204994189173419
000640 41 ed 5f 1e 5a cb dd 3f c8 24 5e d7 4b d1 e7 3f
       0.46553662267952595 0.7442988592530577
000650 ad c7 67 fd ca f0 de 3f c8 ab 6b 91 21 cc eb 3f
       0.4834468340551393 0.8686683502431771
000660 ef c0 f7 d0 02 fb ef 3f d8 27 82 25 5c ba ed 3f
       0.9993909913446525 0.9289990170084321
000670 5f 66 ca 22 d8 b1 e2 3f 3c 1c c2 13 50 78 b5 3f
       0.58420950694126 0.08386707765940654
000680 41 9c 20 3f cc bd a2 3f 10 c4 c2 d1 7b 1a e8 3f
       0.03660429258916809 0.7532328698054034
000690 1b 0a ce 24 87 cd ed 3f 42 c5 3a d8 75 b1 cc 3f
       0.9313388556332173 0.2241656595047435
0006a0 a2 ff 22 7f c4 e8 ee 3f 1b ad 03 8e 17 13 a5 bf
       0.9659140093935898 -0.041161285482156106
0006b0 77 55 ad 83 cd 93 e7 3f dc 52 50 58 09 77 cb 3f
       0.7367923328226159 0.21457020580478214
0006c0 d0 fa 7e 8b 29 a3 db 3f 0e 1c 36 42 44 e9 ea 3f
       0.4318336355462806 0.8409749310675367
0006d0 20 91 bf 2e c6 3b d7 3f c3 1e b5 fd e4 90 ef 3f
       0.36302332463516684 0.9864373164391157
0006e0 b7 17 94 d0 58 2d c9 3f 33 67 9b bd 2b 1a f1 3f
       0.19669637856003216 1.068889370586885
0006f0 60 dc d3 80 29 82 e4 3f 2b 90 4a 36 78 9e e0 3f
       0.6408889309085559 0.5193444309593408
000700 e2 93 2e f4 f7 aa b7 bf 67 c0 6c d7 9d 24 dd 3f
       -0.09245252334092371 0.4553598979719084
000710 2f eb b2 03 a6 1b e2 3f bb 9b b9 f8 be 07 e6 3f
       0.5658750602955019 0.6884455545340339
000720 10 3b 20 9b c7 16 da 3f e2 e7 a1 2b 45 53 e0 3f
       0.4076403632069949 0.5101648189731771
000730 0a f8 48 df 74 b2 c4 3f 6d c6 d5 0e 3f 0c ca 3f
       0.16169606115903462 0.20349872803085436
000740 9e 80 8b 58 3d 2c e9 3f 90 b4 2a 05 e9 27 f2 3f
       0.7866503457444372 1.1347437097386184
000750 b3 d1 fd 94 c0 13 e5 3f df 6c cc 4d a6 07 f4 3f
       0.6586611661901344 1.2518675841336557
000760 ee 9a c1 16 ec dc ee 3f 4a 66 f4 9d 47 98 ec 3f
       0.9644680447061924 0.8935888371517617
000770 97 dd d5 20 ab ce dc 3f 34 22 9d 53 5b ec e6 3f
       0.4501140423448872 0.7163521416742413
000780 7c de 79 36 c0 f7 c7 3f fa de 0b 48 df 85 ea 3f
       0.18724825534785683 0.828841820445603
000790 b4 4e ca 99 74 8f d4 bf 75 a8 f1 2e d0 7c e0 3f
       -0.32125582712726986 0.5152359883188767
0007a0 84 64 cb d4 43 20 f4 3f 08 c9 b4 4b 6e 28 9f 3f
       1.257877188900495 0.030427668925036705
0007b0 ce 5b db a8 d6 99 e1 3f c0 53 d0 94 f4 e1 e4 3f
       0.5500291154847845 0.6525824457663632
0007c0 9a 8b f8 78 c0 08 b2 bf 56 6e ec c1 0c 3c ec 3f
       -0.07044604257002476 0.8823303020066742
0007d0 cb a1 c2 ef 85 2d e9 3f ab 51 88 d1 d6 b5 ee 3f
       0.7868070299928659 0.959697159999043
0007e0 c8 4c 37 20 72 dc e6 3f e9 18 8a fc d0 28 ec 3f
       0.7144098881930399 0.879982465020274
0007f0 34 c7 ab 9f bb eb be bf 21 d2 fb 49 7e 88 e6 3f
       -0.12078449867456414 0.7041617817872671

weight f8 [50, 4]
000000 ac 70 bb dc f9 a9 b9 bf 32 3a 44 0e 2c 78 b7 bf
       -0.10024987830132898 -0.09167743061355152
000010 ea a1 06 44 e4 4e c2 bf d8 ec e5 1a a8 cf df 3f
       -0.14303258248879952 0.4970493567158889
000020 c5 07 35 70 81 06 c7 bf ba 10 cd 05 32 25 dd bf
       -0.17988603571762787 -0.4553952271128413
000030 14 6f 56 50 a3 da d0 3f 28 9a c1 a2 1c 97 d6 bf
       0.2633446011111442 -0.35297313589254253
000040 87 8d fb a6 23 44 cc 3f 4f 9e aa 64 2f 01 a2 bf
       0.22082944539497992 -0.03516529182280392
000050 7f b3 57 c8 be 4e b4 bf f7 fe 98 31 d9 fc c0 bf
       -0.07932655707527479 -0.13271632119903362
000060 96 e7 64 9f b9 28 d9 3f 81 d2 45 07 d4 90 b2 3f
       0.39311066213451207 0.07252240350300988
000070 a5 49 bb 72 46 48 c1 bf e7 b4 12 d9 9f 77 b4 3f
       -0.1350181637013296 0.07995032357822006
000080 bf 73 3d ea 2e 3b ca 3f b7 93 99 97 ed a8 bc 3f
       0.20493112981321635 0.11195263816041644
000090 1f 30 60 31 e8 5f 9f bf d7 a7 cf 4a 4a d7 c2 bf
       -0.030639293683677345 -0.1471951356209604
0000a0 57 29 b3 dd df 9f b7 3f 4f fb 64 45 16 16 a0 3f
       0.09228324091524108 0.031418510409358384
0000b0 bf ea 6a 6f c7 f0 cd bf 3f e2 0a 79 a3 70 ce bf
       -0.23391049328150434 -0.23781245622901
0000c0 ce da 11 30 00 2f b2 3f cc d0 ec ee c5 34 d2 bf
       0.07102967427804716 -0.28447101910138595
0000d0 f8 db ca 3c 59 bb d6 bf 16 a7 2a d8 0a ee ab bf
       -0.3551848500896422 -0.054550494086767085
0000e0 18 88 1f e5 46 a5 c9 3f 83 6c ee b3 58 eb d1 bf
       0.20035635173468402 -0.2799894101278328
0000f0 d5 a5 60 3f a7 fc cf 3f bd dc 49 7e 08 a7 e3 bf
       0.24989786715131737 -0.6141397921154731
000100 6b 44 85 0a c3 9f bc 3f af e3 f6 bd 3a 63 92 bf
       0.111812772816181 -0.01795665535403018
000110 60 c5 a1 53 40 c7 e0 bf 74 d1 a1 ff 9c 66 8f bf
       -0.5243226655422113 -0.015332438040993358
000120 d9 0b 3a b7 82 e4 d4 3f 7f ca 8c 70 7b 2f 7e bf
       0.3264471806834855 -0.007369501291395352
000130 29 bb 65 7b 94 a2 dc 3f ef 77 5a 41 21 4d da bf
       0.4474230961849793 -0.41095763570945015
000140 ed 8c 00 12 6b 46 d4 3f 11 03 3c ad dd 84 d5 3f
       0.3167979884912729 0.33623449246810916
000150 e9 71 25 a8 c5 6c df bf 2f bb 5e 68 13 ce bd 3f
       -0.4910139219334995 0.11642571733567018
000160 67 24 b8 35 f7 f6 d1 bf 9d 9a e6 48 3f 5a d1 3f
       -0.28069858785653995 0.2711332523271411
000170 23 77 c1 68 09 7e c1 bf 2b b0 35 09 d9 f0 c7 bf
       -0.1366588365080413 -0.1870375914544423
000180 ce 5b 56 bc 96 89 b6 bf 06 26 fb 32 20 fa d6 bf
       -0.08803693864898252 -0.359016465936833
000190 f3 9c cc d9 b8 01 d1 3f d2 37 bb 7c cd a8 bb bf
       0.26573010701618144 -0.10804447455595259
0001a0 ef f0 b5 b4 28 0c c4 3f 5c e1 bf 10 fa b5 b5 3f
       0.15662106345906276 0.08480799588131077
0001b0 95 45 b3 0a b8 37 b4 bf da 74 86 cd 04 fb b7 bf
       -0.07897520314442937 -0.09367399232583598
0001c0 d7 ea 4f 56 e0 3d d0 3f 77 e2 74 37 0b fe db 3f
       0.25377663067744777 0.4373806039398355
0001d0 36 13 94 aa 3e 7e 5b bf d3 7b 42 fe 0d 84 cc bf
       -0.0016780483222770932 -0.22277998843216426
0001e0 5a 1e ef 1e 31 08 da bf 81 d9 32 04 32 9d c0 3f
       -0.40674999256996147 0.12979722218524262
0001f0 a3 80 bc 09 1e da d5 3f da 19 e6 ea 17 39 d0 3f
       0.34143782568754427 0.2534847063001543
000200 21 02 2c 8a 98 81 c3 3f 62 17 69 df a0 2b e2 bf
       0.15239245173144503 -0.5678257335173209
000210 62 a1 4b a4 e1 3b c7 bf 77 d6 9e fc 74 62 c0 3f
       -0.18151493570554594 0.12800466856940648
000220 61 cd 94 5c f3 01 d0 bf bd e2 71 6b 2f 3e ce 3f
       -0.250119057093988 0.2362727427132735
000230 40 81 4c 61 c4 84 d5 3f ba 13 79 be 37 f7 c5 bf
       0.3362284612831168 -0.17160698700368276
000240 e4 ba f9 af c9 69 db bf ec 82 ac 6e 97 3b dc bf
       -0.42833177743061257 -0.4411371784972704
000250 23 10 1b 00 0f 96 9f bf 21 82 4f cf d2 d8 ca bf
       -0.03084586561341508 -0.20974192736231692
000260 89 99 33 86 4e e1 da bf 9b 9c 18 12 1c 9b cf 3f
       -0.4200016317903637 0.2469210708961541
000270 43 18 ea cb b8 ce da 3f 19 71 08 e4 bf 68 cd 3f
       0.41886730111616916 0.22975920328543323
000280 70 c4 9d 28 72 60 da 3f bf 1c 0a b8 e1 3d e0 bf
       0.4121365925448748 -0.5075539202233798
000290 33 cb 4c bb 2d ac a3 3f 79 fe 6e c7 87 06 d4 3f
       0.03842299376846938 0.312898583182665
0002a0 83 27 5d 1d 8a 77 d8 bf 2a 9c a4 18 15 05 c2 bf
       -0.3822961127049142 -0.14078010276100034
0002b0 4c 2a b7 3d ca a7 df 3f df a6 8b a6 18 48 b4 bf
       0.49461608912375676 -0.07922510210087406
0002c0 8f 97 b5 a6 15 98 a3 bf 43 7a 9a dd e5 c4 d0 3f
       -0.03826968822504206 0.2620176948638894
0002d0 ff 77 39 d2 a5 2c 8c bf 5f 8a 6e 53 28 e0 b3 3f
       -0.013757033803980077 0.07763912236127045
0002e0 5f 5c 97 df 1f 04 94 3f c5 a5 aa d0 22 38 d3 bf
       0.01954698373978336 -0.3003012693175971
0002f0 8d 0a 72 42 ab 79 d3 bf cb 68 cb fa f6 e8 c4 bf
       -0.3043010853654458 -0.16335952039555077
000300 fd 83 3b c8 1b 39 cd bf 8d d3 aa d2 30 46 db 3f
       -0.22830531384445854 0.42615910122850026
000310 c8 c1 d1 34 31 56 b2 bf 88 cf 49 4b 5f 09 dc bf
       -0.0716276887849353 -0.4380720362889794
000320 d1 f2 20 66 df 62 9d bf 6b 30 bb f6 45 8f c2 bf
       -0.028697481735650513 -0.14499735400602573
000330 95 37 e9 1c 1f 5c d0 bf a6 ab 3f e4 f5 3a d9 bf
       -0.25562265227642317 -0.39422366418755883
000340 5b 32 f4 bf 1d 0e d0 bf 53 e1 1b 34 cc 78 d2 bf
       -0.2508615850972881 -0.2886229046703381
000350 2e 9d 58 b1 6e 3c b6 3f 92 c2 03 61 3b 75 e0 3f
       0.08685962514629317 0.5143105406587714
000360 7b cd 67 5a 1b b8 a5 bf 5d a8 da be 60 72 c7 3f
       -0.042420248781037416 0.18317803687142745
000370 78 d1 e9 30 4f ee c5 bf 90 75 b4 9b 69 6c de 3f
       -0.1713351239046792 0.4753669758373116
000380 a3 52 ce 88 0f 93 db 3f b7 61 45 20 10 0e df bf
       0.43085087165790464 -0.48523333693949716
000390 12 7e 86 e1 fe b7 cb bf 6f da f9 31 d6 39 c4 3f
       -0.2165526009748509 0.15801503601297237
0003a0 43 c1 01 51 e1 9a d2 bf 56 18 7c d4 22 65 c2 bf
       -0.2907031336863108 -0.14371142745239024
0003b0 e7 74 e2 72 a2 f5 9b 3f 9f 81 f9 ed 63 d6 d3 bf
       0.027304209005355153 -0.30996034850798
0003c0 eb 6e 96 5b 6f 8d cb bf 85 f8 ac 52 a5 da d0 bf
       -0.2152537533955788 -0.2633450801257669
0003d0 bd 22 7a a0 1e d5 cb 3f 02 5b 31 43 3c 7c dc bf
       0.21744139514728103 -0.44508272706791285
0003e0 b5 ab e4 f7 40 12 d3 bf 41 eb f7 9c 3e 72 d5 bf
       -0.2979891224701377 -0.33509793595264986
0003f0 67 37 09 53 57 20 b9 3f ff c6 cf 86 c8 e1 9b 3f
       0.09814973618742116 0.027228482464074052
000400 93 d9 4d 3b 6c 6b c5 3f 6f c8 f3 b8 a6 60 af 3f
       0.16734078307827058 0.06128426559179522
000410 c7 f3 5a 06 89 cd c9 3f ad 03 df 2c 5c d9 dd bf
       0.20158493814770237 -0.46639160520504214
000420 c2 8b 81 93 b6 6f d7 bf f6 10 16 24 5f 31 c1 bf
       -0.3661934319008503 -0.13431920301457695
000430 b2 27 5b de 0d 5c bb 3f 4a 9f 59 08 ec dc cd 3f
       0.10687338522544002 0.23330450446814616
000440 e7 8f 5e e3 f6 13 bd bf df 72 7b b2 93 f1 c3 bf
       -0.1135858826733621 -0.15580984320595
000450 df 02 52 d0 0a 43 a1 3f d9 82 30 22 d9 98 d4 bf
       0.03371461670849895 -0.321829112423115
000460 f7 09 6d 92 16 b0 ce 3f 13 63 cd 15 ab df c7 3f
       0.2397487845392587 0.186513314862872
000470 71 5b fa 7e 35 0f d7 bf e3 15 45 e8 c8 69 cd bf
       -0.36030328178588095 -0.2297907957201196
000480 11 05 46 26 4f b4 de 3f fb 51 45 9f 3a f9 d9 bf
       0.4797551988377374 -0.4058367305163128
000490 df 33 4a ab f2 0a b3 3f 8f 92 f3 87 c0 5f c6 3f
       0.0743858020961876 0.17479712141279832
0004a0 9f 7d ee d9 93 b5 c8 bf 55 0e 7b 15 19 18 db 3f
       -0.19304130688850038 0.42334582421992667
0004b0 c4 8d 2b 24 eb 16 d2 bf c2 f1 38 92 b3 98 d6 3f
       -0.28264883548964925 0.35307015685591747
0004c0 eb 4f 79 a4 fd 43 d0 3f 97 4b 15 49 39 cf de bf
       0.25414982854749607 -0.4813979352667785
0004d0 ef 64 bc 5a c9 81 dd bf 1f 37 12 27 90 6e da bf
       -0.4610465417950555 -0.41299823585073797
0004e0 0c 9e b4 95 22 ed e0 bf 24 1e 16 cf 91 15 d0 bf
       -0.5289471553741705 -0.25131650183945653
0004f0 e0 66 43 5a 11 df e0 3f f7 4e 02 13 96 f7 d9 bf
       0.5272299540476659 -0.40573646408414227
000500 56 e3 64 18 92 67 cd bf 38 86 1d b2 98 17 d3 3f
       -0.22972322646253457 0.29831521410060047
000510 9b dc 08 e8 f9 fc d6 3f 6b dc 23 fe 41 71 e0 bf
       0.3591904417002724 -0.5138254131005743
000520 1e 87 87 0b 34 d4 c0 3f cb 37 53 88 1c 77 a8 3f
       0.13147593081435444 0.04778374828457251
000530 ec c5 ee 32 83 00 e3 3f e8 e9 16 a7 c8 a2 b9 3f
       0.5938125605372853 0.10014013366063745
000540 62 88 b3 15 b6 20 a7 bf 27 3c 29 e2 05 02 ce 3f
       -0.04517144217403836 0.23443673651715466
000550 8e 36 1a fd 85 ab d0 3f 6c 6f ea 88 ce a7 9a 3f
       0.2604689571097446 0.026030757052111594
000560 7f ae 8d d4 7f 66 83 bf 8a b8 c4 51 73 89 b8 3f
       -0.009472845720402077 0.09584732767391038
000570 38 b1 85 5f 09 98 c5 3f 43 0f 7d 3a c4 c0 b1 3f
       0.16870228923961306 0.06934763362829437
000580 49 67 34 c1 8c 8d ac 3f c9 1c a5 0f 6f af e0 3f
       0.055767439446027973 0.5214152627530889
000590 f1 c5 b5 d7 19 4c bc 3f 6b ca b5 58 38 6b d0 bf
       0.11053620830877954 -0.25654419577691695
0005a0 d1 c8 f3 1c 9f a4 d2 3f bf 43 ca ed 8c f0 ac 3f
       0.29129770114299186 0.056522754695044856
0005b0 7f 10 02 21 36 13 85 bf db 65 7f 87 af 42 c3 3f
       -0.010290549166036776 0.15047258487793055
0005c0 92 c8 10 98 2d 50 d7 3f 67 b5 61 5a 88 65 e0 3f
       0.36426868295814885 0.5123941197650027
0005d0 1a b5 58 f1 b6 05 dd 3f 0f 42 ec e7 ad 66 d3 3f
       0.4534737927341027 0.30314204834670105
0005e0 5e 03 d6 b3 d6 b5 d0 bf fd 78 0b c9 fd 51 cc bf
       -0.2610985523424939 -0.22125217739716865
0005f0 65 3d 32 21 75 43 d9 bf 6c 9e 30 5f 5c 6d d1 bf
       -0.39474228135892125 -0.2722998551930462
000600 e3 48 51 22 6f ad d8 3f d9 45 ea 80 d6 7e e0 3f
       0.3855855784542099 0.5154831426499938
000610 ed e5 52 49 80 e4 d3 3f 22 1f c4 d6 74 68 c4 bf
       0.31082160149125465 -0.1594377564108465
000620 6f ac 35 56 a8 6f b6 bf 4a 11 8a 1f d5 ea a2 bf
       -0.08764125923851095 -0.0369478798866419
000630 fb b4 9b b1 ac ef c5 bf a5 4f 38 ae 75 82 d7 bf
       -0.1713767878749549 -0.3673376275412415

bias f8 [50]
000000 26 fa 44 d3 ad 97 c4 bf 0e 61 41 bf b4 ae d9 3f
       -0.1608788758839676 0.4012882106521979
000010 60 0e da 05 66 e4 a6 bf fc af 19 3a bf 9e dd 3f
       -0.04471129247124561 0.4628141467462681
000020 bc 2d 16 b3 13 8a c0 bf 34 d0 4b 3e cf 40 c7 bf
       -0.12921377415146462 -0.1816653303318404
000030 a0 cd 51 59 c2 f5 84 3f b9 22 b2 74 e7 8b d1 3f
       0.010234373427215726 0.2741640700919948
000040 f5 ed 04 65 24 3a 87 3f 12 6b 61 5b 2a 2d d8 bf
       0.011341366131651912 -0.37775668071633206
000050 10 2e 64 09 3d 5c d6 bf 2c 05 81 a7 38 03 df bf
       -0.34937978665468084 -0.4845716129094224
000060 3b 3d ac 71 27 d2 d2 3f 9a fa 4b 57 c8 d7 dd 3f
       0.2940767870031384 0.466295323611044
000070 97 7f 4a e9 dc 38 9f bf 24 ce 21 b7 c6 be bf 3f
       -0.030490352381661614 0.124004764280294
000080 8f ad 1d 60 06 25 60 3f 4c 7d a4 e1 a1 3c bd 3f
       0.0019707798500598404 0.11420642622805594
000090 b4 d2 bf e2 87 ed ac bf ac 95 14 36 6c 48 d2 3f
       -0.05649971621452235 0.28567033082284854
0000a0 ae ea 72 95 3a 62 d5 3f e8 58 b4 11 af ec d7 3f
       0.3341204127752161 0.37382103661492616
0000b0 64 a9 ad f5 29 a7 d5 bf fe 35 af 80 63 50 da bf
       -0.33832787506130146 -0.41115653578603417
0000c0 c9 37 90 ee 06 51 b2 bf 8e d1 c5 b5 4a 06 d6 3f
       -0.07154887508678977 0.3441340232013993
0000d0 b2 d8 fe af 12 62 d8 3f bd 58 07 10 19 da be bf
       0.38098590075550043 -0.12051540986371641
0000e0 26 3b 5d 4e c3 76 d5 3f 29 f4 2f 44 f0 52 a2 3f
       0.3353737130427582 0.03578902084698427
0000f0 96 9f bf 38 91 88 cd 3f 5a 3e 19 1b 4d 9c d6 bf
       0.23073020239757785 -0.3532898678431359
000100 c2 71 d0 45 ca d8 d8 bf ed c0 b5 a6 49 42 be 3f
       -0.38823181932255235 0.1181989700323844
000110 80 e2 25 88 7e b9 c1 bf 00 2b bd 1b f4 0f de bf
       -0.13847333572245546 -0.46972372731094936
000120 28 22 53 b7 3e 17 db bf 80 77 3c 78 ff 82 d5 3f
       -0.4232937612801231 0.3361204790288568
000130 c8 a2 fd da 96 96 dc bf 3a 69 76 3d 92 0c c5 3f
       -0.4466912401754084 0.16444614411450137
000140 a5 e7 d5 bd 39 78 c0 bf 08 6a c7 e9 c0 6f dd 3f
       -0.12866899270357837 0.45994589643456196
000150 78 0d 2a 2c 3b 27 de 3f 29 4a 85 21 09 2c d5 3f
       0.4711444789210968 0.33081272386076194
000160 28 83 58 e2 bd cf d3 bf a0 57 29 d9 44 e0 b7 bf
       -0.30955454925610804 -0.09326582242769499
000170 60 24 4f 4d a7 4f cf 3f 8e fd 1d e9 1b 33 c3 bf
       0.24461833262310773 -0.14999722368882512
000180 08 85 50 94 9e 36 bf 3f 9c 2f 68 81 a3 28 e0 3f
       0.12192717667541697 0.5049607779960641
