lasa_models/6/skel_model_Worm.pt (torch, 99247 bytes, 18 tensors)

R f8 [20, 20]
000000 58 fa 54 3f 5e 8a ee 3f 50 d0 30 ef c7 06 d1 3f
       0.9543906437828111 0.2660388789984198
000010 41 c8 5b 04 cc 0f e1 3f ec 69 d4 2f 60 93 e7 3f
       0.5331783375861577 0.736740201394523
000020 36 84 34 66 f4 d3 c6 3f c2 c3 3b ff b9 86 d9 3f
       0.17834334364400356 0.39884805607931295
000030 82 bb 87 aa d5 4a d9 3f 32 ec f3 56 87 dd de 3f
       0.3951925435384781 0.4822710370205555
000040 01 89 14 16 16 31 cb 3f c2 d9 87 ce 4b 23 e0 3f
       0.2124354942143967 0.5043086084177093
000050 1f f4 92 60 60 1b e7 3f fb 9f 3f fc dd 04 d5 3f
       0.72209185468785 0.3284220660557364
000060 99 d8 f8 19 3e e3 e0 3f 20 ae 47 19 21 20 e5 3f
       0.5277395732180309 0.6601720327138914
000070 cf 50 86 d8 44 a6 ed 3f b9 1f 5f 32 cd 92 d0 3f
       0.9265465001103851 0.25896005553340334
000080 72 af e9 f9 a1 0f e4 3f db 2d 49 e5 93 d1 e0 3f
       0.6269082909688974 0.5255832174529432
000090 20 10 d3 b5 31 68 d1 3f fe 2f d7 f1 bc 07 c2 3f
       0.27198450809760466 0.14086114700910451
0000a0 87 96 17 bd 44 77 e5 3f 0b 66 6c 67 4c 51 e7 3f
       0.6708091443258163 0.7286741275776775
0000b0 63 ce 79 d2 bd 55 c8 3f 11 c0 35 b6 01 74 d8 3f
       0.19011662270678462 0.38208048623983
0000c0 db ec c9 3a 0c fa db 3f de f5 f6 0e e8 ea c0 3f
       0.4371367048367582 0.1321687768049022
0000d0 c6 21 05 e6 86 9d e1 3f 5f be b6 50 f5 e6 eb 3f
       0.5504793636874232 0.8719431473200067
0000e0 36 06 38 f1 14 e1 e8 3f ff 23 08 8b 50 86 e4 3f
       0.7774758063607752 0.6413958278145627
0000f0 88 47 39 5d 3f d7 e7 3f 06 03 b9 50 bb 29 de 3f
       0.7450253315712283 0.471297100859417
000100 91 69 42 94 4b c3 d3 3f 93 03 73 83 9d 91 e1 3f
       0.30879487493953045 0.5490253035896892
000110 fa 32 8f 2d e4 85 e5 3f 8b af 0b 41 66 7f e1 3f
       0.6725941552955128 0.5468016882345962
000120 fd b5 47 3b c5 37 d7 3f 42 be 52 6b 82 3e c3 bf
       0.3627789572627476 -0.15034513702765834
000130 34 84 88 e2 ab e2 c3 3f 19 ce 3f d7 23 04 e9 3f
       0.15535496293253603 0.7817553714834872
000140 05 6e 27 54 c8 fe f0 3f fd 8e 9b 1f 33 23 ee 3f
       1.062202767111445 0.9417968385064054
000150 bc fe 54 68 27 ca dc 3f 1c 1e 5b e5 e2 62 e3 3f
       0.44983849705384293 0.605821083031461
000160 31 ca 9d 64 21 ad c8 3f 3c e2 b5 13 b2 41 e0 3f
       0.1927835217753269 0.5080194840402963
000170 80 4c 4f a2 bb e0 db 3f 78 82 9b 46 33 05 e9 3f
       0.43559161043703654 0.7818848017742104
000180 46 9b 78 d2 bd f6 e9 3f 22 1c 62 44 0b 86 e7 3f
       0.8113698111309098 0.7351127944574538
000190 aa a2 8f 15 b7 ac e1 3f ce 94 31 c6 c7 ae e3 3f
       0.5523333951105844 0.6150854941339732
0001a0 80 b6 8e 0a 19 e3 d9 3f de ec 98 44 0f 93 e4 3f
       0.40448595076563976 0.6429516162674209
0001b0 bd 15 8b 34 55 cb c5 3f 14 96 d3 77 38 6f f1 3f
       0.17026772561636774 1.0896534615252493
0001c0 a0 a6 d8 4d 5e 4f e2 3f de f4 cd 8d 53 8a e9 3f
       0.5721885223803902 0.7981355447406278
0001d0 d3 bc 29 e2 cd e0 e3 3f 09 f3 ad be f1 fe e0 3f
       0.6211919228789163 0.5311211322983534
0001e0 94 9d 4e 83 19 f3 cb 3f 23 66 9d d4 07 07 b4 3f
       0.21835631286124324 0.07823227825920091
0001f0 e1 f1 5a df dc 97 c1 3f 5c bf 22 66 59 e7 ee 3f
       0.13744698434847094 0.9657408709372066
000200 27 93 21 b2 78 b5 d6 3f a8 ff 41 9e 6c 70 c0 3f
       0.35482613940830493 0.12843091704780574
000210 19 89 8c 2e fb 63 d3 3f ba 07 13 5c ba 9d d8 3f
       0.30297736688420823 0.38462695113787115
000220 07 76 fd b5 57 59 c8 3f ee 8d 29 23 4b 5d dd 3f
       0.19022652040705187 0.4588191836721468
000230 02 d1 a4 86 65 d5 e1 3f a0 3d dd ab f7 8a c7 3f
       0.5572993879091259 0.1839284505062837
000240 83 02 b4 64 13 a0 e8 3f 17 4d 7d 0e 7f 0c eb 3f
       0.7695404974802645 0.8452754290578096
000250 67 1f 93 20 96 95 e0 3f 99 da 7f ca ac bd d3 3f
       0.5182600628113335 0.3084518411191453
000260 41 2d fc 9a 7e 6f b8 3f 53 72 02 6a cb 45 d5 3f
       0.09545127185645176 0.33238492348190113
000270 a6 1e 56 de dd 8e eb 3f df ed ab 43 d4 dd af 3f
       0.8611897795207895 0.062239297161763345
000280 3d 95 37 3d f9 2a e3 3f 35 da ab ea e9 08 ee 3f
       0.598995799603166 0.9385881026672168
000290 a3 4c 68 a6 68 88 c5 3f b8 af ae 5b 81 e5 c7 3f
       0.1682253658806064 0.1866914460819069
0002a0 1a 48 3b 2a 6f 6e d5 3f 6c d9 8c 2d 20 c8 ed 3f
       0.3348653709809938 0.9306794061329078
0002b0 e4 ee d7 99 df 4a d3 3f 4e 0c e7 70 ca f4 aa 3f
       0.30144491218355385 0.052648855478331855
0002c0 32 69 4d d7 2c 33 ed 3f 4e 4d 32 4c 5b 78 b3 3f
       0.9124969678044066 0.07605524645105285
0002d0 29 f0 03 c8 41 7f ed 3f 38 33 6a 63 77 d5 e4 3f
       0.9217842966604667 0.6510579053589032
0002e0 6f a4 c6 d2 3c 9a e8 3f d9 41 41 dd ce c6 b3 bf
       0.7688278309552866 -0.07725232030612207
0002f0 55 8b 5d 3c 51 a9 e6 3f aa d2 2f 59 9a 71 b9 3f
       0.7081686190616475 0.09938969304477988
000300 dd 41 97 f2 1f c8 e5 3f 8c 6a 5b 4c 94 71 47 bf
       0.680679296312572 -0.0007154440033575057
000310 dc ae 9c 25 f8 1e e6 3f c9 98 c5 2e 5b 40 e9 3f
       0.6912804350481241 0.7891059793007794
000320 7c 97 b8 c3 89 e2 ec 3f a2 32 04 08 4a f1 ec 3f
       0.9026535818745596 0.9044542461939111
000330 80 e4 af 83 bc 51 e6 3f 74 72 14 1b 60 c4 cb 3f
       0.6974775859845437 0.21693040201434466
000340 52 69 d2 f0 e5 09 ec 3f a9 f5 56 87 6c 5a e3 3f
       0.8762082770875088 0.6047880786278955
000350 d2 dc b5 44 10 4c eb 3f 67 c3 a7 51 9a b9 ec 3f
       0.8530351011276258 0.897656592829759
000360 98 12 11 60 08 96 ef 3f 62 29 86 97 f7 e0 a9 3f
       0.9870645405104197 0.05054448818835301
000370 b4 5f 69 81 3a d5 e0 3f bd ea 96 51 6e e5 d8 3f
       0.5260288741655956 0.38900335281111237
000380 c7 53 90 30 43 34 d3 3f ac 9d 39 63 c2 6d e2 3f
       0.3000648473983429 0.5758983552922721
000390 92 b4 3a 11 62 d3 cc 3f 18 7d 89 21 0d b1 ea 3f
       0.22520089951777728 0.8341127066632081
0003a0 8b 3c 5d 20 8b 63 de 3f 1b d0 97 00 d6 ff e4 3f
       0.4748256507927599 0.6562299739439398
0003b0 8c 03 8c 7b 85 66 e8 3f 26 41 6e c6 54 36 d4 3f
       0.7625148213411292 0.3158161104011178
0003c0 aa ad 3d 2c 90 e9 bc 3f b0 57 ed ff c6 8d e5 3f
       0.11293889122105463 0.6735568045212315
0003d0 1e 34 4e 1d 05 a1 d8 3f bb 93 de 38 c6 f2 94 bf
       0.38482787954200315 -0.02045736047843481
0003e0 f8 8a c1 77 68 38 ef 3f ee ec f5 c9 bf c1 ea 3f
       0.9756357516274354 0.8361510223907354
0003f0 58 44 51 0e ac a7 e5 3f a6 45 7f f3 de fb d4 3f
       0.676717784847038 0.32787297991770925
000400 f2 d6 6e e4 1b 3a eb 3f e3 c9 d7 e6 3e 17 e7 3f
       0.85084337821783 0.7215876110697618
000410 f7 56 74 dc 75 c2 ec 3f ec cd 34 9e 2b 94 e1 3f
       0.8987378412009254 0.5493372049299388
000420 c3 65 a4 82 c9 9e e8 3f 21 79 a1 2e 0b cc b2 bf
       0.7693831969838175 -0.07342595947691112
000430 4d 7f 24 92 57 75 c6 3f 76 1a 84 6f 83 e7 ec 3f
       0.175455995901752 0.9032609155700146
000440 85 14 74 51 44 87 e1 3f 6e 5a 45 7e 72 3c e2 3f
       0.5477620688331092 0.5698788133839352
000450 23 62 a6 95 95 bd c8 3f 98 50 c1 f0 20 91 d3 3f
       0.19328565413594942 0.3057329512714744
000460 1c 2b 9a 46 b0 72 d4 3f 99 57 38 f7 aa e3 aa 3f
       0.31950003523586346 0.052518217733605606
000470 01 23 cf 00 08 64 e2 3f 8d 9b 7d 36 20 49 c6 3f
       0.5747108474543837 0.17410662327457907
000480 88 33 27 5c 99 73 e7 3f 23 38 d6 97 05 ed da 3f
       0.7328612136712858 0.4207166655331795
000490 76 1e 32 84 71 9f d6 3f 3b ae 30 4a 13 e3 ee 3f
       0.35348165426010014 0.9652191590334448
0004a0 14 7a dc ef 43 88 d4 3f aa 15 87 4f b6 dc e1 3f
       0.3208169786829853 0.5581924012446298
0004b0 b3 7c 6b 7c b5 96 de 3f 6c 19 ec cc 98 eb ca bf
       0.47794854307535245 -0.21031484609575146
0004c0 ad 18 7c 5c 8d 3b d2 3f 9c df 02 e4 65 5f e0 3f
       0.2848847773715402 0.5116452649444798
0004d0 6c f8 d0 c4 91 27 ea 3f ee 0c 4f 6b 93 be e1 3f
       0.8173302501743485 0.554513654315455
0004e0 1b db 81 6a 8d 92 e0 3f 2a 1b c2 ce f7 84 e9 3f
       0.5178896980495183 0.7974814451452847
0004f0 f0 b2 78 d7 17 53 e9 3f c8 a7 88 a2 98 28 d9 3f
       0.7913932045390464 0.39310279724542996
000500 44 fc a9 98 78 2e b0 3f 98 60 24 06 c4 0c e8 3f
       0.06320909239910671 0.7515583152735585
000510 a3 22 40 88 32 c6 d6 3f ad ab bb 49 a4 bc c3 3f
       0.3558470087596481 0.15419438934563115
000520 aa 93 b9 8c d6 c0 d1 3f f7 f7 b7 c2 34 50 ba 3f
       0.2773949026362127 0.10278634790299167
000530 30 8a 62 2b 8d f7 e2 3f be 22 e6 f2 a3 1d c7 3f
       0.5927186820375194 0.18059205398846773
000540 aa 19 06 08 af 0c eb 3f e6 66 77 42 bd 7f db 3f
       0.8452983051982319 0.4296715878568719
000550 f5 cf 4d 39 6a fe cf 3f 49 88 ef 21 05 10 b2 3f
       0.24995162771267557 0.07055694654948853
000560 61 6f 6b db 26 cf e8 3f 03 cd f1 c2 9f 45 82 3f
       0.7752870832004924 0.008921859871611653
000570 17 26 c3 eb 1f ff f0 3f b3 4c 42 19 bc 0c df 3f
       1.0622863015618174 0.485152268092132
000580 c7 f8 d7 59 87 68 e8 3f 30 50 b8 35 36 1f c1 bf
       0.7627598528631773 -0.1337650072388228
000590 20 fe 9d c2 16 d4 e0 3f f8 ea 6a 5b c5 84 e4 3f
       0.5258897591701874 0.6412073884488043
0005a0 a5 95 67 17 57 06 da 3f af d1 b3 ba e1 5f e3 3f
       0.40663697515113945 0.6054543158084494
0005b0 15 25 6e ef 9f 07 e1 3f d5 35 67 74 86 c5 e9 3f
       0.5321807552692542 0.8053619645594902
0005c0 66 27 5c 3a 9c 8b d5 3f 6a 7d 94 f9 92 f5 d0 3f
       0.3366461343690531 0.264988654833323
0005d0 2a 71 7b e4 b3 a0 d7 3f ec ae 59 c0 96 73 e6 3f
       0.36918351471628574 0.7016099697916309
0005e0 f6 69 8d 6a bf 93 bf 3f 83 56 97 c7 06 4c ea 3f
       0.12334820128800303 0.8217805765404623
0005f0 84 41 61 cd cc f9 c3 3f b9 df 1f dc 54 9d e4 3f
       0.15606079128566475 0.6442055033976352
000600 28 c3 87 04 a7 37 e3 3f 9d d3 54 8e a4 82 e7 3f
       0.6005435074313015 0.7346976070317514
000610 a4 4e 93 e9 3c 0e d5 3f 0d 65 f7 68 77 a1 e5 3f
       0.3289940148363064 0.6759602594494553
000620 37 ed 3b 5a cc 83 d2 3f f0 e8 b6 fe b7 63 e9 3f
       0.2892943268959302 0.7934226965801638
000630 0a 9b 86 21 34 a2 a9 bf 88 d8 35 15 37 95 d9 3f
       -0.05006564053774383 0.3997323710567646
000640 7d 7c f8 58 6f 1a e8 3f 74 b7 6f c0 c3 27 eb 3f
       0.7532269227703093 0.8486040838740636
000650 8a 3a 83 13 64 d1 ee 3f e7 c8 b8 2a 3f de ec 3f
       0.9630604153733924 0.9021297296915493
000660 f7 73 df b9 1e 1e f0 3f f6 8a 44 1b 6a 29 af bf
       1.0073535214098663 -0.0608628423963377
000670 7b 74 db 0c 54 0d be 3f 3c 66 64 2f 69 f5 eb 3f
       0.11739087404153452 0.8737073827389348
000680 9c 22 57 d5 f0 01 e2 3f 81 2f c3 bb 01 d7 ef 3f
       0.5627369086078775 0.994995943759463
000690 98 ae 78 43 0a f7 e5 3f 47 77 01 68 5c 48 d4 3f
       0.6864062612343842 0.3169165626221581
0006a0 be 00 fe 58 8f 87 da 3f 77 f9 fc e6 55 13 c4 3f
       0.41452392283100525 0.15684007433624078
0006b0 b4 6b 7d ee ef e0 d8 3f 00 70 24 cc f9 42 ea 3f
       0.38872907915145594 0.8206757533221207
0006c0 d3 58 a3 e0 e3 4c db 3f 81 63 54 c3 70 9c e4 3f
       0.4265680021029656 0.6440967383415314
0006d0 65 d4 83 cd 02 7c e6 3f 55 8a 6d 81 00 8c c6 3f
       0.7026380552257591 0.17614752120705882
0006e0 11 08 45 e7 68 29 eb 3f e4 b4 f5 be e4 e7 e1 3f
       0.8488049046502529 0.5595573167498995
0006f0 2e b1 1b 88 85 29 d6 3f 78 f4 ba a3 59 0d e2 3f
       0.34628427783788396 0.5641296575410157
000700 53 b1 a8 17 fe a0 ef 3f ec 49 26 05 62 fc c6 3f
       0.9884024107064228 0.17957711459582926
000710 cf b5 3a 05 f2 7d e2 3f f2 32 49 21 fd 3a e1 3f
       0.5778741933951838 0.5384507799259082
000720 d0 67 63 14 56 5b ec 3f 79 b1 46 7b dd db ed 3f
       0.8861494444092788 0.9330890090691774
000730 bb fd 85 e3 13 28 e8 3f 30 2c ed 05 b4 dc df 3f
       0.7548922962013686 0.4978456552386801
000740 26 44 e4 66 15 c4 de 3f 2a a5 06 c5 5f 86 da 3f
       0.48071799324049136 0.41445154419723684
000750 16 65 60 94 1e cd c9 3f 62 63 2b 5a 1e f8 e5 3f
       0.2015722488875233 0.6865379105685003
000760 02 94 42 5b e1 ae d0 3f 12 e1 83 08 5d 68 d5 3f
       0.26067384636036206 0.3344948371082107
000770 7e 9b 40 84 a4 b6 c2 3f a1 29 da 55 33 ba e2 3f
       0.1461988111270464 0.585229556732248
000780 f6 8b 07 b6 d1 7a c4 3f 8e 39 1b b4 87 a7 b4 bf
       0.1599981440368478 -0.08068130633475887
000790 3f 2d 46 86 46 35 e2 3f a0 0c 60 cb fa e5 e2 3f
       0.5690033552686272 0.5905736896678668
0007a0 d7 4a 9a f2 d5 ea ba 3f c7 4b ed f9 f2 8c df 3f
       0.10514580891530599 0.4929778519337415
0007b0 44 24 44 ea fd a2 d8 3f 2f fe cb 7b 45 a3 94 bf
       0.3849482333903931 -0.02015408104034416
0007c0 61 00 f3 05 99 45 e0 3f e1 93 f5 a1 98 7f e1 3f
       0.5084958187289993 0.5468257106082285
0007d0 1f 6f b3 db 68 85 ed 3f 6a aa 9f 31 ee 9a e5 3f
       0.9225353518517955 0.6751624077999854
0007e0 82 1a 94 2e 50 b6 e1 3f 53 a5 7b a5 31 95 e3 3f
       0.5535050306069282 0.6119621498193432
0007f0 4b 24 98 d8 f4 5b e8 3f c5 d3 3b 50 cf 36 e3 3f
       0.7612251501424309 0.6004406516136603

L f8 [40, 40]
000000 fd 96 f2 23 88 11 e1 3f 05 9e 18 99 ea ca eb 3f
       0.5333901121236689 0.8685200681838415
000010 a2 ba a1 b9 76 bb e1 3f 03 9b d2 d3 8c d8 be 3f
       0.5541337609882542 0.12049179240657897
000020 c9 32 9d c7 5d d3 e3 3f f6 e5 48 fb 93 ac d2 3f
       0.6195515536033663 0.2917833284332966
000030 7e bf b6 07 71 5d e7 3f e0 23 49 78 b5 8a eb 3f
       0.7301564360295598 0.8606822347002172
000040 69 f4 4f 2c 5c 7b e2 3f a5 38 2f 32 58 78 e1 3f
       0.5775585999941885 0.5459404926457593
000050 ee 3f 76 04 78 47 cc 3f 46 a2 83 82 fd 76 d0 3f
       0.22093105523936124 0.25726258988882866
000060 d4 81 8f b0 66 2b e7 3f fe e3 d8 0a 39 e0 b4 3f
       0.7240479896973349 0.08154636874031948
000070 8c 48 ec eb cb d9 ee 3f b3 3b 50 7f 73 79 ee 3f
       0.9640864951964132 0.9523255812254007
000080 56 0b b9 a8 d6 03 d1 3f 79 c0 67 c6 44 90 e9 3f
       0.26585928418005744 0.7988609194853914
000090 46 bc f9 4a de 57 d9 3f 79 b6 50 a3 04 52 de 3f
       0.3959880573447133 0.47375598858602747
0000a0 83 0c 3d b4 7e 9e be 3f eb c4 2a 5f 28 ce c7 3f
       0.11960594082215618 0.18597893378095107
0000b0 ab e3 fd 40 6a 2a de 3f f1 78 d3 f0 66 d6 cd 3f
       0.47133880946017354 0.23310553320965924
0000c0 00 29 1b ae 45 fd c0 3f 3d 6a 2e 97 36 d4 e2 3f
       0.13272925378107203 0.588404937053674
0000d0 4a 6c d6 1f be fe d4 3f 7e e6 bd 35 0d 3f e0 3f
       0.32804825886859545 0.5076967286724565
0000e0 60 bc 22 4e dc 4b e2 3f 04 51 cd a0 77 40 e7 3f
       0.5717603231513628 0.726619543138924
0000f0 e5 a0 c5 6c 29 d9 d3 3f 61 25 b7 37 24 7b ee 3f
       0.3101295053697995 0.9525319183532411
000100 de e7 0b 75 b4 36 e8 3f 9f 1b 96 f7 d5 20 e2 3f
       0.7566778455795846 0.5665082774802278
000110 c4 e7 db 60 4c ec ec 3f 7a 3f c6 34 22 e9 d9 3f
       0.9038450137879797 0.4048543467879352
000120 28 4d 24 00 59 bd d2 3f d6 76 af db ea 67 d5 3f
       0.29280686391685373 0.33446761563923866
000130 46 51 e3 85 3e 36 e8 3f 19 be eb 51 1e 5d cd 3f
       0.7566216101645657 0.22940424919168903
000140 c7 14 d4 ee 72 41 be 3f bd fc ea 22 40 27 d4 3f
       0.11818617182514678 0.3148956624026587
000150 00 14 62 3f 8e 03 e2 3f 43 b9 b6 48 1c 4f e0 3f
       0.5629340398742215 0.5096570415678702
000160 8e 2c 86 e0 ea 1f d5 3f c3 dc 77 e6 a2 a8 d4 3f
       0.3300730888956388 0.3227927447000633
000170 de aa 60 96 d5 55 cb 3f 19 d5 e0 8d 5f b9 e3 3f
       0.21355695574432948 0.6163785716113664
000180 bd 24 67 af 77 5e e4 3f 94 58 4c 12 38 33 e3 3f
       0.6365316797101951 0.6000023229014624
000190 e0 57 ae 39 63 3d e0 3f 99 c5 c0 63 0a 8c bf 3f
       0.5074936033804498 0.12323059974075647
0001a0 24 a6 92 81 65 98 de 3f 40 63 4f 48 c0 bf de 3f
       0.4780515447006073 0.4804535585549736
0001b0 f3 06 c3 c5 f8 89 d6 3f 14 f4 2a ae b0 af e5 3f
       0.352171128393919 0.677696552440127
0001c0 ea 78 54 28 bc 0e d1 3f 98 e8 5f 92 b5 f2 e3 3f
       0.2665243524405826 0.6233775957946532
0001d0 f5 cb d1 50 49 48 e6 3f d9 c7 fd c1 27 df c5 3f
       0.6963240221506327 0.17087265941842025
0001e0 52 a8 89 77 66 03 cb 3f 17 64 f4 5a c8 18 e3 3f
       0.2110412677459999 0.5967752243478824
0001f0 04 4b 4e 80 b6 15 c9 3f 27 b4 e1 a7 01 1b c3 3f
       0.1959751249783822 0.1492616719946522
000200 30 81 2f f3 9d 1b e5 3f 12 9a 60 91 1f e0 e3 3f
       0.6596212148397509 0.6211088027383218
000210 c3 1e 37 ea 13 6c d8 3f 61 98 a0 da 2d f4 e0 3f
       0.3815965449580114 0.5298070211472458
000220 37 83 0d 4c 51 1e c3 3f 69 11 e5 42 a6 69 da 3f
       0.14936271871104065 0.41269833119101534
000230 a6 3d 51 37 e0 ea cf 3f eb e8 3f ed 66 7f e2 3f
       0.24935534192125636 0.5780520089895423
000240 0a 74 d9 b8 75 87 e5 3f e6 48 fd e7 28 f9 d5 3f
       0.672785626443898 0.3433325067063734
000250 e0 e5 4e 21 e2 7d e7 3f 87 c7 5a e1 75 41 e1 3f
       0.734116616301602 0.5392407800156754
000260 fc a2 76 c5 fd 21 c8 3f 5a eb 1f 37 43 e5 d9 3f
       0.18853733197945377 0.4046180761649133
000270 34 92 9d 4d c6 30 cf 3f 8c 5b 28 05 42 c9 d4 3f
       0.24367598333187035 0.3247838068359037
000280 c6 bf d5 38 9a c3 e6 3f d7 fa ed 06 4c 58 c9 3f
       0.7113772497232211 0.1980071100078564
000290 61 2f 68 fb af f0 d8 3f 05 a3 33 6b f5 53 bd 3f
       0.3896903948923321 0.11456235758999973
0002a0 68 e6 c1 8c a2 42 e2 3f 96 2e a8 c6 d9 05 e2 3f
       0.5706341504257582 0.5632141952532546
0002b0 2b 78 ed e0 70 20 d3 3f c6 46 e1 56 e1 ae ed 3f
       0.29885503736102476 0.9275976845621805
0002c0 78 a9 ba d2 44 a2 c0 3f 06 0d cc f8 31 43 e5 3f
       0.12995205201634596 0.6644525393789145
0002d0 6c 81 3d 59 00 1d e8 3f 92 cf 14 ef 58 74 d4 3f
       0.7535402052854301 0.3196012816217656
0002e0 9c 4f 25 c9 96 34 d3 3f 80 85 ec 40 f4 62 e4 3f
       0.30008477824343927 0.6370793598218114
0002f0 3a 12 b9 3e 14 97 e1 3f 09 c2 02 d3 04 7b df 3f
       0.5496922707612335 0.491883474412163
000300 04 9d 6a ba b3 c5 d0 3f df 27 4e f9 a3 a1 c3 3f
       0.26206677632076514 0.1533703772841468
000310 98 4f 0d 41 56 11 be 3f f2 27 55 77 f3 84 b1 3f
       0.11745204055961123 0.06843492186922598
000320 db e2 fd c4 e9 62 dd 3f b6 d0 f3 2d e1 c1 d9 3f
       0.45916218030428774 0.4024584721330585
000330 b0 78 e4 98 66 29 da 3f ae 4c 4b 7f 12 cc e6 3f
       0.40877690249352394 0.7124111639226578
000340 22 4f 8e c4 b7 be e2 3f ec 4b 9f 6b af 9b a9 bf
       0.5857809866888355 -0.050015909087640725
000350 b2 ef fe 2b a3 da d5 3f 66 95 29 f3 53 19 e0 3f
       0.34146956726521716 0.5030917882219625
000360 c3 db dc 20 d0 f3 e1 3f 50 8d f5 c9 77 1c d3 3f
       0.5610123292780077 0.29861254427506356
000370 c0 9d e0 4c d1 f1 d5 3f 78 dc 89 50 1e 77 d6 3f
       0.3428843737369469 0.35102041115846516
000380 15 a3 eb cc e0 74 df 3f 04 bb 99 a1 48 8e c2 3f
       0.4915086747337665 0.14496715441369912
000390 88 f0 e7 1f de 6a e4 3f 46 33 f2 a5 66 da de 3f
       0.6380453704037032 0.4820801373069127
0003a0 23 77 3f 67 8f c9 d0 3f 37 3a 83 e4 a0 f4 c6 3f
       0.2623022564201724 0.17934046895830288
0003b0 4f f1 2c 27 b4 3e b9 3f 6d 31 a4 72 09 9c c7 3f
       0.09861303287920474 0.18444936845515816
0003c0 6e 40 b1 1d 42 6a cd 3f 4e 7f a3 27 0d e7 dc 3f
       0.2298052449209566 0.4516022574516584
0003d0 45 4b a4 a6 6d 44 e3 3f e6 d6 e8 60 64 cc e4 3f
       0.6021030668947353 0.6499502079738846
0003e0 4a 5e d3 0e 5d ab d9 3f bd 8c ff 01 10 41 be 3f
       0.40108419845407595 0.1181802754286307
0003f0 77 19 b4 2a 00 17 ea 3f 2d 40 9e 34 f3 46 df 3f
       0.8153076967289924 0.4887054456567082
000400 2d d0 19 b8 da ce d1 3f 7d 32 03 fc 98 23 e0 3f
       0.2782503888950057 0.5043454095953873
000410 4f 29 2f 4b 5b b9 e3 3f 5d 20 f0 75 68 63 d0 3f
       0.6163765400354267 0.2560673858392926
000420 2e f3 0a 10 66 09 e1 3f 29 b3 02 6c f5 a8 e2 3f
       0.5323973000846303 0.5831248387890798
000430 bb ed 3f 4b bf 4d d1 3f c0 50 66 81 cf fd e7 3f
       0.2703703150616225 0.749732735379915
000440 7f 9b 95 63 eb 2a ea 3f 5f e7 65 39 53 27 ce 3f
       0.8177391953475847 0.235575106645963
000450 23 04 eb c5 75 8b e0 3f 0c 11 30 63 84 c1 c5 3f
       0.5170239320360718 0.16996817439224576
000460 35 ba 7e 9f 69 23 db 3f ac f4 a7 06 81 5d e8 3f
       0.4240364129608765 0.761414063453818
000470 bb c3 b9 3c f7 15 d5 3f 0f bf 03 3d b8 4a e2 3f
       0.32946568422545014 0.5716210548107216
000480 46 7f 69 d7 79 45 e0 3f ae 45 da 8a ac d2 de 3f
       0.5084809500949425 0.48160852012469035
000490 78 4c c9 9f db e8 e0 3f 92 2e 46 cb 6a 96 e0 3f
       0.5284250374628661 0.5183614702413755
0004a0 45 60 1c 71 cd 1d d4 3f b0 5b b4 6a 86 fc e2 3f
       0.31431900068264823 0.5933258136818633
0004b0 34 fd 72 24 d0 f0 d2 3f 3a e8 49 7b 08 b6 e7 3f
       0.29594806251039363 0.7409708412153642
0004c0 8d e5 3e a8 9e 73 e0 3f f4 ce 96 15 c0 23 de 3f
       0.5141137395905148 0.47093202694234937
0004d0 5d d7 fe f2 38 fd e3 3f e5 c4 ae 9f b0 4f d2 3f
       0.6246609445576997 0.2861138877297676
0004e0 53 de 55 35 a4 98 d2 3f 9a 9c 47 14 4f f9 e3 3f
       0.2905664940694567 0.6241832157219449
0004f0 30 a1 c9 ad 35 79 d3 3f 87 79 df f7 c7 af d6 3f
       0.30427305194327214 0.3544788284906634
000500 4c d8 a8 d7 70 80 e9 3f ab e1 f8 b9 fe 4e e2 3f
       0.7969288074589342 0.5721429474133876
000510 76 04 07 dc 06 83 f0 3f 56 bf 71 16 5b 63 ef 3f
       1.031988963586881 0.9808783949247111
000520 5d 80 77 e7 10 86 df 3f dc f2 a3 aa 8d cf d8 3f
       0.492557741205024 0.3876680532846828
000530 82 39 29 16 17 36 e3 3f 3b 96 f9 9b be 5a e2 3f
       0.6003528054077807 0.57357721771104
000540 51 d2 40 e7 a8 64 da 3f 0f 5d bb 31 28 78 ab 3f
       0.4123937853176232 0.05365110022619934
000550 bf 81 ad 35 c3 a1 e5 3f ec 66 f0 4d 2c 82 e7 3f
       0.6759964035409708 0.7346402666327925
000560 92 2f d1 6a e3 e8 e0 3f fc b3 4d 40 5b 89 d3 3f
       0.5284287534973251 0.3052585723842751
000570 ba 3e 84 9e 8f ad e9 3f 8f 6b 9c 23 cf c3 e6 3f
       0.8024366470362658 0.7114024825599347
000580 ae 61 30 fe c9 88 f1 3f d5 36 7d 9c 28 54 b6 bf
       1.0958957604653778 -0.08722165890250307
000590 c9 9a bc 89 15 23 c0 3f ea c2 72 3f 5f d4 e4 3f
       0.12607068276812175 0.6509243239616727
0005a0 6c 1d 25 df 85 02 c6 3f fc 0a 88 04 d9 aa ea 3f
       0.171951993901739 0.8333554352287531
0005b0 61 f5 4b 13 be ac eb 3f 64 76 ed ec 13 25 e2 3f
       0.8648367287529873 0.5670261027805279
0005c0 17 b1 34 82 04 73 e1 3f 08 ff cf 8e b0 39 cf 3f
       0.5452902358133852 0.24394804929033165
0005d0 fa 35 02 70 3f 45 e7 3f 8f 05 5b c7 de 88 dd 3f
       0.7272031009358095 0.46147889583888796
0005e0 85 7a 4b ac d8 e8 c3 3f 2a ea c9 65 bc 2b e8 3f
       0.15554340756257914 0.7553388584195251
0005f0 5a 57 47 12 60 1e d5 3f fc 77 a6 ed 57 aa c2 3f
       0.32997895989443793 0.1458234701539708
000600 0f 56 bd 04 41 99 da 3f bb 28 d4 0c aa c5 ee 3f
       0.41560388052798286 0.961628937774797
000610 f8 04 1c 5f 6f a0 d4 3f 4a df dd 44 4e e0 e3 3f
       0.3222921780398589 0.6211310715725429
000620 06 d3 be f0 93 3f 9d 3f 44 0c 63 65 30 a5 d6 3f
       0.028562842911656915 0.3538323392969611
000630 26 21 29 77 09 47 d8 3f 3c 4f e4 65 4d 9b e4 3f
       0.3793357528379765 0.643957804687012
000640 17 85 ba 85 b7 57 e4 3f 2a 8c 9f 88 cd 40 e9 3f
       0.6357076274763668 0.7891605060980329
000650 1e fe ca 99 77 79 e0 3f d3 fb c3 c6 fd 50 e2 3f
       0.5148275378959999 0.572386635030734
000660 ef 1b c2 47 77 5a ee 3f 5e 2c f9 18 1d 4d e2 3f
       0.9485432054069615 0.5719132888565459
000670 0c bf af ac 2a 8a f0 3f 9b 4b d5 32 b3 7c e0 3f
       1.0337321038786653 0.5152221672855036
000680 fe 49 8c 43 3b 83 c8 3f 46 00 11 75 36 a7 da 3f
       0.191504867536949 0.41645585472361224
000690 5b 01 a2 97 9f 8f b8 3f 47 67 45 0f aa 1d dc 3f
       0.09594151927922694 0.4393105649120241
0006a0 a6 f7 36 55 c1 56 b2 3f 22 3e 1e e0 10 45 ad 3f
       0.0716362793964139 0.05716755615059933
0006b0 db 5c b4 52 16 4a e5 3f 35 24 36 e4 f7 56 f2 3f
       0.6652938475916942 1.146232501460202
0006c0 3e ee 5e b8 a7 dc ec 3f a5 ad 33 04 35 27 e6 3f
       0.9019354439728386 0.6922860223834745
0006d0 83 9d c5 e1 0b ac e4 3f 29 c4 fa a2 c0 4e e9 3f
       0.6460017594917392 0.7908633406824538
0006e0 ef 1e 72 f1 46 52 ea 3f 2e 37 0c 26 df b2 cf 3f
       0.8225435939538935 0.2476462302951687
0006f0 18 73 4e 80 fa f8 cb bf 28 73 14 2a dd c4 ac 3f
       -0.21853572144473143 0.0561894525401157
000700 d2 17 f3 89 6a 8d ea 3f f8 89 32 41 27 29 d9 3f
       0.8297627157523897 0.3931368004506619
000710 e3 83 92 79 8b 1f e6 3f dd 4c e3 c4 99 fd f1 3f
       0.6913506864985915 1.1244142237599626
000720 59 db 61 f6 f1 1e e5 3f b7 6a 51 95 dc be de 3f
       0.6600274860528358 0.48039927083815875
000730 79 da 37 2c d6 4b e8 3f 24 74 cb 04 a5 bc dd 3f
       0.7592573989521291 0.4646389529060022
000740 8a f0 d2 9d a9 35 d7 3f cf e0 d6 d6 ba 79 e2 3f
       0.3626503030061562 0.5773595996934321
000750 3c 42 28 9f 52 17 e1 3f 90 d4 4f 5e cb d5 e4 3f
       0.5340970142879722 0.6510979501751013
000760 0a 46 c1 db 1f 74 dc 3f 04 5a 34 c7 4f c8 e0 3f
       0.4445876737637212 0.5244521036827909
000770 27 48 99 04 a1 c9 cd 3f ca 02 5b 70 34 7f e7 3f
       0.23271572804020588 0.7342779344981747
000780 16 5d 4e af 61 93 b2 3f 68 d2 66 38 ae b8 f0 3f
       0.07256136445936465 1.045088024443567
000790 51 d2 6e f5 87 37 f1 3f 89 35 b3 7f b1 d9 c7 3f
       1.0760573947165037 0.18633097396233847
0007a0 73 65 4f ac 1b 0e db 3f 81 f3 e9 fd a9 7b e4 3f
       0.4227360899654606 0.640095706868678
0007b0 f1 48 9b 70 94 85 a2 bf d7 55 5a 5d 20 ae e4 3f
       -0.03617538332550108 0.6462556670473373
0007c0 26 9f 6f c6 e4 54 f2 3f 69 64 17 f4 0e 2f d9 3f
       1.1457259894759289 0.39349721753166605
0007d0 22 5c 1a b0 95 b4 cf 3f 78 21 3b cd 7e d7 ea 3f
       0.247698508250978 0.8388055809419219
0007e0 30 a8 ac 8b 6a f1 d2 3f 79 eb c0 25 21 37 e2 3f
       0.2959848751075951 0.5692296731352676
0007f0 b6 e8 f7 04 fd 9a bd 3f a2 ed d1 c0 2a 60 d2 3f
       0.1156461846475477 0.28711956815797113

weight f8 [50, 4]
000000 4d a5 a1 c3 38 c2 d8 bf ec 04 47 e4 70 26 9a bf
       -0.3868543539488954 -0.02553726571364205
000010 0a 44 d1 80 24 04 d5 bf 6a 4c 82 3f ce c9 d9 bf
       -0.32837784366444167 -0.4029422397808903
000020 70 29 e5 fe 36 c4 ca 3f a2 69 3d 76 6b 8c d5 bf
       0.20911300130894572 -0.3366955427824455
000030 60 96 2b 78 9b 97 a3 3f 56 c6 05 3b af 4a d7 3f
       0.03826604692384872 0.3639333797828831
000040 01 f0 17 e2 15 6a d1 3f b1 28 68 bc 9b 24 e0 3f
       0.27209994391864717 0.5044687919446657
000050 5a 3d 82 9d 67 f6 85 bf fb 61 65 2d f7 72 d7 bf
       -0.010723886007581274 -0.3663919394798822
000060 32 2e 60 ab 81 6b de bf 04 81 8b 4b a3 56 d9 3f
       -0.4753116773215168 0.3959129560225991
000070 d4 ff 14 6b 3b 4d e0 3f 5d ba 01 30 28 91 c0 3f
       0.5094277469106552 0.129429839554592
000080 42 e6 fa 3a 6f ba dc bf 2d c7 09 88 40 a0 db 3f
       -0.44887905845425646 0.4316560104845049
000090 bd b0 f9 31 1a 82 d9 3f a0 30 c3 75 cb 7c d5 3f
       0.3985658157387311 0.3357418680213957
0000a0 d1 e1 7d 69 ae 9a bc bf b7 c8 15 98 3e 97 b2 3f
       -0.1117352492855226 0.07262030804648388
0000b0 83 5f 82 e6 fb 3b 5e bf 97 62 71 7b a9 d0 c3 bf
       -0.0018453559842210594 -0.15480536010251875
0000c0 dd 9a 22 1f 10 81 d5 3f 17 25 89 89 87 48 d0 bf
       0.33600237885040746 -0.2544268458483016
0000d0 1b 14 e4 b7 38 65 cc bf 37 34 5e 5f e6 e6 d4 bf
       -0.22183903674172786 -0.32659301102905
0000e0 48 76 48 a5 1f 6e e5 bf 3d 83 d8 e2 f1 f6 e7 bf
       -0.6696928241905846 -0.7488946371632675
0000f0 c9 c5 73 77 be eb dd bf 7e 9c 97 d1 4e 17 dd 3f
       -0.46751367249734394 0.4545476004408967
000100 c6 bb ae 9e 11 bf db bf 98 9e c9 1f 2b 6e 9f bf
       -0.43353691574423825 -0.030693696799430542
000110 eb ec f2 eb 4e a9 d9 3f c6 6c 37 e6 fd 2a df 3f
       0.40095875779998263 0.48699901086883945
000120 57 78 b8 04 44 5b b1 3f 45 da d6 b4 3c b0 d6 3f
       0.06779885401962936 0.3545066610344388
000130 89 16 5d 52 38 78 df bf 4f 55 e1 f3 3a e9 b8 bf
       -0.4917126468975331 -0.09730881170374527
000140 25 4e b5 25 c5 fc e2 bf ba 03 0e 0d e9 2b d7 3f
       -0.5933557259072059 0.3620550754058588
000150 49 82 12 95 36 98 db bf a4 3c 50 d7 30 da da bf
       -0.4311653571876702 -0.4195673086805505
000160 03 12 e7 37 ad 23 e1 bf 68 57 d3 75 9b c1 9a 3f
       -0.5356050578926105 0.026129178110600476
000170 82 6c fb 18 90 1f 92 3f 78 23 d6 11 79 01 de bf
       0.017698527836597318 -0.46883990041583656
000180 cd 08 91 0f 16 db e1 bf 61 61 95 7a 71 72 d8 bf
       -0.5579939178499217 -0.38198506327673526
000190 5e a7 fd 86 88 d1 d6 bf 42 47 0d f7 a1 41 c8 3f
       -0.3565388983030199 0.18950295031623382
0001a0 37 36 3c 5f b8 1d d1 3f bb 55 10 08 d2 ae d4 bf
       0.26743897724449844 -0.3231701925991179
0001b0 9d 6b f6 26 a5 48 df bf 5f b7 72 80 08 dc 96 bf
       -0.48880890660228166 -0.022323735084391113
0001c0 ff 67 52 49 6c 52 d9 3f 4f 52 a9 db 9a 81 a6 bf
       0.39565570030538305 -0.04395755702413295
0001d0 f7 03 63 29 72 63 cb bf 62 e5 b3 c0 be e9 d6 3f
       -0.2139723493656047 0.35801667040467156
0001e0 6f 8c 44 74 ed 93 dc 3f a8 93 71 d7 e9 ec d0 3f
       0.44652878145479397 0.26446004905147413
0001f0 fd 47 07 f8 94 e9 81 3f 79 0f 09 4f 88 af ca bf
       0.008746303385951388 -0.20848182543897645
000200 44 8e f9 c6 84 f8 d8 3f 9e 5a 76 b5 35 98 bb 3f
       0.3901683753121896 0.10779128723366191
000210 71 9c 9c bd 5d 56 d6 bf 48 00 32 01 cb 4c dd 3f
       -0.3490213729550709 0.45781207195978313
000220 43 f9 d4 f7 4c 1e c5 3f ff c0 90 b5 6f f4 84 bf
       0.1649872026554907 -0.010231850365102433
000230 bd 4b 7a e8 eb 86 d5 3f 1f 4f 7c fd 36 a7 d6 3f
       0.3363599558153359 0.3539559817738666
000240 84 79 d2 f7 24 66 99 bf 8c 4c e6 dd 9f 78 99 3f
       -0.024803712488045374 0.024874208372761816
000250 09 81 8b e8 ce 85 d4 bf d2 d1 cb 7e c0 68 da 3f
       -0.320667006582895 0.4126435507053233
000260 8c 70 5c 1f 87 25 dd bf cf 89 93 a1 9c c3 be bf
       -0.45541551649672196 -0.1201722998116914
000270 c7 1b ba 4b 95 1b da 3f df 46 be c2 fb 5b e1 bf
       0.407933544113288 -0.5424784473018142
000280 d5 7b 70 57 2c bd d7 3f dc ae 6e e2 7e 29 dd 3f
       0.37092121638300785 0.45565769302878123
000290 11 79 5a 7b c8 76 e0 3f 73 08 ce 58 65 1c c6 bf
       0.5144998940702711 -0.17274157367870976
0002a0 f6 73 d5 5f 2e e9 d4 3f 48 88 9b 78 f3 05 cf bf
       0.32673224791307065 -0.242369111910252
0002b0 27 c1 fe fa 87 d0 cf bf 55 e3 1f 6d 97 70 e4 bf
       -0.24855136638280692 -0.6387440806712258
0002c0 f7 6c 48 c0 76 44 d8 bf f6 39 bc 19 46 a0 d0 3f
       -0.37917870309475127 0.25978233826836516
0002d0 c9 96 03 18 07 c1 b2 bf 50 ce 1c 67 7b 03 ce 3f
       -0.07325786911277556 0.23448126349249998
0002e0 1f 47 fa d3 09 fb da bf 33 0a 12 fb 2b 48 cb 3f
       -0.42157216740553055 0.21314000853824808
0002f0 db 79 40 e0 97 64 b5 3f 6d e1 9e 7c 8c e9 cf 3f
       0.08356618142031584 0.2493148430346638
000300 d4 f2 48 33 aa 47 ce bf 73 31 41 81 d9 3d c7 3f
       -0.23656203750751692 0.18157500087034925
000310 e0 a7 d6 13 56 f5 d8 3f 14 0f 45 25 5d 8a d6 bf
       0.38997413575509476 -0.3521950592005265
000320 ff 5b 15 76 3c b8 c5 3f 07 2f 14 17 4f 64 c6 3f
       0.1696849419192574 0.17493618609329806
000330 b9 49 13 33 d1 89 df bf 97 9f 04 1f 80 32 ba bf
       -0.4927866934569028 -0.10233307606961116
000340 8f f4 39 93 cb 20 d9 3f e0 90 2c 8f 0a af d8 3f
       0.39262666108681626 0.38568366987079905
000350 29 2c fa 28 45 9f cc 3f ea 76 c2 99 58 96 e4 3f
       0.22361053944436662 0.6433527949445452
000360 b9 3b 11 8a 75 df dc 3f 4f 6c b0 45 ee e4 d5 bf
       0.45113886340271453 -0.34209782414990725
000370 5f 40 eb 8f 54 80 c7 bf 1f 88 d7 8a 17 8e ad 3f
       -0.18360383059780624 0.05772470064017931
000380 fd 84 11 b8 3c 1a d6 bf 7b d7 cd 2f 8f b5 9c bf
       -0.34535139060433534 -0.028036343853691897
000390 ea d3 31 53 14 cb de 3f 9d 3d 10 0d cf cc c8 bf
       0.48114498257137817 -0.19375026834357537
0003a0 eb c4 0a 24 c4 5a ca 3f d6 ba 12 46 0c dd 88 bf
       0.20589496383539738 -0.012140365494216192
0003b0 fc 7e 53 48 4a 8e cf bf 80 8b 58 29 0b 18 d6 bf
       -0.24652985126066784 -0.3452175048607202
0003c0 4f bb f6 97 6d 38 c7 3f 77 af 6b 0c f6 6f d3 bf
       0.18140954895121772 -0.3037085648818371
0003d0 03 5c 87 f2 8f ff cf 3f bf 3e 8f 54 c8 6f cb bf
       0.24998664228652964 -0.2143488324058946
0003e0 dd 19 ce cb 79 49 bf 3f 7a 72 e5 19 ed b2 be 3f
       0.12221490121564878 0.11991769678338385
0003f0 d2 6e d3 2d bd c0 db 3f 1a 98 53 b5 33 a2 c1 3f
       0.43363885379015443 0.13776251176676696
000400 8d 12 53 d3 90 f9 c8 bf f5 18 b2 6a d3 75 d6 3f
       -0.19511614149645987 0.3509415189695482
000410 3f 1f c0 2a 71 22 c4 bf b3 ee f4 45 9c 4b d4 bf
       -0.1573010882132113 -0.31711489516940644
000420 d9 dc 87 29 4f 53 d0 3f 8e cc d1 15 5c 3e c9 bf
       0.25508479171499016 -0.19721556725889794
000430 4d 8d 00 6a cb 6c ce bf ed 26 d3 17 ca c7 98 3f
       -0.23769514728437927 0.024199636177207152
000440 d1 3b e3 18 a9 e6 db 3f b7 bc 48 b4 34 fe dc bf
       0.4359534018557812 -0.453015495356293
000450 f5 b2 1a 16 1e a8 d5 bf ed ab c0 7a 20 ed db bf
       -0.33838607939360027 -0.4363480757480705
000460 65 90 79 40 5b 23 d9 bf 18 01 05 69 55 e9 b2 3f
       -0.3927829866063404 0.07387288869813735
000470 66 20 96 af db ba d4 3f 9a d6 36 5e 92 f4 b4 3f
       0.32390491625893103 0.08185686874534284
000480 60 4c 8b 16 76 37 cd 3f 91 d7 69 11 35 42 d5 bf
       0.22825504399097252 -0.3321659727147273
000490 d4 19 a8 b3 9e 60 ee bf 8a 8d a7 79 40 59 d0 bf
       -0.9492944249075728 -0.2554475009948979
0004a0 7f a4 43 ee e0 15 6e bf c9 d0 ce a1 53 01 d0 3f
       -0.003672541921436123 0.2500809745936406
0004b0 44 fc 4f cb 96 f0 c9 bf c1 04 89 85 15 12 c5 3f
       -0.20265469481816656 0.1646143819835171
0004c0 d7 3c 67 9e e5 f8 d5 bf ce 2d 48 40 06 fc db 3f
       -0.34331646412915745 0.4372573497537048
0004d0 21 99 1e 5e 73 2c dc bf 61 50 08 55 fb fd cf bf
       -0.44021305266723415 -0.2499384083936347
0004e0 a6 44 e1 66 85 ae e1 bf 55 92 76 29 15 8d 9c 3f
       -0.5525538453458878 0.027881937652312356
0004f0 ff 5d ff f9 92 90 cd bf d9 66 a8 5c 6b fb d2 3f
       -0.23097455222044513 0.2965954213010327
000500 d6 ce 81 25 88 e7 ca 3f c0 14 fe a5 08 5e ca 3f
       0.21019079047584083 0.20599468331434956
000510 50 62 80 73 e1 e1 a3 bf 6d 84 1b 74 b6 64 e0 3f
       -0.03883270773821279 0.5122940318798449
000520 66 72 6c fb 65 32 dd bf 75 d4 72 02 74 db dc bf
       -0.4562010722454829 -0.4508943580543197
000530 69 35 ff aa 8d 47 b0 bf be cf b4 72 3b e2 cc bf
       -0.06359181809167115 -0.22565405941861444
000540 3e 71 47 4e 45 d3 ce 3f 08 3f 10 8c 83 be c5 bf
       0.2408224708768873 -0.16987652148281307
000550 fd 99 a7 fc 68 3d b2 bf 9d 21 f1 54 3a 59 d3 3f
       -0.07124954384162403 0.3023210362921647
000560 92 f0 33 47 ec 0e af bf 5b 6f a0 4e e8 66 db 3f
       -0.0606607281606283 0.42815597227467145
000570 71 26 df ea 13 18 d0 bf e3 3d 3a 84 a7 a0 d7 bf
       -0.25146959244430095 -0.36918056404917204
000580 31 f3 d5 10 42 98 d8 3f 5d 77 c9 ab f5 f4 db bf
       0.38429309505572734 -0.43682615066597014
000590 9f de 03 f3 c5 5e d5 bf 97 47 07 0a e1 4f de bf
       -0.3339094994730462 -0.4736254308637568
0005a0 d3 bc 93 81 aa 11 db 3f 01 4f 5c a3 31 2c d0 3f
       0.42295324949277563 0.2526973815267724
0005b0 9c d2 7e f7 e5 a5 e8 3f ee 6d 4d f4 22 3c c0 3f
       0.7702512582678369 0.1268352215655421
0005c0 bb 73 b8 95 b6 b4 d5 bf 5b 09 7a 20 c1 d6 c2 3f
       -0.33915485974449283 0.14717878423477768
0005d0 a5 6c 0f 51 46 47 dd bf b7 0d 83 f4 bc 02 c1 3f
       -0.45747526088752927 0.1328960603624247
0005e0 05 17 e5 7f 82 a7 c5 bf e7 e9 22 d5 5d f9 db bf
       -0.16917449231021223 -0.43709512533283007
0005f0 0e bd 37 38 7b 99 95 bf 23 17 07 6c 61 6e d0 bf
       -0.021093297296769946 -0.25673709439830555
000600 32 cc f0 79 4b e0 af 3f 0e 90 6b a5 7c 40 d6 bf
       0.062258108744935106 -0.3476859679633443
000610 09 3f 20 1f c5 d3 c9 3f 11 e6 45 77 09 f0 89 bf
       0.20177520770857196 -0.012664865448402758
000620 e3 1d ef 6d a3 02 de 3f 7f 79 dd 3e 89 c1 8d 3f
       0.46891103492495584 0.014529297095290826
000630 d3 d9 86 34 c8 c2 c1 3f 9f 31 1f 60 c6 18 bb bf
       0.1387567764738394 -0.10584678503727794

bias f8 [50]
000000 6a 8f 07 bb 2e 53 d7 3f 5d 27 2f 8c cf 6a d5 3f
       0.364452059408214 0.33464420976507886
000010 c5 e9 ed d7 34 bb cd bf 4e 79 4d 47 ae 63 ac bf
       -0.23227558654236993 -0.055448003963408085
000020 5d d7 82 f9 a1 02 d0 3f 21 8b a4 d5 78 ec bf 3f
       0.25016068807905417 0.12470202651870156
000030 2c ad 5d db 88 37 ce bf 0a ba 24 f2 bd 3d e7 bf
       -0.2360697814104723 -0.7262868623127485
000040 15 21 a7 fc 79 9f d6 bf 6c 1a 33 34 b1 51 d2 bf
       -0.3534836737931227 -0.28623609635943725
000050 9b 4c d9 a7 0c ed 77 3f 7a 28 2b 11 84 c4 d0 bf
       0.005841302333993738 -0.26199437786693347
000060 4c 9a 42 e9 c4 11 bb bf 64 fa 7d d6 53 2e de bf
       -0.10573988623455327 -0.471577605690902
000070 30 ef d8 9d c4 f3 d3 3f 3e 85 33 d8 95 db d0 3f
       0.3117534200171006 0.26340242494014265
000080 de f1 1c d5 38 47 d2 3f 70 10 40 e5 71 3a de bf
       0.2855970460111886 -0.4723171938678723
000090 f4 63 81 ee 09 8e d2 bf d2 82 5f d7 ca 63 d5 bf
       -0.28991936008020436 -0.3342158416035491
0000a0 b7 ef 01 21 fc fe c1 bf 33 72 f1 65 c6 4d d0 3f
       -0.14059402095506154 0.2547470088518679
0000b0 2f 8f 24 5a 7b 7b b1 3f 9d e7 2b ca 8a 86 d4 bf
       0.0682904334140033 -0.3207118009883006
0000c0 ea 8c a1 d0 47 6a db 3f fc 58 2d f0 e1 67 c6 bf
       0.42836184858442883 -0.17504524447821967
0000d0 3e 4c 3a 4f 01 a9 b3 bf 50 b7 4f a8 0f f3 bd bf
       -0.07679756340284968 -0.1169900689999086
0000e0 3e 9b 79 38 ed f2 c5 bf bc bf 6c 46 30 9b ca 3f
       -0.1714760328061064 0.20786097944937676
0000f0 ca ff c0 e9 1f fd db bf ff 51 18 35 d0 fe a0 3f
       -0.43732450320748895 0.03319407127506579
000100 5e 53 93 d6 4e c3 d3 3f 16 07 36 f6 34 2a dd 3f
       0.3087956519569185 0.4557011036305182
000110 10 27 5d b8 16 d7 ca bf f2 a4 6c c8 d5 34 d7 3f
       -0.20968898775236555 0.3625997979421093
000120 fb 3e b0 13 88 96 c3 3f 79 14 62 c5 df ba c6 3f
       0.153031358350283 0.17757794511649985
000130 39 7c 24 af bf eb bf bf 92 38 73 e0 63 a3 bf 3f
       -0.12469099069538538 0.12358688573587731
000140 96 82 ce d1 36 2b 7e bf 31 74 54 a4 75 c7 d1 3f
       -0.007365430964370609 0.2777990441116485
000150 4f ab bb c0 9f f8 d2 3f e7 24 43 01 53 6b cb bf
       0.29642480680074795 -0.2142127758182035
000160 ea af 63 6b 02 a6 d4 bf 6b 0d ad d7 fd ba 89 3f
       -0.3226324127888335 0.012563689369591477
000170 72 e1 12 38 5d 41 df bf 93 b0 cf 18 b5 1c dc 3f
       -0.488364510306858 0.43925216124513006
000180 92 b9 d5 b4 e5 ed d1 3f 54 c8 75 03 1c 8d c9 bf
       0.2801450983014543 -0.19961881798696146
