lasa_models/6/skel_model_Sharpc.pt (torch, 99247 bytes, 18 tensors)

R f8 [20, 20]
0.5373556985841732 0.2967190045211408 0.27034963527460815 0.2554460578737322 0.716627097724678 0.6165535003406885 0.8471966143945561 0.13783090917149754
0.7645871973326299 0.6189708378001161 0.5156919288063023 0.4650236195081159 0.898511568490596 0.5489963712174273 0.12423954007731043 0.6613048248199034
0.40922322646428627 0.7567456225866838 0.05829547291451845 0.23432980214700574 0.962114437385126 0.1964211820593127 0.32542584310235206 0.45111962488084356
0.21667550206038663 0.22267246971200824 0.2518924823415887 0.47617154249332255 0.6698981415842303 0.772971756867708 0.1458008394837512 0.34709096963622543
-0.027101430667165475 0.5168299814980037 0.3271071629154899 0.6518973171585583 0.5687675467311682 0.42768847431332535 1.0292741763288642 0.8357758845604993
0.28695928159471706 0.35246266535125065 0.3498699957283332 0.0886469442384827 0.5617029252381459 0.5344097323122203 0.5936151452721146 0.2001349317308458
0.31406413194577143 0.5297493689788775 0.5775831090072695 0.4064594110512406 0.23622622100844828 0.3347448867691267 0.6406174390971081 0.8067641748141193
0.1972823969883283 0.2866390017925194 0.43828940675870437 0.678086944833362 0.7816532556918497 0.7744330801094421 0.7251625802253114 0.48191750563779245
0.5037253671732963 0.1647693732336479 0.6180473730150646 0.6520535537434714 0.8290308552688924 0.06638226727186422 0.586613869085076 0.2787972975320501
1.1328286044506424 0.45387195929740465 0.8185694948234268 0.5832718765951682 0.715195514855502 0.4636370467761389 0.5456893866238852 0.7807316020021164
0.6325303697400053 0.8283246400214522 0.30354693791085097 0.5668319844461973 0.2843149138191172 0.5545245465784446 0.3263866914921754 0.5618317766463556
0.6951007789618591 0.7785307103687914 0.6233005984200807 -0.013132155647015207 0.865196536136493 0.7820225460053319 0.9205108466699631 0.491087447708215
0.7626062710167208 0.20185842375811658 0.24002454770397613 0.3123166978947827 0.61774504947837 0.7539594250730102 0.6903016780681208 0.3306739003494959
0.15038642227629195 0.9971230528028372 0.47705978541697125 0.17993004807296706 0.813335246049502 0.2020975157339679 0.8126782693842755 0.719809543925604
0.41465228905169066 0.41066701202641087 0.6218237197907548 -0.0771140599881001 0.7152723690017365 0.36439989426801617 0.7243446883623483 0.8489286578486837
0.5845460397469988 0.23552024871253288 0.9181425559417937 0.9137168012733801 0.3847988903381238 0.9298760223450475 0.6432551054228666 0.47910886114013096
0.4239987837017617 0.46040908934917124 0.36944061807077544 0.01446995091585884 0.8277797038302831 0.6093066394822928 0.04242309292643838 1.0234667344680162
0.13242052309081664 0.43733430377502847 -0.001984070606219057 0.7575372352882994 0.5772863769142782 0.6260875466213641 0.23210071834352697 0.4752098582430876
-0.07097387734709716 0.45713105691247885 0.18741679985656237 0.3936703784814538 0.5945827017164151 0.582509313091722 0.3874935014319005 0.2837245048752256
0.2813003521739136 0.9698298257022185 0.8422619938827955 0.11149010528871942 0.17823368261138026 0.28368709506876505 1.1884111319770807 1.0075324503775112
0.9856879811975197 0.7996113645841918 0.7491597677851681 0.5940242591446444 0.6038329952524454 0.27624423649286706 0.05099833803263189 1.079907817657094
0.4364860892536053 1.0206035481249123 0.5726160953624394 0.11480362912927121 0.52941497453921 0.928125200142106 0.3724184120914401 0.5715852484213723
0.6374202770920149 0.7297472318005409 0.7166687131520358 0.11391844286185751 0.9446186972476726 0.8915213261493268 0.692875512094852 0.9661474620880883
0.22500655754967275 0.7256380063605832 0.4348072132611782 0.7692282054232537 0.35445881287368275 0.7976029471313798 0.38687118544253335 0.33184676848596717
0.3817089725483385 0.5495077571484707 0.16559401480762917 0.5585366609734208 0.5199116678424471 0.02878969851664954 0.961306024930455 0.6614990878567876
0.06475403967340193 0.7320673140506441 0.48834010695945035 -0.02408225103587456 0.736115699885746 0.5649536024719168 0.4279989508824461 0.9526368512160449
0.07473181679738548 0.878712135144707 0.9030394979049665 0.0866479392512099 0.9412547109068625 0.9943212674447826 0.5308906211388722 0.6556246678018736
0.8737619394196519 0.3225024174028578 0.2618562773927188 0.7558133762643725 0.27805162258025107 0.5143718544536764 0.6039211424412432 0.9649042463971772
0.6571912213825056 0.15627456710936938 0.4376928541119654 0.8877423412142146 0.5707524227158085 0.40861019402796706 0.3285937265433532 0.21025247096492716
0.051450788723729636 0.30049273278355054 0.03349124915509415 0.9432823166477283 0.28051994538787683 0.5656119561879961 0.857984108824689 0.4636659361301199
0.49507217800737485 0.7588998709096294 0.3544512359494815 0.49642936191833503 -0.0070209396768230225 0.3346200132428679 0.6075401858535113 0.3784790230224607
0.4660162903973837 0.10048549410771887 0.7289135090467591 0.4680217962959671 0.38195505106359984 0.20778884508499146 0.3596638405500684 0.6961697299816517
00000000: ce9f f793 0432 e13f 4947 21b5 71fd d23f
00000010: ab5b 7f8e 684d d13f 6a6d 1d6c 3a59 d03f
00000020: d8f4 84f3 9bee e63f 9752 0668 ceba e33f
00000030: c968 0313 3c1c eb3f e87f a277 71a4 c13f
00000040: 787c ef91 7f77 e83f 5def 30ee 9bce e33f
00000050: 6718 215c 8c80 e03f f8e9 696d f2c2 dd3f
00000060: 30d5 3755 9bc0 ec3f 800c 80d6 6091 e13f
00000070: 918b 8099 29ce bf3f 583b 69bc 6829 e53f
00000080: 9f5f 9b9d b630 da3f b6d4 8c98 4237 e83f
00000090: 846d 587b e7d8 ad3f 898a 59da 84fe cd3f
000000a0: 8883 7237 a4c9 ee3f 48dc 974c 5424 c93f
000000b0: 0976 59ea c6d3 d43f d49b dcd8 24df dc3f
000000c0: 83cc 98d9 05bc cb3f e3f9 900f 8880 cc3f
000000d0: 00fc 70a5 011f d03f 47dc 9234 9879 de3f
000000e0: 9f2c 383a ce6f e53f 9f4f 0f44 2fbc e83f
000000f0: 7bf1 a716 9aa9 c23f e4c4 d40a bd36 d63f
00000100: 71a7 8f39 7ac0 9bbf ec09 8407 df89 e03f
00000110: 9299 c0e1 52ef d43f 0a7a 31c3 57dc e43f
00000120: 9191 87ff 5733 e23f d051 837a 3f5f db3f
00000130: 6b32 df32 e877 f03f 4f21 5f11 adbe ea3f
00000140: e4e8 6e76 8a5d d23f c1a7 2f91 bf8e d63f
00000150: 7a4f 601f 4564 d63f bd05 65ee 90b1 b63f
00000160: 4fe4 be69 78f9 e13f 443e 5e70 e219 e13f
00000170: 2454 6b30 e5fe e23f 461c 497d 059e c93f
00000180: 1a70 e371 a019 d43f c8e8 daf2 b4f3 e03f
00000190: 2f10 7d92 8f7b e23f ba74 6755 6e03 da3f
000001a0: a12f d82a a93c ce3f c84d 4bd1 756c d53f
000001b0: 536b c524 f07f e43f 7b27 4d1a 03d1 e93f
000001c0: 0d18 92b1 8c40 c93f c53e 9d1c 4b58 d23f
000001d0: 638f 0d03 ef0c dc3f 4eec 7c64 e3b2 e53f
000001e0: fb44 40b0 4d03 e93f da56 00e2 27c8 e83f
000001f0: d838 cb27 8834 e73f c463 8585 bcd7 de3f
00000200: c798 45a9 841e e03f 37e1 b5ae 2917 c53f
00000210: 2e4f cf48 0bc7 e33f 8333 126a 9fdd e43f
00000220: 5727 58b7 6b87 ea3f 868c f7a2 6dfe b03f
00000230: b236 e372 8ac5 e23f e940 c79e d0d7 d13f
00000240: d86b 01e3 1020 f23f 323e 70f9 3c0c dd3f
00000250: b0a2 38a7 b831 ea3f b3e3 54c8 29aa e23f
00000260: c29b 51b4 e1e2 e63f c185 47b8 3aac dd3f
00000270: 485d aa96 4976 e13f 5cb0 31d7 c0fb e83f
00000280: d452 7854 b03d e43f 999e ebac a281 ea3f
00000290: ee31 c822 506d d33f 0abe 70d4 7c23 e23f
000002a0: 0c90 272e 3732 d23f d946 0c43 aabe e13f
000002b0: 09bf 7301 85e3 d43f ee96 51a2 86fa e13f
000002c0: 0417 22fd 433e e63f 41e6 7e3c b9e9 e83f
000002d0: c553 b918 14f2 e33f 8542 3d18 08e5 8abf
000002e0: f432 6aa5 b0af eb3f 577b 7a25 5406 e93f
000002f0: c3f1 c129 d374 ed3f 5481 d80b fa6d df3f
00000300: f7b8 3744 4567 e83f cc4a 3b30 7fd6 c93f
00000310: 3619 50d7 1fb9 ce3f bdfa dc2c fffc d33f
00000320: e7d0 1844 91c4 e33f a462 2684 6f20 e83f
00000330: e2a5 758b f316 e63f 0914 e9dc c229 d53f
00000340: 1435 b8be dc3f c33f 1a07 bc9a 6ee8 ef3f
00000350: 2292 26c4 2588 de3f cf42 05a4 f207 c73f
00000360: 68ef 4ea3 d706 ea3f 0612 57d6 54de c93f
00000370: 659c a5db 7501 ea3f ea4a 5006 ae08 e73f
00000380: 3511 2cc1 a989 da3f 2cc4 8c4a 5e48 da3f
00000390: 861b 8cdb fae5 e33f 9bee b53d bfbd b3bf
000003a0: 7109 13e1 82e3 e63f d701 23ef 5352 d73f
000003b0: ec85 71e9 d42d e73f d61c c36e 6c2a eb3f
000003c0: 9607 77e5 99b4 e23f 0d10 e20a 8725 ce3f
000003d0: 52bf 5a7f 6c61 ed3f f8cb 6804 2b3d ed3f
000003e0: 6b84 6286 8ba0 d83f 36cf 295c 8bc1 ed3f
000003f0: fed6 18bb 8b95 e43f d285 7436 b8a9 de3f
00000400: f6bd 62cb cb22 db3f 144b 62af 5777 dd3f
00000410: 7864 1b43 eaa4 d73f 9fad aaef 6ba2 8d3f
00000420: d5cb 87dc 2b7d ea3f cefc 39a3 707f e33f
00000430: 7aae 6dc9 7ab8 a53f 4058 91a7 1e60 f03f
00000440: 4044 ffdb 27f3 c03f c67d 0805 49fd db3f
00000450: ccb9 bbcb e540 60bf 9a18 62ba be3d e83f
00000460: aebd a847 2179 e23f 077e 25c0 e808 e43f
00000470: 64ef 54f1 79b5 cd3f ce03 f99b d669 de3f
00000480: 217b 1312 582b b2bf 6333 db9e a241 dd3f
00000490: c96d 0d11 46fd c73f 96d5 3e3e e531 d93f
000004a0: 5c75 544d d206 e33f 1605 2b92 eaa3 e23f
000004b0: af00 048b b1cc d83f 22d3 60d3 8a28 d23f
000004c0: ea2c 3c31 d300 d23f f171 028f d808 ef3f
000004d0: d27d cc6c cff3 ea3f e2ea 0a94 9d8a bc3f
000004e0: 5b46 ee7e 5cd0 c63f 9386 e7ea ed27 d23f
000004f0: d2b3 2064 bb03 f33f 827b c058 da1e f03f
00000500: 2cb7 6985 c18a ef3f e8c4 8c92 6a96 e93f
00000510: 55b8 c3e7 1df9 e73f efd1 c129 3f02 e33f
00000520: f75b db92 9952 e33f ad80 5c4e fcad d13f
00000530: 7242 0044 741c aa3f de82 786b 4d47 f13f
00000540: f833 a059 63ef db3f 890c d662 6454 f03f
00000550: 2dd6 57fd de52 e23f 6784 9248 c563 bd3f
00000560: 1613 35ac f7f0 e03f 8785 a69e 33b3 ed3f
00000570: 661a 1709 b4d5 d73f 0911 9b25 6d4a e23f
00000580: d95b 7d35 bf65 e43f 5ec1 dddd 165a e73f
00000590: a3bd a139 f3ee e63f 8abf 8052 c229 bd3f
000005a0: dbcd 7bfd 503a ee3f ddee 6fbb 5787 ec3f
000005b0: 4ab1 1444 092c e63f 0204 1915 aeea ee3f
000005c0: 82db 07cf 03cd cc3f 00b5 4132 6d38 e73f
000005d0: d862 41a2 e1d3 db3f 4184 2e78 849d e83f
000005e0: a892 4404 74af d63f 77eb a39d f685 e93f
000005f0: 3d63 4f5c 7fc2 d83f 848d 7b3a fa3c d53f
00000600: 01d5 6b78 eb6d d83f 533b bb4a 9195 e13f
00000610: b98c 0147 2f32 c53f a6ee 8f46 88df e13f
00000620: e425 46cb 1da3 e03f f3e2 5cf6 0b7b 9d3f
00000630: 24c5 50da 04c3 ee3f 2fb8 9522 002b e53f
00000640: b45f ae82 b893 b03f b12d 8a6e 186d e73f
00000650: a3d2 2ddd f640 df3f dadb 7382 04a9 98bf
00000660: 139b 2283 428e e73f 00fa cb93 1914 e23f
00000670: 6ecb 30b6 5564 db3f 9dfe 1d47 007c ee3f
00000680: 178d 1dd5 9f21 b33f 676f 61e9 681e ec3f
00000690: 5ef0 cf16 b3e5 ec3f a488 5931 8f2e b63f
000006a0: 0ca1 1133 c21e ee3f 4490 acd5 7ad1 ef3f
000006b0: 386d f153 0efd e03f fe1d 5595 e0fa e43f
000006c0: 8480 4999 dbf5 eb3f ea13 e82d e1a3 d43f
000006d0: a6db e9d4 40c2 d03f 11ea 9d88 9f2f e83f
000006e0: 123e 6508 99cb d13f b090 9bf6 bb75 e03f
000006f0: 36bd 846e 5253 e33f 5184 c1de 7ee0 ee3f
00000700: 0bcc 61e2 b507 e53f cc34 7715 ce00 c43f
00000710: 81a4 86e3 2803 dc3f c943 59a0 6268 ec3f
00000720: 56ab b595 9a43 e23f aa63 0a5f ab26 da3f
00000730: 812a 4bfb ad07 d53f 6049 598f 8de9 ca3f
00000740: 5df9 d7fd c157 aa3f d16c ffde 453b d33f
00000750: ce89 a5d7 c325 a13f 1fb5 9c65 5e2f ee3f
00000760: c843 d4ed 09f4 d13f 99ba c13e 7e19 e23f
00000770: c978 fc16 9b74 eb3f 81ad fce3 b3ac dd3f
00000780: e5df 6c37 43af df3f f9da cf61 e848 e83f
00000790: e381 9b3c 54af d63f 4ba8 8da8 7fc5 df3f
000007a0: e54a c924 fdc1 7cbf e9c5 5d0f 6a6a d53f
000007b0: 17e4 a71d f870 e33f be9f 8614 0039 d83f
000007c0: 783d aafd 35d3 dd3f ee40 ead6 6ab9 b93f
000007d0: 62fd 5e6c 4253 e73f ae01 3ab1 11f4 dd3f
000007e0: 0c0d 3799 f371 d83f 0a8c 0e2b d398 ca3f
000007f0: e6d7 2d7c bb04 d73f 2390 d7bd 0547 e63f

L f8 [40, 40]
0.3237910589927936 0.6341839032278788 0.43433066977953116 0.07409348459445998 0.7857826160964709 0.8748571277094893 0.831532376344837 0.7646646451073955
0.5424042123217837 0.7935024596793392 0.22406304083559284 0.6814355116926377 0.4980670997683366 0.25590673926235985 0.757950342146448 0.3604803405759308
0.7606386354222796 0.05994890496629375 0.6988277392561195 0.2171329347869029 0.22332751467547313 0.7300886049381494 0.4843456947640405 0.33566675371137805
0.784775779560913 0.36683545302622916 0.6546950413086184 0.41834038225024256 0.265638563314847 0.6872576495012507 0.5757914891849584 0.731754838953086
0.406186141054727 0.1463958712352323 0.8401920647292532 0.8219211669928838 0.16169246548098198 0.541149629909326 0.18192491591836532 0.7124046558375019
0.8964356192576192 0.683812281875329 -0.14591152417622813 0.5296079016640641 0.62838366428504 0.391915930634344 0.6658673559796894 0.27133423675293356
0.21960885215880688 0.6045832452927432 0.6888769496503528 0.6288340830927865 0.4975626818446375 0.6717660864944989 0.15752627491831542 -0.15351582373738054
0.5592246780215351 0.7969452327541624 0.16041208226770387 0.974361974890572 0.7133376891035299 0.3476250161803516 0.4808693670917627 0.6805310262044816
0.13115502838117823 0.7882330277238657 0.6162893343900343 0.8876405081093668 0.7945212744268976 0.40741147029360225 0.6157963971151127 0.26577576432711775
0.40724466474611604 0.8315904147887706 0.6845564380270424 0.7365235434143811 0.5718297554879094 0.37605113686274166 0.4108641635156103 0.28624713711949307
0.2752513058835962 0.9063573303145904 0.7536957373106411 0.1063768759677654 0.22261609092959042 0.3819964247589606 1.0322128954311416 0.3219507795610392
0.40557363041136735 0.7925110284755391 0.32849545570159205 0.8102346990494886 0.6670682408835149 0.4880602975561175 0.7247151997329068 0.3831495103144982
0.19250945440130587 0.7424972229754988 0.626567002393328 0.2226791678060678 0.28938688571897814 0.319154268812318 0.7149428800618371 0.22530984566280882
0.3878089727084335 0.07228668781619361 0.16720897160179699 0.5646075522238992 0.8804867257581585 0.5587087739604153 0.15617441127539133 0.8507338605762337
0.39023161453760474 0.2673274920152625 0.34224204259863933 -0.04464291171563009 0.5058130005094911 -0.2569718687047128 0.3402347201693291 0.554526760570779
0.44777410425656633 1.135739822957622 0.937278296670567 0.2672340337714816 0.43797485873951697 -0.025429927857690562 0.8940907306342627 0.935047663105122
0.19227617140510833 0.4147439211489846 0.7433472574080064 0.42247506755824904 0.6852626256262045 0.7685073167952815 0.6604052344523033 0.2202632157436262
0.3862151192364345 1.1827778345145437 0.47595234025335514 0.7694562214801581 0.1874366816117921 0.6950756247555996 0.39172603057968797 0.3993693346294101
0.2491511015225999 0.23354143062892888 0.1514264712998861 -0.11703466747558242 0.8160131609873635 0.5152783949491845 0.25710918014872175 0.7030475539981109
0.4795069993233061 0.2700132211695379 0.054524237934970486 0.7325166666627491 0.7700358730787173 0.42131281998826153 0.5347739785698463 0.7033947463280888
0.2406781769066397 0.37482318855539504 0.48758091016001653 0.3138989206456102 0.09300845737660143 1.3018984442544035 0.163442058943259 0.138096396816724
0.7596249428298635 0.5289048393066867 0.3493018826431971 0.7379457036266066 0.25928246463770466 0.2338170833274069 1.078841392663768 0.7671068507058354
0.5926415522379005 1.1378688227171272 1.0494197680927448 0.268298945401032 0.02256548907256327 0.16937064109111213 0.6999773435149815 0.2003972056914183
0.5312047991612775 0.8464905153417607 0.8479491214012127 1.1244472729268356 1.4515156497696928 0.46952188594392275 0.8820001407333132 0.7143010909823755
1.0827857270145014 0.2508440783871997 0.9006545473175523 0.6402691439878796 0.17955709463489508 0.06315926645106668 -0.07414555606656575 1.0623188254096592
0.09642231596438391 0.8723495572843456 0.8664814541927294 0.7985014510146875 0.10251177747239609 0.7114918656390744 0.5874697078680186 0.11178214748133346
0.30906221576642834 0.3141503756042732 0.3565664331319947 0.5015600830902969 0.23405620466674823 0.7766413950930986 0.7877132018831193 0.40689417314598647
0.24204100101682854 -0.14059773554916358 0.6664115167769166 0.17953092404644913 0.7989589355325769 0.8040239704964873 0.09098418326661613 0.8927575379938045
0.09016053490459223 0.3772986935751979 0.8442372134376092 0.6533108841395765 0.012810710951272303 0.9878214941119174 0.6079948174724049 0.20851533900781588
0.09411001853629047 0.5986927238648015 0.2729707709471859 0.20868622107171658 0.8499044100375565 0.8304379743143262 0.049646271682526416 1.0642324673984154
-0.29708236237376817 0.8906853578460613 0.6180990983403041 0.07578841140648467 0.66400158992451 0.1721212894360864 0.7711278772346147 0.6261983988100063
0.840009813643953 1.3997632016955297 0.44110868931577546 0.4778144108279862 0.3089596946990516 0.4999051923636359 0.563843108883237 0.6845238800325724
00000000: ce1e 4722 feb8 d43f 836d 800a 3c4b e43f
00000010: 4a95 96dd 12cc db3f f90c 2e65 caf7 b23f
00000020: 10ca bc95 2125 e93f 7de9 0560 d4fe eb3f
00000030: 6eeb 3ec9 e99b ea3f 4699 64fd 2178 e83f
00000040: 794f 2414 605b e13f 48c9 3345 5f64 e93f
00000050: a1ca 5004 19ae cc3f 65b1 a1d8 51ce e53f
00000060: 21fd 2dd4 54e0 df3f 2a4d fda8 c660 d03f
00000070: 265a 7013 2141 e83f def8 6722 1c12 d73f
00000080: eace e6d5 2657 e83f bac1 8574 9fb1 ae3f
00000090: 9490 b4fd cb5c e63f f1a9 e512 03cb cb3f
000000a0: beff e9f9 fe95 cc3f 1e88 2cc7 e25c e73f
000000b0: b313 be15 85ff de3f e9de 6268 907b d53f
000000c0: 5d06 7d18 e21c e93f 33b4 7068 3b7a d73f
000000d0: abc3 e803 43f3 e43f 7d19 17bd 16c6 da3f
000000e0: ab98 7fe3 3800 d13f 1714 11c1 03fe e53f
000000f0: 43aa eb45 e26c e23f b7c8 bf1f 896a e73f
00000100: a1c8 fa27 f4fe d93f 9ac4 9c93 19bd c23f
00000110: 11de 0b78 dae2 ea3f a5fc 839e 2d4d ea3f
00000120: fa0d a0b5 56b2 c43f 757f 5607 1951 e13f
00000130: f734 19ce 5049 c73f f8e2 4ad9 04cc e63f
00000140: 9bca 75c0 99af ec3f d93e 684b cae1 e53f
00000150: 1124 3994 3aad c2bf fb35 2b45 8cf2 e03f
00000160: 8a3c ee0e b81b e43f 43c7 368e 2615 d93f
00000170: 2504 ad0e c94e e53f e6e4 4846 8a5d d13f
00000180: 0893 f792 241c cc3f 77bd 47f6 be58 e33f
00000190: 9aed 36ac 470b e63f 1acc afa7 681f e43f
000001a0: b8e5 8e25 11d8 df3f f3c8 8197 1b7f e53f
000001b0: 9d76 842b d229 c43f 2e6e 2f11 68a6 c3bf
000001c0: f6fe e626 2be5 e13f 463b ec49 9380 e93f
000001d0: e48c 9c13 6288 c43f 11df 132a f92d ef3f
000001e0: 2886 b68f a9d3 e63f 7807 f1fe 7c3f d63f
000001f0: 73ab 534f 90c6 de3f 29c5 ae00 e9c6 e53f
00000200: c932 cd1e b0c9 c03f 1f6f 7678 3439 e93f
00000210: 9385 0269 a4b8 e33f dce7 1d11 8d67 ec3f
00000220: f778 34e1 b76c e93f 7448 3b8f 0713 da3f
00000230: 4754 53a5 9ab4 e33f 11ae f659 7802 d13f
00000240: fb85 23ed 4b10 da3f 3fea 6580 639c ea3f
00000250: ecf4 32e7 e2e7 e53f 985c 76d2 9991 e73f
00000260: 6d68 56ea 6d4c e23f fbbd 9cc9 3811 d83f
00000270: e477 5934 994b da3f 511e 2083 df51 d23f
00000280: b9e2 3ca7 b79d d13f f61c 8616 e100 ed3f
00000290: 2d48 dc85 461e e83f 1c0b 55d3 833b bb3f
000002a0: df8f 0d1f af7e cc3f 93d5 e121 a172 d83f
000002b0: f62d 46ab f183 f03f 43ba 4871 d79a d43f
000002c0: f527 af19 ebf4 d93f 4db2 a016 405c e93f
000002d0: 7dde c7cd 1106 d53f 0610 d051 71ed e93f
000002e0: 3470 d97e 9f58 e53f 01b1 1e42 613c df3f
000002f0: cb8a 38ee dd30 e73f 28de 1186 8585 d83f
00000300: 5586 6959 26a4 c83f 699e 4189 89c2 e73f
00000310: f106 013e d60c e43f 9920 9d3f c080 cc3f
00000320: a979 8392 5085 d23f 6a5f bb06 066d d43f
00000330: def4 0be4 cfe0 e63f 4e56 4bf9 f3d6 cc3f
00000340: 7032 b8b9 dcd1 d83f 8f51 1b60 6181 b23f
00000350: 4652 5084 1a67 c53f 510a 7cdb 4311 e23f
00000360: 6d30 767f f22c ec3f 62be 0439 f1e0 e13f
00000370: 982e 73ea 85fd c33f bbca 9837 3639 eb3f
00000380: 7f79 9305 8ef9 d83f 86be e1c4 e41b d13f
00000390: d6c0 112b 4be7 d53f b439 a28b 6fdb a6bf
000003a0: 818e e2be 9e2f e03f 320a 0523 3a72 d0bf
000003b0: 9ed2 05d9 67c6 d53f f110 ade7 aebe e13f
000003c0: f7c4 71b7 54a8 dc3f 94e2 4585 fd2b f23f
000003d0: e56b ee0d 2ffe ed3f 9c4e dbc6 5c1a d13f
000003e0: 9969 b0b3 c707 dc3f 7424 f491 4d0a 9abf
000003f0: 9063 f729 649c ec3f 719b a713 e9eb ed3f
00000400: 7c15 fe6d 819c c83f 262e 6316 2a8b da3f
00000410: 1470 0430 80c9 e73f be6f a2dd d409 db3f
00000420: 5d8a c7e2 abed e53f 13eb 0ba8 9c97 e83f
00000430: 2c8e 8228 0a22 e53f b1b9 10c6 9531 cc3f
00000440: a8d6 959e bfb7 d83f 55c7 5a73 a8ec f23f
00000450: d7f0 f5cd 0076 de3f 9cc0 5ea7 629f e83f
00000460: eaf4 cbd8 ecfd c73f 624e 923c 0f3e e63f
00000470: d939 950e 0a12 d93f d98c d065 448f d93f
00000480: 0ca6 66ec 2ee4 cf3f 85f9 6783 afe4 cd3f
00000490: 21a8 fd4e f161 c33f ee4c 4ee5 fbf5 bdbf
000004a0: 5e7b f1a1 c71c ea3f 3d8c d41d 297d e03f
000004b0: 545e 0f10 7a74 d03f be8c 7e95 5d7f e63f
000004c0: 08fd 1220 3eb0 de3f 394a 9a88 e547 d13f
000004d0: 2b40 8ad5 99ea ab3f 15ed e2ca c670 e73f
000004e0: 34d6 7345 22a4 e83f 2e0c cf0b caf6 da3f
000004f0: 8bb2 9651 de1c e13f 1309 f5b2 3582 e63f
00000500: c763 56e1 8ace ce3f e92e 2866 1afd d73f
00000510: c7a2 d28f 8634 df3f cc0b 9b7f eb16 d43f
00000520: ee14 affa 66cf b73f 3893 8c76 93d4 f43f
00000530: bfe1 f95c abeb c43f 73fa 028a 24ad c13f
00000540: a7c3 d5f7 d84e e83f 5d96 70d7 c9ec e03f
00000550: 8d8f 9848 f65a d63f 7899 e94e 409d e73f
00000560: dae4 827a 1598 d03f af93 11db b7ed cd3f
00000570: ddfd 3031 ef42 f13f 3636 8aaa 238c e83f
00000580: 4299 a36a ebf6 e23f 4f54 4bf0 b534 f23f
00000590: 76bf fb61 6cca f03f 431e 0357 cf2b d13f
000005a0: 3cf1 5656 681b 973f d5c6 31ea efad c53f
000005b0: 49cf cae2 3666 e63f 41c4 539a 9da6 c93f
000005c0: a907 fc34 a1ff e03f a98b f846 7316 eb3f
000005d0: 72e2 2232 6622 eb3f 1bc1 746c bcfd f13f
000005e0: d049 5679 6839 f73f 3caa 3886 a50c de3f
000005f0: 158b f05b 5839 ec3f 8a86 28f6 8ddb e63f
00000600: 58a5 6120 1753 f13f c05e 4452 d40d d03f
00000610: 4f1f 377c 29d2 ec3f 821b 42b7 157d e43f
00000620: 135f 9c14 bafb c63f 1cc0 d8a7 342b b03f
00000630: 3c1b 7302 34fb b2bf 34f4 5006 42ff f03f
00000640: 7aee ab05 22af b83f 48ec 669e 49ea eb3f
00000650: 3b25 8b50 37ba eb3f 0655 3dea 528d e93f
00000660: a4e2 b23b 363e ba3f 7546 c996 8ac4 e63f
00000670: cde1 d545 8dcc e23f 737f b53b c19d bc3f
00000680: ca59 49e3 acc7 d33f 29c6 4f2d 0a1b d43f
00000690: 79cf 4904 fcd1 d63f 8042 3bbb c70c e03f
000006a0: bf1a 3cc0 8df5 cd3f 2aa1 140e 3fda e83f
000006b0: e9e4 1651 f234 e93f 0b14 a6db 8d0a da3f
000006c0: d745 d413 33fb ce3f e5a3 094a 1bff c1bf
000006d0: f181 c73e 3e53 e53f 6938 b38b defa c63f
000006e0: 53b3 5e54 1291 e93f 7e70 4f7a 90ba e93f
000006f0: d558 954b bd4a b73f 971b 9e41 7891 ec3f
00000700: 631a cec4 c214 b73f f1a7 6e6b a925 d83f
00000710: 85fb b8c2 fd03 eb3f ac02 303a ece7 e43f
00000720: 8a02 9884 803c 8a3f ace3 6fd2 3b9c ef3f
00000730: 97ce 258c b174 e33f c25f e070 a1b0 ca3f
00000740: c4dd d61b 9817 b83f 8747 aba4 7d28 e33f
00000750: 3eda 7e65 5a78 d13f 1e7e 50e7 3ab6 ca3f
00000760: a1cc babb 6a32 eb3f 2a2b a1a8 f292 ea3f
00000770: 0c54 7d72 3c6b a93f cf14 ad9f 1807 f13f
00000780: c447 a7bd 6503 d3bf 4d32 5f94 7e80 ec3f
00000790: d2e0 a1c2 77c7 e33f e319 688c de66 b33f
000007a0: 00f8 2643 803f e53f 4063 8906 1208 c63f
000007b0: d935 b85e 14ad e83f 134a 7639 d109 e43f
000007c0: 456f bd42 5ce1 ea3f 28d3 5619 6e65 f63f
000007d0: 79ee a5f0 1f3b dc3f cf13 04e5 8294 de3f
000007e0: bcee 20e2 fec5 d33f 9b5a 1359 72fe df3f
000007f0: a04f 17b4 000b e23f 0645 c29f 9ee7 e53f

weight f8 [50, 4]
0.03164879026562805 0.30846172651765175 0.2948651346070123 -0.002850757454501917 -0.25299441394440647 -0.15573563673631322 0.4495863434207861 -0.2839968784616467
0.3278764114623088 0.2833872261589497 -0.24080281824617436 -0.1797970209786134 -0.319975510466218 0.017340892882666232 -0.5099769258727956 -0.00685028161487684
0.1094612608646317 0.299119456295179 -0.20500663784645085 -0.3310852624559087 0.4420626823934502 -0.19423938726115106 0.3558713438216567 0.3642976523855432
1.665646599860331 0.3225565655628484 0.2503173634217714 0.7205435249599941 0.0744910018276993 0.24771528154427314 -0.20822974891391335 -0.2794421491906175
0.05094122488332461 -0.2017905921870532 0.08527313479066066 0.4110867836885762 0.2109446146943654 0.3766039186876327 0.1153098066729638 -0.08430305492426111
-0.5547349125822092 -0.19371001738703916 0.23794323520527713 -0.20142841016427215 -0.22303136437952767 -0.6067938994289143 0.11143869786248013 0.3645828673499485
-0.11350134761447209 -0.9572449655304424 0.5141196327757087 -0.48447625256508803 0.3992310289537356 -0.2206590374313154 0.11726167599222946 -0.20800617529774587
-0.34899233567702637 0.3030905919291779 0.06513605869511326 0.2379420320211062 0.4740609080810164 0.33638988270060655 -0.26390008548804295 0.0525232985095243
0.3260487534086333 -0.35944117960378924 -0.07291305547938264 0.33012364660716725 0.2145027987563338 -0.17068964334110878 0.21200673515225518 -0.4165929691840084
-0.15709820691444035 0.418689117534777 0.4242422481394602 0.2043533879234963 -0.09507268418017377 -0.3586400229112113 -0.4372678982195572 0.1452300429317059
-0.3465219959294073 0.20074947687343442 -0.2490956685326379 -0.21602314534751127 -0.08470934883106099 0.27776156723192874 0.025180421682323668 -0.013814957095679955
0.20454412766711988 0.19719693602439073 -0.11803873795935482 0.40178403517520356 0.03785757436991243 0.01725143882917823 -0.001512221460962859 0.053134297740045404
0.2248529328222911 0.21075386060028845 -0.34826685850690947 -0.31659523456053323 0.033822139182878214 0.5196039988564133 -0.4559948954443491 0.03354895409591192
0.16648795728816154 -0.22811795583652503 -0.004649328256988049 -0.3222023131281337 -0.2973267601316435 0.08169942983668152 -0.30694383215734783 -0.4306882688199198
0.37958549339084907 -0.08406635305033204 -0.44886933772260273 2.2748222757129195 -0.2702949023839757 -0.10070610333137563 0.25179426792452125 0.5270279424008786
-0.10596222131260995 0.1139773510631992 -0.2215481340257315 -0.0641014367785543 0.4041142493178292 0.026026688485933588 -0.21819701655434506 -0.23151485910915445
-0.3368798155292201 0.14115498587356734 -0.38359746039903575 -0.33935227309671306 0.08311921439974565 -1.861613461891634 0.47466095978837414 0.4180108021002808
-0.228507265406163 -0.06561743465438749 -0.3824077658958459 0.2848790950448806 -0.25711653221422676 -0.9699646433192745 0.5081245354641718 -0.0039007834530458483
0.17376309145799973 -0.281566411314734 0.5556788622680738 -0.2360023235712342 0.36202640032328826 0.4352386637881643 -0.12911245168589947 -0.15073531550126784
-0.43873365900589717 0.1342322610165954 -0.16975379153000628 0.4306278509997493 0.050650888671081834 -0.31510302969574044 0.49114425820870644 0.016922201645298528
-0.1335594007636038 -0.17474785245905275 -0.3838665730102611 -0.16897937658583004 0.3731878687964189 0.3537687137618631 -0.25122905412597757 -0.016043964967639955
0.3373954130938335 0.33374812987452884 -0.21489076004424204 0.08607443866575305 -0.44651171151484675 -0.022995477273655314 -0.11261194150306474 -0.3931088388184873
0.18957153315937364 0.35592377422376126 -0.005047908393720497 -0.1727446324920411 -0.25975026933863415 -0.3049731481921885 -0.04518341683970237 0.1483194331593682
-0.29206842595262955 0.14435961389036606 -0.3617611061588383 -0.2785156249515227 0.2614792556378914 -0.23778287213590105 0.19520608935291056 -0.3245260115246466
0.3601643481475281 0.5153411260819022 -0.0766282468316061 0.1804947446795675 0.26886051760098917 0.4547829498322879 -0.07008390288486618 0.45198184594209967
00000000: 2f34 4c2e 4534 a03f 3181 dd40 d6bd d33f
00000010: 4f89 7703 12df d23f ff34 26c1 785a 67bf
00000020: f88f 7d7b 0f31 d0bf 7956 4d35 25ef c3bf
00000030: b11c 6ecc 05c6 dc3f c02a 4a3e 012d d2bf
00000040: b511 1758 edfb d43f f13c 1d2d 0423 d23f
00000050: 2173 9372 a0d2 cebf 44bc 82ba 9603 c7bf
00000060: bf4a 3e90 7a7a d4bf d509 429f cfc1 913f
00000070: 23d3 4a21 bb51 e0bf 4c8e 1178 0a0f 7cbf
00000080: 40af 9737 a705 bc3f 66a5 98ee c524 d33f
00000090: d2b7 8152 a83d cabf 95e2 9b3d 8030 d5bf
000000a0: a15c ea46 c14a dc3f 4bdc f013 d6dc c8bf
000000b0: ab0b d399 98c6 d63f db59 c019 a750 d73f
000000c0: e07f 910c 7da6 fa3f fcf5 0c4b c4a4 d43f
000000d0: fb1d 611e 3305 d03f 0a87 614b b10e e73f
000000e0: 183d b2a0 d711 b33f f0dd 7964 22b5 cf3f
000000f0: c1dc d1bc 45a7 cabf 2e73 f952 61e2 d1bf
00000100: 2bbc c8dd f714 aa3f 24bc 0a2d 46d4 c9bf
00000110: d73d 27cd 75d4 b53f 1ea8 f0f0 3e4f da3f
00000120: 6797 b0ae 3b00 cb3f cdc3 9352 471a d83f
00000130: bb86 9188 f184 bd3f 8d43 da8f e294 b5bf
00000140: 24ae 6f6e 63c0 e1bf cfde ca66 7dcb c8bf
00000150: c36b c186 ec74 ce3f 7c06 12f9 67c8 c9bf
00000160: b104 ffaf 4a8c ccbf 39b4 2e0a db6a e3bf
00000170: 6d03 d41a 3f87 bc3f bccb fc60 5355 d73f
00000180: 9a5b 0ea0 6c0e bdbf 3fd8 a631 c0a1 eebf
00000190: 341a 2004 ab73 e03f 032a 1daf a801 dfbf
000001a0: fde6 394d 008d d93f a3cb aa2a 8e3e ccbf
000001b0: 47f5 7577 dc04 be3f d38a 2244 f29f cabf
000001c0: 1c66 12f3 e355 d6bf 13e9 0315 d665 d33f
000001d0: edc6 e2b9 c1ac b03f 84ed ef6e e274 ce3f
000001e0: 2248 2190 0357 de3f 62e1 396e 6987 d53f
000001f0: c14b 252f bde3 d0bf 5fbe c072 55e4 aa3f
00000200: 5faa 3297 fbdd d43f d3f8 ce93 1501 d7bf
00000210: ff41 bc14 6eaa b2bf 4f19 74ee be20 d53f
00000220: cb8a c7e4 d374 cb3f 633e f581 28d9 c5bf
00000230: 9f5d 0165 0923 cb3f f3e2 988e 75a9 dabf
00000240: f597 7a46 cb1b c4bf 9e30 c070 cdcb da3f
00000250: baca 55f5 c826 db3f e3a6 fa76 4028 ca3f
00000260: f7f9 4bf5 ae56 b8bf 952e 5c48 f5f3 d6bf
00000270: d764 9c7e 32fc dbbf bfe8 64e6 e596 c23f
00000280: fd21 f797 6a2d d6bf 2a25 eeaa 28b2 c93f
00000290: c522 f6ea 5de2 cfbf b22a 397c a5a6 cbbf
000002a0: ba15 e50a 83af b5bf 9d32 d673 d8c6 d13f
000002b0: 3512 807e e5c8 993f d169 5f27 044b 8cbf
000002c0: 02a6 7581 802e ca3f 0d4f 8ccb bf3d c93f
000002d0: a050 3267 c937 bebf 7479 c862 d4b6 d93f
000002e0: 0f3a a667 1162 a33f ff30 5276 5caa 913f
000002f0: ff77 066e b7c6 58bf afc8 2d2e 6b34 ab3f
00000300: 8bd2 701c fbc7 cc3f 8459 6485 fbf9 ca3f
00000310: 6b57 e413 014a d6bf b171 a0a8 1843 d4bf
00000320: 6caa 57ab 2251 a13f 15b1 be90 98a0 e03f
00000330: 0ce4 c436 052f ddbf 5a5b 5019 542d a13f
00000340: fb80 dd35 7a4f c53f 2b60 f91b f832 cdbf
00000350: 7f7e fe8c 2c0b 73bf 3b2d 6573 f69e d4bf
00000360: 4a6d bfd1 6607 d3bf ce19 40fb 40ea b43f
00000370: 3fc8 34be f7a4 d3bf eb8d 5687 6590 dbbf
00000380: 0795 09f4 204b d83f ff8f 0b5d 5f85 b5bf
00000390: 4c87 6c75 46ba dcbf bc31 7305 d632 0240
000003a0: a6f0 80fd 824c d1bf dfdb 500c e0c7 b9bf
000003b0: d396 83b4 651d d03f 0814 16b4 69dd e03f
000003c0: 4330 2613 5720 bbbf 4218 4da3 9e2d bd3f
000003d0: 09af 1073 b05b ccbf 292b 97a6 f368 b0bf
000003e0: 0dbb 2a03 02dd d93f 9f26 7b7f bda6 9a3f
000003f0: 73c4 173d e1ed cbbf 07b8 3466 47a2 cdbf
00000400: 545a 985b 708f d5bf ac45 ffd7 5d11 c23f
00000410: 5885 cf5c dc8c d8bf 5f83 b198 f2b7 d5bf
00000420: 6e20 8403 4d47 b53f f6e2 8932 2bc9 fdbf
00000430: 8fa8 be5c d860 de3f cb4e 1961 b0c0 da3f
00000440: b6af e8df b93f cdbf b654 e3df 4dcc b0bf
00000450: ce94 106c 5e79 d8bf a209 2287 753b d23f
00000460: 07bf 47e6 9874 d0bf 91a4 aa4a f309 efbf
00000470: 55a4 c362 8e42 e03f 8fec 812b 89f4 6fbf
00000480: 0830 8875 de3d c63f 6fed 0f20 2f05 d2bf
00000490: bda2 9009 1fc8 e13f ed5c c2fa 5235 cebf
000004a0: 0c56 6bc7 702b d73f a531 bb44 f3da db3f
000004b0: 20a8 bfbe c186 c0bf 6010 3779 4b4b c3bf
000004c0: 736c 4557 3614 dcbf 7234 91d1 852e c13f
000004d0: 0927 7f03 7eba c5bf 929a 321e 688f db3f
000004e0: 9415 b6cc e9ee a93f 6c7a dae5 a52a d4bf
000004f0: 04f9 a753 e86e df3f b64d 92ba 0d54 913f
00000500: 4730 2d75 7918 c1bf 83ce ad3b 235e c6bf
00000510: a5d3 461a 4591 d8bf d73a 11c0 1da1 c5bf
00000520: d7a6 ef5e 4fe2 d73f c921 fd87 25a4 d63f
00000530: 6bab d106 2314 d0bf 2634 5643 d46d 90bf
00000540: 3cbd 43ee e297 d53f 8062 ba1d 215c d53f
00000550: 1922 4d59 8a81 cbbf a149 1773 f908 b63f
00000560: 292f 8fdb a593 dcbf 3292 625b 208c 97bf
00000570: e70c e5dd 22d4 bcbf af9c 9ff9 b128 d9bf
00000580: 0607 9647 e143 c83f 7f3c 8a82 74c7 d63f
00000590: 0880 6d97 1dad 74bf 0d72 8e01 7f1c c6bf
000005a0: abf1 fb97 bf9f d0bf ed30 6918 ae84 d3bf
000005b0: 2cce 4be3 4722 a7bf 6fef 6395 21fc c23f
000005c0: 9749 6ac4 3fb1 d2bf 0adb 4236 607a c23f
000005d0: 0ab0 fa0d 1827 d7bf eadf 2533 33d3 d1bf
000005e0: c904 e37c 13bc d03f d2b2 af4d ab6f cebf
000005f0: 5e1a e05c 83fc c83f 7fc7 8cbf 08c5 d4bf
00000600: 85a4 1ec4 ee0c d73f 55c7 59ac ac7d e03f
00000610: ba70 17a6 e89d b3bf 88d2 bfa8 731a c73f
00000620: 560a 92be 0235 d13f abb7 13f2 291b dd3f
00000630: 96d5 ddc6 04f1 b1bf f43f ad43 45ed dc3f

bias f8 [50]
-0.3560585673933404 -0.09586041651835535 0.4546636818939162 0.026362302682464055 -0.06930345870618712 -0.2655718399962994 -0.09806003510268538 -0.0061462488857492925
0.5367049385314192 -0.09126713745792836 -0.3273243230151437 -0.03153215931929646 -0.2853921749063091 -0.3145267563130525 0.33277942564102764 -0.15204804177209455
-0.03518079700383958 -0.3590575555590626 -0.04233410775721127 -0.20583145432233174 -0.3534038372182633 -0.10914251776686029 0.13127171801325832 -0.11818253067940165
0.4938649600677148 -0.2939002854484886 -0.10237279055008253 0.3797296921809691 0.2137611810941404 0.4438809024772027 0.16824899554539022 -0.3612235415644389
-0.37802057857334254 -0.13511192388541013 0.07236198558626832 -0.15374713386591982 0.21493627239033353 -0.03286789677923364 0.06135641238674616 0.008063362372120318
-0.463829189177136 0.10806872769633097 0.15363705689495935 0.08187050097677316 0.06130517600900411 0.4355367912366318 -0.09135031621011867 0.3597092751590024
0.36718394158550516 0.4621252037339098
00000000: 828f 9adf a9c9 d6bf db61 ede9 4e8a b8bf
00000010: cb73 1ab3 3519 dd3f 5647 792f b8fe 9a3f
00000020: ee8b a418 dfbd b1bf 1c73 e107 21ff d0bf
00000030: 7a86 cf63 761a b9bf d762 511f cf2c 79bf
00000040: 2903 d3d5 af2c e13f a0d2 947a 485d b7bf
00000050: b443 a2b7 e1f2 d4bf 55e7 18b2 fb24 a0bf
00000060: 3471 708a dd43 d2bf a837 05d5 3421 d4bf
00000070: 6f3b 7a13 424c d53f 957e 6a6b 4f76 c3bf
00000080: 204c 28a9 3703 a2bf 0e81 a08a ccfa d6bf
00000090: e326 a5f0 d0ac a5bf 64b9 6662 af58 cabf
000000a0: c888 c820 2b9e d6bf 5c69 6998 c3f0 bbbf
000000b0: d8da e0fb 82cd c03f f8fe 39d8 3541 bebf
000000c0: 4565 08c7 7b9b df3f 1f53 9224 43cf d2bf
000000d0: 58b1 696b 1a35 babf b631 4fc4 7d4d d83f
000000e0: bf11 fac0 865c cb3f e658 dd71 8b68 dc3f
000000f0: fde4 b9de 2e89 c53f c821 6458 491e d7bf
00000100: 1300 8c39 7d31 d8bf df98 31f7 584b c1bf
00000110: b30f 91a9 5086 b23f f267 e76f fcad c3bf
00000120: 2c00 5222 0883 cb3f 119e 829b 0fd4 a0bf
00000130: 90b1 3391 1b6a af3f 2cf1 782d 8683 803f
00000140: 348b 9c9f 60af ddbf fc12 2d63 64aa bb3f
00000150: 35a5 680b 61aa c33f f7ce 3314 77f5 b43f
00000160: 3382 115c 6463 af3f 323b a4b4 d5df db3f
00000170: 370a 9afc bb62 b7bf ca0c 380d 7a05 d73f
00000180: bc78 2e13 f17f d73f 5b72 2c97 7593 dd3f

weight f8 [50, 50]
-0.07935805444693943 0.034019841724881275 0.12328012003317008 -0.06908172939826898 -0.03941080148054436 -0.1354713015793787 0.0711365415758014 -0.08339124874060509
0.07227256622089064 -0.015229407417356632 0.06766552449985525 -0.10955206575403442 -0.19672969935630477 -0.03341191862554022 0.09805545524790274 0.11904321831502551
0.0940962585497145 -0.021007325652597674 0.045426573373820896 0.12781802191480868 -0.06454152161170235 0.09698819901938105 0.05022918593782589 -0.07740300550748368
-0.09635114107975726 -0.024134503768656643 0.0033489795638368303 0.0067778857472995694 0.09238435528957727 0.19703904998872274 0.05484355611536302 -0.09031102348646255
0.10123444255623772 -0.041149259238668585 -0.06250906377013615 0.08039033242134144 0.16655713335414582 0.14496012781110604 -0.06706068455475142 0.10223606197264375
0.12025714767337785 0.0701655617359612 0.07732918679141806 -0.091198508496581 0.11342349920648666 -0.03333934599520844 0.05687184028330573 0.09859193820762623
-0.0029126838933942276 0.01141657262300351 0.12575450067178928 -0.15945750787655324 0.01949527278039256 -0.0644421279973007 -0.01642140884952448 0.06550681966232398
0.18369202911296695 -0.184243717492473 -0.02916981790095869 0.1162227862637878 -0.08641549957419763 0.025284446697099484 0.006165849702860564 0.10183622297128485
0.018026851676460433 0.014377362474558078 0.09294305035270008 -0.13389839845827853 0.10383383789251885 0.07862967349627685 -0.10170814051128582 0.125975846400636
0.11821203421224735 0.06752018213544524 0.006579797701702088 0.11409579295313897 -0.03678471587455922 -0.04439417687624129 0.04198064510442245 0.13501477093906286
-0.12714266009533662 0.09419539001841326 0.12073281578021534 0.0006006840011932019 -0.0714114261415201 -0.13767421113455142 0.045228716987145284 -0.1277602018515347
0.03841945100691572 -0.10879367565472572 -0.11923718159214922 -0.06285852482323076 0.0995866538031058 0.0978103483403603 0.12153298328851626 -0.013136620007164057
0.0921612825793165 0.1103876702437584 0.0932050230092057 0.11636624646381277 0.026391493482687614 0.16503698068126238 0.010176032567186293 0.00901074898036862
0.03941630887540982 -0.07654184112154393 -0.027256995706503473 -0.058551713752268336 -0.040995272494454164 0.05483721355826048 -0.06423301116189474 0.03890760730344317
0.13833068507923013 -0.08369038556011316 0.03916312007850282 0.1409924334252196 -0.03453439591845207 0.11364113688684734 0.1735609715543625 0.0924437355878607
0.061336922496416084 0.055762288513151875 0.13818086264117058 0.0685752156771915 0.04506302964621796 0.1537126214821588 0.04854263506320147 0.06487226475713244
-0.23098312370933702 0.07485402163283662 0.017981697371464992 -0.013548294735831759 0.07132269920157502 0.22599181517613356 -0.04180952896675178 0.2109863678472628
0.15477937172131295 -0.08755895393609141 0.09302287070416242 -0.01132300762755844 0.06359455509115723 -0.03488194618044804 0.17440918152116777 0.015150344660281716
-0.08024410903389406 -0.04615122797136719 0.018101605029073806 0.10930645461640176 -0.04219407587953615 -0.07137451993019565 -0.13330611391118 -0.03805855083482224
0.11066662792813871 0.05417758256108914 0.013289572414023851 0.057748532491712266 0.10935891594091383 0.015047605295381527 -0.09410066229592916 0.02109803846062199
-0.09940104631807574 -0.0303601826005877 0.13767629071446294 -0.1207312067220086 -0.030622281214444196 0.08055462133755066 -0.12934709862181354 0.029218934461259786
0.01978905106189555 0.017766442174516225 0.1143922638780001 0.01643259952918846 0.09524020626147321 -0.013374336027594648 0.0845467201019844 -0.12000783082754644
0.08741370607407493 -0.06775543440366658 0.013218201689259433 0.0613442999778013 -0.0984228026452741 0.05088554283544615 -0.11270753173819904 -0.05194961804230362
-0.004512936389256195 -0.01265884354215142 0.0456507634545978 -0.046135476966632276 0.05971471965366017 -0.0556966740007262 0.10197835124406789 -0.07001165648925
-0.05611429200003029 0.0988414657073416 -0.07333197610708515 -0.112325394482401 0.09256980101273225 -0.13626597228203427 -0.12614037864795033 -0.011957582087209108
0.06276227370849169 0.1773360461574496 0.06777836289276444 0.1373976168730849 0.09351043904516528 -0.028601653336558893 -0.01198579662039167 0.18755379547294493
-0.14879656160464738 -0.17221829325402915 -0.02435602030177077 -0.09650584579889886 0.26753786739630286 0.06818065149889756 -0.1228199429304325 -0.1633418117389211
-0.049222597372328813 -0.0037199673613058323 0.036870283484068865 -0.09150431699797239 -0.03699657816436773 -0.0652944005676698 0.029986883340470425 -0.08953209868654954
0.1582831150758183 -0.05016476145077176 -0.10477831121158288 0.12756606254071892 0.06691004872760668 -0.07955710297458857 0.0247001993087487 0.012467805750758267
-0.10412559037214641 -0.24056316151530033 -0.0714801599958349 -0.06781125341851302 0.015137278339784965 -0.0313079415212118 -0.032108240831128454 0.10773348037867164
0.08935193600992843 -0.014184874218909205 0.058473359602570434 0.17034603216669714 -0.06414678811702813 -0.02076681298403273 0.09677928360469416 0.11971004538120275
-0.001716480357359011 -0.0071584196836278185 -0.05150872500864905 0.09032421409465267 -0.005082743710411376 -0.1075386737032863 -0.023927528713275047 0.10580676828902609
00000000: 3f17 8638 cf50 b4bf 5236 3f77 0c6b a13f
00000010: 6d17 ca33 498f bf3f 9a45 8418 57af b1bf
00000020: 05a9 ef0e a72d a4bf f03c eaa4 1f57 c1bf
00000030: 505d 9e1f 0136 b23f 570e 1dfe 2059 b5bf
00000040: 8914 5174 7480 b23f 662c 5c76 9830 8fbf
00000050: 1427 cb1e 8752 b13f 1871 9fab 9a0b bcbf
00000060: 1f91 7154 702e c9bf 892c 96f3 5d1b a1bf
00000070: 32f0 7b8d 291a b93f 583f 79c9 9d79 be3f
00000080: c1a0 2541 b116 b83f 6308 9ec2 f182 95bf
00000090: 4912 05de 2642 a73f 7254 fb47 575c c03f
000000a0: 386c 8e0c cb85 b0bf c0dc e2f6 37d4 b83f
000000b0: 81b9 d0cd a3b7 a93f bf49 44f1 aed0 b3bf
000000c0: cead dee7 77aa b8bf 79f7 9021 b7b6 98bf
000000d0: e9ed 73b6 516f 6b3f 234a eed9 20c3 7b3f
000000e0: bb7a a148 80a6 b73f c244 de59 9338 c93f
000000f0: b9da d25f 7414 ac3f 8eb7 578c 9f1e b7bf
00000100: 4101 021c 80ea b93f f991 5e05 8411 a5bf
00000110: fca7 9810 9800 b0bf fa0a aaf8 7594 b43f
00000120: e9f5 5580 be51 c53f 651a 16b0 0d8e c23f
00000130: 4e91 0297 e32a b1bf 15f3 a47e 242c ba3f
00000140: f30d 5e24 2cc9 be3f c61f f6c8 5ef6 b13f
00000150: 5ea0 4b78 d8cb b33f b3d1 6f13 c958 b7bf
00000160: f192 b08b 5209 bd3f 995b 70d1 da11 a1bf
00000170: 4207 294c 4e1e ad3f 0742 403e 523d b93f
00000180: 9454 1a42 57dc 67bf 68bb 6270 9261 873f
00000190: 08e6 da35 b918 c03f 093a b786 1a69 c4bf
000001a0: 87d3 129c 91f6 933f 54a9 3b80 477f b0bf
000001b0: 4110 da17 c6d0 90bf c959 1d10 0ec5 b03f
000001c0: c2bc c96c 3883 c73f 43d3 8f52 4c95 c7bf
000001d0: b2d9 a857 b1de 9dbf 398f 0dca c6c0 bd3f
000001e0: fbe6 8980 531f b6bf 9a5f a57e 2ae4 993f
000001f0: 52a1 36ad 5c41 793f 93b7 354f f011 ba3f
00000200: 9ad8 9989 a175 923f 2837 0ced e071 8d3f
00000210: 95c3 a7a1 1dcb b73f 0bbb 2e2d 9523 c1bf
00000220: c66e f7b9 da94 ba3f 0363 2904 1321 b43f
00000230: 4ea2 3b71 8b09 babf 1936 30fe f91f c03f
00000240: 986b efd4 2443 be3f b379 17ae 0049 b13f
00000250: c5f6 16ff 6af3 7a3f 9f4c 58c3 6135 bd3f
00000260: 4f07 593f 72d5 a2bf 85f1 a163 d5ba a6bf
00000270: 3fb3 93b3 7c7e a53f a381 d4fc 2948 c13f
00000280: dd98 84ef 3546 c0bf 0824 9067 301d b83f
00000290: 097c 5487 58e8 be3f fb28 f711 e7ae 433f
000002a0: 1aab d6eb 0448 b2bf e6a9 29fd 4e9f c1bf
000002b0: 2483 99e8 3728 a73f b862 5740 725a c0bf
000002c0: 95bf 35db b6ab a33f 96dc f2fe e6d9 bbbf
000002d0: 76ce 67f3 5386 bebf 12fd 630c 7f17 b0bf
000002e0: 5ed1 33cd 827e b93f 110c 5557 190a b93f
000002f0: a907 9c1c c91c bf3f ed69 7c4a 5fe7 8abf
00000300: 4cb5 a2be e197 b73f 781d 94c9 5d42 bc3f
00000310: 55c0 a5cd 48dc b73f 289c eba6 2dca bd3f
00000320: b45b 9a25 5f06 9b3f a80b 5489 ee1f c53f
00000330: 1cfd a1f8 2bd7 843f 9916 7741 3a74 823f
00000340: 010c 19db 5f2e a43f 4f85 6400 3f98 b3bf
00000350: 102a 9604 42e9 9bbf 74a9 617f 7dfa adbf
00000360: f7fe 4e15 55fd a4bf 4749 ac8d 9f13 ac3f
00000370: a191 431a 9371 b0bf 0828 dea9 b2eb a33f
00000380: b26a 39e4 d1b4 c13f ac66 f8ac bb6c b5bf
00000390: 699a e43f 300d a43f 34bb 4541 0a0c c23f
000003a0: bd1d 1d0a 7eae a1bf d3c5 68e6 9517 bd3f
000003b0: 820f 58f4 3e37 c63f 22e7 1185 64aa b73f
000003c0: 0f9c 5198 8d67 af3f 9c38 07eb df8c ac3f
000003d0: ec0a fd16 e9af c13f b151 a634 258e b13f
000003e0: 9aa9 2d5d 8012 a73f 44c8 1fed daac c33f
000003f0: 04c1 1d8c 94da a83f 5da1 8cff 779b b03f
00000400: 1b38 21e1 da90 cdbf a119 e316 a229 b33f
00000410: b14c 8c48 cb69 923f c8aa 7456 35bf 8bbf
00000420: 7480 8854 3442 b23f 892e acbf 4ced cc3f
00000430: e98f 25ff 0e68 a5bf 1925 e7ee 9901 cb3f
00000440: 44b9 d179 cfcf c33f bba2 a07b 436a b6bf
00000450: 7b54 74cb 58d0 b73f bd2c 9f5b 8430 87bf
00000460: 03f8 5196 bb47 b03f f0b7 21e4 0bdc a1bf
00000470: a3b5 6041 0a53 c63f a959 b6d6 2407 8f3f
00000480: ac4a ffbf e08a b4bf 8351 9d3d 22a1 a7bf
00000490: 2c80 6b26 3a89 923f 10b4 d1ff 81fb bb3f
000004a0: 2ea0 f93f 769a a5bf 132e debc 9945 b2bf
000004b0: b97c cdbb 2c10 c1bf d161 560e 697c a3bf
000004c0: adbf b5eb a554 bc3f 6b6c 8d02 2abd ab3f
000004d0: 851f 2b37 9037 8b3f 8b46 e334 3791 ad3f
000004e0: 4f03 7e27 f2fe bb3f 46a5 0365 47d1 8e3f
000004f0: f7cb 1723 fb16 b8bf 66e0 ca64 b99a 953f
00000500: 35d3 1fd3 5872 b9bf bffe 7a5d bd16 9fbf
00000510: 7bcf 066f 609f c13f c446 7a88 3de8 bebf
00000520: 5b3b 6181 725b 9fbf c9ba 2f48 3a9f b43f
00000530: f2e2 341b 728e c0bf 2185 bd7f 91eb 9d3f
00000540: 21d4 84bc 9443 943f af5c 6cc0 5d31 923f
00000550: 4b7b 45b8 cf48 bd3f 6fb7 4316 b5d3 903f
00000560: 3f46 2883 a961 b83f 87fd c0fe 0064 8bbf
00000570: 6974 d295 daa4 b53f fb0f ab4c d5b8 bebf
00000580: 5f70 cfa0 be60 b63f 6ed8 e38e 6b58 b1bf
00000590: 6c08 bdff 2412 8b3f 3cbe 6624 8568 af3f
000005a0: 05c8 8a9e 3c32 b9bf 9688 a27c ab0d aa3f
000005b0: 1915 d49a 66da bcbf c611 10ed 2399 aabf
000005c0: f468 3623 287c 72bf 4657 2638 e1ec 89bf
000005d0: 2a5d 2670 895f a73f a79b 83b9 119f a7bf
000005e0: b22a 0180 ed92 ae3f d07e a842 4684 acbf
000005f0: 1b47 7ed3 401b ba3f 17ca f5ae 48ec b1bf
00000600: f4e6 f431 03bb acbf 15a5 b39e ac4d b93f
00000610: 2d88 2167 e2c5 b2bf 12ed cf67 5bc1 bcbf
00000620: df68 f28b a7b2 b73f 3f26 41d3 2971 c1bf
00000630: 93be 7f30 5e25 c0bf 87c7 0780 377d 88bf
00000640: 8425 0039 3011 b03f f9f7 5293 f2b2 c63f
00000650: 4337 003c ec59 b13f 9b55 82bf 3e96 c13f
00000660: 1d99 88d5 4cf0 b73f afa8 c476 c049 9dbf
00000670: 3d3b 0264 028c 88bf 2803 e644 c301 c83f
00000680: e8b2 ec06 c40b c3bf 6445 a6c0 3f0b c6bf
00000690: c594 a0da c8f0 98bf 373f 946b 9bb4 b8bf
000006a0: 3b28 ba25 571f d13f 8b61 6884 4974 b13f
000006b0: 96cb 2eb6 2071 bfbf 9678 be6d 62e8 c4bf
000006c0: 806c e04b b433 a9bf b57e 1645 5679 6ebf
000006d0: 2343 846b a9e0 a23f c3f8 f2b0 d36c b7bf
000006e0: be4a 8f2a 37f1 a2bf 1ad1 0c43 22b7 b0bf
000006f0: 4970 06ad e1b4 9e3f b00c cd5b 93eb b6bf
00000700: 053c 6101 9f42 c43f 3177 af13 32af a9bf
00000710: 28de fb5b c0d2 babf 798f 58b1 1554 c03f
00000720: f30f 0f57 0421 b13f 94bb 70b3 da5d b4bf
00000730: 686a f150 024b 993f 547d 9e8f b888 893f
00000740: 3837 5385 f9a7 babf 7850 aa0f c6ca cebf
00000750: 98b5 7e15 864c b2bf 58b8 bb0b 145c b1bf
00000760: 86cd 5b1b 4b00 8f3f 589b e031 9807 a0bf
00000770: 0884 9ac8 7d70 a0bf 8420 e9de 6b94 bb3f
00000780: a136 ffba c4df b63f 6dd8 f196 f50c 8dbf
00000790: a74e 5c5e 38f0 ad3f de64 9416 e6cd c53f
000007a0: e127 1b85 ec6b b0bf a52c 6f3a e543 95bf
000007b0: 4331 03f2 86c6 b83f 9e39 ea49 51a5 be3f
000007c0: 45fb f0bf 701f 5cbf de63 eaa6 2552 7dbf
000007d0: 27da bd02 5a5f aabf abcc 92d9 7c1f b73f
000007e0: 68a4 29a0 a4d1 74bf 595f 9c8e a787 bbbf
000007f0: 96c2 3045 7580 98bf 652f 7f01 2716 bb3f

bias f8 [50]
-0.05768279089935639 0.031679372749126966 -0.10635037210404873 -0.11938329383583923 0.043143409888616154 0.09886635231585221 0.022570042343493937 -0.1363072440778293
0.12736599415704802 0.05838569635468723 -0.09968303619286488 -0.013952272414497329 0.05999483342690151 -0.13293101052706907 0.04046386275166315 0.14415667963999004
0.060743046121087184 -0.07303179102040616 -0.07920320483582645 0.039219127461688374 0.09040124202968225 -0.08819313419860564 -0.06805998332192958 -0.0810286848092923
0.0492555449591794 -0.07431560682255933 0.13549784900763517 0.022861468925974834 0.02005383504785011 0.008666488231572962 0.10971216297382859 0.07628896455140036
-0.0300279125659217 -0.02999587846144463 0.046813082938643925 0.04325362097525721 -0.026915851901892215 -0.13703455425486122 0.033858114348108564 -0.053444302376105084
-0.017838928773630896 0.008537002966299504 0.09420270838534431 0.030172911459859512 -0.09992812754167608 0.011026114150345014 0.01383092732548675 -0.09835010711972826
0.008568325351359618 0.09413162745027691
00000000: f6d3 e848 9988 adbf 68a1 d45b 4738 a03f
00000010: b7b4 1a2a c739 bbbf 40b4 b64e e78f bebf
00000020: 09e1 049d e416 a63f 0314 df25 4e4f b93f
00000030: e745 f0e6 991c 973f 5ad6 c209 8472 c1bf
00000040: 5276 c365 874d c03f 0b8e cbe0 bae4 ad3f
00000050: 1f12 6ad4 d384 b9bf e91a cd4d 0293 8cbf
00000060: 94b9 fe8e a4b7 ae3f 5e43 6b23 e203 c1bf
00000070: 225f 60ee adb7 a43f d9df 46e0 b973 c23f
00000080: a356 1969 b619 af3f 523e 0022 36b2 b2bf
00000090: 911d 8246 a946 b4bf f8b5 a68b 8714 a43f
000000a0: 3007 092a 8924 b73f 4860 1d43 d393 b6bf
000000b0: c4b3 880a 616c b1bf a336 4bbf 4bbe b4bf
000000c0: 621f 7ed5 0538 a93f 28a2 e2fc 5806 b3bf
000000d0: 0c44 1557 fe57 c13f 9c98 8035 ff68 973f
000000e0: c973 c216 fe88 943f 64c9 345c bcbf 813f
000000f0: 192e f2a7 1816 bc3f 7a41 cb6f ac87 b33f
00000100: b349 c019 a3bf 9ebf 2edb 0654 3db7 9ebf
00000110: 9d29 7e68 e2f7 a73f 216c 0baf 5625 a63f
00000120: 4f82 a63e d48f 9bbf 1829 7928 598a c1bf
00000130: 2ca1 a8cb d955 a13f dfce b935 0d5d abbf
00000140: 3bb3 b63e 5e44 92bf a26f 5e24 d97b 813f
00000150: 82ad b52f ab1d b83f 91e2 c7cf a5e5 9e3f
00000160: bdf4 bdc7 e394 b9bf 2eeb 6bfd db94 863f
00000170: 4561 4aa4 6353 8c3f 0928 a3fd 782d b9bf
00000180: 2d1a 5329 458c 813f d70e 6ba5 0219 b83f
