lasa_models/6/skel_model_Snake.pt (torch, 99247 bytes, 18 tensors)

R f8 [20, 20]
00000000: 67f1 d973 bc11 e63f d38b 0e38 3f25 c73f
00000010: dc9c a5a3 0414 d63f 7bb4 fad5 8526 db3f
00000020: a37d c16e dfdc ea3f 0bd9 4221 6a42 c43f
00000030: c752 28b9 edd4 e73f d608 924f c521 c73f
00000040: 3b64 9e9a 313b f03f 9642 07a8 ddbc bf3f
00000050: 431b 1e9b c369 ea3f 9397 e8b2 1f26 db3f
00000060: 740c e017 8b4d cc3f fbb3 6e87 080f c43f
00000070: 8b97 5f73 c1c9 e03f 4977 0d50 b0b1 e83f
00000080: ee0b ab6d 9957 ec3f 34a5 b408 9b03 e73f
00000090: 6451 f38d 9593 ec3f 57b7 e982 7804 d03f
000000a0: 81db eeca d76f c13f a0a2 c1b4 b073 eb3f
000000b0: b766 971d 6727 a4bf 2fc3 22fe ca91 cb3f
000000c0: 85ea 3666 d4ab c33f 8ccb 42fe 4afe dd3f
000000d0: b25b 8c53 cec8 e83f ea7f 47d6 f666 e93f
000000e0: 1035 27a9 7e08 d23f 4c5f 0db5 2dfc e23f
000000f0: cab5 58ee 9f7d ec3f e7ce fc93 889b ea3f
00000100: ad2a 01d3 81e3 d23f 9e27 ea98 7d8b f23f
00000110: f3d5 9794 bda3 d73f 3844 7dc5 3986 cb3f
00000120: 5102 000a 47ac de3f ceae 39ed ceee cd3f
00000130: c2c4 c819 e6bd 9e3f a2a1 eb85 d8a6 be3f
00000140: 7e27 c4d6 c48e e83f 1f61 72df 5292 ce3f
00000150: c8d2 ac0a 4d12 cb3f ee43 d7e4 8d69 e53f
00000160: 6f85 8f10 6f23 e43f 8632 d677 2d55 d13f
00000170: 6932 3508 189f d53f 5b0b 5081 ef98 e73f
00000180: 801b 02bd 0860 e93f 5ead 92ea ddda cd3f
00000190: eac6 6b42 c694 88bf 5742 f1b6 fb29 e33f
000001a0: 110d ad5d f352 ec3f cbf2 ec8e 9ab8 df3f
000001b0: f1da f2b5 3646 d33f 1721 8c4e 3421 e83f
000001c0: b597 82f3 a85f ec3f 005d fbfe cb20 c53f
000001d0: 6e6f 58f2 6083 ec3f 1c46 01d4 2661 de3f
000001e0: d77c ccc8 4e94 e93f 5f41 af16 8a9e e33f
000001f0: d663 2c3b 864c d83f 284a 4a3f 1f95 d63f
00000200: ef8a 38db 89c0 a83f 41b2 4a04 5985 d03f
00000210: d76c 7aa4 5985 ca3f 9ee7 13be 7e6a eb3f
00000220: afa7 967b ef84 eb3f 9d2f 2de8 724b e23f
00000230: 627c 5435 3851 eb3f 96e8 85d7 8f8d adbf
00000240: 9a5c 01a2 786f e93f 05c7 1649 fe1e e03f
00000250: 20f1 9cc6 df76 c93f 4fcc c416 3c23 cb3f
00000260: cc66 cee4 e453 d93f 4932 d668 7e50 cb3f
00000270: 9b62 bab0 0f72 e73f 1ec2 d29b 1381 d63f
00000280: d028 6fa1 fdcc d63f 2cb6 7634 e999 d33f
00000290: 92a3 64e6 23b8 eb3f 7f45 66eb 9e85 a13f
000002a0: f8c5 50fa aa5d e13f 6076 c5a5 c29a a93f
000002b0: e604 9d81 3573 eb3f 5fbb a979 7eb6 e83f
000002c0: 6744 084b dd29 ce3f 0c11 5569 1538 ef3f
000002d0: 8904 8b2e c873 e93f 7255 7b41 8c34 d43f
000002e0: 7e89 a487 56e7 e33f 112a e3ef d24b e13f
000002f0: e4a3 0b6e 86ee db3f efff a7d6 3e0f d43f
00000300: 4807 b688 afd6 d03f ef89 6409 7a50 e23f
00000310: 32a3 d460 da7a e13f d5eb 969c 6f4d d43f
00000320: bb93 50ef ba6d da3f cadc 0d0d d1c4 da3f
00000330: 9033 e69c 79a6 e03f c034 ea26 e5a9 ca3f
00000340: 6096 5252 b345 a13f c6e5 970e 9af8 ee3f
00000350: cd6d e2f1 942f de3f b1c2 1c22 00f8 86bf
00000360: 5bcd 421f 0e24 e43f 12d9 9caa 5761 d73f
00000370: 9b0d b40a f164 db3f ccff e14f 4273 ba3f
00000380: aa67 6c27 f10f d53f dfd4 ee07 de47 eb3f
00000390: 3dd3 64ae e166 b5bf 4f76 747c ad7b e53f
000003a0: 6205 c00d 69f9 e93f 9165 cbae ae4e c63f
000003b0: 6166 b597 1d2a ea3f 1a83 7e8b 2830 9dbf
000003c0: 7d09 8f9b 9344 c03f a384 7538 a8d8 cb3f
000003d0: 7f53 78f2 5573 ef3f 9b88 30e3 6c12 d13f
000003e0: 12d8 142d 8919 e23f 1b43 21e7 658d e33f
000003f0: 4223 1392 7a78 d83f b5c7 61b2 c20d de3f
00000400: 0b11 3b7b 5af4 cc3f 0eee 44a5 ba28 ea3f
00000410: 6403 9702 b9a1 e73f 3b02 54d2 c8dc eb3f
00000420: 0042 8347 2dc2 ea3f 0759 08b0 501c e73f
00000430: 7d7b 2fd9 f11b ee3f 8989 f779 064e d83f
00000440: 0add dd31 71c3 f13f ffa2 d987 1215 e93f
00000450: 64b4 9647 94cc ee3f 2a67 d7b6 a955 e43f
00000460: 4058 0344 5b84 e43f b256 734f 744f c83f
00000470: e05e 2234 3042 b63f fa7f 24f1 bf4f 463f
00000480: 4820 1392 f685 df3f 28fd c9a5 5ece d33f
00000490: 19cf 3852 ecea e43f e01b db20 c6a7 ce3f
000004a0: e2d4 ec42 1799 c63f faea 968a 57c4 eb3f
000004b0: cbfe ea96 adea e03f a57d 30b4 3c63 e13f
000004c0: 1307 3c73 ac23 c13f 0565 28fe dae9 cd3f
000004d0: a18c d243 3164 c43f 542c a6f8 27f1 c43f
000004e0: 5138 26de e7e9 f03f 6d42 a3e9 a1fe d63f
000004f0: 29ba 5d67 7780 f03f 60f3 0c56 ae52 ee3f
00000500: 04ca c5d1 2386 913f 7c9d 65c4 e91e d33f
00000510: 3674 47ad bba2 e33f 6272 eb7f 988d d23f
00000520: 1f8d 335d 8948 c83f 7956 9462 f9a3 ce3f
00000530: 3db9 0b7c d775 e03f 11ba 87ec e4a0 e83f
00000540: 4014 70aa 940d e23f 1612 0661 3c6e b43f
00000550: 0f5f 69aa bb95 b03f 2c61 2c03 ce1b ee3f
00000560: 4cbe 1569 e57e d83f 9d81 f87c e538 e13f
00000570: 40f1 94a8 d427 c53f 6d90 47c1 74bc b8bf
00000580: da0d 8f7b 8217 d83f 208b e3d3 4401 c23f
00000590: 0495 a48d ecd2 e43f f9c6 6e30 68ef ee3f
000005a0: 3d3b 9506 dcd8 c23f 37a6 f67a d13e e93f
000005b0: a95b ebb8 db1c e43f 777e bb99 acff f23f
000005c0: 48af 6cf4 a491 e33f f6f1 c884 baf2 e53f
000005d0: a3c4 fa2a 3de6 e93f 79d6 a0c1 051e c93f
000005e0: 86e0 ffab 7a83 eb3f 60fd ce65 57fd e33f
000005f0: 83e7 2397 ede7 e43f 544d 6985 dc4b eb3f
00000600: bea9 8c11 9ad6 e53f 3d3a b644 7977 ca3f
00000610: e11e e8a7 e8da e03f 1a91 f456 8018 ed3f
00000620: 0edc c2b3 4aef bb3f 36dd 93a5 567d ec3f
00000630: b90d 3d5c e68f e33f f2e5 fc16 cc1f ee3f
00000640: 8c25 a8b3 bcb3 ea3f a670 1e2a ddb9 e43f
00000650: 3236 b5ef 8187 e43f 76f0 8cdc c3ff df3f
00000660: 4beb 071a b96f e83f 038b 23b2 eaa8 eb3f
00000670: c5af c420 3263 c93f 7e11 aeae 87f6 a23f
00000680: ad3e 98bd 95f8 b13f 718d 729e 9e5c c93f
00000690: d5f5 b8e7 9062 e03f d1a7 e13f 5f4c ef3f
000006a0: fa04 f71c 18f6 e33f b469 eb29 df55 ef3f
000006b0: 4b1f ecd4 4874 ee3f 56ee 323a 2a44 cb3f
000006c0: 5eaf 2118 a2b4 df3f d069 e404 a088 de3f
000006d0: 6ac1 8bc8 5b1f ee3f faa4 763d 0df3 c33f
000006e0: 5172 2b13 8350 e53f 751d 7f2c d28b e63f
000006f0: 8ed0 9ba5 68da d43f 94cc f45c 34da e43f
00000700: 8807 a314 20ff b23f bf56 1acd 7b7b af3f
00000710: c18b cd62 bd35 e93f 6c64 a0f4 6360 f23f
00000720: 8e79 1908 2e69 d03f eecf b336 365f e73f
00000730: bc70 ce73 0253 b23f fc5f 0487 d2ed c93f
00000740: 7c04 3166 6f71 e73f 3aeb b4a7 e052 df3f
00000750: bef0 480e 9bd3 e73f 9ab8 914e 9928 b63f
00000760: 6f4f 420d c1aa 85bf 886b 1a86 98b9 ec3f
00000770: 5a9e 3b96 f78c d63f 1dd9 1fd7 f5cc d33f
00000780: 58a2 6571 44f1 d93f 2ffb 7d16 f95a e93f
00000790: 7f15 9e35 8c8c d63f 0495 d910 b3b3 98bf
000007a0: f282 0ec3 4700 9abf 38d8 e1ef 9b3e e63f
000007b0: 6b9e 7567 f482 c03f 5144 ff67 ba69 d13f
000007c0: 8a90 109d a6b7 d53f 79cf 8737 79de dc3f
000007d0: 4f42 83be aad2 e63f 5834 6ab1 8b7a eb3f
000007e0: 000a 5032 0899 843f cf7b fdb1 24ad ca3f
000007f0: 7176 1a33 06b3 e83f 1bfd b30b edfb e73f
0.6896650564881782 0.18082418667935815 0.3449718092073917 0.4242262448922884 0.8394620097350763 0.15827681182936035 0.7447422615392377 0.18071810136104344
1.01445160291611 0.12397561409239652 0.8254106549874013 0.4242018935350355 0.22111643472462428 0.15670878041183287 0.5246283772837484 0.7716905177619334
0.8856932775455542 0.7191901369125504 0.8930156490774093 0.25027287277668137 0.1362256756671876 0.8578723459623525 -0.039363119470818324 0.21538674744581374
0.15368132582610286 0.46864580946128664 0.7745124465753774 0.7938188729422084 0.28176847952711714 0.5932835136581871 0.8903350501256508 0.8314860239392744
0.2951359329787618 1.1590553258160763 0.36936892996831644 0.2150337423613864 0.4792649839073749 0.233850351174047 0.030021281551118724 0.11973336476842758
0.7674278444912799 0.2388404456185151 0.21149600049252215 0.6691350431011622 0.6293254207086373 0.2708238287239414 0.3378353195337583 0.7374188924444341
0.7929729167525323 0.23324178651578625 -0.012002514745720078 0.5988749096960174 0.8851258115395543 0.49564231832100053 0.3011605049936597 0.7540532621506227
0.8866772419030357 0.16506338072097293 0.8910374387082649 0.47467966750727597 0.7993539735652132 0.6131029551561759 0.37967067507412133 0.3528516882007886
0.04834395218883524 0.2581388990318239 0.2071945241085362 0.8567498886543381 0.8599774755323234 0.5717100653359811 0.8536644975282679 -0.057720656451196437
0.7948573269049064 0.503783362152007 0.19894025037673035 0.21201277839427 0.39574549049721663 0.2133939754388783 0.73267349736405 0.3516282102309861
0.35626164212284284 0.30626897929582486 0.8662280559411661 0.034222570643701815 0.5426840676283851 0.05000885270667932 0.8578135997305736 0.7722771049719589
0.2356526008957502 0.9755961472770038 0.7953835400623045 0.3157072677107272 0.6219895028373654 0.5405058560657513 0.4364334177649296 0.31343050920986476
0.26310337401092854 0.5723238166286232 0.5462467089865639 0.3172263173289001 0.4129474007661959 0.418262732265657 0.5203216614187216 0.20830978775157938
0.03373489742197644 0.9678468976045955 0.4716541635659411 -0.011215210953737427 0.6294012651982642 0.36531631146807897 0.42803598447081875 0.1033212132479086
0.32909802293726875 0.8525228648128652 -0.0836010981336814 0.6713473730812413 0.8116956013256351 0.17427619490517235 0.8176410639818635 -0.028504022134828146
0.1270927915157464 0.21754935032644082 0.9828290687315614 0.26674959360583167 0.5656171684738658 0.6110105051285218 0.3823534418593689 0.46958987636673594
0.22620707528233938 0.8174718120494064 0.7384915400108238 0.8707012279483658 0.836203231499951 0.7222064436089405 0.9409112207321041 0.3797622862895414
1.1102153728405164 0.7838223126719582 0.9624730489937403 0.6354569026109165 0.6411568001156027 0.18992475394650438 0.08694745323952757 0.0006808936325661812
0.4925514627943852 0.30947080793699167 0.6536771398445779 0.239495054285924 0.17654696243122375 0.8677175242258663 0.5286472270599573 0.543363906795936
0.1339011728924154 0.2336992016796914 0.15930763064998124 0.16360950127668394 1.05710589196271 0.35929153267082975 1.0313638723124632 0.9475928955722388
0.017113265684608706 0.29876178912532914 0.6136148819310907 0.2898923157897909 0.18971364069793936 0.23937909425210416 0.5143849776048125 0.7696404094438681
0.5641578034270722 0.07980706566565518 0.06478474531592958 0.9408941328029292 0.38274512541008643 0.5381953659853483 0.16527803641828065 -0.0966256114839454
0.3764349180821377 0.1406637224782452 0.6507475630247943 0.9667244859649308 0.14724302598411923 0.7889182473783823 0.6285227405268091 1.1874204640552344
0.6115288518826469 0.685879954667654 0.8093553389973248 0.19622871355538843 0.8597997054448718 0.6246754635284724 0.6533115341146501 0.8530104261102829
0.6824465124857892 0.20677104811734806 0.5267222670963428 0.9092408846231905 0.10912005318355986 0.890300105470408 0.6113158990414639 0.9413814972860435
0.8344405659601519 0.6476884672770395 0.6415414506715875 0.4999856618703754 0.7636380680481606 0.8643697242044656 0.19833971595778457 0.03703712470363295
0.07019935492302905 0.1981390260381022 0.5120319867925739 0.9780727622685338 0.623790794918164 0.9792323893300847 0.9516948851241777 0.21301772920365875
0.49539997440910166 0.4770889327789094 0.9413279454147816 0.15585484982629066 0.6660781263740977 0.7045679921219931 0.32583061382980183 0.6516362968017284
0.07420540336445758 0.061488980090115934 0.7878100328201684 1.1485328250621718 0.25641966620414613 0.7303725307851872 0.07157912566475749 0.20257026283866242
0.7325970645835151 0.48943344476326767 0.7445807723047648 0.08655698936647341 -0.010579593865521734 0.897655736847228 0.35235395117931534 0.30938478477709613
0.40535079072882274 0.7923551024722196 0.3523283504112768 -0.02412299909919559 -0.025391694336238176 0.6951427159499479 0.12899642039996037 0.2720781341168435
0.33933415735578676 0.4510787050523884 0.7132161827995079 0.8587091889509209 0.010057510409755999 0.2084089154331807 0.771853542147893 0.7495026806426809

L f8 [40, 40]
00000000: 665e 35ce ee6c ca3f 9e8a 6cd5 746c eb3f
00000010: 8b29 2071 2f1f dd3f 7e26 5dac 6b56 b13f
00000020: abfb c00f e1fa d33f 1107 f9b6 332c d53f
00000030: 1d9c 923b 1d04 d33f 8975 5f8c b648 ee3f
00000040: 9d51 1b5f 8a11 e13f 3ce8 85dd 1e92 d53f
00000050: 1ce4 c285 bcf3 c33f 13e7 57d4 f23b e13f
00000060: 92d7 bdb5 bcdb dc3f e32c 02d2 ec76 e13f
00000070: 1ad6 7f56 b600 c23f 080a 825d 519e d33f
00000080: 2697 0f3f 3ecd b83f 3a2c 2843 96dd e93f
00000090: 60eb dc95 5c0b e83f f64c a28d 3faa c43f
000000a0: 5f5e 0baa 1b4a d83f efb9 e60b f5b9 ed3f
000000b0: f3e1 63d2 c3f2 ce3f fc79 81ad 9717 e23f
000000c0: a9bd 891d 0d7a ec3f 57b6 b8bd e2b6 e83f
000000d0: acfc dc85 9295 e03f bca2 3047 eafe e93f
000000e0: 28d9 b92e 4e25 d93f b527 6d53 5362 e63f
000000f0: b389 baf5 6e61 e33f 4ffa 62b3 93c6 e33f
00000100: 1e17 77d7 264e d13f 88b6 8ce9 62ae e03f
00000110: 512a d66e 039e b73f 086c d947 69ca e43f
00000120: 1765 6b52 ccf7 e43f cf62 bfde 2703 d83f
00000130: 307b fe6f 0ed3 d83f 6db9 2679 08ab e53f
00000140: 2f72 3713 2628 843f 4545 9f2c 6f2c e83f
00000150: b2d8 a664 feeb da3f 9554 4cdb 9c0d cf3f
00000160: 476c b453 25b0 d13f 1ff6 0bec ca6c d13f
00000170: adcd 93ca 1022 cd3f dd8a 7c66 d668 e33f
00000180: d16b bf69 9fba ca3f e28b 8d30 fe6e f63f
00000190: 011d 6d06 322d de3f 8663 2066 ef95 e93f
000001a0: c07c e148 fc0b cc3f ae7c f92f bc82 d33f
000001b0: aa57 8280 1436 c63f 6d32 c533 744c e73f
000001c0: afe0 c2f8 b31c e73f 9ee5 5680 5e26 df3f
000001d0: bdbc 2b38 1aeb e63f 7f26 6796 8f49 bf3f
000001e0: 5b7f 1719 e2a1 ce3f fb97 a250 424d dc3f
000001f0: 9d4d 6757 c908 e53f 0aee bd91 7ad5 db3f
00000200: ced9 8db2 d30d e23f b14b e809 a6ac e43f
00000210: 8d1e dff6 919a e43f 2593 5eb0 2739 e43f
00000220: 3a6d 6e66 982f d13f 22a5 93ac f5a8 e33f
00000230: d78e 9dc6 bde3 df3f 518b 5193 89fa db3f
00000240: e4f9 1a4c 5809 e13f b0b0 5834 042d dd3f
00000250: dbe0 fed4 1c15 ce3f 78d6 b082 e0fd e43f
00000260: 3ea6 135f 7106 c83f cb0f 6275 2458 e23f
00000270: fb97 9d78 deb3 e13f 4e8b 8ec0 be78 db3f
00000280: a6c5 8c3a 69b7 bf3f 8741 da57 f024 e83f
00000290: edde 4dde 7f62 e53f 5f98 b70f fc20 e93f
000002a0: 85fb 8117 e07d e73f a3a9 252a 057f c03f
000002b0: 2469 72b1 09b5 df3f a0e9 d5f3 4073 e53f
000002c0: faa6 2281 16a5 d53f a15e 1325 db5d dc3f
000002d0: 6b33 04a6 9be5 e93f 37be fd70 99b3 e33f
000002e0: 44da 7946 2c7e e63f 0b25 4215 dc45 d43f
000002f0: c8a0 1be5 633e e63f e9bb 9119 b051 e53f
00000300: 67d9 14dc 4e95 ea3f a004 fb2a 5c0e da3f
00000310: 467e e314 d067 d93f 40dd c08e 9fe7 e13f
00000320: e8f0 f981 a470 ce3f 4c3e 4458 c232 db3f
00000330: 4277 6011 99e2 f13f 3d25 d2bf 1274 d63f
00000340: 3214 39c8 cc50 c13f a1c1 afc1 66a7 cb3f
00000350: 18a5 5be2 1092 e43f 7b30 9eb8 78de e43f
00000360: ae9f 8bfc 6893 d63f 4c26 482a 5975 c33f
00000370: 56b3 2e28 8341 d73f 7d58 93bb 9f1d c03f
00000380: 9458 b950 c683 b63f 8e19 20ea 00b0 ea3f
00000390: de57 b1c8 2efa ec3f cd3f 8941 74d0 da3f
000003a0: 7280 a4fe f7aa ec3f fb37 a6ca 3fdf c73f
000003b0: 5f09 19d6 27a4 acbf d43d 32e5 10aa d63f
000003c0: 3797 70ed 1489 cb3f 490a 54bd 57d8 c03f
000003d0: ef09 b187 3d0c ed3f c176 912f d60b bc3f
000003e0: 9b6b 79e8 99c5 cd3f 56f9 2c7d e7eb e03f
000003f0: 33ae 1d91 9329 62bf 464c 98f1 76ab da3f
00000400: ecb1 8da9 ca73 e23f 29a7 8914 4890 de3f
00000410: 004f 9c9c 87a2 e33f 2aa4 f82e d26f e33f
00000420: 6ca4 7574 9029 d13f cc5a 0ee0 8579 c23f
00000430: 9e6a e60e 6bd4 d23f 7444 a02e bdc0 ea3f
00000440: d38a 4a28 4604 ef3f d53c a262 e5d1 e03f
00000450: 8715 9159 696d e73f fe23 e42d 5e1c e43f
00000460: f8f3 56af ba24 e63f 166a 9013 eaff dd3f
00000470: 8b00 a154 ebe3 e43f 2c75 f9bc a2bb e73f
00000480: 90fa b874 0880 e13f a656 293b 8c7f b83f
00000490: 489f 1ab5 b712 c53f f185 42e1 386f e93f
000004a0: 43eb b4a0 bd2d cf3f 30c8 e1d4 ba72 e43f
000004b0: ed20 7648 35b1 e33f d699 c209 09d8 d53f
000004c0: 10b2 97ef f3fc e53f ff29 7482 0f9b e03f
000004d0: 44f6 715d 48e6 c03f 4e6f 755d f06d 99bf
000004e0: 0890 634a 0ef1 e13f ff9f 41e9 d34e e13f
000004f0: 31bd dce7 aeea b53f 86d8 8a67 fff8 d03f
00000500: b5a4 535d 3ef8 ee3f 4e11 5c81 ca7c c03f
00000510: cf94 3f5e 359a cf3f b4b6 0560 8983 9ebf
00000520: e939 59fe 757a e9bf 8c58 12c1 5524 c63f
00000530: 1a9d e7ed 4903 d73f 5980 39c2 a932 e93f
00000540: 2c04 3f57 e4f8 61bf 87df 5ead c7d9 e93f
00000550: eefe c017 c88a dc3f 620e 57c1 e892 c23f
00000560: 793d 5635 7bbb 95bf 9c31 3455 dd25 c63f
00000570: ea0e 8451 d336 e33f f26b ad39 3eab de3f
00000580: 843a 657e 8f82 d23f ea92 a618 6b62 e03f
00000590: e204 6bf5 1a05 e03f c74b 4158 3f52 f13f
000005a0: 6284 143d 6040 ee3f 932c 3352 dea4 d13f
000005b0: 6728 1e80 a4cb e43f ee45 140e 549d ec3f
000005c0: 2eb9 9c0f 61e6 ef3f 7c98 931e d997 e43f
000005d0: 838f 3093 0d5f 7c3f f9b8 1e34 78b9 ca3f
000005e0: 1009 a501 8692 d0bf 2426 86c5 322e e83f
000005f0: e048 4d08 39e3 ec3f 019c 171d 4a1b e43f
00000600: 8c37 dfa7 b3cc e53f b979 0bba 2c4c e33f
00000610: c965 7fa4 81e3 d03f 096f ae61 1026 a73f
00000620: 6fb2 d003 7b44 f03f cabc 8a77 3130 fe3f
00000630: 773b f32a f3e3 f23f 51f4 1c60 7864 d13f
00000640: 7f7d 7d7a 0d3e e23f d379 0350 69ac e33f
00000650: e3dc 0141 7288 d73f 5e2b 9888 37b9 ae3f
00000660: c7f6 8eaf 1545 d53f 73b8 917d 3a0b e53f
00000670: 3197 7b77 cf31 e23f c190 2dde 779e c6bf
00000680: 3df1 5397 9fcf ed3f 379a 40fd ff5f d73f
00000690: 3af7 d4ba c898 ce3f 11d0 5706 9a7a e23f
000006a0: 0d7d 3914 1a78 f33f 54cb 5ea6 97fa c43f
000006b0: 4398 6b28 2d85 d23f f75b 79bd 92d1 e43f
000006c0: aea5 2411 94d6 f13f b911 ae87 89fa ec3f
000006d0: 2ef3 a032 70c4 df3f 08a0 bd4a 8648 e53f
000006e0: ba48 6e55 6975 7d3f 9f0e ef3e cf9c d63f
000006f0: 5a63 04ea b794 c43f af6a 3c4e f1b1 e43f
00000700: fa25 65b0 7ceb 913f 6c58 9fe1 1d76 b33f
00000710: 90ad 4641 aa9e ea3f 4a79 1121 02fc e33f
00000720: 4b34 2968 4333 d13f cff5 80be 63ac ef3f
00000730: e451 4fd9 a5ab ef3f 51cf d4d3 79b2 e93f
00000740: 4641 cbd9 0854 d03f 002a 1f60 b2e2 d83f
00000750: bc0e cb0b 9cc6 83bf 5c8c 907d f9b5 883f
00000760: b840 8f3f 549c ed3f 07da 8d06 49c1 d73f
00000770: 17e3 ce1d 8487 c23f 577d b39a 0e90 f23f
00000780: 55ba b8a5 1381 c13f c187 0400 777e d03f
00000790: f7fc 1ea0 2895 e53f 3a14 3e2b 4ff5 dd3f
000007a0: 5f22 54ec 7def df3f 6452 1108 9896 de3f
000007b0: c5fa 4bc6 09b5 da3f 71a3 4db5 ccaa e13f
000007c0: f89e c4d3 5972 e93f 2874 bbc3 e440 e23f
000007d0: 8293 c934 704d b23f 8d66 aa3c 8ce6 eb3f
000007e0: fb18 c423 780d d23f 6926 0029 16dd d63f
000007f0: e9cb 8cb7 07b5 8f3f 4c0b fb10 88af e93f
0.20644936627171545 0.8569893043935115 0.4550284008734244 0.06772492368795643 0.3121874479147048 0.3308228766291999 0.29712611024518926 0.9463761083276704
0.5333911759903917 0.33704349167931347 0.15587574511826652 0.5385679385501326 0.45091169117164853 0.545767221615645 0.1406467363701019 0.30653795367848646
0.09688176192829853 0.8082991897257508 0.7513869215975824 0.16144556441995633 0.3795231972303323 0.9289498550841112 0.24178359768826815 0.565379942778065
0.8898988320269626 0.7723249154566457 0.5182583441272945 0.8123675718716963 0.3929019409473704 0.6995026235028862 0.6056437301052057 0.6179903510708956
0.2703950027611074 0.5212873994366456 0.09225484329196233 0.6497084048563702 0.6552487954860763 0.37519261124320463 0.3878818601314604 0.6771280637965852
0.009842202626651446 0.7554241057897931 0.42065391377708317 0.24260292728346103 0.27637608694357535 0.2722651772636215 0.2276020993373157 0.6065475465478262
0.2088202730509168 1.402097882900073 0.4715085089450924 0.799552630868775 0.2191157680381135 0.30485443768516063 0.1735253932462773 0.728082753290051
0.722253785955237 0.48671686680935433 0.7161990258299721 0.12221620008417665 0.23931528306183733 0.442215517754789 0.6573225695705563 0.43490471108063444
0.5641878592858178 0.6460752671722415 0.643868429347053 0.6319769329753383 0.2685299873644059 0.6143749590529846 0.4982752265552625 0.43716658960891147
0.5323907362397304 0.4558725844569933 0.23501930618454633 0.655990844016471 0.18769662039203355 0.5732595722806705 0.5532066684506839 0.42924469761253625
0.1238923805183477 0.7545091358061179 0.6682738630178996 0.7852764422393753 0.7341156443725231 0.12887634809460477 0.49542467430878134 0.6703190576948153
0.3382011662566665 0.44322851772947486 0.8092783205516815 0.6156737524851853 0.7029019714817157 0.3167638976670594 0.6951159930004218 0.6662216662788271
0.8307260797944708 0.4071264667255239 0.39696123161227026 0.5595243251945377 0.2378125795984325 0.4249730932215001 1.1178217581541081 0.3508345483065403
0.1352783181811517 0.2160461850867366 0.6428303166441394 0.652157173711671 0.3527471987022136 0.15201868595640844 0.36337355541291083 0.1259040513893445
0.08794822188187573 0.8339848110925219 0.905539886453649 0.4189730300904529 0.8958702062118518 0.18650052447304674 -0.05593990791796232 0.3541300047154128
0.21512090295544237 0.1316022562460424 0.9077441835618724 0.10955561314900832 0.23259281016620723 0.5287969059789173 -0.0022170908131806887 0.41671537011388116
0.5766347228614541 0.4775562477649254 0.6135900553512954 0.6074000279815028 0.2681618821430394 0.1443335861228746 0.29421497778973016 0.836027709070676
0.9692717348992467 0.5256220747413872 0.7321058987951553 0.6284628769218441 0.6919835495569933 0.4687447730117652 0.6528221753033149 0.7416547480494606
0.5468790321100006 0.09569622463581115 0.16463371603935628 0.794826927147538 0.2435833964062458 0.6390051038599776 0.6153818526518343 0.3413107486070691
0.6871280364553645 0.5189282939839471 0.132027669551393 -0.024833446220653692 0.5606757595928693 0.5408725314891852 0.08561223183345558 0.26519761191901414
0.9678031752383932 0.1288083202017653 0.24689356901141088 -0.02979864739011502 -0.7961988418335838 0.17298385550811124 0.35957573159108025 0.7874344628762727
-0.002193876245627743 0.8078344713348863 0.44597055740085423 0.1451083129924085 -0.02122299683611348 0.1730305353197651 0.6004425613504882 0.4792018473869454
0.28921878188422334 0.5120139581163958 0.5006232064553411 1.0825799415076618 0.9453583901378233 0.275687771104182 0.6498587133694514 0.8942051196083278
0.9968724541593355 0.6435361478040842 0.006926587130724362 0.20878508133814203 -0.2589430824338175 0.7556394441500669 0.9027371561189987 0.6283312385756973
0.6812380102871756 0.6030486711204538 0.2638858896658261 0.0452122802009552 1.01671887865373 1.8867659253699451 1.1806518247355748 0.2717572153667947
0.5700747864138264 0.6147963106885136 0.3677030215107619 0.060006843017694975 0.3323415960729616 0.6576206638835757 0.5685803731582607 -0.1767110667088954
0.9315946536658327 0.36523437244105444 0.239037600733292 0.5774660228621561 1.2168217458746 0.1638974726061756 0.28937844226164006 0.6505826664605355
1.11488730141205 0.9055831575392893 0.4963646406575205 0.6651030978946446 0.007192050418682589 0.35332089563255836 0.16078852583521092 0.6467215087935382
0.017499874368956704 0.0760210681758921 0.8318682932780792 0.6245127340187449 0.2687538640209978 0.9897936554695493 0.989703106339729 0.8030366074876644
0.2551290633100688 0.38883647333992144 -0.009656161413097102 0.01206583895151974 0.9253331414602348 0.37117219581651323 0.14476062255359842 1.1601701777470532
0.1367516097247569 0.2577188015148942 0.6744578482975204 0.46809748862171185 0.49899242476434397 0.4779415205751205 0.41729969372674375 0.5520995656089395
0.7952088485808124 0.5704215834517798 0.0714941147685533 0.8718930420756849 0.28207210057043114 0.35724405292476163 0.015482006348610926 0.8026771861699245

weight f8 [50, 4]
00000000: 4601 e719 e2b8 d03f 9b59 37b1 bd1f e3bf
00000010: 5d21 fcb8 bfba cf3f 3e8e 90ba 026e d83f
00000020: a1e5 4af3 3101 d53f 3477 9f7d 3860 ae3f
00000030: da25 962d cdd1 78bf 1359 785e e4ae debf
00000040: 8b1f ec4d fcf6 dcbf c591 04dd 1e1a dbbf
00000050: 9f2a cfdc 7d87 c2bf f903 eb57 72ac de3f
00000060: d4f1 cc2d c7e2 c53f 8c31 4bec 098c c93f
00000070: 83a1 3443 e372 b53f e07f 8820 ac16 afbf
00000080: e467 1230 656c c3bf a806 dce8 3799 bd3f
00000090: 200d 416a 07c7 ca3f 8c78 6465 7cce dd3f
000000a0: 8b5c 1fd6 a96a df3f 8fa9 cf05 c935 d93f
000000b0: 6b3d e8fe a09a bdbf 2729 5dfb f3c9 bdbf
000000c0: 48a6 d120 148e ce3f 43d3 12b6 453f d0bf
000000d0: ca1a b3d8 fe73 cfbf 4400 63c4 36ca d6bf
000000e0: 5a6b 1e48 1e4b ccbf 9557 5c8c 3f07 b73f
000000f0: edfb 8ace 19b9 d1bf f065 a2de 9032 a6bf
00000100: f6d0 d1b7 9917 d8bf 8c18 fe9d f94d d73f
00000110: 35dd d455 692e d03f b104 4822 346f dfbf
00000120: e98c 6bf8 be76 d5bf 4f7b f3e3 c71a c6bf
00000130: afd7 653f 8bf4 a53f 7767 1bdb f3f2 c1bf
00000140: 223f 56dd bb14 d83f 9e97 34f7 f730 c43f
00000150: 0a06 0307 06ec d43f 8741 5978 2943 acbf
00000160: 5e44 2ed4 621f e03f 848d 3541 d6c4 d0bf
00000170: 401e 55fc e4e3 d13f 1d24 1c01 acb1 c4bf
00000180: 15ba 4aec 249b abbf 4e74 0314 c874 d6bf
00000190: 28c4 278f eb6f d6bf aea3 12bd 10a7 d8bf
000001a0: a106 81af 6a43 d2bf 7fb2 4acc 6e01 b03f
000001b0: 5707 c4a8 e81a cb3f 5829 96e5 1bc4 d83f
000001c0: ed73 dff3 fa17 dd3f f856 e150 95ac 653f
000001d0: d40b ffd4 ff2a e43f 3b9f bf53 6c5a b03f
000001e0: d270 e28a 3aea b93f f5fb ba08 cc49 dc3f
000001f0: 583b 1e5a 96b0 d6bf f3f4 2824 7f69 d03f
00000200: f5c0 73b6 54f8 cd3f 21be d45f 8b8f c43f
00000210: 153f 9123 e794 d4bf 0b56 e9d9 e2ff c93f
00000220: 88ed 4f07 5468 ecbf 4d1f 1fb5 7e52 dfbf
00000230: 9237 d8d7 775b b53f 4467 5a03 aefb c2bf
00000240: 4f11 b6be 9f8a b2bf 0f94 bcb5 7ae4 d03f
00000250: 5909 409f 38b6 d7bf 40b8 a188 f11c 61bf
00000260: ec5c 07d6 e8df d13f 5ce1 24f1 eb78 d6bf
00000270: 0cec 06de 8a44 cf3f eeb9 ed83 a022 8a3f
00000280: 50fd a3ec 23aa d73f 58d2 832f d6a0 c13f
00000290: 7f15 4547 62e6 dd3f da37 a7e0 64fd d13f
000002a0: 05c5 486c 73e0 d73f 2848 282e 04ae cb3f
000002b0: 600a 61a2 4961 bebf 2241 5dcd 5c71 ac3f
000002c0: 07a6 eb44 31e1 cfbf 654d e305 9dff ddbf
000002d0: 77fc 9802 a828 b43f a7b6 e6e7 23ae b53f
000002e0: 4963 9a1f f435 cdbf 2395 337c d5ed cbbf
000002f0: fc52 96ca 9fc0 ca3f 0845 054e 2730 d4bf
00000300: 90cb 3491 0e8f bebf 0259 acd1 46ff d23f
00000310: b2ab 2747 2a9e e33f c4ce 6260 787a e03f
00000320: 4621 b35c bfc2 c83f 88c5 c035 b05a d13f
00000330: 5ef9 3c38 126f c33f 58cc 936b 844d d0bf
00000340: 724f fd07 7cc8 da3f 78eb 14ec 4571 c0bf
00000350: 7aa7 7903 a737 db3f 6d7b c52b 93b6 c63f
00000360: f7ab c8e5 73d6 c43f c1e9 2696 96dd 9e3f
00000370: 4b8b 3baf 151a d4bf b608 b5b7 00cd 7c3f
00000380: 2513 9b12 4c8b d6bf cfde 4d6e 1ee0 c43f
00000390: 2793 bd48 d700 c13f 9b38 f4ab da1f cc3f
000003a0: bf67 df0c d2ac bd3f 3df7 0964 697d e0bf
000003b0: 32eb f759 98b3 c4bf 8fc8 99aa ac63 c63f
000003c0: b7d5 844d d353 c23f 6be5 f810 9521 bf3f
000003d0: 7bf0 680a edd3 d53f abed a35e 54f5 c6bf
000003e0: 815a 96d8 1ea4 bbbf e22c f6c8 8d47 c6bf
000003f0: ea38 003f cbd2 e0bf b5b7 d82f 6030 bfbf
00000400: 2f22 1c58 057b d33f cc4b 2ba9 7e57 babf
00000410: 4965 66d5 8ccd af3f 7cbb b88a ec2b c4bf
00000420: 1218 c396 bb92 aabf fefb 21c3 4015 d03f
00000430: e4ad 98eb 72c4 c9bf 1fa6 521a 480f cc3f
00000440: 927d 8c6a 57cd ccbf eb0f ab41 92b7 943f
00000450: 1edb 3375 d4ca e4bf 462f 9e1c 8ac1 d43f
00000460: da9b 3be3 4493 c2bf 7c98 b075 71db b5bf
00000470: 73d5 b66b 7caf 98bf 736b e2fe f9e1 d13f
00000480: 3dbe 36d6 52eb d63f 1536 a50b d100 dc3f
00000490: 478e b1b9 251f cb3f e2d0 8174 64e8 d73f
000004a0: ffdf 3c93 f65c d9bf a09f e020 8945 c8bf
000004b0: 6497 8635 7981 72bf 2de3 6023 58e0 cabf
000004c0: 8c7c 6b4b 0911 c03f a2dd a82a 6911 c83f
000004d0: 272a 6fd8 8d92 d4bf b01b d2f6 589a e0bf
000004e0: 9b9b 75d2 2b3c cc3f 78bf bfdb 0adc d03f
000004f0: c7e4 f252 4bc3 c2bf 5728 21e1 7178 dd3f
00000500: 8c09 14bc 2fb8 74bf 8c6a b3db eca6 c4bf
00000510: d8d4 b1f9 265e e1bf 245f ac0a 4107 c7bf
00000520: 3007 32f7 66a1 c43f b453 eca7 bd85 a3bf
00000530: ffde 7dc8 2b3c e33f 1216 bf96 2efe b03f
00000540: 678e ea11 0c6b d73f 400c c7b4 398c d5bf
00000550: 2027 6e0e 12b3 c2bf 1b39 0b6e 41f0 db3f
00000560: 379c 74b6 e745 c4bf 5f28 bb75 e67a d93f
00000570: 49bc 516c 48ea af3f 3339 cf8f 54b7 c3bf
00000580: 8363 344b d425 c3bf b4a2 5cec b47c cb3f
00000590: 5c9d 9b1d 7e09 c4bf 3868 f934 cee8 a9bf
000005a0: fb1d c46c b3cd c63f 7243 b1d9 f8e6 cf3f
000005b0: 5e25 1fff 13ab e13f a0c2 3b2e 51f3 d63f
000005c0: 0179 4d9a a2d1 cc3f 6669 ea06 e387 dcbf
000005d0: 54a1 68ca 61f5 d3bf aa6c d7fd 609c b63f
000005e0: 51df 06b6 2f66 d13f 9120 4f9d 52ca c0bf
000005f0: 16fd 6ed0 3d31 d6bf ab74 75b3 18f8 8abf
00000600: 1519 68a7 7ff0 dc3f 56ae 1dcc 98a6 c53f
00000610: ff95 ef38 a1d0 cbbf 8ab2 2acc d5a6 dabf
00000620: 4d37 304a 4a0d a4bf ff8d 98bb 671b de3f
00000630: 0d9c 20c8 fa87 d73f 95f7 bcb1 82c3 d93f
0.2612843754723325 -0.5976246320013162 0.24788662464585345 0.3817145177765474 0.32819794425048526 0.059327855429485515 -0.006059457280011194 -0.47942456460568045
-0.4525748024902831 -0.42346927245878546 -0.1447598770303857 0.47927530847306304 0.17098321663242066 0.19958614385394602 0.08378429785500967 -0.06071985146650127
-0.15174546096096642 0.11561917719884696 0.20919888199032588 0.4657279005203996 0.4908852187194916 0.3939077908277335 -0.11564069960899352 -0.11636280905546369
0.2387108955620525 -0.2538618352949024 -0.2457274015525484 -0.3560921590651598 -0.22104242822100667 0.08995434929633313 -0.27692265672879907 -0.04335453717903792
-0.3764404578316908 0.36413422039948595 0.25283273107511955 -0.49116233203683196 -0.335372679326794 -0.1726922858278734 0.04288134716891478 -0.14022682379328064
0.37626549353534433 0.15774440355852176 0.3269057339167324 -0.05519990533923918 0.5038313049464127 -0.262013972931719 0.27953457490773204 -0.16167211584277733
-0.05391803154394751 -0.35087778047983853 -0.35058106403363576 -0.3851968618787919 -0.2853647912889788 0.06252186286537585 0.21175869217409612 0.3869695417457897
0.4545886403628277 0.002645770676319322 0.6302489433368188 0.06387974781648335 0.10123029604659742 0.4420042119272119 -0.35452803421587964 0.2564390042424087
0.23414095791623138 0.16063062838792155 -0.32158831094146595 0.20312152519424873 -0.8877353804413568 -0.48941009223607496 0.08342694301265244 -0.1483056560871835
-0.07242773443255611 0.26394527194708045 -0.37049689819118253 -0.0020889966445372388 0.2792913522839189 -0.35113047169899914 0.24427924958385494 0.012761358286039273
0.3697595416014865 0.13772084541382656 0.46718651733348077 0.28109094561375303 0.37307439398416903 0.2162480569245997 -0.11867199148495322 0.055552387303239095
-0.24905982842692273 -0.46872640204420285 0.07874536574762368 0.08468841945315352 -0.22820903342360513 -0.21819561543012708 0.20900342361405666 -0.31543905848691667
-0.11937037510942461 0.29683084941770244 0.6130572690720923 0.5149499781168392 0.19344322229722816 0.27116017579381735 0.15182712312703023 -0.2547312784728937
0.41848660259460424 -0.1284568217032207 0.4252717527330031 0.17744674336696722 0.1627945777885029 0.030142167009879154 -0.3140920840507319 0.007031443408154361
-0.35225202385872684 0.16308956514307346 0.13283816386970068 0.21972211261931282 0.11591828169130645 -0.5153090433011368 -0.16173080819120284 0.174916823674327
0.14318314824201447 0.12160617508279407 0.34105993286699005 -0.17936186429129228 -0.10797302997375803 -0.17405865013674943 -0.5257316809163772 -0.1218319050610422
0.30438359837038126 -0.10289756422143553 0.062115098047068225 -0.15759045384899284 -0.051900732186865764 0.2512971788018489 -0.20130764487963326 0.21921635899825362
-0.22501652433946312 0.020231518991536673 -0.649759510909323 0.32431271357267055 -0.14511929602960444 -0.08537968753134523 -0.02410692603526372 0.2794175137620904
0.3581130115444216 0.4375498403286156 0.2118880421358986 0.3735591066135965 -0.39629902247133936 -0.18962205987304248 -0.004518006775844661 -0.2099714443918627
0.12551990683184433 0.18803133566846691 -0.3214449514022441 -0.5188412495343666 0.22058627868974842 0.26343032321800974 -0.14658490705713786 0.46047636971764433
-0.005058466399761829 -0.16134415366726207 -0.5427431942795478 -0.17990887662085087 0.16117560453499769 -0.03812973666041533 0.6010950961926652 0.06637850933392311
0.3659086394274937 -0.3366836800962041 -0.14608979897121177 0.4365390371939541 -0.15838333519897826 0.39812623498131033 0.06233431169754817 -0.15403229734369858
-0.14959195777990084 0.21474324742418605 -0.1565396923608472 -0.05060428997667582 0.17815249262660857 0.2492362082434983 0.5521335585446356 0.3586008979319022
0.22514755758579244 -0.44579387355192635 -0.31185192839122533 0.0883236522417287 0.27186196113642774 -0.13117439919574683 -0.34675546030844495 -0.013168518997810649
0.4521788725691221 0.16914663282965375 -0.21730437545845402 -0.41643280923998616 -0.03916389613742286 0.4704226810447096 0.36767453712167325 0.4025580154155873

bias f8 [50]
00000000: 8a1c cb2e c346 d0bf 2d1c 6d22 2551 babf
00000010: a0a9 d0af 1b36 dabf 2150 099a ddc1 c8bf
00000020: c947 e150 ab87 cd3f 2ec4 7acf 09a8 c13f
00000030: 51aa 9b17 e367 d43f 5bfc d3f2 4a8e da3f
00000040: 0b84 bae6 bc53 883f 88be 7495 92b3 d8bf
00000050: eea3 f0b2 cd99 c13f 99bd 2339 819c 66bf
00000060: 999e 65f4 759b d2bf a3ec 01dc cab6 d33f
00000070: 1105 6289 1d2c a03f 2bf4 25c6 a769 cd3f
00000080: 1932 8cba e287 cebf 7848 5038 ed71 da3f
00000090: ea15 21bb a274 b93f 5aa8 2f19 757d db3f
000000a0: 9b07 12df b744 c9bf 9680 1856 12b4 c0bf
000000b0: ba1c 6cff ac76 dabf faed d9d1 4c8f db3f
000000c0: b13e 8b58 47b7 d13f 13f3 56d2 01b3 d13f
000000d0: f277 1448 ce9c d63f 4414 b262 a783 c1bf
000000e0: 90b9 5486 cea0 ddbf 8b92 4fac 77d6 863f
000000f0: fee9 6691 3dbc d83f c11c 775a 9b9e d03f
00000100: f83f 908d 1cad a1bf 614c 6a12 0384 cd3f
00000110: b30f 244e 0386 dbbf af52 6088 f51e d93f
00000120: 5ff8 cd9e 308f ce3f 1264 a0fd 4b73 d93f
00000130: b3cd e704 b3d3 d43f 66fc fbb8 e2ae c93f
00000140: 629c 3e58 bfe4 c43f 6728 65fc 6dc9 d1bf
00000150: f241 658e eca9 cdbf 06fb 79a6 c442 993f
00000160: fb61 28a0 c533 dc3f 6ea0 fd59 98a5 c0bf
00000170: 71c7 8eb5 bb26 b0bf a90b 6fa8 3e6f d63f
00000180: 1f5b 7729 5fa4 c23f 3696 6d81 50d0 d83f
-0.2543189961401785 -0.1028006753013961 -0.4095524994796964 -0.19341630955989422 0.23070279549807385 0.13794062262380308 0.3188407640979323 0.4149348613136163
0.011878467360761055 -0.3859602412730756 0.1375062106829143 -0.0027601741686493317 -0.29073857180490276 0.3080317638884457 0.031586573620197574 0.2297868459244524
-0.2385219012143274 0.4132035303056294 0.09943596905312516 0.42953231296144667 -0.1974096144877507 -0.13049534992115203 -0.41349339431367194 0.43062134259500306
0.27681144377582273 0.27655072728139024 0.3533206657319844 -0.13683025664446025 -0.46293986433274714 0.011151251741418086 0.3864892883244976 0.25968059381962055
-0.03452386119909073 0.2305911865156274 -0.43005449896758846 0.392514594249671 0.23874480966691444 0.3976621605702927 0.32542109946299574 0.20064958603322508
0.163230817878886 -0.2779192890926709 -0.23174817040354828 0.024668762837332124 0.4406599105873565 -0.13005356210783553 -0.0630910223251513 0.3505398411618282
0.1456412270042273 0.38771450652561457

weight f8 [50, 50]
00000000: fd56 3e2e cc3c aa3f c913 994e 8474 b33f
00000010: 7f7d 8162 ecb0 a63f e2c8 c5a9 2038 95bf
00000020: 709c 247d 10bd a33f d35e 1d67 09c7 b6bf
00000030: ff5a 41a7 640a b33f a005 fb1e 339c b73f
00000040: 5929 4e33 8861 b73f b260 66ae 274e b33f
00000050: a834 6f68 20bc c63f b6eb a734 0a79 9dbf
00000060: b5b6 7b22 9162 b03f c192 53e0 9340 afbf
00000070: 3940 9fb5 5e33 be3f 513c c742 5f78 babf
00000080: c71a 0301 962f bc3f fbb8 bd6a a918 a23f
00000090: c969 52e0 2986 8ebf 0669 266e 0626 c13f
000000a0: 023b 4bd2 a86a b23f 75f8 75b0 5ea5 abbf
000000b0: 09c2 a292 0da6 c1bf 6627 56b3 3302 96bf
000000c0: 7660 0db5 ae82 c23f ea1e cfe6 3a79 a73f
000000d0: e521 1342 a407 bc3f 4227 4b43 65a0 933f
000000e0: de12 f35c 5459 c13f 0628 3839 db5c 9a3f
000000f0: 3a7d 39ab 3f3e 83bf 6289 059b 66ee c0bf
00000100: d69d 8f87 bb2e a43f 4cb1 5486 4b9e 93bf
00000110: 7f40 43db b08a a93f 64a0 f492 49f5 8f3f
00000120: 45d1 8b8d 8abe bd3f 5eac 7f3c 9443 a03f
00000130: 4e6d a1d8 5d95 9b3f a28c 6799 05fe b1bf
00000140: 0806 d3a0 8004 a73f c9db ecd6 5b3d d33f
00000150: 58c3 118e 539a afbf d457 ab1d 6c0f a3bf
00000160: 9b63 8fb4 7d5b a5bf c7df fd05 c79f d13f
00000170: 374e e394 a6e5 c1bf 66c1 11b5 1349 853f
00000180: 4368 9009 5256 8f3f 58e2 2164 d5ad 88bf
00000190: ebbc 5803 2601 993f 06b3 d299 2773 bb3f
000001a0: 97b4 c83a cf35 bebf c6d6 bcc4 06d6 b5bf
000001b0: 0900 fd82 7999 b63f ab0e 1292 cf3b b43f
000001c0: 7354 41ee cb49 a13f 3473 4bec 48ed a9bf
000001d0: 9d73 f334 61f7 8bbf 1d52 0de1 1fce a5bf
000001e0: c318 7a4e 1288 b83f 0875 5e27 1dff 9dbf
000001f0: c704 0449 2a8a ab3f d97e 16f1 941e bbbf
00000200: 4464 e0b7 a98b a7bf 8ca2 1f86 4eb3 b63f
00000210: 3f89 d0ae c7ae a7bf 581b 5e0e e5c0 b3bf
00000220: d09a da9d 4422 bd3f e611 8711 0ffd bebf
00000230: fd72 be9f 6d8f bbbf 222e 4faf 9b77 89bf
00000240: 8888 5d83 a8da c1bf 006f 65a2 851f a43f
00000250: 4da0 afce 1dbb aa3f 48b0 8fcb 7d89 bfbf
00000260: 4340 192a b99b be3f 83d1 ad4f 6234 c3bf
00000270: 7910 4c83 65c8 babf 0757 df44 09b2 8fbf
00000280: e6df 2de0 dcc6 bbbf 7d6b 5899 9bc7 92bf
00000290: fb55 0f33 2adc b23f 9a54 2661 4471 b23f
000002a0: b892 7460 aeb2 b5bf 3cea 549a f88b a6bf
000002b0: 5f3c 5408 1d4f a5bf 24e9 58b5 d2ce bc3f
000002c0: 6bb1 72a6 6464 933f f0d8 b0c1 1f8e 92bf
000002d0: bc24 07d4 e3b1 abbf eeca 789a f1e9 97bf
000002e0: dbaa cfe3 9a92 bf3f 2170 8ebd 1756 b6bf
000002f0: fb65 c119 8b50 a3bf cb0c 22b8 cd14 b7bf
00000300: 2fe8 a0b7 3890 bbbf e3df 2116 1112 a7bf
00000310: 5676 6df3 8601 b53f 7e09 c29c 1367 b8bf
00000320: 4fa0 28f1 b679 ba3f f1a6 0099 2cf3 bc3f
00000330: ada8 7e54 7773 bd3f 64c8 5034 2c36 b3bf
00000340: becb 7754 4ea0 b5bf d1c4 0375 c1eb b2bf
00000350: c064 5ae4 30b4 a1bf f095 6645 3dc4 71bf
00000360: 5ec3 02fe 7447 bf3f 94e2 e46b 30cb b7bf
00000370: ea10 389b 640a a73f b026 2003 b7c3 933f
00000380: 0e67 29e0 43a7 8e3f 1321 d537 ffa7 963f
00000390: 99dc d480 82ca 9bbf 489c 2348 ed64 833f
000003a0: f8ef 8273 3e93 8ebf e6aa 2bac 6b30 8fbf
000003b0: 01cd 0f82 16d4 933f 7d5b 3108 8954 b03f
000003c0: 9518 4d86 4cf1 c0bf 9a52 9b7f be71 afbf
000003d0: fa0f 29b4 c44a 9f3f 8e8f 641f af86 b13f
000003e0: 4355 4198 e2f0 9e3f 2390 013e 51c8 b93f
000003f0: cb09 ff4c b77b a93f 416a 3ee9 05f2 90bf
00000400: 70f5 a599 3937 943f 7d68 0772 cf1c 70bf
00000410: cfe9 672b 0e2d b1bf a628 92bc a492 a4bf
00000420: e741 3da7 5c17 ac3f 84e2 f909 6614 c03f
00000430: 2c5c 9f20 c855 bcbf 9b21 1983 4f9e bcbf
00000440: 73c9 6bdf 3436 973f d30f 0894 9822 c1bf
00000450: bd49 9261 7fda 923f 982b 1eeb dd10 90bf
00000460: 0d62 39fb 8796 b13f bdd6 0b7d 6563 c7bf
00000470: 6a5c 3301 7065 a63f 1d4c 55b1 9c4c b73f
00000480: 5114 eb5a f154 b4bf f538 44ab 6084 c5bf
00000490: 6f98 8955 19f9 a5bf b495 f2bd 1b06 a9bf
000004a0: 5c9e 8dd6 24ed 193f 25d5 b210 64ca bc3f
000004b0: a431 13b7 06c7 b43f 65aa 70d0 69a7 b13f
000004c0: 3783 feb6 724a bebf b858 b4c4 2318 78bf
000004d0: 12fb 17ef 84a9 ae3f 03f7 215c 2a04 8e3f
000004e0: edce 967e 5ed0 b13f 472b ca89 7d73 96bf
000004f0: b4f5 60ae fe1d b4bf 9559 5dfa 39de c03f
00000500: 8a64 fa83 014c b0bf 7aa5 548d 0218 b3bf
00000510: af40 a0a9 77a3 afbf a524 4f47 cfe7 b4bf
00000520: 3b76 da83 4864 c03f 9430 6d6c 4a84 b0bf
00000530: 97c4 dadc 10bc 903f d544 f17d 870b bb3f
00000540: be16 d3f0 2d64 c0bf f1ce 2e0f ba77 9ebf
00000550: c17c efa8 ae4d 983f 6150 e2cc 59c9 4fbf
00000560: 3e27 cd02 fc68 c13f 4dbb f06f 4504 b6bf
00000570: 902d b500 8e24 b5bf 03bc f987 38b7 9cbf
00000580: 824d a850 0a48 b03f 6fe5 ad9c 32a2 8dbf
00000590: 31a2 21f6 7cc8 af3f ef9d a63b 413c b9bf
000005a0: 6421 136e 1d6c c1bf 5dc3 0564 7d92 a4bf
000005b0: 3540 685d b612 66bf 1eae 4ea2 e89c 70bf
000005c0: 492a 21e7 fe04 b6bf 6e5b ca36 1c93 b6bf
000005d0: 73c2 b7e7 6a00 bcbf 2f92 3ea0 c0db 91bf
000005e0: 7d81 a7dd a4fa a3bf ec8f 4c0e b84a c13f
000005f0: 8157 944b d20b a2bf 0e09 6312 516d bebf
00000600: cdc5 a0aa 5379 27bf e01a c3ba b066 a7bf
00000610: 87b6 d2e3 510d c23f 64e6 6216 bfb7 adbf
00000620: 3334 f303 f6c3 8ebf 11ee cc29 52f0 a4bf
00000630: b7a4 4891 3d99 b4bf eef3 fece ad10 bcbf
00000640: f045 3987 274a c1bf 111c 58dc adff abbf
00000650: 9930 ea7d e7f4 b53f 8218 09d2 7bab b9bf
00000660: 779f a7f0 2ef0 b2bf ab44 ab40 69b9 b6bf
00000670: 26c7 5311 4560 be3f 3feb ac12 127e 9a3f
00000680: 4e27 3801 26df babf 8fe9 34eb 61b9 a43f
00000690: 4546 4854 b995 b33f c6b6 47e0 0325 b9bf
000006a0: 7232 001d d4be acbf 23d0 dce8 7784 a7bf
000006b0: 6057 ea87 9a7e a43f 470e 22c9 94f3 803f
000006c0: 69ef 8554 320c 9fbf e17a bae7 fa83 b43f
000006d0: 2ce7 9f36 c0ae bc3f 0ba6 69e6 7dc3 853f
000006e0: 0cab 6ba0 01c5 b13f 16c1 1dcb f064 83bf
000006f0: 0501 5e65 8123 b2bf cddd 28a1 a979 b43f
00000700: 7a8c 5ae6 8516 b33f 4745 f978 82bf af3f
00000710: 8d24 6468 0526 a6bf b86a 75a4 8574 b6bf
00000720: 163e 035c 88ab 693f 250c 7bee ca3d 693f
00000730: b32f d4da 1da8 bdbf decc c1d3 9e31 b93f
00000740: 447d b8e2 fef3 93bf 1b3d 38e6 6eda b2bf
00000750: fee2 6ac0 7bc7 a7bf 53d7 4d61 e7bd b4bf
00000760: 7df5 bae9 ed2b c0bf 0284 36fd 7ffe c0bf
00000770: f20c 51cd 33f4 b0bf 2758 4f10 a96a a63f
00000780: 32c1 d15a 9889 b8bf 9f49 a264 c6e8 b0bf
00000790: dcf8 5fd7 f0a2 ab3f eaa7 4a66 ee35 a33f
000007a0: 24f6 b25e beb0 a0bf 05bf 0019 3c41 b43f
000007b0: d3e1 489e 3c2a 793f bad2 deca d180 9ebf
000007c0: 5c2d cf90 4866 693f fcf2 3254 6d0d a33f
000007d0: 6614 1a7b f212 83bf e3fa a74e 9a66 bc3f
000007e0: bfe1 f4ad 81c6 9c3f 7692 0254 003a 86bf
000007f0: b6c3 4854 9605 c3bf 4735 7420 ad0d bbbf
0.05124509872909575 0.07599665564437354 0.04431856825317037 -0.02072192226609893 0.038551821972128475 -0.088974559473509 0.07437733729726047 0.09222716814385601
0.09133197071620226 0.07541130073366523 0.17761616801582147 -0.028782042945731688 0.06400401203037627 -0.0610395633064278 0.11797134336598071 -0.10339923267677988
0.11010110401830807 0.035344404487533475 -0.01490433421922867 0.13397293451709674 0.07193999418380417 -0.05399604705870412 -0.1378800359721171 -0.02149277479251257
0.1446131118816571 0.04584678714269137 0.10949160206940396 0.019166547996781753 0.13553862131643418 0.0257448438333441 -0.00939607373510275 -0.13227541512885482
0.03941904096410169 -0.01915853507414171 0.049886252179590855 0.0156045673343927 0.116188678319138 0.03176558722028554 0.026936975810128154 -0.07028231616236494
0.04495622599780452 0.30062004078666554 -0.06172429188962408 -0.037227038022748765 -0.04171364621260595 0.2753770407211928 -0.1398208834640273 0.010393289531038529
0.015301361958382503 -0.012050311201378935 0.02441844363619065 0.10722587113805213 -0.11800856766849886 -0.08529703429379784 0.08827933738666628 0.079037640725853
0.03376614840878114 -0.05063846477944481 -0.013655433109699017 -0.04258823034493651 0.09582628646794249 -0.029293494727984842 0.05378849164299875 -0.10593539129194642
-0.04598741883837268 0.08867350363255805 -0.046255340661689896 -0.07716209030887222 0.11380413869720063 -0.12104887178345045 -0.10765729093550287 -0.012435165679469288
-0.1394854203636593 0.03930299384475511 0.05220883510611483 -0.1231917020774641 0.11956364896582365 -0.1500361336762915 -0.10462030845161675 -0.015476295866317281
-0.10850315545201247 -0.018339568361720893 0.07367194887714128 0.07204081889934102 -0.08475770811908034 -0.04403664478237032 -0.041619212404946586 0.11253086974548815
0.018937657031231774 -0.01812028522200476 -0.05409156764250997 -0.023353362134183202 0.12333076535984892 -0.0872511709007431 -0.03772387208364233 -0.09016118760523566
-0.10766939623945924 -0.045059713317584536 0.08205455248886415 -0.09532282425974434 0.10341971767104606 0.11308554397023919 0.11504312336788543 -0.0750453593944101
-0.08447732507902025 -0.07390984637074217 -0.034577873110899215 -0.0043375390436373035 0.122184097303728 -0.09294417032368535 0.04500116724742205 0.01930128056122865
0.01496747043454463 0.022125232489345125 -0.027139700997591196 0.009469846500406956 -0.014929283046846806 -0.015229073707322138 0.01936373871644737 0.06378990602511965
-0.1323638587729802 -0.06141467387866335 0.03055865621196572 0.06846136585642013 0.030215778868599285 0.10071285022564828 0.04977200331588313 -0.016548244820663752
0.019741916659304193 -0.003933725675290598 -0.06709374007906564 -0.040181301134979905 0.05486573735709382 0.12562251555552362 -0.11068392559478529 -0.11179062796248333
0.02266771901754212 -0.1338682864007966 0.018411627130783027 -0.015689341998534084 0.06870317347910078 -0.18272083860181523 0.04374265684753527 0.09101275758193635
-0.07942112416920223 -0.168102344156473 -0.04291609925421446 -0.04887472814270258 9.89011511031089e-05 0.11246323974304014 0.0811618992767707 0.06896077479238157
-0.11832348792678436 -0.005882396431181096 0.05988707941650352 0.014656382500330084 0.06958571043542934 -0.02192493585111357 -0.07858268506330185 0.13178181385837875
-0.06365975830193996 -0.07458511305289575 -0.06179403253202175 -0.08166213503786197 0.12806040228035606 -0.0645185961449804 0.01634241435994407 0.1056446726299954
-0.1280572343732071 -0.029753596474349334 0.023733834324841 -0.0009700478056111733 0.13601637017046103 -0.0860026739398851 -0.08258903043058852 -0.028042681979453487
0.06359924763846972 -0.014469523817512734 0.062076478047690016 -0.09857566553420559 -0.13611190676443663 -0.040180128536013916 -0.0026944696248918606 -0.004055889822591334
-0.08601372855006519 -0.08818222367913872 -0.10938137204335323 -0.017439851551573845 -0.03902163701764303 0.1350927419490512 -0.03524644062615235 -0.11885554026506304
-0.00017909189529201203 -0.04570534019290107 0.14103149055647554 -0.058042499048906376 -0.015022203441185855 -0.040896003344155336 -0.08046326443640593 -0.109629500423537
-0.1350755129119956 -0.054685052058680246 0.08576819252101799 -0.10027288320370256 -0.07397740722046629 -0.08876664952119266 0.11865646050480602 0.02587154616342535
-0.10496747522134095 0.04047685619521523 0.07650335605310328 -0.09822105622853447 -0.05614340642941763 -0.04593252866325794 0.04002840909121974 0.008277094257443397
-0.030319963845144047 0.0801388564818626 0.11204148610695758 0.010626777261864914 0.06941232840078387 -0.00946987266408476 -0.07085427021775466 0.07998142418443095
0.07456242441053176 0.06200797774057292 -0.04325882815653257 -0.08771548524002071 0.0031335509557732883 0.003081222868645666 -0.11584650604726114 0.09841339750146313
-0.019485457027369493 -0.07364552612874713 -0.046443812597720666 -0.08102270246112413 -0.1263406173001548 -0.13276672233499204 -0.06622623217213056 0.0437825043115228
-0.09584953515309705 -0.06605186421282959 0.0539775145443728 0.03752083777119693 -0.032598446903176176 0.07912040338919375 0.0061437957670524455 -0.029788282401301137
0.0031005303667136896 0.03721181538410254 -0.009313482648631143 0.11094059391323756 0.028100992433992774 -0.010852816165717299 -0.1486080085319636 -0.1056774334176299

bias f8 [50]
00000000: b592 3188 5e65 67bf 00f1 b18f 7577 c1bf
00000010: 4398 bc15 e630 b93f 337a 557b 2c42 753f
00000020: 54eb f22f 71fc 933f 137e ff0c 442d bb3f
00000030: 71b5 e457 468a 9a3f 7b38 3601 6f1b c1bf
00000040: a384 d100 ae09 883f e643 eec5 5eaf 9d3f
00000050: 6129 76eb 7e60 bebf 9d6e 6641 417e c03f
00000060: a4ad fbae 8a85 b1bf cb48 7080 d164 c23f
00000070: 957f d324 3565 843f 150f 9d47 71d3 babf
00000080: 11c1 e398 467e c43f 1b29 347c ab9a c03f
00000090: 33c3 5d7e b7a0 b2bf b5c8 eb20 2ca4 953f
000000a0: 8739 a230 1760 93bf 0773 8aaf cd17 bfbf
000000b0: 6c8a 139a 032f b6bf df9c 7461 6572 c03f
000000c0: 4f13 e782 5320 a53f 8ebd ff13 03aa b3bf
000000d0: c212 df6d a845 c03f 1dc4 ed2f d0ac bfbf
000000e0: 4d3d 9898 99f6 c13f 2d4a 6db6 7ad6 bb3f
000000f0: 202c ebd7 b5b6 9dbf 4abd 1a76 5207 a0bf
00000100: 91fa ffdb fb64 b13f c9af aeb4 2770 b5bf
00000110: dd8d 47bd 700a 98bf 3819 bbd6 a517 9bbf
00000120: 7f51 3fd6 a665 bfbf 3ef1 2dbc 87c6 be3f
00000130: e611 1da2 3200 b8bf 1ffc 516a 6ce7 b73f
00000140: c9df c1da 7c3a ab3f 0d76 08e6 cd93 b13f
00000150: 9648 1d34 b927 c0bf 56f0 1c73 4bf0 bfbf
00000160: e7df 8874 a51d ac3f e007 4791 d932 b43f
00000170: f9e2 6f32 8dda 73bf adef 98b6 e1a2 b5bf
00000180: 1d13 ccb9 2f6a b63f 37e7 e591 0c6b 753f
-0.0028559538200617304 -0.13645810619699006 0.0984023860042678 0.005190061337400342 0.01951767783314591 0.106159451649994 0.02591810142000867 -0.13364970740480317
0.011737212562538629 0.028989296751721037 -0.11865990875791034 0.12885299390187735 -0.06844393512772357 0.14370173236290493 0.009958663164468176 -0.10478885649086707
0.16010363068881664 0.12972014965664233 -0.07276484332193149 0.021134080418911256 -0.018921243995060812 -0.12145696197189802 -0.08665487777356312 0.1284910894257569
0.04126225445683095 -0.07681292761093614 0.12712579121411777 -0.12373067064415051 0.1403381342974889 0.10874144510061319 -0.029017297080638937 -0.03130586330132219
0.06794714089481092 -0.08374260102453869 -0.023477326920227404 -0.02645739672768707 -0.12264483194969066 0.12021683067536501 -0.09375301797724198 0.09337499232968625
0.053180600837492494 0.06866156450310985 -0.12621226353309528 -0.12476035652520187 0.05491368339102092 0.07890090748608669 -0.004847098875864425 -0.0845166273874713
0.08755777631820334 0.005229043103435241
