lasa_models/6/skel_model_heee.pt (torch, 99247 bytes, 18 tensors)

R f8 [20, 20]
0	0x3fef9e6e3c137de9	0.9880896733629331
1	0x3fe41ab8cf5efb74	0.628261952420742
2	0x3fd6636d3679bfd2	0.34981851882821247
3	0x3feb85574ac90fd7	0.8600269756939224
4	0x3fc51c0cef8bf878	0.16491853424662728
5	0x3fe7b51dd23fe614	0.7408589464604938
6	0x3fd9544f4a4e7d3d	0.39577085739616163
7	0x3fdd2fc34b37ff4d	0.4560402140195848
8	0x3fe490bd7fd86e25	0.6426684853535717
9	0x3fd0d1598087e214	0.2627776866134195
10	0x3fe4d568b9acaa06	0.6510509134726028
11	0xbfb6602318a3412e	-0.08740443564898179
12	0x3fda115c8e6f0450	0.40730966481720987
13	0x3fe21e9798b07534	0.566234396191851
14	0x3fe0d817963267fc	0.5263784345181644
15	0x3fe33956929c0678	0.6007492888895305
16	0x3fd4706a8a769342	0.3193613388232742
17	0x3fe2ac977939a7e1	0.5835683219604527
18	0x3fc5f6058554379c	0.1715704823513392
19	0x3fea7e4affd56b78	0.8279166218520535
20	0x3fc6d4ffb47c2880	0.17837520897620962
21	0x3fef983678874c7c	0.987330661208389
22	0x3feaa43712ec1da7	0.8325457925392826
23	0x3fe46ac1cd95c488	0.6380318656284922
24	0x3febb9b7ad856731	0.8664205922206972
25	0x3fc3bf0a6898f449	0.15426759822176653
26	0x3fda7ae72958f7bb	0.4137514022621606
27	0x3fec453b76a5a4ea	0.8834512059521817
28	0x3faf76ec3b962dbe	0.06145418383956834
29	0x3fe932a084ffad4e	0.787430057299767
30	0x3fd20e5da132a0bf	0.28212681524247424
31	0x3fd17f37b4efffea	0.2733897463767777
32	0x3fde27d1cce02798	0.47118039138205736
33	0x3fc98ba9ed8f90c9	0.19957470035217842
34	0xbfb7eea322f9985b	-0.09348506549722073
35	0x3fcfa619b7fe118b	0.2472564838791523
36	0x3fd99864aa2a1013	0.3999263440857714
37	0x3fe1d6cc35449fe3	0.5574704208747757
38	0x3fead3f6e4f13bd2	0.838374564316718
39	0x3fb2bf31ea05e92a	0.07322990382627795
40	0x3fdde1e9c624537c	0.46691364621920406
41	0x3fec67dbb728b37b	0.8876780106853482
42	0x3fe9b9098aab972f	0.8038375576404401
43	0x3fe26a3a21320644	0.5754671715114417
44	0x3fe67465753cc3ae	0.70170853517458
45	0x3fe750e287464c2d	0.7286236421663311
46	0x3ff12863338bfd39	1.0723602307842397
47	0x3ff04db63a377d71	1.018972613724909
48	0x3fcac836e2b4b34e	0.2092350584947788
49	0x3fef6b3c6790b24d	0.9818403265722481
50	0x3fceb75816ae803c	0.2399702177763191
51	0x3feca3f60279b4ac	0.8950147674892341
52	0x3fe6162f9236cd59	0.6902082305663654
53	0x3fe4f84b671777ed	0.6553093923100711
54	0x3fd49837f3c744e2	0.3217906838081729
55	0x3fd42d71e7f6d8aa	0.315273739364225
56	0x3fedc4a3267a9290	0.9302535773791352
57	0x3fd1b5ec89904387	0.27672875818193926
58	0x3fe565db80e664e5	0.6686837689950634
59	0x3ff0ccc2c836ff6a	1.0499904461757645
60	0x3fe7ff1664b9d119	0.7498886077214905
61	0x3fed6400cb63b857	0.9184574100925244
62	0x3fd81c53a7e27998	0.37672892947184655
63	0x3fe383626d6ddb50	0.6097881448066378
64	0x3fea91c2a56d1f3f	0.8302930098516085
65	0x3f96b19e124db65a	0.022161931864891883
66	0x3fd9c0d2717f9aea	0.40239392360528703
67	0x3fe4c627be421616	0.6491888729075892
68	0x3fe2296afe23bb9c	0.5675559009231281
69	0x3fb2e7fa7835ac36	0.07385220942312362
70	0x3feb8371e5b698cc	0.8597955214106832
71	0x3ff221cdffae0595	1.13325309634124
72	0x3fed45f7cfd03b73	0.9147910174232109
73	0x3fbe48532d261e3f	0.11829109051006358
74	0x3fe823116d0e59c0	0.754280770301925
75	0x3fe72d4364b71f12	0.7242752997489978
76	0x3fd6904739748326	0.35255604372837224
77	0x3fe2364ea7d698fa	0.5691293027964826
78	0x3fe0d4f335556371	0.525994877020919
79	0x3fc8d61179f0ae73	0.19403284505948512
80	0x3fee3fdf6fa5f56b	0.9452969723348991
81	0x3feb9b605d0f6473	0.8627168481426807
82	0x3fe961abc083d374	0.7931727180535817
83	0x3fe474c68fd236d5	0.6392548378950901
84	0x3fc51c02c9fc5ecc	0.16491732466305675
85	0x3fd0114596c45092	0.251054188950783
86	0xbfbbfb20b07f8e6d	-0.10930065449752542
87	0x3fc08637ebd339ed	0.12909602179429616
88	0x3fe98f0903742f78	0.7987103526552195
89	0x3feb6e7e301ae84f	0.8572379054596783
90	0x3fe192ca7ba2bccc	0.5491688170203815
91	0x3fb6a51f625145ff	0.08845707083062136
92	0x3fe74fcf39207325	0.7284923663861248
93	0x3fd7726c31db6156	0.3663588034519497
94	0x3fc9b0c33088cc6e	0.2007068621620393
95	0x3fe22c84b73bb684	0.567934377553414
96	0x3fe59794ea165edd	0.6747536251086462
97	0x3feda91d62584f2c	0.926893894271847
98	0x3fe9a223c92075cd	0.8010424545533908
99	0x3fe427423681177f	0.6297923149620458
100	0x3fe1a89770b5368d	0.5518300248456441
101	0x3fa1945d59800657	0.03433505742578962
102	0x3fd6d4d5959f961b	0.356740375629984
103	0x3fd0178d1053c2da	0.25143744081928576
104	0x3fe7acf2e594358c	0.739861915966388
105	0x3fe1bd7cd3913678	0.5543808109448056
106	0x3fd01b03ebe5f2c4	0.2516488841718394
107	0x3fe66c3e9969bf01	0.7007134434079206
108	0x3fc7728766fab03d	0.18318264511379026
109	0x3fe5d89a0e5bad42	0.6826906471664318
110	0x3fe26237b0fec5b7	0.5744894463479601
111	0x3fee4f0eb2f70716	0.9471505637559143
112	0x3fef00fb468337b0	0.9688698174666026
113	0x3fbda2b6374ec415	0.11576403475079673
114	0x3fecf2a332603e47	0.9046188339143065
115	0x3fcd3f2db4cd4715	0.2284905560323344
116	0x3fde259fc296a5cd	0.4710463905599596
117	0x3fe1c0ec44cce335	0.554800161719959
118	0x3fc7c66f0b61b6f8	0.18574321799990634
119	0x3ff48d51fd3f2056	1.2845020191616832
120	0x3fa449fb471df13e	0.03962693446280462
121	0x3fd5a0acbeff01b5	0.3379318108746035
122	0x3fea9f8ea1b36ca3	0.8319771917553179
123	0x3fe8ab4254333aca	0.7709056515248787
124	0x3fcc54cd88d29e06	0.22133797817990358
125	0x3fea126de656c47d	0.8147496699149454
126	0x3fe6ed67b0fde3fc	0.7164801079626382
127	0x3fd1f388571e883e	0.2804890490316473
128	0x3fb716ac9f78f1d9	0.09018973248834729
129	0x3fe5adcfc45f9881	0.6774672351282477
130	0x3fdb3f35e5b69078	0.42573306496547714
131	0x3f98a9981ad83d8e	0.02408445037695866
132	0x3fd8b3a4a25ac7b8	0.385964544820236
133	0x3fd2bd796de2f6e5	0.2928145955191737
134	0x3fa6a28ad14f31b0	0.04420884900136757
135	0xbfb090dc07e290b4	-0.06471038048272498
136	0xbfaf075f3bf196cd	-0.060603118960711556
137	0x3fd8d14573e372b2	0.3877729064677552
138	0x3fe7bf54047b83c6	0.7421054923580577
139	0x3fe53970709fe26e	0.6632616233537882
140	0x3fe33892a48e0c10	0.600655862232431
141	0x3fe15552cad3a7e8	0.541665455003792
142	0x3fdae98aceb0e840	0.4205042856662011
143	0x3fe74c89c360a688	0.728093034359703
144	0x3fc621ca8db9bff9	0.17290622635073286
145	0x3fce6f993ca21d2d	0.2377807184277371
146	0x3feaf25a29152400	0.8420840074915077
147	0x3fd6e2d891094188	0.3575955788010323
148	0x3febd6d616e09896	0.8699751326392
149	0x3fe377807db87bcf	0.6083376365166887
150	0x3fe5b5f2ff0c61ff	0.6784605962193949
151	0x3fb8b768afe3e5dd	0.09654859823412872
152	0x3fd836acc245c99f	0.3783370873635707
153	0x3fedaf018aeb0536	0.9276130402796869
154	0x3ff0e9d0cb8b17fb	1.0570838881408224
155	0x3fed9aef91ac46d3	0.9251630635428348
156	0x3fe50f7937e2afcf	0.658138856078489
157	0x3fcd8e64932abe1b	0.23090798555266265
158	0x3fdab383d44f2802	0.417206723530967
159	0x3fcb615bb62c33ec	0.21390863795423287
160	0x3fd6d87e65235434	0.3569637286830727
161	0x3fee2d991acc5990	0.9430661700633198
162	0x3fa25b5265bec075	0.035852980537470915
163	0x3fe986722cf623e2	0.7976618650583271
164	0x3fe5d7212d75dbb4	0.6825109374902838
165	0x3fe81e0829bfc71b	0.7536660018360836
166	0x3fe7cc31f1768d2d	0.7436761585308084
167	0x3feca72bdd4b4fa0	0.8954066583778406
168	0x3fed0d097c5bbe27	0.9078414372324389
169	0x3fd3fde3622ed911	0.3123711069887501
170	0x3fcd79dc2939de2a	0.23028137219419992
171	0x3fd861e0d2a1fb55	0.38097401208499565
172	0x3fc9bb31ec916549	0.20102523852509993
173	0x3fe9a60ae9ae1ba6	0.8015188755097042
174	0x3fe7ba15e4aa3b98	0.7414655176270228
175	0x3fedb00953e3b4e2	0.9277388227907546
176	0x3fefd6360ab7bf34	0.994898816044929
177	0x3fe56f577566735e	0.6698415081951727
178	0x3fd8adbc3b19f676	0.3856039597666049
179	0x3fdcd56a46568985	0.45052582615803544
180	0x3fc559447d82655a	0.16678672912966414
181	0x3fee7e0f284950e6	0.9528880869716232
182	0x3fe1e911dfe34f73	0.5597009060679582
183	0x3fc26b2fd09a46e3	0.1438960808341597
184	0x3fe6e57a5f9ef7a0	0.7155124538037292
185	0x3fc2ddb366e15186	0.14739077113575777
186	0x3fd3f8a8e271d650	0.3120519839643281
187	0xbfab2cf8c5ac77c9	-0.053077482347574874
188	0x3fd4ca84baebedc1	0.324860746899244
189	0x3fe09e545ec633ec	0.5193273402270484
190	0x3fcd2a14a529330f	0.22784669937609478
191	0x3fc9b685329dafce	0.20088257762415512
192	0x3fbc991a942dec15	0.11171117894802791
193	0x3fc044fb7bf8aa45	0.1271051745728348
194	0x3fe42bcc89cf70ff	0.6303465549094937
195	0x3fde85e329e30f05	0.47692183580896624
196	0x3fdeff1738afc982	0.4843195012646434
197	0x3fc15f295a32f4f0	0.1357165995049523
198	0x3fd8903c8deeef07	0.38380349980046485
199	0x3feb7b99c55dea85	0.858837972147129
200	0x3fca0184a52e6afd	0.20317133012289182
201	0x3fda0584677ce151	0.4065867434142279
202	0x3fe1f4b031281dd2	0.5611191711513419
203	0x3fe5f57691a38a09	0.6862137646206189
204	0x3fe53aace2434ac8	0.6634125155636292
205	0x3fd2549edfc947ec	0.286414831677688
206	0x3fdcd15e59c3eaf6	0.45027884260313955
207	0x3fc483177f6a1b38	0.16025060388002443
208	0x3fceb3cce88eb18c	0.23986207347242006
209	0x3fce3cff661023ef	0.2362365005831459
210	0x3fe9913a4d793c33	0.7989779961734541
211	0x3fdbab04031687a3	0.4323129682689972
212	0x3fef9359007485b7	0.9867367752923916
213	0x3fdb02896b149275	0.42202983338419325
214	0x3fe84297adc66e3f	0.7581289667172725
215	0x3fce8c5b318a7cad	0.2386583320521586
216	0x3fd3d59190cc8f79	0.309910193829857
217	0x3fd5f7d17c976867	0.3432506291115999
218	0xbfa5bae0dbcd6d48	-0.04244139369140015
219	0x3f9fb8b4173772cd	0.03097802535727361
220	0x3fdc30b7028a237d	0.44047332046516613
221	0x3fc40a329cccd7e4	0.1565612092614962
222	0x3fe5164864430542	0.6589700659025441
223	0x3fddf4a4238bb670	0.4680567118765344
224	0x3feaa88be4bdc78b	0.8330745189289116
225	0x3feb06f9e6abeba0	0.8446015839866625
226	0x3fe9bdec4e1a6e1a	0.8044339681104618
227	0x3fdcc02bb3fc796a	0.4492291696241383
228	0x3fe8f5474f1fee82	0.7799412293820327
229	0x3fec012c9ba5e74c	0.8751433410645659
230	0x3ff0d0ed81adf19d	1.0510077539066522
231	0x3fdfdc177baaccf2	0.49780833317636486
232	0x3fda71f7ff99f9d3	0.4132061000927056
233	0x3fcef06e8b403783	0.24171239661557928
234	0x3fda89828fb25a12	0.4146429446495016
235	0x3fde282afbd232bd	0.4712016543569851
236	0x3fb85c704de22a1a	0.09516050244761978
237	0x3fccdf5893d3d318	0.22556597917687138
238	0x3fe89e1ad32b437d	0.7692999004740241
239	0x3fdd3e830d940edd	0.45694042516718786
240	0x3fa9dcfd57751fab	0.05051414196583378
241	0x3fc785012f8e0779	0.18374647924434465
242	0x3fe34ae62ca28431	0.6028929588102355
243	0x3fe013f01671d1ee	0.5024338186618118
244	0x3fe13ab57e9eb83e	0.5384166214987613
245	0x3fdb27ff2300feed	0.4243162004313337
246	0x3fdac3252c71d000	0.4181607183484175
247	0x3fb3739740ee7ef5	0.07598252616162056
248	0x3fdf549eb59f8f2d	0.48953979241035733
249	0x3fdf9051188fe723	0.49318339728016464
250	0x3fcb68234ff89382	0.21411553768953345
251	0x3fee7ee983145809	0.9529922065873971
252	0x3fdb4d0530be95b2	0.42657594452097236
253	0x3fec7d7e162bb1a6	0.8903189118405421
254	0x3fd6f9ae42404f39	0.35898930044026006
255	0x3fe54cf69c046a1e	0.6656449362956811

L f8 [40, 40]
0	0x3fe6ecc00dfce8c1	0.7164001725389185
1	0x3fe47158ec839c40	0.6388363475242684
2	0x3fe504b65bb9f5d5	0.6568252364665407
3	0x3fcbcad527e634f1	0.21712746093945826
4	0x3fe56406cca8041f	0.6684602734750377
5	0x3fea8896ab3e7398	0.8291734070404457
6	0x3fe3b562092fbc9f	0.6158914737151412
7	0x3fe230cd20efc03f	0.5684571879664942
8	0x3fdb1afb040c8af7	0.42352176089677535
9	0x3fe7338c5c2ec7ab	0.7250425148433711
10	0x3fd8660860d01644	0.381227583450116
11	0x3fe793707c4dbe14	0.7367479732328683
12	0x3fd2063755c50289	0.2816294038384873
13	0x3fd0df5fbecebbee	0.2636336673121481
14	0x3fe22989178e00b4	0.5675702533772182
15	0x3fe1210383014cc4	0.5352799948399469
16	0x3fd1cd954270a18d	0.27817279327657546
17	0x3fbd38c7c4af392a	0.11414764930598112
18	0x3fd8195e112540a2	0.376548306220693
19	0x3feab5f53586b72b	0.8347116513666369
20	0x3fe4c45f7ebbdf9b	0.6489713168402774
21	0x3fd53749d7db44f5	0.33149953918207525
22	0x3fcd18fa14f12b10	0.22732473394929587
23	0x3fda4d2c175e6062	0.4109602192124894
24	0x3fe6e0eb7ebb28c7	0.7149560427872296
25	0x3fd68228f8b228d8	0.3516943386718032
26	0x3fdf06cf76ae8dc5	0.4847906741144608
27	0x3f9c34f3da208f01	0.027545747936655655
28	0x3fea2442c8351a5c	0.8169263754178462
29	0x3feca14f79852cc0	0.8946912167970353
30	0x3fe2bc3cf9701226	0.5854782935935574
31	0x3fe448a5316cf8ee	0.6338678326935943
32	0x3fe1d247857a327c	0.556918869684139
33	0x3fd967f7ec00bbe2	0.39697073027758567
34	0x3fe5ea5fd474dba4	0.6848601483860546
35	0x3fea13cccc80c6a5	0.8149169916343523
36	0x3fd5b3f079858550	0.33910762660351157
37	0x3fdbacb72eb1c2d5	0.432416720962505
38	0x3fe2cb4947e8edf3	0.5873152164926395
39	0x3fe38a34689b3c0c	0.6106206935018021
40	0x3fe04a28d807cc40	0.5090526789994172
41	0x3fd473f1fb542c46	0.3195767359144991
42	0x3fdc028ec72d2358	0.4376561112481361
43	0x3fdf3c9122045eeb	0.48807171174983804
44	0x3fd7612733ca1451	0.3653047567134467
45	0x3fe004c8f1d2c94f	0.5005840991127942
46	0x3fe548b86b6ed8e8	0.6651270006466605
47	0x3fe44f8e4203a3c1	0.6347113885250267
48	0x3fa38059b9a6ee23	0.03808861151943812
49	0x3fcc2f8b76a44dcf	0.2202009515100216
50	0x3fe2fe638d45c6f7	0.5935533293943241
51	0x3fc7f0f881c75af0	0.1870413430867397
52	0x3fd976e76383027d	0.39788231580681793
53	0x3fdc34582cde554d	0.4406948507469977
54	0x3fd5b0286a0d7262	0.3388768230122762
55	0x3fe464018b5192da	0.6372077675883603
56	0x3fe8ee53b8f031a5	0.7790926563334791
57	0x3fe8763e73f69054	0.7644340767769884
58	0x3fdd235f69d9983f	0.45528397881423993
59	0x3fe417067f6ef85a	0.6278107155737971
60	0x3fe1d2dc5e867068	0.5569898458666218
61	0x3fbdbd729606bc00	0.11617199099303832
62	0x3fbff7bbae18f3d6	0.12487385750223665
63	0x3fdad8a52fe2106f	0.4194729774101295
64	0x3fcfe952e6d8119a	0.24930797835999102
65	0x3fbce928a58991d1	0.11293272057952854
66	0x3fe0c61c1f88990c	0.5241833320513094
67	0x3fdeae3d36f2f2b3	0.47938471189608406
68	0x3fe87d9e9e81bcfe	0.7653344245753997
69	0x3fce5cc0f6f7b72c	0.23720562037436232
70	0x3fce765adcdec31a	0.2379869059054947
71	0x3fde07cbf7292a1e	0.4692258752517392
72	0x3fe6c9457c71eee7	0.7120692663733877
73	0x3feb37d4b84a90e2	0.8505652999342852
74	0x3fe43de205fcdc39	0.6325540654132801
75	0x3fe2bf8ea8c0c9ef	0.5858834548910731
76	0x3fdde4654c665fe6	0.46706516705444157
77	0x3fd6c45b430613c8	0.3557346491364197
78	0x3fc2fa23f6ad2212	0.1482586817239882
79	0x3feb08856b9594d1	0.8447901822334193
80	0x3fbaf755cd46f161	0.10533653508804754
81	0x3fd1a4111607852c	0.2756388392572997
82	0x3fec371a7c1f73bc	0.8817264961504558
83	0x3fda7d0ecd15ff1d	0.41388292339250815
84	0x3fd9f3e73cde635d	0.40551167434892027
85	0x3fe6d743810ceed7	0.7137773056524236
86	0x3fd4ab1d1d993c92	0.3229439534233701
87	0x3fd7719e65a83f12	0.3663097374674048
88	0x3fd15f382496d16d	0.2714367253604653
89	0x3fd4ae977524fca8	0.32315622749224326
90	0x3fea1085356e1c01	0.8145166438633852
91	0x3fda60b5770deb8c	0.4121526396408448
92	0x3fddccd39a903394	0.46562662214346884
93	0x3f8dad0b9566315f	0.01449021386795185
94	0x3fe76ccdc0c55fe2	0.7320317044313891
95	0x3fd27a100f7a3f43	0.28870011817433666
96	0x3fe26e5cb9c54713	0.575971949418291
97	0x3fdac8d33af11447	0.4185073924639408
98	0x3fddcf2ec72d22f6	0.4657704300957869
99	0x3fe919c3692c6961	0.7843949369592275
100	0x3fd3f8b8d434948c	0.3120557854002264
101	0xbfa375bc1168728f	-0.03800761902332283
102	0x3fd90ccb11a6fd26	0.3914058372865433
103	0x3fd7377a0797b0ae	0.362761027731504
104	0x3fe220c64fb30c19	0.5665008122090313
105	0x3fd0f4e50991a655	0.2649471848913881
106	0x3fcdfbaa52683151	0.2342427160623495
107	0x3fde22eed433375f	0.4708821365610358
108	0x3fd2766586de1deb	0.2884763543192707
109	0x3fe2ef87f334398b	0.591739630706614
110	0x3fdf7449e95d3065	0.49147270001845406
111	0x3fce197fe6ffc309	0.23515318660022214
112	0x3fdf32fb2bf8a9c5	0.4874866418273565
113	0x3fd23520ea36c577	0.2844927108045207
114	0x3feb1e47a2e63609	0.8474462682367526
115	0x3f90bdd6f61c390f	0.016349180957200334
116	0x3fdcba7a58515579	0.4488817083814279
117	0x3fd5076cbaffd877	0.3285781694570526
118	0x3fcd33d820051011	0.22814466060128827
119	0x3fd21c1b934a6ccf	0.2829655588518109
120	0x3fe62f7c6f3b43da	0.6932966396799387
121	0x3fe771eb19733673	0.7326560494490891
122	0x3fdc1dfb6bfa7857	0.4393299631573248
123	0x3fe630245cdafc0b	0.6933767140943713
124	0x3fdfb87c601926fb	0.4956351221522792
125	0x3f86dd25b3b2e027	0.011163992449255101
126	0x3fed5f505079e105	0.9178849765585545
127	0x3fe41454e526b2a0	0.6274818873985915
128	0x3fe72d96cd8fdb68	0.7243150725251839
129	0x3fc224bba06da10c	0.14174599965486612
130	0x3fe10724ba48f1ed	0.532122005307938
131	0x3fb46fd7831cd08f	0.07983157111158533
132	0x3fdc8568be6458fa	0.44564264862982805
133	0x3feac69f7432119c	0.83674595541429
134	0x3fcf00ef38e41169	0.24221601751208802
135	0x3fe88b7b13840e80	0.7670264607590553
136	0x3fdbfcf118e8b437	0.43731334145087736
137	0x3fe3da0c136dddf7	0.6203670863605443
138	0x3fc931c7c277ccef	0.19683167453295122
139	0x3fd1228aeabdcd3a	0.2677333156963929
140	0x3fe3bf4d9aa6260c	0.6171024342049249
141	0x3fd468dc6771a630	0.3189002046770808
142	0x3fed5ef945392176	0.9178434707655885
143	0x3fc5363eee87d70f	0.16571795126918018
144	0x3fea0100ca29e32c	0.812622446871591
145	0x3fc028b443c8a68d	0.12624219236140669
146	0x3fec6e6c6e1fc684	0.8884794379102492
147	0x3ff1726cf78cbc0a	1.0904359502708325
148	0x3fbb7f562e0e2881	0.10741175293347462
149	0xbfc51ef85b6fdfdd	-0.1650076338262342
150	0x3fe2202ed9cee290	0.5664285902085613
151	0xbf954deb0ba0e179	-0.020805046639197997
152	0x3fe12b38a6fcdf15	0.5365260373573358
153	0x3fd38cdaa4af272c	0.30547205049934933
154	0x3fe807dc081d83bd	0.7509594114782129
155	0x3fe94d590d2a23a9	0.7906918770905708
156	0x3fdee26ce1aa1491	0.4825699046853709
157	0x3fbddf6e1b144e40	0.11669052277675807
158	0x3fdbf75aba0efcb0	0.4369723145463906
159	0x3fd594e01488355c	0.33721162800869364
160	0x3fa461ec7b4b1f9f	0.03980959897086155
161	0xbfeecd67e2657597	-0.9625739499858125
162	0x3fe1879403cceeda	0.5478000711659334
163	0x3f9d1c89666b7aaf	0.02842917144414042
164	0x3fe909ee9441a9f3	0.7824623962054019
165	0x3fea60a9ea55db12	0.824299771963384
166	0xbfc272753539bce0	-0.1441179761782001
167	0x3fe23ec49a7a42a5	0.5701621071949218
168	0x3fbd49333c764980	0.11439819551586616
169	0x3ff07f080e1217d7	1.031013541186885
170	0x3feec03cc5394356	0.96096647758723
171	0x3ff1a3f6a05b3aab	1.1025301231308429
172	0x3fea99683d765b8d	0.8312264633594723
173	0x3fd069fdfd76a91e	0.25646924736305887
174	0xbfc607c63f1e290d	-0.17211225587772852
175	0xbfbd0b618101fed5	-0.11345490836719858
176	0x3ff0caff0ab314d7	1.049559633059564
177	0x3ffcd0c74f3d0dfe	1.8009713263753606
178	0x3fdc59a4733fab4d	0.44297133688694573
179	0x3fe1a6e5d4f8c04d	0.5516232642749032
180	0x3fe1f14b005f5a37	0.5607047087931453
181	0x3fa35d192a0e087b	0.037819658645290986
182	0x3fe5cd016a0a8aa6	0.6812750884167442
183	0x3fe0d04b7df1a973	0.5254266223758307
184	0xbfe0eb7a1aa9f70e	-0.5287447472362332
185	0x3fe4db12b657b8d7	0.6517423211460266
186	0xbfd0839556005244	-0.2580312099319466
187	0x3fee4c873cfec9c7	0.9468418303788945
188	0x3ff0b55902d6ac1d	1.0442743407136341
189	0x3fe0b65fe4b7a5f5	0.5222625224243403
190	0x3fea54f4dc3ec695	0.8228706647552878
191	0x3ff33842b15b98fa	1.2012354782141856
192	0x3fc5f15255b0f8b1	0.17142705139298678
193	0x3fdf633ba8cc3a13	0.4904317043700825
194	0x3ff1f72226dbbd47	1.1228353040604178
195	0xbfe10acae2b09a74	-0.5325674464737191
196	0x3fc33ef79d8c5e83	0.1503591079024212
197	0x3fd831669ff4f145	0.3780151903227032
198	0x4002e0d991e706da	2.3597899817112706
199	0x3fec00d9504dd75f	0.875103623241312
200	0x3fe91b63c0242624	0.7845934632070493
201	0x3fdd0d8f6b7d378b	0.45395265099511367
202	0x3fe3fa7835e2953f	0.6243248989527855
203	0x3fd4ee6efc0a30e5	0.3270528279615646
204	0x3fe66877719138ed	0.7002522676573598
205	0x3fe43f0e014ab730	0.6326971078139874
206	0x3fd1792f57df540d	0.2730215414169955
207	0x3fea0535691745b0	0.8131358196789531
208	0x3fe68528ca4b95d3	0.7037548018531034
209	0x3fe6101edece43c6	0.6894678451227427
210	0xbfc918076b06cbfc	-0.19604580617814793
211	0x3fc5d7f72cc4cbc8	0.17065324483846056
212	0x3fefb93c739c7c99	0.991361833384775
213	0x3fe698326f779f69	0.7060787369818914
214	0x3fba8631edadf431	0.10361015370104167
215	0x3fe992973f01d81a	0.799144385395951
216	0x3fe2d3e97f156d9c	0.5883681757072057
217	0x3fd6a8cac88d0640	0.35405225358053727
218	0x3fd00b182e778009	0.25067715204022584
219	0x3fed4ba4ae5ebb73	0.9154837995209689
220	0x3fa51e4e87665fac	0.041246847179706364
221	0x3fe0346a62912d83	0.5063983845843015
222	0xbf946965a76e8616	-0.019933307975980773
223	0x3fe0f7337dea9a2b	0.5301759204201678
224	0x3fe861199ffcd3fd	0.7618530392416002
225	0x3fd6c99c41b71355	0.35605532090658204
226	0x3ff0e17e46582366	1.0550520656417688
227	0x3fb27b1a5ba587b2	0.07219090211358895
228	0x3fe3d66a1672711e	0.619923633424637
229	0x3ff12006087bb96f	1.070318253648647
230	0x3fe60f7de2df5a21	0.6893910819151793
231	0x3feeae68821185aa	0.9587900677108128
232	0x3fc2576ce02b1030	0.1432930082866064
233	0x3fd3fb882ccafdf5	0.31222729086218176
234	0x3fc7e9fb77fdee92	0.1868280731103949
235	0x3fea1a74d3be5106	0.8157295356382128
236	0x3fe34ac4ad3cce04	0.6028769858880314
237	0x3fe82a78420424d8	0.7551842965487152
238	0x3fe09505a897077c	0.5181911747715584
239	0x3f9984aa0a48de7b	0.02492013633511057
240	0x3fcd7c788829d7a8	0.23036104820829206
241	0xbfc4d320750e64af	-0.1626930781901925
242	0x3ff8c1e32d132299	1.5473357926113407
243	0x3fd94e2c121db4aa	0.3953962494768556
244	0x3fd5a58e44a8cdfd	0.3382297201635252
245	0x3ff363b11cd9f7ef	1.2118388297089913
246	0x3fe79da9151a9607	0.7379956638512234
247	0x3fe4d870d08218d0	0.6514209816384895
248	0xbfd037db65546d9c	-0.25340924163330114
249	0x3ff323eab723312e	1.1962687639052763
250	0x3fef89795045cdce	0.9855314796281449
251	0x3fec31fb0de47c2b	0.8811011573160433
252	0x3fee8749be53ff43	0.9540146558137866
253	0x3fc404d06706cd38	0.15639691382021126
254	0x3ff0bc5a8835dae6	1.0459847756116516
255	0x3fcc7990e5eecb06	0.22245990016161715

weight f8 [50, 4]
0	0xbfcf886a548746d5	-0.24635056617130738
1	0xbfd5e7fdf2b5deff	-0.3422846670359689
2	0xbfd622b1c3823f5d	-0.3458675774827407
3	0x3fdb0a9c13431d93	0.4225225628001336
4	0xbfe1081482659c1c	-0.5322363421263421
5	0x3fa9030af4f447a9	0.0488513397232418
6	0x3fa7128b63a91d01	0.045063358226395074
7	0xbf4451d38cd254ec	-0.0006201060256382485
8	0xbfdcd39d0ee65131	-0.4504158635620739
9	0xbfd9b5698636aed9	-0.40169752222821625
10	0x3fd960ffcb1d5918	0.39654536090292103
11	0x3fd4ab31908fd0e4	0.3229488288627762
12	0x3fd8c53592ebe85d	0.3870366987972654
13	0xbfd98b634ab5a648	-0.39913255973678874
14	0xbfa2d2492357e813	-0.03676060253560833
15	0xbfa4cecd774de519	-0.04064027863837278
16	0x3fc5355cb4684d0f	0.16569098290401782
17	0x3fd7d0204466022f	0.3720780055955712
18	0xbfb033adab36299f	-0.06328854970903429
19	0xbfe2d5b634fa4165	-0.5885878596036888
20	0x3f2003cb4938eb88	0.00012218338507516088
21	0xbfd8d4a9e8c4eb85	-0.38797996264809625
22	0xbfacf8474cbd67cf	-0.056581714742335636
23	0xbfbbfaca7908f042	-0.10929551558450704
24	0x3fce44576bf44e45	0.2364606167908382
25	0x3fdb0a2fe35f4a8d	0.42249676899260963
26	0xbfd90f4e4c23c33b	-0.39155919490353924
27	0xbfd00bf4d8b81c8b	-0.2507297626875206
28	0x3fbeaa9e221d3cfa	0.11979091961733337
29	0xbfd09efddcab27ad	-0.2597040801016373
30	0x3fbe3917c4fed12d	0.11805866774995329
31	0x3fd0b0dd0356f6ba	0.26079488111632154
32	0x3fc2931bc257ff1a	0.1451143931335473
33	0xbfdec74faf71625b	-0.4809149945554389
34	0xbfca39993012bfad	-0.2048827633602718
35	0xbf98dce5d4b97525	-0.02428015814654318
36	0xbf9cbee82f4ecf29	-0.028072002303544927
37	0x3fc0ea3c18b9d3b0	0.1321482773525111
38	0x3fe08818dea4ae6a	0.5166134212972342
39	0xbfd166cc25a045c9	-0.2718992583696403
40	0xbfa480a951b2faf1	-0.04004410860351538
41	0x3fcdbebc48efa50e	0.23238328515370948
42	0x3fce82c817b8e9e1	0.23836613806072562
43	0x3fe75a7218ed40d2	0.729790733990763
44	0x3fb9f937fa49c6ef	0.10145902500678593
45	0xbfbc56c19e1cb9af	-0.11069879636918388
46	0x3fd16e3e5e103d75	0.27235373674280733
47	0x3fbc455e3841a23f	0.110433472380131
48	0x3fdec4108aa7f81d	0.4807168344558493
49	0x3f971f7f1cc494bf	0.022581087237217853
50	0xbfc72b8444b54a63	-0.18101552348032887
51	0xbfd4e6485b440c37	-0.32655533707310574
52	0x3fb13bb71f35bf0a	0.06731743347131328
53	0x3fc7674e119f5be0	0.18284011707757397
54	0xbfadddf07655d49a	-0.058333887524818454
55	0x3fc91eb1ee8b5c66	0.19624923846888293
56	0xbfd0420057b9ca3a	-0.2540284020134639
57	0x3fc4f60de2c48f21	0.163758979536504
58	0x3fb46b600948360a	0.07976341463673733
59	0xbfdedc0a6d5bceda	-0.48218022040894726
60	0xbfb11a58c1d8d518	-0.06680826885788738
61	0xbfdd8b068749665c	-0.46161044322579925
62	0x3fdb2a6f69f19993	0.4244650396925859
63	0xbfdb859b89f4f192	-0.4300297591433032
64	0x3fdc664cdb54e30f	0.4437439100179725
65	0x3f9071cb2ad4c0ab	0.016059088219834077
66	0x3fd028ea242bbfc1	0.2524972298842805
67	0x3fd05e1700c39b3c	0.2557427890264312
68	0x3fde2e648acbb85f	0.4715815883090552
69	0xbfd9c3e6fced46bf	-0.4025819272984385
70	0xbfd212d47ebd9fc3	-0.2823992955877623
71	0xbfc1ae0641da46d3	-0.1381233045145139
72	0xbfd669836e6b9415	-0.3501900270769636
73	0xbfcd8c33c252e743	-0.23084113110035717
74	0x3fd35f095c86165a	0.3026755717804456
75	0x3fd0aac81fa43caa	0.26042368974681074
76	0x3f811ead14bd3da9	0.008359291263018447
77	0x3fd81eeac3977b68	0.3768870267940003
78	0xbfc01e1ed05ef99c	-0.12591920065274287
79	0xbfc68b9a1e2706cf	-0.1761353156307934
80	0xbfa80d8e503bd828	-0.04697842339912511
81	0x3fb76d4830f190a5	0.09151126093780933
82	0xbfbd864fd3cd6e7e	-0.11533068581541703
83	0x3fcc97a965529144	0.2233783478487884
84	0xbfc2abc013d6719a	-0.14586640328060413
85	0x3fd84a79b986a731	0.3795456229951127
86	0xbfb9298bb472b6f2	-0.09829018741103449
87	0xbfd3e72c6068548f	-0.3109847012977491
88	0x3fc73c0e4bca95ac	0.1815202589106496
89	0xbfb9ea2a17f49ed0	-0.10122931561329129
90	0xbfc99948bbaab550	-0.19999035991114988
91	0xbfd149ec58348a59	-0.27013691533844547
92	0x3fd05b1535c074a9	0.25555925606915736
93	0x3fe07410097fea16	0.5141678033390373
94	0x3fd9cc0f110260eb	0.40307976399482354
95	0x3fdb3a2590c16446	0.4254239953639324
96	0xbfd993e82280e744	-0.39965251321301687
97	0x3fd64950aa4ce3bf	0.34822479849713867
98	0xbfdd9e91acce37cb	-0.46280328631916906
99	0xbf9d9e19153a28d7	-0.02892340843258342
100	0x3fd65d3c2fff00d5	0.3494406193458535
101	0x3fb3052db075458f	0.07429776723917868
102	0x3fbdf4fc4ad89ff7	0.1170194323282202
103	0xbfd8dc3d63247ae7	-0.38844237024197387
104	0xbfdbebfdf2030401	-0.4362788070102966
105	0x3faf7177e869fc0f	0.06141257011494627
106	0xbfcb79f88418aed8	-0.2146597523691216
107	0x3fd16e2e63108c84	0.27234992670327807
108	0xbfdaf2ac6ab650cb	-0.42106161519155866
109	0x3fc35d4054b99eac	0.15128330361334485
110	0xbfa2bb39a2b74938	-0.03658466445235081
111	0x3fd9c7552eed0554	0.40279130537608876
112	0x3fc5e20a0e5b560f	0.17096067143454305
113	0xbfd4c623da2459db	-0.324593508748334
114	0xbfc47e380caff952	-0.16010189647199496
115	0xbfd090f312020f70	-0.25884701498602336
116	0xbfc8233b9fb2fbfe	-0.1885752229481738
117	0xbfd895dd3f094ad4	-0.3841469874943588
118	0xbfcb876cb88a2549	-0.2150703335831088
119	0x3fd3349566d36d0c	0.3000844482573519
120	0xbfddf7de57b66664	-0.46825369420694174
121	0xbfbe2f8ee98189fe	-0.11791318131285064
122	0xbfba67f5f95d15d1	-0.10314881647089826
123	0x3fc188f02e7bcb07	0.1369915225000897
124	0x3fbe6969c6e04521	0.11879597764370377
125	0xbfd3a8913d56b527	-0.3071635340700873
126	0x3fb30a9a280f11e8	0.07438052633285219
127	0x3fe1b96d79b8da49	0.5538852097877874
128	0xbfe03276e8e634e0	-0.5061602162183156
129	0x3fb5e2032e018ac2	0.0854799258536714
130	0x3fa7df0f8e95930b	0.04662369361429882
131	0xbfe1f114647c30c3	-0.5606786692237836
132	0xbfcc83b1e62ba0e2	-0.22276900996008125
133	0x3fd0ccca0226589d	0.26249933443012613
134	0x3fd8d031bfcc064d	0.38770717363522494
135	0xbfd91f089ea57233	-0.392519144943239
136	0xbfd2cd1dc8df010a	-0.2937693082458429
137	0xbfb28af178bb2ff3	-0.07243260571993897
138	0x3fd7141d870d09d3	0.36060274303977485
139	0xbfc2c595fc83428a	-0.14665484266017287
140	0xbfab708a27d92463	-0.053592984546931864
141	0xbfddc601a924db1a	-0.46521035688367507
142	0x3f49564b48e319a7	0.0007732265092037963
143	0x3fb95b6fbff9af25	0.09905146061799693
144	0xbfd0e817cc9ca045	-0.2641658304369268
145	0x3fd31c9fa04f8d22	0.29862204223009503
146	0x3fcf3d8dede2b08c	0.2440659915495228
147	0x3fd2367292b41ef9	0.2845732147838898
148	0xbfd14aa34a938f9a	-0.27018053324558766
149	0xbf89a307d2d06c20	-0.012517987366711891
150	0xbfd3f973ad3348d7	-0.3121003333482241
151	0xbfd80bf10971ce8d	-0.3757288543922435
152	0x3fb13e741ba50817	0.06735921549719169
153	0x3fb28c52a63382d2	0.07245365674635743
154	0x3fd34465b33ecc77	0.3010496378366904
155	0xbfd7bc0ca504a40e	-0.3708526240830573
156	0x3fcddd3152c4ff14	0.2333127645633729
157	0x3fd124b15914feea	0.26786454867759224
158	0x3fd5e014ed02102f	0.34180186410253816
159	0xbfd5cf30bb7ba353	-0.3407708960426607
160	0xbfda63124caba52f	-0.4122968434081313
161	0x3fd577cc80fd2a14	0.3354369411141829
162	0xbf9cdb15a481749c	-0.02817949120104811
163	0x3fa91e35ff05cba3	0.04905861604756658
164	0x3ff15c8f92d03694	1.0850978598495304
165	0xbfd3e14760a238e9	-0.3106249278724947
166	0xbfd9702d20166275	-0.39747169621981665
167	0x3fcafa2c64625720	0.210759686484999
168	0xbfdd45d4783eab8c	-0.457387082506721
169	0x3fe0efa4484a3755	0.5292531406318896
170	0x3f97b3b04c9753b6	0.023146395373106997
171	0x3fb05af4ebcc707d	0.06388788945008801
172	0x3fd005461716684c	0.250321886583724
173	0xbf94cb33c80b1ea6	-0.020306405148203276
174	0x3fddcbad9d90ab19	0.4655565298768792
175	0xbfbc5862162d5385	-0.11072361985618613
176	0x3fd7c5bb79580868	0.3714436230658351
177	0xbfd483143b6064bb	-0.32050042913904137
178	0x3fd255ba002794c4	0.28648233428095815
179	0x3fe469d3f23ca706	0.6379184466543115
180	0xbfd34caba9a2c916	-0.30155459943775165
181	0x3fdd2d79328fce48	0.4559004777686124
182	0xbfe1a03ac27dad86	-0.5508092688227613
183	0xbfd2872c01faaeba	-0.28950023835453076
184	0x3fcfb2a6ab7ac8e8	0.2476394974997398
185	0xbfdd5cff5420462e	-0.4588011094611798
186	0x3fdd307533db9bb9	0.4560826307701365
187	0x3fd304803d0d9da9	0.29714971506333626
188	0xbfcb6aebe11194ba	-0.21420048227006366
189	0xbfe0cc30943cd1fe	-0.5249255080476016
190	0xbfc619d57719762b	-0.17266338649180688
191	0xbfb9764d6e1b667d	-0.09946140230331398
192	0x3fc86d3754329b9d	0.1908330117341536
193	0x3fe1320a950f5590	0.5373585616422805
194	0x3fc9080a0c65a8a1	0.19555783849074707
195	0x3fd7a555b492df51	0.3694662345328555
196	0x3fd89f605cc63acb	0.3847275644301759
197	0x3fc65f76d965c9dd	0.1747883378516936
198	0xbfd1de999c373eda	-0.2792114282174062
199	0x3fdb5f963a0dd645	0.42770915669766324

bias f8 [50]
0	0xbfcbf5fa30733393	-0.21844413152430472
1	0xbfafcf34744b6575	-0.06212772292719652
2	0xbfd2233bab589070	-0.28340045674327197
3	0xbfae222a4f51cd3f	-0.05885441034561233
4	0x3fd0861a8bbacd40	0.25818503995397535
5	0xbfd77e1777b21536	-0.36707102479006737
6	0x3fc057ab3b61f65a	0.12767544173759654
7	0xbfbda800f36a767f	-0.11584478323717383
8	0x3fb513a281edaa5e	0.08233085319594965
9	0x3fd1472b4a29ef44	0.2699688171630792
10	0xbf9319c8b9ded16a	-0.018653045982959617
11	0xbfd815d29f88e6ae	-0.37633195476119397
12	0xbfd62dbe1555ea30	-0.34654190143160957
13	0x3fdefb8b25a6e476	0.4841029994673315
14	0x3fda78003b05f824	0.4135742737197481
15	0x3fa8b913d7596b5d	0.04828702930236404
16	0x3fd0337881dc23b7	0.2531415241397172
17	0xbfd33ddf641e520a	-0.3006514051169523
18	0x3fd7ca8277c6add0	0.3717352075279594
19	0xbfa4d4d71ff93bca	-0.04068634286215163
20	0x3fcb9eeb3294150f	0.21578731507921886
21	0x3fbc93db9a2ed4b7	0.1116311313079049
22	0x3fddd5a6f9358a40	0.46616529785947947
23	0xbfcb0451659884e0	-0.21106927357417415
24	0xbfc44241b4e99395	-0.15827199300397568
25	0xbfcc4d977956f1d8	-0.22111791062151442
26	0x3fbfe3d7f7685b8b	0.12457036771989587
27	0x3fb3c102644ad28f	0.07716383884946708
28	0x3fc33e21fb4389ef	0.15033364075414066
29	0x3fb946b0e143541d	0.09873490809998527
30	0x3fe0911d1005a967	0.5177140534336048
31	0x3faa85b69cbe43e0	0.05180140174264358
32	0xbfc92403b6406542	-0.19641157530785774
33	0x3fac7008a0a6d73c	0.05554224930840099
34	0x3fcbc6d851015587	0.21700576739628394
35	0x3fd4737cf1b8264b	0.31954883199123135
36	0x3fbd613a1efef63c	0.11476481682526524
37	0x3fbf57fceb5b4b39	0.12243633981715342
38	0x3fcb74c1c72e415d	0.21450063920611742
39	0xbfc54d30fc6bf2ac	-0.166418193104524
40	0xbfd06f5bffa6ea9f	-0.2567968365289434
41	0x3fb21fc8df188d9a	0.07079749533345706
42	0xbfdb70f7ca6d536a	-0.42877001541392323
43	0x3fb9daa8e28f739d	0.10099273234614121
44	0xbfcf8fc5c59459ce	-0.24657508990703864
45	0x3fcfc47562f7a002	0.2481829388846109
46	0xbfced14630eacaff	-0.24076154125722124
47	0xbfd88f0f9657190d	-0.38373174363768286
48	0xbfd3c7108fbcefa4	-0.3090249446574893
49	0xbfd25f15b3be1727	-0.287053514032197

weight f8 [50, 50]
0	0xbfb135ecc112b663	-0.06722907746981259
1	0xbfba53c2ef0e7bda	-0.1028405984529707
2	0x3fa590cfb618a9f2	0.042120448092038645
3	0xbfcca1bfbf3370b7	-0.22368618808730442
4	0x3fa8e68e67bf1362	0.048634004749635876
5	0xbfb0626d8c3ddda0	-0.06400189088696218
6	0xbfc052e0d5c98f70	-0.12752924383959963
7	0xbfb80cefeaeb22c0	-0.09394740567507665
8	0x3fa6a772995bf683	0.04424627420483509
9	0x3fbe16fe01f50273	0.1175383333948135
10	0x3f81248fbfa67f02	0.008370516811566645
11	0x3fbd0ad50d9fc4b9	0.11344653685206908
12	0x3fbe8ad70a1ea537	0.11930603024542995
13	0x3fb2f23a50ffda00	0.0740086028816691
14	0xbfbefb71ad55696b	-0.12102423173693004
15	0x3f97a21a75a3ce36	0.023079312734763678
16	0xbfacece72be277c5	-0.05649492655469105
17	0xbf818baa3ae31c6e	-0.008567171022504119
18	0xbfc0764125fdc63d	-0.12860884051365132
19	0xbfc2a965cc9ae115	-0.1457946061179959
20	0xbfc49ef280e42165	-0.16110068601143293
21	0x3fb940bb1e918cba	0.098643965685869
22	0x3fc1c83c90109b23	0.13892323526780456
23	0x3f662fb09aef9d21	0.0027082871742895175
24	0x3fa8227f3ed73646	0.04713819162462278
25	0xbfb7b2deea1a3ba7	-0.09257310119049454
26	0x3f6f0af9b3dc4e05	0.0037894131663820407
27	0x3fa8646e32501007	0.047641223565761996
28	0x3f9d8a36ad93e5ff	0.028847555488914264
29	0xbfb53b7b7c759444	-0.08293887890393231
30	0x3fbfe2f3e9d431e9	0.12455677469933558
31	0x3fa938830a1f905c	0.04925927637648961
32	0x3fb0b80fcac5a156	0.06530855846870529
33	0x3fc1941e7c2224ab	0.13733273564529233
34	0xbf99af6c84da4e0d	-0.025083251579941335
35	0xbf524aa03c1a8a93	-0.0011164250176213572
36	0xbf8cd1a76bcd5ea5	-0.01407175824867519
37	0xbf9524fbdef5133b	-0.02064889477084651
38	0xbfaeb55e41cd1dd8	-0.05997747948873283
39	0x3fc153651d54ad30	0.13535751278082264
40	0xbfb8e79a3946225e	-0.09728397272386632
41	0xbfc977efda834da4	-0.19897268457007755
42	0x3fc2cb5c49e31a11	0.14683107002038345
43	0x3fc19336fd9d6bdd	0.13730513938466418
44	0x3f8adef54c0650dd	0.013120571501339768
45	0x3fb3852a021b7a5f	0.07625067283104546
46	0xbfc3844978e5630f	-0.1524745788872441
47	0x3faea346fe828162	0.05983945709999962
48	0x3fb5ac0e5ed051a3	0.08465661825932229
49	0xbfb145281a30f311	-0.06746149672921954
50	0x3fa7fb3a06059be4	0.04683858226308482
51	0x3f975d1ca0215c92	0.02281613089902785
52	0xbfa5cf4e73082fd1	-0.04259724764059992
53	0xbfbde915112569b8	-0.11683780354125062
54	0x3f667a07a6e7a823	0.0027437352612098716
55	0xbfb2a137b32a7b1c	-0.07277248500984651
56	0x3faa025a823990f8	0.050799206158247345
57	0x3fb464db4f9c972e	0.07966395085949493
58	0xbfb68fb2a926ca56	-0.08813015584636594
59	0xbfa155ab0a90dd41	-0.03385672096231441
60	0x3f5bbd3392a5be24	0.0016930583611517525
61	0x3fbc7457d73f8c64	0.11115025525173078
62	0x3facdf77bfe3fe0b	0.056392423795838274
63	0x3fc813e761f25903	0.188107416940234
64	0xbf93a770f5eaddfb	-0.019193425187692608
65	0xbf8f63e93cf7057a	-0.01532728402424043
66	0xbf9c529ad9b4a02c	-0.027658862626737044
67	0xbfb2bb915b5a9b8c	-0.07317455749817564
68	0x3faecbcad6166854	0.0601485620820347
69	0x3f9cf536f54ee86c	0.028279169771601095
70	0xbfbf9b6de19a1fad	-0.12346541173803756
71	0xbf9074ae36cbe8ca	-0.016070100874437533
72	0x3fc2e86d55e5d0b7	0.14771811193680204
73	0xbfbab8ca9e194fa4	-0.10438219413600663
74	0x3f8a76d407ba9278	0.012921959386696033
75	0x3f9eeaa8017503f3	0.030192017640050705
76	0x3fb434cff0641621	0.07893085116310107
77	0x3fa09e56e6d56ed0	0.03245803420824489
78	0xbfb991d6047cb23b	-0.09988153085277755
79	0xbf9cf15cc6b784c1	-0.02826447451468961
80	0xbfbc1959e1f3bdcb	-0.10976182714852382
81	0xbfa7ffed2f236efe	-0.04687443924350808
82	0x3fa24c3aad8fe626	0.03573783272436186
83	0xbfb7d0acc02e9cd5	-0.09302787486977888
84	0x3fb8386d7ad7889c	0.09461101769514574
85	0xbfc0ab72c9fd51c8	-0.13023218977708795
86	0xbfbae324eb8c6a7a	-0.10502844572730821
87	0x3fb3aba7478068a7	0.07683797355312781
88	0x3fc0dcad1e32d68f	0.1317345044569049
89	0x3fb96507cd4b7873	0.0991978527267479
90	0x3f97e8597f25d010	0.02334728086994181
91	0x3fb14fa91ad584df	0.0676217737686957
92	0xbf81cea14657f309	-0.008694896659102296
93	0xbfbcd1891444700a	-0.11257225746925328
94	0x3fc2afe0cfb79cb3	0.14599237577860932
95	0x3fc9c72c12439d03	0.20139075176050633
96	0x3fa97733b17f6d8c	0.049737563531119994
97	0xbf815130c7d26aeb	-0.008455639932710443
98	0xbfbff86731ed4ac8	-0.12488408059042932
99	0x3facb5a28838ad01	0.05607326424463999
100	0xbfa09ea694b46f5e	-0.03246040883297384
101	0x3fb61cfcf2615729	0.0863798228977798
102	0x3fd8f8c69bbb7075	0.3901840706655613
103	0x3fc2ae9563a12a5e	0.14595286717151884
104	0xbf98c0f60ab56840	-0.024173588183977524
105	0x3fb8dbb08d535543	0.0971021981270797
106	0xbfbf13a65268a95c	-0.12139358055052213
107	0x3faad64a1de88378	0.05241614928332344
108	0x3fd4e166db95cb98	0.3262574333559143
109	0x3fce32416bb30f0d	0.2359086776615346
110	0x3faf77ea7fb45bea	0.06146176155942114
111	0xbfac6fc82ef04358	-0.055540328721810084
112	0x3fb116f0467d8cfa	0.06675626488645384
113	0xbfa8244bbe506dd9	-0.04715191553279014
114	0x3fc8eafd71634cbd	0.19467132603185702
115	0x3fe0819778eb48ba	0.5158192979527236
116	0xbfb04bb6e7dee0b0	-0.06365531121162138
117	0x3fa6fdb7bab14d0f	0.04490446237528022
118	0x3fcb01d22c1f0ef5	0.21099307207452225
119	0xbfb59960ad3d0a8d	-0.08437160710767895
120	0xbfb61cfc8890497c	-0.08637979826042924
121	0xbf9f3b997c07f39c	-0.03050079173589247
122	0x3fba51fbd71bb4e5	0.10281347276368853
123	0xbfc1a20f23d12023	-0.13775815247413545
124	0x3f91d0893ee8af96	0.017397064652115178
125	0x3f95fa9b33a4ef00	0.02146379950248356
126	0xbfaa89f43343d4bc	-0.051833754785471226
127	0x3fbebff91eb734bf	0.1201167774190308
128	0xbf90e726be755c8d	-0.016506772398625236
129	0x3fa6aac423dfde68	0.044271592501840484
130	0xbfa1ab041439d1eb	-0.034507873028733226
131	0x3fba821c96f6f5ce	0.10354784665738423
132	0x3fc3527da6061bea	0.15095491987832982
133	0x3fc481b338b6005f	0.1602081324490454
134	0x3fc5f25773658786	0.17145817885016984
135	0x3fb085d118c658a2	0.06454188208440084
136	0xbfb14f4f1cc6e329	-0.06761640980301976
137	0x3fbcb520bb273a00	0.11213879174395203
138	0x3fc7e1f7a15a8c07	0.1865834749088153
139	0x3fbe282f98ec5f00	0.11780068858604054
140	0x3fb433333c62f1ac	0.07890625213889874
141	0xbfd31d182a49abe5	-0.2986507809607118
142	0x3fb5db8504801e4c	0.08538085327028816
143	0x3fa775b1eeb15111	0.04581981695869975
144	0x3fb02f08f237eaee	0.06321769631896831
145	0xbfb17d8f08c9ce5a	-0.06832212414320207
146	0x3fd2d3cdf40d5fd0	0.29417752106882933
147	0x3fc72eb7c9fefc09	0.18111321795547067
148	0xbfd5e9ad9d039e16	-0.34238758405123926
149	0xbfb6c67c5a4e324c	-0.08896615223620435
150	0xbfe5ddfe78a3dca9	-0.6833488804103541
151	0xbfc018cb3e29b7ed	-0.12575665030766406
152	0x3fdc3f29005c1cbc	0.44135499034059555
153	0xbfc2fcf6ea4fd66b	-0.14834486428269442
154	0x3fc0db9a37308937	0.13170173353962308
155	0x3fae2f0ac1f90b0c	0.05895265214760145
156	0x3fccb3fb9e88ed87	0.22424264183960593
157	0xbfca3732b06af86d	-0.20480950941231715
158	0xbfe2069e630abc51	-0.5633079466259777
159	0xbfb42ed567c344b7	-0.07883962424536405
160	0x3fd720b26ac753ff	0.3613706629524244
161	0xbfc20d1c352cc043	-0.14102509113718228
162	0x3fb04a91adbd73d0	0.06363783351612473
163	0xbfa6d502f777a610	-0.04459389944879544
164	0xbfbe673de0533384	-0.11876284338650406
165	0xbfe12eae06d82dd4	-0.5369482167893076
166	0x3fcbfb5b1d609d10	0.21860827383464043
167	0xbfb81f89f9344e7c	-0.09423124631967456
168	0xbfc4eb84becd1e00	-0.16343745533434628
169	0x3fc1446b5e05719c	0.13490049448854513
170	0x3fbf72fd382b5954	0.12284834500619485
171	0x3fb3cbdd54b4ff6f	0.07732947652857346
172	0xbfc466610c9ec2be	-0.15937436214655593
173	0xbfba93e96e0c7c73	-0.10381945549714704
174	0x3fc0d7bbf96a53fc	0.13158368757709116
175	0xbfc161b9022a779f	-0.13579475980526198
176	0xbfb6490856086329	-0.0870518884697843
177	0x3fc615e8bfe140e3	0.17254361504684032
178	0x3fd9e45cf6e7095b	0.40456318008013675
179	0x3fd7a517224d7698	0.36945131635534656
180	0xbfc4528ffc1ab643	-0.15876960572988894
181	0xbfdb5206a204885c	-0.4268814642147214
182	0xbfd16df0ef72b7e5	-0.2723352754936726
183	0x3fa333d246a63487	0.03750474083344906
184	0xbfb8a698b04abe2f	-0.09629205993655242
185	0x3fe7f579744e0fe9	0.7487151404934568
186	0x3faf8f7644a313dc	0.06164140308241148
187	0xbf8831bf80682381	-0.011813636881031321
188	0xbf944be5811a0999	-0.019820772175543764
189	0x3fccaf63b1e57d13	0.22410246073102566
190	0x3fc14066963aa5dc	0.13477785430340716
191	0xbfd47f2ac6a59bd2	-0.3202616634284229
192	0x3fcb772f44335dac	0.21457472639188546
193	0x3f8d07947de24a08	0.014174614040062941
194	0xbfaf3b007c3687c8	-0.06099702373764121
195	0x3fb271929a1309e2	0.07204548131543434
196	0xbfbfb4772efb53a6	-0.12384743592276823
197	0x3fb6a617185e2601	0.0884718355647678
198	0xbf97cf2cf212c6af	-0.023251249575600038
199	0x3fb5d847d633c898	0.08533143024013368
200	0xbfa45a104a9fdb16	-0.03974963103239852
201	0x3fb80e16304d25f1	0.09396494559509684
202	0xbfa01639a545ac1d	-0.031419564652275
203	0x3fb0f809a9ee13d1	0.0662847556942119
204	0xbfbfb61842472655	-0.1238722955523824
205	0x3f95f53eb5fa08cd	0.021443347794510004
206	0x3fbb5e998173e276	0.10691222582307511
207	0x3fc14b379fd8bc38	0.13510794930468406
208	0xbfb01f9d1b4fe86f	-0.06298238674927047
209	0xbfac920c86fd2228	-0.05580176494419603
210	0xbf92680b4ae0079b	-0.017975021786703498
211	0x3fc098ccdc856338	0.12966309325818215
212	0x3fa78712deaf8e56	0.0459524056275568
213	0x3fbadc93c9b0d99d	0.10492824243633554
214	0x3f9c98575e59f2cf	0.027924885877370905
215	0xbfbc5bcb734e8498	-0.11077567639451258
216	0x3faf62f90f9237f0	0.06130197825505934
217	0x3fab3f1676bb512e	0.053215696328751214
218	0xbfa8abcd38f810c1	-0.048185742572998354
219	0x3f946fc51359e6c3	0.019957618051626335
220	0x3fbf56ea7aa731e0	0.12241998190365377
221	0xbf98408ff9753621	-0.023683786011409084
222	0xbfb6046739a6eeb9	-0.08600468785783279
223	0x3f8632451b563434	0.010838069817305486
224	0x3f9955961e62fed9	0.024740548710496
225	0xbfa6769a26c802cb	-0.043873612627071866
226	0xbf987f9dfb4be599	-0.023924320662421648
227	0xbf86c6b8cc1d21cd	-0.011121219376620051
228	0xbfc0c53d5da3cbea	-0.1310192782617315
229	0x3f932a6f0272bc10	0.01871655895655172
230	0xbfbea2e230b049e9	-0.11967290581404878
231	0x3fb159befd30a82e	0.06777566605947591
232	0x3fbf472cdac592a1	0.12217979756457932
233	0x3fae3179f7c7e0bd	0.05897122525851859
234	0x3fa157bfff9abcad	0.03387260432406811
235	0xbfa420d2d76545ae	-0.03931292418804887
236	0xbf9ef69f6ebea212	-0.030237666258161218
237	0xbfc1d51cc6ef9c87	-0.13931617463751797
238	0x3fb9bbab4dac643e	0.10051985403369287
239	0x3faff2f5e4c01372	0.062400516675586895
240	0x3f9784f9994d22ae	0.022968196851510463
241	0xbfb76061c417eb28	-0.09131442105710319
242	0xbfc238a660cce0f3	-0.1423538181932212
243	0x3fa3dea642f35365	0.03880805556551684
244	0xbfaa37dfd6a887da	-0.05120753760662895
245	0xbf816daff9c7e4ab	-0.008509993372160038
246	0xbfba27682731b695	-0.10216380078210315
247	0x3fc1077854b6f802	0.1330404676099875
248	0xbfbe679970ad6cbb	-0.1187683010188491
249	0x3fb421d2b26bc6c4	0.07864109855634199
250	0x3f957c9fe10ab25d	0.020983217344723182
251	0x3fb75ef0ee7b1f92	0.09129243681229429
252	0x3f9280d4326d4ef4	0.018069568231409996
253	0x3fc776720bf527fe	0.18330216964596951
254	0x3f9078c802030741	0.016085744021217655
255	0xbfb2f7d9437dcfd3	-0.07409437082043206

bias f8 [50]
0	0x3fbdfb93719c02bf	0.11711999438922314
1	0x3fbb25747bc2e648	0.10604026814953571
2	0xbf93f7659ceaa511	-0.019498431875637105
3	0xbfb128837b5ebdec	-0.06702443849530199
4	0xbfb79d8619279f00	-0.09224737276201367
5	0xbfb78f73a6c083ff	-0.09203265019506544
6	0xbfc1658d14801af1	-0.13591159344669948
7	0xbfc2d94b6ea4bef4	-0.14725630667225398
8	0xbfa5c502011543d2	-0.042518675453386515
9	0x3f91add70bd2093f	0.017264709564650756
10	0x3f20442e21fc5e24	0.00012410224098212505
11	0xbfc0d14146fdb422	-0.13138595548972015
12	0x3f99b313d52de3a5	0.025097188841275337
13	0x3fa61054a0d0594c	0.04309334242877813
14	0xbfc073e8bb7bac38	-0.1285372653431709
15	0x3fb4ebbc01a975f2	0.08172202148985955
16	0x3faa5dcf699262c5	0.05149696506231786
17	0xbfb04c5df4fa9658	-0.06366526823929897
18	0xbf91b0ebe8460f85	-0.017276464511737828
19	0x3fb3db70633e381b	0.07756712363172406
20	0x3fbf3f4886c6339d	0.1220593766249309
21	0xbfbeb1a7dcdb3112	-0.11989831106183527
22	0xbf52dae9569b5889	-0.0011508253759778006
23	0xbfbb35e993f95c85	-0.10629138815544266
24	0x3fc1d85fbbbf3189	0.139415709183947
25	0x3fa804cd381c7925	0.04691163358642062
26	0xbf9f70b1010cbf91	-0.0307033211603876
27	0x3fb873063d5381fc	0.09550513264867527
28	0xbfc1b34168ab167d	-0.13828294382817666
29	0x3fc50ccc6e8a38d7	0.16445308110673437
30	0xbfb76442cb387689	-0.09137361012877866
31	0xbf94f4b70f0620ce	-0.020464763919819266
32	0x3fa6b66fd2b6aed8	0.04436063239276472
33	0xbfb13b2fe4829275	-0.06730937317713333
34	0xbfafd9abccedc36e	-0.062207573667257474
35	0x3f7052d791a152e3	0.003985254350557385
36	0x3fc29ca3469443bb	0.14540520616767857
37	0xbf74be8d5538a5d9	-0.005064537126182122
38	0x3fa9b2ccb90e6132	0.050192258443703244
39	0xbfb920ed7f1961a7	-0.09815868714338781
40	0x3f98ba55c2e8f092	0.024148311635358306
41	0x3fb0b9e0f9472866	0.0653362854565401
42	0xbfb9e0d49f17ffaf	-0.10108689197659147
43	0x3fa3ae20d3a01652	0.03843786795918604
44	0x3fa71c9f9555a39b	0.04514025400096174
45	0x3fa6f79cdbb677cf	0.04485788518944355
46	0xbfae32307e48e252	-0.058976664939511494
47	0xbfaf95c35f02d37d	-0.0616894772987626
48	0x3f906288f7b8aae8	0.01600088130923441
49	0x3fa235536d431f20	0.03556309422270787
