lasa_models/6/skel_model_Sshape.pt (torch, 99247 bytes, 18 tensors)

R f8 [20, 20]
0	0x3fe3e6082c530b19	0.6218300691328721
1	0x3fe72df4b6613025	0.724359852037655
2	0x3fd8ac0675097298	0.3854995863855861
3	0x3fe31d6170d0691b	0.5973365023994889
4	0x3fe0fbababcda251	0.5307215076000579
5	0x3fe3273916a15f0f	0.5985379640578418
6	0x3fd5de3eb5603968	0.34168975555885206
7	0x3fe3ef0e938e674b	0.6229317552526735
8	0x3fd8569c8e70601e	0.380286349392465
9	0x3fe30c7c49fc7ac7	0.5952741093677439
10	0x3fc77005934f7f28	0.18310613339326065
11	0x3fe31ecab2b71ceb	0.5975087633641157
12	0x3fe78dd2de2d753a	0.7360624637036957
13	0x3fa19ba0778e18b6	0.0343904634419671
14	0x3fca462a8e2fbd34	0.2052663034696508
15	0x3fb2fbfed27309dd	0.07415764463352255
16	0x3feedc9e8d1905a8	0.9644310718360218
17	0x3fdbd11cf99d2258	0.43463825584743665
18	0x3fe4fb3a84789e0d	0.6556675517394425
19	0x3fd2d4451dfb774f	0.29420593193014083
20	0x3fdf5bbd1dba531e	0.4899742880164001
21	0x3fd237138df46852	0.28461159575238526
22	0x3fc2af16df986175	0.14596830289589105
23	0x3feb1276f5d71b9f	0.8460039903228455
24	0x3fec3f810b7687c6	0.8827519630324268
25	0x3fd9f890913ca89b	0.4057961862878387
26	0x3fda2c2022623c87	0.40894320829188086
27	0x3fd588215992ba47	0.33643373248461156
28	0x3feadbdb7ee31419	0.8393380621206489
29	0x3fec92f864a6d264	0.8929407087185379
30	0x3fc5c0104290e030	0.1699238133458052
31	0x3fea71637ec0ddee	0.8263413882877424
32	0x3fe5cfc22694b66d	0.6816111329587337
33	0x3fca23f796fe3f7d	0.20422263024056156
34	0x3fd09ef56ba8bb9d	0.25970206750474195
35	0x3fe5f9d3dc17b001	0.686746530407163
36	0x3fea83a70994a323	0.8285708605882046
37	0x3fe8ac8c5656944d	0.7710630117695786
38	0x3fe98bb9ab711497	0.7983063076468565
39	0x3fe1079fb89720ad	0.5321806531219601
40	0x3fe8594c42a40cfd	0.7609006215647295
41	0x3fe4cd8625d3bef5	0.6500883807002241
42	0x3f8a9de75468a080	0.012996489776085918
43	0x3fe8e15ea05d1a83	0.7775109417060125
44	0x3fe4ba4efdab0440	0.6477427439168721
45	0x3fd374dd75851244	0.3040078780798334
46	0x3fe66302fa719666	0.6995863810995615
47	0x3fcb2ea37cfdda51	0.21236079791170195
48	0x3fe082b169adadf4	0.5159537376434273
49	0x3fc8730b5f701d6d	0.19101087722831825
50	0x3fde442e23778461	0.4729113909107295
51	0x3fe60805e41c78f2	0.6884793715760493
52	0x3fec1d1c03f3a2f6	0.8785533978635545
53	0x3fdda018ecbf73f1	0.4628965675345276
54	0x3fefdd34bb53966f	0.9957526835175495
55	0x3fc528da444669af	0.1653092225431698
56	0x3fdd13d4249509bd	0.45433524677732945
57	0x3fdad6894944fcf6	0.4193442550203622
58	0x3fdecec4b49031eb	0.48137014039164566
59	0x3fec41277ed07cea	0.8829534031719082
60	0x3feb5fbab9e30723	0.8554357176401236
61	0x3fdeb4f6eb6a72ec	0.4797951983435229
62	0x3fc7915d6b764c91	0.18412368533299575
63	0x3fe3ecc30c3c44e6	0.6226515997861071
64	0x3fd4a463acc9ff79	0.3225335299866781
65	0x3fc6675ff737c72d	0.17502975054917994
66	0xbfcaff8759f7e489	-0.21092311757073315
67	0x3fecb49b883aabbe	0.8970468197561485
68	0x3fe0193bf3406497	0.5030803442961255
69	0x3fc3d95ed5b0f288	0.1550711196340624
70	0x3f43d34d1320236b	0.0006050230351784929
71	0x3fe0c5fb24f21231	0.5241676065057331
72	0x3fe4f96c3cfb56bb	0.6554471198130253
73	0x3fe1b6008b4b10bf	0.5534670563288485
74	0x3faa8bd433985367	0.051848059938641104
75	0x3fea4416f3be8724	0.8208117256765246
76	0x3fe315722b0021d1	0.5963679160932377
77	0x3fd4e34bd6144f84	0.32637306123910315
78	0x3fe527535d91fecf	0.6610504939598857
79	0x3f8516e14c105ab9	0.010297546514306576
80	0x3fd3b54c11efa8cd	0.3079404997976212
81	0x3f942e0b6e4e7237	0.019706896407671173
82	0x3fe2958e1d9a55cb	0.58075624257861
83	0x3fba8d497e4978f2	0.103718369800365
84	0x3feacd163dd6845d	0.8375350196621515
85	0x3fed004e5525582c	0.906287351894894
86	0x3fc5435cdf8df288	0.16611824908968154
87	0xbfc7cdb5822e3eb3	-0.18596524101712006
88	0x3fb56fc5f3796607	0.08373677438921599
89	0x3fb34b6cb12b54d6	0.07536963773175684
90	0x3fd1e6618b5bb266	0.279686342327102
91	0x3fcb73e5c240dd65	0.2144744108679603
92	0x3fead3a1eea29c8e	0.8383340512126709
93	0x3ff05970b97e3d05	1.0218360181641526
94	0x3fe03473d8234501	0.5064028951111653
95	0x3fdf30d5a0427cb4	0.4873556199108393
96	0x3fb812ff30618f4a	0.09403986865214367
97	0x3fd291636ba5461d	0.2901238013483594
98	0x3fdfd917be6a830b	0.4976252898723465
99	0x3fe2d8c2b778cebe	0.5889600356517446
100	0x3fe1729d30ed7702	0.5452409701935894
101	0x3ff060476b6dfb4b	1.02350561108297
102	0x3fe9c9ee7921934c	0.8058998456805084
103	0x3fd8b81f884bc725	0.3862379866615007
104	0xbfab929b2d0adc44	-0.05385289120516082
105	0x3fd63f1181b0e42a	0.34759938874373353
106	0x3fd6c65691e6a1f6	0.3558556008161128
107	0xbfa01368c5a9b743	-0.03139808094861831
108	0xbfb265a5388be19b	-0.07186348562743776
109	0x3fc2c09887b020f9	0.14650255799666193
110	0x3fd73411ce240ef0	0.3625530732244746
111	0x3fe816376077db5d	0.7527119526047091
112	0x3fed4ccfd363bef4	0.9156264427856216
113	0x3fef6150a83c5e73	0.9806292806487832
114	0x3fb37bdf6aed3922	0.07610889778627386
115	0x3fe87b5bd4cf0eef	0.7650584370062158
116	0x3fc40cd30d64c8f1	0.15664137033451866
117	0x3fed880409ab20b6	0.9228534878575576
118	0x3fbc39fa05292b8b	0.11025965333935354
119	0x3fde326441d52f2c	0.47182566098193734
120	0x3fd071e52b6ba39d	0.2569516109493238
121	0x3ff121158af99a73	1.070577185507912
122	0x3fdb245f2c7dd0b0	0.4240949568259209
123	0x3fe0cbf2aef1290f	0.5248959938847139
124	0x3fe4678609a0426e	0.6376371562965468
125	0x3fe84a95e63eb554	0.7591046807262196
126	0x3fe7c88d66ffa478	0.7432314883891555
127	0xbf8191dadc4140ef	-0.008578977438589123
128	0x3fe782749ca37ef3	0.734674745497584
129	0x3fea7d031be129a3	0.8277602715036675
130	0x3fdd566eacf65fb4	0.4584004105649868
131	0x3fe3b3419bd34591	0.6156318705999856
132	0x3fe1d0da6a90f1d3	0.556744773995485
133	0x3fd0a8381d3a831f	0.26026728491165046
134	0x3fdb460cff98ecd7	0.4261505600040442
135	0x3fd0d14bdf65518a	0.26277443710321136
136	0x3febaba0b3b66579	0.8647006521234025
137	0x3fcbb00571df6f6f	0.21630924282259964
138	0x3fbf679e10a8c67c	0.12267482668610258
139	0x3fde0903189612e2	0.46930005455969426
140	0x3fe62c9e1e31ff59	0.6929464902641299
141	0x3fcd4aa329f4ac4f	0.2288402514326173
142	0x3fec3e4caa822022	0.8826049165954866
143	0x3fe57a4e07959dfc	0.6711797855504638
144	0x3ff334aeb60b46f4	1.2003619299979933
145	0x3fb1b1f8c60e30f5	0.0691218837293411
146	0x3fc187f4ba3e68f5	0.13696154684004794
147	0x3fe96ec86fc85b57	0.7947733100180397
148	0x3fee4bc2b5d0c846	0.9467481185040547
149	0x3fd360a31903986a	0.3027732605245378
150	0x3fcc9eed517e6e0e	0.22360006789391246
151	0x3f9e233708d97c36	0.029431209483274233
152	0x3ff29bb1d0de52ec	1.1630113753246247
153	0x3feff53b35a89344	0.9986854599015733
154	0x3fe44bd8b82a9557	0.634258613300214
155	0x3fad030641cf42a0	0.056663699658775046
156	0x3fe9941a16289672	0.7993288452896208
157	0x3fda851ec219edc6	0.41437500910953096
158	0x3fc4caca9c79862f	0.16243870392195123
159	0x3fe62f0a5fbc1e3e	0.6932422513791108
160	0x3ff086d11f535020	1.0329142783784917
161	0x3fd4a3cb727f0f8a	0.32249723607332526
162	0x3fea84e6fedc467e	0.8287234285109688
163	0x3fe904eba4eeb151	0.7818506451926998
164	0x3fbf5a4fa2685131	0.12247178759600243
165	0x3fe4ceeeb0746b86	0.6502603002912657
166	0x3fd26ea74ca57dee	0.2880037544727817
167	0x3fe668242123bc36	0.700212540364993
168	0x3fde57f2b0c16880	0.47411792050628065
169	0xbfa093b94ac8a7f6	-0.03237704313171712
170	0x3fe582b672f2a5ad	0.6722061390948305
171	0x3fe66cbbb8d9835b	0.7007731066079076
172	0x3fd22df1063215aa	0.28405404667895573
173	0x3fd91a87461968ae	0.392244165855696
174	0x3fec6ede1b9522be	0.8885336436006452
175	0x3fc37cef6a071be4	0.1522502200807302
176	0x3fe9a93a150c3be4	0.8019075785722376
177	0x3fee39b4ae1f0672	0.9445441628269704
178	0x3fa658f5acbbc3da	0.043647458396555996
179	0x3fe366564aaf627e	0.6062423189824384
180	0x3fde733d898984e1	0.47578371459355934
181	0x3fea2cadf29ae53a	0.8179540384655077
182	0x3feab0fa12e0fbc3	0.8341036194541335
183	0x3fe846af02dd45dd	0.7586283737129481
184	0x3fc6c5f2d395b7c7	0.17791591006556315
185	0x3fd30e93bb70873d	0.29776471428532486
186	0x3fda316c72f2e488	0.40926657891720497
187	0x3f64fd5daab71ed5	0.0025622205191416594
188	0x3fdd82e1bdd49aa3	0.4611133912862135
189	0x3fb3e1f590a0f0e8	0.07766661435102018
190	0x3fd750ad3f322acd	0.36429911777001395
191	0x3fd4d97caf29bc03	0.3257743559433381
192	0x3fe795d2bd95db1f	0.7370389654960013
193	0x3fda8ec5533d884f	0.41496403817121047
194	0x3fbf2df81a77bbe6	0.12179518362221095
195	0x3fd982c4e3eca3c7	0.39860651262511876
196	0x3fceafd0870f7d5f	0.239740434596551
197	0xbfbdd57b3f5ca7a0	-0.11653871819421946
198	0x3fd3d9df155109a8	0.3101728161019772
199	0x3fb02c9875e9c64a	0.0631804740785579
200	0x3fd1936b5972a81d	0.2746227620615416
201	0x3ff1df6cd9811fb1	1.1170471664681652
202	0x3fe77bbaddc44853	0.733853753221647
203	0x3fc60039f453ede2	0.17188190870352488
204	0x3fd9153b39d6864e	0.3919208588432398
205	0x3fe10e1b61c62b47	0.5329720410967206
206	0x3fea1504c30149cd	0.8150657471363104
207	0x3fe5aad41d2dad53	0.6771030969515927
208	0x3fef115cfaa0a867	0.9708695311612815
209	0x3fcf15fc648084b2	0.24285845668149403
210	0x3fe4a8a418367f4b	0.6455860588939485
211	0x3fe0155d0c46e14b	0.5026078452856749
212	0x3fe2ab91d0d2205c	0.5834435537845013
213	0x3fda9aad720ca20d	0.4156907666934167
214	0x3fea95de7d6ce26c	0.8307945680345035
215	0x3fabdb909249d305	0.05440952096697597
216	0x3fe21f9cdf1217fd	0.566358981785697
217	0x3fe616f9d2a92d79	0.6903046717138032
218	0x3fe4d8a914620b5d	0.6514478109460061
219	0x3fdcd480524ba86a	0.45047004734681784
220	0x3fe0decc8e5b25a9	0.5271971493140671
221	0x3fed3795c0351f76	0.9130352739384608
222	0x3fc461f6783cde43	0.1592395865534276
223	0x3fdc41c220df6956	0.4415135689756843
224	0x3fbbc0ab308a33df	0.10840864119582204
225	0x3fdfa4c080f63d2d	0.4944306620972892
226	0x3fa6896d07249aca	0.04401722633547463
227	0x3fd1e6a7b9ba228f	0.27970307481204143
228	0xbfb3811d78c27541	-0.07618889044029677
229	0x3fd227186efcfce4	0.2836361965054961
230	0x3fe9fcd29ff3688d	0.8121121524848306
231	0x3fce1c9722421174	0.23524750874288325
232	0x3fe40a1256c03d98	0.626229447780065
233	0x3fe3d951fea597ff	0.6202783559390354
234	0xbfc3b26c38c33db5	-0.15388252994169496
235	0x3feb7409e04435a1	0.8579148655132266
236	0x3fd9fcc28a2c875d	0.4060522412638557
237	0x3fdb1807fa39fec9	0.42334174572168287
238	0x3fd382165e26c32d	0.30481490320657906
239	0x3fead74799f73a45	0.8387792594092579
240	0x3fe935995f824b22	0.7877928605470041
241	0x3fe340adfbb9ccde	0.6016454617041764
242	0x3fd15bd22803b997	0.27122930438681564
243	0x3fe3690100c2b6a1	0.6065678610663846
244	0x3fece404b09b13bf	0.9028342675525137
245	0x3fe36ee950912836	0.60728898750063
246	0x3fee5dc44a8c7a6f	0.9489461380033627
247	0x3fe79332e6439506	0.7367186066955191
248	0x3fe323029df1ff87	0.5980237088078731
249	0x3fd7257142f2fd5e	0.36166030443196984
250	0x3fea49ccd98e9214	0.8215088128241086
251	0x3fcdd64ea371749e	0.2331026361524992
252	0x3fde88c3598cb18a	0.47709735627247396
253	0x3fe4a531e7a2cae2	0.6451653980387528
254	0x3fe56535a4a253d0	0.6686046805867765
255	0x3ff02dfc19e91c37	1.011226750577192

L f8 [40, 40]
0	0x3fe26535f1184a7e	0.5748548230061059
1	0x3fe9c95c16ae7b67	0.8058300440787719
2	0x3fda5695a51e9df3	0.4115347015853949
3	0x3fe24a90cfcb1265	0.5716022547208693
4	0x3fea5bda6295207e	0.8237125325622541
5	0x3fe2c375de6e2f5e	0.5863599151939345
6	0x3fd6b9dd5de749ba	0.3550942818666517
7	0x3fef01e24d000096	0.968979978933947
8	0xbfc846772f5a50d9	-0.18965043842457055
9	0x3fd79b38d763a0f4	0.3688490012559804
10	0x3fe19a06797abb84	0.5500519154210086
11	0x3fd04f46116460b1	0.2548384828419428
12	0x3fe4adfb168ccac2	0.6462378921917991
13	0x3fe32e553af12492	0.5994058753214111
14	0x3fe5d61c8dbc8703	0.682386662320113
15	0x3fcc0b30b8b2a68e	0.21909150141191386
16	0x3fd4a6afca81b77e	0.3226737477879097
17	0x3fe29c0706181320	0.5815463179611449
18	0x3fe33144e62a834a	0.5997642989569638
19	0x3f95a96f143b9194	0.021154151544480707
20	0x3fd507777bbc3103	0.3285807331419763
21	0x3fe2102219f84421	0.5644693858358815
22	0x3f688d736d7cee50	0.002997136540128932
23	0x3fdd6a812ac36b7c	0.45962552238568555
24	0x3fe4c5e65debd64e	0.6491576990508265
25	0x3fe7c4957989667b	0.7427470563663542
26	0x3fe55484cdbd546c	0.6665672319746938
27	0x3fe0533f8902020c	0.5101621318754623
28	0x3fd35e0f11d1aaa2	0.3026158975614327
29	0x3fd36e6dd571d726	0.3036150535984795
30	0x3fb199378a7ff41c	0.06874415522902705
31	0x3fd99ec1e7c64f2a	0.40031478533022613
32	0x3fcfef5626fcb2cc	0.24949147132556104
33	0x3fea8a22d2f03add	0.8293623084917631
34	0x3fd711967216f6e8	0.360448466697433
35	0x3fe9388d53112ee5	0.7881533262638781
36	0x3fcd6e11368b7af4	0.22992148555109504
37	0x3fb394d364ab9c8a	0.0764896508004417
38	0x3fd0d7e6aaf138e9	0.2631775540693427
39	0x3f81f9ca46de4e61	0.008777218139392308
40	0x3fc7692461c47a8b	0.18289618276408634
41	0x3fe0c21b5c6e135a	0.5236946873925306
42	0x3ff0807a6ec57118	1.0313667609216903
43	0x3fe083229c2a4d28	0.5160077142813053
44	0x3fe9d8c74e98cab1	0.8077122244925105
45	0x3fec3c6f905b7a81	0.882377416561056
46	0x3fc6388ebd442f74	0.17360100022812797
47	0x3fe322adc1fa7fd3	0.5979832447665053
48	0x3fad8719e51e72d5	0.057671364992733544
49	0x3fc6985fedaa018f	0.1765251074284717
50	0x3fd7cc7d88277496	0.3718561010007958
51	0x3fda3964774a8762	0.4097529568626809
52	0x3fdc5da5a646a098	0.44321576345328983
53	0x3fe317a1a5693040	0.5966346960717672
54	0x3fe079af97dc828e	0.5148542371790243
55	0x3fe54efcdb7ec831	0.6658920561806153
56	0x3fe2ec83536812fa	0.5913712147745109
57	0x3fe88241b11ca180	0.7659004649367915
58	0x3feadd03cde222b2	0.8394793530615827
59	0x3fa1a47cd30c2b6e	0.034458065760268095
60	0x3fe252f43c65efb9	0.5726262263919956
61	0x3fe2be468aaa021a	0.5857269962580773
62	0xbfc0ffbed16e5767	-0.13280472971080856
63	0x3fe4f3a521b6b018	0.6547418268651226
64	0x3fc03e3b6626a9f7	0.12689917075961407
65	0x3fe28b113dfd3246	0.5794759951327897
66	0x3fd145ee7da58812	0.2698932864205982
67	0xbf8d2b16972eeb87	-0.014242340553996658
68	0x3feb625175626341	0.8557517330801617
69	0x3fc40ac0181c8029	0.15657807519255698
70	0x3fedbabd201a8dcd	0.9290452601457503
71	0x3fe08d6920225bc8	0.5172620418187472
72	0x3fd1eaa71bd89b20	0.27994706839892736
73	0x3fee590f3f069be1	0.9483715277646035
74	0x3fe97fefdcfcc365	0.7968673053893381
75	0x3fe36d411e95fecb	0.607086715448497
76	0xbfb2b5e39664253a	-0.07308790609035479
77	0x3fda048b0973708e	0.40652728960936535
78	0x3fe17c1dbebcd783	0.5464009023041715
79	0x3fecc2d9889c5258	0.8987853687454601
80	0x3f8a3b81f3e5dfd4	0.012808814292597427
81	0x3fe3fe8ec34529d4	0.6248239339704988
82	0x3feab7256d20f537	0.8348567134304749
83	0x3fdb0f3411f6f634	0.4228029418407886
84	0x3fd4db3956689849	0.3258803695520141
85	0x3fc7d7061145678b	0.18624950259510017
86	0x3fdd90a27d320107	0.4619528029070498
87	0x3fae60238ae3b844	0.05932723112515295
88	0x3fe17927692c25d2	0.5460393003606276
89	0x3fd792b6cdcdd58e	0.36832971666384473
90	0x3fc404dc9716163d	0.15639836671123133
91	0x3fc47a35a7f03f82	0.15997954082603988
92	0x3fd466e7091dba6d	0.3187806691193263
93	0x3fc64ce14d45a754	0.17422119401026726
94	0x3fc6c1a2375a433b	0.17778423025858978
95	0x3fc3dad0d1316b31	0.15511522497657773
96	0x3fbeafe0207a0fc1	0.11987114708796211
97	0x3f8613d6048c764c	0.010780021680655193
98	0x3fdb95a6acd3a61f	0.43100897672283794
99	0x3ff0dff4063a9f3e	1.0546760791130079
100	0x3fe9b4d4753b7a49	0.8033239640897786
101	0x3fe28d88cc31cc74	0.5797771442579589
102	0x3fedd19fb7d1cd31	0.9318388548112236
103	0x3fe9205ca5a93201	0.7852004275860623
104	0x3fce45c716ec65ca	0.23650444621379868
105	0x3fd1f477d3fda763	0.2805461473677637
106	0x3fc92a5ad66856b8	0.19660506695861613
107	0x3fdb54a2326207ee	0.4270406238575778
108	0x3fdb470efd6d1e9f	0.42621206997544364
109	0x3fd5e9267132de00	0.34235535673676054
110	0x3fdb20f23de133cd	0.423885879926101
111	0x3fdb75e678bca12b	0.42907106199938266
112	0xbf784e31d0bda672	-0.005933947173483044
113	0x3fcfa7fde094e97c	0.24731420007612914
114	0x3fd188782ea86cb1	0.27395443493305566
115	0x3fe34762eb343035	0.6024641603303339
116	0x3fdd2afd6f8a61a2	0.455748900343247
117	0xbfb0e971713fa32a	-0.0660620595441627
118	0x3fcd597c620e1699	0.22929339206546187
119	0x3fb922c8b95054fe	0.09818701290381068
120	0x3fd71b2d4d2233d5	0.3610337498910757
121	0x3fe1788a55d8b048	0.5459644009292868
122	0x3fd7bb0689a3f93c	0.3707901329179497
123	0x3fe32234e44dba4f	0.5979256114058645
124	0x3fe734abf2a64c1b	0.7251796473741509
125	0x3fd7805d25b8a480	0.3672097080585175
126	0x3fda28105cf16774	0.40869530750716554
127	0x3fc5a1a7749840a4	0.168995792323135
128	0x3fdf3883bd0055a9	0.4878243776050462
129	0x3fe40be3306a6653	0.626451105653539
130	0x3fe24ace829707d6	0.5716316748223516
131	0x3fc252ab1cee0ec0	0.1431478396663035
132	0x3fe459d0c1fb2b04	0.635963801259408
133	0x3fe17a3aa923995d	0.5461705497262234
134	0x3fd56c5465c15852	0.3347369188026096
135	0x3fe1588143784b4b	0.5420538251658881
136	0x3fd90d049e48a806	0.3914195581188554
137	0x3fe32a85e6632e39	0.5989408015970589
138	0x3fe7f33445420252	0.748438010472521
139	0x3fb5d083b4bfb19e	0.08521292841732594
140	0xbf9fb9056bb86a61	-0.03097923727009755
141	0x3fd6394191f8e9d4	0.34724463706120656
142	0x3faccdb21f9918f4	0.05625683437078691
143	0x3fb90cadc1c50626	0.09784971218780267
144	0x3fe204526397f5f2	0.5630275674045022
145	0x3fb7e9f17f6c8cb9	0.09341344223917049
146	0x3fb63f041bef91af	0.08689904863383079
147	0x3fce8626ff33d0c4	0.23846900425963302
148	0x3fe5af107db4bbf5	0.6776201682276893
149	0x3fc94be0f9ae7d10	0.1976281375072877
150	0x3fe47d6bfd73f3a3	0.6403102827313102
151	0x3fc1dc83ef6a7b08	0.13954209509116589
152	0x3fe0e77b1bfbca99	0.5282569452814015
153	0x3fdc4b1cf3b60ec7	0.4420845394126726
154	0x3fc58c6a0ae61d2e	0.16834760219738015
155	0x3fe4da2e86435d88	0.6516335127188748
156	0x3fd24b925ce0316e	0.2858625323285854
157	0x3fe021ab8c3d109d	0.5041101206811792
158	0x3fd3cd2c969dc78f	0.30939783772111523
159	0x3fde6896f01e86c2	0.47513364266533753
160	0x3f9749b6cdb1c5a5	0.022742134384719077
161	0x3ff0b3977a214c4a	1.0438456316667435
162	0x3fe1975efc749a9d	0.5497279101153542
163	0x3fe202d45f29fc05	0.5628454073593053
164	0x3fe55b24a95921f1	0.6673758800107504
165	0xbfcce6f1bc57aff2	-0.225797860111356
166	0x3fdd33ccb938344e	0.45628660285803313
167	0x3fe543266a24f4aa	0.6644470284587858
168	0x3fe6f342e87c3486	0.7171949902273276
169	0x3fe43e209eece77d	0.6325839141857014
170	0x3fe06ddd69afbc1d	0.5134112419308426
171	0x3fe17ddfb6339fb1	0.546615463125809
172	0x3fec2bbe90182efe	0.8803398908944187
173	0x3ff6b6d364877432	1.419635193530905
174	0x3f9df97cde174fdc	0.02927203279052991
175	0x3fa63b3974f811ea	0.043420596626706345
176	0x3fde62afc11fe7cb	0.474773348425171
177	0x3fc332a95837587a	0.14998356635505045
178	0x3fe39f6dc3f66c4a	0.6132115199465116
179	0x3fbabe144ed34420	0.10446288036770612
180	0x3fc569d1a41d8b77	0.16729183686683388
181	0x3fe0c7dd9ce25a46	0.5243976654190383
182	0xbfc0b637eac878f3	-0.1305608650590738
183	0x3feca5a3cc46738e	0.8952197065114988
184	0x3f7aa00e4843b52a	0.0065002973462758105
185	0x3fdb7e60df6ee7e1	0.42958852595950076
186	0xbfc6f44916d83193	-0.17933000197843948
187	0x3fd2dbeab2c89fa5	0.2946726556715425
188	0x3fede19e4f18eefa	0.933791307913878
189	0xbfc4443a2884f3d5	-0.15833212831958457
190	0x3fd1713d0751d005	0.27253652300646564
191	0xbfd113346d1cb9c1	-0.26679716735352704
192	0x3fd7a997baa3c0a8	0.36972611643342157
193	0x3fe250a661cb2170	0.5723449621228109
194	0x3fd0bc832a80a113	0.26150588179236073
195	0x3fea9b3e162bdfb5	0.8314505036387262
196	0x3fd679f3bf4fb7fe	0.35119336779359844
197	0x3fe7e63fe5b5806a	0.746856640482304
198	0x3feb015e0c79ace4	0.8439169162424176
199	0x3facced5dea3695f	0.05626552908661852
200	0x3fd6d217e62643a4	0.3565730807832159
201	0x3fc175972c30cdb2	0.13640107782121685
202	0x3fe021af966dd4ea	0.5041120470110887
203	0xbfcde992ae04a950	-0.2336905812929424
204	0x3fd255fd74219475	0.28649841633734435
205	0x3fe318de9a8cb46e	0.5967858332202363
206	0x3fdea63fbf36e671	0.4788970343903208
207	0x3fe198926e80b475	0.5498745115525155
208	0x3fd2812afa0593e2	0.28913378158750735
209	0x3fdbf39babdaa4d5	0.4367436579000928
210	0xbfb0c7d83910ee8e	-0.0655493869134551
211	0x3ff12969175fced6	1.0726099885040887
212	0x3fe8ba43f13faa52	0.7727374755753067
213	0x3fc8c3eda5b350d8	0.19347925749628447
214	0x3ff3120aa2dd15ef	1.1919046747074125
215	0x3fd1274bf4bea523	0.26802348042345353
216	0x3fe93b425dbd96ee	0.788483794295386
217	0x3fe4fefdb403011c	0.6561268344740117
218	0x3ff3217f47db1ef9	1.1956780249474248
219	0x3fe3217921763ce6	0.5978360799362263
220	0x3feeb806afa945f8	0.9599641257174758
221	0x3fe62b0af0ea6f40	0.6927542405496538
222	0x3fefb6937cd01648	0.9910371244192868
223	0x3fe8a658e92533b1	0.7703060678119212
224	0x3fe6a81a690d3075	0.7080204059398186
225	0x3fdbd025f6d07534	0.43457936385114526
226	0x3fc11e73fcf55c31	0.1337418542050002
227	0x3fb321ff07207f9e	0.07473749088285195
228	0x3fa585fdf21591e9	0.0420379026425371
229	0xbfb43049d07c2266	-0.07886182155574203
230	0x3fc94585ec7dc731	0.19743417785098807
231	0x3fe4c427ada5a498	0.6489447013419918
232	0x3fef996e31f6ca52	0.9874793029651505
233	0x3fe0b634020afd13	0.5222415962124692
234	0x3fd4eb261880f029	0.3268523444455718
235	0x3fea8bab7e5765ca	0.8295495479207429
236	0xbfcd45d650ed7b49	-0.22869376136346833
237	0x3feb8b0a6d234d35	0.8607227450942562
238	0x3fee92ded7691b83	0.9554285247075857
239	0x3fda0d1bb14b7e4d	0.4070500594516247
240	0x3fe4872cff920850	0.6415009490595001
241	0x3fc218f1f3af9fb8	0.14138626478893257
242	0x3feaaf5eefdd9166	0.8339075741646809
243	0x3fe0678745264bf5	0.5126377440050179
244	0x3fd435b4c3a5ba26	0.31577796083630216
245	0x3fee9d0dda373814	0.9566716444039707
246	0x3fd785d25d2406e5	0.367542830426926
247	0x3fd4a0397cbf0356	0.3222793310379094
248	0x3fead1df3a9f99d4	0.8381191391934473
249	0x3fd3b26c833d5013	0.3077651292453549
250	0x3fe028d4794543fd	0.5049841278615755
251	0x3fbf06988138bfcb	0.12119439272714698
252	0x3faff93ca8cb8d48	0.06244840202796326
253	0xbf981bcc44766018	-0.023543540648091804
254	0x3fd5ccc1a69210af	0.340622341791696
255	0x3fe734996971ab68	0.7251708087400006

weight f8 [50, 4]
0	0xbf805c8034c5d23b	-0.007988931284424008
1	0xbfd1bdf645d75973	-0.2772193605464032
2	0xbfc0b4d148eabba3	-0.13051811275860556
3	0x3fd341841c9d1140	0.3008737830571313
4	0x3f95b45ce61508bf	0.02119584230718696
5	0x3fcd809b8a07ab55	0.23048729171508833
6	0x3fcaddd3a9304cdd	0.2098946167103354
7	0x3fc5becf01183fdb	0.16988551667645777
8	0x3fb66ea1f5a057ce	0.08762562033402263
9	0xbfe02716b150d95d	-0.5047715628814263
10	0x3fe43e709a2ef55e	0.6326220523257395
11	0x3fb83b145c2acce8	0.09465148210692897
12	0x3fafd0756e3636cf	0.06213728876455848
13	0x3fafec84c3f30b9f	0.06235136882744218
14	0xbfcb9f73f7f5c20f	-0.21580361945554258
15	0x3fc9f240ca7a7007	0.202705477587074
16	0xbfc5490f1e143d46	-0.16629208534912204
17	0xbfd70a9088be2886	-0.3600198111895526
18	0x3fca57683bbab215	0.2057924548766016
19	0xbfd2c48b46598831	-0.29324609632579085
20	0x3fd1d3b852fd3600	0.27854736427693183
21	0x3fda9cc06de3e6d2	0.4158173630854495
22	0x3fd8454e03069c8c	0.3792300252484402
23	0xbfd745d42e14bfa9	-0.3636370134363412
24	0xbfb5631888340aa8	-0.08354333234096123
25	0xbfd9d6c1f35d9a88	-0.4037327648751803
26	0xbfc6b76b753a3869	-0.17747252677912975
27	0x3fd4696f9a2275dc	0.3189352994175729
28	0x3fd0fc2802535d9e	0.26539039828409183
29	0x3fd03978e370ee76	0.253507825956809
30	0xbfd727480fa549bb	-0.3617725518025982
31	0x3fd2d44552caa6ae	0.2942059811126495
32	0x3fed83a8413081a7	0.9223214410049437
33	0xbfe51fb286c3c77c	-0.6601193077205916
34	0x3fd0e1fc6281a1fa	0.263793083379397
35	0x3ff234903bdb684d	1.1378328645864884
36	0x3fb943663a931c81	0.09868468217892891
37	0x3f737701422c5c04	0.004752163806890589
38	0x3fd4f6434847ae23	0.3275306897982963
39	0xbfd58d98578203fc	-0.3367672781533313
40	0x3fc5267997f73967	0.16523666305733828
41	0x3fdf7518a9db97a2	0.49152199351953574
42	0xbfc8d6d8bb66c097	-0.19405659819085905
43	0x3fb3d2cc0d7ce5e5	0.07743525819105164
44	0xbfd3c956a7b0e24e	-0.30916372657842295
45	0x3fd5d47c8c5c9cbf	0.3410941477508906
46	0x3fc6107b21df57e8	0.17237795976569648
47	0x3fcd936adf7da2a4	0.23106132424006376
48	0x3fd1b7a510fc65ee	0.2768337884786821
49	0x3fbc995774a3420c	0.1117148074874949
50	0xbfd5707c2f83792a	-0.33499054565426667
51	0xbfde0e93de87d158	-0.4696397469663416
52	0xbfa5cc8c0d1bd95f	-0.04257619533557277
53	0xbfd59c95f1d86a3b	-0.33768223397933966
54	0xbfd2489f08e9ee91	-0.28568244810569704
55	0x3fc4efe0fc957c0b	0.16357052167128958
56	0x3fba8149214a9842	0.10353524267938588
57	0x3fc38d6d42e40890	0.15275350347662142
58	0xbfc8dab1d2d8ce10	-0.1941740302587367
59	0x3fc225120fdff580	0.14175630355013524
60	0xbfc1492700c2c5b5	-0.13504493271970622
61	0x3fb4bb49f724844a	0.08098280223613688
62	0x3fc552c5dd25972a	0.1665885286158127
63	0xbfda9f3d143b3b9f	-0.4159691522190147
64	0xbfc5a33d8da1214b	-0.16904420295237296
65	0xbfd9fc587fe329c1	-0.40602695931434246
66	0xbfe067630fddd7dc	-0.5126204786199611
67	0x3fd292db41c213b9	0.29021340772333876
68	0xbfa865c705f007bf	-0.047651500201041135
69	0xbfdaa96cc5e3e4ad	-0.41659087491241104
70	0xbf92dc27616af89f	-0.018417945214189598
71	0xbfd9e81c93c0e8b1	-0.404791969576432
72	0x3fd62dbb58cf0b54	0.34654124901515115
73	0x3f504b64b279ff66	0.0009945376749839973
74	0xbfa609315265bacc	-0.04303888445689594
75	0x3fb357834b8d3d40	0.0755540904476577
76	0x3fd98eeb55ab2641	0.3993481003386457
77	0x3fde07d30f780963	0.4692275668204699
78	0xbfc4e96d0e2a2747	-0.1633735961116207
79	0x3fd50b155d608bff	0.328801480473146
80	0xbfa211f70ee55a03	-0.03529331261477255
81	0xbfa238b62b0e5b1d	-0.03558892512881171
82	0x3fd6be540a5dbada	0.3553667165023576
83	0x3fc8356b4f474a45	0.1891302239515246
84	0xbfed6057d4ab95ae	-0.9180106309619782
85	0x3fb74c3747631838	0.09100671284531436
86	0x3fc02f089fbf96bf	0.12643535423483418
87	0xbfbe3d2d438c4aa7	-0.118120984069075
88	0x3fd9e1971a2e3e22	0.40439393574431126
89	0x3fb70217d6101894	0.08987568832535181
90	0xbfaa013270466579	-0.050790382581179246
91	0xbfdfdbbd99216672	-0.49778690294406325
92	0x3fa9b47a86466faf	0.05020506753064013
93	0xbfd11c1cd35c30d1	-0.26734085693966586
94	0xbfb3e36c4c1a31e7	-0.07768895013777631
95	0xbf99b5067480d97f	-0.02510461889343096
96	0xbf59bae35ac4edff	-0.00157043650240396
97	0x3fa6e3362f75f39f	0.04470223740916101
98	0xbfc74c15f18d5c5b	-0.18200945181408454
99	0x3fd44e44a8ac86e5	0.31727711174072076
100	0xbfdbcba264c7dc85	-0.43430385438791347
101	0xbfdbc0cae2093fe5	-0.4336421210655302
102	0x3fd60d09658d3803	0.34454569737579294
103	0x3fc00172bf07590f	0.1250441963918054
104	0x3fdcd1d379c28134	0.45030676737407593
105	0x3fd9efd1081b1454	0.40526223937587713
106	0xbfc0a3c2e5eb3797	-0.12999759890084014
107	0x3fdd5af1ed5a39dc	0.458675843991754
108	0xbfd361fdedc6e5e0	-0.3028559515037994
109	0x3fc333ee6b6c97d5	0.15002231831857551
110	0x3fb3889d1a656c27	0.07630330938756967
111	0xbfc6eb5b5b6ad257	-0.1790575214742087
112	0xbfc2c3d3886ddf56	-0.14660114442426203
113	0x3fd592c68670c5b3	0.3370834648986502
114	0xbfccc746bc3e589f	-0.2248314303548726
115	0xbfc5daafee3cd81b	-0.17073630459498265
116	0xbfb563a6b1474d9f	-0.08355180576409403
117	0xbfdd8d0575990465	-0.46173225864555995
118	0x3fdb20e52dac345f	0.4238827653906067
119	0x3fc95d8ed45b1c0b	0.1981676613706614
120	0xbfcba38ce7a0aab7	-0.21592866239492078
121	0x3fd2cbc7da011978	0.2936877850483124
122	0xbfd460602655b7b4	-0.31838229888569036
123	0xbfc2cd3027fcd96c	-0.14688684418224385
124	0x3fca323c215106cf	0.20465804697783205
125	0xbfd8a55774cb61df	-0.385091651970951
126	0xbfd7e38315d61c71	-0.373261233639318
127	0x3fdaa3b2795066df	0.4162412819583618
128	0xbfce474af51fba1a	-0.23655068367902815
129	0x3fd49096ff82ca78	0.32132506324993626
130	0xbfc320f086388d8b	-0.14944273523097382
131	0x3fd5159a14205841	0.3294434734865526
132	0xbfc7763541b16967	-0.18329492290178992
133	0xbfc07b7a3d0f98a4	-0.12876823407640814
134	0xbf942ee824113fe0	-0.0197101852430136
135	0x3fd641565f56188f	0.3477378779429125
136	0x3fdab67af7e17d88	0.41738771636115546
137	0x3fe131b8f2208fc8	0.5373196343466526
138	0xbfdbc39a83346c7a	-0.43381369412390536
139	0xbfbc23a0048f9a53	-0.10991859542228015
140	0xbfd1af3bfcd99fe7	-0.27632045452491955
141	0x3fce1e7449274fb2	0.23530438968611872
142	0xbfd4865ab3170e83	-0.32070033540023973
143	0xbfc10c8331f0d193	-0.1331943506098808
144	0x3fe0290f55b3346e	0.5050121949985973
145	0x3f90c636203ac137	0.01638111659730265
146	0xbf994fc406225d8e	-0.024718344568638133
147	0x3fb6f936f935b0a0	0.08974021515104136
148	0xbfd7e9f762d9fa67	-0.37365517285790023
149	0x3fdb6eb32e2cccd5	0.4286315871169795
150	0x3fdfbcac59af1e29	0.4958907008953895
151	0x3fc54bb045fb6417	0.16637233178224228
152	0x3fd206ba13a28041	0.281660575079517
153	0xbfa842fc4fecc03f	-0.047386059528776496
154	0xbfaf04db9c44ced2	-0.06058393747880832
155	0xbfd554467948b941	-0.33326875538013573
156	0xbfc750d189f9e137	-0.18215388524164108
157	0xbfbfe93e70f84947	-0.12465276964238568
158	0x3fc0c0012cef5527	0.1308595151337297
159	0xbfc087d972931d1f	-0.12914579481569263
160	0xbfd3323cf1c155cb	-0.2999412880793357
161	0xbfd78864c4915dfb	-0.36769980617597725
162	0x3fd885b3e00b7cab	0.3831605613649553
163	0xbfb56e69493eae47	-0.08371599233822123
164	0x3fa85d43e731ed5c	0.04758655736164982
165	0xbfe39e80b06fc6fc	-0.613098473170083
166	0x3fce96e323702dcb	0.23897971372967527
167	0x3fc3a78a80e0386a	0.15355044644133226
168	0x3fbace5553b7a468	0.10471089643364595
169	0xbfd3b503b3e340a9	-0.3079232460704682
170	0x3fdb5aa4fa24c316	0.4274074976738559
171	0xbfa48e9637f8228c	-0.040150350887477065
172	0x3fc7b2e5ca9217cb	0.18514702216287868
173	0x3fdb91b857ad0cd0	0.4307690483294211
174	0x3fe05e0053031afc	0.5114747639971422
175	0xbfd44306e26ae0a2	-0.31659099684794445
176	0xbfc714e59445c51d	-0.1803252195345885
177	0xbfd92b3cddf48686	-0.3932640235453636
178	0x3fc2bf025cef0b0c	0.1464541391161095
179	0xbfbdb63ad725bcb0	-0.11606185677168201
180	0xbfc7d9deb1fb2de0	-0.18633636179434543
181	0x3fdc65ea3eb6559d	0.4437203991340882
182	0xbfe1002d7be60efe	-0.5312716884513689
183	0x3fb7dbfb95e1bcb0	0.09320042046759869
184	0x3fcd7a40c02cf02e	0.23029336341449053
185	0x3fdf3b9ae240eab8	0.4880130013949997
186	0xbfda850bf0443b92	-0.41437052215126713
187	0x3fe2136441d927eb	0.5648671423052724
188	0xbfd043bcb2e5d069	-0.2541343447730982
189	0xbfc837629e8f64cb	-0.18919022314256603
190	0x3fc5a288111cf7d3	0.1690225680885634
191	0xbfd28f5bcc4f7da7	-0.2899999137134394
192	0xbfc44725a8262c19	-0.15842123709111958
193	0x3fbacab3eae9ae01	0.10465549931694086
194	0xbf9223f7b1a8546f	-0.017715330332141507
195	0xbfd95277049b36bc	-0.3956582589133679
196	0x3fb2074327895817	0.07042331423994629
197	0x3fadbb8be4ef75cf	0.0580714909517429
198	0x3fc0ebd6c66cc6b7	0.13219723404613656
199	0xbfd6a05581e3823d	-0.35353601154750774

bias f8 [50]
0	0x3fdd4b73cdff0d8b	0.45773024670435153
1	0x3fc72314222429de	0.1807580153184309
2	0x3fccfc14375cfe43	0.22644283965381548
3	0xbfdf66a3fa9ff848	-0.4906396815785041
4	0x3fd4cd2928341daf	0.3250220196354929
5	0xbfc5b5cf5fdd80fd	-0.16961090260429748
6	0x3fba678198fe5c10	0.10314187989421009
7	0x3fa3e1c30e18693f	0.03883180186331225
8	0xbfd3c8860298bc71	-0.30911398175789545
9	0x3fd3c1a641cb2aca	0.308694423915466
10	0xbfc8eb4023d890b6	-0.19467927694598125
11	0x3fa09060fac53189	0.032351523028952896
12	0x3fc39fda7f133918	0.15331584172094703
13	0xbfd7755dd7c3a560	-0.366538487155216
14	0x3fc382c8d25628d9	0.15242872495975382
15	0x3fcc0989124d8c5e	0.21904099839875618
16	0x3fd6d6cd400e5ac7	0.3568604589030823
17	0xbfd52ac190de65da	-0.33073462626779604
18	0x3f722e5b7db27a99	0.004438741099106602
19	0x3fbafa6ce7067bbe	0.10538368835703602
20	0xbfc4bad109d8c692	-0.16195118885803034
21	0xbf9c657f9185414d	-0.027730935341709274
22	0x3fd3bd6c59461ec3	0.3084364768805978
23	0xbfd9820c6f081224	-0.3985625347416166
24	0xbfd7f9dafbf7873c	-0.37462496381896293
25	0xbfd2a74b0200d142	-0.2914607543528015
26	0x3fd7b1b155044972	0.37022050192276545
27	0x3fccab4ff320edd5	0.2239780366088399
28	0x3fde6cb766cc6fb6	0.4753855232136134
29	0xbfc5097e3d578500	-0.16435220713814402
30	0xbf95867c06acabad	-0.021020830066088503
31	0xbfd8afb45c78acb0	-0.38572415380867664
32	0x3fdaa38ee686d065	0.4162328006016252
33	0x3fde32fc176c3af9	0.4718618611085926
34	0x3fc62e92e0edb9d6	0.1732963178905737
35	0x3fa052629480d534	0.03187854826721051
36	0x3f7312abf7ab3c68	0.004656478641393048
37	0x3fdac192649c35ab	0.41806468796934365
38	0x3fb06bc1d52c4b51	0.0641442437593416
39	0xbfd87c947d00add6	-0.3826037617424992
40	0xbfcb418889fa0f6c	-0.2129374192919572
41	0x3fb82dcfcb930865	0.09444903106762721
42	0x3fac7b4f49040b4a	0.055628278410969914
43	0xbfd93626939e2111	-0.3939300958231949
44	0x3fc49b56aaab4244	0.16099055608221324
45	0xbfd875321df9eb10	-0.3821530621277569
46	0xbfdd37e7b75b64a5	-0.45653717905003993
47	0xbfccb4b9f3044314	-0.2242653309445123
48	0x3fc8cf46c64590ab	0.19382557564961664
49	0xbfd9584f6529a4de	-0.3960150230328291

weight f8 [50, 50]
0	0xbfbcc0769ab13054	-0.11231175686515488
1	0x3fbd595570fe5d53	0.1146443749297437
2	0x3fab92b786e9c95b	0.053853736132526385
3	0xbf9925f27d8163f7	-0.02455881968521464
4	0x3f95984b19f45b98	0.02108876558221659
5	0x3fa452d08057aa44	0.039694324175645807
6	0xbfbf5060bf959aa0	-0.12232021977761542
7	0xbfbbfd5a1cde8679	-0.10933459477248587
8	0xbfb6d6e7270a0428	-0.08921665862182293
9	0x3fb94c8a89e2d957	0.09882417551384513
10	0xbfbb0d686c963916	-0.10567333842320567
11	0x3fad9da9820c46cb	0.05784349167346433
12	0x3f87c31fef60417a	0.011602639668155435
13	0x3fa4077c44a1c3ec	0.03911960923949906
14	0x3f788d57b284b682	0.005994169776654014
15	0xbfacaaaea46846fb	-0.05598970181394055
16	0x3fb398d08d3e9789	0.07655051658966107
17	0xbfb8669df266e64c	-0.09531581085220714
18	0xbfc12a85756d7df3	-0.13411014779829564
19	0x3fb86e97f2d9fcaa	0.09543752364150984
20	0xbf7d17002db59865	-0.007102013299436026
21	0x3fbd4f74176297b4	0.11449361391950569
22	0xbfbb65082833f72b	-0.1070103738929588
23	0x3fb4516e1fba008f	0.07936752581190575
24	0x3fc04962e5159913	0.1272395723892222
25	0xbf8dd1ae09e084ef	-0.014560088802741037
26	0xbfb4441deeffe0a1	-0.07916438183736087
27	0xbfbf3f341cd9360a	-0.12205815986927618
28	0xbf5e46d0dfbbc5c5	-0.0018479385170703116
29	0xbfa828b8d0ac905d	-0.04718568370142926
30	0xbfacd21145f297fc	-0.056290187634019134
31	0xbfb6a3161f47486a	-0.0884260012019539
32	0x3f898cad3bb2516f	0.012475350746435436
33	0x3f8cb898553769cc	0.01402396211681358
34	0x3f98ca57b09293a6	0.02420937552655613
35	0xbf93ca20343ebbdc	-0.01932573622587684
36	0x3fb12b7ab7e57e43	0.06706969251308074
37	0x3f74fd5e46e2c5a3	0.0051244433108633995
38	0xbf8cd89879732d42	-0.014084998327595803
39	0xbfb17ea9e54369bf	-0.06833898398637127
40	0x3fb1c29c17429514	0.06937575881837105
41	0xbfb8718b36062a89	-0.09548254078814912
42	0xbfc07213cb9f38f1	-0.1284813637016167
43	0xbfc1ac3a15b0bf19	-0.13806844767668094
44	0xbfc2b9e85f0715ee	-0.14629845275901182
45	0x3fa3303b1ecfa504	0.03747734786140636
46	0x3fa7b87a560707b1	0.04632932949199587
47	0xbfa842d1c7df2784	-0.047384791992569425
48	0x3fb6d010f56fc4f0	0.08911233894447768
49	0x3f6ac837a1ae0103	0.0032692991784984984
50	0x3f7d654db123ef71	0.007176688656041695
51	0x3fc602d7e246dd9b	0.1719617705218582
52	0xbfb1598269dc123f	-0.06777205547775454
53	0xbf7aedd05ef273ee	-0.006574453305032242
54	0x3fa505365291316a	0.04105539091014772
55	0xbf9d92c975b24542	-0.028880260285011568
56	0x3fa5bdfd9bc7be07	0.0424651386891775
57	0xbfb1a6c24df0a821	-0.06895079043229703
58	0xbfb4ac9813a57e6f	-0.0807585761990539
59	0xbfb039a92188d685	-0.06337983196939419
60	0xbf9b37805e2d5803	-0.0265789086800723
61	0xbf45bc50b29ddb8f	-0.0006633180648652914
62	0x3fb7b3ae4694d45b	0.09258546088388313
63	0xbfa9e9f218f9a0ab	-0.05061298899528429
64	0x3fc10164c21bf180	0.1328550288961985
65	0xbfaee36ab4a2ce07	-0.060328802633559823
66	0xbf98728f2f71fed0	-0.023874509116011577
67	0x3fba08b0d8c7ffe2	0.10169511120329802
68	0xbfa8d22ac981c5c5	-0.04847844800759619
69	0x3fc34f130d875d3a	0.15085065994819918
70	0xbfb58591c4b5df7c	-0.0840693574190236
71	0x3fb5cd2636ba73cd	0.08516157947674614
72	0x3fa1d32ab723ce26	0.03481420026392028
73	0xbfa6335cddf19996	-0.04336061677240648
74	0xbfbf10f11615d635	-0.12135226048652543
75	0x3f988af5e0f9e185	0.023967592102481134
76	0x3fa60ac8015362ce	0.0430510045641249
77	0x3fa6be118f60ac1e	0.0444188582917706
78	0xbfaf0711ad7abe29	-0.060600807596866986
79	0xbfc082ab97f5c890	-0.12898774070669505
80	0xbf9de044f6915287	-0.02917583231858825
81	0x3fb3f6eab3b0fdb8	0.07798640143391011
82	0xbfb180da8b93d9e9	-0.0683724013104904
83	0x3fb7efd658b6c115	0.09350337663523008
84	0x3fc6054d4dc44a77	0.17203680321889056
85	0x3fcbfee5221b6e5c	0.21871627965343776
86	0xbfa3a1cf9c41c6e1	-0.038343894790967566
87	0xbfa2956ec5ee1972	-0.036296331082712366
88	0x3fc104af736416b6	0.13295548567127974
89	0x3fa186be91e7e32b	0.034231143294112996
90	0xbfa6327ba5441699	-0.04335390465170725
91	0x3fb1906d5e2dc22b	0.0686100344589781
92	0x3fbb0a453f3a5a2c	0.1056254653325161
93	0x3f6261d8403e42a9	0.002243921628128771
94	0x3f91181ba719576b	0.01669352729216859
95	0x3fc56779fd7a481f	0.1672203529056455
96	0xbf87ea69e477d4bf	-0.011677577290337358
97	0x3fb031055592209e	0.0632479986107932
98	0x3fb51e41c3c67e67	0.08249293355628994
99	0xbfb21685de809fa8	-0.07065617258251555
100	0xbfc0497becb1d67c	-0.12724255616528868
101	0x3fbfbdf62d1ef06e	0.12399233438094523
102	0x3f82326c2560f238	0.008885235682208323
103	0x3f8ed4795a11d9e1	0.015053699551782653
104	0xbfbf955ddf236e9d	-0.12337290475573544
105	0x3fbd6b8b3a35e69d	0.11492223902851113
106	0x3fc1388a686aaabe	0.13453798387975796
107	0xbfbf4208249b9a99	-0.1221013154387073
108	0x3f920f898785f1a9	0.01763739480655749
109	0x3fc1b056569d3adc	0.13819388608177163
110	0x3fc135348cfd16a2	0.134436196176627
111	0x3fb02685ed790048	0.06308781669304253
112	0xbf9f38ed35052d3e	-0.030490595208261022
113	0xbf80623664452773	-0.007999825415612815
114	0xbfc0b32c67590d7b	-0.13046793981821367
115	0x3fb3e757a4d1d577	0.07774875425260129
116	0x3f95e40cbbd78329	0.02137775322433125
117	0x3fb38e591b2a2146	0.07639080918500438
118	0xbfa09bc374cb8390	-0.0324383812019341
119	0xbfa3f0facdd76b31	-0.03894790423119899
120	0xbfb9d55143a831e0	-0.10091121579916473
121	0x3fa1811144c9a5b8	0.03418783154195232
122	0xbfb238227dcb5551	-0.07116904803418335
123	0x3fa0740a69e7d9ef	0.032135320117891435
124	0x3fbb638ef879cec0	0.10698789182952861
125	0x3fb82b5d5cabbbc8	0.09441169273826155
126	0xbfbfab58a48e0912	-0.12370828645183377
127	0x3fb61c5ffee56949	0.08637046788263548
128	0x3f9b1d17daaaba89	0.026478169175499864
129	0x3f7a41f6fdfa1688	0.006410565197830238
130	0xbfba8ab9ee0035ac	-0.10367929516379232
131	0xbfc140363ee7a91d	-0.13477209159402373
132	0x3fb2ba8fa0dcb8a3	0.07315919568347566
133	0x3f69098048569097	0.0030562882918321976
134	0x3f9b557df1f690e7	0.02669331349683626
135	0xbfb1055f00a1c5bf	-0.06648820653369734
136	0xbfb6a99be8f00574	-0.08852552830651012
137	0xbfb1a0c972f9ddbd	-0.06885966355354518
138	0xbfbdc59dae6ad67b	-0.11629662998424266
139	0x3fbdf8f8c3d05ad3	0.11708025723087738
140	0xbf69d813436b55ce	-0.0031547905194695197
141	0x3fc0788ba96268b2	0.12867875834200998
142	0x3fa3fd1d5e7224cc	0.03904048707870231
143	0xbfb812718c43162b	-0.09403142618528963
144	0xbfb18336cb7b8017	-0.06840841739494895
145	0xbfaf07018185dc97	-0.0606003256424909
146	0xbfaf7bf772e11563	-0.06149266507467634
147	0x3f526fd2284026f4	0.001125292998951752
148	0xbfa5b0ee9eb77043	-0.0423655098672673
149	0x3fa3afd7779f02bf	0.03845094046801511
150	0x3fa13ec1eb01a7c6	0.03368192666751173
151	0xbfa8074ca44ff4ab	-0.04693068986669265
152	0xbfcdb92afe2f46a0	-0.23221337710724743
153	0x3fbe9b970dd15857	0.11956161582324519
154	0xbf74bb903b60eac6	-0.005061686903043044
155	0x3f7d3effbf1798b0	0.007140158662400406
156	0x3fb8aea801699366	0.09641504320604852
157	0xbfad80575c2613fa	-0.05761979102957322
158	0x3fa6d05bac72736e	0.04455839614931888
159	0xbfb81c5a6eea46c2	-0.09418263633622373
160	0x3fa4a930cca96455	0.04035332201301204
161	0xbfc2378dd3ca18ae	-0.1423203739288445
162	0x3fc76a942317fff3	0.18294002259790396
163	0x3f675413cc0a1259	0.0028477083836285053
164	0xbfa225d837060fa8	-0.03544498130489099
165	0x3fa0e2e7a178e8ef	0.03298114629838433
166	0x3f8d0badc8b3f362	0.014182431876628324
167	0x3f8b5cab79ed7dda	0.013360347422063979
168	0xbfc799d05e7e22a3	-0.18438152898695134
169	0x3fb46003a1643f51	0.07959006014084237
170	0x3fadfa153caa3c0e	0.05854860654391568
171	0x3fd0496a2402bbe5	0.25448087231319355
172	0xbfbc98f287f02c97	-0.11170879191210968
173	0x3fb47d53249c56a9	0.08003730434242108
174	0x3fa60a7b6ec8ec2b	0.043048722528020576
175	0x3fbbfccb2830902c	0.1093260739440331
176	0xbf88d8cb6e90f406	-0.012132252990449299
177	0x3fcc9b3174735136	0.22348612009103314
178	0x3fc6e15f38765781	0.17875280625292692
179	0x3faf2cfc7e3cdd3e	0.060890093240625096
180	0x3fa51b638cc7db55	0.04122458547128952
181	0x3fa52d0108644162	0.04135897853314209
182	0x3fbc3817bcb738d1	0.11023090703313022
183	0xbfa176c8c8a6e36c	-0.03410937737812145
184	0x3fbdee3d8f391216	0.1169165110268938
185	0x3fc5e59787210945	0.17106908891771347
186	0xbfcddd1a4865f332	-0.23331001792021194
187	0x3fb222ebc12d4c1c	0.0708453508971591
188	0xbfb032b4a477ff77	-0.06327370658254759
189	0x3f925e477cb35cff	0.01793777178394595
190	0x3fc13f3013cc3607	0.13474083868679562
191	0x3fc3f8342b83ee1d	0.1560120785214715
192	0xbf886a859f4e537b	-0.011921924518711205
193	0x3f8415d6b67e9c48	0.009807279056827892
194	0x3fc373eb4789834e	0.15197506897950536
195	0xbfc691e29c093fc8	-0.1763270627875484
196	0xbfb4129fd66c8b59	-0.07840918526612252
197	0x3fbb55a8dc5e749d	0.10677581195928317
198	0x3fb6f4d804e814bb	0.08967352027692048
199	0xbf92c0493f51ef62	-0.01831163834547967
200	0x3fb5f4c0f88b3e64	0.08576589649168792
201	0xbfaffe26c9e22cf0	-0.062485897201520646
202	0x3fc859ddb748268a	0.19024249505337237
203	0x3fbd2051a5636ac4	0.11377439773370229
204	0x3f9d981c6b4ebf12	0.028900569963012997
205	0x3f8ee72fb3c46a0b	0.015089390443383107
206	0xbfc7505ea1944a07	-0.18214018716442146
207	0x3fb797c385a49f91	0.09215948117036833
208	0xbfa5df1c60cd4b56	-0.04271782571472353
209	0x3f9e0068134a73f5	0.02929842584363836
210	0x3fa085279a7da315	0.03226588974832204
211	0x3fbb66dcf6f537e5	0.1070383170055887
212	0xbfb418055bb17529	-0.07849153030970925
213	0x3fa4a82968130a54	0.04034547229231991
214	0xbfbfe525aca63494	-0.12459025826520281
215	0xbfc15847f15a6eaa	-0.1355066231234237
216	0xbfc6e65a1ed1778b	-0.17890478615566638
217	0xbf9c9ba4ee8c2450	-0.02793748575189553
218	0x3f811a3c6754777c	0.008350822356586234
219	0x3fbd342de6fa0e1f	0.11407744301873678
220	0x3fb196bfe1d54813	0.06870650542740035
221	0xbf755e0834552092	-0.00521662907460309
222	0x3fb0566d8384c6d8	0.06381878338722957
223	0x3fad9e066900aebc	0.05784626037379101
224	0xbfc1605ecbdad5ca	-0.13575348810051785
225	0xbfb204e685b34ca1	-0.07038727535409574
226	0x3fba287214061221	0.10217965115413864
227	0x3fb638984de6c21d	0.08680107023133883
228	0x3fab295438785ce2	0.053049690144854514
229	0xbfa6dae65d98b527	-0.04463882343802999
230	0xbfb269ed825a34fe	-0.07192882950240073
231	0xbfab414257b7a238	-0.05323226280944876
232	0xbfb0a4ad47026473	-0.0650127695429477
233	0x3fb4dea51f1435ba	0.08152229317439366
234	0x3f9cd5d907493d8d	0.028159514493663763
235	0x3f9218bdaa4e908b	0.01767250396700652
236	0xbfc61d8702ae6862	-0.17277610426828277
237	0x3f96e100a0481605	0.022342691214381833
238	0x3f9477c8b080861e	0.019988189480619416
239	0x3fb960f98c9037a6	0.09913596803400412
240	0x3fb5bf33900b2781	0.08494875208557852
241	0xbfb57499e519022e	-0.08381044238286314
242	0x3fcccbbf662c9047	0.2249678849121912
243	0xbfc3c8af2406ce66	-0.15456189402685822
244	0xbfb10ea123476240	-0.06662947760867954
245	0x3fd0be271c02df16	0.26160600409956325
246	0x3fcb9d8d5fc1742c	0.21574561286516436
247	0x3fa15224c0f2afca	0.03382983069727137
248	0xbfb6f4ba002793e7	-0.08967173103117397
249	0xbfa8a44ce04cfc26	-0.04812851179166726
250	0x3fb268300014a350	0.07190227510421932
251	0xbfa77520e3d11fd2	-0.04581549435584943
252	0x3f7179a12fa75d94	0.004266385682476854
253	0x3fb280790dd10d09	0.07227284037894689
254	0x3fbd888d495dfb72	0.11536486664952664
255	0x3fbe8b0abb707018	0.11930911136772726

bias f8 [50]
0	0xbfbf72fa2be0c8f0	-0.12284816333047721
1	0xbfb6f9c473bbdac2	-0.08974864793331519
2	0xbfb7884e654c01bc	-0.09192361805981525
3	0x3fbd7ea7dc8a6679	0.11521386274616842
4	0x3fa4e3fa7c7eaf3b	0.04080183763230002
5	0x3fbe899ac6351294	0.11928717936559458
6	0xbfc4295fb6ff916d	-0.15751263080086222
7	0x3f99d97255cbfa39	0.025243555533047
8	0xbfa8ff46e8428ee2	-0.04882260880665769
9	0xbfbb3404fbbd55ff	-0.10626250406252068
10	0xbfb491da3aee4cbf	-0.08035053194753326
11	0xbfb0b06f5c53fd39	-0.06519218448737697
12	0xbfa1417a0763035e	-0.03370267238779577
13	0xbfb8befe22a39241	-0.09666431756665707
14	0xbfa1066a791ca8a9	-0.03325207451264706
15	0x3f604160e5b3498e	0.001984299900507475
16	0xbf9537208f714361	-0.02071810603621616
17	0x3fbcf167d10fa153	0.11305855611829445
18	0x3fa6a8b2b7683e09	0.044255814446042825
19	0xbf7d37df120910b8	-0.007133361214588678
20	0xbfb77081d6efd432	-0.09156047341805687
21	0xbfbb3d7dec8dc0ce	-0.10640704179036506
22	0x3fb629b801bcd0a9	0.08657407801075813
23	0x3fae06e836d249be	0.05864644688803676
24	0x3faa778e163b763c	0.051693382467175
25	0x3fc27e65ace91270	0.14448233549969158
26	0x3fb3602c76fd094f	0.0756862440585213
27	0x3f8623b9a9e199e9	0.010810328003754104
28	0x3f997f7b9508b7c6	0.024900370570484907
29	0xbf60b0a254d924ad	-0.0020373507057099478
30	0x3f87acb2a7f34bce	0.011559863806189254
31	0xbfa1cc7e97e70b37	-0.034763294260776005
32	0xbfa64e6f955af059	-0.04356716821845969
33	0x3f798da550f7dfac	0.006238599554755735
34	0x3fa90dc8d68ee546	0.048933292571244055
35	0xbfa184af6cbe5faa	-0.034215433143969534
36	0x3f993ba71b77094e	0.024641619731263824
37	0x3fb11aa374e24aea	0.06681272128689
38	0x3f9cf3832625604f	0.02827267570805275
39	0xbfbdaffb5ff4df1e	-0.11596652119339665
40	0x3fa4347c77140875	0.03946293786613434
41	0xbf8bbcec21f04001	-0.013543934617729294
42	0xbf65871833e6acb4	-0.002627894659971009
43	0xbfbd196070faf337	-0.11366846807773077
44	0xbfbeccacabd26aeb	-0.12031058497306517
45	0x3fb59ce8c70d1eaa	0.08442549571656835
46	0x3fb4b1662c01a8a7	0.08083189558388658
47	0xbfb48bcbe2e3ce68	-0.08025812424949097
48	0xbf8b047b399f6e31	-0.01319214124298815
49	0xbf91a4a959f10476	-0.0172296963830871
