lasa_models/6/skel_model_Angle.pt (torch, 99247 bytes, 18 tensors)

R f8 [20, 20]
00000000: d0f8 ccc2 9814 d83f f568 45ae 9e21 e13f
00000010: fb9e 1341 2519 db3f 2762 b4df 0323 c13f
00000020: d0d5 b8ac bc29 d43f 27c6 d9e5 e0d4 e03f
00000030: 698f 8571 4f8b c13f b106 dd8a 166e ee3f
00000040: e6d6 a712 2f00 82bf 2ac4 1aba 3fb7 e83f
00000050: 0280 73a2 2cba ee3f 1a2c 34d4 0674 ec3f
00000060: 5b39 d77c f48d a73f e324 a742 2e1a d43f
00000070: 7cc0 1efd 500f de3f 05cb c8bd 7558 e43f
00000080: 21b5 ee18 7c60 bb3f 2e12 53d7 ec9e dc3f
00000090: e1e2 3e2f 28f9 993f af3d b053 ed30 ea3f
000000a0: 84d6 a38e 98be db3f 9cb1 8706 3260 dc3f
000000b0: f152 5ed0 0d1e c73f cc28 b3ad a243 db3f
000000c0: 5155 e9fc 8617 bb3f 1a4c 9972 16b4 c33f
000000d0: 80eb 650e b8d9 ea3f 8b90 9465 3c50 e63f
000000e0: 13df b9be 7526 bc3f db1f 7cb2 26ab eb3f
000000f0: b7c4 d65d 971c e93f b47c 9e31 e192 c93f
00000100: 92df cbca e7c7 e33f 1903 e900 056e e63f
00000110: 230e da03 d711 cc3f b69a fd63 615b d43f
00000120: bcc3 b850 c3f4 9d3f 0a49 7b53 0948 e03f
00000130: 2c42 757c ae5b e93f d16d 585d bb4e d03f
00000140: 6793 e196 0654 e63f 8a05 5fb5 c152 ef3f
00000150: 2120 aaf3 e026 ed3f afc9 7af1 4ecd e43f
00000160: ef23 f22d c468 e23f 3939 cd88 9729 d03f
00000170: 0f59 73e1 72e2 c73f ec4d 66cc ad6f e03f
00000180: d748 13d2 97c9 bd3f 6b26 6ee1 3ab5 e33f
00000190: eaae cbf6 0369 ea3f e633 b087 31ed d13f
000001a0: 1041 b8fc e015 ea3f 23b4 679a 81de bc3f
000001b0: 2259 31da a0a8 c13f e093 1968 38b3 db3f
000001c0: 318f f1f5 f60f 703f 123d 2225 a9d7 df3f
000001d0: 2b42 f8b8 a09e d23f db79 880d 52bc ee3f
000001e0: fd9e 7c95 247e f03f 7d04 6cae 31f2 e63f
000001f0: c1af 274a 43cc d83f 809c 2bd0 42f7 c73f
00000200: 9e16 5335 b42d f03f da49 dd41 09de c43f
00000210: cd8d a1d6 e0bc 96bf aafb 878f 932d eb3f
00000220: 50e3 f9ad 7560 b23f 42fa 4a25 53e7 de3f
00000230: aa22 43f4 b86e d23f ab0d 1f51 1e1c e03f
00000240: a91a 5e8c 017e ee3f c4ba 4d90 014c c13f
00000250: 5ce8 c5f2 615d f03f 6210 8bee 273c d93f
00000260: bac9 0d5e 209c d63f e680 2686 e4a0 dc3f
00000270: 59fc bf4b ad9a 96bf aee4 517d 250e e43f
00000280: 7d45 cd7e 496b c93f b320 1ade e0ae d33f
00000290: d2f2 5cf4 fc54 b03f 90d2 06a1 130b b83f
000002a0: c31b baac 8770 e23f bd37 a045 dbe9 f13f
000002b0: e0a7 0d7f 4196 dd3f b444 67de 3564 de3f
000002c0: bcf3 b386 7f08 ec3f 2b77 3eb7 c11a ef3f
000002d0: 1f7e d3bf 8618 de3f 521f f2c9 72a3 e03f
000002e0: 22b7 a675 66c4 ea3f 1255 b0ce e2b8 d83f
000002f0: 17cc e33b 3d32 dc3f 7317 5dcf 751e eb3f
00000300: cf7f f3e9 5b3f e93f 9f6e 2839 a358 e33f
00000310: f26a 7f03 922b de3f ede5 5676 9992 b83f
00000320: 2fb7 4788 f328 d43f 16d3 e180 5700 c53f
00000330: 7f64 6508 ca46 e73f c4ed d85d c7c8 e13f
00000340: 4f6d 429a f114 e03f 42c0 6dfa 2143 e03f
00000350: 0dec d2e4 300c ee3f 6db7 4595 5dce c93f
00000360: e8f3 a896 5591 eb3f 7fbe d2de b7c3 e13f
00000370: 4d73 8ea7 6ff4 e33f b19f bbf1 fa01 c13f
00000380: 200f 6d6e f02c ee3f cbd8 7cb2 2e58 d43f
00000390: c18b 161e ef2e e93f 30e1 27bb d773 e83f
000003a0: e58c 4006 b86d e73f fc43 bd21 1549 e63f
000003b0: eded f1c6 5f44 d23f 8385 1500 807c d13f
000003c0: 09e6 e54c 9a53 d23f a626 dda5 e53b e83f
000003d0: 9eda ee5a 373e e83f 2dc2 0a25 162d ef3f
000003e0: 2a10 ff31 2bf3 e23f 1b86 4de8 e7be e03f
000003f0: 8d2b de78 f02d e83f 1661 471e 746c db3f
00000400: 488c 9c88 5bbe e63f 9ee6 7802 0f7b de3f
00000410: 8820 9583 4758 dd3f 1243 78fe 056d d53f
00000420: 149e 9bcd 9fb0 eb3f f9d2 39fc a937 d73f
00000430: 363d 3931 2dc3 e03f 4360 2a28 fd0e d63f
00000440: 2423 9db7 2e1f e93f 25fe 116d 4718 d93f
00000450: 7da9 f068 1bdf eb3f 9ca0 b52f be6a f03f
00000460: 3f22 d0cd 5cb4 c13f f1b0 e69e 5a88 d13f
00000470: efe3 bbea e1da dc3f 615a cd0e b641 d23f
00000480: 39f5 8759 0e54 cf3f aa0b 95d4 0411 e13f
00000490: 0cee 69a8 0c7e ba3f b6f2 c917 01a7 e83f
000004a0: c4f5 3df6 3669 e73f 2a06 20d6 abfa d03f
000004b0: 3a0b d2ea 2c8c e43f 977d 0f64 f8ef e53f
000004c0: dd0f ce1f 61e5 c23f cf28 abb0 488c e53f
000004d0: 6892 3fff e5e5 ea3f 3fba db1b 30f6 e23f
000004e0: 7544 efc1 d94e e23f acef 171d d5cf b6bf
000004f0: 1896 5ac7 609d d43f 5050 7e24 9e28 d43f
00000500: 8540 9c92 c45a eb3f 9f2c b84f dabb d23f
00000510: fe0b 2035 ca6d e03f 3b0c ccba 1673 e43f
00000520: 1bae 1d0a e5de cb3f 29da 83c1 41af ec3f
00000530: 4004 2e12 e7aa e13f 2a57 faa7 ec0b e13f
00000540: b4bf 56ac 92b7 e23f c23f 97d8 4d46 d53f
00000550: 7410 3033 a289 e93f ef46 5911 7b2c db3f
00000560: 9725 0eb6 ca39 e83f ed1e 289e a15c dd3f
00000570: d41c 5279 e1b3 e43f c980 8c46 8a6b e13f
00000580: 9a76 a770 c390 c1bf ba45 2f94 7290 d73f
00000590: 5dd1 8e55 f892 e83f 7eca deec 86f5 cc3f
000005a0: 77cf 963d b060 d33f af71 ec05 04f4 e73f
000005b0: 503f decc 39fb b83f 2ba9 c8e3 a07b ea3f
000005c0: 6528 100b 7e28 e13f 6685 018a 3354 e73f
000005d0: 4d08 2615 0267 e33f be9a bf47 cc16 f03f
000005e0: 12d5 a3b3 f572 a93f 0c89 d76f d2aa c83f
000005f0: abd8 6ce3 1a46 ee3f 819e 7d26 f794 ea3f
00000600: 57a6 8402 13fc e03f 9640 484b 4c24 e43f
00000610: 3497 7bec 717d e23f 8686 1d09 43f5 eb3f
00000620: 5231 befe 4510 e53f 83bd fba2 ed8b ea3f
00000630: cf8c afea d28c ea3f 3e9f ecfa 244f f03f
00000640: de79 ac9e d1d8 ec3f ee07 da14 a341 b43f
00000650: 593c ea59 8aab c03f e4a3 1039 c2ec d93f
00000660: b20d d43d d68e e73f 9063 4837 da27 d23f
00000670: f368 68bc d9bb e43f b0a3 a755 0c7f e23f
00000680: cb3f 370a 9820 db3f a318 48d4 9760 d03f
00000690: bacd 57b3 3d43 e63f 5c05 fc0b 5acc e73f
000006a0: be79 09a1 cd1b de3f 0573 9222 1302 ba3f
000006b0: dbd5 4402 6cbf e13f f419 1384 433c eb3f
000006c0: e661 a67d e87a f03f 3891 1134 1a12 b43f
000006d0: df26 6e81 cfa0 f03f a584 f3bc f381 c83f
000006e0: d613 1506 bea2 e13f 4832 e9e6 b846 e63f
000006f0: 1a61 cf7d 9ee2 d13f 407c ef5f 5402 c53f
00000700: bd06 d170 3276 d23f f4d4 5cc5 f335 f13f
00000710: d0e8 6944 6dd5 b63f 07c0 47ed c0d8 b33f
00000720: 4cc2 97d8 aac4 e93f be5f 9a0c f14d c93f
00000730: 3d5c 8169 ddeb e13f b97f a556 beb7 e83f
00000740: f0f3 385f bc0d f03f 8be6 b7db c786 e93f
00000750: 3be8 7fdc 9bf5 e43f dff6 f42e 3d68 ee3f
00000760: 8742 0651 2690 cc3f 91a4 9d8a 9e52 ed3f
00000770: c8c0 d0c7 0f08 ee3f 6948 f681 51b5 ca3f
00000780: 7c25 90ef 8157 9bbf 5c7c 76d1 8d95 ee3f
00000790: 336b 3e6f 898a 993f acd6 db8a c2cc ce3f
000007a0: d6d9 b3cf e6f4 eb3f 6291 d653 9b4b d03f
000007b0: 2f13 3506 821d bb3f f5f4 e438 4f2c ed3f
000007c0: 450a 794e b613 cb3f 07a4 8ae2 d856 ea3f
000007d0: d686 bbd9 9755 e93f a77a 6f6b d7b2 d33f
000007e0: ce10 f505 8014 e53f e02b 4a9e 91b3 e73f
000007f0: 1e09 9d42 1da4 d53f 9eec 98d2 1bb6 ef3f
0.37625712417128643 0.5353539851887762 0.42340976100102495 0.13388107703282623 0.3150474249590305 0.5259861459036913 0.13706391375591956 0.9509384834456879
-0.00878941322023814 0.7723692545752148 0.9602263615488484 0.8891634125333241 0.04600490592894132 0.31409794339249525 0.46968483656656423 0.6357983309484047
0.10694099053099083 0.4472000220087321 0.02536452091564712 0.8184725412883632 0.43350805215536803 0.44337130201054165 0.18060467409363626 0.4260031410491478
0.10582774805637497 0.15393334003110298 0.8390770226682065 0.6972944244376021 0.10996185213468505 0.8646424757034724 0.7847401459495335 0.1997949116020884
0.6181525193087387 0.7009301202561772 0.21929443061900242 0.31807741894446495 0.029254009057868777 0.5087935095309899 0.7924415999241936 0.25480541339649415
0.6977570483110015 0.9788521330266786 0.9109959372590347 0.6500620571517198 0.5752888581638426 0.2525385700181633 0.18659816749886501 0.5136326782398419
0.11635731581489793 0.6158728030142816 0.8253192730166721 0.28010214091119534 0.8151707588131405 0.11277017612128808 0.13795862821525257 0.43281374135977835
0.003921475115109805 0.49753788591711257 0.290931873926669 0.9604883446043532 1.03079660790712 0.7170647055319389 0.3874672149820491 0.18723330654686166
1.0111581881514335 0.16302600589786104 -0.022204888439217463 0.8493135264724192 0.07178435800041183 0.4828689445675175 0.2880079636930001 0.5034324249649463
0.9528815976671768 0.13513202234340416 1.022798488933879 0.3942966298602696 0.3532792013640137 0.4473201093733351 -0.022074420689019856 0.6267268607763492
0.19858664218422098 0.30754872979788245 0.06379681554694663 0.0939190166598769 0.5762365697454402 1.1195938796767984 0.46229588897278795 0.4748663589389921
0.8760373717228656 0.9720161990150918 0.4702469704916172 0.5199521965268821 0.8364746377826331 0.3862845438428205 0.4405663571225786 0.8474682855673862
0.7889842576369065 0.604570018421743 0.47140932408880964 0.09598693026682499 0.3149994688854915 0.16407293122360816 0.7273912586198462 0.5557591278988459
0.5025566113357999 0.5081949130235517 0.9389881581513478 0.20161027706802362 0.8614910070970128 0.5551413871780396 0.6235883972727635 0.13287293246616863
0.9429857403524444 0.31788222723424714 0.7869792544992081 0.7641409545313191 0.732143413745146 0.6964212092372004 0.28542322567201844 0.27322387703141987
0.28635270604681345 0.7573116530922632 0.757594754794656 0.9742537234761294 0.5921836830607436 0.5233039414562798 0.755607830114387 0.4284944816295292
0.7107370060151732 0.4762609027999164 0.4585131440148946 0.33477926111759004 0.8653105750826762 0.36277246123726986 0.5238252602957008 0.34466484949507875
0.7850564562041638 0.3921068730487341 0.870984749756914 1.0260602821017875 0.1383167271562957 0.27394738691033554 0.4508595268558215 0.28526069112323255
0.24475268718371426 0.5333274986263536 0.1034858618895031 0.7703862633348624 0.7315935906805682 0.26529975805906025 0.642111261972196 0.6855432466799581
0.14762510350203586 0.6733745050962855 0.840563772708788 0.5925522369487409 0.5721253192697434 -0.08910877189913319 0.32210559337758715 0.31497911037263737
0.8548300612910827 0.29271562371349974 0.5134020841218214 0.6390489242916212 0.2177397059816578 0.8963936595526479 0.5521121363709725 0.5327056198900426
0.5849088064187442 0.3324160208840078 0.7980509757767451 0.4245898885175014 0.757054668022806 0.4587787670611608 0.6469581002756066 0.5443774583727868
-0.13723032952014053 0.3681913802257345 0.7679406806042085 0.22624289098674305 0.302776394029244 0.7485370746322156 0.09758340121902376 0.8275913666632609
0.5361929145885936 0.7290284820011663 0.6063242352540869 1.00556591059437 0.0497051984583924 0.19271307431251505 0.9460577432535237 0.8306842567225915
0.5307707833464502 0.6294309110981142 0.5778131121448724 0.8736891916307321 0.6582365012596176 0.8295810874241599 0.8296904166894822 1.019322376416269
0.9014671420189264 0.07912654170107178 0.1302349986112599 0.40507560322526914 0.7361861426911018 0.2836823978300851 0.6479309730378006 0.5780088112779733
0.42386437413824457 0.25589557390811474 0.6957081320564875 0.7436952814170286 0.4704469750048722 0.10159415811581247 0.5546169323267195 0.8511064128477401
1.0300068767738764 0.07840122004705996 1.0392603927488648 0.19146582342276477 0.5511160010142884 0.6961330900172209 0.2794567326177614 0.16413359341001588
0.28846417443501676 1.0756719312169567 0.08919413490540085 0.07752614777541576 0.8052572470024386 0.19769108882314684 0.5600421009684237 0.7724296276392045
1.0033534736278362 0.7977027217268228 0.6549815470346013 0.9502244870306774 0.22314909893295384 0.9163353640880293 0.9384840872426361 0.20865839811137057
-0.026701002356309442 0.9557561007567403 0.02494253865698255 0.24062377720081451 0.8736452156725203 0.2546146696788779 0.10591900493188854 0.9116588698595068
0.21153906661682434 0.8231014656677197 0.7916983845318224 0.30779061786408096 0.658752452502563 0.7406700221630409 0.3381417418023761 0.9909800637464234

L f8 [40, 40]
00000000: d2a2 561f b529 e53f 568e 24e4 9814 b93f
00000010: a0b1 bc17 c9b4 ed3f acdb dffe e291 e13f
00000020: c623 3db7 663e d53f 1ed2 4200 c617 e63f
00000030: e067 5dbb ac5d c83f 1ca6 9822 0067 d73f
00000040: f6fb 3ea0 a59b d63f bdc4 f6a9 2cd8 d43f
00000050: a307 d3cd dd29 e93f c1b3 ed26 caaf cd3f
00000060: 60c0 0e0b 907c bdbf 4298 5030 81ef ee3f
00000070: b98d cb5c 94ef e03f 15a7 70ea 0800 e83f
00000080: 2dae 8bbe 2420 a03f 4dec 5797 92b0 e13f
00000090: 9d92 28bc 5ff7 d43f 0caf d842 795f d63f
000000a0: da8c e9c5 b832 dd3f 0748 5dcd 29fa e33f
000000b0: b871 edc5 b450 df3f c76c 938a 1ea4 d63f
000000c0: 4b36 375c 2e9e e43f c930 0bfe d591 da3f
000000d0: 5ab0 c228 bd89 d53f f4b7 0812 c05e e43f
000000e0: f063 78cf 692c d23f 1c60 4009 28b1 eb3f
000000f0: 4d35 9f7a 2926 e13f 8ffe c934 9ed8 e63f
00000100: 9bf8 9b0a dbf8 df3f ab55 36f7 70ac e03f
00000110: 57f3 7af9 566c e13f f4fc ab87 6422 bb3f
00000120: f44f 8539 3fa2 d93f 70b3 9983 48fc e13f
00000130: f3f8 d20d 5bb5 e53f 5750 8696 ef34 ea3f
00000140: d1f4 3d96 8b99 ea3f f77f ad77 65d5 b9bf
00000150: f3d4 1352 1d33 cf3f 39ec 26a5 f100 e43f
00000160: f232 f4eb 7728 eb3f fe85 8af0 d091 d83f
00000170: 9cf9 d516 77f0 dc3f 6d62 789a dc14 a83f
00000180: 8904 9e34 c413 b4bf b1db 788b e2d2 e93f
00000190: 1af3 7685 34f2 e63f 80f3 fe82 54dc e93f
000001a0: e656 5feb 304d e43f 6483 18bd 873b d53f
000001b0: 7c72 b22e 20b2 e03f 1dbe cda1 9e0b ca3f
000001c0: bb40 5ce3 2e14 c33f abf3 6ca4 dca5 d93f
000001d0: 6f5b 8241 60d5 d83f b231 4898 9405 ed3f
000001e0: fcf2 15c5 d84b db3f 4dd3 10f0 7b03 e43f
000001f0: c07b 3e36 3b5f d23f 544b 9383 9db7 e33f
00000200: 829b 465c 0afc da3f 6845 1c73 4915 d33f
00000210: 160e 7261 8d80 c73f 86dd fe4e 6dc6 e23f
00000220: c34a 767d a105 e73f 600f 4ad7 c3dc e63f
00000230: 065b e295 a74c d83f 17c9 d212 6fff dd3f
00000240: 4f3e 12e5 3872 c33f 32ba 070a 4432 d03f
00000250: 19e7 541e 7c97 d13f b9d0 b311 5205 e13f
00000260: 28c7 4460 0950 d93f c2d4 e404 1c66 cd3f
00000270: a9a7 5e74 4105 e83f 6de3 0aa5 ca65 e33f
00000280: 017f c676 0b11 d13f e23d 6ab6 5d4d ec3f
00000290: 97f9 5b1c 1fb7 e43f 550e 4de1 0dcf c63f
000002a0: aa13 29ef 1e78 d93f f137 288a c44e e73f
000002b0: 71d0 ee57 cf5a d23f 1a1d 6390 4f06 e03f
000002c0: a0c4 9098 0a05 f03f 8bc8 337c 9053 e53f
000002d0: 79dd fd87 d139 de3f e1ab 98a1 0744 e23f
000002e0: 344d 7ff1 2f28 e43f 916c 9b76 dbbe e83f
000002f0: b206 bbf3 ddfc eb3f fee0 ae49 5a7a e63f
00000300: ab27 0f64 d094 c13f 64a2 c5d2 0b20 d23f
00000310: e2c3 e3bf 5b91 d93f 5709 9533 28bd d93f
00000320: 5115 9ffe 74d0 e83f cb78 a1b2 0c0a 9ebf
00000330: e95b 3c1e 5822 df3f 468d c4eb 896d da3f
00000340: 5c9c f891 128d dc3f d377 a30f a8cd 94bf
00000350: dc5e 6558 ea34 e73f d061 3e5b fa92 e23f
00000360: b4be 854c 817b e53f b44f f0f8 f47c de3f
00000370: 08f0 9175 e8ff e33f d868 81e4 2556 e73f
00000380: 5e06 2a28 227d af3f 00ce d31b 9c5d d13f
00000390: bcb7 95cd f26d d53f 7055 ac95 7d9f da3f
000003a0: 2ee4 c007 2cbe e03f 168a 9a42 1caa e53f
000003b0: c152 3a8a 80aa e53f cc43 e0a0 6987 cd3f
000003c0: 17e2 3966 6c35 e93f 52e7 e997 a8a0 c73f
000003d0: 39c8 b8ed a8fa d23f eff9 c376 d7b4 dd3f
000003e0: 65bd 9836 74f8 e43f 6607 7232 71b7 d63f
000003f0: b6aa 727a 596b cb3f 02b6 062d e5bd e63f
00000400: a84c e1b8 d1fd e43f 60fb 8e75 d72c eb3f
00000410: 9950 335b c1fb e13f 0272 dd48 92b3 dd3f
00000420: f619 3017 e7c2 e03f 5d0e bf78 a550 ea3f
00000430: 945b 3114 dcfc db3f 322e 81b5 9e41 dc3f
00000440: 8416 d10a de31 e43f bc97 cede 1390 df3f
00000450: 7db3 530e af1f dd3f 6504 41cd 1844 d43f
00000460: bb1f 4616 d676 de3f c040 3862 c75a e33f
00000470: ad22 4e1e 5a19 ab3f 5a2a cf27 605c de3f
00000480: 7f25 03ee 0776 d83f b5a3 c55e b60b c93f
00000490: 6e02 d9d3 7c9b e63f bec7 a94b 77ea d83f
000004a0: d206 a3e9 0959 e33f 4949 39fc f859 e53f
000004b0: 2c67 4b86 9e1b e93f c5b2 0ac9 5849 dd3f
000004c0: ed50 a930 f440 df3f 008a 5701 3e75 d63f
000004d0: 68bc e212 48f0 d73f 05ad cb4e 2780 a43f
000004e0: 942a 352d 5ad8 de3f 70bf 43e9 a10a e93f
000004f0: 539e 2b50 354d b1bf 4c6a d2fc c322 e23f
00000500: 8ce6 3cd8 7bc8 d73f 3601 f772 6e9a e43f
00000510: fa82 2d1a d135 e63f 9cd4 1dd8 d353 eb3f
00000520: 9827 f8b7 e8dd e03f 2b54 0ce8 b3b9 ce3f
00000530: 842f 9e8f f127 c33f c6f1 672b 2b17 d23f
00000540: a26b 8d88 60c3 bebf 9f55 5a57 8155 e63f
00000550: 2810 ff5a 4492 e63f a88c b53d 51cd b0bf
00000560: 304d b10c 62ae e53f dcf7 960a 1091 dc3f
00000570: a056 bdb3 62df d03f 8fd6 4f45 adc0 ea3f
00000580: cdd2 ecfc 5b0c df3f aee0 c8a4 6b0c d63f
00000590: 0c4f 9d4f d13f db3f f964 fbba fefb d93f
000005a0: e867 7cef 840d eb3f 730a a98d 9a8b e03f
000005b0: e59e a942 001c bf3f eaa0 e877 bc71 c73f
000005c0: 31f4 7fcf 4689 d43f ec64 ece8 10b2 e63f
000005d0: 8f36 c32f 444d c83f 5f2d b1ae 5a12 be3f
000005e0: 91e4 dbb3 9f45 e73f 3cee fe41 78bd ed3f
000005f0: d2f2 7cd1 1829 e83f 6c56 8b3a 0be2 d83f
00000600: 2160 aed0 4ef9 dd3f 580b db37 9f3c f03f
00000610: ab12 3669 23ca ca3f a8c7 4255 d705 e63f
00000620: 1bc0 612c d31f c03f 83b8 ae7a 6468 e53f
00000630: a794 d7f3 58d0 ea3f d11c 697e a53e d03f
00000640: e1b9 cf11 3594 c63f 0286 a020 ce21 db3f
00000650: b156 d802 0a40 ef3f af77 b382 9942 f03f
00000660: 9d9f 35a5 e80d ec3f 0748 49c2 a572 d93f
00000670: ca4a aeef 5010 df3f 8cbb c214 821e d53f
00000680: 4d94 7348 a0a0 d1bf f98c 0a0e a347 ca3f
00000690: aa38 2997 fe0c d83f 0a0a eb46 26f1 e33f
000006a0: 5cdc a907 54e1 e43f 47bd d485 9471 e43f
000006b0: bbcb e79d 12b0 d43f db0b 200f 6534 ec3f
000006c0: 9fad 7908 bbdf a93f 53e5 2bc5 5b9c ce3f
000006d0: af85 723b 4969 c93f a5a7 a8d8 78fa e43f
000006e0: 81bb 98b5 a97d e03f 29c8 8095 2a76 d03f
000006f0: 1fb2 0c69 6c5b e23f f5d1 bd93 cf76 e43f
00000700: 7b04 f2b9 eafb dd3f 587c ab6b 60d3 ec3f
00000710: 60c6 cbe9 ffd4 e33f 2430 37f6 3dbf c03f
00000720: ad04 3fb1 1043 dc3f 61da 7c24 edea e03f
00000730: 7f87 27e9 346d cb3f 2ce3 9951 2dba e23f
00000740: e452 e32f 7dd2 ec3f 30a2 298e caf5 e23f
00000750: c89c 8255 8d5a eb3f 0154 324c 607d e63f
00000760: 7f66 9a26 d26d ed3f 4014 91ae 9d92 c73f
00000770: ded8 2dd9 fad1 c93f 4782 111d 0c52 e73f
00000780: cc39 6e8a 63c9 c93f 2119 e137 f84a c43f
00000790: 8cb6 01ce f987 d73f 5eec c744 759c f03f
000007a0: e97e b014 ee57 e63f 5318 d3cb 3729 ed3f
000007b0: 81ab f4cf c653 db3f fe82 5e12 8791 c3bf
000007c0: f405 90cf aec2 a93f c27b 0139 28cc e13f
000007d0: 1161 68fc 2a7d c63f 4d24 8139 06e7 e53f
000007e0: 0be6 cace e173 dc3f 06a5 2481 904a d13f
000007f0: 7aff e742 65bf e93f 57a2 95a0 68bf e63f
0.6613412487104944 0.0979705388058901 0.9283185447325657 0.5490584352509038 0.3319336690370246 0.6904020314310093 0.19035872601199255 0.36566165331405087
0.35324993752504896 0.3256942424587342 0.7863606472021626 0.2319271745758709 -0.11518192548715112 0.9667364066742794 0.5292455494313152 0.7500042513758866
0.031495235691036384 0.5528042751242396 0.32759850859501133 0.3495772507474022 0.45622081115125257 0.6242875109694531 0.4893009121786025 0.35376704724121705
0.6443092156493518 0.41515111741024363 0.3365319154788772 0.6365661957004236 0.28396077404755626 0.8653755360310273 0.5359084505995867 0.7139426260982463
0.4995639422994686 0.5210499599804072 0.5444750664388306 0.1059935408811617 0.40052776925335754 0.5620462961502266 0.6783881444933101 0.8189619007048446
0.8312433180250541 -0.10091242000407862 0.24374739177407143 0.6251152253747768 0.8486899956202179 0.38389991274206625 0.4521768305784464 0.047034162384254376
-0.07842661175347322 0.8069927906097886 0.7170660597545038 0.8081457670701724 0.6344227406613896 0.331758436836074 0.5217438613941137 0.20347960377283494
0.14905344106273852 0.400748406001919 0.3880234374750477 0.9069312071092581 0.4265043186822337 0.6254253090652157 0.2870624570586493 0.6161639756995592
0.4216333294993363 0.2981742500424702 0.1836106038864364 0.5867220442659551 0.7194373560363022 0.7144488530034145 0.3796786273682503 0.4687154468366698
0.15192328629608418 0.2530679796172165 0.27487090074611015 0.5318994851827689 0.3955100479243918 0.2296786331077439 0.7506415627333257 0.6061757300841301
0.26666533087880856 0.8844440996926404 0.6473537019626744 0.17819379330659282 0.39795659404290495 0.7283652017956667 0.2867925986022391 0.5007703609525465
1.001230808218942 0.6664507318330534 0.47227896004138575 0.5708044201068071 0.6299056736701574 0.7732980076356332 0.8746175537455285 0.7024356307147455
0.137353943688422 0.2832059439011003 0.39949697245816485 0.40217022931405694 0.7754464123797026 -0.029335211184268666 0.486471204306723 0.4129357149524434
0.4461103845118879 -0.02031576724481694 0.7252094007953604 0.5804416448691487 0.671326302965062 0.47637676535054685 0.6249887748995215 0.7292661154745259
0.061501567271091004 0.2713384887458403 0.33483572079319024 0.4159845315601478 0.5232143546519461 0.6770154286244316 0.6770632457506381 0.23069496493601915
0.7877714153865466 0.18459041040096708 0.2965490647794727 0.4641626987285283 0.6553288523045181 0.35494642187415193 0.21421354750539984 0.710680568639589
0.6559837923945411 0.8492238327088266 0.5619818478831063 0.46408516994213767 0.5237918331993672 0.8223445280386376 0.4373083302684162 0.4415051243310898
0.6310873233093877 0.4931687999581944 0.45505882643811174 0.3166563038285573 0.4760031907576338 0.604831401668001 0.05292779560028769 0.4743881596338376
0.38220403903377326 0.19566993358173837 0.7064804208421955 0.3893106688402631 0.6046189845294185 0.6672329832311245 0.7846214888515752 0.4576017344759687
0.4883394694527528 0.3509058964829421 0.3740406212263623 0.04004023396358928 0.48195509352505295 0.7825479083967206 -0.06758435447010784 0.5667438447883995
0.3716115581224606 0.6438514943511453 0.694069434288479 0.8539828511262786 0.5270885079528282 0.24004219847179917 0.14965648186295877 0.2826641010176697
-0.12016871770667462 0.6979376512633059 0.7053548600456496 -0.06563289410182682 0.677536988058284 0.4463539222159605 0.2636343722600518 0.8360201219317832
0.4851293535205457 0.34450808613065476 0.4257701184735516 0.40600555667840826 0.8454003026447454 0.5170414702227631 0.12152101161484159 0.18315845351140264
0.32087869895605353 0.7092365788732002 0.18985798198848555 0.11746756329482853 0.727249003684067 0.9293786324482833 0.7550167171062532 0.38879662244048663
0.46834154490488983 1.0148002797947893 0.20929377209917752 0.6882130303622391 0.12597121874887382 0.6689932247297893 0.837933040861249 0.25382363648209344
0.17639792794893963 0.4239383047698483 0.9765672736709431 1.016259680319745 0.876697848009815 0.39762252782122726 0.4853708592064946 0.3299870684376678
-0.27542883944835667 0.20531118569952136 0.37579312097376294 0.6231871972198075 0.6525058889082049 0.6388647664916015 0.32324662609533633 0.8813958449758234
0.050535054001410666 0.2391466820479687 0.19852557566359283 0.6555752021424622 0.5153397127922831 0.2572123012533916 0.5736600925207006 0.6395032773567083
0.4685007873413906 0.9008028128554413 0.6197509352043191 0.13083624384160075 0.44159333523937044 0.528677531495145 0.21427022346966493 0.5852266877910544
0.9006944594680957 0.5925038124669921 0.8548037214394748 0.7028047073569043 0.9196558717696489 0.1841618635536708 0.2017205772824075 0.7287655418150017
0.20145839938454768 0.15853789070588056 0.3676743041786288 1.0381977736240269 0.6982336429682309 0.9112814885090849 0.4269883185212891 -0.1528786506360333
0.05031343730662377 0.556171523417895 0.17569482159229513 0.684451210320853 0.44457287973963905 0.2701760541118151 0.8046137148630657 0.7108653198639087

weight f8 [50, 4]
00000000: 0514 8e03 fe35 dc3f 5314 de8b 6509 c6bf
00000010: ed60 6293 fd38 d5bf 8553 20b5 4bb9 da3f
00000020: 0f22 4050 08cb a8bf 2b60 899c 232a c8bf
00000030: cb3c f025 7b42 c13f 97fd d1b0 5b4d cabf
00000040: 80c7 d75c 351a dabf 94ee 8aef b7d4 c1bf
00000050: 3af2 970d 15b6 92bf 7482 bbc0 ac78 d43f
00000060: c16f e0a4 9016 b03f 21f2 5201 2ead d3bf
00000070: 8179 58b9 d9df c33f 61e4 e2f4 7278 c73f
00000080: 54ae 2e55 8022 e0bf 56b4 515a 9f55 b63f
00000090: 6e21 4cae 3e98 debf 805b 9817 22b7 c63f
000000a0: fadf 15e7 7078 d7bf 7b75 7bea 1a1a d4bf
000000b0: 0e21 4024 abb4 e13f 7502 aea8 3737 bcbf
000000c0: f97e db0b c401 d03f 8be7 a289 d5b6 dd3f
000000d0: 66df b84f 7677 c9bf d27f 7759 b111 e23f
000000e0: 1d3e ac12 0cde d33f 546a 223c 94ee aa3f
000000f0: 5929 522b d0a8 b83f db38 16ce 7675 b1bf
00000100: 1773 cdc2 0403 d63f 4fd6 147b 4272 c2bf
00000110: 7b4b 8dc1 1115 c13f 4d0b 2c7e bca4 d0bf
00000120: 87a9 392a 9014 dd3f a5a9 40f0 501f dbbf
00000130: 23af 252a a3a2 d43f f75c 721f b5ee b33f
00000140: 67c3 a4d0 d537 c3bf 41d4 f7e9 31ea d1bf
00000150: a44a a2ff e34b 90bf c12d 50f8 7c11 9cbf
00000160: 732e 66fe e4d9 dbbf 55ab 5d6c 012d d13f
00000170: 5372 30f6 dc03 d73f 3dfb c8dd 9b75 a5bf
00000180: 0720 7491 576b d9bf 86d5 124e 2df6 a4bf
00000190: 3e89 c5f3 56ad d93f 9bfc b5e0 5b9e cb3f
000001a0: ff7c 9863 0d2c d83f ffc0 b779 a75f 78bf
000001b0: 5fa3 27ec b9b8 90bf bff3 9b4b 859c d73f
000001c0: fc7c 668a bcec d13f 8dc4 e7e0 a7a0 d73f
000001d0: 75bf 27d6 b35c c83f 2311 8880 b680 b4bf
000001e0: 47d9 d3fe aa62 d9bf 6d81 65f0 fde1 ce3f
000001f0: c406 174e 67fa d6bf d9f6 45b0 10e2 c5bf
00000200: a1c9 d4f7 0047 d03f ed0b 3809 8665 d33f
00000210: 7ffd 9ecf 482e 71bf 9f94 e057 e762 bc3f
00000220: f45d 2a25 e86c d83f d3b0 eee3 90fa d1bf
00000230: 1761 5663 e0d1 e13f b55f 693b bfd6 dbbf
00000240: 4d7e 8828 2b24 cbbf d756 6537 4a16 8ebf
00000250: 376e 9368 c29d c73f 6f63 18d0 68a0 b1bf
00000260: 3cd4 66cf 4ba1 cfbf e4d2 0e83 a134 d33f
00000270: 2e8c 08d6 d3f6 d83f 2bd7 7ebc 75d4 8bbf
00000280: adc4 b9da 3bc0 d13f fb38 acf7 120e d6bf
00000290: 1f2a 3b7e 99d2 af3f cbe4 2ace 290e d5bf
000002a0: 9395 aa33 6c80 ca3f 3b12 bfcc 1edf c03f
000002b0: e362 603e 97eb c2bf 5d28 655d 9a67 dbbf
000002c0: 1f4f 6c06 2d9a a2bf 15a1 e4ee ded5 d2bf
000002d0: 0a6c 0124 503c ac3f de5a fd79 94aa df3f
000002e0: e5aa 366f 5c42 dd3f f371 858e 8bd4 dc3f
000002f0: f1da bf74 171b d0bf 65a0 5c51 2580 d4bf
00000300: 9333 5559 508a 92bf 0e32 b080 a807 b9bf
00000310: 1ab4 5277 a1b0 c13f 965d 7d16 8cbd a63f
00000320: bfc8 2821 7627 d8bf cbfc 3f0d caea c73f
00000330: 3d59 95d4 a9f3 dbbf 9f52 40bd d271 90bf
00000340: c56a 1978 6ca1 d93f 19fc ecd2 463d dcbf
00000350: b12b 9a53 5f15 d7bf a344 7ee7 4f7f dd3f
00000360: 8ebe 59ed 9850 e5bf e3b6 25b5 3353 e8bf
00000370: 3211 65af ac84 d1bf 59c6 8201 6388 b7bf
00000380: 51aa 7431 23fc d93f d7a0 0d45 a479 bcbf
00000390: 9f2b 1b1f ceb8 d5bf f184 78f4 c898 d83f
000003a0: 234a a462 9d4a c8bf 4a84 bc2a 1a11 d63f
000003b0: aac5 716f 5741 e3bf cdb8 20fe e940 c3bf
000003c0: dfc7 284d bb45 b9bf 0b24 8826 606c d7bf
000003d0: 571e af05 ef65 b33f 53ea 53b3 fcd8 d23f
000003e0: 67f1 6ced 5341 cdbf c5e0 c120 9d47 dabf
000003f0: b91f bfe6 8ba1 c7bf 61b3 c7cd 8ef2 e0bf
00000400: 8fed e04c 5a3d c6bf 83e4 7cc6 3fb2 da3f
00000410: a29c 3674 67eb cbbf 3f84 af44 8f8c cb3f
00000420: 351d a88d 0da8 d03f fb2c e792 d583 d83f
00000430: 918e d7c9 5207 db3f bbd6 2d9b b4ab d23f
00000440: c9a1 f3ee cc16 b8bf a864 4c79 9049 66bf
00000450: d9f1 00e0 ba03 c9bf 2762 f2d8 8cda d1bf
00000460: b3b3 6127 4e2b d33f 4715 ddc2 1898 debf
00000470: 4985 a2b4 f72e dbbf 990c 871f 31a3 d93f
00000480: 16a6 1bd6 a1cb b6bf ddc3 9505 2fdc c5bf
00000490: 5fbe deae 6a98 c43f 3284 c7f0 1c24 ca3f
000004a0: 8504 5505 fa55 d8bf a93a b1a0 9997 ac3f
000004b0: 5dfa 1ec1 25c1 c8bf 5f14 3b64 7dca c7bf
000004c0: 51c3 4479 0727 d2bf fd32 50a9 3b59 cf3f
000004d0: eed3 e7be fdac c3bf 1858 cc49 e88b ce3f
000004e0: d58d c806 66a1 cabf 8012 f223 c12c b8bf
000004f0: 90eb 1232 69e2 d2bf 3f0c ef38 303c df3f
00000500: 5434 8d73 4d7f da3f 4096 f0cf 71dc b0bf
00000510: ab1b ca2a 49ac e03f b66f 15ec 81cd 983f
00000520: cd77 710b 917e d4bf e302 d581 8e8f c4bf
00000530: ff0d a45f 2cd8 d8bf 871a 18ee c194 d03f
00000540: c517 8869 d9ff e13f 3191 3ff9 f9b7 c1bf
00000550: e4e3 5328 9e8f e0bf 7b6f d59e dd2c cfbf
00000560: df47 dcd5 f313 c1bf 03c9 90be c94a b73f
00000570: d8e6 002b c3e3 de3f bf9d 4bff 4517 d83f
00000580: 81e3 4ac3 7486 d53f bbbf f957 c81f d53f
00000590: 4585 0b7b 7660 c43f 8c55 e125 d03a bf3f
000005a0: 9c30 b1b5 af5c d0bf c3fd a0b0 cf33 cc3f
000005b0: 8a71 29e1 fa49 d0bf fbfb acf7 6f38 dc3f
000005c0: 646b aa72 4797 ddbf 6e4e a50b 2cbc cbbf
000005d0: 4b27 63fa 7a3e bcbf ac8b dadb 9e5f d73f
000005e0: 87a6 b20c 875a c53f 601a 4096 f285 cbbf
000005f0: 270d 5232 f2ca df3f e2b9 5296 3330 b93f
00000600: a685 9650 f914 c3bf 318b 9cbd ba80 ddbf
00000610: bd96 4070 8430 d1bf 7640 1a30 d17a d43f
00000620: 5c92 2d14 4c59 c93f d8de c57b de44 e03f
00000630: 3be5 1972 a6e5 d63f 6e91 e3a7 f607 a1bf
0.440795424911187 -0.17216176347224862 -0.3316034259128305 0.41755955398667083 -0.04842401485081293 -0.18878598349942996 0.1348413405653218 -0.20548578389933134
-0.40784963671386976 -0.1393041534082512 -0.018272713617976978 0.3198654062416957 0.06284431481657206 -0.30744505051896637 0.15526887464598008 0.18336331326807723
-0.5042115844457364 0.08724399523789947 -0.47804228802899373 0.17746378090006587 -0.36672613684595456 -0.31409333132418 0.5533042629258789 -0.11021755092770909
0.250107776240824 0.46428430977868435 -0.19895819561656508 0.5646597621343921 0.3104276831008706 0.052601463642720475 0.09632588441505642 -0.06819860965171946
0.34393424056706706 -0.14411192903360123 0.13345548582818964 -0.26005470582474716 0.4543800747257127 -0.42378638708273747 0.32242659679353575 0.07786113755934197
-0.15014145553279976 -0.27991912697263294 -0.01591449973836724 -0.0274104620512341 -0.43517422526995303 0.26837192137343396 0.3596107868377533 -0.041912909339308226
-0.39717663959936583 -0.040940681248154795 0.4012048130590705 0.21577023002825943 0.3776887390722123 -0.005950597954765379 -0.016329674757716513 0.36892826446256416
0.28007424846323636 0.36918065036213293 0.19032905537414604 -0.08008900297142367 -0.39664721379758244 0.24127172697172786 -0.35903341890307794 -0.1709614620885336
0.25433372690454276 0.30307150745664907 -0.004194530885740177 0.11088415046158893 0.3816471445984171 -0.28091833361646684 0.5568696918662991 -0.43498211671748815
-0.21204127768668216 -0.014690952125117658 0.1845019350647463 -0.06885390358401165 -0.24710986735377272 0.30008733557342127 0.3900651540918173 -0.013588828864026311
0.27735802040030927 -0.34460901438514185 0.06215362230212328 -0.32898945935774 0.20704414866228812 0.13180909154302065 -0.1478146605084226 -0.42819842453594054
-0.03633251861006514 -0.2943036396923316 0.055147652049264265 0.4947863761239385 0.45717535839746254 0.4504727260407712 -0.2516535415774533 -0.3203213972615287
-0.01810575051540615 -0.09777310506633105 0.1382028420097477 0.04441488050968727 -0.3774085353681009 0.18685269972772853 -0.436747033692331 -0.016059201050739543
0.4004775212139687 -0.4412400302716733 -0.36067946590690797 0.4608955155063745 -0.6660885463479234 -0.7601564920457488 -0.27372281196973625 -0.09192484652410239
0.4060142500845006 -0.11123110471601493 -0.33940461194714006 0.3843252551469752 -0.18977706257335666 0.34479383634067473 -0.6017262627266764 -0.15041851910195306
-0.09872027047893493 -0.3659897209441289 0.0757741345288364 0.29449384224395664 -0.22855614750904893 -0.4106209583183154 -0.18461750761912102 -0.5296091097967343
-0.173747336901084 0.4171294630392099 -0.21812146353224643 0.2152270398501361 0.26025713761960684 0.38304652544020684 0.42232198439726526 0.2917300715847479
-0.09409790834218436 -0.0027206250910124137 -0.19542632997207823 -0.27896424471103604 0.29951814504493796 -0.4780332472767736 -0.4247416748058482 0.40058544234143195
-0.08904468037840049 -0.17078197262483644 0.1609013894899247 0.20422708279423457 -0.3802475978919307 0.05584411703659004 -0.19339439325081545 -0.1858669986160377
-0.2836321529639934 0.2449106766438475 -0.15371677228509334 0.23864463427952454 -0.20805049258443256 -0.09443289878442762 -0.29506902589826556 0.488048606490512
0.41401993069013554 -0.06586371733336538 0.5210309825641749 0.024221448931129173 -0.3202250110388121 -0.16063100184876253 -0.3881941732399525 0.2590794396532278
0.5624815999187766 -0.13842701597526166 -0.5175314700746836 -0.24355669265321098 -0.13342140142827838 0.09098492529372852 0.482651512141826 0.37642049723805465
0.3363315493730213 0.3300648554932157 0.15919381149346115 0.12199116635141233 -0.2556571268403418 0.22033115505653997 -0.2545153807493753 0.4409446638782694
-0.4623583431036222 -0.21668005531920492 -0.11032837498637808 0.3652112147339561 0.16682518119823816 -0.2150252565044921 0.4967618457232725 0.09839174671171905
-0.14907757220229917 -0.4609820224451822 -0.2685862632955425 0.3199961633445193 0.19803763375525107 0.5084068696441717 0.3577667345303614 -0.03326388167787085

bias f8 [50]
00000000: fc8a 154a 9ec8 debf b0c8 e435 f25d d4bf
00000010: 14e4 d115 91c1 d1bf 30b4 72de 358c d23f
00000020: e7af 8178 a430 d73f 5732 51ab b8d9 70bf
00000030: 4b32 54a1 24c3 d53f f69a 7266 edb5 b03f
00000040: 5420 c3bb e6b6 d2bf f404 702f 3af0 cfbf
00000050: 9b03 d204 5d5e d43f 0bfd f071 f0eb d4bf
00000060: 49ae aa3e ed52 b23f f0f2 2978 1e29 ddbf
00000070: 11c4 adbc 2c32 b83f c94f dd38 ce6a b53f
00000080: 3aa5 b22a fcce d8bf c398 07e8 0db0 c33f
00000090: bac5 14f4 f251 c03f dd79 3052 703c 70bf
000000a0: d4f6 4049 3ff1 d3bf 7e0a 7546 62ba dbbf
000000b0: b427 047f b940 c53f 114a fa88 7cf5 8b3f
000000c0: 6fcc dbbf 8f97 c63f 0648 e974 eb61 dbbf
000000d0: 00bb f1d7 1659 a3bf b68a a207 2b89 d6bf
000000e0: d883 b4a0 7364 b3bf fcb3 30ff 52ab c2bf
000000f0: a235 85ea d2a9 debf 6130 aeef faf1 da3f
00000100: d1e1 9be9 0f0e d03f 3b27 126f db94 c13f
00000110: 9eb1 9c92 a335 c1bf 002f 67d1 9aa7 6cbf
00000120: 241e 9507 1996 7abf ffdb 5063 5100 de3f
00000130: 01f6 30d6 4418 d2bf ebab a60c 2547 bd3f
00000140: 278e 47bf 027c d33f b8c2 8119 861b ddbf
00000150: 2275 3c47 1d73 cc3f bc33 1d94 5735 debf
00000160: 3158 e8f5 979e be3f fc4c 5a1e 7757 cabf
00000170: c329 eb1e 8ca9 d53f 09be 9d3d bfef ab3f
00000180: d9be f5e8 0a9e d33f 3d1f df20 583d cabf
-0.4809947703817412 -0.31823401701980014 -0.27743937617157255 0.28980776523059415 0.3623439003774806 -0.004113885273068072 0.3400355887868371 0.06527599097408285
-0.2924134095778801 -0.24951865497863646 0.31825948210467353 -0.3269005882938962 0.07157786159466996 -0.4556347058749415 0.09451560598769528 0.08366097343724656
-0.38763336343488997 0.15381025151800118 0.1275008861353351 -0.003963888887510395 -0.3115995612496196 -0.4332509697016248 0.16603773786510845 0.013651822023608625
0.1765002905663979 -0.4278515474044301 -0.03778907190359426 -0.35212207551573316 -0.0757515208574796 -0.14585339985333678 -0.47911522772195714 0.42101930052081654
0.25085828603144217 0.13735526011833507 -0.13444943102639412 -0.003497888926380699 -0.006490800640058168 0.46876940440000675 -0.2827312556945288 0.11436683234084881
0.30444401435508656 -0.45480492106348036 0.22226301172569501 -0.47200574363960945 0.11960744622805987 -0.20579422933642622 0.33847334880251995 0.054563499709612336
0.30652115583414524 -0.20499707799012326

weight f8 [50, 50]
00000000: b11d bf24 2234 b33f bfd5 6052 d192 b43f
00000010: 1572 f7a4 3c50 c43f b4ce 4e65 91b2 bf3f
00000020: c2df b323 1e61 69bf c6d3 cfcc a49c ca3f
00000030: 68c8 e3bb c55f afbf c13c e869 340e 95bf
00000040: f07c 91aa 0028 b3bf 80de b8d9 ab9f a73f
00000050: 92c6 6a34 91c2 b8bf 1f7d ae8e b44a bf3f
00000060: 65b5 e700 74a2 bd3f 7195 31db 435f b2bf
00000070: bb38 88c8 897f 673f 2543 42d0 0c4a c23f
00000080: def5 2958 5440 ac3f bb62 1b10 ba40 c93f
00000090: b97b 236a 1b95 72bf 0efd a2e5 4923 833f
000000a0: 38de fa37 4463 af3f a8c4 04ec 7ed9 98bf
000000b0: 8add e97e c758 aa3f 3e57 a4f4 151c 993f
000000c0: 61fd eddf cc73 a23f 77d9 57e6 dee0 9fbf
000000d0: fc8d b224 8a19 c23f 9614 1002 d7fc c93f
000000e0: c93a 4580 3459 a3bf bcb4 392b 4ce3 c8bf
000000f0: 84dd 41a8 8752 ad3f 8929 b872 4549 9e3f
00000100: b49d a4d9 93b7 bd3f 01a8 7813 d77c b1bf
00000110: c9be 7f56 ef7d bfbf b72b 8d29 e6a0 ab3f
00000120: 673e 7980 9c78 a3bf 85a6 7563 6ed5 82bf
00000130: 3366 0852 b7e9 bebf 4ba7 3cca b21b b1bf
00000140: cc5d 2080 fd89 c23f 8b45 121d 591c bf3f
00000150: dd88 a725 dd04 c4bf f56b bf20 1867 b1bf
00000160: 9dc6 5f97 156b ac3f 72be 5ad1 d0b4 a43f
00000170: 0762 fdb4 693c b9bf 6024 d5b0 6cd2 a9bf
00000180: 852b d688 b08c a5bf 5f29 6b0c bc06 c53f
00000190: 4e33 339f 358b c03f 208d 3011 0317 b63f
000001a0: bb17 fa66 e3a3 c6bf f491 b4b6 fa23 c53f
000001b0: afab 89da 852a babf 2cb2 e410 0611 c1bf
000001c0: 380a 6d36 8337 bc3f 0421 6429 5323 c83f
000001d0: b5a9 0c7b 8805 a9bf 0a48 e76d 0e44 bfbf
000001e0: 18d7 a856 060a a43f a1f9 596f 9e59 bb3f
000001f0: e5f7 b2f2 4629 91bf c4d2 35b7 4995 8fbf
00000200: 96d0 97e9 82a2 b33f 542e f17a db89 b33f
00000210: 448c f606 8895 aebf 2f37 f457 3ea0 88bf
00000220: 8948 dc08 f9f3 723f 3a45 c372 6478 823f
00000230: 337a ba80 e4ee b2bf 4be7 0c08 bf8e aebf
00000240: 4850 1810 2968 703f 7b3f 834e 3a67 923f
00000250: 5ba3 1221 822e aa3f 1d37 c785 421f b03f
00000260: 4010 e27d c0f6 9d3f 303d 389a 3013 6e3f
00000270: 4664 8d9d dec9 a33f 6404 a905 54f1 d4bf
00000280: b25e 3dac b35f b93f 0821 a9bc 4f0d c33f
00000290: 8110 943c 5dba 903f 78b0 8813 ad9f be3f
000002a0: d72b 53ff cb29 7fbf cf34 3e92 5211 963f
000002b0: f197 1f08 26cd b3bf d9f5 c5d5 fe21 983f
000002c0: 87f5 2c99 8a82 ca3f b190 f8f2 741b babf
000002d0: e026 edb5 7ba8 c03f fac4 77ec 3665 c1bf
000002e0: 06e6 def6 edc8 cf3f 4ef8 2258 4eff a8bf
000002f0: bd32 fcf8 885a a03f d296 34b6 40fe b13f
00000300: 8fa1 8905 8072 a5bf 0da0 ebc2 8e54 c23f
00000310: 446f 03e6 10aa c03f 9ae4 4f19 20f3 c3bf
00000320: 79aa 0bb9 22b9 c03f b519 e7ff 443d a13f
00000330: e4ca 3adf 9207 87bf 6167 e46b a6e5 abbf
00000340: 92f7 665d f7ce aabf a1cb b960 4e2b 843f
00000350: fe67 5524 b4ee b83f 01b8 95f1 3e86 b6bf
00000360: 2af0 75fd 605e bd3f 190e e705 572e b03f
00000370: db1e 91e0 538d 70bf 829d a73e 6769 9dbf
00000380: b99c 0df9 29e1 a23f 7f7b 3b65 2290 ac3f
00000390: a645 a52f aa21 933f dec8 5a38 3575 b63f
000003a0: 9eff cdba 5f48 b2bf 45dc e3d9 591e 98bf
000003b0: ad52 4039 356c b8bf 7fd6 9801 6c39 b83f
000003c0: 37b6 3c48 aad5 c03f 24aa 7c54 9fd2 be3f
000003d0: 515f 242f 924a 57bf 701d 97c7 49a9 92bf
000003e0: ef37 d7a2 817a 813f 4b47 35b3 7c19 bdbf
000003f0: d09f 4ee0 b1d1 a4bf 6a75 823a 1dd7 99bf
00000400: 3d80 7b7c f1b0 c0bf 3daf e7a7 2d87 7ebf
00000410: 4973 4261 84c6 c1bf 2fb2 1616 222e 903f
00000420: b8f9 6ec9 f556 a9bf d7fa 55d8 acb5 bfbf
00000430: 6734 0926 ca06 aabf 1c4d c4e0 df9e b7bf
00000440: c9e4 0436 e8d3 c0bf 1015 9ddd f0d7 b1bf
00000450: 1ea3 0e0f 2efc 9b3f 419d 7eef 982b bdbf
00000460: 9239 d942 e252 ad3f fb7f a718 61c6 693f
00000470: 93b0 a7da 7ac0 9a3f 4106 ac83 f403 b43f
00000480: 9ef3 7ac6 977e babf ae1b f9c7 dddd a33f
00000490: 1a86 109d b959 9f3f 2534 a56e 5165 b6bf
000004a0: 9a2f b7ac 2d05 b83f 47cd 793e 762b bbbf
000004b0: c682 7fab 80ff ac3f 519d 7643 3cc5 b53f
000004c0: 13a3 9d02 1b1f b13f b854 376f d0c9 af3f
000004d0: 0e72 4e16 e914 a7bf fa59 4a2c aec7 5abf
000004e0: 9b3a 73b2 0737 9cbf 6373 df7c 616e b33f
000004f0: 8bb9 1df3 5506 c03f e204 08a7 9b1d 923f
00000500: 05f8 6dde 6c25 a9bf 9ffb fe7a 67f4 b73f
00000510: 9384 35ab 1bb1 b0bf 90ba 8b78 dce3 bebf
00000520: a61d 3062 a89c 9c3f f103 aadb 4995 c4bf
00000530: 8894 9f3a cabe bfbf 24e7 19ca 762a bb3f
00000540: 17b2 f1c7 763f 54bf ff1f 838b a785 b1bf
00000550: e84e f1ee bbba bdbf 3215 bb4b 875c c13f
00000560: c875 464f e74e b8bf 3d4c db99 9632 983f
00000570: c7fe fdc1 3894 9ebf ab2a 02c6 4a8e b33f
00000580: a83e 6623 82ac bebf 9904 650c 7d54 84bf
00000590: 6450 e629 53d8 aabf 370e 358d 3d7a c13f
000005a0: a733 fece d022 a9bf 2e42 14f2 badc bb3f
000005b0: 7f0d 8054 ede3 8b3f f3f8 2e48 73a4 c0bf
000005c0: 1fe3 a811 e38e b13f 9103 603b 13d5 a63f
000005d0: b959 ef37 88b9 a43f 4651 fc2b 3940 b5bf
000005e0: c5c1 d5ee 07c1 92bf 3774 6d5b d90b bcbf
000005f0: 7def 3cfa 9453 a93f a459 c5a9 b5f0 b83f
00000600: d7c6 359b 2207 353f 21ef ea7e 2fde bb3f
00000610: 98d7 7d63 3748 c2bf 5513 e11e c25f babf
00000620: 373b 4158 adfe b0bf 3197 9fa8 0be7 c0bf
00000630: 75f5 30c8 6c5c b3bf 5e4b 7ce7 e605 bebf
00000640: 5eef 7a53 25f9 b8bf 805a 3744 37f8 9abf
00000650: 2715 ac1d 2507 b2bf 0875 bd01 3323 a3bf
00000660: fb3f b6ea 4cc1 bb3f 0e25 9965 f028 c13f
00000670: 66b5 7f06 4285 c13f a92a 2bb0 13d2 c0bf
00000680: b9dc b1ac daa7 b7bf 05aa 00db f867 bc3f
00000690: b7a0 1298 e6a7 bd3f 5d23 eea9 bfad 973f
000006a0: d5bd 13a5 b9c5 923f 2bc9 2230 d367 a3bf
000006b0: fecd 3322 7849 a7bf 5456 7cee 7496 9c3f
000006c0: a6e1 2f00 9af0 b8bf d784 3eb6 2d29 a7bf
000006d0: d4a2 1de5 a400 b63f e306 0a5d 6fb3 b13f
000006e0: 34d2 7986 ea6f be3f 3342 c4e1 c075 bdbf
000006f0: 9637 7a4a 3f82 bc3f 5623 ada2 8ddd 713f
00000700: c289 45a1 ac54 ad3f d4b6 b296 fd7e b0bf
00000710: 136f 8638 cd5d af3f 56cb 9a93 2c96 cdbf
00000720: 7556 f861 a3bb a2bf 1ba4 6b80 32b0 813f
00000730: 3366 9e41 ea63 bcbf 4f76 7af5 96ca b93f
00000740: 8506 355a 3b71 c03f eda4 f59f 6485 c23f
00000750: 658f 38a8 9151 c23f 30b7 42af b387 b93f
00000760: 91e6 406d 6ed7 bd3f eea2 f5b6 42ab c13f
00000770: d51b 6e24 0a04 bc3f da6a a8cd 52f4 8cbf
00000780: bec1 4684 cf4c b73f 4541 0069 c51f 9abf
00000790: 3c02 913e bf43 c23f 14be e93d 4190 c83f
000007a0: 6a73 6b35 bd28 be3f 2dea 2933 ded9 bf3f
000007b0: 383c 97e5 54be 803f 0aa9 10f2 e4bc a43f
000007c0: 486e d70e c4d5 bebf 1248 4d4e ec1e b13f
000007d0: 35bb 0149 207a b9bf 9c57 b356 219a b83f
000007e0: 478c f4e3 6645 b83f 595b ba9b c6d9 acbf
000007f0: 2535 3667 3d56 c03f f373 c00c 32ea 6cbf
0.07501424214489451 0.0803652597540667 0.15869863562592515 0.12381848071418738 -0.0030980671559710246 0.2079053878839245 -0.06127756041122795 -0.02056199928670988
-0.07482914127603002 0.046140070273790634 -0.0967188599559228 0.12223366244733257 0.11576008817765666 -0.07176612950714457 0.002868432148040415 0.14288482827080276
0.055178294908710276 0.19728780542825128 -0.0045367308505025955 0.009344651527838834 0.06130421813344039 -0.024267180591043186 0.05145858215558537 0.024521201187858603
0.03603973611370282 -0.0311312511530217 0.14140440742367832 0.2030285606453261 -0.037789955766688595 -0.1944365702687828 0.057270278252810974 0.02957638275805999
0.11608242095518656 -0.06831115937589517 -0.1230153642825328 0.053961937496374394 -0.03802956646233895 -0.009196150217309249 -0.12075372460130822 -0.06682889401841156
0.14483612781690025 0.12152630767584165 -0.15639843309970206 -0.06797934340958973 0.055504488685881294 0.04044201427074946 -0.0985780779714177 -0.05043353708840281
-0.04208900137299224 0.16426802259804682 0.12924833558499887 0.08628863496464989 -0.1768764736954703 0.16516050263557214 -0.10221134744067116 -0.13333202195043847
0.11022205427892906 0.18857802887965402 -0.04887033941334399 -0.12213220771016622 0.03913898284774414 0.10683622568647035 -0.016759022296120824 -0.015421462920792613
0.07669847681956052 0.07632228614345965 -0.05973458371160992 -0.012024390277044354 0.004627201835108016 0.00901869273403354 -0.07395771162780633 -0.05968281720420395
0.004005585100021199 0.017971907655748503 0.05113608030052915 0.06297698751515353 0.029261596377651466 0.003671259810068904 0.03864951775785434 -0.3272295050883882
0.0991165442950386 0.14884373390146544 0.016335923025522895 0.1196239636125841 -0.007608219971369365 0.021550455261196085 -0.07734906862569325 0.023567182347951608
0.20710880736616508 -0.10198145801456594 0.13014170058368446 -0.1359013228061839 0.24831938318475028 -0.0488228304470658 0.0319407276093435 0.07028583954214732
-0.04188919131849211 0.1432054950485057 0.13019000273822645 -0.15585709796849728 0.13064989123752804 0.03367057441532798 -0.011244914472034968 -0.05448646609347808
-0.052360277320516194 0.009848224951587716 0.09739232909251425 -0.08798592947070462 0.1147213572311904 0.06320709127526704 -0.004041030545586212 -0.028722394179479867
0.03687411465835439 0.05578715787645815 0.01868310848050716 0.08772595048756979 -0.07141683874760793 -0.023553279804186884 -0.09540112159477117 0.09462618865003412
0.1315205433578954 0.12040134251280016 -0.0014215877132012953 -0.01822390824034187 0.008534443647388172 -0.11367015242765637 -0.04066234458088014 -0.025234657951491192
-0.13039988115542825 -0.007453134864117858 -0.13887076138498802 0.01580098399942836 -0.04949157794861797 -0.12386589318883111 -0.050833050864277855 -0.092267982840259
-0.13146689069416187 -0.06970124636162134 0.02732917754079544 -0.1139464935973722 0.0572729784586158 0.003146352425787311 0.026124877544063962 0.07818535055778232
-0.10349415393552738 0.038802080784584234 0.030615711413821335 -0.08748349143316199 0.09382901636780475 -0.10613192582404905 0.05663683026773962 0.08504082343153142
0.06688088239537775 0.06208659513110021 -0.04508140942855131 -0.0016345215709968595 -0.0275536730449014 0.07590302752164528 0.1251933514681237 0.01769107062319087
-0.0491136571426836 0.09357306244690598 -0.06520245485218572 -0.12066438620579789 0.027941351883809105 -0.16080592370784033 -0.12400497370943431 0.10611669954405706
-0.0012358341189396876 -0.06844565540370694 -0.11613058646735974 0.13563624570648752 -0.09495397267752204 0.023630478993094995 -0.02986229595216974 0.0763899548930264
-0.11981976856463439 -0.009926773968461243 -0.05243167768927107 0.13654298205266155 -0.04909374739427302 0.108836826421119 0.013618330136529576 -0.13001862549385343
0.06858653241296196 0.044594384191447685 0.04047799761581267 -0.08301122020595128 -0.018314479782419974 -0.10955580217474013 0.04946580462134784 0.09742293734357205
0.000320859860230544 0.10885903214051186 -0.1428288684652983 -0.10302365545164822 -0.06638606457384531 -0.13205095037044992 -0.07562904250604226 -0.11727755691053462
-0.09755166328517137 -0.026337493456447536 -0.07042152380389109 -0.03737792392960598 0.10841828089019138 0.13406186066485087 0.13687920873000364 -0.1314110384176577
-0.09240500179463397 0.11096148821585679 0.11584321224893555 0.023123736139982188 0.018332386684901742 -0.03790149653049676 -0.045482401061146746 0.027917697006236544
-0.09742128853384333 -0.045236042496307576 0.08594732850691439 0.06914421102012684 0.11889520438291684 -0.11507802497750035 0.11136241501136931 0.004361680282109889
0.05728663891456477 -0.06443772248413931 0.0612625247478872 -0.23114545066126863 -0.03658781596111008 0.008636850875932514 -0.11089958288212003 0.10074752324222767
0.12845556168217712 0.14469583330654903 0.14311428750908842 0.0997268965608924 0.11656847159692975 0.13803895886964973 0.10943663968474422 -0.014137884999447282
0.09101578692821641 -0.02551182225585193 0.14269247584344835 0.19190230868433444 0.11780912927811263 0.1244181513701867 0.008175528770975146 0.04050364928146351
-0.12044930803625065 0.06687809859911933 -0.09951974661246939 0.09610184065544874 0.09480898919405077 -0.05634899760223417 0.12763183154712823 -0.0035296418700583253

bias f8 [50]
00000000: 7f51 914e a51a b33f ae7f ede3 97d0 bcbf
00000010: 5695 3758 2f4a 813f 4ed3 8921 4e42 8bbf
00000020: 9b21 8300 be6e a4bf 9baf 97a1 725c c23f
00000030: 1d96 d3cc 2acc bd3f dd7c 0136 f3c9 aebf
00000040: bdd3 d654 9787 bc3f 654a f213 1494 a73f
00000050: 5a1c 6450 2046 be3f a3ac ffe1 f558 bd3f
00000060: bc00 bd5c 8fda 9dbf 85a7 516a 6f77 bc3f
00000070: 4452 dce1 fbc3 abbf 2fba 5e36 2f2f b33f
00000080: 02cc 4ede bf5f ad3f 8361 3551 31c4 c13f
00000090: aebb e244 b75e c03f 3ed3 ca32 d421 c0bf
000000a0: 350a d92d ed22 bcbf 26b2 ca5e 6a67 b5bf
000000b0: 303a e6bf 4a44 b7bf 3102 88fe 9c7e c03f
000000c0: 8f57 47b9 db69 ae3f b5f6 bc0a 300c c0bf
000000d0: da7e ed3a 51e2 8abf 8926 072d 120e b73f
000000e0: 9f07 20bd cf5b aa3f 5a38 d416 188d babf
000000f0: ad42 ab89 1c70 b1bf b415 5ada 1c0d 893f
00000100: cb8b a827 280c bfbf 700a d20f 9021 b7bf
00000110: 57d5 68cd bbc5 b9bf 0720 9176 37ed c23f
00000120: 276b 31e1 77ec 9b3f de79 fa14 d0ab c03f
00000130: d07c 0ef7 654a b63f b85a 0bec 561a bfbf
00000140: 7f8a 2123 0e65 adbf b021 ec68 c8c9 a93f
00000150: 864c 0021 9ace aa3f 2a4d 53ce 1287 abbf
00000160: 2f87 0add 7569 7cbf 441a c6bb f2d6 c13f
00000170: b2c0 7dce 1ecf aa3f ae8e 607a 3332 a9bf
00000180: 9e7a f8bd 3ec6 69bf 42d2 d0de 7168 a2bf
0.07462533157496941 -0.11255788149492105 0.008442277793572355 -0.013310060881147525 -0.03990739589932276 0.1434462822938912 0.11639659405371856 -0.06013450655222539
0.11144395657795676 0.04605162375914488 0.1182575413005095 0.11463867919489927 -0.02915405276803605 0.11119743676832002 -0.05422961361015102 0.07493872716325066
0.05737113560407893 0.13879982438335156 0.12789049972113048 -0.12603237609951096 -0.10990793580371234 -0.08360924543621504 -0.09088580308000682 0.12886393001828503
0.05940138470366129 -0.12537193798373428 -0.013126978503066256 0.09005845641436329 0.05148171600013928 -0.10371542508457435 -0.06811693535861237 0.01223204175335977
-0.12127924888822787 -0.09035587679140078 -0.10067342533951283 0.14786427773856323 0.027269242400829754 0.13024331116044058 0.08707272798209265 -0.12149565947343433
-0.05741161516995862 0.050367605979832475 0.05235749867292676 -0.053764903722959126 -0.006936512378759293 0.13937219780582855 0.05236145277638239 -0.04921112889158273
-0.0031462884360416573 -0.0359531006328422
