lasa_models/6/skel_model_Line.pt (torch, 99247 bytes, 18 tensors)

R f8 [20, 20]
00000000: be9f 49c3 ef10 d53f d8de d7c4 9890 e83f
00000010: 220a d370 4ad4 eb3f 1ecd a214 9557 e53f
00000020: 26eb 0015 2a55 d23f 715b 76ca c625 e73f
00000030: feee 4874 6951 e83f be4c 968e ce03 dc3f
00000040: 8b6f 5211 d2e8 ee3f 94e7 5394 eb17 d03f
00000050: 0fcd 9e03 ae64 d33f 538d efe5 0bcb dd3f
00000060: 4239 e481 f5ab d83f 1988 1b43 e54b d13f
00000070: d564 2f17 dcd2 dd3f e2d9 25e7 6efc ed3f
00000080: b7b8 3c59 652e ec3f dc42 26c5 ba88 b73f
00000090: 5823 3a34 0b0a e43f 1ee0 13f6 2a94 933f
000000a0: b21e 4af0 598d db3f c6ca ea68 130f df3f
000000b0: bf47 74fd 69fe e53f 14ef 56db 4b91 d93f
000000c0: 234d 3802 2016 c03f b7c5 d499 4f03 b83f
000000d0: 2953 4d42 8313 c93f 3300 1f3e 198e da3f
000000e0: fbdf fbd2 a1d9 e73f 1108 ac24 fdd2 a73f
000000f0: f721 739b 4e67 e73f 8158 ba60 98fc ea3f
00000100: f1e4 dde5 9145 e33f d302 2064 ca68 d33f
00000110: 6829 d401 309f c43f b08a b3f1 94d8 e23f
00000120: 40d6 221c 2bdd c43f 0374 9586 21ce e63f
00000130: cbb1 b2ce 7dea d83f 589f bb2d 4d34 bb3f
00000140: 6a26 9ab1 0d19 e53f b63b 2e28 fa86 d83f
00000150: 26c6 2cfa 342b e63f f294 304b 85b8 e53f
00000160: 3f85 309a 56bc ea3f 8985 d49a 1bae df3f
00000170: 54e0 edfc 80da ec3f e204 16cd 6f99 ae3f
00000180: 9882 aa5a 3b2d db3f a19b 1bde 0b44 e33f
00000190: e458 e730 2379 d33f 7da2 5719 d334 d33f
000001a0: 98c8 2742 88d2 aebf 0aa2 64c1 7486 d13f
000001b0: eb68 db0c c3fa ed3f 037c abb1 1ca9 b33f
000001c0: 27c0 86f3 5073 de3f f973 e6f7 93b4 c23f
000001d0: db9f 3e1d 6223 e33f c7ea 21f5 c087 e43f
000001e0: 0698 c69a ea5e d73f a74c aa98 99f6 ce3f
000001f0: 22f4 2a0e 55f8 e53f e956 2bd1 8d54 e33f
00000200: 4605 4d04 bd5f d13f c875 ee69 012f c93f
00000210: 00fc bd59 3306 d93f 83d4 e82f 452f d03f
00000220: 9986 df3b 3c19 d93f b028 0952 4914 de3f
00000230: 4ca2 8ed5 2b6e d93f b68a 3175 35a1 db3f
00000240: e13f cb2b 7cd5 ea3f 9845 de34 ec06 d13f
00000250: 50f2 a113 8fe4 d93f 4037 d61d 8575 ef3f
00000260: 44fd 3b75 aa80 e53f c9ca f36c 32d8 e93f
00000270: 96d7 8ee9 5ce3 db3f 0716 c2ba e7aa e63f
00000280: bc11 f381 3177 c73f 184a b53f c5a0 e53f
00000290: fd19 e4c9 a811 c73f c679 267a a6c8 b63f
000002a0: 69f8 5572 bed6 e03f 3271 5843 0a1f e13f
000002b0: 78dc def5 7d3d ec3f e4f0 ad1b faee e33f
000002c0: dc79 ca48 354a da3f e810 3792 2fe0 d43f
000002d0: ad3a b9b6 8715 adbf 8c75 5aa8 836c f03f
000002e0: 31cf 6ef8 a095 d13f 6054 67b6 0041 ee3f
000002f0: c06f 9a91 d76f e53f 8e30 4521 9ba5 e73f
00000300: cc6c e3e0 513f e33f 6b1e 6cc6 f014 e73f
00000310: 56dc 6990 b48c df3f a1b6 5c17 7517 e03f
00000320: 5a71 e3da 24d7 e43f b07a 6e76 6a0a ea3f
00000330: 43f1 b212 bc54 dc3f e5ec 6d2c 03fb da3f
00000340: 63c9 7e83 0525 ef3f 0cfa b720 c406 e03f
00000350: 4a46 dacc 270a f03f 5d41 79f0 3c01 d43f
00000360: db05 b868 3faa ce3f 605f 5d24 91a7 ed3f
00000370: f86f 01a3 9659 e43f 872a 97df 03b5 f73f
00000380: 907b 7c3e 28fb eb3f 74a2 40c6 fcd9 cb3f
00000390: d4eb 92f8 3409 d93f 4fb1 02c6 8edc bc3f
000003a0: ea20 8445 09fb c03f 2b18 24b4 7c97 b23f
000003b0: 98d8 2661 470e e33f b355 ceca 9138 cd3f
000003c0: c737 c7f0 f3e9 f03f d91a 7904 d863 e23f
000003d0: 862e 92e1 3190 d03f 347e bfc9 d0c0 ea3f
000003e0: 387f c54a 5f9b d03f dfe5 c6a6 a2d3 d33f
000003f0: 90ff 4a34 c637 e63f ad95 d2af 413e e43f
00000400: bc6e 24e9 0853 dc3f abb9 d39e 840e ed3f
00000410: a1b5 8193 2aa9 cc3f 79a5 2fed f77d e33f
00000420: 41a5 3eea 42b1 e83f 576e 09f6 5d85 ea3f
00000430: 9cc9 0ae8 4167 8e3f 47c1 fe15 c916 eb3f
00000440: 4717 8ba3 f500 db3f 3519 cc12 3343 d33f
00000450: 1ffe ca59 30ec e13f 9e53 5c71 5e73 f23f
00000460: a4fd 1e5e a8c9 ee3f 3671 d2b2 be4e 98bf
00000470: 6534 b328 cfd7 c23f 4a3b 6d63 7133 eb3f
00000480: 6268 71b3 233b ec3f 5317 c4ef 263e c93f
00000490: c402 a376 c839 b93f 5fd4 31cd ab3b e73f
000004a0: dc6d 7915 fc14 e53f 71a1 7747 6977 e03f
000004b0: 1416 7b30 5de5 c13f cca4 c97e 6794 d63f
000004c0: 3f39 c53c 9fd3 e53f 6371 f002 fc4b e23f
000004d0: b216 a30c bfc1 e03f e65c 6664 89c7 ec3f
000004e0: 4268 d626 b748 e53f 8f21 4682 de66 d73f
000004f0: 98d9 fe1a 3d51 e53f 16fa c9c2 bb56 d93f
00000500: 0373 f6b4 11df e13f 5729 bf1f db7d ea3f
00000510: 3ba7 88c3 da98 ed3f 7bd7 87f1 6e0e da3f
00000520: b3bc 8422 6e1e b23f 6223 0598 2409 d83f
00000530: 001e 4c00 e547 c43f 489d 788d 8188 de3f
00000540: ae04 2c30 ec01 e83f 043f 4060 185f d93f
00000550: c526 7114 bf18 cd3f f8ed 3b11 c6e2 c93f
00000560: 26a0 d032 bb5f ef3f 29a7 c416 f166 ea3f
00000570: e2ca cd52 2b84 eb3f 307c 20c4 7e46 e03f
00000580: 9202 5bdf dca5 ea3f 04dc 08bb b341 d53f
00000590: c853 7018 79e8 9f3f 3a35 0d8f bca0 86bf
000005a0: 0889 f069 58a6 d33f 6090 3050 86a3 ef3f
000005b0: 3b91 48dd 428e e63f 44f0 9ece 124e e13f
000005c0: 6281 58df 2e2d d23f 2e57 88ac 6e80 d03f
000005d0: 2010 d986 7628 da3f 016f a565 6389 c43f
000005e0: 4b15 a9ae 34e1 e13f 5fee 2f79 62ba e53f
000005f0: d3bb 8aeb e23b ce3f 0804 9a1f 030c ec3f
00000600: 20ce 15b7 80d3 e23f bb16 c7a5 87b7 d83f
00000610: e9b3 3403 23a3 e53f fcfc 9cb3 8db5 e03f
00000620: dd69 9fe3 70a1 ee3f d894 2e6f 668a da3f
00000630: bac9 38da 65d5 cc3f 238f a99f 5864 c2bf
00000640: 65a6 a052 006c e13f da16 192a bbba be3f
00000650: 8e71 7088 c6b8 e43f 9d4f b19f f6d5 e13f
00000660: 1c6a cf4f ddc5 db3f fcf3 ff5c cd3b eb3f
00000670: b2fa 9825 58ed d53f 8db4 cb75 415b eb3f
00000680: 4bb2 4c47 c103 c73f c133 7b94 ffa3 d13f
00000690: 2513 3cae df2d e73f 0272 6c0d 3c4c e03f
000006a0: b3ab 6bed b5c8 ea3f 6054 727c 4730 cd3f
000006b0: a775 5d6e 2648 d53f 5ae6 8db1 fc18 e13f
000006c0: 86cc b215 ad6c da3f 3fea 4bb5 ca34 dc3f
000006d0: 8657 0c96 65c3 c23f cae2 6264 855e de3f
000006e0: adc1 7bbb 5b57 ef3f ed1f c999 75f3 e23f
000006f0: a1da d692 6a2c df3f f051 b0aa f9fe a6bf
00000700: e310 c4b8 14a3 d33f 2aef 97b7 50d4 d53f
00000710: 0d58 503f e39e c13f 200e 1a82 e6a0 dd3f
00000720: e839 3055 25f1 b3bf 6c29 bab4 26ea de3f
00000730: b504 137b 4813 c93f 68cc bc4d 06e8 cd3f
00000740: dbf4 0753 702f d23f 7743 0ff7 d1c2 a93f
00000750: e69b 8a79 18bc c13f 73a5 9686 5138 f63f
00000760: 1242 421c bde9 b73f d598 5d19 fc05 f23f
00000770: 56b3 b374 8e88 e03f fcb1 7c76 84fd e63f
00000780: 6ac5 c8ae 7db9 dd3f 87a4 88a9 dcaa e53f
00000790: cd4f edcd f0e3 d63f 8302 bd3f fa14 ba3f
000007a0: 0df7 ffcd 4bca e43f 17a4 7f1f 41d6 c03f
000007b0: 309b 392e b414 eb3f d934 30cf 97e5 e23f
000007c0: c21d 87d5 181a c33f 1676 9355 fd0a e93f
000007d0: 9390 a698 bed1 dd3f c5ee 835b 33d5 ec3f
000007e0: f0ab 8706 8a5c dc3f 908e 9fa0 a333 e03f
000007f0: a237 f898 ff93 d33f 8620 9d8b 572d e43f
0.32915872641614985 0.7676509708971606 0.8696644023514788 0.6669412043615102 0.286448021422688 0.7233613924353063 0.7599379798116102 0.4377323524906379
0.965920480567989 0.2514599751008231 0.3030200038294461 0.465517973467475 0.38549554524151486 0.27025729707213625 0.4659948564927395 0.9370646013838348
0.8806635611452042 0.09193007767886335 0.6262260456142981 0.019119902867686382 0.4305024000718546 0.4852951550084693 0.6873063993718843 0.39949318332559014
0.1256752024497497 0.09380052095072854 0.1959079812756042 0.41492301050675734 0.7453164215830833 0.046531592108309046 0.7313607250335384 0.8433343781678247
0.6022424211106722 0.30327091005169143 0.1611080178193547 0.5889382096032332 0.1629995238669597 0.7126624706830856 0.3893122213874249 0.10626680723691828
0.6593082875053373 0.38323835300337394 0.6927742849567877 0.6787744968939065 0.8354905139459915 0.4950016986859614 0.9016728343986053 0.059764379296220374
0.42463573316676095 0.6020564401668375 0.30426864410163845 0.30009915804706805 -0.06019998366890994 0.2738315476040333 0.9368605853190081 0.07679919564860431
0.47578834325668357 0.14613580326559353 0.598069245451366 0.6415715015167159 0.36516823878116644 0.2419006343303398 0.6865639950480082 0.6040715298974791
0.2714684049606898 0.19674699470935608 0.39100345386390245 0.25288514784490007 0.39216523978221 0.46998818408304555 0.39734931807700913 0.4317144054859158
0.8385601859426935 0.26604752695956213 0.4045751277660985 0.9830957014798756 0.6719562806828567 0.8076412322974075 0.4357521324958439 0.7083624503727045
0.1833249935645095 0.6758753055858646 0.18022642000160252 0.08899918062386467 0.5262138589021222 0.5350390734998085 0.8825063516768656 0.622921995221557
0.4107793055390212 0.32618321684664275 -0.05680488687049965 1.0264927460005735 0.2747576166250268 0.9454349100657389 0.6699025958837339 0.7389655732927325
0.6014794723845625 0.7213062167583763 0.49296297171480796 0.5028634506504269 0.6512626910367019 0.8137714684597395 0.4426717932326662 0.42157058085258675
0.9732692306773 0.5008259429012596 1.0024793626838737 0.3125755642295383 0.23957054723000124 0.9267049513100396 0.6359360870078481 1.4816931470874424
0.874408838313558 0.2175899475125963 0.391186945674858 0.11274044355622447 0.13266101736395025 0.07262401006673318 0.5954930207724543 0.22828886416088565
1.05711740545256 0.5746879660954064 0.2588009550897613 0.8360370579138761 0.2594831686201249 0.3097921971016983 0.6943083783480564 0.6325996812853895
0.44256804244808357 0.9080222227183204 0.22391254618143555 0.6091270096341496 0.7716383528797125 0.8287801556975393 0.014845385450233554 0.8465314321129335
0.4219335648634694 0.3009765323225964 0.560081649185978 1.1531662395620752 0.9621164167692098 -0.023737888016158247 0.1472109745722349 0.8500296537330112
0.8822191719766688 0.19720923144648825 0.09853794952779099 0.7260340697963662 0.6588116092129286 0.5145765682073443 0.13981213443018758 0.3528078783188675
0.6820827662393539 0.57177544187611 0.5236506697480847 0.8993575058874768 0.665126396040485 0.36565363618913066 0.6661668326622019 0.39591878912315914
0.5584801229884707 0.827863275533029 0.9249090022105756 0.40713094317413095 0.07077682821976587 0.3755580410548217 0.1584440471126385 0.4770816690019797
0.7502346936090782 0.39642915153034175 0.22731770036835122 0.20223308412083418 0.9804359428862923 0.8250661320391589 0.8598839394820426 0.5086053686717431
0.8327469217693582 0.3321351362714611 0.031160251728653582 -0.011048768153751543 0.3070279154363935 0.9887115064816605 0.704865867800016 0.5407804523051785
0.2840077572928036 0.257838886727188 0.40871966522922953 0.16044275725550253 0.5587409411752245 0.6790020338953119 0.2362025880915711 0.8764663331240863
0.5883182121164658 0.3862017744944343 0.6761641562094357 0.522162295157528 0.9572071500545537 0.41469727380383636 0.22526238589632702 -0.1436873225785514
0.5444337476557847 0.12003679063590358 0.6475556053951992 0.5573685759541039 0.43395169061628436 0.851050073280589 0.34261134788168157 0.8548896122644166
0.17980209332871974 0.2756346654903688 0.7243498232861368 0.5093059789829228 0.8370008122559426 0.22803586555952204 0.33252869394149304 0.5343001811845156
0.4128830634974253 0.44072215752354177 0.1465880377442625 0.47451910785052276 0.9794138585839868 0.5922191623330925 0.48708595599911503 -0.04491405685999783
0.3068286709169696 0.3410836975960928 0.13766136733528392 0.46294558243991624 -0.07789834337038537 0.483041454783822 0.19590097436415524 0.23364332958007883
0.2841454325533285 0.05031448498596707 0.13855272230759325 1.3887496240007209 0.09341031970894445 1.1264611235470074 0.5166694907507956 0.7184469522667878
0.46444646900916686 0.6771071730810413 0.3576623927121972 0.10188259178267782 0.6496943496165116 0.1315385249902483 0.8462773230392937 0.5905264898916825
0.14923391748582843 0.782591502323785 0.46592678935326964 0.9010254657182136 0.443148142220422 0.5063036095784401 0.3059081071704616 0.6305349089461891

L f8 [40, 40]
00000000: ad49 f896 bc3d df3f 8d0e 7ba8 3e36 ec3f
00000010: b43b d657 e7c5 e63f fe02 6c9e 7b3a e73f
00000020: 761c 586a 1bca e93f 0b0a b638 0dd4 c23f
00000030: afee ee45 01b1 e73f 36c8 6197 050f e73f
00000040: 8bab 11e5 01bf e63f 4aac eb07 c93a d63f
00000050: 2c46 10be 199d cb3f 7f41 d812 9efc f03f
00000060: 41d5 5d45 91f4 cf3f affa 35a9 3871 d03f
00000070: 9d87 fbc7 5cd9 e63f 86ce 2e58 81a4 e43f
00000080: 1f85 19a2 b6dc d33f d8aa a852 a539 d53f
00000090: 9444 cba2 df26 c93f f9d8 f63a 2df7 ba3f
000000a0: 4245 0593 c650 5e3f b70f 374e 2da8 d93f
000000b0: 3c23 fc02 21ca e43f 2b39 2642 9c04 e93f
000000c0: d044 4a46 ebb3 ed3f a958 67d7 4edc b93f
000000d0: 66e8 a4a8 4a57 b13f 138e d256 9623 e33f
000000e0: 80cb 877f a357 d23f 2abd 9e48 d029 df3f
000000f0: bfeb 2e93 b391 ea3f 27a0 5243 92a2 b23f
00000100: 75a6 3c79 c09e ec3f 1d03 3dcc fb01 e83f
00000110: c067 c2df 0049 d53f 5c9f 0708 aeb7 e23f
00000120: cce5 40ab 4d9b e23f abfc d912 cc98 c03f
00000130: cac2 fae2 c069 eb3f 19a4 40d6 37c3 d43f
00000140: 3775 d114 5ff3 d53f 323f 2755 0f6c e13f
00000150: f8ae 7766 eb76 e13f 1f02 86cc aa45 a6bf
00000160: f89c a830 f43b e93f aff8 e3a5 5af0 d93f
00000170: 6ffa 14b9 2ad3 dd3f c394 8809 ee3e e23f
00000180: b2ba 8110 ca5d a33f 1880 87fb 31c8 d43f
00000190: fd8c 7927 13e4 ce3f 2ff6 46d6 8948 b63f
000001a0: 6349 b5ee 5abc e43f 6713 9bc8 abee e33f
000001b0: c2d0 55c0 8c9d e43f b2a5 7533 708b e03f
000001c0: 1445 93db 695f cc3f ec50 8b54 c180 ec3f
000001d0: fc6a 541d 67db ec3f 9ca8 56c0 2893 e13f
000001e0: 4164 fe73 d013 e03f 98c5 a3d5 b3ab e43f
000001f0: d341 7f18 bdf4 e13f 52b5 cf33 3b4b e63f
00000200: 88cc 90f9 d456 c53f a841 3fc6 c2e8 bc3f
00000210: 3ff9 c362 20aa e73f 9202 df93 39f6 c2bf
00000220: 121a fd8a 4766 e63f 1a26 3dbe f3d8 c93f
00000230: 2287 ff11 3d0e 99bf ab5b 9755 9f7b e13f
00000240: f439 8e3f 2fe5 d13f 89c2 8871 6efe da3f
00000250: 5081 6f2d bc1f aa3f 0013 242b 4bfb d13f
00000260: fc17 0ef4 d95a ed3f 2577 a162 948b d63f
00000270: ba70 6e01 5e34 e53f 0c05 c691 9d02 e13f
00000280: 2e40 3511 203f e33f 896b 8d44 3ecb e53f
00000290: deae 4a3a 3325 e33f daac a170 9d89 e73f
000002a0: f8d5 3c11 7186 e33f 5ea0 a9e8 3b20 d63f
000002b0: bcd7 6b16 e779 d73f 2513 6c2e 09e3 ce3f
000002c0: c40c 702e 8d2c e63f d428 03a8 99a5 e63f
000002d0: c65b ceec 446f d93f f697 3b71 f061 dc3f
000002e0: 7909 24b8 6970 e73f ac7c 1a57 7eeb bc3f
000002f0: 7bd4 904d 048b d63f 6c13 412e 963f e03f
00000300: 98ba e63b 2925 da3f 554f 2488 8718 da3f
00000310: c4ff c40e 75a4 e03f aa4d 4c1e 65e4 dd3f
00000320: 25ae 09c6 94d1 d83f 29e3 f1be 039a ca3f
00000330: c5ac 6369 cd93 e73f 5a98 aa81 a771 81bf
00000340: 207b d30a 884b db3f 32cc 7735 2352 d23f
00000350: 6620 9b52 330f e93f 7a66 71ca e554 e33f
00000360: 867b d9a3 e73b e73f cfbc a029 2e5f d33f
00000370: 72c8 66e9 063e d83f 812a 0df4 391c c93f
00000380: b168 c633 34ee cd3f 57f4 b9ec 029f e93f
00000390: ae44 8783 1da6 e73f 87a1 100f e28c d33f
000003a0: 97d6 6257 c5d1 c23f 28b3 0bef 7e6a c33f
000003b0: bff1 2fb3 c99a e33f 27a7 966e 8488 d03f
000003c0: 8865 94d4 81be d23f c651 4be7 dad5 d93f
000003d0: 8a31 cd0b db3f df3f f864 9163 f48b c03f
000003e0: fba3 13ae db14 9d3f 8a4b 89ac 8846 c53f
000003f0: 1b14 466c dbe5 b63f 54ef 1d78 7eb3 d93f
00000400: fea9 809e c81d d63f 3516 a48b 3b7c e13f
00000410: b6a2 ebab 4aec e13f d492 a04e 327a e33f
00000420: c4b2 6594 f98e e13f a684 60d3 267b d63f
00000430: 7207 4fc0 79e5 e33f c94a cd49 fd2e d73f
00000440: d72a 4ce3 b7dc d73f 1a29 d161 f06c ec3f
00000450: 64ab 992f fce8 d63f 589a ff33 eb7d e33f
00000460: 9184 7913 24a4 e53f e39e 6253 606b d53f
00000470: 8a9d 17af 4cb5 e13f 3d23 af1f 87b5 eb3f
00000480: 8760 4035 6fd0 d53f 89ed 78e1 a780 e33f
00000490: ae6e abd5 490b de3f 7a14 b411 8704 9a3f
000004a0: 2dcd da95 8369 e53f 24cf 30a7 5e4e e73f
000004b0: 0b1b 4e4d 41fc e53f 5436 d644 94e3 d33f
000004c0: bca4 c587 837d e83f 6169 129a c907 9cbf
000004d0: ba6c 0dc8 c7c0 d03f 24da c8bc e9ba e13f
000004e0: df23 284f 3191 e23f 7005 44bc 58d1 d93f
000004f0: 2d87 5b2a 736d c13f 3856 8f32 aeab db3f
00000500: 8480 4b98 14a2 d93f 6efe 42fc f0f9 e63f
00000510: 171e 4f5a 1ea1 ed3f aa01 9ac6 b64f b93f
00000520: c1b7 9a07 852c c93f cb1f ee1a c0d1 e03f
00000530: ca26 1ad1 85bb ea3f 67a9 03f8 f771 cd3f
00000540: 4270 8311 37a2 cb3f 0a66 298f 7c45 dd3f
00000550: 8baf 3398 4ae1 eb3f cb0e 03a8 0532 e13f
00000560: a074 a852 106e e83f 755f c910 7ad5 853f
00000570: 48ba ec29 896f e73f 9d05 826d 63fb eb3f
00000580: 4fb4 8894 b550 e83f 0442 f4f4 6e32 e03f
00000590: 8465 9098 0c80 e93f 7310 6e89 788b ef3f
000005a0: b016 2dde 26f6 d93f 4761 9a01 d9c9 6c3f
000005b0: 0e80 43c3 da6c f63f 4f0c f045 e47d ce3f
000005c0: 1666 71a7 d85f eb3f 0a7e 6f63 9fab e63f
000005d0: 983d 175f 268d ce3f 72fc d19d d52e 4d3f
000005e0: 1302 67ce e615 e13f cdb5 8d97 d442 eb3f
000005f0: 928b 02e4 a4c4 ec3f 782b ba72 bf0f e13f
00000600: c909 0bc7 68ec de3f a473 d66f 0fad a3bf
00000610: 6a07 a722 a9d8 ee3f b262 f944 e465 e83f
00000620: 71f2 74e2 7607 c03f 5a14 4d13 461e ea3f
00000630: c69b bc56 6605 9d3f 2e6a 6fde 9294 bf3f
00000640: f57d 67d8 a902 dd3f 2851 bc0a dca3 e83f
00000650: 0a6b 76d1 1ee3 cd3f 55cb fcd5 01e8 6ebf
00000660: acb9 f0b6 71d5 c43f ceb1 394f fa66 b83f
00000670: 0439 67b0 416c e33f 294a 80d0 bfff f03f
00000680: 76ea 9ba4 32a9 ea3f 51c2 1231 b830 bebf
00000690: b40e b58e 2d39 e73f 877e 95d5 6417 e83f
000006a0: d6ad 9108 9f2f f33f 9f3e 88fc 3893 ec3f
000006b0: e0e6 94ba 3fd3 e93f 6531 abc4 8c03 d33f
000006c0: 469a 113d 6327 8ebf 93e0 43e2 f4e0 e43f
000006d0: f846 8fd8 fac1 ec3f bdd0 b43d db28 e83f
000006e0: 72a9 56b4 8a85 f03f bafd 5957 25a7 e43f
000006f0: 62cb b8c4 96cf db3f db2b c034 0714 e23f
00000700: e261 a13b bb1c f03f 28d2 c7a3 fdbd d63f
00000710: b473 80f5 2b18 e13f 1a98 1b7c f915 d33f
00000720: 5914 9fe4 1efc d33f debf 36b5 bb6f f13f
00000730: 2058 fc2f 5e90 c1bf 934c 2ca0 64b5 e43f
00000740: 0c51 2499 4493 e63f 111b bc15 5882 d43f
00000750: a144 097d 80b4 dd3f 8320 cce3 5c21 d03f
00000760: 0133 326a c108 e33f 9dbf 41e2 4c68 f03f
00000770: 2ba9 e18b df2d e33f df52 da3c 4e8a e03f
00000780: 94e7 6d56 ed06 f13f 2782 1927 8028 d23f
00000790: 5a5e 8fd0 32c2 d43f 123f 5511 e816 ef3f
000007a0: 24e6 b552 e849 e63f 34be f862 5e7a e13f
000007b0: 1c1d 302b 32ac b43f 44f2 d847 2fe1 e43f
000007c0: e41e 3ca8 7958 dd3f ef86 d95e 9914 d33f
000007d0: 2e2a b30a ab6c e93f 41fb cb49 8a30 eb3f
000007e0: 2f78 e52b a762 bd3f 89c0 22bd 716e b53f
000007f0: 412f 7201 11b7 e93f 441d 0527 f3b6 df3f
0.488143107825773 0.88162167459855 0.7116581645549247 0.725889024179281 0.8059212758097505 0.14709630269142368 0.7403570524106352 0.7205837208441668
0.7108163331989642 0.34733796857353083 0.2157318285031108 1.0616741882441543 0.24965110671079496 0.2569104816865701 0.7140334993275591 0.6450812074967451
0.3103462775234948 0.33164341995386115 0.1964988274471905 0.10533411683613626 0.0018503131105556824 0.40088970792953255 0.6496739443110537 0.7818127910593707
0.9282127735952148 0.1010178829086238 0.06773821465768179 0.5980941482307024 0.2865990395941296 0.48692710010341733 0.8302858233140497 0.07279314178106287
0.8943788879307265 0.7502421368627413 0.3325807747984264 0.5849218518096495 0.5814579338831947 0.12966299934848755 0.8566593583292044 0.32441516802879417
0.34297921212221943 0.5444409049177692 0.5457665444677948 -0.043500268427127724 0.7885685873378909 0.40529504966969915 0.466013603920067 0.570181864376217
0.03782493068216776 0.32471894801528967 0.24133529117089117 0.08704434853913122 0.6479925787228179 0.6228846471864075 0.6442321545169067 0.5170212750501177
0.22166178914498202 0.8907171870473838 0.9017825672957254 0.5492137676822213 0.502418734121541 0.6459597752238322 0.5611253241023014 0.6966835033360133
0.16671240030118306 0.1129266485215853 0.7395173958791829 -0.14813918800611653 0.6999852861998213 0.2019333533192345 -0.02446837828018212 0.5463406249717669
0.27961331564520653 0.42177926146818173 0.05102336935647378 0.28096274579029057 0.9173402563762916 0.3522692645254771 0.6626424816090755 0.5315692755831676
0.6014557205289799 0.6810599650301451 0.5982910288343779 0.7355487060389365 0.6101613365814833 0.3457174083801017 0.3668153494794486 0.24130358473498706
0.6929384142862536 0.7077148705950784 0.39741633534998433 0.44347773607148555 0.7324722858905225 0.11296834589528498 0.35223491263179313 0.5077620414163966
0.40851813173041185 0.40774715705014347 0.5200753487078988 0.46706512411875656 0.38779181804304336 0.20782515357475376 0.7367922838579025 -0.008517559666256048
0.4264850717280968 0.2862632772586863 0.7831055272481648 0.6041134790386444 0.7260626030145978 0.30268434586737397 0.37878582757105683 0.19617390076230737
0.23383190658643607 0.8006605742990683 0.7390277451433087 0.3054738185042187 0.1470266987504842 0.15168749496606293 0.6126450061561214 0.2583323554959968
0.29287763366445363 0.40367767894101936 0.4882724395036112 0.12927107679096372 0.028399879932212695 0.1662150232756086 0.08944484132196388 0.4015804455773282
0.3455678508641141 0.5464151122438979 0.5600941999265021 0.6086665664375581 0.5487029932388272 0.3512665809849501 0.6217621570615235 0.36224300582140906
0.3728465766622952 0.8882982168663915 0.35797028206314097 0.6091209426493362 0.6762867336621118 0.3346787275608973 0.5533812923212491 0.8659091585951512
0.3408468265565791 0.6094550517804446 0.46943899027040004 0.025407896476299353 0.669130127606342 0.7283166184847443 0.687042857157253 0.3107653305276916
0.7653215076253654 -0.02737345698242544 0.26176638161059496 0.5540665328215408 0.5802237077742766 0.4034025038273148 0.13615264480818592 0.4323535436390986
0.4005176055197881 0.7180104186044909 0.9259177936409654 0.09887258862182216 0.19667113181406928 0.5256042982082304 0.8353909572626546 0.23004054651330394
0.21588791232250243 0.45736612301479396 0.8712513897603328 0.5373562127574244 0.763435517732109 0.01066108096817662 0.7323652094690454 0.8744370592905174
0.7598522091917718 0.5061564239750287 0.7968810062185843 0.9857752498796927 0.4056489152611489 0.003514217224459912 1.4015758159148421 0.23821690955091632
0.8554499884004965 0.7084500257587376 0.23868255274872463 0.0008905928658719099 0.53392353356327 0.8519080123930337 0.8990044072455581 0.5331723442808274
0.48317927778057573 -0.03842972030836414 0.963947837524967 0.762437948908959 0.12522779519521834 0.8161955239271592 0.02834091095351334 0.12336080484912124
0.45328756459454606 0.7700023851089428 0.23349366405167188 -0.0037727390153120912 0.16276379997857526 0.09532131609166258 0.6069649167418736 1.0624387878966763
0.8331540312786518 -0.11793090055540147 0.7257297312975965 0.7528556987344509 1.1991262755135401 0.892971509196247 0.8070372242138681 0.29709166723184516
-0.014723563481493628 0.6524605197182772 0.898679182975882 0.7549873547746057 1.0326029819940143 0.6454035478672531 0.4345452233421182 0.5649448423658855
1.007014496737718 0.35534611696428664 0.5342006487804754 0.29821622009183246 0.31226322485264785 1.0897786215464218 -0.13721825926830977 0.6471427086238627
0.7054770461132036 0.32045557138955966 0.4641419621521639 0.2520363068183615 0.5948187898771665 1.0254639471204208 0.5993497592983535 0.5168830097705629
1.0641911865372764 0.28372196024250446 0.3243529354781224 0.9715462053809196 0.6965219130935947 0.5461875851669391 0.08075250200646561 0.6524883654852336
0.45852509907898154 0.2981322695032835 0.7945151528340995 0.8496753159850884 0.11478657552422143 0.08371649615833311 0.8035969761126368 0.4955413704924079

weight f8 [50, 4]
00000000: 96d3 705e 1772 df3f ecad 5a93 5fd5 ccbf
00000010: b18a 18d8 f9e6 863f 4828 02d3 02fb dabf
00000020: 0422 bbc4 a8d8 c03f 959f 6508 d11f c73f
00000030: ae10 47ed 916d c5bf bb6d 0ca0 f380 bcbf
00000040: 8f15 55fc e5d4 d23f 8773 3741 7ae6 d0bf
00000050: b8e8 a89e 7a5b d23f 9d55 12eb 5c97 513f
00000060: d3a4 3c6a 5489 abbf 49c5 5b57 11dc b73f
00000070: f3c6 12a4 846d d0bf ccc8 a952 e428 dfbf
00000080: 3e2d acf2 f036 d3bf 8c85 e8b5 8af2 dabf
00000090: 0792 c54f 4687 82bf d560 ebf4 97d5 dcbf
000000a0: 6d21 4402 94b3 db3f 789d 8a0e 16e2 c93f
000000b0: 0c13 11e5 15ea dabf bcdc 9fa8 fd90 c3bf
000000c0: 7c25 43b4 8939 883f 8547 7357 cb7f c8bf
000000d0: bcce f558 0c42 db3f 22ac 4766 0ad3 c83f
000000e0: 59fc 1b62 da4b debf 0390 d008 0b59 debf
000000f0: 2f47 0c5f 86a7 a13f 3904 3a62 9df5 d43f
00000100: 9028 6ac2 9cac ddbf b6ea 3953 2fe1 d43f
00000110: 7dd5 48de 303f d73f fc3e 5343 0485 ddbf
00000120: c186 77c6 5ed2 b23f ae98 a823 b6d7 6d3f
00000130: a116 2d5d 372b d33f 7773 b946 f27f cc3f
00000140: bcba 9e2b 665c ccbf d32c db52 844e e2bf
00000150: fd62 cce4 3cfb d23f 490f 30f9 d4d2 bc3f
00000160: 2782 3a61 13cb d4bf bd4e ecf4 2b70 d3bf
00000170: 9981 d7c2 eab1 dd3f 9fd7 c96b f59b ae3f
00000180: 621e 5b7b 434a c23f defd ead0 7e08 d03f
00000190: 83a4 8120 3cdb d8bf 703a 4366 75e6 d7bf
000001a0: ff1e 5a01 7e7e 833f d12a 7ce3 12d1 d93f
000001b0: 6da9 c7df 947f d23f ff0f f87d 18d9 813f
000001c0: 1924 8438 fc7f da3f 17ac 6944 cd40 913f
000001d0: c608 d96f 34b4 d1bf cc9b 8acb 68cf d0bf
000001e0: d35c e66f 4770 d33f b2ca 7feb 1be9 c1bf
000001f0: 64ba 6667 c08f a8bf c12b 8820 4439 d9bf
00000200: 45e3 3b5a 57cc d2bf 318e 7ad1 8323 b03f
00000210: 9b27 1715 a270 d1bf 25eb 1d8d 8aa8 d7bf
00000220: 2d74 4159 2416 b63f ef5d 5bd5 99d9 dc3f
00000230: 27d3 5119 b942 cf3f d9f9 3dc3 5050 dcbf
00000240: 01f4 71ad 6522 d0bf 0535 048c 16e5 a43f
00000250: e7ba dce5 8b30 ed3f b36f f2b5 bc5c c73f
00000260: a34e 5d08 abfe c53f 47f2 3b1f 2883 c4bf
00000270: 9db3 ad29 5f38 dd3f 29a3 ec10 a280 d23f
00000280: cc7b 19a7 ffce d0bf 86fd 182e bdde c43f
00000290: 56ac 66b7 153d d2bf 3e84 09e3 3f6c ccbf
000002a0: 5fb0 5e2b 6a05 94bf 8318 d9a6 f560 c7bf
000002b0: 37e4 744c 1f5b b0bf 4b46 570d ec9f cebf
000002c0: 7b84 51e7 994e d2bf 03ae 1b0c a655 c43f
000002d0: 730c e7c7 8ee2 c83f 0743 f359 4681 cd3f
000002e0: a4c8 a9fe 2576 bc3f 6f5c 433b aeb7 d0bf
000002f0: b20a 8871 c40b c0bf cc4c 229d 8e15 d7bf
00000300: cb31 078b 6db8 e23f 8dd7 239f ef61 c9bf
00000310: 7712 7f8b cbb6 ca3f a097 a46e 0ae8 be3f
00000320: 8578 54d1 108c d53f b9d2 63ba a341 d6bf
00000330: 2f08 7acf 23f4 b4bf 6f82 fd6d 7aad cc3f
00000340: a7eb eb90 ccb9 dabf b277 418f 823e a03f
00000350: 6cbd d118 a0c1 b0bf f3f6 01e9 8e38 bd3f
00000360: 326f 1fa3 2073 c43f 751e 3bc2 7515 df3f
00000370: 1f80 eb89 c083 ce3f 4e0f d27c a3c0 67bf
00000380: 3d9c 8aff 0ad3 c4bf 930c 8d8a 1764 be3f
00000390: 3651 355f da2e d1bf 9a10 a25a e6a3 c7bf
000003a0: 3cf1 bd83 08ff da3f c9ab f5c3 c9c3 d93f
000003b0: 333c d58f 15c3 dabf a56c 77c7 deae d0bf
000003c0: 4760 4d6d ad0e d2bf f128 6efc 46dd c13f
000003d0: 2db9 7adf 04f7 dbbf 3ee7 7513 ba04 bf3f
000003e0: 139f ec17 4ea0 ca3f f795 5da8 46d5 b73f
000003f0: ffc9 3bd9 2de9 96bf 55f1 1860 75d6 d73f
00000400: a147 85bc 409e 8b3f 7af8 a361 a7e4 dcbf
00000410: f6be b028 296c c2bf c04b ba14 fb34 d73f
00000420: 276e 3369 d5da b1bf 4f96 0d09 2647 c33f
00000430: 6b36 e2ef 5683 d63f 1926 8c88 b421 de3f
00000440: 33f7 1620 d491 d4bf b685 a34b 3b9d dd3f
00000450: 269f 408d 501f d5bf 8d21 b85c ccaf d0bf
00000460: 9398 790f d448 de3f 0112 5b01 5944 df3f
00000470: d22f 42c2 12e1 a83f 30df 03e6 2b11 dc3f
00000480: c31f 2e5f 64e1 c43f 7b3d c0af e193 cebf
00000490: ff6b 634c 18b3 89bf ebd0 e74a 3ed6 cfbf
000004a0: 06ea 705a e51e da3f af8b 26ca a90d c8bf
000004b0: cdc5 3d6d 9a1f cd3f dea9 33f7 6ccb d83f
000004c0: 0d07 c4db 680b debf 0a4d ef76 e8be d7bf
000004d0: e6ea 5e18 4138 ae3f 4ddd 7555 d9f6 b13f
000004e0: ce8a 7c93 d87a da3f 2567 56af 5134 c7bf
000004f0: 8b65 2c2f a0cb dc3f a744 e6a3 2923 d53f
00000500: 0ebf e11e 0bab 90bf ae12 6701 12f6 c3bf
00000510: 5beb c674 46a6 e0bf 77cb 5662 c15e c0bf
00000520: 067c 5a9b 5fb8 cf3f 60bf 64f2 f527 ccbf
00000530: e249 cd48 5088 893f a867 a26f dd5d c6bf
00000540: bd08 99aa 07c1 d23f 77d7 329f af77 c0bf
00000550: 6375 90b7 ab45 c53f 0b71 b9ee 6b56 c2bf
00000560: 00f0 3c34 af11 c2bf a786 edf4 a7a5 e0bf
00000570: df24 dd29 b522 dd3f cbaa a8d9 69cf d6bf
00000580: cf87 8e56 5e34 dabf 9034 94ec 4241 de3f
00000590: 9c02 1337 90bb bf3f b9ce 6f30 2ff6 abbf
000005a0: 0543 bec2 888b c1bf 796d 59ab 7c6c b13f
000005b0: d770 ddec 5e53 d73f b90d 1fcd 7c3b d6bf
000005c0: 6560 70c6 2e9d d43f 554f 9bfb 8cc0 c93f
000005d0: 800e d9df 7a32 dd3f bf71 9942 315b d83f
000005e0: 3b53 5120 b033 e0bf d7fa a5b8 7a38 b73f
000005f0: 0e1c 6964 dbd3 d9bf 8c0b 1317 3e20 853f
00000600: b2b5 72e9 154f dbbf 3d82 a5e2 364d de3f
00000610: 1fdb b565 a672 b13f 0c36 9f0a b7e7 c13f
00000620: 379e 5600 23ad c0bf 5138 559d d723 ca3f
00000630: 72d9 b510 3866 d7bf b3ba ae4e d621 debf
0.4913385793946018 -0.2252616376402864 0.011182739169332963 -0.42157049757281984 0.13161191564564956 0.18065846357353324 -0.16740631185360172 -0.11134264619288718
0.2942442859824376 -0.2640672337418483 0.28683343404885475 0.001073685398556768 -0.05378211781346356 0.0932017172124421 -0.2566844560889045 -0.4868708426721582
-0.3002283449029227 -0.4210535789917109 -0.009047078427735234 -0.4505367175857036 0.43283558102895975 0.20221210203201756 -0.42053744668764703 -0.15286226972214034
0.011828494847935238 -0.19139997262987776 0.42590626418607846 0.19394044870509314 -0.47337970334041796 -0.47418475971994684 0.03448123846295769 0.32749113647884404
-0.4636604212361215 0.3262441933399417 0.36323186595412676 -0.4612436921570262 0.07352249474890994 0.0036428983123811464 0.29951271151763065 0.22265461400356987
-0.2215697968471967 -0.5720845812114937 0.2965843424185975 0.1125920399063577 -0.324894757222895 -0.3037214176012915 0.4639841940643464 0.05978362026955541
0.14289134524573216 0.250518516560957 -0.3883810346074556 -0.3734410761507325 0.009518608490238998 0.4033858510526161 0.28903695920475664 0.008714858383434885
0.41406159896047395 0.016848761845192763 -0.27662383005748514 -0.2626592624387143 0.30372796943397623 -0.13992642401679728 -0.04797173750136066 -0.3941202466673382
-0.293721998328284 0.06304191459872112 -0.27249958095182486 -0.369661939439242 0.0862753599080441 0.4507813056529519 0.24422372566518755 -0.44240206781969743
-0.2520994371223538 0.040810303298807006 0.9121760835167522 0.18251761325961766 0.17183435352727824 -0.1602525856504988 0.456565657331163 0.2891011395718573
-0.2626341945487496 0.16304745436535145 -0.28497832212696517 -0.22205351434516446 -0.019551905533873867 -0.1826464714706085 -0.06389041535011662 -0.23925543452655726
-0.2860474356621762 0.15886378852097502 0.1944139934622374 0.2305076541147388 0.1111778017746326 -0.2612109736196037 -0.12535911124731097 -0.36069074006190927
0.5850131717102668 -0.19830127020366853 0.2087034636625906 0.12072816087001437 0.3366739315259866 -0.3477563209737969 -0.0818502790007478 0.22404413576716162
-0.4175902762651113 0.03172691344001012 -0.06545448881091936 0.11414426029838491 0.15976341214160922 0.48568481414665793 0.23839575514193798 -0.002899474441223327
-0.16269052007302945 0.11871478207199208 -0.2684846811073557 -0.18468932557528178 0.42181599488664623 0.4025749601047975 -0.41815699621378427 -0.2606732318797163
-0.28214584039733775 0.1395653469629177 -0.43695184539946547 0.12116587615119287 0.20801712196520636 0.0930980835961107 -0.022373882659801222 0.37246450790896307
0.013485437157814863 -0.4514559224625213 -0.14392580496632207 0.3626086904925465 -0.06974538629895531 0.15060878221554438 0.3517663328756046 0.47080720267021686
-0.32140067228089036 0.4627216566715008 -0.3300362948816534 -0.26072987608542847 0.4731950904009718 0.48854661114117454 0.048592172826004934 0.43854806387342915
0.16312842032880157 -0.23888798791493202 -0.012548627692401835 -0.2487256875753084 0.4081357367719253 -0.18791696901925323 0.22752695402190995 0.3874161161499198
-0.46944638692376445 -0.3710271035644871 0.05902293608183644 0.07017286621509307 0.4137479248330863 -0.18128415166284487 0.44992832762508134 0.33027115827378356
-0.016277478942753602 -0.15594697063911184 -0.5202972679902403 -0.12789170552931825 0.24781413159959714 -0.2199695046961052 0.012467028829324659 -0.17473953200243142
0.29303161296787633 -0.1286525275551715 0.16618868315792232 -0.14326237827743457 -0.141164684779028 -0.5202216895815653 0.45524338806406023 -0.3564095140051619
-0.4094463200836999 0.47273324111376613 0.12395573944651023 -0.05461261240261934 -0.13707074650712783 0.06806163009007617 0.36446354991291 -0.34738082915665874
0.3220936715965819 0.20118868146402727 0.456206053353732 0.3805659437546431 -0.5063095694737066 0.09070555694595882 -0.40355572515221716 0.010315404013800288
-0.42670200154938265 0.47346279271554065 0.06815567000544974 0.139883880793079 -0.13028371349831655 0.20421881849546478 -0.36561395294065513 -0.470815255011

bias f8 [50]
00000000: f622 4cfe 06f8 a5bf 9b1b 9cb6 6ce9 bcbf
00000010: cbd3 fa24 0dce 923f a1fd 2a20 b2dc d3bf
00000020: 1ca8 0334 8b48 c73f 5887 7931 3cf4 cabf
00000030: 5294 c205 e212 c63f e066 739b 90f8 b2bf
00000040: ecf3 657b b0b5 d33f b612 3e72 d193 d93f
00000050: 2093 030f d4f8 c93f 6e88 21fb c072 d5bf
00000060: 75f5 b660 74f6 bf3f 863b 0be3 2ed1 debf
00000070: a00a 04fa 23b4 a4bf 4978 63e2 aeff bdbf
00000080: 7e7e bbf8 be52 dd3f 49e4 69cf 8ffc d2bf
00000090: 0892 41ca 0d29 b23f 2404 c0d0 2a97 d4bf
000000a0: 5ec4 c58c 168d babf e0a7 74fc 9aaa cabf
000000b0: 0c15 fedb d63c cebf 4c3c 2192 e439 d23f
000000c0: 25cd 1a8f 9fdc b73f 90ae cd87 2e49 a9bf
000000d0: b0a7 ca51 7c93 d93f 10f0 9461 07a0 ca3f
000000e0: 5fc8 8fd9 c0de b73f 0c94 489b 818c bf3f
000000f0: b380 76c5 dc20 c43f da6a d8ff 5e88 dfbf
00000100: f88d 6190 645c d13f 2c8e 39e7 8b3e d6bf
00000110: 89f9 c349 8cfd d3bf cc34 e0e7 f37a d4bf
00000120: a688 04b9 09b0 dcbf 1e10 89a5 6cf5 d93f
00000130: 3990 914a 02f5 d43f 73eb 0f72 759c dbbf
00000140: 25be 14cc 4ebc 74bf 14c5 c9b6 351d d13f
00000150: a013 dd64 baa0 c7bf 227f 5e73 3293 d03f
00000160: 0ab3 dfda f589 de3f 9fc9 0890 1714 be3f
00000170: 6a0c e398 8c76 d23f 7b82 6bf0 445d d53f
00000180: dab3 7dc0 8d6e cb3f acc9 d5a6 a966 d93f
-0.04290792326179897 -0.11293677767035463 0.01836414850432159 -0.31034520284080186 0.18190135993728596 -0.21057846465833552 0.17245126038793274 -0.0741052989500548
0.30796443987475075 0.3996471038483763 0.20290613873580643 -0.3351290180636458 0.12485434876631081 -0.48151752636197676 -0.04043686320257689 -0.1171826651293212
0.4581754139926274 -0.29666514640081637 0.07093893230337056 -0.32172651658771856 -0.10371533333615576 -0.20833146407068082 -0.23623166791745864 0.2847834994362912
0.09321019405142701 -0.04938645751721282 0.39962680804694184 0.2080086924050879 0.09324269591869115 0.12323770562268538 0.15725288049452998 -0.49269843087101395
0.27126421069826234 -0.34756753521489503 -0.31235034183182414 -0.32000444072839396 -0.448244505578382 0.4056045166546499 0.3274541595658352 -0.431424485577444
-0.0050623968138974506 0.26740782595068535 -0.18459253239612128 0.25898419634357783 0.4771704328002647 0.11749408022368478 0.28848566942560316 0.3338177059031648
0.21431133173919542 0.39689103405467097

weight f8 [50, 50]
00000000: f661 8147 0525 b0bf d441 6e07 90cd c23f
00000010: e92a 6600 3cd2 b53f e82b 7499 b7e7 8abf
00000020: d3db a3d2 1058 b7bf 0868 debc 7445 b83f
00000030: 5fec 597a ad9f b33f ff12 d656 4d3d c13f
00000040: d145 5ff7 20a9 82bf 2073 b467 0c77 c43f
00000050: 0a3a 5842 e7ac 97bf 8bb1 1879 bf82 b13f
00000060: b083 294a af36 b53f 9f65 b1ba de7b 8abf
00000070: 09b4 0ca0 cb4c c33f ff2a 4a22 10cd bb3f
00000080: d841 132a d4fc b03f 57e0 7ad9 dbc9 a53f
00000090: 91b7 bb0f 15c7 c9bf db32 421d 1a07 703f
000000a0: 5421 abd3 d1f4 c4bf a0be 4e9d 079f bcbf
000000b0: 8105 2d75 5bb4 c03f 8d35 7da0 86ae 993f
000000c0: fec1 aca9 024f c63f 6827 1b29 1313 ab3f
000000d0: 3385 8e50 7a08 be3f d0ad 609d ad48 b13f
000000e0: 15a8 0156 b556 b13f f304 5d74 7a7d a6bf
000000f0: bc09 3b24 73c2 c13f 8ae8 7208 3ae1 b83f
00000100: d557 cb67 f132 92bf 86fd 6767 c39c b7bf
00000110: 0e6c c996 f428 c2bf 017f f128 8c62 c63f
00000120: 9855 edb3 007c 9bbf 12b0 1725 1c9a b5bf
00000130: baa6 43de 81ee b13f 3d7a 4c4d 4f43 b53f
00000140: 3ffe 97cb 47fa 99bf 62e0 ed6e 283c b03f
00000150: 0554 de07 5bcf b1bf de8f 4236 6bbd 67bf
00000160: 9fe1 c0d1 9a53 a9bf 2439 411e 2fff 5dbf
00000170: b5fa aa2a c588 5d3f 0fa3 fef2 e906 c0bf
00000180: f966 5f5d eb65 b4bf 2391 79cb 4ac3 76bf
00000190: 1024 b0c7 31e7 ce3f 1902 f6d0 c4af b93f
000001a0: 2a5e e641 22bc a63f 6a1f c48d 82b1 86bf
000001b0: 3c49 2822 eb44 773f c5fa 6d95 1150 96bf
000001c0: 0d90 349b 4a4f b7bf 9567 b185 1ed6 bf3f
000001d0: 73a8 fb5f b285 bb3f 6eb5 77cc 1069 bc3f
000001e0: f7ab aa9b 47fe b03f 4576 bab4 f459 963f
000001f0: 8a20 b9ee 4cdc adbf 54fd df97 e7f0 aa3f
00000200: d3dc c16d a9de b7bf 9f27 0733 cb6e 953f
00000210: 514c 62ff e836 373f 9fea a613 441e c2bf
00000220: 8d35 9a34 680a 82bf 9779 eee3 7455 c1bf
00000230: 45e8 2640 4476 b53f cd35 3448 81d0 b5bf
00000240: 4117 e9ce 2c53 acbf 67e4 986d 505d 7ebf
00000250: ada4 0815 cc62 b6bf 7622 5e40 4d67 75bf
00000260: be2f a653 5237 b0bf 42d0 6e09 b2d5 a03f
00000270: 6b24 e26b d7af c03f f5ed cad9 d678 c03f
00000280: 7ead 6e69 8845 b83f 6997 786d 686a c0bf
00000290: 662e 4821 0f1c 933f 16c6 acf4 94dd a93f
000002a0: bf4b bd37 417e b53f d78a 93c9 128c c5bf
000002b0: d9da a609 3090 a13f 222f 1944 e707 b33f
000002c0: 6acb ec35 75d3 b63f 25af 3d02 dcfe a23f
000002d0: 52a9 d360 baed 803f d4d7 a123 9aa6 b6bf
000002e0: 9e65 8a34 e158 b13f 4b56 ca37 f4db ae3f
000002f0: e3d8 da75 07af c03f 482b 071b 9cf2 c03f
00000300: e19b 4dc5 36cd 783f 8b2d 0aac 3120 c1bf
00000310: 3fe8 6bcb c979 a8bf dfa9 e254 ff9b b03f
00000320: 9479 064b e0a1 b7bf 85df 4fa3 e6a6 c03f
00000330: bed7 a0f1 a972 c93f 9ef2 afe4 6f20 b0bf
00000340: 56b7 1057 edf2 babf 9e29 ef36 2a1c c33f
00000350: 2abe 887f 7bd0 bc3f 1559 7374 6f0b c13f
00000360: 8035 87ad 8bc4 90bf c49a 892c 904b b7bf
00000370: 52d8 2fe5 26e3 bc3f de58 a7c3 9045 a1bf
00000380: aa2f 9544 7a3c b0bf f9c0 c1a3 910a b5bf
00000390: dd62 84dd 0ab5 be3f d248 195a 95c3 acbf
000003a0: 24f6 5df4 8614 c1bf 40cc 1f91 8784 a1bf
000003b0: 0061 06ae a310 ca3f c2a2 cbf6 38c4 9f3f
000003c0: f1e5 c9b6 09c4 7ebf 820d fcf2 7c4e b03f
000003d0: ea55 52fd 0a3e bdbf 0116 3529 f893 b4bf
000003e0: 1d1f 5bd9 3892 d03f 6682 f12f 47d5 a33f
000003f0: c797 332a 329e a9bf d69b dca0 7b33 c63f
00000400: 3575 0794 af12 acbf e9e1 5645 51fa b63f
00000410: 2ff5 a648 2879 b4bf 36ab 3c9a 459f 9dbf
00000420: f648 eae1 46f7 833f 4299 b87b 79b8 bf3f
00000430: 67fd 7816 f533 a73f 63c3 8429 6773 af3f
00000440: b744 fd5f dff5 abbf e2b3 91e3 da1a c03f
00000450: 5761 a636 bf02 af3f 8774 5b2f 609e 97bf
00000460: 65ae 0b6f b154 ac3f 7ee6 8d73 76ad adbf
00000470: 3310 2f47 0ae6 b33f d7b4 0f5a 1d31 7a3f
00000480: 1743 95c3 bd61 a4bf 8fea 5a17 71e5 a43f
00000490: 0485 a0b2 0d68 a3bf ecab a967 37fc a5bf
000004a0: e2d0 70da 313f bc3f b3aa dd1a 8bf3 943f
000004b0: c75a a741 fd22 c13f a7ec 62d6 08a7 a7bf
000004c0: b0cf ec58 0c01 b13f 8497 2779 d2d4 bebf
000004d0: a069 7407 ff3c c0bf 909e 1038 40b3 afbf
000004e0: 919c 5c64 28a0 b2bf bf4d 389f c72b b93f
000004f0: 2fc8 1c47 ee7a bcbf e7f3 99b3 edd4 6abf
00000500: f8cf ea2f af82 a03f 88ce 318e 11e3 b43f
00000510: 6b8d fb6e 6e30 c03f d2be 11f2 8af1 ac3f
00000520: c353 80a4 a33f b83f 99f9 24c5 b750 b9bf
00000530: 63a5 a82a e577 a43f cc97 62ca 0fa6 a7bf
00000540: eac3 c404 8d8a c13f c3d3 a4da 76e3 ac3f
00000550: 3fbc 9488 4c31 81bf b018 3dd3 609e bc3f
00000560: fa07 6e24 2ce4 97bf 00e7 ac9c c2b8 abbf
00000570: 348b 4164 da0a b3bf b19c a731 18bc ba3f
00000580: c9ad 8a5d baf4 99bf 1d11 b1d6 93e6 a6bf
00000590: 1af5 df5e f377 a23f 67a6 e1e2 d6f9 a0bf
000005a0: 74de c21b f05e bd3f fef3 3594 b679 c1bf
000005b0: 2224 3022 fc33 ac3f 82e4 521d 88c5 b93f
000005c0: 8b6e 72de e528 b6bf 20ab 85c3 f997 a0bf
000005d0: 97a1 66dd beb6 bf3f 682d 4550 1248 b2bf
000005e0: 8c50 fb0e 1273 b63f be7f 3e4c 2fc1 b8bf
000005f0: 4bc9 9fc8 8771 bdbf e7f7 3381 e27c c2bf
00000600: c1b1 12f5 4537 a2bf 63c1 da0f c49a bbbf
00000610: 7921 bccf 92c0 afbf 0b8a 213e 5dc1 9abf
00000620: 0268 dbc6 91fb a63f 739d d0f7 3ac4 afbf
00000630: eaa9 65ee 9058 bf3f ed46 5746 3a11 7e3f
00000640: 7afa 4dea 36df b9bf 3ae4 3c13 1d0c a5bf
00000650: b6e4 44cc ac50 b93f 2554 831f 5c8a c13f
00000660: 756c bfd0 7274 bbbf 9c0a f5ee 27de c0bf
00000670: 7bb3 66c6 740f 99bf b689 657f bd8f abbf
00000680: 6fbf e516 fa6e bbbf 9d79 745f 2f6b c1bf
00000690: dbf4 518e 295d b73f 199e 9832 5693 a4bf
000006a0: c9ec 01e9 a497 b2bf cd9f 5a29 e575 a53f
000006b0: 7a90 ef2f 5518 9b3f 1f83 1ec9 a5f1 a73f
000006c0: 3fbc 6846 b3c6 b1bf f790 8bd6 4d2d bf3f
000006d0: dcdb a9a1 32da bcbf 89f5 ab52 9583 bb3f
000006e0: 3c1f 6427 2c5a b03f 1511 4e68 ff10 ab3f
000006f0: c77f 0ca2 c112 c23f afcb f588 819d b6bf
00000700: 0976 74a3 5279 b3bf fcc7 f737 aa0d a7bf
00000710: 865a 120b 2749 afbf 1051 df97 1f91 85bf
00000720: 1f40 8469 c033 913f 45ca d9fc d84b aa3f
00000730: 7624 b475 9664 b33f 4198 d4be d937 bdbf
00000740: 77ff 9634 0e94 b7bf 01d1 3f7d 481a a53f
00000750: 4053 ee08 b00d c2bf 29c4 dec8 3c97 babf
00000760: f341 7c45 e842 b13f 6d33 7020 0c9a 79bf
00000770: 49e5 7cf2 b7b2 b63f 1a19 6545 9c8a bfbf
00000780: c54d 2987 3cf3 a4bf 67c5 3061 b6ac bebf
00000790: d0f8 1c56 b63a 933f 0579 b3fd fcc5 a43f
000007a0: 29d1 938d 7960 b43f d310 9be5 358c 75bf
000007b0: 515a a5a3 ae3e 803f ff58 3ffb dff1 b03f
000007c0: 3862 77ed 184a c0bf 8d37 22d2 c5e6 953f
000007d0: 13b0 48e1 6832 c33f 7c7f 7a51 d0e9 b2bf
000007e0: 9d37 4172 a4f1 a53f 3ae5 a9f4 59c6 ac3f
000007f0: 1c6e 1335 1f0b bd3f 480b b140 42e3 b53f
-0.06306488986718492 0.1468982731135059 0.08523917207473243 -0.013137277956522156 -0.09118752615528018 0.09480981455854487 0.07665523755160696 0.13468329181718983
-0.009111650037001791 0.1598830705996983 -0.02312051145968933 0.06840130526024361 0.08286567268943545 -0.012931575844208619 0.15078110995219188 0.10859776341582615
0.06635786082484374 0.042555685327386676 -0.2013880087683302 0.003913023003531103 -0.16372130236983173 -0.1118016013194798 0.13050406667211337 0.025079825921513744
0.17428620610145623 0.05287990452559549 0.11731686083523556 0.0675152310583862 0.06772931432502134 -0.043926073746215176 0.13874663609574422 0.09718668657561316
-0.017772457084752908 -0.09223576807561615 -0.14187486040722813 0.17488243102251746 -0.026840220434072387 -0.08438278108195643 0.0700455825459824 0.08305831563164019
-0.02536880664956542 0.06341793735725923 -0.06957024519063289 -0.002897939108224875 -0.04946597872225599 -0.001830860151148147 0.001802628083779884 -0.12521099438642877
-0.0796801665268524 -0.005557338874130377 0.24143049478905754 0.1003382692488305 0.04440409712259126 -0.011080760909422078 0.005680960168790879 -0.02178981279893823
-0.09105364121620614 0.12436095012654243 0.10750880091987529 0.11097817413220465 0.06638000059562886 0.021827529459747436 -0.05832138456440912 0.052619206704543814
-0.0932412999116992 0.020930457105158614 0.0003542250482350728 -0.14154864272662324 -0.008808912377640943 -0.13542042855710854 0.0838358551617669 -0.08521278393546723
-0.055322075135832545 -0.007413210079499333 -0.0874450255729637 -0.005225469363616333 -0.06334414045539824 0.032880366946671305 0.13036625640623653 0.12868772158058986
0.09481098722488032 -0.12824731202379816 0.018661724478120333 0.05051866041902657 0.0839577447016344 -0.16833720057100862 0.03430318944758932 0.0743393460517692
0.08916409079101376 0.037100672982744144 0.00826593025199843 -0.08847964639593836 0.06776244671563922 0.0602718656638613 0.13034146551735323 0.13240386314131514
0.0060550822716782535 -0.1337949838674429 -0.047804170686462026 0.0648803312530286 -0.09231378394767936 0.13009341215342488 0.19881176279312557 -0.06299495061098034
-0.10526927352540602 0.14929702455840482 0.112556189190166 0.1331614798170412 -0.016374762026136747 -0.09099675261823409 0.11284106345542114 -0.0337338675341685
-0.06342281507858041 -0.0821925186917304 0.11994998844273703 -0.05617968296850652 -0.13343893939956886 -0.03421424528632899 0.20363279340086393 0.031021966994475354
-0.007511175103553467 0.06369763309708357 -0.11422794994935939 -0.08038283353842958 0.2589246866814266 0.03873655758139165 -0.05003506436496213 0.17344613413408067
-0.05483006174083941 0.08975704138618536 -0.07997371457800705 -0.028927886523131018 0.009748986977943446 0.1239086081555785 0.04531827830623563 0.061427329843701604
-0.05461023375267742 0.1258195506265159 0.0605678323947269 -0.023065092935997924 0.05533365707910035 -0.05796404038023882 0.07772888410460226 0.006394495635487738
-0.03980820667732681 0.04081300172898238 -0.037903240256364185 -0.04293988361754217 0.11033927519821732 0.020460294260753197 0.13388028817890626 -0.04619624726316234
0.06642224474927505 -0.1204349084651693 -0.12686145652771774 -0.061914450496542206 -0.07275631380308513 0.09832427632527806 -0.11125077472823429 -0.0032753603562114433
0.03224704227378078 0.08158979150339907 0.12647800845216337 0.056530324983098304 0.09472105756897435 -0.09888790667625925 0.03997722764718039 -0.04618882508775321
0.13704073651163579 0.056422914686130386 -0.008394811552163371 0.11179165990060613 -0.02333134624814901 -0.0541439834837103 -0.0743843550458621 0.10443259441636844
-0.02534762569363894 -0.04472791667697804 0.03607140095844326 -0.033156123347748694 0.11472988775028076 -0.13652689205983387 0.05508411328634845 0.10067034450448101
-0.08656155281863158 -0.03240948211426642 0.12388222604079711 -0.0714122243854739 0.0876933371139918 -0.09669776545933836 -0.1150135865025607 -0.14443618115177445
-0.035577951589718555 -0.10783028971741752 -0.06201609407259218 -0.026128250996757568 0.04488807251409811 -0.06204399371227511 0.12244516201250347 0.007340648303811409
-0.10106223316504695 -0.04110804424130561 0.09888725268401086 0.13703490771027407 -0.10724561306362708 -0.13177966277915665 -0.024473023042151248 -0.05383102588782
-0.1071621232892974 -0.13608352814567307 0.09126529430973866 -0.04018658988598762 -0.07262640656147136 0.04191509370622235 0.02646000962330717 0.046765499878580245
-0.06943817585919108 0.12178503501815273 -0.1127044338880831 0.10747655170776772 0.06387592279145066 0.05286405704740297 0.14119739925899763 -0.0883408507705059
-0.07606998911474973 -0.0450261300392327 -0.061104984380269164 -0.01053070718982288 0.016798979225370766 0.05135992132718007 0.0757535970079902 -0.11413346203752985
-0.09210289749080212 0.04121614960595999 -0.14104271350938724 -0.10387020019585748 0.06742717453403894 -0.006250426645249313 0.08866452856172659 -0.12320877737247252
-0.040918246745288246 -0.11982288239302862 0.01877865696518982 0.04057303044258912 0.07959708887557738 -0.005260668310885746 0.007932056778981041 0.06619071849795331
-0.12726127238308194 0.021388140631237774 0.14997588157837125 -0.07388021458836919 0.04285920996390689 0.05620080100647802 0.11345095678137124 0.08549894408592451

bias f8 [50]
00000000: f95e 3294 e3c6 bcbf c6a6 a04e 0ce8 a73f
00000010: 70e8 bc59 5347 c13f 2c8e 84ad 89e4 abbf
00000020: 4f9a 8a25 19cb b3bf 16a1 bd4a de0a 51bf
00000030: 5371 0c4d e59f b03f 49e9 5bd5 c32c b43f
00000040: b642 ba40 ab99 adbf cd1a 17ce ac86 a13f
00000050: 5c61 165d 191c a63f a0dd ef96 a198 673f
00000060: be5c 5a98 0cbb 943f 62cf 2f5a ccab a6bf
00000070: 784a 6e0b 5b65 bd3f d968 31b9 c8eb c13f
00000080: b474 3f11 9f54 c03f 6b51 edcd 9268 b13f
00000090: 57ef 03a4 6772 bd3f ad5e 96e3 9d59 ba3f
000000a0: 588f b0b5 242c bbbf 539f 9f60 60fe ba3f
000000b0: 786e ba34 14f1 94bf 021c 247a 4213 b33f
000000c0: f000 21b5 b703 9ebf 532c fcff 2c88 b9bf
000000d0: cce9 78d5 e881 9dbf 2fbb 3e8f 7418 b33f
000000e0: 7e9b b621 ba3f c23f 123b 76b8 9660 9d3f
000000f0: 6b94 e262 9902 acbf 9f54 1b45 00fc be3f
00000100: 566d 29a2 8aba a9bf 02c3 afb8 216f a53f
00000110: 2653 2c7f cdd7 bbbf 9fbf cc7b d84d 97bf
00000120: a535 4718 6529 af3f ae51 dc77 98d7 bcbf
00000130: ba0f 2aa6 e80d b03f 0c25 cc75 9f67 9dbf
00000140: ece1 62b2 0029 403f 5241 91cf 92ba b93f
00000150: f346 c34a d8c9 b43f 5fda 5bee 9ffe b0bf
00000160: f976 4053 714a ae3f 29cc 4aa1 ced7 b9bf
00000170: 85c5 fd80 e3b1 b03f 2dec 6c82 bad8 bc3f
00000180: 2b44 e8a0 dc03 b63f f977 f113 1519 b83f
-0.11240980499348642 0.04669226131256958 0.13498918420538386 -0.05447798007142199 -0.07731778303659918 -0.0010401888675578056 0.06493981486386717 0.07880805930100111
-0.05781302609569165 0.03423061385870128 0.04318312894173701 0.002880397419626937 0.020244786070716662 -0.044279466637731316 0.11482781437943312 0.14000805895449878
0.12758243887120602 0.06800191428675866 0.11502692941934121 0.10292994314510891 -0.10614232478888874 0.10544397696469092 -0.02045089313342749 0.07451262933692251
-0.02931105654738614 -0.09973412751803439 -0.028815877942386867 0.07459190842812967 0.14256979604871484 0.028688769348771244 -0.0547073300561259 0.1210327309339214
-0.050251323981423 0.04186349276995395 -0.10876163821042137 -0.022757895046367712 0.060862693036692485 -0.11266472746166897 0.06271223122354189 -0.028715602459702658
0.0004931691553542983 0.10050313537181424 0.08120490861190514 -0.0663852650576273 0.05916170254952919 -0.10094920575902279 0.06521436595155279 0.11268201526847639
0.08599642685318602 0.09413272606749946
