lasa_models/6/skel_model_LShape.pt (torch, 99247 bytes, 18 tensors)

R f8 [20, 20]
0.052753083071883644 0.8870980427244517 0.8603962202828003 0.3709644143874255 0.39392465920806674 0.7739187223549353 0.29328940947102966 0.2525896357050922
0.5580586494618035 0.24255599186483406 0.3340813083546353 0.810478346715177 0.3023834733133559 0.7681216291898215 0.2369019547696434 0.586281880394038
0.33801532246682786 1.055881354752622 0.6261843971285818 0.5551171411944557 1.0252703683467506 0.8615697012248452 0.34640998791744093 0.5798397538914398
0.44016415744017146 0.7165425189311082 0.36132002269245295 0.4913926911764204 0.10809939170871503 0.18010712043721727 0.8361925791056111 0.7710479958024788
0.505074068150682 0.6797304553567389 0.7505597204994354 0.05918565081492697 1.0377428094558507 0.1387085887165233 0.9653839861801943 0.3936315121988628
0.16310258208088538 0.22391921943540444 0.558266942966899 0.6551931376770801 0.7788398538469129 0.48008120026035417 0.3529847276629478 0.4136413031845155
0.39559413255018683 0.3981492252077772 0.5870633808149581 0.36422852687807655 0.6051146921680401 0.44479925443048257 0.5239118472904134 0.30779067867591225
0.28228149592283835 0.5702229481514693 0.3579175799181901 0.44493274773747016 0.8135494715684314 0.24234011276774375 0.9395236940280419 0.053114829944647224
0.29131356132005903 0.8533714929950078 0.46205239545804416 0.5587164098590907 0.628825229455107 0.36291332659943065 0.8342045095750055 0.9678863439287488
0.623673431754089 0.6764406101224838 0.8837227693715106 0.2727524052015618 0.03389655108534958 0.950626230797372 0.2859003214849783 1.020288814437216
0.8931815368877276 0.11034534862810368 0.39645641403562815 0.683143980051084 0.5529919847000384 0.35978732835279514 0.3164555401000603 0.19793153560573518
1.1300072764585773 1.0189518949847705 0.45720715180346083 0.13497397100312947 0.553158421959942 0.6919563956066259 0.7209130418627926 0.6697518018429555
0.9966529867426455 0.6143286048860016 0.2555871411943821 0.5620348415408057 0.29583493190756655 0.12594498723748063 0.5073304527210928 0.0042645401205778305
0.12557552237361316 0.7985017084100859 0.617354321378177 0.638486282575248 0.17991421216582804 0.6550393960980431 0.8055059267353355 0.577180398658044
0.9971351068664916 0.7500544815108088 0.1889370180637728 0.5028058108702029 0.08578591775614604 0.9216663051223433 0.2400368866411979 0.6078033310848482
0.6609528659732674 0.8911620999356799 0.14311841370485542 0.7348070953498245 0.6079730277762093 0.7371833642274549 0.9373725901736695 0.23470047983778564
0.09250129760683767 0.27295331808619017 0.9989544597323028 0.07820518793408106 0.6000396380417019 0.5680134168633545 0.42859903340825095 0.8073777279319118
0.8150048576706375 0.29751810693710923 0.2712032633913004 0.5508880759969744 0.13278908320667526 0.5775915159654669 0.1168367729067287 0.4487179024072006
0.3160875766507572 0.687159058436466 0.8752468521796327 0.5257156634361216 0.4335424071962026 0.6922123636105102 0.6780591841572848 0.9770853948607023
0.5068900832292924 0.8541520634492769 0.47513816940471143 0.28024474947659433 0.20134607839997756 0.2666544955355052 -0.017145971625229288 0.8527620679348525
0.626408541142912 0.8963880418641409 0.6204604603740473 0.1818314571760992 -0.035007272250128355 0.22215034155122648 0.9317234833028037 0.3661560812991511
0.6246414073571163 0.17795297758274672 0.6192037560301066 0.808294294457599 0.8149405519948516 1.058411408614354 1.0350367771705884 0.08745737969308726
0.27733674927039403 -0.028288933225775557 0.41400749151354643 0.43686754718642173 0.5504508884117463 0.626149315085728 0.15953821781151598 0.23036208831341776
0.8439064427391475 0.2889562614565139 0.08752431389632842 0.8152489216211318 0.8503422320191961 0.6318783459044996 0.7906197765804079 0.54619674502514
1.1362589062698412 0.45688218008386733 0.724102922785224 0.6914804214748588 0.8321439293007056 0.24992341013845923 0.6489094075347838 0.07635618143311801
0.2217955769500999 0.4678954311198792 0.21283936092213146 0.7359754555686131 0.3391383722820732 0.18239924647915187 0.3391519946206556 0.8587627908628052
0.2053800413164056 0.17307623452677684 0.36343554177430315 -0.06058168514915262 0.2007248116685431 0.3698467506004116 0.6623340316705193 0.550952604576746
0.3744043759079141 0.06820912505736851 0.6960757951159617 0.056965533208457056 0.9950641238399137 0.3090904377688089 0.8496937727562042 0.3968912245426261
0.6773701614550452 0.738524560606331 0.19725231016090228 0.03385266017437895 0.11713190212932997 0.554252035241466 0.7851411864056019 0.9898280048096924
0.8191341563465879 0.7276345146296652 0.9181883025127009 0.34041733078981484 0.6405324381938445 0.0847807749430318 0.8076921106517511 0.3768940259026914
0.6845456210985094 0.8806470777042676 0.17891150055876398 0.4246471605266084 0.7968654552865476 0.3929347721998189 0.2839063505643533 0.43698032188450675
0.7712865944460654 0.6973097984602868 0.10065844456891367 0.9021989597813623 0.5924135053791864 0.06854773621764138 0.6077037746848669 0.325251354675719
00000000: 8023 1dbd 7302 ab3f b21b 3b6f 1b63 ec3f
00000010: b5ee 76a7 5d88 eb3f af85 f186 e1bd d73f
00000020: ecbd 18c6 0f36 d93f 82d9 4832 f1c3 e83f
00000030: 083d 7cf1 40c5 d23f fa5c 2ab8 6d2a d03f
00000040: 2907 16d0 9ddb e13f 1e10 4122 130c cf3f
00000050: 9da2 6591 9661 d53f 2e40 2849 70ef e93f
00000060: 08d5 2e36 405a d33f 850e 97cf 7394 e83f
00000070: 210b 0ca2 cd52 ce3f eef3 d037 d2c2 e23f
00000080: d0ae e204 0ba2 d53f 23e6 f1d8 e3e4 f03f
00000090: f7d8 5ddc b309 e43f 6b22 dc05 85c3 e13f
000000a0: f5b6 d9e6 8167 f03f c586 3f9f fa91 eb3f
000000b0: 143e 47cc 942b d63f 314d 7c19 0c8e e23f
000000c0: 72ec 4449 a62b dc3f 0f15 a093 eaed e63f
000000d0: f9a8 3604 de1f d73f 6127 8654 fa72 df3f
000000e0: a53e 1bd8 66ac bb3f 86fc 0608 c00d c73f
000000f0: e853 8df0 16c2 ea3f 97c6 b3d8 6cac e83f
00000100: b079 9817 9129 e03f b646 7b15 5ac0 e53f
00000110: e2ad a7d1 9504 e83f 2d01 49e5 944d ae3f
00000120: 455a 4434 989a f03f ae1b 1bfa 33c1 c13f
00000130: ce3b 17f5 6ce4 ee3f cd6c e439 4231 d93f
00000140: 891c f79f 8be0 c43f 5ee0 358e 62a9 cc3f
00000150: 2162 cfa2 52dd e13f b85f 5c99 57f7 e43f
00000160: 5101 a38e 41ec e83f beba a27f a6b9 de3f
00000170: 5f30 5341 4d97 d63f b9f2 5c5f 1979 da3f
00000180: 00b9 720d 6a51 d93f 347d 4ce3 467b d93f
00000190: 2af1 a824 39c9 e23f c98a cd2a 854f d73f
000001a0: 5c1b a67c 195d e33f 4f1a c44a 9777 dc3f
000001b0: 3c2d 43c7 e2c3 e03f da4e bbac d7b2 d33f
000001c0: 844a 5068 e610 d23f 0ea8 3732 443f e23f
000001d0: bb5f 1a23 1fe8 d63f 26eb 1c34 c779 dc3f
000001e0: 5710 c2e6 9808 ea3f 3657 6c35 0005 cf3f
000001f0: 935c 75fe 9310 ee3f 10f8 16f3 dd31 ab3f
00000200: 780f b0a2 e1a4 d23f 7212 b8bb d14e eb3f
00000210: f3f7 e135 4492 dd3f 9caa 823c 01e1 e13f
00000220: a519 6d16 561f e43f 5cbc 41d1 f839 d73f
00000230: 9c9c d9a7 cdb1 ea3f 5268 2dc8 ecf8 ee3f
00000240: a392 18fc 21f5 e33f 0232 45c7 66a5 e53f
00000250: 4ccc 25f9 7447 ec3f 41bf 0f81 c674 d13f
00000260: abb0 b784 e35a a13f 9fd2 7fb3 876b ee3f
00000270: 5568 acdc 304c d23f 23b8 275d 1a53 f03f
00000280: a25c 4a72 f194 ec3f b398 9fbf 973f bc3f
00000290: 28a3 24b9 8a5f d93f f7ea 98c3 50dc e53f
000002a0: d893 273f 1cb2 e13f 0a97 326e c106 d73f
000002b0: a289 d7bc ce40 d43f 5808 2310 d255 c93f
000002c0: 1e1b 8a82 8214 f23f 5182 9280 a04d f03f
000002d0: 2090 1fc9 e142 dd3f 5085 a2bb d346 c13f
000002e0: bd65 7a4a 79b3 e13f 906e 2cbd 8124 e63f
000002f0: 37f0 413a b811 e73f 3948 ab54 9b6e e53f
00000300: fca6 f0cd 94e4 ef3f 2372 5f76 94a8 e33f
00000310: f64f 2d2b 8a5b d03f 712b f47d 30fc e13f
00000320: 33ac 63a3 f5ee d23f ddda a320 f71e c03f
00000330: 8576 d612 0d3c e03f d914 9bc5 b177 713f
00000340: 9dea e2d4 db12 c03f 7f7c 6d74 538d e93f
00000350: 27a2 8bd9 5dc1 e33f a85e d3c8 7a6e e43f
00000360: 3c3e abcc 6d07 c73f 5ba5 fa2d 15f6 e43f
00000370: 7eff 815d b4c6 e93f 031d 0407 4378 e23f
00000380: e7eb 35e2 87e8 ef3f 42d4 8941 7200 e83f
00000390: 9f38 cb94 162f c83f 1ca4 3d36 fc16 e03f
000003a0: 7551 38df 10f6 b53f 7e6b ca55 4a7e ed3f
000003b0: c792 fa58 87b9 ce3f d918 adf8 1f73 e33f
000003c0: 59af f19f 8626 e53f d911 5561 6684 ec3f
000003d0: 1bac 2845 b451 c23f 14ae 6c2b 8a83 e73f
000003e0: f1c3 e4d9 8374 e33f bd63 1091 0197 e73f
000003f0: 9dce 5ecd f4fe ed3f 4020 a152 aa0a ce3f
00000400: 1816 0f40 2aae b73f aaf3 a031 1178 d13f
00000410: 7ccb d757 6ff7 ef3f f1ed 8d54 4105 b43f
00000420: 502b b653 8633 e33f 1bc1 2379 2a2d e23f
00000430: 477b e5a3 2a6e db3f 2790 1fd1 09d6 e93f
00000440: 46d9 3811 8514 ea3f 52d0 d062 890a d33f
00000450: 0c62 b5ee 645b d13f 4f3a c507 e0a0 e13f
00000460: 24ba d190 3bff c03f 8999 f033 a17b e23f
00000470: aac5 9ac6 03e9 bd3f 4dfe fd4a cbb7 dc3f
00000480: e5c2 1863 c73a d43f 1250 64fe 34fd e53f
00000490: 233b c1af 0502 ec3f ad7f aea7 a9d2 e03f
000004a0: 378e 15a7 28bf db3f 1002 f38a 9a26 e63f
000004b0: c5a7 962c a9b2 e53f 4a6e 0a97 4844 ef3f
000004c0: 725e 448d 7138 e03f ff6a 4ab5 3655 eb3f
000004d0: b82b abec a968 de3f 012c 78ac 87ef d13f
000004e0: cdef f352 b5c5 c93f 0302 6a04 de10 d13f
000004f0: eed3 8dad b68e 91bf af95 21ad d349 eb3f
00000500: a59a c4ec 890b e43f 739f 8af9 35af ec3f
00000510: 7c90 38e5 cfda e33f 9549 fad0 4046 c73f
00000520: f278 df22 79ec a1bf e0fd e021 6c6f cc3f
00000530: 7f6c 36c4 add0 ed3f e853 9aea 196f d73f
00000540: 7670 0afa 0ffd e33f c3cb 78c5 29c7 c63f
00000550: 9fb5 3665 84d0 e33f 1aa4 07ff 8bdd e93f
00000560: 0011 6035 fe13 ea3f 1e64 1bcd 40ef f03f
00000570: bdad 41b9 828f f03f bc5e 9359 9b63 b63f
00000580: 4d19 06a3 e2bf d13f e979 2c2c c6f7 9cbf
00000590: 2661 1647 197f da3f de5c f64c a3f5 db3f
000005a0: 060b 792e 4b9d e13f 9097 d649 6a09 e43f
000005b0: 0336 fb91 bf6b c43f acae c541 817c cd3f
000005c0: c358 8e15 4801 eb3f 9e87 3b67 427e d23f
000005d0: 3021 ca51 fe67 b63f f0c8 0ee8 8416 ea3f
000005e0: 4fc3 9de9 0036 eb3f 9cbb d6ef 5838 e43f
000005f0: 4c7a 7fd8 c14c e93f 6d11 a298 717a e13f
00000600: b07b a3d1 1d2e f23f 1377 65c1 8e3d dd3f
00000610: 1c9e 89e4 d92b e73f cfe1 818c 9b20 e63f
00000620: bc2a 3d4e eca0 ea3f 4555 8684 7dfd cf3f
00000630: 5bb7 6da9 ddc3 e43f 8449 1a26 148c b33f
00000640: f1f5 b226 cc63 cc3f 96e4 a6ad fff1 dd3f
00000650: ee25 3bf7 513e cb3f ba6d 0a66 1c8d e73f
00000660: 964a 716e 71b4 d53f 3db4 38c7 db58 c73f
00000670: 6435 5191 aab4 d53f c1e0 b81a fc7a eb3f
00000680: 6b40 5aa8 e449 ca3f 46f0 80af 5c27 c63f
00000690: a8fa 8725 8742 d73f 0e84 e708 9004 afbf
000006a0: fe5a cec2 59b1 c93f aa14 97b4 91ab d73f
000006b0: caaf a123 d731 e53f 5bb3 495b 67a1 e13f
000006c0: f43d 80c5 3df6 d73f 0601 6939 2776 b13f
000006d0: 96ed f1be 4046 e63f 1a51 421c 962a ad3f
000006e0: 2117 aab7 90d7 ef3f 7d4b 6e42 23c8 d33f
000006f0: c049 b3fe b030 eb3f dbb7 5e73 aa66 d93f
00000700: 858a 5730 04ad e53f 4f1a 6342 fea1 e73f
00000710: 88cb 994e 903f c93f 22c2 a9c8 2255 a13f
00000720: feb7 f638 5bfc bd3f 2b50 a3c3 6ebc e13f
00000730: b459 cb68 e01f e93f 6852 aac7 abac ef3f
00000740: d671 91d5 5836 ea3f d0ce 782d c848 e73f
00000750: e893 5b6f cc61 ed3f b4f7 aec5 65c9 d53f
00000760: 033b 42e2 3d7f e43f 3eb9 b55f 31b4 b53f
00000770: 4791 0f20 9dd8 e93f 5cd4 d31e 081f d83f
00000780: 8f9e e737 cce7 e53f 80d9 c1c7 422e ec3f
00000790: 4e9b e371 92e6 c63f 5344 b348 6b2d db3f
000007a0: 6992 b8fb eb7f e93f bdcd 03e3 d725 d93f
000007b0: 2c3d b38a 852b d23f 2054 df4f 7cf7 db3f
000007c0: 6ea6 5f39 61ae e83f 2f27 72a3 5c50 e63f
000007d0: d55d 7d77 c0c4 b93f a1e0 575a d0de ec3f
000007e0: 92fe e92a 0df5 e23f cc04 452d 588c b13f
000007f0: 15ac bd2f 4f72 e33f 54f6 d30e ebd0 d43f

L f8 [40, 40]
0.5807461769051221 0.6113810623427555 0.6419582672586817 0.4468817275202391 0.19738925866805107 1.0973146988239293 0.3105327655916324 0.7494488717678944
0.4230034424610757 0.31963583400550605 0.7025967462940386 0.13917047314994468 0.5259443350978915 0.2500710724820428 0.5653267930021977 0.6529803438113464
0.4592718313401023 0.4327608244530234 0.21790363876684998 0.23209880690521612 0.04514137688617989 0.4458372204593666 0.6570136492467129 0.21316103225860175
0.2985191310608264 0.5960581204698046 0.5458253100586151 0.6378657705407749 0.6517266948063514 0.35269778457741185 0.8507720081365379 0.4983370884219037
0.2952522345577218 0.5637843109796626 0.13396092707265025 0.5622928605137605 0.7877626376940103 0.36225178493762633 0.15150607981993985 -0.12953619854262435
1.0295040190300428 0.2844613697305436 -0.3476190278510027 0.4951198142756452 0.23563875304035947 -0.043071675202299944 -0.0037390040503649073 0.5565577981931414
0.6413951625369008 0.3033624745421848 0.6801492705700518 0.3490160090808846 -0.02073125836424544 -0.316882117888143 0.46457098839195865 0.6203707068227037
0.14498842263568237 0.3955617836993976 0.5860744773410426 0.2674806333762432 0.8668283344636348 0.34918999171164017 0.29801430122465655 0.6840173530603015
0.06940535900596047 0.5075934479047569 0.5494310236894889 0.5314887980764772 0.019012839273368408 -0.1400354940508644 0.4906920191051856 0.7270735942154
0.7119228771776497 0.6386351269527479 0.11090375746987122 -0.001834134940701939 0.48482912321293536 0.27079538783580887 0.9038366911288673 0.8443171168100831
0.5077639509175566 0.20027735955997492 0.4217345548752385 0.5780840018976449 0.5834242281990303 0.8435185332423761 0.46611113765728296 1.037382780820816
0.4464709007811437 0.09265756211203059 0.9020025596449193 0.4338038420341211 0.3917372280587416 1.0431437598699969 0.8059062725161646 0.828047026864278
0.5980479003892677 0.48714411769633376 0.2532943723824094 0.1640703192462654 0.35967452217111834 0.32627861207408954 0.28459863439122635 0.25205615371665663
0.6458616046598533 0.25004005364866255 0.45216291452282753 0.9072888410020464 0.4543112392739137 0.5586179731135181 0.8490546784864511 0.713464195482197
0.8097111793266689 0.7217867053660384 0.6507404359755872 0.9278790832573012 0.4016674235481778 0.28725698001929995 -0.07507251293603753 0.28826697273019014
0.5110194748514327 0.6453046976490071 0.015561982055298256 0.4471820740754199 0.5820632525354164 0.3517444874063658 0.41803086170226306 0.11537031058301551
0.6835122217855519 0.5851407276329772 0.7362246442948706 0.3748268513201298 0.3305736024002321 -0.07826971792056882 0.14930951064247258 0.6090269502953989
0.5673498971077235 0.44343074931856835 0.722242212684547 0.5418594810091186 0.2474732574321554 0.421394846688148 0.8122194961197017 0.44433458495645634
0.8204477209527347 0.4701336649957308 0.559077788667492 -0.014801753991032516 0.2589384323076009 -0.17881500518926718 -0.0587546253721653 0.38103624571041855
0.09585456046515092 0.31521446813938697 -0.033125607749647394 0.5010084720403499 0.21336490850767015 0.6015345470718021 0.4022021526938651 0.8257374813095436
0.5582084120564832 0.1287394692657211 0.43047321250970977 -0.17344563851345074 0.7111261633320907 0.5371512518084214 0.6720907992435596 0.012615859199774126
0.017815986330865844 0.2926475647962435 0.9203222976226598 0.13621394838502893 0.4031782703928941 0.0767244973363246 0.11992271189538095 -0.1301738359359536
0.36947824587294 1.063002731872592 0.5452955247594602 0.9262126642318549 0.47449861649166786 1.1126136149143557 0.39316194485738676 0.6917238517685507
0.8333018284038616 0.4307059360175783 0.7643502453303638 0.856679640050381 -0.07025505745500489 0.29462266258393915 0.007141466622253463 -0.13677597507117853
0.8651094888043522 1.162128936800806 0.6956208913560274 0.47232169619816816 0.6663848322723522 0.5066197217847174 0.3127481138989209 0.6948344504958905
-0.08936779476186678 0.06716288355181893 0.05659684696337073 0.6780761707090723 0.36360904051066156 0.9288470009554806 1.0052244571899662 0.558588950118714
-0.01711711749033539 0.6614966270033844 0.028384625162569427 0.2950988123248065 0.8392282773935621 0.3632408721029848 1.0841625724675177 0.46509810456165424
1.1866569551263353 0.5468075794131027 0.0910735690220399 0.6363115171387688 0.5993737855004833 0.7112206253132494 0.9073010550602794 0.6942315388383018
0.09414425855302543 0.926177973984225 0.1343583041455823 0.42034632880568373 0.7017362648861273 0.17790571681352255 0.4627394980299504 0.41277724548577394
0.8529460260443229 1.1034795672569455 0.4656569080844786 0.5867939369558972 0.18202808902826512 0.4699003838470978 0.21719553208429793 0.2561683998948437
0.6685025386921164 0.6876291558743622 0.2522867174661373 0.6703965673583879 0.9353770421824872 0.2484647851072661 0.7587475299171595 0.8040401610656472
0.302119693531053 0.07102720921516971 0.051764281883073276 0.16787362937945574 0.8402803085772937 0.24029682136726355 0.48715562738316964 1.207366004710004
00000000: 78b4 a201 7995 e23f e7fc 8404 6f90 e33f
00000010: 50bb 6810 ec8a e43f 4148 38d1 b599 dc3f
00000020: aacd 471d 0d44 c93f e0e6 8ddb 998e f13f
00000030: 155c 23d2 c4df d33f f08c 4833 7cfb e73f
00000040: a6ce dd07 7d12 db3f bbbb 6bdb e974 d43f
00000050: 267c f32b ac7b e63f d4b9 5f8b 56d0 c13f
00000060: 8f61 d836 89d4 e03f f11a 7f19 2a01 d03f
00000070: 6ee7 ef36 2817 e23f dc37 b308 37e5 e43f
00000080: e81a e5ad b564 dd3f c301 0175 5ab2 db3f
00000090: 266d 1735 44e4 cb3f 609c 8ce8 69b5 cd3f
000000a0: dc58 d842 c51c a73f f499 4dd6 9888 dc3f
000000b0: b449 117d 4106 e53f a988 2a57 dc48 cb3f
000000c0: d8bd 48fc ef1a d33f 74db bd7a e812 e33f
000000d0: 69fc 00a4 6677 e13f 28bc f679 6569 e43f
000000e0: 52f3 03f1 f1da e43f be6c 88ba 9992 d63f
000000f0: c18e e937 8639 eb3f defa 493e c1e4 df3f
00000100: f9c3 dfa0 69e5 d23f 39fa 3465 850a e23f
00000110: 0f04 5cb4 a125 c13f dcc9 d598 4dfe e13f
00000120: d001 bdfd 5935 e93f fc61 4e1c 222f d73f
00000130: 2e64 fc1c 8d64 c33f 0dc2 3164 a494 c0bf
00000140: 815a cd34 d978 f03f 84f4 fd75 9d34 d23f
00000150: 7797 05e1 633f d6bf 6497 7a04 0bb0 df3f
00000160: 9a41 fd20 6929 ce3f a270 c198 7d0d a6bf
00000170: 58b0 b583 42a1 6ebf 8f58 b24c 52cf e13f
00000180: 3213 dd25 4f86 e43f 1c82 bf70 4a6a d33f
00000190: 60e4 2f67 c8c3 e53f 061a 323e 4756 d63f
000001a0: 4faa b732 933a 95bf 1a13 41ef cb47 d4bf
000001b0: 4016 74f4 87bb dd3f b765 26ab 13da e33f
000001c0: b96a c20a fb8e c23f 5f53 225f e250 d93f
000001d0: fb66 2643 1fc1 e23f 6584 2a17 671e d13f
000001e0: 0b8f 78c6 0ebd eb3f 057d 9ffa 2059 d63f
000001f0: 2803 6093 aa12 d33f 9e4b 295c 78e3 e53f
00000200: 7105 19b3 8cc4 b13f 2146 4d9d 343e e03f
00000210: d9ee c45e f094 e13f dfb8 bdcb f401 e13f
00000220: 466b 880b 1a78 933f 2224 9ddd aeec c1bf
00000230: 39c2 9d7f 7f67 df3f 1517 9ed7 2f44 e73f
00000240: 4512 587c 12c8 e63f f2d7 0aef b26f e43f
00000250: 3e2c 564b 3064 bc3f d691 8d65 eb0c 5ebf
00000260: 3044 16bb 7007 df3f 5765 aa2d b654 d13f
00000270: ca58 aaec 3aec ec3f ccdf 8454 a504 eb3f
00000280: bdea 682f 9a3f e03f cf3b b842 b0a2 c93f
00000290: a810 32ee b2fd da3f cdb7 4f05 aa7f e23f
000002a0: 50e2 7949 69ab e23f 9111 3b94 1afe ea3f
000002b0: 4685 22cf c3d4 dd3f 6cf1 d0af 1e99 f03f
000002c0: 821f 5eaf fa92 dc3f f98d ffee 67b8 b73f
000002d0: b8a9 d278 34dd ec3f d59a 9a30 71c3 db3f
000002e0: cfd4 c805 3912 d93f 98b0 da82 b7b0 f03f
000002f0: 6124 83f3 fbc9 e93f d3d3 7d7a 5c7f ea3f
00000300: bba0 b359 3523 e33f 2773 7c85 5e2d df3f
00000310: bb2b 6999 f935 d03f 3918 b497 4100 c53f
00000320: f77a 7b49 e804 d73f e184 0fb0 bfe1 d43f
00000330: bc94 cc30 dd36 d23f 5dfd 3d22 b021 d03f
00000340: 6432 b8f4 e5aa e43f 1e1c 47ff a700 d03f
00000350: cebb 95b8 3cf0 dc3f 2325 849b 8208 ed3f
00000360: 88bf b872 6f13 dd3f 2c5f afcc 32e0 e13f
00000370: ebae 93b7 742b eb3f cad0 4edd b2d4 e63f
00000380: 7e3c 4d6b 27e9 e93f d982 c76e e018 e73f
00000390: d165 569b ddd2 e43f 3671 a779 2fb1 ed3f
000003a0: 2383 0048 ebb4 d93f 75c2 ae19 6b62 d23f
000003b0: 9689 e3c3 f337 b3bf 6528 1951 f772 d23f
000003c0: 5664 8383 455a e03f e671 8b09 56a6 e43f
000003d0: c955 e8df f5de 8f3f 6aba e08f a19e dc3f
000003e0: e0f9 3a1d 43a0 e23f 1d5a 7d4f fb82 d63f
000003f0: fdb6 ee83 04c1 da3f 7127 e29e e888 bd3f
00000400: 1f87 df05 55df e53f 92b8 170c 79b9 e23f
00000410: b62e 38fc 268f e73f 8349 05c3 29fd d73f
00000420: bfb6 ce2e 1e28 d53f b969 bcf6 7b09 b4bf
00000430: b578 98f4 921c c33f e8d7 3c16 267d e33f
00000440: b2ee aef8 ba27 e23f 314c 975d 2b61 dc3f
00000450: 71aa 68b3 9b1c e73f 3ac6 beb1 e956 e13f
00000460: 0f21 a725 34ad cf3f 3aa0 4e17 22f8 da3f
00000470: 393f a0bd b3fd e93f 63a9 b753 fa6f dc3f
00000480: 393b 3294 1b41 ea3f 2bf0 f982 ab16 de3f
00000490: 6ce6 471a f7e3 e13f e5f5 84ca 6150 8ebf
000004a0: ef12 9c80 7292 d03f 6836 a9fb 68e3 c6bf
000004b0: 18a3 ec14 1615 aebf f7ad 7ad9 e562 d83f
000004c0: 86ca 5eaa ec89 b83f f19e f84d 792c d43f
000004d0: a7c4 e3f3 d6f5 a0bf dbd4 4deb 4208 e03f
000004e0: dac5 1394 8a4f cb3f 50cd e260 c53f e33f
000004f0: 59dc 0c19 aebd d93f f1c9 a902 716c ea3f
00000500: 5c4f 44e3 d7dc e13f 88af 19f1 887a c03f
00000510: f520 6284 df8c db3f 3449 8678 7733 c6bf
00000520: cceb daa7 8bc1 e63f 64b9 70d2 5730 e13f
00000530: e431 5690 c481 e53f b34a 64f5 57d6 893f
00000540: 5157 8c9a 5a3e 923f 3573 03da bcba d23f
00000550: 7334 42bf 4773 ed3f 424f c96a 756f c13f
00000560: 9ce6 723b accd d93f c18e dc76 37a4 b33f
00000570: 1067 a33d 41b3 be3f a6e4 1148 89a9 c0bf
00000580: f4e4 a615 88a5 d73f 1939 0f27 0f02 f13f
00000590: c0e7 af99 0f73 e13f 008a c0bd 88a3 ed3f
000005a0: ad0d f571 2f5e de3f 9143 12ef 43cd f13f
000005b0: 4a6e ccb7 9029 d93f c2b0 260f 9a22 e63f
000005c0: 8021 9698 68aa ea3f 49de 58a1 af90 db3f
000005d0: 8b45 4ca5 8e75 e83f 454b a56b eb69 eb3f
000005e0: 4dd9 2546 3cfc b1bf 6f57 1d03 19db d23f
000005f0: 88ab 68d9 5e40 7d3f 9f94 e709 e081 c1bf
00000600: 92f7 3b18 faae eb3f 25b7 1483 1498 f23f
00000610: 733b 59be 8642 e63f 3b31 97c7 843a de3f
00000620: 5820 a548 0653 e53f 0b5e 1290 3a36 e03f
00000630: 1638 45aa 1004 d43f 8872 2075 153c e63f
00000640: 235f d1cb cee0 b6bf bc30 5c34 9631 b13f
00000650: ad5e 870d 43fa ac3f 5e8e 2ccc ccb2 e53f
00000660: 9c7c 61da 5e45 d73f 52ed 8258 1db9 ed3f
00000670: f952 8c3d 6615 f03f da56 15ef f5df e13f
00000680: de86 4a4f 2687 91bf 649a 6cf9 fa2a e53f
00000690: b83b 21f3 db10 9d3f ca80 0121 e6e2 d23f
000006a0: 9b14 a942 f5da ea3f 812e 90a4 563f d73f
000006b0: 37b9 84da ba58 f13f 7887 21d7 2ac4 dd3f
000006c0: b36a dd00 8cfc f23f 2818 d99b 727f e13f
000006d0: 01cb 7af0 9850 b73f a4bb 85f8 a95c e43f
000006e0: c8bc d9ee 112e e33f 22c1 bec1 51c2 e63f
000006f0: b886 e338 9c08 ed3f 3c31 650f 2537 e63f
00000700: cf66 978f d619 b83f 8935 91fd 3fa3 ed3f
00000710: 822a 2025 a732 c13f 65b3 cd49 f4e6 da3f
00000720: ad4c 839c 9f74 e63f 6925 be51 9dc5 c63f
00000730: 3cca a620 869d dd3f 3d3d 7940 f16a da3f
00000740: 0ca2 e376 554b eb3f d8c3 d230 daa7 f13f
00000750: ad46 d8a1 52cd dd3f eaee 1614 04c7 e23f
00000760: 1236 aa48 b24c c73f 8b12 400f d912 de3f
00000770: 26d7 912d 10cd cb3f c949 f424 1065 d03f
00000780: 3c38 9f6f 5f64 e53f 0535 08dc 0e01 e63f
00000790: 36dd 2e30 7725 d03f 3ff5 8480 e373 e53f
000007a0: bc4b b3d5 9bee ed3f f026 1faf b1cd cf3f
000007b0: 8847 5de6 a847 e83f 2552 8e6e b2ba e93f
000007c0: eb60 ccd6 ed55 d33f c98e b4d4 d62e b23f
000007d0: c4d3 9313 d980 aa3f cdd5 0512 e27c c53f
000007e0: 13fe 9987 93e3 ea3f 9675 8dd6 0bc2 ce3f
000007f0: ac13 ebcb 8e2d df3f a381 0804 5f51 f33f

weight f8 [50, 4]
0.43700835050231285 0.17853224696678227 -0.036458137947733546 0.4931752484842065 0.3746124802553577 0.013397510713610948 -0.3322956584002686 -0.30267102030321075
0.20851581072976114 0.20778104661756838 -0.23203469723790096 0.3474443458108112 0.4630514600769259 0.4112547713246387 0.005694278458952648 0.48763726161027404
-0.37578681608380665 0.26641114555378786 -0.2061899678177932 0.3742284343146412 -0.4046068487764588 0.449337309554569 -0.4013769745774272 -0.07172562280758818
-0.44607240723391345 -0.007555729419442814 0.21601897970426354 -0.42715082948332406 -0.49895163811059934 0.22366642764710926 0.19698800097565278 -0.15275596899175511
0.06107589242518859 0.08964555013894192 0.1970118712895965 0.23838832596018275 -0.5071530193161701 0.148565241204592 -0.1953408168732578 -0.38961489307623337
-0.481003682461529 0.2285655958296979 0.3564258846001617 -0.190991563748019 -0.45938772185377186 -0.22567522628122805 -0.3881363637971885 -0.2884978751366006
0.37259495785142865 -0.07539019718163292 0.45966986909813595 -0.35646598553949194 -0.5207219708548171 -0.015364149722918746 -0.5803624585607158 0.06995325018130141
0.1369283932932062 0.19364307752132034 0.302526497633068 0.04741449484068349 0.46568065979987333 -0.3320880424333269 0.4354660673778355 0.05564127852521897
0.09929219741624361 -0.34746941477524745 -0.07033360425063238 -0.34206380062318936 0.15110557903218724 -0.9717683317629999 -0.19094959626724847 0.6474793757538804
-0.44159554413860674 0.46101996282936564 -0.08495114775362213 0.04589312156446051 -0.3500892747657223 -0.11154545447690986 0.40166336232256844 0.542825815896828
-0.05878471626358805 0.24295960123606783 0.3023119051949982 -0.3501484525854104 0.09695577138251614 -0.11679190443640981 -0.14601155748158623 0.2320706167184884
0.0742326029033699 -0.028403891749112307 0.334529289492148 -0.3643538237913519 0.0958244784766734 -0.07302392328518857 0.02979880470051643 0.3471278535009386
0.48291947669401636 0.5072311255956116 -1.2677322458171947 1.186612930635948 0.12835194102698383 0.448785690315193 0.37179170647950666 0.05090891671210091
-0.15951553569257756 -0.004748079828736838 0.44397939236600076 0.21938232595103888 -0.24082117101726172 -0.29492587528627634 0.147344446635478 -0.13560235050755007
-0.35110164431668905 0.0625209704657672 0.09027203259974302 0.08134869842904911 -0.123879608956081 -0.4044259151266177 0.3601622219692035 -0.13937218459358883
0.2252123309993493 0.3264479907857725 -0.5082336039170365 -0.4187777382951233 -0.476239189026447 -0.2420472255977577 -0.33619149828988776 -0.06178114703365294
0.25325857789673734 0.1905411815870372 0.18384805182615183 0.6960208317938447 0.2448468136897218 -0.09705255988286109 0.33136252081117684 -0.3420359488906684
-0.072730652615656 0.44531613692529376 -0.14627778844668565 -0.25369134063609117 0.41864898844612536 -0.5413613967754168 0.28431276659738075 -0.29115954670659033
-0.34540958046629 0.3245538922224771 -0.2721013055070132 -0.2480160216833255 -0.2303388704202752 -0.379617660908199 -0.019917541401170632 0.18196209081446987
-0.3368794268092031 -0.13200544056596486 0.20903941133071446 0.3711375155559344 0.0142372661449549 -0.3316036325561268 0.4208295317916299 -0.3877073818663388
0.39097277279846304 0.1341203178137758 -0.4364244613125089 -0.47232681512742425 0.38324364792848215 -0.21115843401544263 0.22190881450072594 0.45555297385979737
-0.23908064009010477 0.10610180145728179 0.08195208899613839 -0.4062120368672778 -0.2166280379156741 -0.4897022935736347 0.4451138725209674 0.20802137192999343
0.0019250401596169742 -0.20439183992286417 -0.16899964759374234 -0.21675336746455712 -0.05416199251592534 -0.19002389605325884 -0.32412326901694893 -0.22782038330511198
0.1251087717592114 -0.5289375038604367 0.4410127144704979 0.5487327599370154 -0.1982613207717059 0.2466561685499387 0.02752414736627294 0.12636836071863428
0.07110049139214546 -0.47261839831853975 0.2742820515134677 0.19184082543232558 -0.3416592060599043 0.19580149987390896 0.346291104639406 0.02826664467989753
00000000: 2d20 5fdf f1f7 db3f 107a 0009 25da c63f
00000010: 5e30 511c a4aa a2bf 01ed dbea 2e90 df3f
00000020: 79b1 d79f a6f9 d73f 3ff3 e672 2770 8b3f
00000030: eda4 5b02 5544 d5bf 2f8d 6945 f65e d3bf
00000040: 8941 e465 a5b0 ca3f e5bd f9bf 9198 ca3f
00000050: 2547 161e 50b3 cdbf cc00 9c35 873c d63f
00000060: fe4e 5997 a2a2 dd3f 3673 4a88 ff51 da3f
00000070: fd9a 163c e252 773f fd55 bbea 7235 df3f
00000080: 4344 5625 e40c d8bf e860 5c55 e10c d13f
00000090: 2036 45d0 6e64 cabf b956 a7d1 5bf3 d73f
000000a0: 6ae1 ce1f 14e5 d9bf 4935 5a46 f1c1 dc3f
000000b0: b95b cb0c 29b0 d9bf 2e6b 3e44 9c5c b2bf
000000c0: 03ee 2d48 738c dcbf f41a 10ac c1f2 7ebf
000000d0: a092 928a 82a6 cb3f 02c5 c56e 7056 dbbf
000000e0: 271f fed9 d2ee dfbf da8e fafb 19a1 cc3f
000000f0: 468a f21e e736 c93f fb4f 8bf1 818d c3bf
00000100: fb94 14e1 5645 af3f 9f24 14c2 02f3 b63f
00000110: f768 0e5c af37 c93f 5ba3 df37 8283 ce3f
00000120: bbfa 00f8 983a e0bf c3e5 2592 2f04 c33f
00000130: 61b4 058a ed00 c9bf 6101 f34d 73ef d8bf
00000140: aa61 5bab c3c8 debf b726 8a2f a341 cd3f
00000150: 5f8e 7383 aecf d63f b608 0e5c 6972 c8bf
00000160: f0ef 62c2 9b66 ddbf 5898 3202 ede2 ccbf
00000170: 166d 39e7 39d7 d8bf 1957 abca bf76 d2bf
00000180: af16 a885 98d8 d73f e487 559f c54c b3bf
00000190: 07eb ae2b 3b6b dd3f 62d3 81b5 56d0 d6bf
000001a0: d129 641f c1a9 e0bf b0ec b944 3d77 8fbf
000001b0: 9105 6b4a 5492 e2bf 8210 c7c9 74e8 b13f
000001c0: 6148 8b9d de86 c13f b382 86de 4bc9 c83f
000001d0: 097a 6019 985c d33f cfe9 6471 b646 a83f
000001e0: 1117 0e41 b6cd dd3f 0234 6934 ee40 d5bf
000001f0: 4df4 7911 adde db3f 449a 257f 037d ac3f
00000200: 0797 a6a4 366b b93f 037a 345b f03c d6bf
00000210: 3ff7 1012 6201 b2bf ad9c 3491 5fe4 d5bf
00000220: 8cdb 1778 6d57 c33f eebc 86e6 b918 efbf
00000230: 777c 934f 0971 c8bf 3251 f6aa 26b8 e43f
00000240: f39d 08f5 1943 dcbf ccef c9df 5981 dd3f
00000250: 4906 5cc1 5bbf b5bf a71f 76a0 4d7f a73f
00000260: 0925 73d8 dc67 d6bf beeb fe2e 3e8e bcbf
00000270: 2f51 4b3f dab4 d93f d071 d63e d45e e13f
00000280: efa7 b6c3 0719 aebf 3b70 c7da 4c19 cf3f
00000290: 0a41 8008 1459 d33f a85b 260e d568 d6bf
000002a0: 6b11 3feb 17d2 b83f 9def fd01 13e6 bdbf
000002b0: 0c58 1cb8 81b0 c2bf 0c90 956e 7db4 cd3f
000002c0: 6b55 c469 e800 b33f 86f5 90e8 e815 9dbf
000002d0: aa10 7b89 ed68 d53f 4fcf 56b3 9251 d7bf
000002e0: 67ac 36f9 f387 b83f 2fe3 5522 b2b1 b2bf
000002f0: ff2c 98ee 9383 9e3f 2d4d 94be 5737 d63f
00000300: 9c24 c017 27e8 de3f 1349 fec4 3c3b e03f
00000310: 68e9 7d9b a148 f4bf 4c79 21d7 5dfc f23f
00000320: e264 8b1e d66d c03f 2842 b49d e7b8 dc3f
00000330: 8c39 1071 6fcb d73f a9de b4c8 bb10 aa3f
00000340: 0b74 804c 016b c4bf 98e0 54f9 b872 73bf
00000350: d1d5 938a 286a dc3f 1bdb a355 b814 cc3f
00000360: 530e da66 3ad3 cebf 9e51 46c7 10e0 d2bf
00000370: d5f6 c5cd 2edc c23f 6f67 58f6 6a5b c1bf
00000380: 455e fa07 7378 d6bf 6ff3 76d3 5f01 b03f
00000390: 3f64 c263 111c b73f c72e 53af 44d3 b43f
000003a0: 128e 1bf5 92b6 bfbf 9dea c73b 1de2 d9bf
000003b0: eb31 27d9 e50c d73f d598 669f f2d6 c1bf
000003c0: 3329 26f6 c1d3 cc3f 7144 111d 86e4 d43f
000003d0: 14a9 711e 7343 e0bf 424e 9124 41cd dabf
000003e0: 384c 7cef b37a debf e0d3 034b 67fb cebf
000003f0: ad4a 9658 2984 d5bf 27ae 094c c7a1 afbf
00000400: 80de 5f77 6335 d03f 1690 ba47 a763 c83f
00000410: c868 033d 5588 c73f fb74 bc7a cd45 e63f
00000420: 63e0 a9f0 2357 cf3f dfa1 b0c2 6fd8 b8bf
00000430: 9143 8025 0b35 d53f 01ac a2bf eae3 d5bf
00000440: 96a6 66de 799e b2bf 9769 1e41 0f80 dc3f
00000450: 8e3e c106 3bb9 c2bf b7dd d39a 7a3c d0bf
00000460: 354b 7820 25cb da3f 15f4 ce22 d552 e1bf
00000470: fbbe 972c 2e32 d23f ab78 c1a6 5ba2 d2bf
00000480: 9cfa f4c8 301b d6bf a0a4 38b0 7dc5 d43f
00000490: 697f 1698 1b6a d1bf cdc7 012f fdbe cfbf
000004a0: e3f0 b97d be7b cdbf 416c a5df a74b d8bf
000004b0: 1f30 bd93 4365 94bf 9778 94a6 884a c73f
000004c0: e5ce 35ba 6e8f d5bf 6cfc 0fe5 8de5 c0bf
000004d0: 0cc9 9ead cdc1 ca3f 5769 e890 b7c0 d73f
000004e0: bcf4 d083 6d28 8d3f 2e0e 4471 fe38 d5bf
000004f0: 531b 0ffd deee da3f 4828 629f 32d0 d8bf
00000500: ffee 32aa b205 d93f 2aa1 5ec5 da2a c13f
00000510: c2be 20dd 60ee dbbf 84c0 ff3f 9a3a debf
00000520: 172a 905d 1087 d83f a779 2f54 3d07 cbbf
00000530: 8fc4 7c0e 8267 cc3f 23b2 14a9 c727 dd3f
00000540: 7c99 25c5 319a cebf 0a43 4ed7 7c29 bb3f
00000550: a9c9 13e6 cffa b43f 4a89 65c5 60ff d9bf
00000560: bc4a 1fb1 77ba cbbf 6a32 eb49 4857 dfbf
00000570: 4d4d 5ee5 be7c dc3f ce78 a7be 71a0 ca3f
00000580: fbd0 db21 348a 5f3f 29dc 0406 8329 cabf
00000590: d9ae b9cb c7a1 c5bf 3d71 4708 93be cbbf
000005a0: 9f8d 15e5 1ebb abbf 93ed 80f9 b352 c8bf
000005b0: d939 1386 6fbe d4bf 8f2d d4e3 3729 cdbf
000005c0: 6703 9371 9003 c03f 9eab 1658 0eed e0bf
000005d0: a557 7164 8d39 dc3f ad8b 4501 388f e13f
000005e0: e95b 6380 a060 c9bf d1aa a3e8 6d92 cf3f
000005f0: 5c59 2743 4a2f 9c3f ae90 44a4 d62c c03f
00000600: 5740 424d a433 b23f a106 113d 613f debf
00000610: 1154 484e d68d d13f 6f7e a27b 3d8e c83f
00000620: 32e5 1993 bedd d5bf 05ac 3b07 0610 c93f
00000630: 099b 542a a229 d63f 2f0a df69 eef1 9c3f

bias f8 [50]
0.11100288794620343 -0.4059051333886563 0.4458729240367618 0.09780383604229573 0.39977041856578055 0.3534795513544566 -0.44702363738991124 0.16859026960486911
0.019007215419872336 0.09744151897796245 -0.3145987583668843 0.3859666101842075 0.36150012501011075 -0.22956399217767512 0.2212836584935639 -0.03655986788297946
-0.47796676858983467 0.15013028664571137 0.14088346934584617 -0.07315481762954658 -0.10223263627007896 0.4208098781952347 0.35879847787654007 -0.272948441962396
0.06514461694701566 0.2174635865509701 0.29835779646640753 0.21650270866968463 -0.4731375103556176 0.3264690416702566 0.019550083810750365 -0.08936554938474103
0.17649495664524262 -0.2904681109782238 0.1769135366929951 0.20551087232789741 0.4692447039904281 -0.2629970425868533 0.35086065041579184 0.4414918749174443
-0.2704435978488441 -0.2617123069003071 0.006545014536354196 -0.3801501637266957 0.2897328124852285 -0.24239446091195638 0.021894843352746853 -0.0753403353933176
-0.36577545620730856 -0.18089737343782072
00000000: 2b91 7d6d af6a bc3f f0b2 4b86 59fa d9bf
00000010: e839 ba96 2e89 dc3f 029a 3915 ac09 b93f
00000020: 127d 69aa d695 d93f 33d1 37b2 689f d63f
00000030: 803b c807 099c dcbf e038 30af 5d94 c53f
00000040: f32b 77a2 a076 933f ed6c 4869 edf1 b83f
00000050: 0312 a3d4 6222 d4bf aab4 054c adb3 d83f
00000060: 0ac6 9a6b d122 d73f 2904 5f57 5a62 cdbf
00000070: 543e 2fde 0553 cc3f 9c94 ce99 f9b7 a2bf
00000080: cec2 eaed 0197 debf dc26 a41f 7837 c33f
00000090: 3c97 b132 7808 c23f e984 432d 46ba b2bf
000000a0: 7125 5d05 eb2b babf 6baa 2b8e 8cee da3f
000000b0: 7c65 15e4 8df6 d63f d03f eebd fc77 d1bf
000000c0: d741 4c4f 51ad b03f 0455 27c8 d8d5 cb3f
000000d0: 2d1c 954c 4b18 d33f b6a8 9d5a 5cb6 cb3f
000000e0: 4e3f 5f8d e247 debf 6a55 4868 dee4 d43f
000000f0: 54a9 67ea ef04 943f f61c ff1f a9e0 b6bf
00000100: f4a1 5901 6397 c63f f2ab 4b8f 0797 d2bf
00000110: 4a76 284f 1aa5 c63f c374 cf25 2e4e ca3f
00000120: 1b72 5df0 1a08 de3f 7cbc 368c f1d4 d0bf
00000130: a84d bf3a 8074 d63f df16 0e23 6741 dc3f
00000140: 5a18 0baa f24e d1bf 003e c6f9 e4bf d0bf
00000150: 3df3 2af6 f1ce 7a3f ef9c 315a 6154 d8bf
00000160: 23f0 8c7e fb8a d23f 7898 2c1d c806 cfbf
00000170: 87b7 9a10 9a6b 963f 157f 9514 8149 b3bf
00000180: 70c0 8575 dd68 d7bf b782 6c27 a527 c7bf

weight f8 [50, 50]
0.09852971048091648 -0.03209226722383092 -0.09338021667194404 -0.12434492691970819 0.08361422953515843 0.0015150023883776793 0.1008829747832439 -0.13097626341721758
0.053291958693873175 -0.10409047381401279 0.007564546027157426 -0.10469016875015365 -0.11872609511425743 0.11264374290470201 -0.04478477586607599 0.11540418302846489
0.13879570720192974 0.13272261024188542 0.07434968038361468 -0.07496399617115838 0.004776965796020472 0.12593632667986676 0.004850348250915151 -0.07528627423025659
-0.12209552115204488 -0.02509203764184155 -0.04888784269429272 -0.11989704966551329 -0.0469808114352997 0.06899733819221421 -0.004665482347031744 0.020276530221117906
-0.12781455568588648 0.06946624369395869 0.137176399754807 0.03447989923107362 0.09394459773820553 0.0031879217927120113 0.030287262678012003 0.06173765209161929
-0.05143990353082051 -0.08852105935869263 0.016121911980076602 -0.1154875717738758 -0.03170036753337692 -0.011278662939706885 0.09472181465149994 -0.06460668975131702
0.13626767035457385 -0.12022564687616372 -0.1340116704651336 0.034229532526595115 0.03302280951548736 -0.04687439071721063 -0.09555361588791786 -0.08443603133031978
0.09288735896348929 -0.12938287848452598 -0.06971019359837255 -0.0044656869705901265 0.09524367867887104 -0.013077217709334317 0.0428834580054616 0.0183630190507908
0.04865075022924878 0.001333337724998028 -0.13585945842255423 -0.10562777486900801 0.09183765326764413 -0.05059533254460123 -0.11921988200888657 -0.06015111914036384
0.09711643966271959 0.10245415105482202 -0.020707664880258277 0.11543184425658921 -0.08173446561496296 -0.13214052823885852 0.06426805064857516 0.09040775698843233
0.07059376319353897 0.07870540469419837 0.022752826353009365 -0.04030486081643022 -0.0781426453907307 -0.09927990380600649 -0.09102427698130994 0.030055572398096312
-0.0936147861214894 -0.02969086607957966 0.12415842299907337 0.007617898350066912 -0.10653726967639478 0.01795977375035076 -0.016919363395807796 0.050638254271991895
0.12678811524636838 0.08776472940948443 -0.0200141041670807 -0.02717971871495647 0.019556067465057256 0.016898884175147105 -0.06042796725576145 -0.015518087626318788
-0.10715046292471588 -0.0426107196548671 -0.06063266859934895 -0.0394388649003077 0.03160916661688515 -0.025136515165892544 0.0964434181130722 -0.06886944817184357
-0.09887563417969975 -0.048407678514123774 0.04466759914721542 0.09566983733300682 0.0535190371139125 0.09958619121051122 -0.019946724206437106 0.04920056083760296
0.051248125506221966 0.08664249313975285 0.07887068035820015 -0.049148450968193785 0.11560304051310083 0.0388390010369027 -0.13612642046571796 -0.06477320976814363
-0.05907234113924034 -0.09043055688305042 -0.06460737905117933 -0.12002760636789979 0.010826082418812276 0.09516380600397079 0.09571100878851674 0.11321629429610743
0.028970237104210827 0.10814495018823264 -0.1275916522991027 0.06916197626168816 -0.11316479392092375 0.12170494517961793 -0.0833118057071277 0.08850379941146708
-0.1189383802018221 -0.10796883606785887 0.06172328894244363 0.10332238729840466 -0.05401443791722028 -0.12133247568715821 0.04149823688622274 0.005811371725754454
0.13324319214376038 0.046575110363975145 0.08117403638698996 0.15172050232995152 -0.04043499222716632 -0.055553199150365475 -0.12602985822905546 0.14623839981930054
-0.029727823287540683 0.09201902573165341 0.030240310654986866 0.0389524338988726 -0.010597483129475005 -0.08345810401228265 -0.11466675218245678 0.009243528571805727
0.06211049960624124 -0.04558035707045379 0.08352599557400639 -0.008791404746231983 -0.08890200241790382 -0.05502696844005081 -0.2571178424455904 0.0764734138959898
0.014582841313739853 0.10729060167141652 0.026832552882233886 -0.09394385675400259 -0.030820680417440478 -0.06725241028881702 0.14906115110308155 -0.03350696045785344
-0.10695615003669363 -0.027474416235276477 0.10137372827464196 -0.00816809459037908 0.00038079436044242867 -0.10204432662125423 0.11225626564200489 0.0544602956364159
-0.13446335339116683 -0.0010035363725004885 0.11241889886909423 0.08076363156693751 0.0855001089657647 -0.026285037392287085 0.04400662522396108 -0.04991578486391332
0.11285215917917871 -0.07753691969459728 -0.09713593748738143 -0.03262114805668155 -0.0201818165605872 0.17180913450006796 0.09872082671980649 0.15392920210840458
0.10522197225973895 -0.03694007504354008 -0.07054729981943345 0.1044168128282882 0.1099295226141293 0.2951730858558771 0.10174896861717457 -0.14276496281584816
0.08805752054818475 -0.1078516270091792 0.09488437743328072 -0.057513089046764734 0.10780229955934728 -0.04679923355403984 0.09492659856411637 -0.10354001620839212
-0.036366084274041664 0.09637030155631363 0.054788727840856484 -0.04301409880334222 0.009292040483138584 0.0040140997295291456 -0.13284869290721607 0.1378593093174437
0.10641622703510416 0.048566951725382355 -0.08328725501483644 0.13683312739438605 0.0037782822668622797 0.13689247483161499 0.059752840907478594 -0.1037032726867221
0.01814130201607307 -0.05103319121686364 0.15761176297422805 -0.03375330091981285 0.060652987819129985 0.13938756333070293 0.07630024335912183 -0.08571395577737126
0.1414014850183982 0.1309493499279658 0.09905197656001122 -0.1273160003521222 -0.12319816134392017 0.035118865977377046 0.08077916592065594 -0.10371673215394779
00000000: a52b 333c 3e39 b93f ea97 5ccc 656e a0bf
00000010: 760b b310 c4e7 b7bf 162d 8bb2 11d5 bfbf
00000020: 2a70 55fd bd67 b53f 834c 886d 61d2 583f
00000030: 46cf 6a75 77d3 b93f 08f1 f687 d4c3 c0bf
00000040: 63be 7567 1549 ab3f 6638 db5c aca5 babf
00000050: 264d bb5c 00fc 7e3f 25a0 fe92 f9cc babf
00000060: bd90 b257 d564 bebf 1fee df67 38d6 bc3f
00000070: 602f 68b7 07ee a6bf 70c9 ede7 208b bd3f
00000080: 1af5 a0c7 0ec4 c13f 16de 36f3 0dfd c03f
00000090: a936 b7a5 9408 b33f 83be ee27 d730 b3bf
000000a0: 6767 e3fd 0291 733f 88f4 3b7a ae1e c03f
000000b0: 9c4e ca71 f5dd 733f 8919 a815 f645 b3bf
000000c0: 3d0b 56ee a641 bfbf 0431 3f24 bab1 99bf
000000d0: 8484 16cb d307 a9bf b844 33b3 92b1 bebf
000000e0: 69ed 4e71 de0d a8bf c0ee 0b3f cfa9 b13f
000000f0: caeb 9be1 1c1c 73bf 4d48 b4e8 5ec3 943f
00000100: dfd3 4f34 3a5c c0bf c76d d72c 8ac8 b13f
00000110: f86d 5d0b ff8e c13f 6d38 226f 59a7 a13f
00000120: 59e5 ebce c00c b83f 32e0 f07a 8e1d 6a3f
00000130: cceb bfca 9f03 9f3f 3fa6 54d9 139c af3f
00000140: 30a0 bfbe 5456 aabf 9bee f3ee 50a9 b6bf
00000150: 3b4d d032 4382 903f e7fd dcef 9790 bdbf
00000160: 0271 a7d3 073b a0bf adca bf83 4419 87bf
00000170: 055e 2558 b03f b83f 89b0 9563 108a b0bf
00000180: 8366 d611 3871 c13f bc3b 79a5 1bc7 bebf
00000190: cb0c f75e 4b27 c1bf 01a8 8485 8886 a13f
000001a0: 7838 c89d 5de8 a03f 1bfa 4c8e ebff a7bf
000001b0: a6ce 40a7 3376 b8bf fbf1 2a89 999d b5bf
000001c0: 7ec2 f548 77c7 b73f cb6e e03f 9e8f c0bf
000001d0: 3ced b3f9 86d8 b1bf f9be e2b7 9c4a 72bf
000001e0: 6e94 13c5 e361 b83f 71f8 1273 3ac8 8abf
000001f0: 667f 5813 d2f4 a53f b1aa 1d59 c1cd 923f
00000200: 7c2b 524a c0e8 a83f 93d0 187b 6cd8 553f
00000210: 6579 63bd d763 c1bf 7294 9cfe 6b0a bbbf
00000220: 6f6f 5325 ac82 b73f 0ef7 37a5 a1e7 a9bf
00000230: 81da 42b6 3185 bebf 9d23 0da3 20cc aebf
00000240: d35d 417c 9fdc b83f 0fb2 1e6c 6f3a ba3f
00000250: 12bb bfdd 6334 95bf 85bf fffb f08c bd3f
00000260: 9db5 c5c8 8cec b4bf 3e8b a117 fbe9 c0bf
00000270: f49a b6f7 de73 b03f a3ed 9177 f624 b73f
00000280: f2c2 37d0 6e12 b23f 3e16 2e93 0926 b43f
00000290: a59b 4f54 844c 973f db1d 27b6 d6a2 a4bf
000002a0: f948 600a 2801 b4bf d82f ff63 686a b9bf
000002b0: 84da c6f4 5d4d b7bf 61ae 0c52 e3c6 9e3f
000002c0: 4557 d07c 23f7 b7bf 90f3 344b 4867 9ebf
000002d0: f4cf 4dae d8c8 bf3f a9d3 7104 f233 7f3f
000002e0: 19b4 10c9 0646 bbbf 86f2 9a03 0c64 923f
000002f0: 8008 d141 4f53 91bf 64aa 0cdc 41ed a93f
00000300: c197 40cc 973a c03f a857 8ed2 bf77 b63f
00000310: bce6 6ccb 937e 94bf 371a fb0b 00d5 9bbf
00000320: 099c cd78 8106 943f 6b0e 7ceb f04d 913f
00000330: 7a27 411e 6af0 aebf 00e0 cf76 f2c7 8fbf
00000340: 694e 0376 366e bbbf 05dc c07e 12d1 a5bf
00000350: 5725 68c1 3e0b afbf a359 e0b5 5431 a4bf
00000360: fc25 bfa1 132f a03f 9faa 4afa 62bd 99bf
00000370: 0ec9 b50e 84b0 b83f 6675 979b 6da1 b1bf
00000380: 544e 2cdf e94f b9bf d3d7 2f28 e4c8 a8bf
00000390: c266 0eeb abde a63f 5814 8f86 d17d b83f
000003a0: 833e 3ce4 d866 ab3f 95e1 610a 7b7e b93f
000003b0: 0d13 8400 ea6c 94bf 0317 7cdf d030 a93f
000003c0: 35a1 0fbe 313d aa3f 1ba9 7ad2 332e b63f
000003d0: fb71 c070 de30 b43f 546a 1d5b fc29 a9bf
000003e0: 146a 522e 2998 bd3f aa8e 869e b4e2 a33f
000003f0: 77ca 022e 976c c1bf aa72 9c21 fa94 b0bf
00000400: 3417 95da ba3e aebf 452c 5ffc 7426 b7bf
00000410: 3ae7 1af4 1b8a b0bf 61a0 f713 21ba bebf
00000420: 9ff6 752f fc2b 863f 10c9 8cba a75c b83f
00000430: 2425 9d44 8480 b83f 9d47 6039 befb bc3f
00000440: b307 aeb3 5faa 9d3f d637 4930 63af bb3f
00000450: 0602 ef5a ec54 c0bf 9eb1 2b6a 99b4 b13f
00000460: 33ee f230 5ef8 bcbf 9fd4 4e27 0e28 bf3f
00000470: 7800 e228 ec53 b5bf 4443 0b5c 2fa8 b63f
00000480: 06bf 34e5 be72 bebf 360d e67b d8a3 bbbf
00000490: d396 d1e6 319a af3f d52b 6402 5673 ba3f
000004a0: 8189 bbc8 c7a7 abbf 18e1 0427 a50f bfbf
000004b0: aa35 89c4 413f a53f 32bb 1c38 aacd 773f
000004c0: 3507 56e8 1c0e c13f 4648 a45f b1d8 a73f
000004d0: f101 9157 d2c7 b43f 11e6 d1d1 936b c33f
000004e0: 659a 7532 e5b3 a4bf 1df7 130b 7871 acbf
000004f0: 55e7 b413 bf21 c0bf 9c56 529c f0b7 c23f
00000500: 0b7c 3473 f870 9ebf 6692 2012 8f8e b73f
00000510: b9dd 22e5 50f7 9e3f 11f9 63cb 92f1 a33f
00000520: 6024 b01b 22b4 85bf c4a4 51a3 825d b5bf
00000530: 96eb 8fde cc5a bdbf 670a 5367 45ee 823f
00000540: ec13 1889 f2cc af3f bb4a eafd 4e56 a7bf
00000550: ce2f 5bab f561 b53f c9bc f75e 3a01 82bf
00000560: 290e ef18 48c2 b6bf 9c32 b2ab 7e2c acbf
00000570: ab66 2165 9e74 d0bf 165e b2fb c293 b33f
00000580: f0c0 33d4 9bdd 8d3f 3cce 5899 6577 bb3f
00000590: eab8 6324 fe79 9b3f 1526 6b60 b40c b8bf
000005a0: 85c6 bbd9 748f 9fbf 4184 c436 7437 b1bf
000005b0: bac1 8b90 6f14 c33f 56ae b506 d327 a1bf
000005c0: c57f 836e 7a61 bbbf 432d d4dc 4022 9cbf
000005d0: 37f9 9cef a0f3 b93f 182b 1719 6fba 80bf
000005e0: ee14 1953 abf4 383f 1ca4 94b5 931f babf
000005f0: 8a18 b49d d3bc bc3f 36b7 6049 38e2 ab3f
00000600: b2ab a95c 1836 c1bf c277 9df9 2271 50bf
00000610: e457 1826 7cc7 bc3f bd43 49e4 ecac b43f
00000620: 2bf9 cfcb 55e3 b53f eb62 e5ff 76ea 9abf
00000630: 06da 4950 0988 a63f 3ce0 16cf 8f8e a9bf
00000640: 9222 f50c e1e3 bc3f c624 52a6 75d9 b3bf
00000650: 6d4c c69a e6dd b8bf 9a72 1f18 b8b3 a0bf
00000660: 0e08 68c8 8aaa 94bf 4c7a ea7a d7fd c53f
00000670: 3d16 32a2 c445 b93f 853c 7abc f3b3 c33f
00000680: 501b adc1 d3ef ba3f a894 723c cfe9 a2bf
00000690: b2aa 8b49 630f b2bf 5903 406c 0fbb ba3f
000006a0: 9419 7e58 5724 bc3f de43 9aa7 1de4 d23f
000006b0: 7bcc 9c6c 380c ba3f 4484 274f 1f46 c2bf
000006c0: 6ada eb0a f08a b63f 1327 d30a 2a9c bbbf
000006d0: c92d fab1 574a b83f fa77 1809 5b72 adbf
000006e0: 707e 0a77 ee98 bb3f d457 2fb3 11f6 a7bf
000006f0: 7278 5a0c 1c4d b83f 1e3e 7137 9981 babf
00000700: 43fb 474d 939e a2bf 4672 7d5d b9ab b83f
00000710: 1927 88a4 440d ac3f 3729 41a7 f105 a6bf
00000720: 3fcf e78f b407 833f 78b7 fab0 1671 703f
00000730: de29 ad9b 2f01 c1bf 4bd9 7bb4 5fa5 c13f
00000740: d325 e106 183e bb3f 1b63 a77a c4dd a83f
00000750: 8e5b 7644 5052 b5bf 858a 9577 bf83 c13f
00000760: 08eb add8 a1f3 6e3f 7232 3c4f b185 c13f
00000770: 24d8 14a3 ec97 ae3f e979 ad34 4c8c babf
00000780: 94ac 762b a293 923f 4bea 92be 0521 aabf
00000790: 2338 b84b 9f2c c43f 2c50 2ad7 1c48 a1bf
000007a0: a1fa 2c8e e80d af3f 59bc fca0 73d7 c13f
000007b0: 347e e7a9 6988 b33f c6e5 df8c 59f1 b5bf
000007c0: e742 e1a0 7119 c23f dcc0 afc3 f2c2 c03f
000007d0: 9aed ed67 785b b93f bc8b e204 e44b c0bf
000007e0: 9243 e629 ea89 bfbf b5dd b099 19fb a13f
000007f0: d9ce d383 f1ad b43f cd31 a604 2e8d babf

bias f8 [50]
-0.0773323198355726 0.09861353377515589 0.03435762652461111 0.008745844781109513 -0.001586976766757731 -0.015434517017244607 -0.045572405279976934 0.002987878152348274
0.03483588113691344 -0.11136251540711124 -0.10908511392444312 -0.07857352709327163 0.1410781556512994 -0.05489556387613343 -0.00039249382518720405 -0.10356742124900087
0.17359606277783812 0.03309083048418638 -0.0031225898184065615 -0.13095782075739282 0.13134834158887138 -0.10769891727058785 -0.09689383643683352 -0.10866975494261615
-0.09985774939133077 -0.08192262243481799 0.03598010398289168 0.026944993560491595 0.00987798701416797 0.014704662252653766 -0.03149366630993379 0.026978867940170695
-0.09530473440515601 0.06336302488407966 0.09859423500079043 -0.06360671555362579 -0.1118054703876265 0.11554621059162637 -0.1041859373986129 -0.12830824736643795
0.01222379347091703 -0.09319697918348559 0.12124382268221219 -0.019909321313565338 -0.10820482247034843 -0.1323786525092842 0.1276810138067959 -0.01915725515217399
0.029837204624199126 0.13206075777950707
00000000: cc1a 9e08 0dcc b3bf 7edd 818e bc3e b93f
00000010: a830 95a4 5297 a13f 806e 7c6a 57e9 813f
00000020: 02df 0354 4300 5abf 3289 8cce 219c 8fbf
00000030: 2b1c 8e2c 4455 a7bf 4450 5cde 087a 683f
00000040: c8b7 6b34 02d6 a13f b580 acf9 4082 bcbf
00000050: e231 c984 00ed bbbf bb6c 3209 651d b4bf
00000060: e6e5 5958 d90e c23f f941 1677 451b acbf
00000070: 01a5 9f24 f4b8 39bf 380d 32ff 6483 babf
00000080: c82e 2c52 6538 c63f 4141 7405 48f1 a03f
00000090: 649d c3a4 8b94 69bf b47a a7d2 39c3 c0bf
000000a0: 6e07 c1bf 05d0 c03f 95e5 7dff 2792 bbbf
000000b0: d41f aed2 08ce b8bf 93f9 8af3 c7d1 bbbf
000000c0: 5a4f e307 4790 b9bf 42fc 2888 e1f8 b4bf
000000d0: d58e d3f3 fb6b a23f 9770 88e8 7797 9b3f
000000e0: bcc8 68f9 e83a 843f 407e ca5b 7a1d 8e3f
000000f0: 9223 aa15 f01f a0bf a4cd f12d 59a0 9b3f
00000100: 8b92 6c1d e465 b8bf 0a1b a727 8f38 b03f
00000110: 6e0c e7c6 783d b93f 24da 1b9b 8748 b0bf
00000120: 1c29 d486 489f bcbf 96f2 aabb 6f94 bd3f
00000130: 6e84 d4f9 edab babf 9b7a 1f97 676c c0bf
00000140: eb71 86c9 c908 893f 19d7 add9 c1db b7bf
00000150: 951a 43cd d509 bf3f 1593 b5ef 1b63 94bf
00000160: fe95 c7ad 4fb3 bbbf 66a3 9b9f c8f1 c0bf
00000170: 6966 4ff9 d957 c03f 1359 70a1 f59d 93bf
00000180: 1b8e 42e8 a48d 9e3f 2bbd dfed 5de7 c03f
