lasa_models/2/skel_model_Spoon.pt (torch, 99247 bytes, 18 tensors)

R f8 [20, 20]
000000 34 55 51 bb 4f 69 da 3f 5c 40 c8 ef 22 0b e8 3f
       0.41267770092720757 0.7513594325300903
000010 f6 44 38 68 40 5b e0 3f 7a 99 8f f8 e2 6f e3 3f
       0.5111391101401341 0.6074080328660749
000020 f6 20 2c 65 da 95 e0 3f 93 58 a7 be 0f e3 d6 3f
       0.5182926155112273 0.3576087343075269
000030 ff 57 76 2b df 31 e0 3f 5f 0b 6a 77 7a 5c df 3f
       0.5060878609535847 0.4900194326548241
000040 49 27 d4 17 fe 92 e9 3f 78 46 0a a2 47 09 e3 3f
       0.7991934266476416 0.594882790074009
000050 d7 a8 2e 56 7c c7 e2 3f bd 31 01 5c bb 05 e0 3f
       0.5868512805220928 0.5006996914831273
000060 a0 98 b2 3c b7 32 e7 3f 9f 20 6d e8 50 11 93 bf
       0.7249408898831184 -0.01862074297540117
000070 fc a8 f1 ef 80 b0 e8 3f 17 86 2b c8 b2 28 e6 3f
       0.7715458570867493 0.6924680623598672
000080 2a ac 0a 83 93 99 d8 3f 57 d2 1a a4 d8 43 da 3f
       0.3843735484794616 0.41039100671631473
000090 74 c0 38 c9 7d e3 e0 3f b8 d8 10 e7 b4 3f d4 3f
       0.5277699403868739 0.31638834538479044
0000a0 5c b8 6d 5a 65 9f dd 3f ea 11 d3 3e ac a8 e0 3f
       0.46285375433843057 0.5205899455109464
0000b0 2b a2 ba d9 9b c8 d3 3f eb 34 c5 9f 13 85 ce 3f
       0.30911918890572804 0.23843617726598806
0000c0 a9 21 76 fd ee 4e ce 3f 8e d1 e5 4c 9b 0f e0 3f
       0.2367838609318487 0.501905107680203
0000d0 66 45 4b 25 ff 58 e5 3f e7 81 48 50 cc 86 b7 3f
       0.6671138504408816 0.0919006057743058
0000e0 4d 48 6c 6f d5 5c e7 3f 10 c1 64 69 91 19 f0 3f
       0.7300822426061672 1.006242191022526
0000f0 59 cf f7 82 d7 37 e8 3f 6f 2b 43 e8 bb df dd 3f
       0.7568166311234378 0.4667806404292411
000100 39 b7 02 7e e2 ac e5 3f 67 a6 8b f3 90 f4 d7 3f
       0.6773540936608021 0.37430213721982003
000110 5d 06 90 d5 c7 37 a6 bf 6d c7 8e 28 b1 3c ca 3f
       -0.04339432222333237 0.20497717361791548
000120 d1 40 54 e2 69 04 e4 3f a5 8e e8 64 a5 5a df 3f
       0.6255387707224377 0.4899075971063474
000130 1c 48 95 30 2b 4b e1 3f 31 64 f7 e8 6d 3e dd 3f
       0.540425867928437 0.45693538427946395
000140 68 a4 1a fc 3d 76 e6 3f 02 2d 16 82 28 2c e9 3f
       0.7019338535220756 0.7866404095415478
000150 d0 ca 4a 48 ff 33 ca 3f 56 f1 6c 9d 06 cc ea 3f
       0.20471182851686942 0.8374054980009003
000160 23 de 00 48 8d fd d9 3f f8 a9 6d 04 cf 03 e9 3f
       0.40610057860928545 0.7817149244777388
000170 bb b5 cd ce 10 6a e5 3f d1 fc f7 b5 75 22 e3 3f
       0.6691974677211684 0.5979565195156288
000180 75 2f 5f c1 9a cc e0 3f 40 6a 59 40 03 bf ec 3f
       0.5249761368554419 0.8983169800588442
000190 2b fb 8a 54 ad 1c ee 3f e0 f9 59 5e a0 73 e7 3f
       0.9410006190517824 0.7328645556261186
0001a0 b9 57 e7 3e f2 ef e9 3f 16 32 1c 68 2a 70 e4 3f
       0.8105403164470238 0.6386920960808904
0001b0 2e 0c 7e 31 00 e5 db 3f 8b 81 ae 36 8b fb e1 3f
       0.43585209687461457 0.5619560306550268
0001c0 1f 84 05 5b 97 2d c0 bf 1b 48 9d a2 b0 3e dc 3f
       -0.12639133400355804 0.4413262928038663
0001d0 42 78 e6 0c 9d 4a 8c bf db 3f ef 24 57 97 dd 3f
       -0.013814188915429185 0.4623620854081289
0001e0 11 57 a9 22 32 f0 dd 3f 6d 74 21 64 38 99 de 3f
       0.4677853907099783 0.47810182360064496
0001f0 55 78 06 ba 68 0b eb 3f 72 87 6b 3c e3 64 d8 3f
       0.8451427110010267 0.38115769291299906
000200 18 88 48 ff 83 d3 f1 3f 05 b0 00 6a 33 5a da 3f
       1.1141395542149493 0.4117554221327285
000210 05 23 01 56 5b b1 eb 3f d5 00 90 51 4e 2c e0 3f
       0.8653999976896506 0.5054084389703585
000220 0b 8e 8b 85 be ff e2 3f 7c ab 0f 8e 2a ff d4 3f
       0.5937187774947587 0.3280741107288845
000230 06 bd 4e 36 2b 56 c7 3f d5 4f 6b be 0a 33 a7 3f
       0.18231716300713446 0.04531129431202855
000240 bd 0b e8 91 60 21 da 3f cc 84 03 83 80 58 de 3f
       0.40828718422579496 0.47415173334418337
000250 60 49 53 22 a9 9d d6 3f 32 d7 cc 15 00 4d e0 3f
       0.35337284423908066 0.5093994546684597
000260 a5 67 4e ef 2b 18 eb 3f c8 0b 6c 33 4e 82 cd 3f
       0.8467006372404638 0.23053910742609518
000270 57 e7 b1 f6 db 8e e8 3f e7 9c 16 e6 62 2a e1 3f
       0.7674388712177728 0.5364241117394187
000280 d0 b5 08 52 93 00 e8 3f c8 b0 ac fd 24 be e7 3f
       0.7500702478625332 0.7419609980184072
000290 90 8f 8d 11 d0 57 ec 3f 8a 8b a9 49 93 2c e3 3f
       0.8857193320113641 0.5991913260189545
0002a0 86 c2 0c 62 92 31 d2 3f 0a 6a 38 19 e2 dd ea 3f
       0.28427562308483123 0.8395853512368501
0002b0 d1 16 55 f5 96 b8 f1 3f b4 df 49 db 8f ad e3 3f
       1.1075658400817938 0.6149367602329137
0002c0 6c e8 96 07 07 9c f1 3f b3 aa 4a c3 b5 89 f2 3f
       1.1005926414932459 1.1586206081944226
0002d0 12 82 c2 ca 5b 01 ed 3f fa 9a 99 5d 0a 46 c8 3f
       0.9064158401634492 0.18963746614755178
0002e0 63 c0 e2 71 28 d9 cf 3f 0b 4f a2 98 4e e7 ee 3f
       0.2488146358568911 0.9657357197888542
0002f0 13 b1 36 cf ab 36 e9 3f 88 45 92 ea 15 c1 d4 3f
       0.7879237219945331 0.3242850104080266
000300 bd ca c3 fb 6e f7 b8 3f 1f 4b e1 49 f6 63 d2 3f
       0.09752553602792609 0.2873512002453697
000310 e1 d0 e1 68 99 f2 ec 3f 9e 60 b0 86 64 c1 df 3f
       0.9046141670683278 0.49617875245304244
000320 71 2f 31 40 e3 92 de 3f 9e 34 2b 8f 09 a4 eb 3f
       0.477715313613536 0.8637740894570418
000330 77 08 6e 7c 94 8b c8 3f fb 5a 46 23 ba fd e1 3f
       0.19175964427637712 0.5622225464784089
000340 ab 66 1a de 2e d7 d9 3f c8 b0 14 09 5d ae e6 3f
       0.4037587326980467 0.7087845971450628
000350 95 f1 a4 6e df 13 e3 3f b2 21 e3 3d db fc d7 3f
       0.5961758767148689 0.3748081306808003
000360 d5 c8 98 5a 86 0a e4 3f 2e bd ed 60 56 2c dd 3f
       0.6262847680539162 0.4558311411446593
000370 ab 4c 64 b5 5f ad e7 3f 77 45 29 8d cb 37 f0 3f
       0.7399138014610761 1.0136218561277397
000380 3e 8a 98 2b 9e 7b e6 3f ba 08 86 8a 7e 61 e3 3f
       0.7025900699121121 0.6056511598146905
000390 a9 68 86 8e 67 44 d6 3f 68 4f 2b b0 50 98 e3 3f
       0.3479250804754295 0.6123431626133256
0003a0 7c b7 62 00 3c 52 f0 3f 97 38 00 a0 de 5c f0 3f
       1.020076753145502 1.0226732492479067
0003b0 b2 2b d7 f5 d6 95 d4 3f 8c c1 e7 f7 28 ba 95 bf
       0.3216454888139949 -0.021217956667841473
0003c0 02 b1 68 c7 be 3d dc 3f 82 24 2c c5 8d d8 e3 3f
       0.4412686297753369 0.6201847888015808
0003d0 27 36 fa 62 aa df ef 3f 2f a3 df 57 4c a7 df 3f
       0.9960529263641477 0.49458607274441396
0003e0 83 55 b6 3c e5 ea e9 3f 1d 15 42 37 24 40 f0 3f
       0.8099237619195921 1.0156595381279836
0003f0 5a 9e c6 2b 16 eb ed 3f f1 a5 15 64 05 34 de 3f
       0.9349470953938621 0.4719251134289087
000400 3a 0e 04 c6 17 5c e3 3f 0e 5e 25 ca 95 3d 7a 3f
       0.6049918048378864 0.006406388393166219
000410 d6 f0 65 b2 f0 0d a2 3f 7f 15 b4 b7 7c 83 e9 3f
       0.035262605454563875 0.7973006809194628
000420 56 35 f9 5b 7e 45 e2 3f dc 83 cc b2 7a f9 e5 3f
       0.5709831043583715 0.6867040149846804
000430 2e 2b 49 e7 12 31 d4 3f 63 e3 b3 20 f2 6f ef 3f
       0.31549522959237464 0.9824152601932891
000440 0d 87 63 9d 9e 15 d4 3f 1c 74 16 ea 33 dd ea 3f
       0.31381955499647135 0.8395022937799044
000450 be 77 4c 39 9b 3f d9 3f 30 10 c4 a5 40 6d b1 3f
       0.3945072230870855 0.0680733113004528
000460 73 b3 83 5e 9a 93 d9 3f f3 99 d7 56 10 5a db 3f
       0.399633972453379 0.42737205963786024
000470 75 9b de a4 21 27 de 3f db 29 86 cd aa e5 ee 3f
       0.47113839245360306 0.965535546697818
000480 71 83 0c ef 85 86 b0 bf 8e bf 6a 6f a3 8d ea 3f
       -0.06455266081003487 0.8297898460495945
000490 09 72 8d 5b ec 82 d6 3f 16 f0 e7 1d d3 0f d1 3f
       0.3517409223620978 0.26659086151608
0004a0 b4 74 e3 13 d0 2f d4 3f cd c6 ef 47 87 dd e9 3f
       0.3154182619308117 0.8082920460712671
0004b0 4f b1 18 92 a6 b1 bd 3f 8e a6 0e 59 ab b9 e4 3f
       0.11599198405082699 0.6476647128485682
0004c0 a8 6c e0 5e 5a e2 e7 3f 99 59 07 75 60 ee e1 3f
       0.746380982690785 0.5603487287251482
0004d0 00 fb 06 e5 77 75 ea 3f f7 7f e0 95 d5 ef dc 3f
       0.8268393967808549 0.452138325084888
0004e0 f6 bc db a6 bc da e7 3f f4 44 ef 75 c2 d7 d7 3f
       0.7454512843086423 0.37254392163329375
0004f0 58 23 2d 17 64 68 b2 3f fa 9b 83 3b 6e a1 e1 3f
       0.07190537992313517 0.5509558832535497
000500 fb 04 96 bd 82 47 c7 3f f7 21 52 79 4a 15 e4 3f
       0.1818698335373837 0.627598988489864
000510 9c 8c 6a c2 06 aa dd 3f 1e f9 e7 63 40 af e0 3f
       0.463502588138178 0.5213930083553213
000520 97 bb 5a d2 6b 43 d5 3f c7 42 89 f1 26 11 d1 3f
       0.33224006216453844 0.2666718825103484
000530 66 de e7 22 74 a1 e9 3f 97 b9 56 e4 68 b1 c6 3f
       0.8009586984398538 0.17728911542276357
000540 96 9c dd 6c 5e ed e5 3f 3c 16 de 85 95 92 d6 3f
       0.6852256895334843 0.3526967818546358
000550 98 30 19 c1 da c6 e0 3f 8b 7e a9 a8 f6 be e1 3f
       0.5242742320492821 0.5545609754735364
000560 da d6 4a 27 9f 88 5d 3f fe 00 81 c2 cb 74 db 3f
       0.0018025926812418797 0.42900365824245046
000570 9f b3 43 29 68 b5 f0 3f 2c 8a e1 60 1a 16 a6 3f
       1.044288788975997 0.04313738281850407
000580 e2 26 21 75 06 76 e3 3f bb 3c 2f cb 97 c6 d1 3f
       0.6081573760686434 0.277746151373275
000590 ac 21 e2 d2 ab 60 ba 3f 45 18 8b b6 14 b0 e9 3f
       0.10303758524435719 0.8027442517566291
0005a0 86 0e 29 86 63 fd e8 3f 96 06 f4 58 ae 3e df 3f
       0.7809312458343391 0.48820074736441066
0005b0 66 72 d1 95 97 66 d4 3f c5 38 21 ab 38 44 ad 3f
       0.3187617266719712 0.05716111268030625
0005c0 fc d8 e0 ea 0e ac d3 3f a6 b9 b6 73 a8 43 db 3f
       0.30737660348258067 0.4260045175568855
0005d0 37 58 e2 cc 76 ad e6 3f 0f 7d 4d 0f 87 cf ea 3f
       0.708674812473652 0.8378329562073378
0005e0 6d 60 e5 33 a3 2a ea 3f 9c 52 ba e9 d1 04 c9 3f
       0.8177047742456246 0.19545959389201506
0005f0 b0 27 da 59 27 17 f0 3f 4f 6b fa c2 bd 05 ea 3f
       1.00565276239875 0.8132008369605986
000600 0b 8e 75 d5 db 86 cf 3f 9c f4 ed 0f dc b0 ef 3f
       0.24630306170284685 0.9903393088458361
000610 dd 63 1b c5 00 07 d1 3f ce 1e 7b 86 4f 93 e5 3f
       0.26605242966394177 0.6742322565632664
000620 bb e5 f5 e6 ba 99 f0 3f 7c 5b 9d f7 00 27 e2 3f
       1.037531759442898 0.5672612034057773
000630 2b 8e 3d 51 5a 44 cf 3f 37 f1 12 c9 42 03 d8 3f
       0.24427346197909236 0.3751990283597197
000640 03 26 40 9d 33 40 e5 3f df dc ef b5 7e 1e d4 3f
       0.6640871115970984 0.3143612648704685
000650 ca 09 ec bd 2f e7 d7 3f 62 8b 1c bd de 32 df 3f
       0.3734855036456365 0.4874798628608713
000660 c4 29 76 76 37 e3 ef 3f 2d c0 bb ec 72 66 d1 3f
       0.9964864076330788 0.2718779861306782
000670 17 29 75 5f de 15 c7 3f d6 e0 23 17 0f c3 e1 3f
       0.1803548780538413 0.5550609065967602
000680 bb 8c 43 f5 f5 f4 cc 3f b9 9e 23 3b 94 46 c1 bf
       0.22622560954832757 -0.1349664009824119
000690 c8 ff 7e eb a7 1f e0 3f 9c 72 c5 fe 16 e0 8b bf
       0.5038642501385704 -0.013611011171343272
0006a0 80 0c b1 c5 cc 88 e9 3f 12 ae 97 48 b8 1a d7 3f
       0.7979492055095676 0.36100585068808855
0006b0 99 5e e4 e3 ee e8 e4 3f 6a 30 ff 61 2f 98 f1 3f
       0.6534342242257082 1.0996545627595204
0006c0 ba f1 49 1e ac 9e ec 3f cc 7c b0 95 fc 46 df 3f
       0.8943691817835806 0.48870768182855495
0006d0 58 4d b7 1d ba 5d e9 3f 4a 1d 55 d4 fd f5 c8 3f
       0.7926912861243336 0.19500706546589647
0006e0 2c e0 b8 a3 9d 02 e0 3f 98 6e 29 d2 f9 b4 ea 3f
       0.5003193090151448 0.8345917801593314
0006f0 ee 40 83 38 0d 80 ea 3f 1d dc 28 79 e7 e6 c7 3f
       0.8281313041461809 0.18673413673397557
000700 42 87 64 98 6b 29 e6 3f 29 fd 6b 73 4a 8a b0 3f
       0.6925561882419304 0.06461015050807774
000710 f7 1a 11 5e 0f 36 e3 3f e6 d6 f6 1d db b4 db 3f
       0.6003491246454747 0.4329135697001746
000720 17 fc 91 91 66 7e ba 3f a1 80 ef 07 09 6f e4 3f
       0.10349122098885775 0.6385541110030496
000730 e0 a1 73 6f 47 ce e6 3f 72 22 69 6d 85 17 e8 3f
       0.7126805474081799 0.7528712403228168
000740 54 19 4b eb a8 a1 ea 3f 5a 4b 6c 60 5e 85 da 3f
       0.8322338672231049 0.41439017692862523
000750 17 dc a5 df 71 cb e6 3f 9e e0 4d 7a 13 df 91 3f
       0.7123345726130336 0.017452530231338963
000760 0f 87 7f 5b 63 11 8f 3f 19 fa 28 68 0b de f0 3f
       0.015169883947183686 1.0542100971939645
000770 c6 73 6f e0 ed b9 d6 3f 44 8b bd 69 60 f3 e4 3f
       0.35509821813121467 0.6547090592615423
000780 88 ce cd 60 20 15 d7 3f bf 15 bb 54 28 f7 e4 3f
       0.36066445783146905 0.6551705984972428
000790 36 b1 fc b3 37 d7 da 3f 08 63 df a7 f7 1c e0 3f
       0.4193858392416304 0.5035360602151693
0007a0 b9 4e 1a cf ea 2f d2 3f 84 c7 1d f2 56 36 e8 3f
       0.2841746351707389 0.7566332558474049
0007b0 8e 74 8f ca f2 d8 b3 3f 2c 87 71 da 63 07 ca 3f
       0.07752911992379749 0.20335052648720742
0007c0 2f 2f 55 33 3b 0a ec 3f e8 7b cd a4 20 a0 dc 3f
       0.876248932132034 0.44727340787897996
0007d0 95 98 82 e2 29 06 e8 3f 00 de ee e6 f7 a4 e0 3f
       0.7507523941065012 0.520137740174448
0007e0 13 6e 89 75 3f f4 e9 3f cc 9b 52 ec 1e d0 c5 3f
       0.811065415920384 0.17041384257501446
0007f0 65 63 5f 60 a0 78 cf 3f 5a 91 32 87 e0 b6 c8 3f
       0.24586872773832194 0.19308096505586542

L f8 [40, 40]
000000 77 be 1b 1a 7c 44 ad bf 88 5e 7c 2a ae 96 d9 3f
       -0.057163122355515954 0.39982179783826455
000010 0e 41 da 7f f6 78 bf 3f 68 88 62 d2 8c 67 e1 3f
       0.12293949719810746 0.5438903912620505
000020 20 f6 fb b5 34 15 ca 3f 5f 25 8e 5b d9 a0 ea 3f
       0.2037721527666898 0.8321348941982868
000030 65 50 4e 2c 42 6a c0 3f 7b 23 66 97 1a 35 c9 3f
       0.1282427517259094 0.19693310158279673
000040 f4 b0 13 1f cc 33 d1 3f 79 ef 66 e3 e1 7c e0 3f
       0.2687864593015228 0.5152444306799985
000050 3b 99 43 dd 75 20 db 3f a9 b4 0c e7 e9 27 da 3f
       0.423856226041966 0.4086861378044185
000060 d8 c4 5e 7a 30 8e d5 3f 64 05 aa 62 f3 1c ea 3f
       0.3368035502454183 0.816034023955734
000070 98 4f e8 da 01 52 e6 3f 23 22 ca f9 16 f9 e3 3f
       0.6975106502090851 0.6241564634993363
000080 1e 13 f0 69 7a 2b c0 3f 84 f5 a7 e4 cb 2a e7 3f
       0.12632684872382866 0.7239741769732722
000090 eb 27 2b 00 4c a4 ec 3f ea b5 a0 e2 04 5b de 3f
       0.8950557711880242 0.47430536395663003
0000a0 a2 55 a8 df 3f ed ec 3f 3f d5 1d 37 7f 4f e0 3f
       0.9039611213981298 0.5097042156691386
0000b0 28 ee 24 d4 f0 4c ec 3f b8 ee 14 19 b6 d8 d0 3f
       0.8843921798174437 0.2632270092906128
0000c0 91 66 7a 6f 90 ae db 3f 90 ee 95 43 cd c1 e7 3f
       0.4325295532849874 0.7424074478180547
0000d0 76 a0 e9 f7 83 5f e1 3f d4 c0 61 20 cd 6c cf bf
       0.5429096071284352 -0.2455078514208312
0000e0 c3 77 ed a1 a8 c4 c7 3f 3b 68 77 4b 08 37 e1 3f
       0.18568904787656323 0.5379678224519532
0000f0 50 6c db 26 19 28 e1 3f 64 e9 4e c1 15 69 d6 3f
       0.5361448058059839 0.35016387822874706
000100 d2 c7 73 2a c6 e5 e4 3f a8 e3 8d 98 73 c9 e9 3f
       0.6530485943933348 0.8058412532401364
000110 e7 05 29 4c 46 79 ef 3f 78 7a ec 4d 48 52 d8 3f
       0.9835540282730876 0.38002212152233694
000120 75 ff 45 c1 c9 b9 e0 3f fa b9 2b 64 3b cd f0 3f
       0.5226792120811142 1.0501054680750017
000130 a1 08 3e ae 0f f4 b8 3f f3 48 43 aa f9 4e d2 3f
       0.09747407916987295 0.2860702669833152
000140 88 c2 f5 7f 80 f6 de 3f 4c 9c 4e 81 36 ef ee 3f
       0.48379528518766124 0.9667007947472341
000150 f9 75 e7 46 42 06 f0 3f ae 63 c8 41 35 7d ea 3f
       1.001528050393402 0.8277841839618441
000160 4f 5c 6e 80 6c 5c e7 3f 1c 5d 1e d9 7e 99 e4 3f
       0.730032206384644 0.643737243709356
000170 6d e9 9e f7 af 7a ee 3f 2d 33 79 9b c4 47 e1 3f
       0.9524764858572731 0.5400107418623513
000180 1c d5 08 ef f3 63 ee 3f c5 40 81 0c c0 0d e3 3f
       0.9497012776033986 0.5954284900890562
000190 f7 03 c4 94 94 78 e2 3f 22 07 7d 49 f3 5f e9 3f
       0.5772192864970965 0.7929626879997367
0001a0 c4 52 36 20 09 75 e0 3f a0 bf 73 91 77 23 ef 3f
       0.5142865780968227 0.9730794754850542
0001b0 f6 9e c0 4f 5e 96 dc 3f 67 52 40 86 a9 af eb 3f
       0.44667775905916984 0.8651931402296896
0001c0 4b ea ca ba dc 7b d9 3f 25 b9 57 02 d4 c7 30 bf
       0.39818495027035244 -0.00025605131153740224
0001d0 a2 ee c7 16 41 4d e7 3f 29 0b 7e 55 a5 a0 e0 3f
       0.7281804509106744 0.519610087373029
0001e0 05 73 2a 24 1c 95 b5 3f 87 84 39 7b c2 29 d0 3f
       0.08430648692087679 0.2525488093725205
0001f0 00 df 33 8e 35 17 e2 3f 54 2e 30 07 60 f3 e0 3f
       0.5653331544299078 0.5297088756937662
000200 5e 45 f0 8a ae 85 dc 3f 3a ff e2 30 6c a1 e3 3f
       0.44565929001062965 0.6134549097841735
000210 9c 3b 68 9a 72 ed d8 3f 50 0c 51 59 d1 22 e7 3f
       0.38949265555214097 0.7230002159561852
000220 d8 5d eb 5e ca 17 d6 3f 27 55 f1 19 02 f8 d7 3f
       0.34520205754730915 0.37451221974818555
000230 62 20 cf 53 c8 8e e4 3f e5 67 77 27 0f f3 d6 3f
       0.6424295079132316 0.35858515600341284
000240 2f 63 e5 1e 2f f4 d3 3f c6 c0 dd 66 6d 2d f0 3f
       0.31177881257240164 1.01109066183203
000250 f9 9b a9 fc 7f 82 e7 3f 4e 42 c2 51 25 88 d6 3f
       0.7346801695647392 0.35205967888126544
000260 14 e0 db c1 d0 f1 b7 3f 31 eb d1 5e 88 4a d1 3f
       0.09353356106646543 0.27017411479725967
000270 75 b9 29 ae 0e d5 e6 3f 74 f9 ef 81 54 a9 d7 3f
       0.7135079766865561 0.36971008958052853
000280 a9 30 55 4b e7 bc c8 3f 88 8b 3b 99 20 f0 e8 3f
       0.19326487711294263 0.7793124192070175
000290 bc 22 88 ed e4 72 e1 3f 3b 5b ff 65 4d 3d e2 3f
       0.5452751769344881 0.5699831955088038
0002a0 bb 8d 0b b0 89 f9 cf 3f b4 5d 30 ae e0 a8 e4 3f
       0.24980279060319596 0.6456149484756026
0002b0 9f 91 83 a4 a6 11 d7 3f 48 93 d2 32 80 03 de 3f
       0.3604523283559277 0.4689636703790723
0002c0 83 99 16 98 9b 3b e2 3f af a4 6f 6d 28 51 e6 3f
       0.5697763414835183 0.6974069726394613
0002d0 dd d4 14 56 ab 2e e3 3f 02 2a 39 c8 cb a7 e4 3f
       0.5994469338681047 0.6454829130755686
0002e0 3d b7 3b b1 69 04 e4 3f 3b 0b 25 fe b0 f7 e8 3f
       0.6255386792742922 0.7802357639087413
0002f0 54 1f ed 38 f5 ef e6 3f a4 6b b8 36 5f fe e7 3f
       0.7167917358246805 0.7498012608297029
000300 36 ed 27 2b 1e 7d c2 3f cc eb b7 df 80 6f cf 3f
       0.14444329364037295 0.24559031413795507
000310 68 ef 41 e8 48 a0 dd 3f a7 db d1 a1 69 f0 e3 3f
       0.4629080074444034 0.6230972443143984
000320 b6 01 f4 77 4f 63 e3 3f 70 b9 7e f9 09 65 cd 3f
       0.6058728545031531 0.22964596445440177
000330 3d 43 21 12 9f fa da 3f 70 f2 7e b4 81 c3 e5 3f
       0.4215467145013923 0.6801155591306962
000340 ea 08 29 76 d4 6e e7 3f 48 c9 a0 0b 53 59 eb 3f
       0.7322790439432343 0.8546538569556015
000350 8c b5 f2 d5 c8 d9 d1 3f 02 cf 29 7f d2 1e df 3f
       0.2789175118767495 0.4862562410191772
000360 c4 e0 fb bd 94 18 d6 3f 43 da 30 9a d4 a9 d4 3f
       0.3452503066360004 0.3228656297464207
000370 93 1c 49 ac b5 a9 ce 3f 89 a0 8b a6 e0 c9 db 3f
       0.23955412781126437 0.43419662727547653
000380 92 7b 1e 3f 96 8a e4 3f f3 51 35 cd 6c a8 e1 3f
       0.6419173462671657 0.5518096931432964
000390 ac fd 3f 64 d2 e5 e9 3f 9f 4f bf 48 d1 56 da 3f
       0.8093044240958327 0.41154892067174303
0003a0 5f a5 61 c8 21 25 c1 3f 87 08 29 58 04 7c e3 3f
       0.13394567760705464 0.6088887903099626
0003b0 b0 7e 3a 8f b6 77 e3 3f 99 48 a3 88 5a a3 cb 3f
       0.6083634183341555 0.21592265769738075
0003c0 f8 e3 02 c8 98 84 e0 3f eb d2 b9 04 21 33 b6 3f
       0.5161861330481079 0.08671766629579351
0003d0 05 9b 1e 3a 70 8b e0 3f 00 d8 dd 98 3c b4 c7 3f
       0.517021287455322 0.18518788780392015
0003e0 17 bd 5d 27 1a 78 e5 3f 6e 2f 7f c2 de 25 cc 3f
       0.6709109085913124 0.21990570542254367
0003f0 54 4a 85 dd 6b 8d d7 3f a5 d4 4b cc 41 ea d5 3f
       0.3680066741264103 0.3424229140358171
000400 1e 89 55 a9 75 ec e7 3f 93 22 b9 18 79 40 d1 3f
       0.7476146991068935 0.2695601216733305
000410 98 53 67 5a 2d 08 db 3f 00 8e 4f a5 ff 2a df 3f
       0.42237409428099104 0.486999427257814
000420 74 75 e9 59 b3 6f ce 3f 21 eb 39 e3 9f 00 b6 3f
       0.23778383150321825 0.08594703004375194
000430 fe f4 08 70 e9 08 95 bf c8 23 37 28 ad 26 d7 3f
       -0.020541808569977775 0.36173561980518487
000440 50 34 c9 1d d0 42 ec 3f c6 3e 5b 1a a2 59 e2 3f
       0.8831558782345699 0.5734415545247991
000450 d7 2a 61 81 f4 f2 c1 3f 06 51 ad 1a e4 f3 db 3f
       0.14022690121995282 0.43676092724969384
000460 31 8b 40 75 be 80 da 3f be 72 bd df 2b 6d c5 3f
       0.4141079087295792 0.16739414620214704
000470 76 27 95 42 d6 90 ef 3f 3b cd 8f 33 90 e8 e1 3f
       0.9864302921716745 0.5596390730919788
000480 0f 01 9c 21 c9 b1 d3 3f cf 7d f8 e0 f6 21 d5 3f
       0.3077261760918341 0.3301980206469723
000490 cd 77 f3 d3 3e 5d ba 3f 15 11 6b df fc 71 de 3f
       0.10298531221948722 0.4757072622126242
0004a0 f2 4d 05 92 2f 14 e0 3f 24 da 89 cf 1c 3a d4 3f
       0.5024640895812225 0.31604690806799085
0004b0 2e 67 a0 62 57 28 e6 3f e4 ca d8 fe 23 a3 d4 3f
       0.6924244810390741 0.3224573124636392
0004c0 0e b6 14 77 a6 40 db 3f af 6d a6 aa 22 ca da 3f
       0.42582093838686397 0.4185873667244903
0004d0 0b 00 6c 36 12 d4 d1 3f d1 d5 28 dd 6a f8 e0 3f
       0.2785687953437452 0.5303243941804628
0004e0 47 97 a3 f2 cd 9a de 3f 1c 8e 0e a3 05 bc e5 3f
       0.4781985158464192 0.6792019066528527
0004f0 e1 21 3f 04 5f b0 dd 3f 49 82 d9 bd 55 57 e1 3f
       0.46388984121997906 0.5419110019684662
000500 9d aa 90 84 13 c1 a6 bf 53 d9 9b 0f 0f d2 e3 3f
       -0.044441804821265786 0.6193919472560004
000510 89 34 9c ac f8 38 d9 3f 4f 78 3a bf df 88 d8 3f
       0.3941022573133713 0.38335412668846386
000520 4e 2e aa 8a a1 e2 e8 3f 7f 28 90 0c 06 f0 d1 3f
       0.7776649196907301 0.28027487971178994
000530 fa 57 ea f8 79 7a d9 3f 0e c2 31 d9 22 5b ea 3f
       0.39810036953110706 0.8236250154569136
000540 ee 50 50 91 b2 da c8 3f d8 ae 97 1a 94 3b f1 3f
       0.1941741189517709 1.0770455397386538
000550 ee e8 dd 7c df b0 c8 3f 35 92 16 88 c5 40 e3 3f
       0.19289773556722117 0.6016566904041328
000560 3f 11 59 b5 26 bb aa 3f f4 12 2c 9e a8 91 f7 3f
       0.05220910037727088 1.473061197147385
000570 b2 27 03 e7 17 ac d2 bf 20 e4 a0 92 a4 46 ea 3f
       -0.2917537456493121 0.821123396285774
000580 0c de 82 a1 b0 56 f5 3f 2d 69 b8 fa 97 cf d8 3f
       1.3336645421057964 0.38767051205072073
000590 67 61 69 69 2e b8 e8 3f 1f ab 78 b6 f4 cd d5 3f
       0.7724830683537619 0.3406955511042486
0005a0 01 cc 5d 29 36 93 df 3f 89 65 29 2f a4 c3 e1 3f
       0.49336008109747814 0.5551320000769674
0005b0 6f 54 70 0c 91 78 da 3f 5d 00 ae b3 7f 1f f0 3f
       0.4136088010284941 1.007690145372201
0005c0 2a 40 30 dc cb 38 e0 3f e6 1a f4 cd 10 4c f2 3f
       0.5069331455761177 1.14357071352577
0005d0 e7 de e4 5b d7 b5 d1 bf 3b 8f 96 04 48 6b ad 3f
       -0.2767237088587379 0.05745911651618348
0005e0 11 18 08 28 ad 98 e0 3f 26 7b 8b 23 61 1d ed 3f
       0.5186372548930668 0.9098363584742841
0005f0 bf eb 89 85 66 90 e8 3f aa ca db 00 db 28 b1 bf
       0.7676270111254481 -0.06702965517960516
000600 c2 76 83 2a 48 e7 98 3f 01 2e 6e 92 57 89 e4 3f
       0.02431977042657852 0.6417653903931183
000610 2d b8 6a aa 6e 1d e4 3f 41 f2 06 2b 59 03 88 3f
       0.6285928085760638 0.011725136399825977
000620 45 29 07 68 58 f8 d8 3f fa cf 71 59 21 bc d8 3f
       0.390157796468561 0.3864825604898666
000630 59 b5 c0 5b 55 a5 ee 3f 16 5a 32 ae f2 7c f0 3f
       0.9576823036237939 1.0305048756177988
000640 18 d2 ca 03 2b 0c de 3f 08 58 90 3f 7d 36 d6 3f
       0.4694926774057264 0.34707575995832984
000650 75 0c 73 64 72 ae b9 3f 9b a0 95 b3 40 64 d7 3f
       0.1003180976140799 0.36549394166514454
000660 b1 8a 93 e6 db c7 d9 3f d7 f5 51 59 1e 5b cb bf
       0.4028234245035192 -0.21371821748100103
000670 ef e9 73 91 d0 1c ed 3f c8 6a 4c 0e 81 c9 e8 3f
       0.9097674218058368 0.774597671438948
000680 1c e2 a2 bb d4 07 d8 3f 85 47 6e 9e 6b 73 df 3f
       0.37547796558240676 0.4914197013068747
000690 89 b8 d1 59 e9 68 e7 3f c5 1d cf 4b 6a 48 cb 3f
       0.7315565828591996 0.21314743711103126
0006a0 7b e7 b3 70 ce 5a d2 3f 53 a0 49 19 b9 bb eb 3f
       0.286792383252411 0.8666654104135979
0006b0 68 c9 a3 b8 39 da f2 3f ab 13 ad 64 ef 41 cd 3f
       1.1782777035228609 0.22857468047928128
0006c0 e3 bc a2 33 f4 23 d9 3f 7d 2a 09 0e 65 ac cb bf
       0.3928194526915389 -0.21619857011167545
0006d0 7e 21 a3 0e ef c4 d9 3f ec 6c 88 8d 9e 83 ef 3f
       0.4026448862973878 0.9848168148340881
0006e0 94 51 07 15 d3 6c e8 3f 75 c3 d0 2a 95 a0 e3 3f
       0.7632842455591793 0.6133523784866229
0006f0 1f 61 67 b3 b9 bf d3 3f e9 c4 e3 74 4b 36 f1 3f
       0.30857698936371664 1.075755554771883
000700 87 b2 aa 5e e6 13 d9 3f 32 de 70 6f 2a c7 e6 3f
       0.3918395924072588 0.7118122269229785
000710 3a 5a dd ff 35 f8 cf 3f c2 89 e7 64 e5 86 ea 3f
       0.2497622966136122 0.828966805533405
000720 22 cd 16 db 82 b6 db 3f 28 c4 2f 66 16 80 f1 3f
       0.4330145968953777 1.0937713615096616
000730 8b 74 71 5d b8 e5 e4 3f a9 f7 fa 76 1d 99 dd 3f
       0.6530420136511038 0.4624704038541219
000740 94 58 c5 59 09 b0 eb 3f 5c 6f 63 a9 dc f5 be 3f
       0.8652388337457233 0.12093905578097747
000750 8b b6 45 6f 99 02 eb 3f b1 60 f6 4e 24 66 ef 3f
       0.8440673039710459 0.9812184850916507
000760 b9 60 8d 38 17 c3 e4 3f 11 c7 6d 4e 96 33 e5 3f
       0.6488147835289261 0.6625472575962893
000770 44 4e d3 ac ff 75 e7 3f 74 51 e5 69 0b 2b e7 3f
       0.733154141950259 0.7240044658924902
000780 eb 00 27 5d 8d 03 e4 3f 29 3e d6 98 7f d2 bb 3f
       0.625433618486594 0.10868070107812201
000790 18 6d da 8f 05 e4 e3 3f d0 9d 17 cb b6 f5 ca 3f
       0.6215846833833067 0.21062359730352265
0007a0 6d 7b 0e b1 fd 5c e2 3f 0c 64 3d 99 97 34 ce 3f
       0.5738514383445882 0.23597998602306836
0007b0 9f e2 b2 df b6 38 e3 3f 88 7c 74 93 38 65 d6 3f
       0.6006731385342227 0.3499280395498734
0007c0 bd 5d d5 62 a8 a1 e7 3f ba 68 0c ad 34 84 bc 3f
       0.7384836130467459 0.11139229988876567
0007d0 94 2d b0 5b 1a 1c f0 3f 97 85 1a 56 3d 6a e1 3f
       1.0068610745973716 0.544218700572105
0007e0 cb 41 b2 6f d2 39 c8 3f 4c c3 0c 2b c3 9f e8 3f
       0.18926458791658116 0.7695022431199532
0007f0 7c 91 d2 07 55 6c e4 3f f2 e2 21 ad 33 63 e1 3f
       0.6382241394790493 0.543359602116736

weight f8 [50, 4]
000000 aa cd 50 0f ae 79 d0 bf 64 c1 c3 b3 f7 4b d8 bf
       -0.25742675300281326 -0.37963669352668306
000010 21 69 f3 26 68 47 b1 bf 8f 8e 3c d5 c7 bb c6 bf
       -0.0674958319754393 -0.1776056090540021
000020 7c 90 4a 73 4c eb b4 bf 42 8d 7a 39 8e ea db bf
       -0.08171537222603037 -0.43619113553196
000030 f6 45 c4 79 2a 64 d5 bf c6 fc ee ab 5d 60 d0 bf
       -0.33423864260939185 -0.2558817080534478
000040 d6 54 8f 10 3a 30 d8 bf ec 5d af a8 3c 8e db bf
       -0.37794353120018565 -0.43055645440241963
000050 24 ca 1b 6a 40 58 61 bf 01 74 aa fc a1 fe df bf
       -0.002117276963752761 -0.49991655039212907
000060 79 3a 63 e3 6b 4f da bf 5a eb 2d 56 28 f1 97 3f
       -0.41109749990292915 0.023380880603763067
000070 a7 b5 62 9c 35 32 d4 bf 32 51 88 81 e6 83 c3 bf
       -0.3155645396426174 -0.15246278118923723
000080 43 eb 56 6c 5a 6d d3 bf a1 73 9c 44 5d d4 db 3f
       -0.30354939060241665 0.4348366899519594
000090 09 7a 4c 93 4e 12 c8 bf 4d ff 9d 4f 84 6b 69 3f
       -0.1880586833221545 0.003103025836878637
0000a0 c2 e8 62 82 4b 47 e8 3f 40 6a 7b b3 4b d6 ce 3f
       0.7587029978378939 0.24091478599332738
0000b0 96 0e 61 3e cf 45 c9 3f 0f d7 88 3c 16 7f df 3f
       0.19744291826110744 0.492131766429666
0000c0 db 5c 74 b9 dc 76 c2 3f b5 a2 c4 24 e6 ec d7 3f
       0.14425238662145187 0.3738341673911621
0000d0 a7 c8 df 3b 74 62 bb bf fb 22 fd bc 03 5e c7 3f
       -0.1069710394074571 0.18255659797639354
0000e0 6b 50 0d 07 b3 18 dd 3f 83 04 44 0e 4c 9b ca 3f
       0.45463252724335373 0.20786429115836222
0000f0 cb 29 0d a8 c9 d5 d4 3f 97 32 17 73 fc ab c3 bf
       0.3255485669257296 -0.15368610019358606
000100 e9 63 8c 3f 62 20 de 3f 9f c1 ad b3 ba 3a c5 bf
       0.470726549204811 -0.1658547761285378
000110 9f c1 25 64 ae 1f d5 3f 07 06 8a c1 e4 1e bd 3f
       0.33005866794612787 0.1137526485927297
000120 3a 3d 64 db 8a 57 b3 bf e8 1e 26 0a 14 a3 d8 3f
       -0.07555454117049445 0.3849535082922402
000130 41 45 9d b4 f9 c9 dd 3f 41 2c 29 a7 59 1d b4 bf
       0.46545260084265655 -0.0785728486163615
000140 a5 b4 9d 3e 86 b4 d3 3f e2 b2 1a 88 b6 c1 dd bf
       0.307893334530329 -0.46494830409464616
000150 c8 21 8f c4 30 84 d7 bf 93 32 8c 81 73 3a d3 bf
       -0.36744326777673253 -0.30044257784974454
000160 f7 49 0d b9 88 ad d1 3f 22 1b b6 8a 4f 54 a7 bf
       0.27621667930102894 -0.045565114672220255
000170 1b 0e 70 7c 35 99 d0 3f b2 a7 3d 13 c1 0a c8 bf
       0.2593511309825957 -0.18782819213384766
000180 3b d2 06 36 5b db c6 3f 4f 59 55 0d 5c 89 da 3f
       0.17856922281284135 0.41463376333321816
000190 3d 5b 61 b6 8d 22 d8 bf 6f 39 5a 71 f1 90 a5 bf
       -0.3771089821870424 -0.042121453368156085
0001a0 1c 71 2a b3 cf 32 cc bf 5b bd aa d0 df 44 d8 bf
       -0.22030063865975869 -0.37920375230438247
0001b0 65 26 7a 6d 7e 1a dd 3f 5a de e1 16 e5 74 d0 bf
       0.45474205676200646 -0.25713469729041594
0001c0 ab f7 bc 4e d2 a6 e6 bf 3e 2d ef ee 4f 1c d5 bf
       -0.7078639543394635 -0.32985304196764165
0001d0 8f c9 72 f2 85 f3 c9 bf 54 47 a8 84 eb 97 d8 3f
       -0.20274423921871373 0.3842724605066128
0001e0 ae bc c6 45 b3 05 de bf 82 16 5a 82 ed cf 88 bf
       -0.46909791769116793 -0.012115340748333429
0001f0 b5 0f 96 74 ec 8d cb 3f 05 cc 4f bc 24 a8 cf bf
       0.21526866619762833 -0.24731883234889565
000200 d6 03 1b 17 ec ae c2 bf af 10 0f 06 af 74 d5 bf
       -0.14596320274543356 -0.335246807019085
000210 3d 2b cc ca 4c 82 d3 3f b5 2a bf 5f 37 69 aa 3f
       0.3048278789944339 0.051583986699900754
000220 21 5d 8b fa 16 9c b0 bf 84 e5 74 f2 23 29 d5 3f
       -0.0648817407303466 0.33063601186184877
000230 73 3f a9 6a b6 64 de bf f5 22 3f 2a 6d a2 d4 3f
       -0.4748970071423095 0.32241372228285964
000240 79 1d 4d 79 7f 3b cb bf d7 f1 0d 7c 9e c1 d4 bf
       -0.2127532331744353 -0.3243175708264778
000250 1f d4 68 0d 73 3d d3 3f 9f a2 97 12 0c b2 cb 3f
       0.30062557515640437 0.21637106807545067
000260 f0 83 a5 f6 fe e1 c9 bf 8b a1 e2 14 06 ef d0 3f
       -0.2022093490914183 0.264588852306155
000270 76 7f 79 ec 61 74 d2 3f 9b 3d c1 ab 1e 70 e1 3f
       0.2883534249613072 0.5449365000330774
000280 4e 35 c3 78 21 38 dc 3f 45 81 88 e2 69 06 b2 bf
       0.4409259490319827 -0.07041036396595242
000290 1f 35 ef d3 1d eb db 3f 2c 22 a9 48 d6 83 a0 bf
       0.436225373236839 -0.03225583683940089
0002a0 2c 40 ee 13 cc 45 d1 3f 5b e5 6f f8 5a a3 b5 3f
       0.26988508173326653 0.08452385487898566
0002b0 ad 78 c3 b6 3b 5e c8 bf 74 f6 80 b2 d9 75 d1 3f
       -0.19037577079774817 0.2728180163574969
0002c0 cb 3c 82 f3 60 50 66 bf 84 a8 a7 57 4f 72 dd bf
       -0.002723874433349848 -0.4601019245152502
0002d0 18 b6 e3 36 e1 ac d3 3f 85 9b d7 08 91 e8 da bf
       0.3074267421751258 -0.42044473517892583
0002e0 b1 0a 7b 4b 1a de b7 3f 06 12 75 ae a1 13 b7 bf
       0.09323276846684327 -0.09014330395900325
0002f0 fb af b0 04 12 46 a0 3f 23 16 fc cd 67 cc cb 3f
       0.031784594604999904 0.21717546041343025
000300 f6 1a d3 5e 50 75 b1 3f 2e 49 d5 a6 b0 df b8 bf
       0.0681963187699742 -0.09716323922228717
000310 29 e7 dd 41 70 cb be bf 88 f5 d2 1b f0 ab d4 3f
       -0.12029172523571376 0.32299425809090865
000320 fe 92 7f 3a 0e ed c2 bf 11 a3 44 42 12 a2 a6 bf
       -0.14785936218608947 -0.0442052560704892
000330 5b ae 9c f5 b2 dc 80 bf cb e3 d5 58 10 72 b2 bf
       -0.00823345005081604 -0.0720529763110697
000340 c3 fd e4 24 8f 0e d4 3f 7b 1b 34 2e 8d a9 cd bf
       0.31338862040498955 -0.23173680072815359
000350 ef ab b5 8a 8e 5e d9 3f 91 58 9d 97 37 28 cd bf
       0.3963962893091652 -0.22778983023699031
000360 74 28 2a 72 e6 24 cd 3f cc d0 91 9f 21 ca ac 3f
       0.22768860411116842 0.05622963974829673
000370 f4 15 01 02 fd 2a c8 bf 16 f8 cd a2 bb d3 dd bf
       -0.1888118991648039 -0.46604815386661025
000380 d3 86 b6 b0 db 0f c6 3f 73 da 01 72 4c 76 d4 3f
       0.17235895279468724 0.31972037442702755
000390 71 22 6a 18 d8 ec da bf d7 93 9c 5f c6 50 d8 bf
       -0.4207058180259429 -0.3799301084239323
0003a0 79 4b 17 35 39 87 a9 3f b7 8a a4 64 96 ba e5 bf
       0.04985979817470016 -0.679026791160445
0003b0 56 bd 47 da dd e2 ab 3f 02 dc 51 df 85 43 e3 3f
       0.05446522988847373 0.6019925462450149
0003c0 57 75 4d 46 b3 1a d8 3f 1b a2 c2 69 b7 52 c9 bf
       0.37662965646253127 -0.19783680595470873
0003d0 99 88 86 5f 0c f4 d3 3f 0f 28 29 f8 48 7c a5 3f
       0.31177052811302414 0.04196384457880253
0003e0 94 8a fb 36 a7 e1 ba 3f e4 71 78 28 3b 3e cf bf
       0.10500569431637025 -0.24408664203737296
0003f0 11 ed 03 eb 02 b7 d4 bf 4b e3 04 20 9f d2 e1 bf
       -0.3236701293059961 -0.556960642373363
000400 19 95 bb e9 7c 23 dd bf 98 c4 62 bf cf 28 d0 bf
       -0.4552910120531393 -0.25249093713780146
000410 56 b6 a7 ba 02 42 ab 3f 7c b7 0c 0c 65 d8 60 bf
       0.053237996373223836 -0.00205631004100487
000420 bf aa b4 00 fb 97 a7 3f af 42 fc 4c 32 93 cc 3f
       0.04608139403929589 0.22324208029796952
000430 ef be e8 c3 06 e8 c8 bf 43 d7 24 5f 99 8d cd 3f
       -0.19458088460805054 0.2308837618417617
000440 f7 0d b2 1e f9 cb cd bf ab a7 7d 1b 0e bf c4 3f
       -0.2327872657661911 0.1620805391533485
000450 20 59 c2 ec 0d 5e a0 bf 59 5f 7e 85 58 c9 d9 bf
       -0.031967578078523795 -0.40291417156685366
000460 d9 70 aa 2b e0 1e d9 bf a2 bf c6 f5 91 1c 84 bf
       -0.3925095011161495 -0.009820118248938862
000470 0d 6e 70 70 25 4c da bf e1 91 c1 c2 79 c2 c4 3f
       -0.41089759807957266 0.16218492517067687
000480 1f a6 2c 26 e7 d7 d9 3f e3 33 f6 53 8a 81 cf 3f
       0.4038026688382121 0.24614075755780992
000490 cf cf 34 25 cb a9 ae 3f 03 60 0d 6f bd 28 d9 3f
       0.059889171878608864 0.3931115707869141
0004a0 fb f5 40 e0 e2 c2 d7 3f b3 ae 32 f1 4b 3b d4 3f
       0.3712699117639599 0.31611918024530467
0004b0 b7 d9 be b2 9b b1 bd 3f cf e2 e5 4b e8 d5 d9 3f
       0.11599133600143473 0.40368087207711495
0004c0 17 72 d0 3a 1b ce d2 3f 05 1c 89 c1 f7 00 db 3f
       0.293829734264166 0.42193406963309626
0004d0 d3 92 2b 84 f0 cc d0 bf ff f6 83 5b ea 4a 78 bf
       -0.2625085154270838 -0.00593081994906952
0004e0 a8 10 3b af 2b 47 cc 3f ca ea 5c b7 4d 5f cc bf
       0.2209219556444897 -0.2216584344222013
0004f0 33 90 1a 37 42 47 e0 3f 82 ea a6 a0 b4 6c ca bf
       0.5086985660786979 -0.20644243091904363
000500 49 a2 e3 f9 29 1c d2 bf 9d 47 c1 0f 7c b7 cd 3f
       -0.28296899226419164 0.2321620060852724
000510 59 8b b1 ae 59 dc e0 bf 9d 32 c5 81 9d 31 cd 3f
       -0.526898232649141 0.22807663761559108
000520 fb 22 07 cd cd ff d9 3f bf 49 91 5b d6 93 c7 bf
       0.40623803159955657 -0.18419913741179347
000530 c0 fc 1b 0e 02 91 e0 3f ea 03 b6 b0 b3 4c d7 3f
       0.5177011752674829 0.3640565133756001
000540 11 fc ff 83 98 fa 84 bf 0e 87 b6 75 71 41 da bf
       -0.01024359848815773 -0.4102443360844611
000550 ae 7b 73 1f 21 9c bf bf d8 c2 19 ee 8a 17 d5 3f
       -0.12347609536980883 0.32956193210615714
000560 7c 9b ce 07 06 df 91 bf dc 83 62 5d 29 5b da bf
       -0.01745232985163224 -0.41181406135188836
000570 27 39 78 71 43 f9 96 3f db 1e af c4 1a e8 c7 3f
       0.0224352396017419 0.18677076915468302
000580 49 8d 0b eb 35 97 e1 bf 2a a5 86 c1 92 ff da 3f
       -0.5497083273625459 0.421848954191392
000590 83 89 18 1e b3 cc d3 3f 6c 56 7a 5c 98 fa b2 3f
       0.30936887682960207 0.07413627870331546
0005a0 09 35 14 22 81 21 d1 3f 4b 62 b5 93 a1 4a c8 bf
       0.2676699478914349 -0.1897775622590124
0005b0 49 41 4b 5b 4e 14 bf bf 77 35 24 1d f6 19 90 bf
       -0.1214035961995751 -0.015724034813549417
0005c0 30 5c 3c ef 8a 7b cc 3f 19 8e 9b a4 80 a1 ca 3f
       0.22252022439417507 0.20805366551859164
0005d0 60 1e 60 3d d8 37 c4 3f e1 ea 2b 12 54 4b b3 bf
       0.1579542445835953 -0.07536817020074295
0005e0 b8 7e 9a 7e 57 75 98 3f 16 11 ef df 37 90 cf bf
       0.02388512335039536 -0.24658869203825223
0005f0 3a b1 f0 ea 35 31 e2 3f e9 60 36 89 ae 26 c9 bf
       0.5685071552921166 -0.1964929742796422
000600 ff 3e 98 2e 6b 9e a6 3f c7 ab c6 8f 81 0e c2 3f
       0.04417738860877129 0.1410676910430466
000610 cb 16 db d6 46 19 c0 3f e3 63 10 71 0d da dd 3f
       0.12577138415342967 0.4664338688031064
000620 fe ee 87 85 18 52 b6 bf 24 5e 5b 5f 84 70 b8 bf
       -0.08719018230470607 -0.09546687439011997
000630 90 d3 3e 8a 3b 87 d3 3f d7 3b be d4 e4 71 be bf
       0.30512894154099346 -0.11892538255618433

bias f8 [50]
000000 af 26 35 03 09 20 cc 3f 6b 31 16 b4 d8 35 b4 bf
       0.21972763687727112 -0.0789466323532843
000010 dd 3f 6b 01 0a 91 cd 3f 93 4e d4 e6 ab 7f dc bf
       0.23098874158176744 -0.44529244939733664
000020 43 6a 72 38 15 1c a8 bf f7 b3 31 81 c6 5b 94 3f
       -0.04708925546693312 0.019881345401177666
000030 ee f0 54 07 5e ec d1 bf e4 35 18 e4 bd 3c d6 bf
       -0.2800517150497076 -0.34745738291607453
000040 36 a5 fd 45 b8 0b de bf f2 90 2e bc ad 84 de 3f
       -0.46946532092131876 0.4768480622972354
000050 98 63 d1 32 a3 18 d4 bf 4d 21 af 61 c3 7e c5 3f
       -0.31400375330627517 0.16793100614291703
000060 58 16 84 37 6b fb d1 bf 2a ff e3 9c 2d 88 db 3f
       -0.2809703867099862 0.4301866562018285
000070 6a 98 7b d0 5b b9 94 3f c0 5d f0 c2 a5 71 bd bf
       0.020238337135105068 -0.1150153733182071
000080 7d 5a 76 cc a0 69 a6 3f 4e c3 4d 31 fd ef b9 3f
       0.04377462859990986 0.10131819204049217
000090 f3 9c 12 e7 da b0 c9 3f 8b de b0 ab 6c 6e da bf
       0.20070968897673644 -0.41298977629365
0000a0 72 9c 62 94 a7 08 c4 3f bd 9a 54 e4 19 ce be 3f
       0.15651411767359807 0.12033235382532843
0000b0 e4 66 1e 33 24 cb d6 3f 2c db 16 cb 2c ff 9f 3f
       0.3561487673956505 0.031246852775178954
0000c0 5c db 8f aa 5b 8e d1 bf 03 6e 21 fc 74 42 cc 3f
       -0.2743138471263842 0.22077810584129062
0000d0 d9 a5 2b 84 5a c9 b4 bf a8 19 3c 31 cc b9 ac 3f
       -0.08119741179293473 0.056105023393729525
0000e0 fc 36 b7 7b 9d c3 c8 bf d3 8e 3f 10 f5 44 95 3f
       -0.19346970120243856 0.020770863644328962
0000f0 5a ad a8 c1 d1 5e de bf 2c d9 8b 12 72 65 db 3f
       -0.47453731452943304 0.4280667477718392
000100 b6 12 f3 e3 88 24 cf bf d8 95 6c 54 81 37 d0 bf
       -0.2433024514231385 -0.2533877682165815
000110 15 9e 1a 05 39 a4 b9 bf 44 b8 aa ca cd bd d9 3f
       -0.1001620900593639 0.40220970908820086
000120 04 a2 d0 83 d4 2c da bf e8 45 fe 73 40 11 d3 bf
       -0.4089862143760288 -0.2979279644724486
000130 16 0c ab 67 09 1f d3 bf f1 6d 81 c5 51 00 d3 bf
       -0.2987693321594532 -0.29689449584631605
000140 ab 3e ec be 33 af d2 3f c4 08 30 f8 20 0f e0 bf
       0.2919434895020269 -0.5018467757620546
000150 73 df 60 70 ab 69 d3 3f 94 ef 37 d7 88 5e a0 3f
       0.3033245656438261 0.0319712412565131
000160 6b 68 98 a5 f2 91 dd 3f 62 3b 84 92 17 07 d7 3f
       0.46203294917507404 0.3598078661752223
000170 db 12 6e ed 96 e5 d0 3f 38 ec ef e6 a8 36 c5 bf
       0.26401303469201104 -0.16573058391790751
000180 fe d3 7e 57 12 83 d8 bf 1d 29 9b df 9d dc df 3f
       -0.38299997848963574 0.49784037434132405
