lasa_models/2/skel_model_NShape.pt (torch, 99247 bytes, 18 tensors)

R f8 [20, 20]
0	0x3fe435f89d88717d	0.6315882756057786
1	0x3fd062114828e866	0.25598556563239183
2	0x3fd451cc41409780	0.31749254581733766
3	0x3fe562792bfdebed	0.6682706698624067
4	0x3fecb01536aa0bad	0.896494490400405
5	0x3fbf5f41896075b1	0.1225472412483757
6	0x3fe98659284421f0	0.7976499353836157
7	0x3fe4fb18520f700f	0.6556512453785234
8	0x3fc899587cb947cf	0.19217973794962837
9	0x3fc5ce1df41e7792	0.17035269183992036
10	0x3fc7a32fd7c5bf49	0.18466756854786073
11	0x3fe1a25e3218a2ca	0.5510703066293783
12	0x3fbbeec2fabd833b	0.10911196347798306
13	0x3fcd7167e57caf2b	0.23002337174818285
14	0x3fe778eac643a5b0	0.7335103866909574
15	0x3fc2369936cc7244	0.14229121375764653
16	0x3fea377859f11763	0.8192712551760731
17	0x3fbd9c54791275c5	0.11566665607320832
18	0x3fd6459ccf2550b5	0.3479988119991149
19	0x3fd2cb41c672015c	0.2936558187430103
20	0x3fc693120b8dc89d	0.17636323513176402
21	0x3fc70091aa89e118	0.17970486476020464
22	0x3fec75ebf7635689	0.8893947440908089
23	0x3ff0ba4d09514f17	1.0454836238831768
24	0x3fd7acc42610b668	0.36991981236756155
25	0x3f92916e3564e3a9	0.018132898339192547
26	0x3fdc497727d5398a	0.44198397531445066
27	0x3fbdd9e2fec3637a	0.1166059371929701
28	0x3fe4541c14e4ca5a	0.6352672966080022
29	0x3fe9b066c0f4af8c	0.8027833717983284
30	0x3fe2ac2acfe9e15b	0.5835165081798935
31	0x3fe0968c96cdfc19	0.5183775849726572
32	0x3fe5b0f57d6fbf9c	0.6778514337474806
33	0x3fea739e4e0c5b3d	0.8266135715847224
34	0x3fc06fa28fae431b	0.12840682998332728
35	0x3fdc20ded793b2e3	0.4395062546962391
36	0x3fdac79ba979b294	0.41843310880975904
37	0x3fe1b98636f541f7	0.5538970063590217
38	0x3fe78e20a2b9e9fe	0.7360995462652793
39	0x3fe9972999334e39	0.7997024528689912
40	0x3fe9388560b3fa62	0.7881495369654881
41	0x3ff01d9e10e95b45	1.0072308216674213
42	0x3fe343b6b206ed8b	0.6020158269015367
43	0x3fd484f7c364abd0	0.3206157119881796
44	0x3fe163a32c3d1453	0.5434127677950847
45	0x3fe2847f68abd0b7	0.5786740345343081
46	0x3fe470a5b33bd013	0.6387508869797806
47	0x3fda2da15d79c49c	0.4090350544784742
48	0x3fec5ddc8059bdd3	0.8864576823088391
49	0x3fea547dbb68eb90	0.822813859972813
50	0x3fe0b095df0740a9	0.52155583915921
51	0x3fe1165158275226	0.5339743348836847
52	0x3fc671ca80a56957	0.17534762651014077
53	0x3fed410297cce7cb	0.9141858067371172
54	0x3fecd855bb90b2ee	0.9014080680259136
55	0x3fe82bdda6c33013	0.7553547150687357
56	0xbfb9f93123358c97	-0.10145861730193172
57	0x3fd20034fad34e20	0.2812626313654807
58	0x3fceb82c51260d2a	0.23999551737151964
59	0x3fb698be9556edb7	0.0882681955908343
60	0x3fd17ef350a97ef5	0.27337344052465024
61	0x3fe44339240d8519	0.6332059578091133
62	0x3fe0c41177cd28cf	0.5239341106291934
63	0x3fe7c35e6fbb4bd7	0.7425987417467422
64	0x3fe8ee947a2558d7	0.7791235337888577
65	0x3f63698480338079	0.0023696506410573717
66	0x3fe3e2e2d12c8c62	0.6214460454397222
67	0x3fc3f65a129b2a60	0.1559555617189572
68	0x3fe3aae46c579f12	0.6146108738002758
69	0x3fe58dd3321c272c	0.6735626200399785
70	0x3fd00fb6c0c3a9be	0.25095909905089886
71	0x3fdc441034af9e47	0.44165425438993505
72	0x3fd862f57dcebba6	0.381039975031792
73	0x3fe442143ea291ff	0.6330662940350179
74	0x3feb85b05d01acc9	0.8600694481405294
75	0x3fe97ce5714fb007	0.796496125517934
76	0x3fa18aee145b4b19	0.03426307676786262
77	0x3fedc0f16c000f23	0.9298026189212333
78	0x3fcbd40afa771388	0.21740853528731585
79	0x3fe7ddf25b50f7a5	0.7458431037446088
80	0x3fc172cdfec01ef0	0.13631606043804068
81	0x3fe6fd96d40c2866	0.7184557096054618
82	0x3fda60e9fb7f0076	0.41216516075292675
83	0x3fe9a51c22541818	0.80140501694473
84	0x3fce27ca4c10ed30	0.23558930124441124
85	0x3fbfcfb056909557	0.12426282990835112
86	0x3fecc19e7d25c4f0	0.8986351436889475
87	0x3fe2da86e1074a09	0.5891756434523937
88	0x3fe648fbb56bd68c	0.6964090865501062
89	0x3fd30b46b7e11b9c	0.29756324727025585
90	0x3fe7ad28bbd4228e	0.7398875874069561
91	0x3fe76c50d5cb56f7	0.7319721389455641
92	0x3fe9985eecd678b4	0.7998499513376118
93	0x3fe6624aab200a28	0.6994984953201469
94	0x3fd47554aff898e4	0.31966130432773654
95	0x3fdb0594272c05f0	0.4222154982126929
96	0x3fdcea891e1e6714	0.45181491795811834
97	0x3fec6d4ed2bce88d	0.8883432498908107
98	0x3fedd0f3ed3ac13c	0.9317569383038413
99	0x3fd28c8654f8492a	0.28982694909895435
100	0x3fcaab10d2e77733	0.20834551141791166
101	0x3fdd02f7d7e20fdb	0.45330616075830016
102	0x3fd361fdc89a1c0a	0.3028559168819248
103	0x3feffa3fcb537764	0.9992979975902299
104	0x3fc9817566f47f3a	0.19926326300719116
105	0x3feb44f24ea02792	0.8521663222938847
106	0x3fe7956d081b73b3	0.7369904669136446
107	0x3fee92249d59acaf	0.9553397248504519
108	0x3faab5402da3f8fd	0.052164083072044655
109	0x3fe1d621ce8647d2	0.557389167183141
110	0x3fc1073a67b74449	0.1330330854821418
111	0x3fe3cbd11a5f7f49	0.618629981527172
112	0x3feda9681ed79e58	0.9269295313251389
113	0x3fecfac61692269c	0.9056120339239047
114	0x3fd6772b88c6d555	0.35102356297587295
115	0x3fdb6d7c4df2354b	0.42855746852804505
116	0x3fbfccdafa8e8bc9	0.12421959511861681
117	0x3fe190f49b5edce7	0.5489447626668181
118	0x3fd7bc84a19a51de	0.37088123113178806
119	0x3fc1f511272209e0	0.14029135142125337
120	0x3feda372efdb97a2	0.9262022671434702
121	0x3fca9c08b6de1341	0.20788678101612315
122	0x3fafdbca78f8217d	0.062223746554141514
123	0x3fceed77cf8a9747	0.24162194856506344
124	0x3fe18900bf16b164	0.5479739887428363
125	0x3fc04227b29f4978	0.12701889249599296
126	0x3fea3424994ff2b1	0.8188651079541015
127	0x3fe9b18f97a2f5a0	0.8029249154712268
128	0x3febe2c724604273	0.8714328489750883
129	0x3fe63e4357d429af	0.6951004710584153
130	0x3fd6b4ad8e967319	0.3547777073343226
131	0x3fe29bbc800bbc3f	0.5815107823272071
132	0x3fde542668e61db5	0.4738861107257109
133	0x3f95e7b9f41a9ac9	0.021391778491898692
134	0x3ff1a4d5304adc3d	1.1027423750326897
135	0x3fe6b4b36ff6c751	0.7095582186504804
136	0x3fd318f2464d58aa	0.29839760652010716
137	0x3fc26d1ee9e0d232	0.14395510120233862
138	0x3fe7f694e008c77f	0.7488502860708052
139	0x3fe29e6bbaebe2f4	0.5818384791192259
140	0x3fdfc3af1433b8ed	0.49631859753470914
141	0x3fe9220b80834e70	0.7854058752076991
142	0x3fd8c7ac695e2154	0.38718710222066943
143	0x3fe9127f7fb465b3	0.7835080618125886
144	0x3fe3925f32c328e7	0.611617659707261
145	0x3fdd11fd8b8aa657	0.4542230475150055
146	0x3fe5e47451de11c8	0.6841374968503766
147	0x3fb8d77558ba11e0	0.09703763405020238
148	0x3fc7bafaa658085a	0.1853936493135418
149	0x3feaa22c74b90b68	0.8322965888731746
150	0x3fedc37401b7f17a	0.9301090272488601
151	0x3fe064ff7a10ab66	0.5123288520893368
152	0x3fed530cb1425402	0.9163878881541907
153	0x3fdac229e1122b8b	0.41810080508792485
154	0x3fdf92ac80145978	0.493327260091426
155	0x3fe8bbae7b8e48fa	0.7729103482436408
156	0x3fdc17b9e723d243	0.4389481312967158
157	0x3fd69e401d30e11e	0.35340884066273925
158	0x3fc5e55f147a72ee	0.1710623598090914
159	0x3fd330371ffb2f91	0.29981783030665904
160	0x3fcfa7cbd82bc22d	0.2473082356950881
161	0x3fee07d4efebc0f4	0.9384560285525638
162	0x3fd8577e75e5b274	0.38034020913509115
163	0x3fd6efb6c7a07631	0.35838098044209504
164	0x3fdd0067f1bd1c96	0.45314978225037217
165	0x3fd5a42748d39701	0.33814413177456976
166	0x3ff036ab89d13d4d	1.0133471854677112
167	0x3fe120a311a4eca0	0.535234007321737
168	0x3fe8e0ad25c2b7f9	0.7774263131630043
169	0x3fde5cc7fb74e8ca	0.4744129138595211
170	0x3fdc94747be92a9b	0.446560975081107
171	0x3fcd89f6bf62ba13	0.23077282280924347
172	0x3fc04dd0db0739eb	0.12737475104081794
173	0x3fefbec667fa4f9a	0.9920379668060264
174	0x3fe193ae9799fc5f	0.5492775879828392
175	0x3fd6dc8dd26658a0	0.35721154734472726
176	0xbfb42ceee571514c	-0.07881062604548567
177	0x3ff18d722a2f467f	1.09703270414721
178	0x3fe78f2457bdece2	0.7362233842572119
179	0x3fe875664490b518	0.7643309916653918
180	0x3fdd1b39bc9fbd9b	0.4547867147475359
181	0x3fe7837e569130e2	0.7348014536633196
182	0x3fe7ea5359282455	0.7473541966766201
183	0x3fe5e859dd566c9d	0.6846131632804774
184	0x3fe50770d08bf6c8	0.6571582863977818
185	0x3fe050a2348baddb	0.509842970493476
186	0x3fcab1b8cb1caee3	0.20854864041881802
187	0x3fe16bbeeb860dcc	0.5444025611945391
188	0x3fdc1cde7f62029a	0.4392620319340864
189	0x3fdf3bc6f430d378	0.48802350851774845
190	0x3fec84466adee582	0.8911468589132456
191	0x3fbe732b4a036580	0.11894484097446956
192	0x3fbd190cb912345f	0.11366347807252584
193	0x3fcb886f28262d63	0.21510114155203572
194	0x3fea443aff9c01e4	0.820828913914792
195	0x3fead7182a23b895	0.8387566397702978
196	0x3fea5c845f172bbd	0.8237935883747621
197	0x3ff00d73f25370b0	1.0032844034058535
198	0x3fee9bdf6daf9c08	0.9565274374298278
199	0x3fe5f42781c33008	0.686053994600571
200	0x3fd0765f1463b0f3	0.25722481719164064
201	0x3fdc1e5eab905574	0.4393536258151791
202	0x3fe49d1139be1f1d	0.6441732528482792
203	0x3fa70ec685fb3813	0.04503460298074926
204	0x3feb5f26a54f71b6	0.8553651074139939
205	0x3fe33c5dab1dc193	0.6011188833345379
206	0x3fe283c110732ef1	0.5785832711494249
207	0x3fe29697b9cc3a0e	0.5808828953611866
208	0x3fede2496770ae78	0.9338728924098652
209	0x3fc3675564c035d9	0.15159099025224412
210	0x3fdbf3f30f39e174	0.436764492863879
211	0xbfb25d4f29f90f76	-0.07173628592232525
212	0x3fcac3c38b207355	0.20909923833178348
213	0x3fb1493eedcc5dd8	0.06752389245627144
214	0x3fd537e3a86de122	0.3315362114731376
215	0x3fe4b0349734513a	0.6465094521723025
216	0x3fd717888430795f	0.36081135663143543
217	0x3fc37e38b099a46c	0.15228947279982508
218	0x3fe31232e1dc525e	0.5959715281811204
219	0x3fbeb0bdc7e1df39	0.11988435869158999
220	0x3fdbe93ea52cbd95	0.4361111271891443
221	0x3fe040979dced37c	0.5078847963510351
222	0x3fc179cffa55ddb0	0.13652991984757312
223	0x3feda83a983bc01c	0.92678575261198
224	0x3fc932f514d26bc8	0.1968675948781693
225	0x3fe2841add01e63c	0.5786260906745109
226	0x3fe0c6c38a70d135	0.5242631629867335
227	0x3fefa9a17c53160e	0.9894568851675005
228	0x3fc056baa96286c7	0.1276467635225826
229	0x3fd25811917e3b40	0.28662528236684537
230	0x3fed90395ca12527	0.9238554772538564
231	0x3fd3e3975fb05d3a	0.310766070791448
232	0x3fed1fc5ce071237	0.9101285003640162
233	0x3fe83e75af405dc9	0.7576244757537377
234	0x3fe128afbc67b128	0.5362166099344323
235	0x3fcb719bcaecd460	0.21440455826237592
236	0x3fcd6bde265f8d50	0.22985436319059227
237	0x3fecca006f7b0072	0.899658410773567
238	0x3fbd3f34254f2701	0.11424566183918829
239	0x3fddce5adf0962d8	0.46571990757869974
240	0x3fc52346fbf835d3	0.16513907721711849
241	0x3fec3e8c11559108	0.8826351488646944
242	0xbf9b4971089cdea9	-0.026647344732934872
243	0x3fccfdeeca910dc3	0.22649941340396937
244	0x3fe39e82a05171f6	0.6130993968213818
245	0x3fb3bef4de742714	0.0771325152492433
246	0x3ff0b5b03d458311	1.0443575280589281
247	0x3fc167fe3a490d82	0.13598611684765777
248	0x3fd31bcc9694d0af	0.29857172684865935
249	0x3fde1b2599da1dac	0.4704069139920317
250	0x3febbf393bd58062	0.8670927208550092
251	0x3fe03007a165e099	0.5058630134872316
252	0x3fecb9cc302b2abd	0.8976803723138215
253	0x3fec5245f113b5ca	0.8850431164298069
254	0x3fe8bdb18583efa8	0.7731559379312687
255	0x3fe8d1cdac1affaa	0.7756107675013386

L f8 [40, 40]
0	0x3fecbbd05d38924b	0.8979265042040167
1	0x3fc3fbd0a13442c3	0.15612228270813064
2	0x3fca8900cfa16a67	0.2073060048886248
3	0x3fe4535dc5262fb2	0.6351765490121493
4	0x3fe8f8299f330a0f	0.7802932843554248
5	0x3fd7d15fd1204d33	0.37215419218519513
6	0x3fe2777270916261	0.5770809362976018
7	0x3fe5bccbd7614616	0.6792964178695822
8	0x3fe3ece0993f3bec	0.6226656907182337
9	0x3fe31200a6192f9d	0.595947575007347
10	0x3fb0731cc71e2e8f	0.06425647603298955
11	0x3fa634d43b19b6ec	0.0433718034881688
12	0x3fdf329f186201ab	0.48746468907486457
13	0x3fd578001f6e03bb	0.3354492480212305
14	0xbfb45f82bff77260	-0.07958237826046277
15	0x3feeb1741089a513	0.9591617892266718
16	0x3fe765a2af5c0f30	0.7311566758148498
17	0x3fe90592c06aec12	0.7819303281934273
18	0x3fe5611215d65998	0.6680994440564971
19	0x3f8c9c0b5562ffd0	0.013969505828185819
20	0x3fe947879a5a66cd	0.7899816527089684
21	0x3fef1b35d643b6f1	0.9720715699056354
22	0x3fd49c932b6d82b0	0.3220565723513955
23	0x3fe2f04aa40bdb35	0.5918324665097773
24	0x3fd4b9961a4bc742	0.3238272911831822
25	0xbfbec90135083a40	-0.12025458855371429
26	0x3fd683bee0c81ba4	0.35179111434302457
27	0x3fefe4d240c44c16	0.9966822876907624
28	0x3fdfbbc3bbb426e2	0.495835240654385
29	0x3fe43c40c9098a68	0.6323551107892174
30	0x3fe9823997f640f8	0.7971466033941672
31	0x3fddfa1b7a8ee7ce	0.468390340505377
32	0x3fa67aa08c35c96a	0.04390432082699898
33	0x3fd73179c2d0e4ef	0.3623947527408537
34	0x3fdda10dc84ff337	0.46295494615314986
35	0x3fe1275373fb7700	0.5360505357054706
36	0x3fb966df1b04edaf	0.09922594461106969
37	0x3fde22f63073f7fc	0.4708838914083342
38	0x3fddb0ec26f5728c	0.4639234905678584
39	0x3fd910c03ebddefb	0.39164739729993386
40	0x3fe54f53bbdbd60a	0.6659334820857918
41	0x3fd9fdb49350741c	0.40610994707259507
42	0x3fab5dbe2d71df28	0.05344957642313225
43	0x3fe14f4670c7d9e0	0.5409271433589389
44	0x3fd3e1a7739908d5	0.3106478337177923
45	0x3fe520c88990f080	0.6602518736685994
46	0x3fd8e7caa0df9d3c	0.38914743147184416
47	0x3fd541057eece24b	0.3320935954575687
48	0x3fe813453f9d88a6	0.7523523561942695
49	0x3feabcf805c365b4	0.8355674851001624
50	0x3fe4f1b5b2c83bb8	0.6545055858458602
51	0x3fe0fe595bf6a89f	0.5310484691774667
52	0x3fe7f3af96e64686	0.7484968135124326
53	0x3fdd8615e92177bc	0.46130893484757585
54	0x3fcda11fd8087b62	0.23147962616436774
55	0x3fc18c95305f29a8	0.13710274564648484
56	0x3fe7e9c1406a91f2	0.7472845323687223
57	0x3fbae084204738c4	0.10498834407846674
58	0x3fd70b96c381a7a1	0.3600823315851987
59	0x3fd9cd1189d39501	0.40314138850801845
60	0x3fca04f981d16771	0.203276813876808
61	0x3fdd246509b8b183	0.4553463549553031
62	0x3fe5353026110ba0	0.6627426856506311
63	0x3fce4fbcdf6ff179	0.2368084040644012
64	0xbfab90243e9012b1	-0.05383408797937273
65	0xbfd04de2a2ba5814	-0.25475374118229976
66	0x3fdd43b43c99b810	0.4572573272515692
67	0x3fe8559cc53c4a8b	0.7604507305389502
68	0x3fdd63a037c7497b	0.45920567938914986
69	0x3fb936bb6e79a388	0.09849139639994864
70	0x3fdac1ddd1d2e4c3	0.418082671075876
71	0x3fc3f048c23b816e	0.15577039226537742
72	0x3fe2f8e33d3da620	0.5928817936048212
73	0x3fc42037491633db	0.1572331530445855
74	0x3fd5c24ba1f51a9a	0.33998385254054997
75	0x3fec89ba1d76f497	0.8918123794061498
76	0x3fd9ebde1ac0e205	0.40502121555940135
77	0x3fdbf385c762a5d9	0.4367384383318416
78	0x3fd7feffc0f0c3bd	0.37493890611500175
79	0x3fce213b6915a2de	0.23538916235999968
80	0x3fd87e30576d5bc9	0.3827019552022049
81	0x3fd8b4bf0158ca9c	0.38603186732795236
82	0x3fe1cace40bfe46d	0.5560065521850796
83	0x3fe93ea6359a6f0c	0.7888976141871082
84	0x3fd3814cdf9d65af	0.30476686322580354
85	0xbf9d9a780e3d171b	-0.02890956484704708
86	0x3fe2500482dde8a8	0.5722677761071013
87	0x3fe399de01635b89	0.6125326182471876
88	0x3fd472d65e0f1a83	0.3195091169876962
89	0x3fda07c5b6fd907c	0.4067243849770035
90	0x3fd5052cb7958894	0.32844083717476136
91	0x3fd178f24a2ed78c	0.27300698513442323
92	0x3fe0fca70e929869	0.5308413776990736
93	0x3fdb467b51338e51	0.4261768620474174
94	0x3fcfc77f1861a2fd	0.24827564898011892
95	0x3fdbd068f8cdd289	0.4345953397490026
96	0x3fd8c498cd42a405	0.3869993214125887
97	0x3fe4d8525745cb52	0.6514064507049204
98	0x3fd3bfb8b35214f7	0.30857675086765773
99	0x3fb3e7820cd49fba	0.07775128186460636
100	0x3fd9ced832268a20	0.40324978730692074
101	0x3fdb5ffc8d582a61	0.427733552962911
102	0x3fe8061d24a0d321	0.7507463183779671
103	0x3fac23c693608b7a	0.05496044682538233
104	0x3fd6a5edf25d2636	0.35387753170343517
105	0x3fdb0406ccf66bce	0.4221207620227546
106	0x3fe615ba2a869804	0.6901522474843209
107	0x3fe03b1348bc017a	0.5072113438218786
108	0x3fd264ec7e7aa79a	0.28740990020252755
109	0x3fdfe297ab116c08	0.49820510583748545
110	0x3fd25329b565754a	0.2863258620689818
111	0x3feb39a107001b30	0.8507847916342595
112	0x3f9834653a705cd3	0.023637372676685708
113	0x3fcd4dc7761c8050	0.22893613116412093
114	0x3fdaaafb39f51161	0.416685873602793
115	0x3fc4f62e491a7957	0.1637628418874992
116	0x3fe6c589c26191a4	0.71161354031624
117	0xbfc5c6b3d54e7cdf	-0.17012641826020222
118	0x3fdd0ea64ac9fd47	0.4540191393243344
119	0x3fe9ab88401abd10	0.8021889926948536
120	0x3fc33424867341f4	0.15002876820518873
121	0x3fe2383dc47f6117	0.5693653905719057
122	0x3fe20f50a02e9ff1	0.56436950002262
123	0x3fe8daa143dc7b72	0.7766882253089149
124	0x3fc54143a34ddef0	0.16605420564496098
125	0xbfcda7fa6e949dd1	-0.23168878936233608
126	0x3fe7c397d5aed17c	0.742626111363776
127	0x3fd59fc4204737d9	0.33787634994666643
128	0x3fcdb42ca9a19aec	0.23206098826195587
129	0x3fbd5cd44fea0acc	0.11469771338492335
130	0x3fb9702bb9764421	0.09936784055595684
131	0x3fb73e323c3ef24d	0.09079278918120189
132	0x3fca473f03edeab2	0.20529926006186866
133	0x3fc3356012229e07	0.15006638417729354
134	0x3fe407f35a31a0bd	0.6259705316160972
135	0x3fe6e431d45cd838	0.715355791827057
136	0x3fda1c852dd850d1	0.40799073674248826
137	0x3fe84b292e9b041b	0.7591749105705533
138	0x3fc75da9f59b1649	0.18254589550467618
139	0x3febb1c98a3d693d	0.8654525470731539
140	0x3fc7a97de5814f49	0.18485997873596663
141	0x3fcda2a6ce5b0679	0.23152623249011464
142	0x3fe2b055ab9f40d7	0.5840252258294879
143	0x3fdcf837d03f87c3	0.45265002571806806
144	0x3fd0036e5c84b372	0.2502094176768913
145	0x3fe879a81a7f6502	0.7648506658107694
146	0x3fe6f03816d55627	0.7168236204112802
147	0x3fdddeb8f99bec73	0.4667189061726226
148	0x3fbb4de4eda6d030	0.10665732194939959
149	0x3fde8598e90fd105	0.47690413246097335
150	0x3fe2c02fe9f786e1	0.5859603471437503
151	0x3fd15e43b5b88925	0.27137844797302285
152	0x3fe1c649ebddb562	0.5554551703223007
153	0x3fd5d1d738b8de94	0.34093266047737214
154	0x3fe49fdf799c7302	0.6445157408921605
155	0x3fe3b6c533e7f551	0.6160608304777871
156	0x3fe1d44799ed8c88	0.5571630484013363
157	0x3fe06409727dd020	0.5122115360413808
158	0x3fb40533b0c640cb	0.07820437494069947
159	0x3fe2d3313fe24ae1	0.588280319951391
160	0x3fe558e9f7a7fbaf	0.6671037518534514
161	0x3fd886a863ee145a	0.3832188583258521
162	0x3fea873455e4489c	0.8290044477055463
163	0x3fe6b23e6e4cd386	0.7092582849787596
164	0x3fd3ea34c56d3aa1	0.31116980819653334
165	0x3fcbcb6c28b7b4e3	0.21714546192325831
166	0x3febb88caedf2a96	0.8662780204261533
167	0x3fda70863e5dbeb9	0.4131179436726416
168	0x3ff0fe65d4e8c0cd	1.062108833004504
169	0x3fe842979952b5a0	0.7581289286223871
170	0x3f9ed7a757a2ae11	0.030119528507084384
171	0x3ff2472d8c74f350	1.142377422961733
172	0x3fe538d22cb36c88	0.6631861565650903
173	0x3fd280bf9606ee0e	0.2891081776722054
174	0x3fc3c60551f401dc	0.15448061467760865
175	0x3fecf203f7ff11b1	0.9045429080656985
176	0x3fe59428f7c2d7f2	0.6743359412273533
177	0x3fe8319e50193220	0.7560569347784316
178	0x3fef1db67ebf950b	0.9723770595125257
179	0x3faae4d45f95ac1a	0.052527081172989834
180	0xbfb2eed730879827	-0.07395691809469494
181	0x3fd3c54c5505d83f	0.3089171247769435
182	0x3fc33257a1bf68e9	0.14997382543408058
183	0x3fcbae60f25b011f	0.2162591155411144
184	0x3fe48c56d57f0158	0.6421312494131071
185	0x3fdb2060bf0b3aba	0.4238511911070578
186	0x3fe850cf477443e1	0.759864463385494
187	0x3fe092cb1a5fa3dd	0.5179191126927624
188	0x3fdf17edbb0723da	0.48583548798029386
189	0x3fe1b28281752326	0.5530407455890767
190	0x3fdd9eeddf6a73a9	0.4628252679629506
191	0x3fd953f318508647	0.39574887632815997
192	0x3fdd9ce75de98a75	0.46270164652938855
193	0x3fecc2df4ef4a3a5	0.8987881223775857
194	0x3fd49799a9da1fb5	0.3217529448233976
195	0x3fe84a090e8e5660	0.7590375217720968
196	0x3fd4952f8ed06fd7	0.3216055769605623
197	0x3fed0f440c7ff0cc	0.9081135028968901
198	0x3fe58a3f36539f1f	0.6731258450572318
199	0x3fd398f182a353c0	0.3062099242936789
200	0x3ff038d17b7c7cb4	1.0138716529543617
201	0x3fd31a263e9cf006	0.2984710322814411
202	0x3feab42c085f857f	0.8344936526811323
203	0x3fde60aa648d4112	0.47464999980458444
204	0x3fe2533c0b328426	0.5726604670236426
205	0x3feea43207a6a196	0.9575433873588277
206	0x3fb325b8071160f5	0.07479429409557155
207	0x3fbc8270befe0812	0.11136536276720246
208	0x3fe2ccf51dbd6c6a	0.5875192242487064
209	0x3fe719c2fd762bdb	0.7218947363302236
210	0x3ff0726897dae4a9	1.0279317790830567
211	0x3fe3944dcb606507	0.6118535015295102
212	0x3fe1f9fc9b0aeb4e	0.5617659595658127
213	0x3fe2179720a40c72	0.5653796803966442
214	0x3fe2efe553638dba	0.5917841557206238
215	0x3fe225f5b1f1ee2c	0.5671337581147262
216	0x3fe6ca1953219676	0.7121702788978854
217	0x3fd02b938fc28ea4	0.25265969313680103
218	0x3fe4b16c795e67bc	0.6466581697925373
219	0xbfa622a965eb7153	-0.04323319787156046
220	0x3feedc3112994670	0.9643788684135881
221	0x3feaff57fc38dd08	0.843669884320577
222	0x3fdf534bcd0ca5d0	0.4894589903293225
223	0x3fd82e46b923cca6	0.3778244789129509
224	0x3fd0d3e98b681e6f	0.2629340993303008
225	0xbfc054ca445c8cbe	-0.12758758867230385
226	0x3fe9af39434701b6	0.8026396097193842
227	0x3fc0d79234b372ef	0.1315787083939521
228	0x3ff56aa3227b40cc	1.3385344836170132
229	0x3fe8f48d5e9b932d	0.7798525665099071
230	0x3fe95e63f56f8b46	0.7927722734133134
231	0x3fee569a80a56b96	0.9480717194195332
232	0x3fa32b8cf0933838	0.03744163929660299
233	0x3fc3706c77555d68	0.15186839892224246
234	0x3fb9384c548d84a9	0.09851529182698705
235	0xbfe0c0aa2c4113aa	-0.5235186447467772
236	0x3fdaca16284cdba3	0.41858438430375083
237	0x3fe0416e08fbd121	0.5079870391332727
238	0x3feef5ee7f215b8a	0.9675209506047946
239	0xbfe2d8ab5f3e498a	-0.5889489040585414
240	0x3fdb72d8bc765edc	0.4288846817448595
241	0x3fe9a8e20b59a025	0.8018655988389624
242	0x3fd1ac152ad5d053	0.2761280935585592
243	0x3fe0e412431a1f62	0.5278407393061395
244	0x3fdc43ee7c39a03c	0.4416462147842173
245	0x3fa9468672011c84	0.04936618940023954
246	0x3fee06e893e1fe79	0.9383433235488631
247	0x3fdbde6fea77e379	0.4354514875154148
248	0x3fe440d4e9a17c00	0.6329140246488123
249	0x3fb725ff3c80a2b9	0.09042353846656227
250	0x3fd32996fbcec77a	0.29941343870733983
251	0x3fe72c88c004bc25	0.7241863012658355
252	0x3fe5b1f36119398d	0.6779724976020575
253	0x3fd0f09e4acbc09b	0.26468617729461535
254	0x3fec16010f2bf935	0.8776860519717845
255	0x3ff0a2188b75c379	1.0395741889626307

weight f8 [50, 4]
0	0xbfd100eb70ced09a	-0.26568113342660526
1	0xbfd2daad270f29dd	-0.2945969468534296
2	0xbfd9179c729dbf5c	-0.3920661086367454
3	0x3fa86bafbef97b16	0.04769658285362348
4	0xbfc964745649f23b	-0.19837812627146598
5	0x3fdee8859e31afa0	0.48294201325074404
6	0x3fd2f6f0d7a49179	0.29632206972953373
7	0x3fdc27a9358e5945	0.4399207137115762
8	0xbfd73a2b0732b26d	-0.3629252977650939
9	0x3fcdfe8bc2a45393	0.2343306255721954
10	0x3fa634b572a8502f	0.04337088608386385
11	0x3fa4b5c5e557e10f	0.04044931816673813
12	0x3feac6a5ec4f1490	0.8367490401657438
13	0xbfed898aa88c2fe3	-0.9230397502847122
14	0xbffc8802ce945f5c	-1.7832058019175383
15	0x3fc64ccc5ddd11d3	0.17421869834119139
16	0x3fd5f74b77fcc09b	0.34321867673407674
17	0x3fd49d22356d0325	0.3220906755196203
18	0xbfd9db0d47ef705f	-0.40399486565525494
19	0xbfd78dbb6f5e9b15	-0.36802564502652163
20	0x3fdc9849d68e23cb	0.446794948126407
21	0xbfc97f42251a4794	-0.1991961175122553
22	0x3fe70b09bc565a00	0.7200974157775022
23	0x3fc8e6a54d9ebd40	0.19453874864619003
24	0xbfd35d9cf15f1270	-0.3025886876242003
25	0xbfe01c4c7f9e559c	-0.5034544460819919
26	0xbfd390e47244f130	-0.3057185283576187
27	0xbf934a59b596e609	-0.01883831187089949
28	0xbfd4bb0793e52597	-0.3239153808868535
29	0x3fbc79d972633d29	0.1112342743174294
30	0xbfde34b2a57fea6d	-0.4719664207656596
31	0xbfdbe0f930914596	-0.4356062864581757
32	0x3fd089ef0bfa033c	0.25841880960074426
33	0xbfc53f3ce1ca2288	-0.1659923651207189
34	0x3fd8fd5835f9dd24	0.3904629256353067
35	0x3fb9b3f2e1c56657	0.10040205013265201
36	0x3fa3d30f2258361f	0.03871962827916441
37	0xbf94a48dfd7d353f	-0.020158976170298045
38	0xbfc5054fd07970db	-0.16422460250294688
39	0xbfb86ee4149719c7	-0.09544206144992194
40	0xbfd089949f734cb0	-0.25839725085570375
41	0x3f942df65adb759d	0.01970658235119559
42	0x3fd8e7c075c7d3c9	0.38914500715264616
43	0x3fcff782404c98a4	0.24974086894616676
44	0x3fca6b7d2318b9b4	0.20640529836368915
45	0xbfbe0b3baa5bc36b	-0.11735890301839695
46	0xbfbce4ea9ccb0ea3	-0.11286798789938728
47	0x3fc8814cc125a0ba	0.19144591742520395
48	0xbfd00b244017fc52	-0.25068002947950163
49	0xbfd36e75dee7b8ae	-0.303616969757864
50	0x3fe17d839b8673b7	0.5465715444184899
51	0x3fa0fa4f18293159	0.03315970582898115
52	0xbfc7b3a6049fb63d	-0.18516993737959977
53	0xbfd9e378a5b297b8	-0.4045087450161833
54	0xbfd6cac71e585a00	-0.35612657512083956
55	0x3fdc5a27cac97ef4	0.4430026512472829
56	0xbfe322451a615f88	-0.597933341526173
57	0x3fb4b58779ba1eab	0.08089491578914003
58	0xbfcf444738875a81	-0.24427118549529683
59	0x3fc179b73e285e1b	0.13652697119754084
60	0xbfd91aeb150d10ab	-0.3922679620338935
61	0x3fdb684b2717de21	0.4282405740518432
62	0x3fd80799ab152fee	0.3754638834695915
63	0xbfe1b4c46c038d75	-0.5533163175245323
64	0xbfdcf49dc8fa0703	-0.4524301970160282
65	0x3fb839056ccf5d5a	0.09462007433409295
66	0xbfd85a19aa9b58b8	-0.3804992834169627
67	0xbfcdd0f635a19648	-0.23293950670920283
68	0xbfe108e4092be6ee	-0.5323352984553062
69	0xbfc9420bd0a75ec2	-0.19732806862042734
70	0xbfe3f46f2a982f63	-0.6235881645129492
71	0xbfde419dfbc1417a	-0.47275495133819556
72	0xbfb409176c647688	-0.07826372524547243
73	0xbf6ff06afe15503d	-0.0038988198945535666
74	0xbfc482fe43d94f59	-0.16024759591038665
75	0x3fddcd91db5ea34b	0.4656719820291541
76	0xbfd2423984f6b0bf	-0.28529203400354314
77	0x3fe47c8a999db530	0.6402028084100149
78	0x3fe39613c0a10d54	0.6120699655806825
79	0x3f9fae4c2662b348	0.03093832954680245
80	0x3fc342f698ebc5d3	0.1504810568508633
81	0xbfd416b8775954d9	-0.31388675360842694
82	0xbfc92f98cca7a625	-0.1967650412837411
83	0x3fdebb1d310d9118	0.48017053404170573
84	0x3fd135b9309ce1d0	0.26890401599260105
85	0xbfd3215c34948ef1	-0.2989111436347534
86	0x3fb84151d4c64fc6	0.09474669880574912
87	0x3fc5e4a3bd73ec79	0.1710400271475441
88	0x3fcf9c76083d279f	0.24696231272019717
89	0x3fc268a3f57f0fd7	0.14381837355733637
90	0xbfdd35b8f1536a95	-0.45640395705201203
91	0xbfda23449c8fe231	-0.4084025887418959
92	0xbfd9ddb0c03d357f	-0.40415591023778313
93	0x3fc2c6bc3d0a6544	0.1466899202394335
94	0xbfb21f5743faaf6e	-0.07079072389268301
95	0xbfcfadb53ed2be5f	-0.24748864715137395
96	0x3fc016c061b71f37	0.12569432040458547
97	0x3f9e2169d820379f	0.029424337211871095
98	0x3fa54f30dbe1f4ff	0.041619803277152194
99	0x3fc2b8890f8dcd27	0.14625657329052297
100	0x3fc543a8c1ca4053	0.1661272951355409
101	0x3fd75390cb819b3f	0.3644754397741287
102	0xbfceaa72090d5197	-0.23957658235543697
103	0xbfdcdec246cec7a9	-0.4510961238366869
104	0xbfd911dba8c994c4	-0.3917149685206136
105	0x3fbb78a64212d51b	0.1073097144424832
106	0x3fc7fab338bd5626	0.1873382594155128
107	0xbfb2b583feccab1a	-0.07308220835390636
108	0x3fd4d1c475c93b93	0.3253031873945755
109	0x3fb8a759a91e3fbf	0.0963035619627126
110	0xbfaedb549d0aedff	-0.06026710907960008
111	0x3fce53d23f0ec89b	0.236933022298733
112	0x3fd7d4638438938e	0.3723381797047346
113	0x3fc11f7f5baebb69	0.13377372719466088
114	0x3fd5a885d5e8d51d	0.3384108151397685
115	0x3fd20c95029630a5	0.2820179486523194
116	0xbfd338d247fd98d9	-0.30034310369809486
117	0x3fd95233652f4954	0.3956421363956413
118	0xbfc3cc6734e6b2c0	-0.15467538912834833
119	0x3fa0d65ecefe5f86	0.03288551594522375
120	0xbfd1c16175416b3f	-0.27742802096115676
121	0xbfa34c32cdb707b3	-0.0376907230488678
122	0x3fd1ff16bc29bb9c	0.2811943852929575
123	0x3f745a2a52bf0cb8	0.004968800854786064
124	0x3fd7c54e336cdb9c	0.3714175703238938
125	0xbfc778bb07ba3675	-0.18337190511049398
126	0x3fde1321f003d03a	0.4699177593131513
127	0x3fc61ce3784f7883	0.17275660872013895
128	0x3fc7495966b1dfe7	0.18192594065089837
129	0xbfb7ead294049dfb	-0.09342685807916233
130	0x3fd23e2f40235abd	0.2850454450939813
131	0x3fd39b2043f1125e	0.30634314188890766
132	0x3fcaa2b4c48938d9	0.20809039684758693
133	0xbfdda38e37c58f20	-0.4631076378484398
134	0xbfdc842f08641ca0	-0.44556785411300304
135	0xbf98305c97244455	-0.023621985173182775
136	0x3fd2c0b0d675fb41	0.2930109114021669
137	0x3fd45f4efef0a15d	0.3183171739242619
138	0x3fc69eaa5774375d	0.17671708364690178
139	0xbfdd71e8224abac4	-0.46007731770343363
140	0xbfcd40e8b24ac2cb	-0.22854336457887423
141	0xbf53855dd761b1ae	-0.0011914650363237067
142	0x3fd0b27b05bae6a3	0.26089358863428397
143	0xbfda0449b5ede70c	-0.40651171461614477
144	0xbfc0050706f2fe10	-0.12515342559162024
145	0x3fbac5bc42699d4a	0.1045797025814085
146	0x3fcdbc90e2c070f0	0.23231707641469468
147	0x3fd037817eb8ffbd	0.25338780761012086
148	0x3fe1d5f18da5f87a	0.5573661581581881
149	0x3fe13fc681e741d3	0.5390350854086655
150	0x3fd715b0d8a81ada	0.36069890172841
151	0xbfd1f5c69258d3f0	-0.28062595645616195
152	0x3fdd035cc1d1a46b	0.45333022048595834
153	0x3fc84a1dc3b38d72	0.18976184898120213
154	0x3fd8664d0c5d1da4	0.38124395568271496
155	0x3fa836f3ee64b72a	0.047294257021674405
156	0x3fb8fab119c46056	0.09757525328711955
157	0xbfd37131dfd0a465	-0.3037838636105959
158	0x3fb3602a1f3dd389	0.07568610441906122
159	0x3fd53649b6548eed	0.3314384728021043
160	0x3fcaaeb017ab4365	0.2084560504504466
161	0x3fd5f0c226c1fb95	0.34281972680030864
162	0x3fc74cb810f65f31	0.1820287783455057
163	0x3fbb2b0a2341fc38	0.106125482185221
164	0xbfc3f02e6000b874	-0.15576724708211354
165	0x3fb45345c6c8e991	0.07939563849587318
166	0x3fbd94b7df838b5e	0.11555051047211637
167	0xbfd1a38c111bbca0	-0.27560712500321394
168	0xbfda2458257ccf69	-0.40846828137295305
169	0xbfe10de62a0f3c0c	-0.532946664950829
170	0x3fb2f6104ca0e4e1	0.07406713362515262
171	0xbfc04fa16eb17f77	-0.1274301329131011
172	0x3fc5cf8ec90a0db6	0.17039666000719728
173	0x3f710658fb459357	0.004156444152930336
174	0x3fddd4d12312bf87	0.4661143152725277
175	0x3fe2cf6c5ccdfdf4	0.5878202259627288
176	0xbfc54638a90f2297	-0.16620548491325302
177	0xbfdf8583bf23b9c0	-0.492524086627693
178	0xbfd6f5082722719f	-0.35870555707676915
179	0x3fd865545c98a5ee	0.3811846641789022
180	0x3fbe8c44df47e87d	0.11932783557122835
181	0x3f842d16fb2ed67c	0.009851626911635984
182	0x3fb6eda808049471	0.08956384845494526
183	0xbfd48a2bf66b9a8f	-0.32093333305821486
184	0x3fd0fc422e388887	0.2653966380477261
185	0x3fbddad30804e69e	0.11662024446277505
186	0x3fd51db98fc3735d	0.32993926085855724
187	0x3fd069d02882f06b	0.2564583201999599
188	0xbfd452d681f195fa	-0.31755602540792405
189	0xbfdce2d3503c1d45	-0.4513443263571911
190	0x3fc38c99c1a97b33	0.1527282901397143
191	0xbfb7f5d4f2299491	-0.09359484588783774
192	0xbfc3a5f0883663d5	-0.15350157404898704
193	0x3fb3a48bdd54a392	0.0767295279844247
194	0xbfb42b64f754a23e	-0.07878714598030798
195	0xbfca35de2c5fbae9	-0.20476891676613398
196	0xbfd0c25fe06a9a06	-0.2618636790815859
197	0xbfd11e06435b8ab8	-0.2674575479306145
198	0x3fd55e538a529d6a	0.333882222252632
199	0xbfcd32bd0920ac17	-0.22811091371235712

bias f8 [50]
0	0x3fce30ab3c795845	0.23586025669891533
1	0xbfd7378f247142a1	-0.36276606139021267
2	0xbfdb89a07d0303d2	-0.4302750798051963
3	0xbfc082efc192012d	-0.1289958663146619
4	0xbfc2de8798130c38	-0.14741606641300264
5	0xbf9da1aa2b0cf706	-0.028937014463045883
6	0x3fd1c7ebad3da216	0.27782718580286436
7	0x3fc327e4321d1d72	0.14965488860091686
8	0x3fcf3bf61d1f6030	0.24401737615585395
9	0xbfdf0784bf81d310	-0.4848338957011018
10	0x3fda4da3d4bc1d5d	0.41098876738438667
11	0x3fbf8891dc23132a	0.12317763924063443
12	0xbfc93d45ce9cf2dd	-0.19718239391831718
13	0x3fd92e2222a4e3f6	0.39344075568402503
14	0x3fbd0d6a30cf484c	0.11348594371455184
15	0xbfccc6889d58d880	-0.2248087662025604
16	0x3fd77c35818423cc	0.3669561161810264
17	0xbfd5b6fd349ddc8f	-0.3392937673410836
18	0x3faf0b88501ed3ed	0.0606348607829331
19	0xbfba4b32a2286951	-0.10270992716724449
20	0x3fa4df9617ea0951	0.040768328112806736
21	0x3fd368f6c0a3e7b3	0.3032814866306765
22	0xbfce605b56c1d14c	-0.23731557594477193
23	0x3fdbed2225268353	0.43634847286198414
24	0xbfdfa9b99e8ab958	-0.49473419649702555
25	0xbfc92b247325f8e8	-0.19662910101391806
26	0x3fad297d898e78b6	0.05695717147976735
27	0xbfd7f0664cd67c8c	-0.3740478277558814
28	0x3fcfb300be89862e	0.24765023521017454
29	0x3fdb5bf01dfebce1	0.4274864476128198
30	0x3fa01cc28149eb27	0.031469419748609
31	0x3fdc58fcc3b95057	0.4429313575140034
32	0xbfbaa05549a319c0	-0.10400898978978201
33	0x3fb3e3e83e394828	0.07769633788237285
34	0x3fc6ab54cb99a34c	0.17710361424840426
35	0xbfcf25a522d1e9db	-0.24333633613771508
36	0x3fa2e683f8bb03e3	0.03691494380246476
37	0x3fd7d18a8933645a	0.37216437719832174
38	0xbfc6d040c6fa3337	-0.1782303783005774
39	0x3fd283e6e0e19e41	0.28930065117899423
40	0x3fdb61b7ba0ae886	0.4278392140219086
41	0xbfa815cfcb57cb4d	-0.04704141003812499
42	0xbfcebfb5fa842b64	-0.24022555095902043
43	0x3fd12e3ec0c46f68	0.26844757866796565
44	0xbfc0cd764e547dea	-0.13127020668706219
45	0x3f40d7929e56502a	0.0005139795218149824
46	0x3fc64fb3a4b03fed	0.17430730382375206
47	0x3fd00a601e582258	0.2506332680064012
48	0xbfbabbd1dda44a05	-0.1044284025304379
49	0x3fa39bfd10ec8545	0.038299473110110095

weight f8 [50, 50]
0	0xbfb1124802b065ec	-0.06668520036364328
1	0x3f97f3b950c31902	0.023390670351340688
2	0xbfa31f311e0f35e9	-0.037347350043642376
3	0xbfc2e270f66540b1	-0.14753543883353396
4	0xbfb31d5cc9871177	-0.07466678543193504
5	0xbfa1e2b916a1a59f	-0.03493288422834983
6	0xbfb3d2c5348e9857	-0.07743485005502869
7	0x3fb322520f023098	0.07474243990344787
8	0xbfbdc46efa215382	-0.11627858740514621
9	0xbfb9afed8e4070ab	-0.1003406975073086
10	0xbfb5ccf7ba05483a	-0.08515880862731331
11	0x3fae8c7db3db4721	0.05966561146273209
12	0x3fbdbba1f49116e2	0.11614429684513142
13	0xbf6bf926d05ee274	-0.0034147031865042147
14	0x3fc326bcf07995a1	0.1496196912950554
15	0xbfa2886a85260051	-0.03619702220294186
16	0xbfab4cac2b90e3f3	-0.05331934005557306
17	0x3fc50c9081797799	0.16444593736644889
18	0x3fa2ffc7bc871c14	0.037107698215145174
19	0x3fadc8856a08975c	0.058170479959058524
20	0x3f997872cc24b7c0	0.02487353678696258
21	0xbfc1296a6c71b507	-0.1340764073860685
22	0x3fadc5590d654f28	0.05814626968881803
23	0x3faa5eb9df5ba9da	0.05150395251787972
24	0xbf9d1558d687a37c	-0.02840174493204327
25	0xbfa120f860e269a8	-0.03345466787978363
26	0x3fb033a23d1583f4	0.06328786841687856
27	0xbfb19d5708e6b1e5	-0.0688070675593689
28	0xbfb3847be0dd584f	-0.07624029388293362
29	0x3fac6e2e4cedf201	0.0555281132610368
30	0xbf926d275c672b41	-0.017994513525802395
31	0xbf69d9878aad052a	-0.003155483941924904
32	0x3fc565e094247643	0.16717154725567882
33	0x3fa7041ee1d9519c	0.044953312940069184
34	0x3fa4135b30239624	0.03921017611154934
35	0x3fa33b82077f3905	0.037563384452015604
36	0x3f702695033cdcc9	0.003943044739393283
37	0x3fc02a119a828303	0.12628383678841013
38	0x3f74feb7d58e51e1	0.005125730612139696
39	0x3fb44f871c62170d	0.07933849757145257
40	0xbf93e9e380627f38	-0.01944690199945784
41	0x3f68b8b63eb37a41	0.003017764994736966
42	0x3fb5e64fac16db0b	0.08554552031897004
43	0xbf8972edc61f3734	-0.012426240547849333
44	0xbfaa625251570a44	-0.051531383923720614
45	0x3fbc7521380b1093	0.11116225832216946
46	0xbfb52f10b228ca45	-0.08274940824120687
47	0x3fa5b49ba0aa49c1	0.04239355407948465
48	0x3fa674324d82161e	0.04385525890488061
49	0x3fb667967ff95967	0.08751812576642735
50	0x3f9ebcadcc8bdb97	0.030016627892986838
51	0xbfcaf3423fd860c4	-0.21054866902773572
52	0x3fa4b2e0229f01e7	0.040427211977206494
53	0xbf73f44822515d36	-0.004871637128494746
54	0x3faae4382511d9df	0.05252242519866334
55	0xbfa1e2c15dec9db7	-0.03493313094650879
56	0xbfaa11049108cffc	-0.0509110858005499
57	0x3fb6dae680bc4453	0.08927765505747347
58	0xbfc3f1314d8cf18c	-0.15579811369560692
59	0x3fb25502a93bb97d	0.0716096556823
60	0x3fb95451df9e9864	0.0989428683229519
61	0x3fac613275da4e6d	0.05542905510551752
62	0xbfc26ffb77789bad	-0.1440424283366303
63	0xbfb5d517b00803b5	-0.08528278396262474
64	0xbfbffef7d27cb5c0	-0.12498425377699274
65	0xbfd59dd4165a590f	-0.33775808508779986
66	0x3fa83180d1900ee5	0.04725267942560921
67	0xbf9e6d007951346f	-0.029712684063543934
68	0xbf5263984b29fe85	-0.0011223780863075805
69	0x3fc6dc5145b622a8	0.17859855560188476
70	0x3faf646f9dae0214	0.06131314086724529
71	0xbfbb80c74b013ee0	-0.10743375378774145
72	0x3fb0ec8b4e889fb7	0.06610937754942268
73	0xbfa2713886430eec	-0.036020056142232665
74	0xbfaf97ad9e37596b	-0.06170408779478261
75	0x3faf2d2f371a82a7	0.06089160487795669
76	0x3f7d7902e718a70d	0.007195483530759506
77	0xbfbc15e92809c532	-0.10970933177465694
78	0x3fbca7284a2fe745	0.11192561923226403
79	0x3fbcd32610eae688	0.11259687340762004
80	0xbfc9ac89ae4ec1e9	-0.20057793627849144
81	0x3fc10b73be5eeb18	0.13316199107597337
82	0xbfbd7768089cc8fe	-0.11510324678673453
83	0xbfcb1c9c23edf762	-0.21181060556767323
84	0x3fcbc6864f4d155b	0.21699599144100543
85	0xbfbe8bc8bc6f5c48	-0.11932043648208535
86	0x3fa0f8662751c7be	0.033145134258020445
87	0x3fb0b7f1f408c1d4	0.06530677993647
88	0x3f9ec6eeb85a9efa	0.030055742265772324
89	0xbfb2e33800731bd1	-0.07377958308198564
90	0x3fbee7aaba168390	0.12072245639002532
91	0xbfc87aba7ea2cb00	-0.19124537642854733
92	0xbfe448de86021c89	-0.633895169958934
93	0xbfb1bc3aef83ef31	-0.06927841517966439
94	0x3fd7789075314546	0.36673366016937725
95	0xbfe09633677b0ad4	-0.5183350583177693
96	0x3fc756b34dcf7b78	0.18233338641490682
97	0xbfca771634b8eb08	-0.2067592389519961
98	0xbfb582d9dd22b693	-0.08402787827318496
99	0xbfc6f38d6e7e6968	-0.17930763144688489
100	0x3f96b76e93ca32b7	0.02218411232984138
101	0xbf91e352b8c79d6f	-0.01746873143011157
102	0x3fa76edd5bcdcc49	0.04576770539906556
103	0xbfdda5ec7eea24df	-0.4632521857643734
104	0x3f913e999b05b1f2	0.016840362631613766
105	0x3fc8e175c18838aa	0.19438049268541607
106	0xbfad549f164a56be	-0.05728623530482711
107	0xbfc110359c2ffe83	-0.13330717207280793
108	0x3f5f94ea4301b759	0.00192759396670846
109	0xbf9b26acd2158daa	-0.026514721224328554
110	0xbf76ef59e0fb5295	-0.005599356736372703
111	0x3f818bc04ffe490f	0.008567335549547054
112	0x3fcaf5544842d4e0	0.21061185387012582
113	0x3fc439f42a0cdfb7	0.15801860860096692
114	0xbfa7f13e7a164ab7	-0.04676242103882571
115	0x3fb60b1763a6ef9d	0.08610674078857845
116	0xbf97514606c4ef1a	-0.022770971453822765
117	0x3fbbb19bdc3aa54f	0.10817884566008228
118	0x3fbbe0b17751ef62	0.10889729655349137
119	0x3fb4020d56725683	0.07815631256593218
120	0x3fc1efa706ef6f9b	0.14012611235272918
121	0xbf90afd77873411e	-0.01629578278226617
122	0xbfaf017cb80cd635	-0.06055822130876402
123	0xbfbcd20a1e3e53dc	-0.11257994879117866
124	0xbfa562c6a0d5a758	-0.041769225247505204
125	0xbfbda0f76a1ca60c	-0.11573740330336352
126	0x3fb82eb78355e178	0.09446284252579129
127	0xbfb76fc7ee35870c	-0.091549392372624
128	0x3fbedda199381e60	0.12056932440474943
129	0xbfa14f5bdcb9ba09	-0.03380858487513556
130	0x3fc274c01a37c8c4	0.14418793945475816
131	0x3fb63a96a77e7263	0.08683148946006151
132	0x3fc88c6f1db77aa0	0.19178570700656383
133	0xbfa72c49f481ac1e	-0.04525977239321598
134	0xbfc06e9fc310d2c0	-0.1283759787053409
135	0x3fba27573a0cbf44	0.10216279189330374
136	0x3fca3d8ac6de9a27	0.20500311575342886
137	0xbfbd22d8a850c42d	-0.11381296262040115
138	0xbfb7f26b1c346f0f	-0.09354276121706227
139	0x3fc1826b83271983	0.13679260162298243
140	0x3f7482da4faf1202	0.005007603433970777
141	0xbf92140435417c46	-0.01765448164985297
142	0xbfa5595fa8b3224c	-0.04169749197314285
143	0x3fb21a12ce9d5eb0	0.07071034950547062
144	0x3faadad24b44a8cb	0.05245072525788571
145	0xbfbc92e566a0e9ab	-0.11161645656185352
146	0x3fc3a63cadb3260b	0.15351065141139517
147	0xbfb03490f15b2a09	-0.06330209629519613
148	0xbfbb65bd8fda01ee	-0.10702118646623379
149	0x3fb509284834a8ee	0.08217098009905374
150	0x3f9cc5df5ad7f709	0.028098573608068587
151	0xbfc0a7421ede2d5b	-0.1301043177339619
152	0xbfa190f02ec72540	-0.03430891581553874
153	0xbfc079e18c41b8d2	-0.1287195143554017
154	0xbfbc1917ae86bf09	-0.10975788126847531
155	0x3f8f7320f335c69e	0.015356309339696946
156	0x3f6d2be00111de84	0.003560960300599993
157	0xbfb1b004af065cdb	-0.0690920760447286
158	0xbfa45c6accfb6554	-0.03976758720609533
159	0xbf950eb62426696f	-0.020563932377265667
160	0x3fbc0cdd473aeb40	0.10957129467980753
161	0x3fbfdb70d5744b6c	0.12444215022359878
162	0x3fb2bf9cde167161	0.07323627874433704
163	0xbfb60f89e6f37d38	-0.08617460144477185
164	0x3f8a1ca095b2055e	0.012749914711323636
165	0xbf9ac2620e3be77f	-0.026132137411856157
166	0x3fa281f41b941de0	0.036147716871763214
167	0x3fa63d1ccdbb7697	0.04343500148182249
168	0x3fbaf4c18abb5e5d	0.10529718052873123
169	0xbfbe2cf7052df22f	-0.11787361027195041
170	0x3fbee85a69442ee1	0.12073292798975956
171	0xbfafc299bfe9c786	-0.062031559636024844
172	0x3fabb11a61d03287	0.05408556407937675
173	0xbfab8f1793735abe	-0.05382608103689311
174	0xbfa5a5c2d3d5d831	-0.04228028140907759
175	0x3fc079094d41a54b	0.12869373581205887
176	0xbfaf4476210860f6	-0.061069194347682584
177	0x3fc159128d354b84	0.13553077597552143
178	0xbfb78f99788f5704	-0.09203490441663226
179	0xbfb5f03ff3eca76b	-0.0856971712607028
180	0xbfaf8480074dad4e	-0.061557770625621275
181	0xbfc2539bcea3cd63	-0.1431765326484352
182	0x3fad5093a0e998f6	0.05725537623657033
183	0xbfa03e193cfbb2ba	-0.03172377461837557
184	0xbfb18490bb5f2b9b	-0.06842903685098493
185	0x3fbd1761e7cfaebb	0.11363803777174557
186	0xbf8f0c7a6290e48d	-0.015160518773074361
187	0xbf8acda1f38489a4	-0.013087525600501256
188	0x3fc19324c3dd9264	0.13730296672578668
189	0xbfa5d5c1299015d9	-0.0426464427219277
190	0xbf87740b00773579	-0.011451803161345296
191	0xbfb7fb1fc15efb7e	-0.09367559882137574
192	0xbfacc5546806574a	-0.05619300622781383
193	0xbfa10a368a7a2b23	-0.03328104439159165
194	0x3fb5c26eda4ad297	0.08499806241418138
195	0xbfba45b8890bb774	-0.10262635560840555
196	0xbf98ba099e4ef29c	-0.024147177016618046
197	0xbf9221e43fb87830	-0.017707411183543964
198	0xbfb471f59d7a5cc8	-0.0798638829677315
199	0x3fb1366e272e2cd5	0.06723679024269143
200	0x3fba432463a3ea02	0.10258700783371213
201	0xbf9a62f728bdeac8	-0.02576814829033472
202	0x3faebe54f6584164	0.06004586703432116
203	0xbfcbb6f6ed6efa34	-0.21652113526757122
204	0xbfa938e7b827c25e	-0.049262276868721186
205	0x3fc43a1d20ebcab2	0.1580234919307109
206	0x3f80f54c138103ad	0.008280367226804442
207	0x3fb7398154575870	0.09072120961295282
208	0x3f7cc6bc20e7ae9b	0.007025465848055436
209	0xbf771e9cb96e013f	-0.005644428448136118
210	0xbfb0c771827c9c5c	-0.06554326472961364
211	0x3fbeb5b0f65156b5	0.11995988858810842
212	0xbfadb07db217a8fe	-0.05798714446048513
213	0xbfa3dbf54c51cf05	-0.03878752285609547
214	0xbf8997f51da022ed	-0.012496867148017421
215	0x3f941a76bd7c22d0	0.019632201495400292
216	0x3f9318fce254c9a4	0.018650008501205698
217	0x3f97d62ae38b5474	0.02327792180843287
218	0xbf67720a8ff7e49b	-0.00286199629749413
219	0x3fcb65d9a04d23c4	0.2140457184525798
220	0xbfab54ef222b8bd5	-0.05338237087359913
221	0x3f8747515819e7de	0.01136649656404026
222	0xbfaa3c8e55fb53dc	-0.05124325561124696
223	0x3fc0d8157facc3e4	0.13159435972332212
224	0x3fabf6b75f604089	0.054616670982910405
225	0x3fb9c3a376343d47	0.10064145694581327
226	0x3fc540e010f7be69	0.1660423357820833
227	0x3fa7f465054f07de	0.04678645791820178
228	0x3fc81cfc8b08da23	0.1883845976714876
229	0x3fb922458f235fda	0.09817919487556939
230	0x3f8095ad15bb5f4c	0.008097984529214529
231	0xbf555273ecd14930	-0.0013013965683695387
232	0xbfb0be5d776a0a79	-0.06540474095712935
233	0xbfc4c9cb919fcacf	-0.16240830050045083
234	0x3fb1fc4ff91c35de	0.07025623161117475
235	0xbfae8a93096f7882	-0.05965098848513241
236	0x3faedefd0268d9ab	0.06029501585401261
237	0x3fb9dfccb97c75ca	0.10107116249533657
238	0xbfa75688c993a9a0	-0.04558207951216109
239	0xbfb3b08390a6c1cc	-0.07691213876274289
240	0x3fa49c61ee25de7c	0.040255604096214065
241	0x3fa1bf30a4fd81a5	0.034661789074337514
242	0xbf9936c07506f6d7	-0.024622923987172776
243	0x3fc1ffb2a8472f81	0.1406157800359971
244	0x3fa7e1f3fa96799f	0.04664575990613006
245	0xbf8fb50831156ade	-0.015482009885706412
246	0x3fba80b3974aeadd	0.103526329456979
247	0x3f8d3ea8aae2d559	0.014279668536213807
248	0x3fb8f778e8f0cbe0	0.09752612769152291
249	0xbfa3cfc10200d1bb	-0.038694411749392775
250	0x3fb8ebe00f0e73a9	0.09734917037572068
251	0x3fce47d7635c236d	0.2365674243121946
252	0x3fc04d53b5e80e88	0.1273598325934595
253	0xbfc515c0bdc09cbf	-0.16472634568456176
254	0x3fb793f907706bf2	0.09210163528079798
255	0x3fb8789b6e17b2c2	0.09559031904036444

bias f8 [50]
0	0x3fc1aa21c04676cc	0.1380045117229457
1	0x3fb88861a88afd5b	0.09583101620500172
2	0x3fbf6a6cb5db6195	0.12271766128413326
3	0xbf911a275a75742e	-0.0167013310395882
4	0xbfadd4663035a406	-0.058261102089836966
5	0xbf83556bd6b81de1	-0.009440271845064298
6	0xbf876b1cfdfd5015	-0.01143477106203509
7	0xbfb4e2e4e1dd8e78	-0.08158712877553309
8	0xbf93543c184c7739	-0.018876017554354283
9	0x3fbd9d3fc928cb8a	0.11568068181149563
10	0x3f9b18c7c46408e2	0.026461716996899372
11	0xbfbe35b61a211267	-0.11800706994933706
12	0xbfbb861d8459120c	-0.10751518708372759
13	0xbfb23e07522dcbe6	-0.07125898128815286
14	0xbfc2bcee71a13330	-0.14639072941135955
15	0x3facc63a66271c9a	0.056199860544034766
16	0x3fc4672e3c03130d	0.1593988221194639
17	0xbfb1f1087a4e948e	-0.07008412347802759
18	0xbf9cc17427b2826f	-0.02808171741765125
19	0x3fbcb516996cb720	0.11213818784446206
20	0xbfa79ca298ed278d	-0.0461169063260761
21	0x3fbb729096d5db8e	0.10721687014107159
22	0xbfbe36b8c8cdfc35	-0.11802248861748484
23	0x3fb6251e6a5ab66b	0.08650388809720659
24	0x3fb3357762ce3291	0.0750345817779794
25	0x3fabfb6abc606785	0.05465253400343698
26	0x3fc04177b0aff023	0.12699791075999753
27	0x3fb21529a10f4f97	0.0706354158604071
28	0x3fb379cff8a58057	0.07607745953055321
29	0xbfb726377d7d3127	-0.09042689145752957
30	0xbfa67f3c4dbd5a65	-0.043939480294899615
31	0xbfb5c7fcf81dafee	-0.0850828271629209
32	0xbf97323155b3e3d7	-0.022652407508733177
33	0x3f925a6a370a13e1	0.01792303048070554
34	0x3fac06dc1673b6d5	0.05473983549187059
35	0xbfa6194b39dbf42e	-0.04316172677315709
36	0x3f90ffc4ad1e5f8a	0.016600678507159773
37	0x3fbb4bd6bec6783d	0.10662595899199885
38	0x3f8341e3a4312043	0.009403017471541491
39	0xbfb97dc52637fe28	-0.09957534964632286
40	0x3f853885a8c6d75d	0.010361713612706042
41	0x3fb3da6e0454f3b9	0.0775517235351363
42	0x3fb64498effb30b7	0.08698421343723593
43	0xbfc0300ae63e3c38	-0.1264661430581968
44	0xbf930d38f8c1652d	-0.01860512750895287
45	0xbfbbced621a273bd	-0.1086248237720175
46	0x3fb8fb865404dee0	0.09758796263929126
47	0xbfbe56adc474abe0	-0.1185101132038393
48	0x3fc0d6abdd0967ad	0.13155124943551524
49	0x3fbc50e58b44f7d7	0.11060938501483918
