lasa_models/2/skel_model_BendedLine.pt (torch, 99247 bytes, 18 tensors)

R f8 [20, 20]
0	0x3fe260281e033478	0.5742378793890017
1	0x3fde8ddb1b471f33	0.4774081961045226
2	0x3fe3cd6410f862bd	0.6188221293878865
3	0x3fe41a6b44057647	0.6282249764005393
4	0x3fc46912537b753c	0.15945653034479246
5	0x3febe9c2e0289402	0.8722853067489498
6	0x3fe7e6c3ad88cb85	0.746919478353775
7	0x3fe0e21f5b313d44	0.5276028424358761
8	0x3fb690435e41979d	0.08813878108193625
9	0x3fce7c7870bc6b2f	0.23817353729904187
10	0x3fd1cff5ebd53934	0.2783179095321373
11	0xbf95c3a19bb7a262	-0.021254086617690134
12	0x3fe2fb39ebad13e3	0.5931672671364335
13	0x3fe422e722eef38d	0.62926060507708
14	0x3fe93ebbe0a3e286	0.7889079463485167
15	0x3fce11ac0606ba28	0.23491430563213211
16	0x3fe30a3a65c779b9	0.594998549258711
17	0x3fe2545b466e90fc	0.572797429621033
18	0x3fe85815e267c4ac	0.7607526227931394
19	0x3fe941eb8d74c8f1	0.789296890527366
20	0x3fc59ef4144a59a0	0.16891337385886818
21	0x3fed97bf4cf12c49	0.9247738364005126
22	0x3fcd26b9c4f6dc6c	0.2277443134059668
23	0x3fd015385ac94288	0.2512951742728906
24	0x3feacdd56ff416b2	0.8376261889067875
25	0x3fcf9a2f0e97b901	0.24689281666309884
26	0x3fd008a9938bc17e	0.2505287114027154
27	0x3fe2bf7a3f78068b	0.5858737220407461
28	0x3fe8f6fe614ff72b	0.7801505947715887
29	0x3ff14132aa2001df	1.0784174581059387
30	0x3fc404b2ad8604f8	0.15639337036922263
31	0x3fe9a9552b1549b5	0.8019204942195787
32	0x3fea5c0ba91a5abc	0.8237360289375242
33	0x3fe46f10497f0610	0.6385575709793461
34	0x3fcec4d93c33a886	0.24038234176197565
35	0x3fea5428cf52d3bd	0.8227733659065205
36	0x3fcda1f21c004a7a	0.23150469176524152
37	0x3fe57c06604718b7	0.671389759104179
38	0x3fc8d48cbb29665a	0.19398650301700365
39	0x3feec2e601ba8a27	0.9612913163912865
40	0x3fe361cf51cc7e71	0.6056896779663942
41	0x3faf1d5a59ce120c	0.0607708201050948
42	0x3fd3dd4cc20e6c7c	0.31038207007231455
43	0x3fe9c3cc3f3d090f	0.8051511035085087
44	0x3ff013fb0cb95e34	1.0048780915293607
45	0x3ff018bb84b8f86b	1.0060382065271607
46	0x3fe8743e9dfabe4c	0.764190014413495
47	0x3f67c51ba3cf3e8b	0.0029016055909563735
48	0x3fed7b08221853e2	0.9212685266417078
49	0x3fd323e6a44ebad6	0.29906621976526304
50	0x3fe5512f9e252ecc	0.6661604012274096
51	0x3f94c8636c3707b8	0.020295670967022977
52	0x3fd5f404f942036b	0.34301876393879266
53	0x3fdeabde3ba58e80	0.479239996193634
54	0x3fecef4b77e403b4	0.9042107907881616
55	0x3fd7438c6770c2f5	0.36349783040627354
56	0x3feb4a58af89f8ae	0.8528254917616971
57	0x3fc4a0b33533b707	0.16115417573694676
58	0xbf5b6051f47c7428	-0.0016709137289077167
59	0x3fd10fc030c38b8d	0.2665863491258101
60	0x3faabeb96f4dc7b1	0.052236361348050216
61	0x3fe953bcb7461ce1	0.7914718226974423
62	0x3fdaa7ecf8219e7c	0.416499368968722
63	0x3febc1a5a90fd207	0.8673885633457424
64	0x3fe33b18d1b53714	0.6009639831406468
65	0x3fdde5e7d4744d45	0.4671573233365119
66	0x3fe6928b85bb4318	0.7053887950843061
67	0x3fe69c98d76f25e7	0.7066158492754625
68	0x3fd8385cffac0ee4	0.37844014137247783
69	0x3fc74564f879f7ec	0.18180524952543864
70	0x3fe40e3d236129e4	0.6267381373411891
71	0x3fc18926e7b33814	0.13699804604988286
72	0x3fe3ef30d6b0f550	0.6229480927646964
73	0x3fcd9568615fb4c2	0.2311220622499715
74	0x3fc8710b73932efd	0.1909498514490834
75	0x3fed382af4010d94	0.9131064191537228
76	0x3fb4fab64ea1195e	0.0819505636182831
77	0x3fcf73b90a5cabb0	0.2457190800281217
78	0x3fc230d7ae593519	0.14211555493458475
79	0x3fc32be43f39cf59	0.14977696501920937
80	0x3f9bf43129b50d08	0.027298706217391305
81	0x3fdf03fc7024191e	0.4846182913901361
82	0x3fe7a99e20e80394	0.7394552843762647
83	0x3fcf7f090fe0b4ae	0.2460643126991377
84	0x3fe43c447ef4becf	0.6323568801508034
85	0x3fd47692fc931983	0.31973719277848306
86	0x3fc156106a104419	0.13543896845706696
87	0x3fd48d7655fcd50e	0.3211341705058012
88	0x3fee3c4b6cf3be79	0.9448601844760126
89	0x3fe0210836c4fd16	0.5040322370258845
90	0x3ff0e7994792865e	1.0565426631732389
91	0x3fd1162c95196eb6	0.26697840271456685
92	0x3feb50626c074e11	0.8535625562603305
93	0x3fe2df631127b6d7	0.5897689185200886
94	0x3fd4c22d08384e4c	0.32435155680397965
95	0x3fe0f73cf2e3e91f	0.5301804298353864
96	0x3fdced6e1a569b69	0.4519915826044128
97	0x3fed408057431e7f	0.9141236976947339
98	0x3fe8d0d785413489	0.7754933931952489
99	0xbfaf7b3636f0a079	-0.061486906248604485
100	0x3fd01ce0b4d025e3	0.2517625585320202
101	0x3fce0ca4c7c1afe3	0.2347608542798972
102	0x3fe4a02706aa9e49	0.6445498590664523
103	0x3fe1cdd9c71a8221	0.5563782585850882
104	0x3fec082e8874ebb1	0.8759987511797275
105	0x3fbc740d258a39c0	0.11114580313208133
106	0x3fd1f7367469d273	0.2807136666154186
107	0xbfae47601acbf728	-0.059138301154219086
108	0x3fdb079cab5bfeaa	0.42233959898292517
109	0x3fec3647b36fa29e	0.8816259865389673
110	0x3fae133a112a040e	0.0587404390289593
111	0x3fe639e0c7252031	0.6945651902724476
112	0x3ff17839c9d855be	1.0918519863674727
113	0x3fe5e2e068f6f81c	0.6839448976604703
114	0x3fe82c0a247244f9	0.7553759300082269
115	0x3fe051c2c5c11c84	0.5099805700673561
116	0x3fe356d6e57ada01	0.6043505174664575
117	0x3fcd597151427014	0.22929207294225817
118	0x3fd54e379c06a22c	0.3328990005198047
119	0x3fc412cd5e77087c	0.15682379829928894
120	0x3fcfaac8b3ae1dab	0.24739941380924554
121	0x3fe84b11695bc389	0.7591635759145997
122	0x3fb5e630a600e831	0.08554367115803597
123	0x3fde55be32cf5803	0.47398333513172036
124	0x3fe6cfa1a15ceb72	0.7128456260319196
125	0x3fe3a67513441d64	0.614069497708368
126	0x3fddb4364dc2dade	0.4641242751489879
127	0x3fdf0b77fe67f9be	0.4850749954638579
128	0x3fdb3ea6b267dad0	0.42569892332487047
129	0x3fd9a02ce9747d05	0.40040133283942253
130	0x3fed23a76a17550c	0.9106022903530699
131	0x3fef5aa3471735ef	0.9798141849984726
132	0x3fed0da0a513948e	0.9079135154867275
133	0x3fd12f4baf341ad2	0.2685116969081892
134	0x3fc8839914f274f0	0.19151605150992834
135	0x3fa97162e7551de2	0.049693194140271194
136	0x3fcbaf74086f0256	0.2162919083766776
137	0x3fe6fc9a45bf7be3	0.7183352815881076
138	0x3fdd84d9b22f5fcc	0.4612335434044297
139	0x3fbc84ac332e3c05	0.11139942407156418
140	0xbf829471a22f69c6	-0.00907219673347449
141	0x3fd54c993c0433d2	0.33280020581224534
142	0x3fe67a6f67a041a0	0.7024457000680293
143	0x3fb01f8b61f3d40e	0.0629813303128943
144	0x3fd431b4539d5330	0.3155337158726068
145	0x3fd95d7e22b4e682	0.39633134259529623
146	0x3fb51dfd9dac6248	0.08248887156913398
147	0x3fe7a110ba7a91c1	0.7384112970508384
148	0x3fd39c85c553b61a	0.30642837782110777
149	0x3fd174dbb8f82622	0.2727574640599376
150	0x3fb992571d6cf249	0.09988922565839532
151	0xbf95c2426f32978d	-0.021248853718723693
152	0x3fd282d588a5f19f	0.2892354807334189
153	0x3fcd17a893ba3e2c	0.22728450024850255
154	0x3fedafa15982ca8d	0.9276892421970203
155	0x3fc15058650d85f6	0.1352644437238692
156	0x3fe1f852fe7e7eb7	0.5615630121792127
157	0x3fca565450f3c188	0.2057595629953648
158	0x3fe494011237b54b	0.6430669170201012
159	0x3fe08ded94ea2f78	0.5173252018443995
160	0x3fea4d00865026ad	0.8218996642401258
161	0x3fe2d1faff849ce7	0.5881323805414497
162	0x3fe1dc5b94012f06	0.558149136611491
163	0x3fd3913724a1b9ce	0.3057382447940683
164	0x3fe91e47b0dcfed9	0.7849462942467326
165	0x3fc6a9d485186151	0.1770578050498082
166	0x3fdea753eac38b04	0.4789628784766793
167	0x3fd1391ff1980604	0.2691116198840009
168	0x3f93c950fa614aa0	0.019322648317322888
169	0x3f92cac3e2c9c4a7	0.018351612774897188
170	0x3fd650f6d1e0d34b	0.348691658934787
171	0x3fbe1b268d8e8d14	0.11760178523995918
172	0x3fd002b59a37b1b9	0.2501653677016083
173	0x3fed22c57bd793f9	0.9104945582190559
174	0x3fe5d9b881d9eddb	0.6828272377164767
175	0x3fdaeafb16bed8a7	0.4205920908092459
176	0x3fde5968f5f63143	0.4742071535081502
177	0x3fda00a23dab39d2	0.40628868124340756
178	0x3fd7c6829f3264c7	0.37149110361640364
179	0x3fc7bb9f98111f94	0.18541331219807644
180	0x3fba030c01c13734	0.10160899203148405
181	0x3fe3e31f715b53d3	0.6214749540328007
182	0x3fe56abbf2b16871	0.669279073724523
183	0x3fb1a0b56274262a	0.0688584676137444
184	0x3fe45515f1b958a4	0.6353864403888747
185	0x3fc827d2a8ba1146	0.1887152980672317
186	0x3fef7f51a5fc77f5	0.9842918626707148
187	0x3fcec80279e32ea4	0.24047881080183686
188	0x3fc0aecd85625cbd	0.13033455860997903
189	0x3fecc5f2d1afdc00	0.8991636367271667
190	0x3fd0a8945f22704a	0.2602892808006386
191	0x3fe42e4405f1e2b9	0.6306476703749332
192	0x3fe9bb57b8451126	0.8041189764994996
193	0x3fe08fb6a2bc4143	0.517543142168542
194	0x3fe3bc75477f2e8c	0.6167551418706849
195	0x3feea41374de3a39	0.9575288088397605
196	0x3fded55c598d535b	0.48177250619237605
197	0x3fca1dc0fcde413e	0.20403301570014237
198	0x3fec3ed0d7840b09	0.8826679429333534
199	0x3fe455e27a7fcccf	0.6354839699328297
200	0x3fe52d77c27eb113	0.6618002699592885
201	0x3fdaf9a9f8c6e58b	0.4214882783376985
202	0x3fef10b3137b020a	0.9707885151365769
203	0x3fe814ddd4325b2e	0.7525471825091239
204	0x3fe775f5e778bba2	0.733149482815737
205	0x3fe6a9d8d2fb6957	0.7082332726234125
206	0x3fec27c19509b230	0.8798530493637085
207	0x3fd2823ff2da9de8	0.2891998168583698
208	0x3fe322bfcb362c54	0.5979918450333437
209	0x3fb9b604df3067fa	0.10043363999321278
210	0x3feba6cc4f2c6d1b	0.8641110941274833
211	0x3fd7180231740e71	0.3608403666441751
212	0x3fd44eec1dfa0a86	0.3173170368901669
213	0x3fcb1b77ae294d03	0.2117757416150213
214	0x3fec05e4c79d41d9	0.8757194422451519
215	0x3fe80bb7b2d512dd	0.7514303677386028
216	0x3feb76f383896b7e	0.8582704133108192
217	0x3fe2385f355502fe	0.5693813363687636
218	0x3fb816693e11c442	0.09409196629873498
219	0x3fd0165e21dbb315	0.2513652163168428
220	0x3fd822fd4ec7053c	0.3771355885802057
221	0x3fe0fde0edfbc9b8	0.5309910438648364
222	0x3fca462a95dd452c	0.2052663070449311
223	0x3fddb8f82fafe5c5	0.4644146409696897
224	0x3fefdfe55135833b	0.9960810266603412
225	0x3fe7858fd64e3b77	0.7350539384513998
226	0x3fe42853a8322f5f	0.6299227032736602
227	0x3ff1071afb3c5c13	1.0642347158334402
228	0x3fe6e7921d09d358	0.7157679145007974
229	0x3fe8fa42e498d8e7	0.7805494751726457
230	0x3fdb17980272be4f	0.4233150504978526
231	0x3fea4b2e46e18114	0.8216773399726969
232	0x3fc1ece56d055d7d	0.14004199813164667
233	0x3fc6a592ec14c72f	0.1769279148807583
234	0x3fc75f698e46a944	0.1825992531497126
235	0x3fde9fbe4e1b3de6	0.4784999621160452
236	0x3fcbf10447d49800	0.21829274661394038
237	0x3fda18c273063318	0.40776120407899574
238	0x3fe2427761350ee9	0.5706135653094552
239	0x3fd4859986fab6a9	0.320654279533168
240	0x3fde5076a8df7e61	0.47366110316759175
241	0x3fe255b09ba68709	0.5729601898239888
242	0x3fcf0272b0e3f1cf	0.2422622073862741
243	0x3fb24816e549d00b	0.07141249750003469
244	0x3fe760681419786b	0.7305183785026775
245	0x3feb138ae89715c4	0.8461355726982949
246	0x3fe89d108a1a33da	0.7691729256927105
247	0x3fb4e0a2c02e82bb	0.0815526694482384
248	0x3fb031f84be51fc9	0.06326248028665228
249	0xbfa386ea67cff23c	-0.038138699695967365
250	0x3fd312174522c322	0.29797918082754127
251	0x3fdedb72069b3005	0.48214388508927214
252	0x3fe8f725d2da98fc	0.7801694029083417
253	0x3fcbae92550f98fa	0.21626500275960564
254	0x3fbe3a37e252c822	0.11807584071610269
255	0x3fd2cd37f8ea69a9	0.29377555187388765

L f8 [40, 40]
0	0x3fc2dd4df96bc8d5	0.1473786800266398
1	0x3fe80ea86cdb3fa0	0.7517892957784973
2	0x3fe47e5f43841150	0.6404262846631728
3	0x3fce84d8c5d4244c	0.23842916164020023
4	0x3fe26439375483cb	0.574734314028427
5	0x3fe09b85287e98cc	0.5189843932064604
6	0x3fd20932dc3ae9fa	0.28181144244049927
7	0x3fde99c2a062a363	0.47813478148105143
8	0x3fcd13ea9f8ae223	0.2271703032509019
9	0x3fe14c41896aaa08	0.5405585941237527
10	0x3fbc7be2ce40f94c	0.11126534972661267
11	0x3fc307e464dc4d84	0.14867834973174976
12	0x3fed61a526318940	0.918169569584542
13	0x3fdcf5cc68627351	0.45250234788709515
14	0x3fd1774c9b058761	0.27290644778087453
15	0x3febcaf984bb624e	0.8685271828099503
16	0x3fce539605131829	0.23692584274084652
17	0x3fd16160ee0c1763	0.2715685200386046
18	0x3fed0ec028852e5f	0.9080506125842013
19	0x3fdcc360cc3ace94	0.4494249338560874
20	0x3fe3338e7954c271	0.6000435228107347
21	0x3fe5eedc1e3aad23	0.6854076948560855
22	0x3ff03fbf5482b56e	1.0155633259958807
23	0x3fdb49c471254d0e	0.42637740182290507
24	0x3fca3f4caeffecce	0.20505674881846975
25	0x3fb7cf9d84d9171b	0.09301170819625464
26	0x3fe0bddf80f023b9	0.5231778639146035
27	0x3fbeba3e0f0db8d0	0.12002933375854075
28	0x3feafc78fd75009f	0.8433194113095118
29	0x3fdf2019605bc9cd	0.48633417520536854
30	0x3fe8b0134363a29f	0.7714935604281726
31	0x3ff0050348b85cde	1.001223835051682
32	0x3fd0174e840afd6a	0.2514225282174808
33	0x3fd0bbb60c858e01	0.26145697806188656
34	0x3fe6508f4cbfa04f	0.6973339556689185
35	0x3fd9c9e47a443563	0.4029475397117805
36	0x3fd667a88241e3c5	0.3500767967266792
37	0x3fe6ebfbd6cf974d	0.7163066096806944
38	0x3fea726c3209885d	0.8264676072397027
39	0x3fea0e2b8836eb24	0.8142297420921278
40	0x3fd18019eabe7fe2	0.2734436790869933
41	0x3fe5d16bcda74d79	0.6818140999479702
42	0x3fec46e40ba4c09c	0.8836536624348983
43	0x3fd0611955d30f0a	0.2559264505509736
44	0x3fd6b3f3298a0518	0.3547332673698107
45	0x3fe97b90ebea9e05	0.7963337524169566
46	0x3fd2d166f327810d	0.2940308928064191
47	0x3fedeb8955feadd1	0.9350020103060449
48	0x3fd814abc9848dae	0.37626166038009046
49	0x3fe2458c9ab86aec	0.5709898969538165
50	0x3feeebaf7abc383d	0.9662701985523722
51	0x3fb0a4ef97fb7937	0.06501672230249232
52	0x3fd4729e61e54bd5	0.31949576912046257
53	0x3fe52d23139ead7b	0.6617598899078269
54	0x3fe58977c3739d84	0.6730307404913423
55	0x3fd72fc68483780f	0.3622909826352733
56	0x3fc9f4ac5b71a6ad	0.20277933564220998
57	0x3fe9a02c6686aed1	0.8008024218047131
58	0x3fe2538dc7d0a5d8	0.5726994421613041
59	0x3fcb8fa540320d1a	0.21532121309801583
60	0x3fe3d064c9b4e453	0.619188684423657
61	0x3fceb6c7a793357a	0.239952999900577
62	0x3fde0b7601ec86a4	0.4694495219028829
63	0x3fcb309be3e0f995	0.2124209273042196
64	0x3fdc7301c7131f61	0.44451946679008897
65	0x3fb66af1f57799ea	0.08756935351230025
66	0x3fd4562f1487c510	0.31776024823109683
67	0x3fdbaa136b30f02e	0.43225560634505455
68	0x3fd9bb394c46b13d	0.4020522351154517
69	0x3fd8ecbecdccbc34	0.3894497880709793
70	0x3fd6884de8037578	0.3520693555600114
71	0x3fe0c68e508f0ead	0.5242377828039558
72	0x3fc5f6a4e135ae4d	0.1715894794136709
73	0x3fe5e721d4fe31af	0.6844643745439977
74	0x3fe868ea59c15b32	0.7628070595772896
75	0x3fdaa1e123660b7a	0.4161303373040749
76	0x3fe4472d3d57a3b7	0.6336885641186346
77	0x3ff21f23920f1a84	1.1326022820882438
78	0x3fe52b1a128439f9	0.6615114556933
79	0x3fd13c6f029dbe2c	0.2693135762737906
80	0x3fe94aa1821863ee	0.7903602162288033
81	0x3fe08b3a44f29192	0.516995558417465
82	0x3fe67b8fb26eb48e	0.7025831685074466
83	0x3fe9e6b6aba9ddc1	0.809413275986053
84	0x3fdc335167635d75	0.4406322011613704
85	0x3fd94511cc1110c0	0.3948406689489836
86	0x3fd57607f724cc0b	0.3353290475380965
87	0x3fe54ae24c2fa7ba	0.6653911102305223
88	0x3fea01938baaa743	0.8126924255240983
89	0x3fe293d4e3d2f327	0.5805458497703498
90	0xbfaec389140ab6f9	-0.0600855671849398
91	0x3fe164314b80ab73	0.5434805369053336
92	0x3fdb7a7f72a678e3	0.4293516749984418
93	0x3fe5e8b15c307684	0.6846548843929701
94	0x3fd3cec5cd97a465	0.3094954021203818
95	0x3fe1b14db9b903c2	0.5528935077091932
96	0x3feb49828f74d864	0.852723388851484
97	0xbfaece7d05e163b3	-0.060169131248307826
98	0x3fe03944a9b63637	0.5069907488520532
99	0x3fe482e9831d0a6f	0.6409804879006752
100	0x3fcdd282f06ec484	0.23298680057408572
101	0x3fe664422139342e	0.699738564385944
102	0x3fb8281dd6f656be	0.0943621301470001
103	0x3fe5d065e8cd942e	0.681689219182436
104	0x3fad3369d254f7e7	0.05703287785080118
105	0x3fe7a0f2d3990344	0.738397038723726
106	0x3fe70cd6a30556da	0.720317190551863
107	0x3fe6bfea21b04f60	0.710927072332634
108	0x3fd8137529667cb1	0.37618760149957625
109	0x3fcad29067daf19b	0.2095509059053143
110	0x3fe279f54c66e440	0.577387475225926
111	0x3fdb1055f9717f5e	0.4228720603914463
112	0x3fe17f8f91729a57	0.5468213883185155
113	0x3fd66b9a81ee86de	0.3503175991882993
114	0xbfd9118735f7b0f7	-0.39169483442562075
115	0x3fd445b9248c0088	0.31675556725532106
116	0x3fdb1a057e3dfe95	0.42346322372757444
117	0xbfbbecd473661b54	-0.10908248727183195
118	0x3fe8cd29914a0588	0.775044235008111
119	0x3fdcee85743d68de	0.4520581851153461
120	0x3fe74df101368e03	0.72826433407721
121	0x3fe2cdfe485a2eff	0.5876456654673062
122	0x3fe5e0400731c214	0.683624280978679
123	0x3fc145d6e18b9c57	0.1349438287063289
124	0x3fdd8d3fc41433ce	0.4617461600144538
125	0x3fe2ffe8cd52dfbd	0.5937389383534463
126	0x3fdcd18b285f4d1a	0.45028952543835177
127	0x3fe2de670989ada5	0.5896487413678427
128	0x3f9bbb7a8e5d37d2	0.027082362117020704
129	0x3fe18cf72d796f28	0.548457707230658
130	0x3fd790622c675115	0.3681874688748093
131	0x3fe0696c8dcc3558	0.5128691453443635
132	0x3fe3b45b594d7aff	0.6157662147705593
133	0x3fdc7060383563ca	0.4443588780318889
134	0x3fd33f605759e8eb	0.3007431843794978
135	0x3fcd055968d1f317	0.22672574632806494
136	0x3fe706269fc7374a	0.7195008392970774
137	0x3fe700d059db7ab2	0.7188493495012465
138	0x3fd960364b79eea5	0.39649731989605136
139	0x3fdbf39d4c1f5137	0.4367440455801161
140	0x3fe30ffa0cd97fa1	0.5957002879113028
141	0x3fca93d8e074e343	0.2076369377116639
142	0x3fdfce8bb682138e	0.49698155234391883
143	0x3fd08082d24492f0	0.25784369024249454
144	0x3fe9468a07a01011	0.7898607396059579
145	0x3fdd4214a52d8e87	0.4571582425180413
146	0x3fd07bb91c19bf57	0.25755145782658445
147	0x3fe1965391ef3e0e	0.5496003961833951
148	0x3fd871db0a0b45b9	0.3819491956793076
149	0x3fe1ea4af1a9e8c5	0.5598501892084405
150	0x3fe8b443eaa677ff	0.772005041409784
151	0x3fe2db3c5ef2341f	0.5892621855178993
152	0x3fd6c464b64e6c6f	0.355736902268922
153	0x3fda79acae6d3eb2	0.4136764243494141
154	0x3fec969dbac4aaa0	0.8933857581917728
155	0x3fd1cd8068116d85	0.27816782153032477
156	0x3fdb4907922a981b	0.42633237146435626
157	0x3fec4d8a98d380f7	0.8844655022512872
158	0x3fd8de99b66f825b	0.38858645263647923
159	0x3fdce2bc4a5a8631	0.4513388372525667
160	0x3ff49d40868284fb	1.288391614369458
161	0x3fe23d4b9ee96040	0.5699823478453325
162	0x3feda837f9b7edff	0.9267845036806078
163	0x3fef5928f5dcb2c7	0.9796337892526815
164	0x3fb950898463028e	0.09888514978502824
165	0x3fc2e7b075bea56e	0.14769559621099
166	0x3fe53f6f4b5e4666	0.6639934989963876
167	0x3ff03e1d2cec4aea	1.0151645426564593
168	0x3fe742e8a6f32b2d	0.7269175778140827
169	0x3fd856e4e8b0e955	0.3803035995839726
170	0x3fd1948ea462daba	0.2746922116597649
171	0x3fc8617779d9a358	0.19047444772447863
172	0x3fd9e508f2a8b09c	0.4046041841236361
173	0x3fecc71f0eac01ca	0.8993068014679519
174	0x3fca5116b5c6e68d	0.20559963107898618
175	0x3fc064458378cd64	0.12806004447484576
176	0x3fe0340223d1bcf2	0.5063486766429419
177	0x3fdeb59e688f7f90	0.47983513079633955
178	0x3fdb7e0c49b840f6	0.4295683593673084
179	0x3fd0dfb3adfb88a7	0.2636536788032892
180	0xbf75ae98c4fd7d4f	-0.0052934615667646475
181	0x3fe089d258062676	0.5168239325732447
182	0x3fb7281aaedc040b	0.09045569199589935
183	0x3fcf6129d51bab46	0.24515269189518046
184	0x3fd8e2ed5eb1a309	0.3888505387063082
185	0x3ff2c9a4ae3707f2	1.1742293172142095
186	0x3feef33150bc134b	0.9671866013382923
187	0x3ff17921bdb06bd6	1.0920731935245747
188	0x3fd7b02d5513ce06	0.3701279955705278
189	0x3fde2d0d94cd4e52	0.471499820055418
190	0x3fd7301432def4bb	0.3623095032488199
191	0x3fe2352648c107bc	0.5689879818894421
192	0x3fe2b9e4efdfeaf7	0.5851921734859776
193	0x3fea3f8a08f94c40	0.8202562499303738
194	0x3fb795ca7c9ddf92	0.09212937872314189
195	0xbf9dd32766acda12	-0.029125800744816806
196	0x3fed250859855ac9	0.9107705830054665
197	0x3fb9347447305a7e	0.09845663774499688
198	0x3fe3a89602c51dec	0.6143293432332348
199	0x3fc1c778eb7ec9d6	0.1388999128226504
200	0x3fd70dc8adc0c464	0.36021630256715853
201	0x3fd076ec82c8016b	0.2572585370217186
202	0x3fe296ae0c0e6e29	0.5808935389972635
203	0x3fd597eb86e232c4	0.3373974625799685
204	0x3fe0f7398014630f	0.5301787854724312
205	0x3fdbc2e070584787	0.4337693307035057
206	0x3fcc83b9ac2eddc1	0.22276993663193248
207	0x3fee5844ba2c510d	0.9482749592012013
208	0x3fde2ff2cc001cc7	0.47167653963010675
209	0x3fde84a07d9c3cf9	0.47684490458136924
210	0x3fe10aaefb202078	0.5325541405482133
211	0x3fd79ea3bfb6e7a7	0.3690575954639094
212	0x3fe1647f790c8df7	0.5435178150405012
213	0x3fd0b05422af8ff9	0.26076224696430433
214	0x3fec5b700b329c7b	0.8861618250565607
215	0x3fe55c11760db8f8	0.6674887948736616
216	0x3fdc4a9643763a8a	0.4420524271780911
217	0x3fec9b28e8aac8b2	0.8939404053001196
218	0x3f9791e706e7eaf3	0.023017511173729365
219	0x3fe4c72a15f3cac3	0.6493120602375132
220	0x3feb3a36c1428106	0.850856187305937
221	0x3fec49a8b2ef7ee8	0.8839915747484755
222	0x3fe665030d6622c2	0.6998305570314971
223	0x3ff0a8a66379af55	1.0411743055110112
224	0x3fed2c6af1c11250	0.9116720887910308
225	0x3fd9e14c1017fe76	0.40437604495671253
226	0x3fc153463cdc4d00	0.13535383197504558
227	0x3fbf9297aa029f78	0.12333057308808104
228	0x3febc62b6f426e9d	0.8679406331097713
229	0x3fefa1f169113e03	0.9885184337708214
230	0x3fde78ae4d01aa64	0.4761157753006613
231	0x3fd175cb6fccf00e	0.27281461637517246
232	0x3fcab940098593ad	0.20877838578158273
233	0x3fe2d490b8797069	0.5884479144110745
234	0x3fdfdc64f6f439e4	0.497826806226753
235	0x3fdffba4eff4c1fa	0.4997341483422414
236	0x3fe1595cd8382c35	0.542158529571117
237	0x3fe62a4f07dd9ff8	0.6926646379115473
238	0x3fed82a2771f2ce0	0.9221966101262318
239	0x3fdaf4190b8384ef	0.4211485493124902
240	0x3fcdafb7bdd8e90a	0.23192497987640365
241	0x3fc35555c27c55e9	0.15104171749469167
242	0x3fd8660a4b6e8d79	0.38122804037467223
243	0x3fe9299a7d182e9d	0.7863285487414547
244	0x3fca49014123cb11	0.20535293274550573
245	0x3fc9d05c82b615eb	0.20167118437181783
246	0x3fe51bbdc7af4caf	0.6596363926022571
247	0x3fc39204191732a4	0.15289355492713697
248	0x3fdc81e8b4f234c3	0.44542901678580565
249	0x3fe1eb057d14f364	0.5599391406063714
250	0x3feabce48bb87064	0.8355581978717166
251	0x3fe1e57dabae2f63	0.5592640259869593
252	0x3fd67e0061ae4731	0.35144052065980974
253	0x3fbe83fc9c0fe000	0.11920145807368954
254	0x3fe8e01e51858aed	0.777358206960654
255	0x3fd85d93d1915848	0.3807115122375575

weight f8 [50, 4]
0	0xbfd18d08b545bdd0	-0.27423303320298675
1	0x3fb064d484b1233d	0.0640385459856931
2	0x3fb21e02ecd9de54	0.07077043802734667
3	0x3fd8fccbfb5fb195	0.3904294924566554
4	0xbfd2acc7f2a2d54f	-0.29179571814468813
5	0x3fd9a9bce8f7f6e6	0.4009849810680478
6	0x3f354d4aad935039	0.0003250415152937811
7	0xbfc3954da6c6c67b	-0.1529938759172643
8	0x3fd1818ccb8d9fdd	0.27353210333103367
9	0x3fbf8c1a65bf29fc	0.12323155387927182
10	0x3fddab094f807e5b	0.4635642315279022
11	0xbfd85c5bdf77b981	-0.38063713858618803
12	0x3fc98a719a767077	0.19953746835824734
13	0xbfd373d73d3d4a07	-0.3039453599969026
14	0x3fd5b8893849dda1	0.3393881845181231
15	0xbfd09b6b6e914e23	-0.2594860629808144
16	0x3f9b32f45fe6d187	0.02656156382882238
17	0xbfddfc6ae029bad4	-0.4685313405124536
18	0xbfc5216a2d7a359a	-0.16508223743987288
19	0xbfb014fe9ebd3ec6	-0.06282035232038216
20	0x3fd06a4b4fa21593	0.25648768212007517
21	0x3fb474e2619b22ef	0.07990851290663746
22	0xbfc5b31e4057f267	-0.16952875272535836
23	0x3fdcf65c539e5d0b	0.4525366608226739
24	0xbfd281c30c3f949b	-0.2891700381863502
25	0xbfdb4fb891360bbd	-0.4267407816006957
26	0x3fd7b48f488513b7	0.37039548952116824
27	0xbfd4dee8d48cd42f	-0.3261053157505697
28	0xbfe1d85cc2b4155b	-0.557661419181993
29	0xbfd1bf41d768acdf	-0.2772984126665516
30	0x3fc6bf3944ff3202	0.17771068448054456
31	0x3fd1c4457e13e582	0.2776044589259855
32	0xbfcf96993ee15186	-0.24678340502090296
33	0xbfb4cd5b47ae5398	-0.08125849247001182
34	0xbfa9d820935623c8	-0.05047704504529055
35	0x3fde1c9e8fcd8dca	0.4704967884374268
36	0xbfde1f41573182a3	-0.470657668256573
37	0x3fd2cc37857c466a	0.293714409214863
38	0xbfdc55dda69350a7	-0.44274083392270785
39	0xbfd1ab28794b4404	-0.27607166142576056
40	0xbfc7099e71c03531	-0.1799810462402234
41	0xbfd47779e4c0d3b9	-0.319792245284869
42	0x3fa03e54d5e2cab2	0.031725550755614576
43	0xbfdd668c1accb392	-0.4593839894976607
44	0xbfa440b7731f2e3b	-0.03955624847693825
45	0x3fd06a213dde7e98	0.2564776519957177
46	0x3fceced61c0a833d	0.2406871449393523
47	0xbfdd723be8eb6286	-0.4600972914318294
48	0x3fc3524390bddedf	0.15094799582924787
49	0xbfd20b2c7b40138b	-0.2819319919220155
50	0x3fd6dc554f5820d9	0.35719807384931596
51	0xbfc6a79d756348dc	-0.17699020606830274
52	0xbfdc71fcdfcdf18a	-0.44445726257233586
53	0x3fd2f21bb2a7c222	0.2960271114998553
54	0xbfcd67984ddbee10	-0.22972396661485606
55	0xbfd4f3084266f0d3	-0.3273335121591689
56	0x3fd8c9aa559743c1	0.38730867727741375
57	0x3fbd54a4a1878e9b	0.11457280105201521
58	0xbfca404389b510a5	-0.2050861761473516
59	0x3fddc68ee86c2f4b	0.4652440328361435
60	0xbfd24a1f7fea0fd6	-0.2857741116679312
61	0xbfd2158e0d22f100	-0.282565605953792
62	0xbfc1e956ceccd4b4	-0.13993344400083674
63	0xbfaf07cf395c0c3f	-0.06060645651998486
64	0x3fd6a389903eca8c	0.3537315281529707
65	0xbfb92ef30761cbe6	-0.0983726399443153
66	0x3f773db9ec938a0b	0.005674101129644625
67	0xbfdf64a2de4f8677	-0.4905173464777372
68	0xbfc1220494639e02	-0.1338506435924814
69	0xbfe03672648c03e8	-0.5066463435942952
70	0xbfc163a8dbb1bacb	-0.13585386969812982
71	0x3fd33ff3ee7db88c	0.30077837267061436
72	0x3fbe3649e2cff5ff	0.11801587855730843
73	0xbfd9407d34c7a379	-0.39456110147744244
74	0x3fcc7e8bd3a0d653	0.22261188348209035
75	0xbfa540dfcc85792f	-0.04151057597731477
76	0xbfd3a13c7e5568f9	-0.30671608292836045
77	0xbfd612df75aeed88	-0.3449019097567647
78	0xbfdafff5ef41297f	-0.42187260021878353
79	0x3fd3e9bce4070d9b	0.3111412264663273
80	0x3fe1a5ccf491e518	0.5514893318897149
81	0xbfcb98ff12a659c5	-0.2156065789283287
82	0x3fbfd32e56bc6ba3	0.12431611650064993
83	0xbfe0ec02fc905c1d	-0.5288100178612499
84	0xbfc040275a331aa9	-0.12695781616476623
85	0x3fda664873c3cd1f	0.4124928598896122
86	0xbfa9484131d806e8	-0.049379384359793665
87	0x3fc87b3c18f7fd1b	0.19126082629370775
88	0x3fcb99b0a17771f4	0.21562774547682262
89	0x3fdccdb9133a38ba	0.4500563323753216
90	0x3fdf90b0a2212750	0.4932061751647909
91	0xbfd09acbefe74b73	-0.25944803646159825
92	0xbfcaa241cab183dd	-0.2080766906465489
93	0xbfcc4d2c6db2dfdc	-0.22110514980681628
94	0x3fca74b25c42b87d	0.20668630127824264
95	0xbfdf97174920a6e6	-0.4935968603264044
96	0x3fd2015f019a8b7b	0.2813336864148181
97	0x3fd130aa97ef8111	0.2685953601594671
98	0xbfd2aea305ca3978	-0.2919089848081948
99	0xbfd625b6f0c3aa93	-0.34605191719189426
100	0x3fd3bec247c1f483	0.30851799972135313
101	0xbfdc6267d24a7d81	-0.4435061982748821
102	0x3fdd02c460c9a297	0.45329389049451535
103	0xbfc6423cee1f1c3f	-0.1738964235975988
104	0xbfdf76bba5fb8b62	-0.49162188729513023
105	0x3fcfbd88351c310d	0.24797155946033236
106	0xbfd75af38bd9f1ab	-0.36492623002393526
107	0xbfc01b62732a0c16	-0.12583571074728245
108	0xbfbbfa2960bdd338	-0.10928591358044748
109	0xbfc91c1a48844ede	-0.196170125397308
110	0xbfd65b2fe2ec1952	-0.34931561622979246
111	0x3fd0d88809495606	0.2632160273254559
112	0x3fd55269252ad29f	0.33315495137802914
113	0xbfdb00c32ebed8ad	-0.42192153515805836
114	0x3faeb8f4862dbf5f	0.0600048459808693
115	0x3fd284332d38d0a5	0.28931884208874187
116	0x3fc9a85768066e5f	0.20044987277366297
117	0x3fd5cbac1f7b0aa9	0.34055617403297817
118	0x3fdfab8319e7a32c	0.4948432686783686
119	0x3fdc6801db8009ff	0.4438480990940263
120	0x3fa79bb4e0b4993f	0.04610982172953237
121	0xbfac0d7ef96b7dcf	-0.05479046625782368
122	0x3fb767751b316f67	0.09142238534826462
123	0xbfc86355a45fa493	-0.1905314495664113
124	0x3fb9ed1f88371027	0.10127446246684767
125	0x3fda3b81f2c516fb	0.40988205631252556
126	0xbfd054cea4c56493	-0.25517622080730823
127	0xbfd3f250f9a78497	-0.3116648138075759
128	0xbfce59c08e60adda	-0.23711401893647982
129	0x3fc23ce29cf72e96	0.1424830690797207
130	0xbfd167c4ff62e5f7	-0.27195858898230035
131	0xbfd154db099c6dcc	-0.2708041757448114
132	0xbfb7935cb91f6d34	-0.09209231872175822
133	0x3fc51cffc946c7a5	0.16494748428300202
134	0x3fe03932cc1ae7c9	0.5069822298457832
135	0x3fe4c955b991e750	0.649577009621888
136	0xbfdd12d1af51f171	-0.45427362557509016
137	0xbfd8ee828e05231f	-0.3895574938692778
138	0x3fd837b60336f1b9	0.37840032876900015
139	0x3fdd5d49c9cd5eeb	0.45881886203049643
140	0xbfb0b018a89a76db	-0.06518701664250719
141	0x3fe06cbc215fa8fe	0.5132733012990511
142	0xbfd632f11a072d6c	-0.34685924093056175
143	0x3fc96ab92aa6b9a2	0.1985694368608622
144	0xbfcf34580c897df0	-0.2437849103180123
145	0xbfce43ca99d6c81b	-0.23644382964772678
146	0xbfe14ffe4ab51420	-0.541014810478945
147	0x3fd6048f9eda5013	0.3440283824249956
148	0xbfb6371140697309	-0.0867777616744655
149	0x3fdea3fc365d9915	0.4787588625826101
150	0xbfe3fd282c10fb69	-0.6246529446287755
151	0x3fd926756f000e65	0.3929723342882652
152	0x3f7e388d7c21af8b	0.007378151584003133
153	0x3fd53edc32349424	0.3319616785323112
154	0xbfa0a227ce913863	-0.032487148252230445
155	0xbfb407c895dd78f6	-0.07824376734558655
156	0xbfc2f192f5dac583	-0.1479972553693579
157	0x3fd23c0a9dc3818f	0.28491464048968224
158	0x3fd3ce91c6b9ffbc	0.3094829979599998
159	0x3fd1da8f4c8fbfda	0.27896482922278454
160	0xbfe024651a911a06	-0.5044427412875059
161	0x3fd1f7337c255d24	0.28071295856121226
162	0x3fd8d8ab98b5d432	0.38822450554954735
163	0xbfbd559053b84f88	-0.11458684963173316
164	0x3fc66d49d21fcb1f	0.17521021614046448
165	0xbfd9cb6eca16af01	-0.40304155097213373
166	0xbfb979923f46850f	-0.0995112804871676
167	0x3fd4fdfc756122a1	0.3280020853313009
168	0x3fbbcb4964e24040	0.10857065880759453
169	0x3fc04bee575816c0	0.1273172308430528
170	0x3fd9eaea646c2231	0.4049631100356548
171	0x3fd2eaa4a310eae1	0.2955714790765978
172	0xbfa700188260f80b	-0.0449226054338255
173	0xbfd5a469b46f4cfb	-0.3381599676187787
174	0x3fa92b5ecb5f58c3	0.049159014058817195
175	0xbfe01f5c1815e15c	-0.5038280935687385
176	0x3fd1242e00a78422	0.26783323348905885
177	0xbfc87465f40d3d0c	-0.19105219284617936
178	0xbfd2fb97d93ed4f0	-0.29660602774977374
179	0x3fbb4abdd4d055b5	0.1066092152180634
180	0xbfe415682bc6bbcc	-0.6276131491666717
181	0xbfd9110f8018dceb	-0.391666293234677
182	0xbfaa2c3311f39b93	-0.051118465367657205
183	0xbfbbc6a7204ea9bb	-0.10849995173217668
184	0x3fdef36b0870d19c	0.4836070616177268
185	0xbfadc73e3982e9ed	-0.05816072895091282
186	0xbfdc760b931f3f1c	-0.44470490805996277
187	0xbfb66607b72a74a9	-0.08749435636350945
188	0xbfdd3756e6188649	-0.4565026518849647
189	0x3fda5a341c23a900	0.41175558803537626
190	0x3fbc5417d5448c48	0.11065815884335095
191	0x3fdbe30dc17238b6	0.4357332600710707
192	0x3fdbfc6903c52af1	0.43728089683706545
193	0xbfde65a47a40b745	-0.4749537652850118
194	0xbfd1dc50d4a62203	-0.27907200590610176
195	0xbfd13b9dec5bbfed	-0.26926372606158006
196	0x3faa0173b1a9083f	0.05079232734398475
197	0x3fc8dbd6af8200ab	0.19420894212453751
198	0xbfd523e3bc4f51df	-0.33031552686341387
199	0x3fcc38735d80063b	0.22047273698267297

bias f8 [50]
0	0xbfa190c6ce4da60e	-0.03430768268919958
1	0x3fbae2d63ba6a1c9	0.1050237556106658
2	0x3fd26f71746a1fa5	0.2880519520626826
3	0xbfdc58642dd48a7e	-0.4428949782906456
4	0x3f9c4519908c4253	0.027607345054152365
5	0xbfd366ad1e6e92a4	-0.30314186069362337
6	0xbfd2ea19b4b66b52	-0.2955383553286782
7	0x3fd0e4d0aca14fbf	0.2639657674637838
8	0xbfb9d075b1013abb	-0.1008370930805808
9	0x3f968cece4e097c3	0.02202196261364243
10	0x3fd77f60e842f161	0.36714956933771786
11	0x3fd819250dae9bb2	0.3765347131360911
12	0x3fd1810122c9f3c9	0.2734988059744948
13	0x3fa23379aecddfa7	0.03554897555198915
14	0x3fd79f8d97632b94	0.36911334785389127
15	0xbf721f749e928430	-0.004424529595014312
16	0x3fd611e2ae32dd26	0.3448416424902966
17	0x3fbb6961a45a0108	0.10707674276818946
18	0xbfd38c98beb0b168	-0.305456339093118
19	0xbfa48eaa5e113673	-0.040150951369111086
20	0x3fa2f5494709a2a5	0.03702763549956004
21	0x3fa054516cd328ab	0.03189329579761709
22	0xbfc3fa060e9921c1	-0.15606761658479054
23	0x3fd63750a70e936a	0.34712616266397467
24	0xbfac2a19b709be76	-0.05500870093680714
25	0xbfdd6e197ab55156	-0.45984494193296166
26	0x3fdef4c3e73ef7a4	0.4836892851125134
27	0xbfca9a7a12bb11e4	-0.2078392592867565
28	0xbfceffebc00ad538	-0.2421850860315915
29	0x3fd2379925e3b901	0.28464344692373805
30	0xbfd03e31de10c968	-0.25379606901255736
31	0xbfd98c9ac7a663f0	-0.39920682427469867
32	0x3fdbded2e6cb9d9f	0.4354750875340531
33	0x3fd973207a3cb1c5	0.39765178620544034
34	0x3fb3ad8defe573e4	0.07686698061793568
35	0x3fdb08ea81192b6e	0.42241919142968853
36	0xbfc3b7b11cb6a3d3	-0.15404333021186165
37	0xbfd7ab1c13841abf	-0.36981870561468705
38	0x3fc04b9a7882d1ad	0.12730723270727876
39	0xbfd0852d1f60058a	-0.25812843383763406
40	0x3fc4819fd620d46c	0.16020582156639607
41	0xbfdd916160c971a0	-0.46199831439823846
42	0xbfcc7a7e103f737a	-0.22248817246773084
43	0x3fd19001bbe1577b	0.27441447589568896
44	0x3fd8903364c7826f	0.383801315705603
45	0xbfd11110d3049e10	-0.266666608879377
46	0xbfb6a8fd27a12dc1	-0.08851606576461447
47	0xbfd0f9bbb752aa9c	-0.2652425089133119
48	0xbfdd94afb43b1dd6	-0.46220009422947095
49	0xbfd02b36013304ca	-0.25263738743894903

weight f8 [50, 50]
0	0xbfb8f6577a6cf8c6	-0.09750887621791823
1	0x3fb03d66f9036a73	0.06343692378451653
2	0xbf99d07498ea32f7	-0.02520925696676365
3	0x3f71fd7ada35b5db	0.004392127887837795
4	0xbf9111f1cfa9b289	-0.016670015620933874
5	0x3fc0fadcdfef126f	0.1326557248522877
6	0x3fc0bbb6d0cc47a0	0.13072858042920377
7	0xbf889a255f89a912	-0.012012760141449284
8	0x3f97cb652fda7e49	0.02323682884764214
9	0x3f9dce77fc01476a	0.02910792804352217
10	0x3f23c2f65cdbe032	0.0001507688270334664
11	0xbf9381a6c0b0d1f3	-0.01904926825609894
12	0xbfc008a2427cbbea	-0.12526348349044208
13	0x3f7330f31d936b6c	0.004685353918115403
14	0x3fa3a1de33c04547	0.038344329659717284
15	0xbfb6d6da37608eda	-0.08921588756544044
16	0x3f9cededc02d0bb7	0.028251376013269183
17	0x3fa9847783c41973	0.04983876689407198
18	0xbfb56c3c90980d9e	-0.08368280916334078
19	0xbfb868083c7bf65e	-0.09533740498223994
20	0x3fb7029e43354389	0.08988370076009579
21	0xbfb1eac7eb77403a	-0.06998872278859461
22	0x3f89d6205f4b6be6	0.0126154450494393
23	0x3fb13e170a83b5c9	0.06735366827680091
24	0x3fcc2230cc90e458	0.219793414960608
25	0xbf82bf0c1c9978b0	-0.009153456328189286
26	0x3fba07a72c474db5	0.1016792758085135
27	0xbf993e6da5695c6d	-0.024652207585259257
28	0xbf8ceded35498739	-0.014125683964440238
29	0x3f917f85e6f28dbd	0.017088024350085485
30	0xbfb56ec7273faa6d	-0.08372158725948405
31	0xbfa30b1ecc02a1df	-0.03719421615943807
32	0xbfb8612fec7d5af1	-0.09523295901940877
33	0x3f8eb07aa3e893c6	0.01498504460057316
34	0xbfbaba96bba972d7	-0.10440961915578427
35	0x3fbf3ebbaf9f8174	0.1220509818808802
36	0x3fc2e38f9adc49f9	0.14756960927532228
37	0x3f89d70e3fe19457	0.012617217373369778
38	0x3fb7ef11d1e34594	0.0934916627332057
39	0xbf63066c578a84e0	-0.002322398763070596
40	0x3fba7060a68a6683	0.10327724519665975
41	0xbfb663f773f60783	-0.08746286946373343
42	0xbfb0a9c1551fb6d5	-0.06509025886745275
43	0x3fb777266fe8d423	0.09166183693089684
44	0xbfa44869654332df	-0.03961495743860665
45	0x3f89a1f897133937	0.012515966520734707
46	0xbfb0dd383be27bb6	-0.06587554418591321
47	0xbfc0ffeb127b8642	-0.13281000521151226
48	0x3fabce283a9e3e02	0.0543072291903819
49	0xbfad5cb30cf20508	-0.057347865419624056
50	0x3fb9c36e2d9dd75b	0.10063828099904752
51	0x3fc134df1a7c8e9d	0.1344260100678313
52	0xbfc0a3f67cbcd93c	-0.13000374880511767
53	0xbf8a221c52097e73	-0.012760373357365773
54	0xbfa300d161679fec	-0.0371156150247883
55	0x3fa6724201021306	0.0438404680471987
56	0xbfb989204d596c0f	-0.0997486294594838
57	0xbf9ff42dcbc5377c	-0.031204906046063283
58	0x3fc6ae4e6b26ad07	0.17719440681444373
59	0x3fd393fc024bcb64	0.3059072515890675
60	0xbfbbff7635aa0e94	-0.109366787053711
61	0xbfba67944ac3eb2d	-0.10314299416851887
62	0xbfa15d1b1a7bae18	-0.03391346643715226
63	0xbfa488ae226cecf5	-0.040105287268000035
64	0x3f8d0b3d50bce0e2	0.01418159392015678
65	0xbfb2137b51e3f75a	-0.07060976743011108
66	0xbfad566246a3816e	-0.057299681780707754
67	0x3fa2bd04721f07f1	0.036598338061153764
68	0xbfb7142595efb75e	-0.09015116606289328
69	0x3fc3d67969ab1024	0.15498273524838269
70	0xbfc0d94ff703814d	-0.13163184701171318
71	0x3fadcf0fbbd46bfd	0.05822037856906801
72	0xbf9d19e3692b397c	-0.02841906861686415
73	0xbf950102b914bace	-0.02051166777271867
74	0xbfd0a44c7d7dbffd	-0.2600280023098092
75	0x3fb04ae1c5bf695e	0.06364260747742409
76	0x3f6f7761350c6635	0.0038411043718838086
77	0xbfb5705d0f8e3944	-0.08374578122877546
78	0x3f9a2ab0061a0850	0.02555346524469143
79	0xbfaf10d0ad77f94c	-0.06067516438996509
80	0xbfc0564d00823262	-0.12763369107087202
81	0xbfb67e762a9714de	-0.08786715068625336
82	0x3fbe2953d1b33d05	0.11781810636169972
83	0x3fc10ae4d493aea7	0.1331449544880929
84	0x3fc0448a138cffcf	0.1270916552984986
85	0x3fc42ccfcbf20c4a	0.1576175447299611
86	0x3fab666c74de2af7	0.053515805498212936
87	0x3fa57a928ea8236a	0.041950778879317266
88	0xbfb2215809ece1e1	-0.07082128755872176
89	0x3fc7cc779f24f685	0.18592734595033647
90	0x3fb9ed39a2cc867e	0.1012760183771437
91	0x3fb6001aefe0f4e5	0.08593910557188485
92	0x3fb7d19fd88663c0	0.09304236446622749
93	0x3f9b5b35a6437904	0.02671512439052838
94	0xbfab9855493e4f9c	-0.0538965846928072
95	0x3fd686d2b183589f	0.35197894416104164
96	0xbfdaca2f96cf6be3	-0.41859044768869874
97	0x3f9f584c5dc4bcef	0.030610268805671245
98	0x3fb878382961aadd	0.09558440218249183
99	0xbfb8d46986d2a657	-0.09699115315984251
100	0xbfb0f22bf41d01c0	-0.06619524678990896
101	0xbfb15c019838ac9c	-0.06781015364019755
102	0x3fc03703024f5fcf	0.12667882550044715
103	0xbfa98d7dc3cafe68	-0.04990761771250335
104	0x3faa7f9980a988fd	0.051754757839050904
105	0x3fb461bd8714b9d9	0.0796163992679121
106	0x3fc047c25704fef3	0.12718991517066733
107	0xbfba87dff744f123	-0.10363578593109372
108	0x3f60046b102788d7	0.001955231769202741
109	0x3fced93f5d6b28a7	0.24100486813978714
110	0x3fbf6ce75e96931a	0.12275548991472043
111	0x3fc119eaf571bbde	0.13360344872077595
112	0xbfb2f0a68e0490ed	-0.07398453681213697
113	0x3fc0b81aa4c73ce6	0.13061841054739104
114	0xbfabe53bcad8c712	-0.05448328829915118
115	0xbf92bcbca629d035	-0.0182980991762209
116	0x3fc4fe0c63ad88fc	0.16400294177135055
117	0xbfb2d2a77735fafd	-0.073526827434744
118	0xbfbfe9f100e2f037	-0.12466341277735259
119	0x3f902ef350c750a8	0.015804101758320727
120	0x3fc4e5f2ad898b55	0.16326745484829056
121	0xbf99723a61a2403d	-0.024849807938665192
122	0xbf9fd727f4baf5ce	-0.03109419280257502
123	0x3fc264a3254a0ed9	0.14369620629087512
124	0xbfbd3bbfe649b311	-0.11419295665991692
125	0x3fb553ed13e2a0df	0.08331186042289883
126	0xbfb8a089647bbf81	-0.0961995954819468
127	0x3fb33c7764f1a307	0.07514139379931005
128	0xbfa7838784e05d83	-0.04592536446596809
129	0xbfa427573f7f06ed	-0.03936264658069697
130	0x3f8749ec66abbd5a	0.011371466525331431
131	0xbf80304273f681e1	-0.00790454784765954
132	0x3fa99a1340b2cfc0	0.05000362553383253
133	0x3fad7056a89664d2	0.057497699813390604
134	0x3fc4452449f66b65	0.15836003886655728
135	0xbf8c952b6e9400a1	-0.013956393539502012
136	0x3fa7707aa6c1e7c8	0.04578002248395269
137	0xbfb1673c77028ea9	-0.06798150926129644
138	0x3fbb970b975efd2f	0.10777351804334921
139	0x3fbbeec9cf400009	0.10911237058462588
140	0x3f95ec8d50f56c3a	0.02141018683083138
141	0x3fc204b8fbe9e85e	0.14076912212823606
142	0x3fb2d298269deb87	0.07352591460032275
143	0x3fb1e3a911de7c81	0.06988007246262563
144	0xbfade317a014a57d	-0.05837320164784907
145	0x3fd96c3d333d6963	0.39723138812919084
146	0x3fb063d909090723	0.06402355642879036
147	0x3fa71aa3a5e1f45a	0.045125116347642005
148	0x3fc1a687ed82c3f9	0.13789462182242554
149	0x3faf2c736a61ede5	0.06088600801100678
150	0x3f8cc61ccf01f48a	0.014049744670268777
151	0xbfa4fcd97c5a83fa	-0.040991589002494735
152	0xbf83dfb79ab31b61	-0.009704050453718418
153	0x3fa400726087b53c	0.03906590870233592
154	0x3f9ed721d9d26b0e	0.030117539329334746
155	0x3fa18c49de4d00b7	0.03427344168312756
156	0xbfae979afc3ec6b9	-0.059750407497074894
157	0x3fc03138f28112cb	0.12650214997315454
158	0xbfbaa4fe989e162a	-0.10408011652005969
159	0xbfb41716b5e2d23d	-0.07847730579926178
160	0x3fc1d165d8ddb191	0.13920281495246603
161	0x3fb47653e6fc0cd2	0.07993053807517761
162	0x3faa36859daf188b	0.051197219370394974
163	0xbfb3894564b38d30	-0.07631334026841752
164	0xbfae6209cdbc0a7c	-0.05934172283561609
165	0x3f97db1ecf516d5a	0.02329681530350789
166	0xbf9c785dd6641540	-0.027802911959061705
167	0xbf8214e2b9a243c5	-0.008828898706527153
168	0xbfa3bb84206f629f	-0.038540009459841366
169	0x3fba69050fcbf5b6	0.1031649745527464
170	0x3f6699a38021549b	0.002758807503634287
171	0xbfa8145ddabe0b37	-0.04703038497156913
172	0xbfab037df50d074d	-0.052761017001570744
173	0x3fb60df0ebb6cb4e	0.08615022425401017
174	0x3fbc2e3c152cc5f4	0.11008048550572608
175	0xbfaf084b601a4d4e	-0.060610156518260724
176	0xbfae61bc54697ef2	-0.05933941393300114
177	0x3f6be0468469a40c	0.0034028413095268436
178	0x3fbe789f5680d2f7	0.11902805196661946
179	0x3fb576cc007e697d	0.08384394657188028
180	0x3fb97fa1fee43905	0.09960377190529719
181	0xbfbf1f786ab30a0a	-0.12157394986119399
182	0x3faf889874b6216f	0.06158901619625367
183	0xbfc18df3eef87e5e	-0.13714455765237948
184	0x3fb211f840eb78a8	0.0705866964812879
185	0x3f90187f076eb18d	0.015718445614469046
186	0xbf6aad1920f1943a	-0.0032563677591946035
187	0xbfae05293f02ab72	-0.05863312620325346
188	0xbfab8b5d7c124911	-0.053797646899640957
189	0x3fbd347f56ddfb08	0.114082297046462
190	0xbfa8c20b2b903657	-0.04835543543604775
191	0x3f9312b51d56964f	0.01862605086866714
192	0xbfaabe531b354119	-0.052233311721126614
193	0xbfb3e384446a3c0a	-0.07769037885940136
194	0x3fb631fe1385e4c5	0.08670032478939323
195	0x3fab95e8297cb96f	0.05387807375369646
196	0xbfa42952f0ba3020	-0.039377776990562774
197	0xbfa5f867b772df45	-0.04291080583919763
198	0xbf9ede9ea443a12f	-0.030146101737870964
199	0x3fa39a12885d7af7	0.03828485407460918
200	0x3fbac710442eae64	0.10459996857269399
201	0xbf908d205b5f04cf	-0.01616335447011324
202	0x3fafe4d4b1130d08	0.0622927156596465
203	0x3fb32ba3c87347a6	0.07488464015776106
204	0xbfb118125124aed7	-0.06677355271375106
205	0xbfa8931c9cb0ca9b	-0.047997373702306244
206	0x3fad775a7e746d79	0.05755121987950935
207	0xbfa0a81a40824962	-0.03253252065146019
208	0xbfbc7569ac78606e	-0.11116657696436658
209	0x3fc941bee20ad57d	0.1973188976022974
210	0xbfb5da3ee662b4cb	-0.0853614151444219
211	0x3fc1e42b856f211f	0.13977569594704506
212	0xbfa1207ed45622f3	-0.03345104543683943
213	0x3fc2c53cae84c484	0.14664419671456497
214	0xbfc69b89f7e1fbe2	-0.17662167171144377
215	0xbfb12d8fff16b8f6	-0.06710147836449551
216	0x3fba75497a4920f0	0.10335215793122976
217	0x3fb85325598f6606	0.09501870571639168
218	0xbfbfae6183497113	-0.12375459151502737
219	0xbfb3831a477c66f5	-0.07621921773207048
220	0xbfb6fdb62b14c802	-0.08980883170877976
221	0xbfb428b58602e21b	-0.07874617120513287
222	0x3f9820d02b4df9ba	0.023562672274687314
223	0xbfa6efc32fe545c4	-0.04479799232161555
224	0xbf921ff6835c469a	-0.017700053947072726
225	0x3fbf2d2326c5bdfc	0.12178249069778951
226	0x3fa63e74f34b7bd9	0.043445257853583726
227	0x3fcae44f61d4e13f	0.2100924709027456
228	0x3fa75f67d6f6bea1	0.04564976214476003
229	0x3fab7c268d2819a0	0.05368156884292152
230	0x3fbcc948371f3316	0.11244632097004756
231	0x3fbce562a81b8375	0.11287514309107201
232	0x3fa33c5ea98f9a21	0.03756995982967149
233	0x3f61969c42a457d2	0.0021470119437578617
234	0x3fb7abfe5cdbec1f	0.09246816412989788
235	0x3f9a1ab0d52eb517	0.02549244214212817
236	0xbf9905bbe46bd403	-0.02443593579933535
237	0xbfc332a1b248ce53	-0.14998265462201008
238	0x3fc061c3d613afb5	0.12798355057691216
239	0xbf842d4e39868335	-0.009852038507973762
240	0x3fbf274b6e4cc294	0.12169333880297933
241	0x3f97760d5bfba77a	0.022911270846555955
242	0xbfc134adcd9c4416	-0.1344201330144023
243	0x3fc2fc9704b851f6	0.14833343248814373
244	0xbfb8d73aac27d70d	-0.09703413680093949
245	0x3fa0b7ef44e8f1af	0.032653309976441995
246	0x3fa176cb5f771b61	0.034109454539751345
247	0x3f9fb381a21e5dbc	0.030958199996886412
248	0xbfc1014e07a9eccf	-0.1328523194714308
249	0x3fb5675c9bd18aa0	0.08360842518008349
250	0xbf974e0d43409102	-0.02275868151640826
251	0x3fb43cacfc5422a0	0.07905083809249414
252	0x3fa2a101db125fd6	0.03638463782516481
253	0x3fbc5be079acf23d	0.11077692957491876
254	0x3f7a5b397ff653f0	0.006434654816435334
255	0x3fb738113633f86a	0.09069926808658271

bias f8 [50]
0	0x3fb620cc44eb3d85	0.08643795664396776
1	0x3fbb98bad5a9a35d	0.10779922214864031
2	0xbf4cb9f69cedcb08	-0.0008766607441955407
3	0x3fbd693f5a1494c4	0.1148871989176597
4	0xbfa052b3c3cd6760	-0.03188096776166449
5	0x3fae21a55a644194	0.05885044792569541
6	0xbfbeaa65e3aecd06	-0.11978756722128389
7	0xbfb1c3ab1878d7d3	-0.06939191195928567
8	0x3f7275bccdfb9ce5	0.0045068144970408
9	0xbfa11595812ddb5c	-0.033367797869621824
10	0x3fb99ff17a8cef2f	0.1000967907138459
11	0x3fc58063ec0e8bf8	0.16798066164218972
12	0xbf9c42e14a30d432	-0.027598877099269177
13	0xbf957cc7b0f9fae4	-0.020983810593402277
14	0x3fc67c5d98b9ec88	0.1756703372701376
15	0x3fc0d30b8cd56100	0.13144058586727425
16	0xbfb3100dda810ed9	-0.07446371635983996
17	0xbfc22cc0c40d6749	-0.1419907529150868
18	0xbfbf891e27d32424	-0.12318600151333264
19	0x3fc43d51ddfec847	0.15812133159266947
20	0xbfb1cf18f1a4e4e1	-0.0695663061095675
21	0xbfacc3f258db1a39	-0.056182454439796144
22	0xbfb4707c648ebb47	-0.0798413987638301
23	0x3f9b951e67d87b7b	0.0269360304720254
24	0xbf8d0a437296b179	-0.01417973226019663
25	0xbfa943651365fe80	-0.04934230672642759
26	0xbfa4c72ec9bade88	-0.04058214390300657
27	0xbf848d7195876b0e	-0.010035407424700018
28	0x3fb935546ec5047e	0.09846999840103085
29	0x3fa93fbd75a2952a	0.04931442318892672
30	0xbfb26303150558be	-0.07182330382542809
31	0xbfb7bda5b3c6bc52	-0.09273753775663465
32	0x3fb1dd06a01d9d0b	0.06977883729051741
33	0xbfc022c1f9f868cc	-0.12606072145064784
34	0xbfc1bba72eae119a	-0.13853921679777842
35	0x3f875186040380a2	0.011385962483871307
36	0x3f5180e128c2c9a6	0.0010683249302415403
37	0xbfa7c7560c896cac	-0.04644268897092138
38	0xbfb8c114004d1837	-0.09669613845207513
39	0xbfbd34bf30878139	-0.11408610281751387
40	0xbf95b079c102c945	-0.021181013493966522
41	0x3fbfbbfabab4de59	0.12396208818688005
42	0x3fa0ce73dfb13cc8	0.0328251085817271
43	0xbfb1eacb658cbf32	-0.06998893002741793
44	0x3f8c2c23c285b9c2	0.013756064771510593
45	0x3fb93c5bd6d18fcf	0.0985772513827776
46	0x3fbb9646808d9a89	0.10776177061561944
47	0xbfc26571ac7dfcb5	-0.14372082636325492
48	0xbf95e9dbb6e41bd6	-0.021399910962852285
49	0x3fbc84d920149944	0.11140210183348126
