lasa_models/2/skel_model_Sine.pt (torch, 99247 bytes, 18 tensors)

R f8 [20, 20]
0	0x3fd46f8cb0a32ea2	0.3193084454512506
1	0x3fdb8345a4355b35	0.42988720928171925
2	0x3fe9a541ea3e1b3a	0.8014230322886313
3	0x3fe2500d5305793f	0.5722719785224298
4	0x3feba35ddfccf14c	0.8636922236542346
5	0x3fee46eed0f779e4	0.9461587983494693
6	0x3fe8ffb3f199afe9	0.7812137335545205
7	0x3fa49e63547af451	0.040270904600654085
8	0x3fe87cbe97007fd4	0.7652275990731092
9	0x3fd65d6ed2b028a1	0.3494526917935535
10	0x3feec56ed0a7771a	0.9616006922985634
11	0x3fc7bd9f3a69f9fd	0.1854743037437884
12	0x3fcc28f284ca8e01	0.21999961360880607
13	0x3fe26d29ba9a9183	0.5758255619626172
14	0x3fd201dac1d74d98	0.28136319093501916
15	0x3fe13456250b0977	0.5376387332437805
16	0x3fe0475378f02b09	0.5087067949365017
17	0x3fe09637b3ac20be	0.5183371075845782
18	0x3fe4756499541318	0.6393301958747513
19	0x3ff02b47ce79360c	1.0105665269251203
20	0x3fdf217b6a39d555	0.4864185845720688
21	0x3fcca8d935d1cf1c	0.22390284660252113
22	0x3fe3945a00188eb7	0.6118593217729175
23	0xbf8044b67f24fb18	-0.007943559413090592
24	0xbfb45a46f3f0a417	-0.07950252013746738
25	0x3f968cd653c3dd52	0.022021626341453278
26	0x3fdf500dc0b3e039	0.48926109140984725
27	0x3fcfb4f2316ef545	0.24770953572980595
28	0x3fefe6e997dab62f	0.9969375577836156
29	0x3fe2cc2a6cc5c897	0.5874225735153854
30	0x3feef890d2febb09	0.9678424950596717
31	0x3fd5fb52fce126f7	0.3434646100546241
32	0x3fec328f780b38b5	0.8811719269376882
33	0x3fbcf4b9421db423	0.11310918678437125
34	0x3fe6674431fc5ad3	0.7001057602199928
35	0x3feb3fe6e9dda099	0.8515505378427576
36	0x3fe28ea3984dc510	0.5799119925196994
37	0x3fe46d52f2419ea6	0.6383452159470451
38	0x3fdabffadc0395c8	0.41796752439253426
39	0x3fe877b20ad4155c	0.7646112643712217
40	0x3feb5977d1e36d2c	0.8546713923819076
41	0x3fea3f888c6bb09d	0.8202555410948836
42	0x3fefc2faac293ffc	0.9925511705896493
43	0x3fe7df45807cb2c8	0.7460048207772951
44	0x3fe306b2a192974f	0.5945675998416194
45	0x3fe9227c55656404	0.7854596774951692
46	0x3fddd142e62f1cd3	0.4658972976580575
47	0x3fe72400551803e1	0.7231446897495709
48	0x3fe450c6a75908cf	0.6348603504668747
49	0x3fdb8fc17a24a2df	0.4306491558841525
50	0x3fb06e44d011e9e5	0.06418256835778598
51	0x3fe7364472bb46b8	0.7253744355059188
52	0x3fe92eb7f70d4cc9	0.7869529557450728
53	0x3fd2044a83670e4a	0.28151190597802567
54	0x3fe9f1d9fa537af9	0.810772885244517
55	0x3fd6980ab1d1420d	0.35302989354116293
56	0x3ff040188c95f19e	1.0156484119062053
57	0x3fe8eeeb978305a2	0.7791650733199058
58	0x3fd9822a354a8aec	0.39856963352410335
59	0x3fea9ab3db1b2aa4	0.8313845900932688
60	0x3fd75fac4f9b4b72	0.3652144219787977
61	0x3fb9e53c05c7c300	0.10115409031983447
62	0x3fe55b1eafa526cc	0.6673730307167829
63	0x3fe2993231d040fe	0.5812006924552688
64	0x3febc2638a344b55	0.8674791049291836
65	0x3fd486450861e327	0.3206951696261506
66	0x3fd958708cc4b697	0.3960229277316584
67	0x3fc41dded428c199	0.15716157302223335
68	0x3fe06161229da076	0.5118871379936667
69	0x3fc4797faeac61ca	0.15995784787152295
70	0x3fd6a074626f8e4c	0.3535433732306259
71	0x3fe57ee4bda49d62	0.6717399314847337
72	0x3fe1e2b6079d765e	0.5589246891719986
73	0x3feed9ae08f56be3	0.9640722441648645
74	0x3febc721280ad5c1	0.8680578023983615
75	0x3fdade40b284dfa4	0.4198152297353721
76	0x3fd7a60735287bfa	0.36950855437493113
77	0x3fcdd9d7bedafa80	0.2332105333243426
78	0x3fe3c4df6742a941	0.6177823082737534
79	0x3fd20efa51fabb8d	0.2821641731815639
80	0x3fd31e12b35a1f7a	0.2987105132565301
81	0x3fc56f24e8859c1b	0.16745435098275227
82	0x3fe76febeed27543	0.7324123062605071
83	0x3fa6af33680b2db6	0.04430542607368741
84	0x3fe7b1298fa168a3	0.7403762631686458
85	0x3fd5e135e6ae1c10	0.34187076117854165
86	0x3fcfaf652469b657	0.24754013326621546
87	0x3fefc0208f18cfc7	0.9922030253278472
88	0x3fed57200e326348	0.9168854024202142
89	0x3fe2a2a8726f1979	0.5823557124174804
90	0x3fd373b613213cf5	0.30393745296619495
91	0x3fecde71f3acba59	0.9021539458534092
92	0x3feb1bb3abd5e7ff	0.8471315723575116
93	0x3fd15c72f5ab8af3	0.2712676428911173
94	0xbfaf830add75c11a	-0.06154664948815221
95	0x3feb535fb898a668	0.8539274793049119
96	0x3fc31f586d4b554e	0.14939408623346612
97	0x3fe47cea772f4bd0	0.640248520643917
98	0x3f6f5edae688aa5a	0.0038294101143681427
99	0x3fb02aee6f602bfa	0.06315508097775072
100	0x3febc0313c350bfa	0.867210977165427
101	0x3feb7198c26d7607	0.8576167867101397
102	0x3fe63f16355a9946	0.6952010194843659
103	0x3fd1f302617af46a	0.2804571105915047
104	0x3fce216c00589fe3	0.23539495484260362
105	0x3fd2c81ff8b07c82	0.2934646538360043
106	0x3fd291b4ef7b61e0	0.2901432360354459
107	0x3fc059a638d83d4e	0.12773587966555983
108	0x3fc06b83f5092a59	0.12828111137999335
109	0x3fed0dcdbf2d4cea	0.9079350217747593
110	0x3fd1f801457e3703	0.28076202188900384
111	0x3fe93584ff305bc4	0.78778314439375
112	0x3fcb2be8e6d86262	0.21227751991024763
113	0x3fcd2f319912fd2e	0.2280027387077807
114	0x3fe08df78720824b	0.5173299445342051
115	0x3fcef1e1dfeef616	0.24175666269540902
116	0x3fe0cf6adfffec18	0.5253195166582172
117	0x3fc6f15772b139e8	0.17924016094407524
118	0x3fe3e1f08bdb7d46	0.6213305217351397
119	0xbfd21d2f1b100056	-0.2830312504083897
120	0x3fc50867052d0ed8	0.16431892159209016
121	0x3fa7d939c974e39a	0.04657917579829203
122	0x3ff1b985b6f453b9	1.1077935358673427
123	0x3fe320bb71cd9737	0.5977456305233549
124	0x3fe2154edf05340b	0.5651010852685671
125	0x3fdd51bf67c80814	0.45811448225879414
126	0x3febb743d32a76c5	0.866121208604192
127	0x3fe016ed776bae54	0.5027987797197491
128	0x3fe5d016b53a00dc	0.6816514529782824
129	0x3febebfc11b063fd	0.8725567193497451
130	0x3feae5be297ddf41	0.8405447779068497
131	0x3ff10844bdd51e6b	1.064518682034669
132	0x3fe2eff1ea7daeb1	0.5917901592160516
133	0x3fcf0953513a1089	0.24247209039834086
134	0x3fc5ddfe8bfecaf1	0.17083722911555513
135	0xbfb4ebe5ee5211ae	-0.08172452038167563
136	0x3fe0ee682e2edac6	0.529102411462042
137	0x3fe60c905015a70c	0.6890336574699361
138	0x3fe437e577c19bd4	0.63182328596019
139	0x3fe445b5de83658b	0.6335095735513944
140	0x3fee910d5df93bad	0.955206569234965
141	0x3fe47adfedacd689	0.6399993555157418
142	0x3fec7565a411eb05	0.8893306927196539
143	0x3fb2fee08b9feeec	0.07420161637122263
144	0x3fd204bcf3ceb9b2	0.28153919038131925
145	0x3fe519542731cfd1	0.6593418851393783
146	0x3fd9ff708b9a0192	0.4062157977387183
147	0x3fd43e259ca4b73a	0.31629314706048073
148	0x3fea6c79a1ecb5bf	0.8257415926543031
149	0x3fe361b3be46910b	0.6056765285798361
150	0x3fec4c7c26de7963	0.8843365439568455
151	0x3fe15e48b3d24c69	0.5427592765939951
152	0x3fe5d75b8867d496	0.6825387634441025
153	0x3fe6ca6d16e2a8d8	0.7122102210026027
154	0x3febf400154d9698	0.873535195930077
155	0x3fecd4935da1216e	0.900949175710634
156	0x3fe88686862c2128	0.7664215679697337
157	0x3fc11cdabb1ba4da	0.13369306694156685
158	0x3fd96f4be507fdfa	0.3974179970391273
159	0x3fec3d2c8d2af1bf	0.882467532842888
160	0x3fe3904d968e6f76	0.6113651218943079
161	0x3feb2482b01168bd	0.8482068480327808
162	0x3ff05945516bc758	1.0217946224697325
163	0x3fee620eeeb63e01	0.9494700109807469
164	0x3fec4aac6c07e0ee	0.8841154203392116
165	0x3fd121d79201f64a	0.2676905561309907
166	0x3fdde02d86a60dad	0.4668077292373834
167	0x3fe1feac1187aa47	0.5623379080182723
168	0x3fd540b6ae212174	0.33207480435205317
169	0x3fd93036bf125273	0.39356774005253853
170	0x3fb03a2a509b7410	0.06338753192854107
171	0x3ff074632c0344b4	1.0284148902176584
172	0x3fed98233be354ab	0.9248214883506497
173	0x3fdb033852993a3c	0.4220715338350691
174	0x3fdcc3afef4570ed	0.4494438015588134
175	0x3fcd4b4a5c4dc9d5	0.22886018282913648
176	0x3fec75e1dc06a44c	0.8893899247533539
177	0x3fe9acfd34049f63	0.802366830442207
178	0x3fd874d3c5f6b3b6	0.38213056881323426
179	0x3fe51840b0a28b10	0.6592105340863288
180	0x3fddc796d3f646dd	0.4653069562856283
181	0x3fd2e2364533fed4	0.2950568843661874
182	0x3fe8abd73d8941bf	0.7709766580465426
183	0x3fd2fbe1ded44abc	0.29662367592497296
184	0x3fe9c4b42fb4d849	0.8052617007986181
185	0x3fe050435202be16	0.5097977258464563
186	0x3fea5bad5b11a8e7	0.8236910608950695
187	0x3fe15305028160e9	0.5413842247899342
188	0x3fe1a57b45aaf143	0.5514503822992441
189	0x3fe5dd8515ce6176	0.6832909990217064
190	0x3fee7326e9213543	0.9515566399874519
191	0x3feae7b21b724c06	0.8407831703246991
192	0x3fca9ef7ec40ee9b	0.20797633205244356
193	0x3fd9cadf3b94cd32	0.4030073243950084
194	0x3fdbc2418d4eb5d4	0.4337314491229709
195	0x3fdb16584bcc8d9b	0.42323882486581405
196	0xbfaedff6c5a7fb46	-0.06030245936198368
197	0x3fd9f2e11642bbd4	0.4054491727246703
198	0x3fdbf21f37950499	0.43665295055331793
199	0x3ff06bb8025d05f0	1.026298531753465
200	0x3fc41647ede3b548	0.15692996135423187
201	0x3fefbc9a8b925ed5	0.9917729116450241
202	0x3fe55234bbe7750a	0.6662849111559421
203	0x3fc69704f67c3866	0.1764837459126653
204	0x3fecd893fa2dd3f5	0.9014377485569854
205	0x3fafa3794121dcaa	0.06179407997199722
206	0x3fc3dd720aff3d5b	0.15519547974552492
207	0x3fdd8d4e2c199c7b	0.4617495947517864
208	0x3fa795cc8b2fd8aa	0.04606475066241107
209	0x3fb6211437751e37	0.08644224504416163
210	0x3fdac00d6787eb40	0.41797194586222375
211	0x3fbc4f637a0506ef	0.1105863736056809
212	0xbfb56172ef7ccb09	-0.0835182032285894
213	0x3fe89d21de1a288d	0.7691811883862713
214	0x3fe6be5d9e84989f	0.7107380004934106
215	0x3fe99d988c355fcb	0.8004877794692161
216	0x3fd8cdd42395cb91	0.38756278491126134
217	0x3fb25b6ff7975d28	0.07170772356709121
218	0x3fefc82ce888a787	0.9931854764629272
219	0x3fe74201a29f9f5d	0.726807420372079
220	0x3fe644f7703475f9	0.6959187690260357
221	0x3fea3d4fa5d4cbab	0.8199842680827393
222	0x3fd780183b8c6e6b	0.3671932775048165
223	0x3fe0478603c4944f	0.5087308953849375
224	0x3fc8d5962417ae18	0.19401814234093773
225	0x3fe3dacadf2adac6	0.6204580649126334
226	0x3fc4305fbf2e5fad	0.15772625765816653
227	0x3fc4f8d4ced80f2e	0.16384372806361952
228	0x3fdb9f0dded3bbaa	0.4315828968091703
229	0x3fee96ed1f2e7728	0.9559236153615744
230	0x3fe69800fdad3e0d	0.706055160009727
231	0x3fdd1a3629bf02dc	0.45472482754489163
232	0x3fe9913763f9de2a	0.7989766075760987
233	0x3fe5b2d6ebea1781	0.6780809982017076
234	0x3feec607a85b1e72	0.9616735733224699
235	0x3fe65ea54c396b15	0.6990534294849079
236	0x3fe1f757664a08ad	0.5614430425487363
237	0x3fe6238792ca6b81	0.6918371073728481
238	0x3fd713e759d225f6	0.3605898263127466
239	0x3fe411a52c9585aa	0.6271539564879067
240	0x3fe597bea9d3bbfe	0.6747735325751589
241	0x3fefd3c7d9995c5f	0.9946021318418267
242	0x3fdf8514c0d12ceb	0.49249762372774225
243	0x3fd39bca196f724e	0.3063836334602329
244	0x3fefd56365eb55f3	0.994798373280615
245	0x3fd45c5bade74990	0.31813709242592214
246	0x3fae4030b7d79ec8	0.059083483163531236
247	0x3fe893936cdb7045	0.7680146337620576
248	0x3f9083963d7e642b	0.016126964095381318
249	0x3fec6931cd195555	0.8878411298598318
250	0x3fe225e4b29b836c	0.5671256531169155
251	0x3fcd148dd1f657b3	0.22718975784363024
252	0x3fc9abe06d63fcac	0.20055775967918998
253	0x3fe298b6052c2787	0.5811414814972843
254	0xbfc61fdb56d1cfb1	-0.17284719218480185
255	0x3fe227576e3f8578	0.5673024323734088

L f8 [40, 40]
0	0x3fe38668caa7d170	0.6101573904148108
1	0x3fc7d19de7493c56	0.18608449738755678
2	0x3fe76ec1a912716a	0.7322700788677541
3	0x3fd00f672d865adc	0.25094012685569367
4	0x3fe6d332ef14e3b4	0.7132811231195917
5	0x3fd36a49c44ee837	0.30336231394506136
6	0x3fe62a8c95d5aa97	0.6926939894159031
7	0x3fd06734f1f55be9	0.2562992442012147
8	0x3fd826c5ab5e1c7e	0.3773664639961182
9	0x3fedfa1d44b8638e	0.9367815344040638
10	0x3feb8d7570123afb	0.86101791275891
11	0x3fdfd1847781e405	0.4971629302086174
12	0x3fe6c14744d9d9fd	0.711093553995681
13	0x3fc36784563ad3d0	0.15159658632697282
14	0x3fe40044d2de3fb8	0.6250328176993127
15	0x3fca8fff30b12316	0.20751943471466266
16	0x3fe85d474379b4a3	0.7613865201834823
17	0x3fe68e79453d16a0	0.7048918106381343
18	0x3fd94a163e2fd272	0.39514690468721547
19	0x3fc263acef4b5492	0.14366685566225051
20	0x3fec4b14a8c0c139	0.8841651245075247
21	0x3fdcb1298bbe3fb8	0.4483131279639525
22	0x3fcd337e55125120	0.22813395646938606
23	0x3fc82982835de20a	0.18876677908316736
24	0x3fe56b4e28a6ba83	0.6693487924547558
25	0x3fea838fbf376c7a	0.8285597548196073
26	0x3fbe8f4fbcf9b46c	0.11937425960214093
27	0xbfc1f258a81b43ee	-0.14020832260442212
28	0x3fdaa1d9d777ec97	0.4161285976585502
29	0x3fc10cbefbfc1051	0.13320147804199903
30	0xbfc7deb6265ee087	-0.18648411630215753
31	0x3fe61d52a017a08b	0.6910794379046065
32	0x3fe34ce54a9f925b	0.6031366784560065
33	0x3fbfb5e27063f998	0.12386908763799054
34	0x3fba734c2b9dce03	0.10332180085043068
35	0x3fd1d8bab9e0a793	0.2788531127176778
36	0x3fe93b29cc481c3a	0.788472079265268
37	0x3fd6c549b0e4c627	0.35579149508257263
38	0x3fdeeacbd673168f	0.4830808252557767
39	0x3fea2bd766880a1e	0.8178517344061367
40	0x3fe71a744f7168ce	0.7219792892094803
41	0x3fde50b655f26fa8	0.47367628472579293
42	0x3fe1edf845cf4bfd	0.5602990497085326
43	0x3fd8ebe8639d0fee	0.3893986676014255
44	0x3fe3ab170dd7eef9	0.6146350164776485
45	0x3fdeb0903d53a6b0	0.4795265768903887
46	0x3fded045277552cb	0.4814618001303585
47	0x3fc43290ac90243a	0.1577931253998786
48	0x3fe089643ecc754c	0.5167714334999487
49	0x3fbe58f58630e3eb	0.1185449078192417
50	0x3fe27cf34d3f27df	0.5777527340626384
51	0x3fc3c0c3e359ca28	0.15432022667990108
52	0x3fd3656fdb591905	0.3030662195273098
53	0x3fdb2617b256c5cb	0.4241999856559146
54	0x3fe47b424a8ef08b	0.6400462585657051
55	0x3fe78476117cd6a9	0.7349195806079553
56	0x3fd92f9f100fc835	0.39353157585640314
57	0x3fe2005af5df2c8b	0.5625433733161044
58	0x3fe81567e410619b	0.7526130155920784
59	0x3faff3cd73a01c10	0.06240694080775466
60	0x3fe8531466767340	0.7601415635323079
61	0x3fe7e50a1f7342f8	0.7467089285147201
62	0x3fcb9cc9fb8028bf	0.21572232036880298
63	0x3fcea82b5ffde451	0.23950712382409958
64	0x3fe51151341d9f06	0.6583639161953847
65	0x3fe25ff265216688	0.5742122626499659
66	0x3fe74f961c8fa050	0.7284651334603129
67	0x3fd15e65040a49e4	0.2713863887267094
68	0x3fe6cf6822109952	0.7128182092026611
69	0x3fd98f303a145feb	0.39936452552637886
70	0x3fe5a3d53ebbfe2f	0.6762491441040249
71	0x3fe329ffbc79d063	0.5988768273514434
72	0x3fd78dba2410c30f	0.3680253364755552
73	0x3fe09045bb05d083	0.517611375120865
74	0x3fe649d6f55daae0	0.6965136329939376
75	0x3fce7e4f085f0509	0.23822963627575458
76	0x3fd2ecb498c0b14d	0.29569735448128115
77	0x3fd4ae6928daa44a	0.3231451891866227
78	0x3fd515a11e912809	0.32944515214023845
79	0x3fdbaf3fb5ccf982	0.4325713420293128
80	0x3fd38ad6514a25d3	0.3053489488453042
81	0x3fe50e5234db22e7	0.6579981834739471
82	0x3fe44f8fd10dc0cf	0.6347121317940266
83	0x3feefcaebf42bd9c	0.9683450446663531
84	0x3ff4c625e13b4104	1.298375968752283
85	0x3fddb0be32679041	0.4639125339729198
86	0x3fcd7706b456a77b	0.23019489102926713
87	0xbfa7a1c72cdef843	-0.046156143405355475
88	0x3fe3e345189494d5	0.6214929084859714
89	0x3fe52ab68c2e67f1	0.6614639985957621
90	0x3fd2b6c391b1e62b	0.29240502574939126
91	0x3fe29551dc88b7c8	0.5807275111490009
92	0xbfd157509bac694e	-0.270954277062306
93	0x3fd7761ead6f7b84	0.36658446251924937
94	0x3fdc6d69f3626602	0.44417809265141284
95	0x3fe5f5d20efd0295	0.6862573902836454
96	0x3fe9a8eecff0f5b2	0.8018716870644111
97	0x3ff0b24863fdf984	1.0435260683003387
98	0x3feac0ebc2a4e790	0.8360499192851751
99	0x3fe5b9a2e28100ff	0.6789106773285595
100	0x3feafcba3991b080	0.8433505176922296
101	0x3fefc7872fd2b772	0.9931064542813444
102	0x3fe18a9b6dc99521	0.5481698173795487
103	0xbfaed95a24f2c5f6	-0.060252015123648237
104	0x3feba8dc70f4c7ee	0.8643629270720774
105	0x3fd9114c98545490	0.391680859336085
106	0x3fe413222c26eae4	0.6273356306404279
107	0xbfa9d244dcc1766f	-0.050432350108832284
108	0x3fe2d131e4b99401	0.5880364863666047
109	0x3fe0cc5bbdf4bbb1	0.5249460897519979
110	0x3fe0602e56a9184d	0.5117408459270877
111	0x3fe135e6039e06db	0.5378294058466183
112	0x3fd283622439b757	0.28926900422708485
113	0xbfd7027e4897bc89	-0.3595271786607062
114	0x3fcb81ac080eea2e	0.21489477532834783
115	0x3fe48fe5118f0189	0.6425652831022016
116	0x3fd99785339b7e05	0.3998730663278994
117	0x3fe75cd57ded973f	0.7300822696240415
118	0x3f7857af6653119e	0.0059429980803468434
119	0xbfb3089261680706	-0.07434954526982204
120	0x3fec8acbf2dcf401	0.891942953435887
121	0x3fcf44a2347dcd04	0.24428203166062457
122	0x3fd9ce9ea133fa0a	0.40323606245502275
123	0x3fe540ac31c14aba	0.6641446086672069
124	0xbfbacf091b0b4057	-0.10472161207440088
125	0x3fe173a7b9e19319	0.5453680639735438
126	0x3fdf3008bc281510	0.4873067700830953
127	0x3fe98b26e6ee0e8b	0.7982363233899873
128	0x3fda0e76c1d30bd4	0.4071328060928725
129	0x3fdb6326af8981f4	0.42792670385645626
130	0x3fe7a187ec556bbd	0.7384681335346311
131	0x3fd42902b2230459	0.3150030841462175
132	0x3fe531da71dc1f98	0.6623356078934988
133	0x3fe807ee3227c5f6	0.7509680728527985
134	0x3fe2619cb7b1271f	0.5744155490621984
135	0x3fa7a460725a8996	0.04617597003859257
136	0x3fd591aadefd022a	0.3370158364887482
137	0x3fe0f249df32f5dd	0.5295762404782028
138	0x3fe2aa661beeae98	0.5833006425431959
139	0x3fb66ed2798e391a	0.08762851207413683
140	0x3fc7b660f2429c1e	0.18525325612174098
141	0x3fb396c79171038b	0.07651946354691412
142	0x3fe080c5a0fb4c8e	0.5157192367718311
143	0x3fd46c317b78e7e3	0.3191035943779054
144	0x3fd131a3abfb2abf	0.26865474505454395
145	0x3fde3f1e7c77ca76	0.4726024833209189
146	0x3fe45aebd5294543	0.6360987819008773
147	0x3fe4a0799c930e8b	0.644589238938765
148	0x3fd2eca9067250ef	0.29569459561868333
149	0x3fe35611ae0ef579	0.6042564773157856
150	0x3fd3067048558b56	0.29726798118479303
151	0x3fd7f2c6248c94f1	0.3741927487302084
152	0x3fd2fc955321e081	0.2966664611663035
153	0x3fe1b851693b6482	0.5537497573196932
154	0x3fe4fb1f6abeb150	0.6556546292172616
155	0x3fdc1dcdfadde6d3	0.439319128977883
156	0x3fe4aa7c6a0e9f49	0.6458112784793936
157	0x3fc98ae564ad51bd	0.1995512715899518
158	0x3fe17337cffe709e	0.5453146994000411
159	0x3fde2e84ba9af26d	0.4715892622296341
160	0xbf9600bed3757bf1	-0.021487218529156086
161	0x3ff08da0e77f543f	1.034577278410566
162	0xbf8feeedd3baa1bb	-0.015592439674336647
163	0x3fc7b1338e6c7283	0.1850952573230594
164	0x3fb63467bdd075c1	0.08673714050424676
165	0x3fdec2c55cd283f5	0.48063787522011064
166	0x3fe4411c8180b026	0.632948162970483
167	0x3fe38a306e9ccf3d	0.6106187973404996
168	0x3fe76038c04916d5	0.7304958110405219
169	0x3fca51a5d0e0b2cc	0.2056166906271727
170	0x3fcc0e3ab54384ac	0.21918424464005193
171	0x3fe266d4337960b9	0.5750523572305816
172	0x3fda907af1f96baa	0.4150683749227776
173	0x3fd0bfbfa9e0316d	0.26170341100148314
174	0x3fd2e8ca7ca2fd77	0.2954584328799323
175	0xbf9720060137700c	-0.022583097290279894
176	0x3fe4c02f2ce5be53	0.6484599949744257
177	0x3fea5dab32e6188d	0.8239341730229782
178	0x3fe2194ab54aecf6	0.5655873814461347
179	0x3fea1f9948da8614	0.8163572714731253
180	0x3f8969b8899caf46	0.012408677768312903
181	0x3fdd8be91f81f3b4	0.461664467591443
182	0x3f683f3941a54572	0.00295983488937484
183	0x3fb7ed2285263c1a	0.09346214056698479
184	0x3fd7c8a89087c41e	0.37162222017565394
185	0x3fcc6e91d461cbc2	0.22212431783881753
186	0x3fea7c8dcc6e8f08	0.8277043335733376
187	0x3fcf311500ded7cd	0.24368536512855457
188	0xbfb4fe6719432bb4	-0.08200687758214437
189	0xbfb0a7fc1106bb77	-0.06506324210816482
190	0x3fd695dfcc65a27f	0.35289759598393994
191	0x3fe714a4f4d5ff8d	0.7212700635864039
192	0x3fecb268af277306	0.8967784329393858
193	0x3fe89ba5036d9d94	0.768999582954097
194	0x3fef8b0c4d061c01	0.9857236389515266
195	0x3fcca545a465d6e2	0.2237937023852999
196	0x3fd21b6a4173e375	0.28292328254570204
197	0x3fe556b0b37232b7	0.666832304459226
198	0x3fd72dfdd40d718f	0.362182099421056
199	0x3fe91fcbb91b5ce8	0.7851313224190593
200	0x3fd8cd121d8ba3a5	0.3875165260820331
201	0x3fdc92263a5efc16	0.44642024708076755
202	0x3fe687fb405c189a	0.7040992981935859
203	0x3fdd8d49caa1492e	0.461748550301439
204	0x3fd830fa5f2841c6	0.37798938076687383
205	0x3fda8ddf54810457	0.41490920307484686
206	0x3fe5176119a54461	0.6591039181604509
207	0x3fe0f0dc8f1455fd	0.5294020456810241
208	0x3fb9c0763e517161	0.10059298535765528
209	0x3fed602d33f5f32d	0.9179903044565428
210	0x3fe401b58fadcff5	0.6252086454610423
211	0x3fe25d120cfdfffb	0.5738611463311821
212	0x3fc19ef7e57398c6	0.13766382888497314
213	0x3fe83b3d17022240	0.7572312783605142
214	0x3fed49e988c418b5	0.9152724906168915
215	0x3fc9a32f804b6cac	0.20029252781282503
216	0x3fe8d5dd898a970e	0.7761066137652237
217	0x3fde7e8ed3332672	0.4764744818208789
218	0x3fb329d6d213adb6	0.07485716465787715
219	0x3fc0de7f9a14eac4	0.1317901136734091
220	0x3fdbccc7fd280641	0.4343738529424606
221	0x3feb503d1489729a	0.8535447503196167
222	0xbfa37d78a68e4d86	-0.03806664498474803
223	0x3fee4addf59df88b	0.9466390416344138
224	0x3fe816643fd35253	0.7527333494750316
225	0x3fe51d236b03d9e1	0.6598069276940884
226	0x3fd6d6c1d317bc6a	0.3568577348186809
227	0x3fe3af6c71d506b1	0.615164015129457
228	0x3fe44d99eafcc049	0.6344728078456764
229	0x3fe7ffa742a4a9a9	0.7499576856255789
230	0x3fcc22cb0296d863	0.2198117983477373
231	0xbfb86a6cb38af492	-0.09537391074532511
232	0x3ff3f9069fd28de8	1.2482973330560245
233	0x3fcc4b07a7876926	0.22103973083614753
234	0x3fe4ff4a9961f53f	0.6561635013346531
235	0x3f60a65a9ec9c04d	0.002032448761660566
236	0x3fb14c533474ae33	0.06757087736758009
237	0x3fe8359471d266f3	0.756540510471693
238	0x3fd8bbdb6d559ef0	0.3864658897132207
239	0xbfc49f96ee8d790a	-0.16112028740003154
240	0x3feb06a22509cedf	0.8445597384838627
241	0x3fd416b78c298f49	0.31388653457382937
242	0x3fdfc4a6a34ec002	0.49637762020120146
243	0x3fdf59841b5291b0	0.4898386256047855
244	0x3fe043c540ed3468	0.508272768792847
245	0x3fe8f303eb8be614	0.779664955188482
246	0x3fe9c1321b7db442	0.8048334633764471
247	0x3fdaa75688e50f35	0.41646350258473613
248	0xbfa5b92195feeef2	-0.042428063926733275
249	0x3fd1950a784b543e	0.27472173449979553
250	0x3fcd4b8a8bf445a8	0.2288678344125803
251	0x3fef7e7cbd7b1e11	0.9841903401183477
252	0x3fea6400bd643831	0.824707384019126
253	0x3fe2c81c2fb19e6e	0.586927502777099
254	0x3fd04b88a0fc5ff4	0.254610211575254
255	0x3fca21b5a0718c98	0.20415373167188444

weight f8 [50, 4]
0	0xbfe06297a0b2aa5d	-0.512035192359075
1	0xbfda0bdb95db7ea2	-0.4069737399531538
2	0x3fe08fd031c4d497	0.5175553295181484
3	0xbfc73d5de5339df8	-0.1815602654598789
4	0x3f937a4a23789db4	0.019021185317027636
5	0xbfa28a8565eaa4bd	-0.03621308201884108
6	0x3fd98bf06252176d	0.39916619874599385
7	0xbfe02e298458d1c8	-0.5056350312138926
8	0xbfd9596670f629cd	-0.3960815528049835
9	0xbfdaf33c1e4d1e4b	-0.4210958763037282
10	0x3fae41e94a127427	0.05909661320877318
11	0x3fa3d74d4d7f7aab	0.0387519986249932
12	0x3fe750c1dde06c8d	0.7286080678490109
13	0x3fcb79fefa9f451d	0.21466052281770312
14	0x3fcf0aa099ead6db	0.24251182094092524
15	0x3fc54bbebd88e1fc	0.16637405638336122
16	0x3fdb26604ae15a27	0.42421729385879065
17	0x3fca26b70f4d3023	0.20430649039406132
18	0xbfdeb536a55d1977	-0.4798103918914402
19	0xbfd64e3f5e59d5c9	-0.3485258504291236
20	0xbfcc8d20fa5430eb	-0.22305690978135514
21	0x3fc0f6ad5d8a6d92	0.1325279909841411
22	0x3fd8e3ba582c0066	0.3888994084409262
23	0xbfd928b66fff3d16	-0.39310990273675495
24	0x3feaf5e2b9228ce0	0.842515336600993
25	0x3fd11b5434403898	0.2672930250418033
26	0x3fbdfb8eec88e6b8	0.11711972498678846
27	0xbfde3382f4bc6c33	-0.47189401531221903
28	0x3fcaf619bdeb2306	0.21063539288868344
29	0x3fcb2ba6f6ada60a	0.21226965946998205
30	0x3fa5791e1271ca8f	0.04193967795517494
31	0x3f477808b392ada4	0.0007162134635527073
32	0x3fdfa1e841fe226b	0.49425703472710464
33	0x3fd7a60955e810ab	0.3695090617113787
34	0xbfbe70e4031838bf	-0.1189100749545302
35	0xbfd31059859d28db	-0.2978729061911857
36	0x3fdcbe30e5262e8f	0.4491083371910713
37	0x3fa29e9171991980	0.036366028897236724
38	0xbfc42e284e5714dc	-0.15765861344531273
39	0x3fd2401f9ae3c6fb	0.2851637852282775
40	0x3fc42867f01a7d1e	0.15748309348871542
41	0xbf5ce6b61afcd8c9	-0.0017639902470825578
42	0x3fe2e4ee8dd50d57	0.5904457826767765
43	0x3fbff0ec48b05ca4	0.12476994299537353
44	0xbfd58a309749cdec	-0.3365594365525044
45	0x3f93e4af4d10a9d3	0.019427050665550127
46	0xbf81ece307d35222	-0.008752607036890462
47	0x3f90a69be6d44253	0.016260562862102933
48	0xbfdfd5ee21eac6db	-0.4974322634908341
49	0xbfd02ba0a15fa8b4	-0.25266280898234617
50	0x3fcf417e7c963d69	0.24418622096389278
51	0x3fe098dc8c6b6cfe	0.5186598532267508
52	0xbfe026decb20b605	-0.5047449080790903
53	0x3fdd3bd4188c1f8d	0.4567766418190267
54	0xbfb1e493b5e20049	-0.0698940581369253
55	0x3fd3bbdbc073387d	0.3083409671206779
56	0xbfc066b571b17c9b	-0.12813442279273066
57	0x3fc44593f6afa8a2	0.158373351528387
58	0x3fd247a9531c08d2	0.2856238662353806
59	0xbfb6dbc857bda43c	-0.08929111616238655
60	0xbfc5f6c5d16f523e	-0.17159340597449274
61	0xbfc295bbad3c0b9e	-0.1451944919463956
62	0x3fd16a8372a84e98	0.27212606617943313
63	0xbf91497afbb0f9ab	-0.01688186799241868
64	0xbfdd137ed9549664	-0.4543149111144429
65	0xbfad69f117e7d3f1	-0.05744889656845221
66	0x3fdbaa37f04726fe	0.4322643133606191
67	0x3fc9465c71b16723	0.1974597506658081
68	0x3fdc33d2e8a07b83	0.44066307752103046
69	0xbfde7d14f3206c7d	-0.4763843893321747
70	0x3fb6202c8e47a0c7	0.08642843698146684
71	0xbfde922bc53d9455	-0.4776715685059732
72	0xbfbfa6fd1af13c7c	-0.12364179523250302
73	0x3fcf03e697978a63	0.24230654146147676
74	0xbfaacd8602bae5f5	-0.05234926970792834
75	0x3fd8fcb6ed703869	0.39042447268810193
76	0xbfe40a410f270240	-0.6262517257637867
77	0xbff340899ea97cc0	-1.2032562444435797
78	0xbfdb4a18cf95cbe0	-0.42639751693712746
79	0x3f9afe67eb7b0ca9	0.026361106631850238
80	0xbfdea43642ead980	-0.4787727025499393
81	0x3fd6a8eadac0c890	0.3540598999271731
82	0x3fbd7a8b50ddd436	0.11515112613945253
83	0xbfa42dfa2a61b3a0	-0.03941327826837626
84	0x3fc5cccd67c606bf	0.17031257216517834
85	0xbfe7d6442c870d0f	-0.7449055547407698
86	0x3fd7312f373e0917	0.36237697977789324
87	0xbf8dc6de4d16eceb	-0.01453946755179066
88	0xbfdb69264660c0b2	-0.4282928168568204
89	0x3fd3172e13de7e15	0.2982897943529406
90	0xbfcdaf2ec451eec9	-0.23190865121784146
91	0xbfbd799e2b718551	-0.11513699112540123
92	0x3fe267ccaf177d7c	0.5751708431015881
93	0xbfd9f114659a20d2	-0.4053393356521272
94	0x3fd43c17d4f07f80	0.31616779131763195
95	0x3fc395511d638f30	0.1529942887783533
96	0x3fcdf24ae3bf97b3	0.23395668144729384
97	0x3fdf1ac294fdb053	0.4860083060255011
98	0xbf9e48912f0f5bbf	-0.029573696610750263
99	0xbf8eb9dd568012ff	-0.015002946092872003
100	0xbfe01361f354c5dc	-0.5023660423814209
101	0x3f818c1433b162e7	0.008567960574667534
102	0x3fc6e26a3b22c409	0.1787846363781969
103	0x3fd0faede3a324de	0.26531550626948597
104	0x3fb678d0370e6afc	0.08778096527241169
105	0x3fdcb9c0eda228c9	0.44883750158681984
106	0x3fa4b20beed89def	0.040420887857461334
107	0xbfc096c95cc7f880	-0.12960164099053273
108	0xbfbadd17523b2a27	-0.10493608243556506
109	0xbfdc52054d50f52b	-0.4425061469117561
110	0xbfd7583aed3030a1	-0.3647601429263521
111	0x3fdeac0243858389	0.4792485865964911
112	0x3fcdcfec104862af	0.232907779646458
113	0x3fdcfa8bbc36d984	0.4527921045331811
114	0x3fb2ec163f700ea8	0.07391490029118108
115	0x3fd696ff9883fa31	0.3529662122163329
116	0x3fd7a5c2291b1343	0.3694920922683204
117	0xbfd51a85bb7a9a3d	-0.32974379833686723
118	0xbfd0198a6a1b5c91	-0.2515588794898998
119	0xbfaac3660762801f	-0.05227202263017738
120	0xbfd026aa348690e1	-0.25235991601426916
121	0x3fdeeb999d582087	0.48312988629960113
122	0x3fcdcef4c9159ecd	0.23287830179764626
123	0xbfc0d6d32706b88c	-0.13155593305186064
124	0xbfa5c1a7595d8d87	-0.042493085535876544
125	0x3fdcab010f9a9fc5	0.4479372646696869
126	0xbfd73ef1d4cd7ca1	-0.36321683675300603
127	0x3fcb8e964fa14188	0.21528891456774724
128	0xbfd78559d21dca9b	-0.3675140907209113
129	0xbfb11413f6fd11ff	-0.06671261577600517
130	0xbfb8c89f358525f5	-0.09681124741214105
131	0x3fc5e15386248e20	0.1709389119142637
132	0x3fb438e60a1b50b3	0.07899320360894783
133	0x3fd4acfb7d00e3ba	0.3230580063569125
134	0xbfd0b2e09dc2a191	-0.26091781049992685
135	0xbfc87053efb32390	-0.19092797473993217
136	0x3fd981d89842b21f	0.39855017537300513
137	0xbfba03950638b437	-0.10161715890781485
138	0x3fab19871af1d70f	0.05292913631357809
139	0xbfd8cd7a5f0f7ba5	-0.38754138262987176
140	0x3fd86b879b61b781	0.38156309293741947
141	0x3fd32d31bb813c27	0.2996334391691015
142	0xbfd07cba8d3551e6	-0.25761283674117263
143	0x3fd012d53f3ee71d	0.25114947487200984
144	0x3fdb50d95015cf4d	0.4268096239168145
145	0xbfdb67b7f0dd91db	-0.42820547601720954
146	0xbfd28e93d6df09c7	-0.2899522398330671
147	0x3fd5883f03ca181b	0.3364408051496654
148	0xbfe00f5877433007	-0.5018732385010488
149	0x3fd7ac5e9294faa2	0.369895594736514
150	0x3fd8b4015d16c0ee	0.38598665323935577
151	0x3f927d0d001e3fbc	0.018055155880176463
152	0x3fd04f955725aa63	0.2548573828741267
153	0x3fdbb43cf1af5ca3	0.4328758583264493
154	0xbfde83b725c859ab	-0.47678927125653087
155	0xbfd9f5bd91eb9711	-0.4056238102915453
156	0xbfb6a1415ce3a9a6	-0.08839806096845013
157	0xbfdf5621748642ec	-0.4896319997724692
158	0xbfbb743fb2e8c1ee	-0.10724256627941717
159	0x3fe1ac2ab578927c	0.5522664589266948
160	0xbfda9a1fdbb0ef43	-0.4156570096417804
161	0xbfd58b9a6de39baf	-0.33664570552212586
162	0xbf9fe959ce04194b	-0.031163600157946985
163	0x3fb784be66593f00	0.09186925886865183
164	0xbfd908ee9f9304a7	-0.39117017348696453
165	0xbff8b1d0fbdbddd3	-1.543412193130156
166	0x3fd31d0a9dbcb4f0	0.2986475506211965
167	0xbfcfee2fa4e9f7df	-0.24945636322439577
168	0x3fdb9180b23a5859	0.43075578122205155
169	0xbfd18ab8c57aca17	-0.27409190449830717
170	0xbfd6c4ec74df42b9	-0.3557692662553041
171	0xbfd0d2330e85b77b	-0.2628295556850088
172	0x3f90571114c5883c	0.015957133190916503
173	0xbfe4b09abe1f6ce3	-0.6465581620535911
174	0x3fd6e4649cb7ff7d	0.3576900034386126
175	0x3fb649f79c778e94	0.08706615037913884
176	0x3fcecd8017add21f	0.24064637333107528
177	0xbfd69b43b28e9aeb	-0.3532265895577626
178	0x3fb7150a09e275f7	0.09016478291820094
179	0xbfc30430ce32beaf	-0.14856538837692798
180	0xbfdcecd21714ec49	-0.45195438627314793
181	0x3fde9226e02eecb7	0.4776704015054735
182	0xbfcbd068ecce4b0e	-0.2172976642874222
183	0xbfd646fd259c0617	-0.3480828158645592
184	0x3fb519929417a2d9	0.0824214564851319
185	0xbfcb01646219e4d5	-0.21097998418898692
186	0x3fd916de61703810	0.3920207931086006
187	0x3fde6977a0d3b4a6	0.4751872129989557
188	0xbfdb0527917300e4	-0.4221896095659885
189	0xbfdc6e415cd83e32	-0.44422945086350574
190	0x3fc559959c77881c	0.16679639949785574
191	0xbfcf21bc8a38e98a	-0.243217055789341
192	0xbfc6942d7256af89	-0.17639701922359688
193	0xbfd562e971e2e1f7	-0.33416210290627596
194	0x3fc1a856d5c04bd0	0.1379498046595402
195	0x3fe1ad2364e4812c	0.5523850412901417
196	0x3fd175e0a8a57a81	0.2728196761071687
197	0xbfd4158764477eed	-0.3138140181817864
198	0xbfce7d320015249a	-0.2381956577685614
199	0x3fdc556062b0937e	0.4427109683768363

bias f8 [50]
0	0xbfc7e4184909a9e6	-0.1866484028463013
1	0x3fd7e9c9342956f4	0.3736441621198161
2	0x3fcd9552d866d9fb	0.23111949507229199
3	0x3f885e6ab03ab677	0.011898835661976677
4	0xbfd2cf499c2e614a	-0.29390182735507564
5	0x3fba164e927bd506	0.10190287662756611
6	0xbfca14b9d8b89da9	-0.20375750619971925
7	0x3fdd06a41f322810	0.45353034063794073
8	0xbfda0c2a8ca2a738	-0.4069925664322116
9	0xbfaea86ca173455c	-0.05987872572735384
10	0x3fc8d169a73272b6	0.19389076866072735
11	0x3fd0d7bb4e5e836b	0.2631672158550404
12	0xbfcc4c578804f1f3	-0.2210797704846211
13	0x3fbc43648d6005bb	0.11040333224811764
14	0x3fdf3ebec1cda160	0.48820465971086513
15	0x3fdc55e294f855cc	0.442742009619306
16	0x3fcb383fff006905	0.21265411330461617
17	0xbfdafa08735d7d14	-0.4215108038533384
18	0x3fd057d24a48f092	0.25536019567858503
19	0xbfdba07a7e37df5c	-0.43166982961655775
20	0x3fc1d963495516c0	0.13944665032084025
21	0xbfcae45ffb3ecca8	-0.21009444969022195
22	0xbfb769e4355a543c	-0.09145952513274919
23	0x3fbf7d463fd66ec2	0.12300528582130268
24	0xbfdf9cbc6de6acba	-0.49394140942122144
25	0x3fc7aba33bb74c01	0.18492546478100283
26	0x3fc7acd8febbd7ca	0.18496239126369424
27	0xbfdaff63234e2e04	-0.42183760116378743
28	0x3fde6bde880bfc46	0.4753338173467835
29	0xbfd8ad0c18246bde	-0.38556196553844113
30	0x3fd4a4c34f736c35	0.3225563312423135
31	0xbfc49779951ceb87	-0.16087264805704768
32	0x3fb33cc62e0d819d	0.07514608978590905
33	0x3fa3f0905e8f1ad7	0.03894473223004063
34	0xbfda82ecb7ab53a2	-0.414241008152482
35	0x3fcd48287a49a6fa	0.22876459094123175
36	0xbfd7cbe34407ab56	-0.3718193210940418
37	0x3fd226f7ecd8516d	0.28362844590562625
38	0xbfdad1fb1513be0a	-0.4190662103492008
39	0x3fc1e7e9d62416be	0.13988993602850103
40	0x3fd12dae23bbd4e8	0.2684131001436314
41	0xbfd027582e270685	-0.2524013949115232
42	0xbfcb7f87c9e3bab4	-0.2148294196881203
43	0xbfbc7b2f68abfd89	-0.11125465684380322
44	0xbfce40fb37b630a0	-0.23635807247444962
45	0xbfb14ccc083e1b5b	-0.06757807923541519
46	0xbfc9b770b87811d2	-0.2009106541373869
47	0x3fdb336b292de18b	0.42501334210785363
48	0x3fe0eba3679dbc09	0.5287644408944071
49	0xbfad51b5a26574af	-0.05726401908280231

weight f8 [50, 50]
0	0xbfbd187c55677241	-0.11365487179814072
1	0x3fbc99617daaf82a	0.11171540563643192
2	0x3fb6069869e861d6	0.0860381372989488
3	0xbfb9570abcda7d19	-0.09898440466576054
4	0xbfbcbd1bca80162b	-0.11226056760650553
5	0x3fb33cdb4edffec6	0.07514734912546847
6	0xbfa11ace872d2a74	-0.033407644272831855
7	0xbfbeceeab3eff077	-0.12034479992866119
8	0x3fb9706fa94b9d02	0.09937188990771875
9	0x3fa1941050eeb825	0.034332761649565925
10	0x3fa7b229f002e0af	0.04628115706276625
11	0xbfb20e9a091f0e97	-0.07053530428589237
12	0xbfbb4e5d6110b062	-0.1066645013785901
13	0xbfa478a498928052	-0.039982932686371556
14	0x3fb3a79796e729cd	0.07677600320963691
15	0xbfb3230ea0e91dd4	-0.07475367954713558
16	0xbfa57867b9e2bebb	-0.04193424362290218
17	0xbfba7317558025f8	-0.10331865155617226
18	0x3f9d4264d7d6a9d5	0.02857358519910654
19	0x3fa1eee5bc8e1743	0.03502576758096023
20	0xbfb9b3e4c6196b15	-0.10040120922478153
21	0x3fbe52109574a374	0.1184397091752894
22	0xbfb24038c24be6ed	-0.0712924455982848
23	0x3fa30f82dc02d009	0.03722771583252899
24	0x3f8a2249fc2eba9e	0.012760713585376945
25	0xbfba4f3de97f9f9d	-0.10277163458488166
26	0xbf898568f0598699	-0.012461490473643354
27	0x3fb809edae9badad	0.09390149605649496
28	0xbfc0d22b51864b98	-0.13141385536854666
29	0xbfb7eaf9f49be5b1	-0.09342920514963883
30	0xbfac9e098547438d	-0.05589322807248385
31	0x3f74083ff443826d	0.004890680142324838
32	0x3f904a34d5c60e66	0.01590807490130288
33	0x3fa9ce791d9fb82d	0.050403389803122735
34	0xbfa1ca2170ef888d	-0.03474525931939452
35	0xbfbebc9dd83c34ad	-0.12006556061915559
36	0xbfb58c6af5f85736	-0.08417385583046841
37	0x3fb0e1a38e9334d4	0.06594297629199569
38	0xbfb43bb2fba3d662	-0.07903593677095835
39	0xbfa580aa32387806	-0.041997259741251056
40	0xbf8ad992390753e7	-0.013110296597838867
41	0x3fb0dc327778e720	0.06585994164279585
42	0x3fb304edcd3d1031	0.07429395924288042
43	0x3fa38d5dd04809ad	0.03818791549203424
44	0xbfb9b221c54bbb8b	-0.10037432734291778
45	0xbfae2b1e7f379bae	-0.0589227228445489
46	0x3fb4d054741196ef	0.08130386193951343
47	0x3fc1da3036752ec3	0.13947107943601197
48	0xbfb4672294bd99f2	-0.07969871646273655
49	0xbfc06615d72e2397	-0.12811539656493373
50	0x3fb3bcf07dc9d997	0.07710173674590802
51	0xbf9ab8901eec84c8	-0.026094676864094862
52	0x3fa2af521457932f	0.03649384020153545
53	0xbfbdf3dd2cded524	-0.11700231881589623
54	0x3fb6e316962afa72	0.08940259138305764
55	0xbf9112a7746065ed	-0.01667272231870769
56	0x3fb78cc59f1b53c7	0.09199175962869709
57	0x3fad915bb55e1816	0.05774962033233082
58	0x3fc07ebe11cef805	0.12886787290148063
59	0x3f97a315a0d95e2a	0.023083055441331414
60	0xbfbe80a77da637da	-0.11915060823068249
61	0xbf81fece7fe83f9e	-0.008786786344927407
62	0x3f93571a4dd24249	0.01888695812209765
63	0x3f93b9127c0809c1	0.01926068193461972
64	0x3faa2c7c28047765	0.051120643505995024
65	0xbf9a6e0864e9393d	-0.025810366782303296
66	0xbfb0ef3b5d1836a6	-0.06615038893525113
67	0xbf719347883ce906	-0.004290847227645727
68	0xbfa9e2926595962e	-0.050556731129102736
69	0xbfc584db0c216efd	-0.16811693279566234
70	0x3f622b4b60acdd88	0.0022179100245939866
71	0xbfc7a3fd159f3201	-0.184692035253093
72	0x3fc45740f11e10ae	0.1589127709704647
73	0xbf90cb770b1ae60c	-0.01640115742950425
74	0xbfa242e84533d908	-0.03566671223409129
75	0x3f81837e240a497b	0.008551583742961047
76	0x3fa3fa61e33be10c	0.03901964091159202
77	0x3fb3249ef545abad	0.07477754104699726
78	0x3fa96a14e246792f	0.04963746320867057
79	0x3fc1d06eade91c18	0.13917335025527744
80	0x3fb829fc5f480d33	0.09439065290648756
81	0xbfbd6485f8958300	-0.11481511420198487
82	0x3fb69d36ebacfb7c	0.08833640340615817
83	0x3fa020ae15c63b12	0.03149932876396212
84	0x3fa033d7f401fb44	0.031645535026646715
85	0xbf88105dc80c82e7	-0.01174996630430898
86	0x3fbfb078eb950b11	0.12378650428312833
87	0x3fb60e8e66fb3d91	0.08615961088366066
88	0xbfc16bca91636135	-0.13610202883752157
89	0xbfb62f45c7115ab3	-0.08665882215550873
90	0x3fc03143a4a5f066	0.1265034250208174
91	0x3f9f65b6959e34db	0.030661442644078867
92	0x3fb511c80730da82	0.08230257201726413
93	0xbf9219c08251d18a	-0.01767636104018914
94	0x3fba6dc43d630ce5	0.10323740481094353
95	0x3fbe7a10eef26feb	0.11905008157412993
96	0xbf9507fe07c0ea00	-0.020538300727119818
97	0xbf90b44c361813f0	-0.016312781144751598
98	0xbfab6e4f3de7a32e	-0.05357596998857726
99	0x3fa91a1e27eef3af	0.04902738797634442
100	0x3fa1f531fe029c6a	0.03507381654463233
101	0x3fb58fd961ff9af7	0.08422621386089789
102	0xbfb8a0c3e83d2a1c	-0.09620308322806931
103	0x3fb4cf68902a7747	0.08128980178522936
104	0x3f8c8f2fbeec7879	0.013944981588391624
105	0x3faeb2e8f39b562c	0.05995872472491856
106	0xbf34dbaeaded2c56	-0.00031826986917299815
107	0xbfb1084a60e0f01b	-0.06653275361253501
108	0xbfb9b194aa36ca66	-0.10036591678253046
109	0xbfbb7c79a67b271f	-0.1073680907676615
110	0x3fad764a808a0226	0.057543113890464334
111	0xbf8fa65234d3014d	-0.015453951108043507
112	0x3fa2ad5f18dad910	0.03647896936802131
113	0x3fc4ac38fc1a63de	0.16150581655236257
114	0x3f95d1be513fc139	0.021307920178459148
115	0x3fc020a320d3872b	0.12599600890012516
116	0x3fab312e20cb6d63	0.053109590056659405
117	0x3fb2726d3ababa92	0.0720585125334117
118	0xbfb342a5afa518d6	-0.07523570574003044
119	0x3fc5b18190feba38	0.1694795568450489
120	0x3fa214f9bca62f22	0.035316280630551825
121	0xbfc3c6be2e1c94db	-0.15450265170617325
122	0xbfb38943488d29e0	-0.07631321450495632
123	0x3fa8eb6ee32a30cc	0.04867121241577052
124	0x3fb616173e309c36	0.08627457874591546
125	0x3fc43ed647f80679	0.15816763414482063
126	0x3fb646ad844c7bde	0.08701595764112777
127	0xbfbcb03de32ad039	-0.11206423564982594
128	0x3fa8c938ca33d241	0.04841020077029557
129	0x3fb4bf78a12e5c29	0.08104661879620835
130	0xbfa97f17aba96c2f	-0.049797763542948174
131	0x3faaf8a87719ef4b	0.052678360499128184
132	0x3fc104b8d2298caa	0.13295660268622572
133	0xbfba07cbe447d43d	-0.1016814644170418
134	0x3fb12e152a94cdfd	0.06710941590863935
135	0x3fb4563988a52760	0.07944068513930125
136	0xbfb0116c51b6f264	-0.06276585574136956
137	0x3fa03547f1ecc9ca	0.03165650203881716
138	0xbfc17903f57f3a6c	-0.1365055988994358
139	0x3fb0e869b1de74da	0.0660463389635483
140	0xbf9a4fd747ec9002	-0.02569519402017307
141	0x3fb7dec55b160c80	0.09324296449453762
142	0xbf9b2ff61a8de7e3	-0.02655014550280289
143	0xbfc07a90b797a2f3	-0.1287403961607861
144	0xbfba11e8525d54a4	-0.10183574686864688
145	0x3fa47e04953105a1	0.04002394028840262
146	0x3fc0fb957bb1dc3d	0.13267773189338242
147	0xbfa894ed0141396e	-0.0480112136871068
148	0x3fc1a8f338ea281d	0.13796844748532147
149	0x3fb89df8f7ae0c38	0.09616046950218127
150	0xbf982e8098f8d9c6	-0.023614892326998115
151	0x3fc13e1c6e52f5a1	0.13470797907750146
152	0xbf9542e5dafcf59b	-0.020763007632231028
153	0xbfa430c90742a64f	-0.03943470204951593
154	0x3fafaf17ac6d8808	0.06188272456962812
155	0xbfad97d1c29d5b65	-0.057798914915727896
156	0xbf9bb370f7c640fd	-0.02705170166297054
157	0x3fc02915b067ff2d	0.12625380624376117
158	0xbf9f85874e9acf3c	-0.030782808468486453
159	0xbfbe5df1d206700f	-0.11862098100249362
160	0x3f6d8c8b79bce351	0.0036070560580835705
161	0xbfaa5fbb10c8d8d2	-0.05151161746873502
162	0xbfc4853db38796a7	-0.16031619325729204
163	0xbfb320aa44460017	-0.07471717993576053
164	0x3fb1ad2be9aacc0d	0.06904863791241685
165	0x3fa3c63baf0ff4b2	0.03862177383414557
166	0xbf934774869031a5	-0.018827267373170326
167	0xbfbbcfeb3c06c678	-0.1086413404034604
168	0xbfa16fb5fbeb81b4	-0.03405541134066273
169	0xbf9bace6d2e1d25f	-0.0270267549717168
170	0x3fb0a3f67abe3663	0.06500187393813799
171	0x3fae8d9b9af75afc	0.05967413202932012
172	0x3fad843654383296	0.05764932420797668
173	0xbfa9e6f9384c9a16	-0.05059031307455457
174	0x3f96302def2604d3	0.021668164941279166
175	0x3fbb39a43ddf13ad	0.10634829054386215
176	0x3fc1d05d9c0ac17a	0.13917131537665367
177	0x3fa134293438f6e9	0.03360108149034408
178	0x3fb2d8d26dbc6802	0.0736209409627975
179	0x3faa79d109b3801c	0.05171063655302552
180	0x3fc0900857b2532d	0.12939552576121952
181	0x3fb24add783c1195	0.07145485101142975
182	0x3fb93d5cac9753d8	0.09859255994463412
183	0xbfbecbf2d7e1b159	-0.1202995087675779
184	0x3fadb250a14c5a5f	0.05800106018994166
185	0xbfc1a3a05e5ae40f	-0.13780598265819363
186	0x3fa331872f076c49	0.0374872441204493
187	0x3fafd9b68fbf2647	0.06220789437027157
188	0x3fb4523fe00ef3bf	0.07938002796340891
189	0x3fa0cbe35eb1b98a	0.03280554324088587
190	0x3f89a66704606e83	0.012524418660226693
191	0x3fb255ddf50d1912	0.07162272675222806
192	0x3fb3039028cdbeeb	0.0742731189363856
193	0x3fad17b8a1160c7a	0.056821603454431505
194	0xbfaf31904777191f	-0.06092501518610249
195	0x3fc1bf3fd7893875	0.13864896797389617
196	0x3fb92cbf6887e820	0.0983390455438955
197	0x3fb39223150b52bf	0.07644862426543407
198	0x3fc1362293e7faa6	0.13446457120877148
199	0xbf927d691444884f	-0.018056527959864174
200	0xbfba8618c9793dfc	-0.10360865515507806
201	0x3f531bdd05719f25	0.0011663111124792871
202	0xbfab67663f3a3d9c	-0.05352324983425236
203	0x3fb3f2b0f05e2f41	0.07792192333562033
204	0x3fbe57caf488c956	0.11852711172176575
205	0x3fadd52550193bf9	0.05826679804578556
206	0x3f9f01020a4da6a8	0.030277282599320415
207	0x3f8b1af84d13b593	0.013235034801676792
208	0xbfb7427014ac7493	-0.09085751061179996
209	0x3f91477f30f95028	0.016874301303985956
210	0x3fb8dda64f2f2f34	0.09713210519038001
211	0x3fb5c105c02a5103	0.08497653905425655
212	0x3fbe41df0a6b7c01	0.11819261555091033
213	0x3f92256709e0e00d	0.01772080419343074
214	0xbfc17cf50b2e5af3	-0.13662589117003385
215	0xbfc14d3e2c9639f8	-0.1351697652539341
216	0xbfb339cc21e86513	-0.07510066821886978
217	0xbfba1c0b896ba51f	-0.10199043374054327
218	0x3fb51892f145992f	0.08240621939112168
219	0xbfbbb4277c7ec1dd	-0.10821768559868113
220	0x3fba8bfc650869d6	0.10369851557371787
221	0x3f8d315158181c3c	0.014254222393914266
222	0x3f78772ea2325aeb	0.005973035967278699
223	0x3fb846399e4e381f	0.09482154955750886
224	0xbfb6669349ff15f2	-0.08750267559579308
225	0x3faea4e8b5437f54	0.05985190594378645
226	0xbfbaad0c1cd3db41	-0.10420299247549016
227	0xbfa034fbbadc38b2	-0.0316542306519393
228	0xbfc117d808be3a6b	-0.13354015757473134
229	0xbfc1385b97f0c74f	-0.13453240317317713
230	0xbfbc4b2e90fa4686	-0.11052218474858408
231	0x3f9e327a7a186717	0.02948943491183006
232	0xbfa7c9fe3e107362	-0.0464629603158986
233	0xbfb60836b82caa42	-0.08606283184477895
234	0xbfb8eabdb13bb495	-0.09733186318381322
235	0xbfc15029a50d183a	-0.135258870688803
236	0xbf900f1abe3595cd	-0.015682618960814843
237	0xbfb8a85f6bc4f125	-0.09631916409575021
238	0xbfa20bc62b3becdf	-0.035246079232786214
239	0xbfb8dbbeae032889	-0.09710304020259931
240	0x3fbc9fc7d5eee06a	0.11181305859543192
241	0xbf8bb0fc2e43d5d3	-0.013521166002173601
242	0xbfb166b61ee5cb7a	-0.06797350172364061
243	0xbfa748b8f70300d8	-0.04547670378951957
244	0x3f97c707c6be0189	0.023220178132306955
245	0xbf92f93cd5f162af	-0.018528891141928735
246	0xbf962ecbe9afa6d2	-0.021662889612264653
247	0x3fb4e53c250ce978	0.08162284760047622
248	0x3fbfdf450126472d	0.12450057294907131
249	0xbfc186c4c5682e6c	-0.1369253124142803
250	0x3fb805e075fbe0f2	0.09383967285600983
251	0xbfbccf80dc00a45f	-0.11254124995379432
252	0x3fabc0ae83e0c740	0.054204419706719964
253	0xbfc058889484831f	-0.1277018284972877
254	0xbfb474958a3932c6	-0.07990393280597194
255	0x3fbca8cf807b1207	0.11195084463822279

bias f8 [50]
0	0xbfc11f0b4c7bd6c7	-0.13375989183957968
1	0x3fc0a5366208296f	0.13004188334191322
2	0x3fb809e3f8bc334b	0.09390091726909337
3	0x3fa30a757ae9c496	0.03718917012600646
4	0xbfbef0caa8c4a968	-0.12086168880765558
5	0xbfb4b31a5025157c	-0.08085789162313078
6	0xbfc03e91d514619d	-0.12690947441366243
7	0xbfba329ff52dbcf0	-0.10233497367675048
8	0xbfbe151231d4a831	-0.11750901905603041
9	0x3f9e2e9816bbbf8e	0.029474617373977767
10	0x3fb04157e29c7ee4	0.0634970596552154
11	0x3fc120200dc9fb4a	0.13379288361826475
12	0x3f93dc90b3b61998	0.01939607712622546
13	0x3f9fb0f512b8e2ca	0.030948476093018575
14	0x3f91292a9255366b	0.016758599454354355
15	0x3faf1c36fdb90836	0.0607621369095032
16	0x3fb346d64bc1b967	0.07529963826684637
17	0xbfa2bf46923f2046	-0.03661556754337929
18	0xbfb300b22a7e7c00	-0.07422936952069392
19	0xbfb39c87f77166a4	-0.07660722533310121
20	0x3fbce132fdbfe51f	0.1128112668519816
21	0xbf57bc67d71b4c22	-0.001448727995399642
22	0xbf9e7faa5e73a09b	-0.029783880247948074
23	0xbfaaf865e0d8a760	-0.05267637605386599
24	0xbfc520276bef8589	-0.16504376192373751
25	0xbfac9c2d25d4d530	-0.05587903105553449
26	0xbf96eb68c0a779dd	-0.02238238979213657
27	0xbfb467cfd31c0eef	-0.07970904258769072
28	0x3fc231fe14cac380	0.14215065016972162
29	0xbfbe2273d3d4deed	-0.11771320268314485
30	0x3fb60f6a597c77d4	0.08617272076341403
31	0x3fa92e8ca20f61ec	0.04918326833984907
32	0x3fb3bf584ebcfd29	0.07713844225235235
33	0xbf743900015765e8	-0.004937171955555077
34	0xbf93cd86cf8f397f	-0.019338709276604412
35	0x3fa0f79fdec82d2c	0.03313922495370955
36	0x3fb52127a76b3734	0.08253715360043828
37	0xbfb9301347fa1bf9	-0.09838982112169949
38	0xbfc295d32509adfc	-0.14519728954779498
39	0xbfb1565ad0e217ce	-0.06772391891180904
40	0x3f974d7e0805276f	0.02275654720259673
41	0xbfb0ad8f97200fa6	-0.065148329158602
42	0x3fa30c14ca14fd09	0.03720154730626219
43	0x3fb5ed9b33b5b697	0.08565683376738274
44	0x3fbd21d705f6a98c	0.11379760642618048
45	0xbfaa31f98aef0863	-0.05116252728431971
46	0x3f93099c6bec015f	0.018591350638417988
47	0x3fb0671eac0d7882	0.06407348347190303
48	0x3f91b067c0ef544e	0.017274495268641048
49	0xbfa7150a8d650ad5	-0.04508240676888923
