lasa_models/3/skel_model_Worm.pt (torch, 99247 bytes, 18 tensors)

R f8 [20, 20]
0	0x3fc8751f802cb4b0	0.19107431181456525
1	0x3fdfdcfbf00ac88c	0.49786280099500213
2	0x3fd9e69a13cd59b1	0.4046998208408708
3	0x3fd47d5f57388a3c	0.3201521255270199
4	0x3fa6d5afb6939655	0.04459904769627757
5	0x3fb1cf3fd30bba2b	0.06956862356649
6	0x3fe060e721d71a2b	0.5118289624159095
7	0x3fe47b6aa5f764bf	0.6400655023127441
8	0x3fe90e35fb7aa4d7	0.7829847251606691
9	0x3fedfca9fff6854e	0.9370927809979237
10	0x3fe31f3f172f2aab	0.5975642636124879
11	0x3ff15ca4fd5ee72b	1.0851182839673565
12	0x3fe1cd38319bcfef	0.556301209346655
13	0x3fc7c60dae9c045c	0.18573161149837147
14	0x3fdc696ab0af2691	0.44393412832560225
15	0x3fde8d0ea122e3ae	0.47735944496121874
16	0x3fea7026bb163b46	0.8261903432884103
17	0x3feb826056767f7d	0.8596650780418568
18	0x3fe86c7de361af2d	0.763243621925971
19	0x3fe3a87ec07d36d2	0.614318252520855
20	0x3fe1f324ca9bf49f	0.5609306294642414
21	0x3fe3d6d292dd32f5	0.6199734562338494
22	0x3fe7aca02e865261	0.739822474354309
23	0x3fe465c0d093a45f	0.6374210428013035
24	0x3feb27a831d51922	0.8485909436501837
25	0x3fe7c1723e242872	0.7423640454956184
26	0x3fe70ab38a06d852	0.7200563140711529
27	0x3fc5f3ab95be3a38	0.17149872600244165
28	0x3fc6febb0f9e2fcb	0.17964876425355522
29	0x3fe99f33459cb956	0.8006836280454006
30	0x3fe581e3e9cdf40f	0.6721057478422398
31	0x3fe2cdc731fa6f01	0.5876193977487391
32	0x3ff0bcbac4931457	1.0460765532200378
33	0x3fcb28f7475a5798	0.21218768104580188
34	0x3fe9a6166a56c759	0.8015243603642644
35	0x3fbb52433e63a53e	0.10672397874045189
36	0x3fe5ada2630dbdff	0.6774455961839861
37	0x3fef21b6e36b374c	0.9728655282758409
38	0x3feb7b2003978ab9	0.8587799139171103
39	0x3fd0ffff7c5ef2b3	0.2656248774108391
40	0x3fe17625656d2aaf	0.5456721287713061
41	0x3fe2fa90397e4617	0.5930863497653175
42	0x3fd8fffe0741a5f8	0.390624529920927
43	0x3fd165cc8004d7ce	0.27183830739829495
44	0x3fe3deea1d14748c	0.6209612434355605
45	0x3febe38ef0acca3a	0.871528120106013
46	0x3fe7bae1bf86b2d0	0.7415627232308797
47	0x3fe792cfaee6531d	0.7366712966928365
48	0x3fc1d5f0ae72d0cd	0.1393414356040296
49	0x3fe9f9c052cc70d7	0.8117372147712797
50	0x3fe1a835e4c53a1f	0.5517835109874943
51	0x3fc4eb42f9fa65bb	0.16342961507761608
52	0x3fe7ae4337493aba	0.7400222854428968
53	0x3fd0ded5ac512680	0.26360074832755487
54	0x3ff0b81ae437dd81	1.044947520711361
55	0x3fc8438d2286376a	0.18956150232082375
56	0x3fe7e4033e7e46e2	0.7465835781642591
57	0x3fc1969331ea1c70	0.13740768372756262
58	0x3fd4193053cd3185	0.31403740104430994
59	0x3fe2b9579d1733aa	0.5851247852493675
60	0x3fc69dd59f6a9b86	0.17669172557836194
61	0x3fe86df71ee5bdc6	0.7634235003915186
62	0x3fd503e52df601b1	0.32836274612784694
63	0x3fdda151eb9fb058	0.4629711915029069
64	0x3fb19006d176ca7f	0.06860392202251296
65	0x3fd3d66aa61acf34	0.30996195050396413
66	0x3fd1c02ab326a5b2	0.277353930427661
67	0x3fdbb8b785296c59	0.43314922336657485
68	0x3fec19ae50e01581	0.878134878120065
69	0x3feac4794c93e336	0.8364836211831974
70	0x3fc4c2ea9a3b43ed	0.16219837694964614
71	0x3fe398f8b83e994d	0.6124232862974083
72	0x3fe364575b383478	0.6059986859924171
73	0x3fee020f59b69dfd	0.9377514602865059
74	0x3fc2ea60a798f660	0.14777763541671884
75	0x3fda404817710bcf	0.41017343796937394
76	0x3fd9001678785c8d	0.39063035740532187
77	0x3fd3790dbb22b8c4	0.30426352763141673
78	0x3fee27bebc7072ef	0.9423516922430205
79	0x3fdb1a3c1f0615e4	0.42347624807038486
80	0x3fe1b35ea639c0b9	0.553145718249673
81	0x3fe27d85d563037e	0.5778226058683769
82	0x3fde22a9e4735ed7	0.4708657008136305
83	0x3fda13e067bd932b	0.4074631703463633
84	0x3fc12810ccc98d2c	0.13403520583515538
85	0x3fd5420194ff298f	0.3321536974950953
86	0x3fced2b4802e59fb	0.24080520876732678
87	0x3fd0a9b963155b98	0.26035914112201786
88	0x3fc6c32d53ba114c	0.17783133114074656
89	0x3fdc71ca55cd11f3	0.4444452131176881
90	0x3fea9684e4bb3057	0.8308739154249548
91	0x3fe9a4be56d3dc68	0.8013602920390328
92	0x3fcd850247cd154c	0.23062160974419965
93	0x3fd00bb8767de1e0	0.2507153660913257
94	0x3fe571807b59689f	0.6701052102246371
95	0x3fe5e25664fa77e7	0.6838790867075176
96	0x3fda87e1e2904eed	0.41454360127794027
97	0x3fe963ecbd3a3bd3	0.793447846970475
98	0x3fc8e983336fb894	0.19462623607200114
99	0x3ff162b6528d66f2	1.0865996575070622
100	0x3fdc6c6cd5d285ee	0.44411774521913017
101	0x3fd0e9d05aaddeca	0.2642708669222712
102	0xbfa5533d1dfd6574	-0.04165068617903503
103	0x3fde1accb5e7bc06	0.4703857208650678
104	0xbfbfc13616fdbde8	-0.12404192029293137
105	0x3fcaf3dba36669d8	0.21056695440786544
106	0x3fd333b33f800979	0.3000305290335273
107	0x3fe25a92e2b90a67	0.5735563686542492
108	0x3f99326f0227d771	0.024606451517648013
109	0x3feef5055b89200c	0.9674097812467166
110	0x3fdd57261f874b1b	0.4584441478629501
111	0x3fe122c3bc0184ab	0.5354937240591843
112	0x3fed48ab72756fe8	0.9151208148500674
113	0x3fbafb366f527599	0.10539570062470317
114	0x3fe85e97b9d9be3e	0.7615469579595311
115	0x3fe2b61ec99c5cc9	0.5847314775191076
116	0x3fce0480065d8c74	0.23451233206569422
117	0x3fe6bf18f515bb5c	0.7108273302854786
118	0x3fdaeca276dd720a	0.42069303138649217
119	0x3fc460f780c844f0	0.15920919216345153
120	0x3fe90ddd8eb6a827	0.7829425608990775
121	0x3fe908c03b07a5ee	0.7823182251860865
122	0x3fe7381dca1c22de	0.7256001422366258
123	0x3fa776255e535af3	0.045823257221561685
124	0x3fe0106990e27dfa	0.5020034627704597
125	0x3fefc5547c608ea5	0.9928381375543337
126	0x3febe703ece4c360	0.871950113947701
127	0x3fd6499e69440ecc	0.3482433345782112
128	0x3faa2240319c32e1	0.05104256253807705
129	0x3fd40a0c8ae6aab3	0.3131133419471254
130	0x3fe9da45624f9524	0.8078944130071801
131	0x3fd6ae91a89c9f7f	0.35440484491345353
132	0x3fe0a2c2610964ea	0.5198680777786227
133	0x3fe6a973bded4dc6	0.708185072852239
134	0x3fc13e1e3bf12374	0.13470819403508083
135	0x3fdaf49481f5193f	0.42117798510698273
136	0x3fd80c9a3bcc40c6	0.3757691940272817
137	0x3fd2231d85c7ddb3	0.2833932692005547
138	0x3fe1abd13345602d	0.5522237779032416
139	0x3f45dfdab251e097	0.0006675546507173444
140	0x3fe1100b1f0f5e52	0.53320842806256
141	0x3fc7ca4722b89194	0.18586053080902032
142	0x3fc2e581ef5f7468	0.14762901485565583
143	0x3fe844fd08f8996a	0.7584214377609844
144	0x3fe88ac816f56bcb	0.7669411133205072
145	0x3fd77396be2a979b	0.36642998286185396
146	0x3fe27d4ef59e6e12	0.5777964398616311
147	0x3fe89bc910e28a57	0.7690167741569195
148	0x3fa2d014101efdb5	0.036743761985686
149	0x3fe7f0d7b350604d	0.748149728987309
150	0x3fe7aeaf986b5c16	0.7400739647808929
151	0x3feed531f6a27c9e	0.9635248009762056
152	0x3fe854281f56fc62	0.7602730381112333
153	0xbfd704530ad8b789	-0.3596389394687028
154	0x3fef29dabe105f98	0.9738591873346989
155	0x3fed06633e4f245a	0.9070297448134952
156	0x3fe5d6ea249a6493	0.6824846949486009
157	0x3fbcc8b802fe8d02	0.11243772576431257
158	0x3fdf904e73c289e2	0.4931827669589933
159	0x3fcd7ccdf810d1bc	0.23037123310645125
160	0x3fbbfa7ee717659c	0.10929101125602475
161	0x3fe31494780fd54d	0.5962622017820337
162	0x3fbc70c6651d8e0d	0.11109580963744055
163	0x3fdb0cd6f4182cb0	0.4226586707815825
164	0x3fc0b45a6452e75d	0.13050393961548937
165	0x3fd554df7a15a395	0.33330523416821595
166	0x3fe80bd5996c1f10	0.7514446255235914
167	0x3fe1cbbfabff7f5a	0.5561216697060261
168	0x3fe48394513aafcf	0.6410619341381735
169	0x3f99f89f54577b08	0.025362481615839122
170	0x3fe8d5e692e4c323	0.776110922719543
171	0x3fbd6134e1640f40	0.11476450445848929
172	0x3fcea9548b881127	0.23954254925787064
173	0x3fe72c103675eada	0.7241288245853312
174	0x3fe685be427b322e	0.7038260744535074
175	0x3fe59be1d01983d2	0.6752785744139322
176	0x3fd8bd5dc1e838a0	0.3865579980491791
177	0x3fd76bce028d0e36	0.36595487832184703
178	0x3fc2fefb116fac98	0.1484063944948033
179	0x3fef4ea33d37b577	0.9783493228584764
180	0x3fe6450e53e6ff72	0.6959296835629927
181	0x3fe2b285694b9b68	0.5842921310948954
182	0x3fe3ccf1ea88779d	0.6187676983570217
183	0x3fe64900c73acef2	0.696411503906772
184	0x3fbe464b2833e93c	0.11826009494317175
185	0x3fed56ea17f37636	0.9168596713822754
186	0x3feba08415c843c0	0.863344233077548
187	0x3feb91bb2e204f17	0.8615394497778394
188	0x3fd9b6782e3fff5c	0.40176205174065216
189	0x3fe314d7ea1aff38	0.5962943622944072
190	0x3fe1b67052a4d6cd	0.553520356572983
191	0x3feb8ba05d9fa6a4	0.8607942417704249
192	0x3fa1f28acdadb346	0.03505357514118272
193	0x3fc4ade826e5b3f7	0.161557215683757
194	0x3fe1d1a095c4371f	0.5568392682195941
195	0x3fde7246248ce57f	0.47572473115322816
196	0x3fe4e49db54250af	0.6529072323051163
197	0xbfaf8e3086c34457	-0.061631695223362364
198	0x3fe50a82a398df7d	0.6575329966790232
199	0x3fe02162a3e5f64d	0.5040753556383578
200	0x3fed91b408253dfc	0.9240360411731099
201	0x3fcf4da6a54bf2f8	0.24455721922995344
202	0x3fe71db25c47c793	0.7223750879622791
203	0x3fdc37972b39eab5	0.4408929750567652
204	0x3fc29cb14913cfab	0.14540687626106083
205	0x3fd19e4f67d4fe7b	0.2752874864563421
206	0x3fdc5f1fb31c7fb8	0.4433058976301214
207	0x3ff0a4e3d38d2076	1.0402563346597424
208	0x3fef68df529dc6e5	0.9815518010711598
209	0xbfb0a0d0355ef6a3	-0.06495381644250613
210	0x3fe7c2c6f9b8dca9	0.7425265195260141
211	0x3fc7d4f7aa9aa4ee	0.18618675070073415
212	0x3fd1e78290eef53e	0.279755250488808
213	0x3fe2fee5e3a2a396	0.5936154790880319
214	0x3fe127f628fe51af	0.5361281204846388
215	0x3fd8fe75719c0d65	0.39053093046842086
216	0x3fe94523f08bb9e2	0.7896899889145141
217	0x3feb1477c1cf865b	0.8462485108722818
218	0x3fad4d2657c1d779	0.057229231083438976
219	0xbfad145d38dc4bd9	-0.05679599112604423
220	0x3fe5a53b8dd1d695	0.676419999114574
221	0x3fe4f35bfcd7cca4	0.6547069490756212
222	0x3fbfd1f1316b22cb	0.12429721313959445
223	0x3fc4dcf654a00c23	0.16299323207940217
224	0x3fd552d480266468	0.33318054690022914
225	0x3fb6605522145c42	0.08740741807956545
226	0x3fe516318ea4c236	0.65895917759014
227	0xbfa3dc53c1407b10	-0.038790337887112725
228	0x3feb63d02e2e8c8d	0.8559342290867719
229	0x3fd9d3e86519f171	0.40355882523706216
230	0x3feed63609662e47	0.9636488135888123
231	0x3fcec64f82abe46c	0.24042695885126208
232	0x3fb758d08f10cf2e	0.09119895451368329
233	0x3fc76bccf2eadc70	0.1829773126716847
234	0x3fa48c64e593500c	0.04013362219271252
235	0x3fe0b258a51638ad	0.5217707847930534
236	0x3fe4902c729ddb70	0.6425993193250701
237	0x3fe1170e8f6328d6	0.5340645599874516
238	0x3fe92ec88e1e9bc5	0.7869608665249578
239	0x3fe530f1b037a1be	0.6622246209854479
240	0x3fde4164050c3788	0.4727411317152179
241	0x3feb96aacf3d0efe	0.8621419952036999
242	0x3fdaf9ad1f9f381e	0.4214890297706705
243	0x3fef6c64eae324aa	0.9819817149774697
244	0x3fc9716a5068ac28	0.1987736599561185
245	0x3fdb9c905783bbc2	0.43143089815469804
246	0x3feff7db7db5fd94	0.9990060286799456
247	0x3febe154f2a1cb9b	0.8712563265711312
248	0x3fbece2d13e435c3	0.12033349738722791
249	0x3fedec53f0af89e0	0.9350986195461779
250	0x3fd1eda1ce6418c4	0.28012890963908554
251	0x3fde2a28119f21bf	0.471323029717066
252	0x3fe6bb291ce84cb2	0.7103467526052525
253	0x3fe30c1c68c3041c	0.5952283903244537
254	0x3fef45c2acfbd6e1	0.9772656801785297
255	0x3fe7ef63ec80033e	0.747972452081832

L f8 [40, 40]
0	0x3f987a8c8d1f049c	0.023904987443306255
1	0x3fe4ff867f329a8b	0.6561920627908234
2	0x3fe623424f1bd992	0.6918040795415428
3	0x3fcd507cb06e9ece	0.22901877035950807
4	0x3fd20ae813351037	0.2819156825610238
5	0x3fe827aeb73f4cc6	0.754844053177657
6	0x3fe2922d5ae8c403	0.5803438926287757
7	0x3feabaef835ae725	0.8353192868737308
8	0x3fe7474c734df5cb	0.7274534465829502
9	0x3fe3c3740ab4a0b5	0.617609043988543
10	0x3fee4937aebdfea0	0.94643768433885
11	0x3fc5ca4e28d56370	0.17023636812043774
12	0x3fdfcedfd3139c42	0.49700160611104505
13	0x3fcbbaddd7ba8dba	0.21664021524075655
14	0x3fcbe973059daa08	0.21806180738651926
15	0x3fe9422074f040bc	0.7893221172289695
16	0x3fc8b9d8743853cb	0.1931715552788361
17	0x3fd189810cf6d335	0.2740175844767692
18	0x3fe057744ba522db	0.5106755711977614
19	0x3fcffa490d5173f7	0.24982560301114606
20	0x3febf9796f61e964	0.8742034125746554
21	0x3fe1c9bdaa0adbcc	0.5558765717640823
22	0x3fd108116852ea0f	0.2661174315250329
23	0x3fa98c8a1402e9ea	0.04990035528449595
24	0x3fe3fff848c461cd	0.6249963208420525
25	0x3fe508a0c78c0638	0.657303228130508
26	0x3fe80beaffb13b87	0.751454829596569
27	0x3fe7a8e91cd45b4e	0.7393689692570236
28	0x3fd7b22914d2c0f3	0.3702490523674122
29	0x3fe1a2c5929847fb	0.5511196005993492
30	0x3fe32c32881a2382	0.5991451891178345
31	0x3fe3965cbed561e8	0.6121047713486947
32	0x3fe3fa456940e41f	0.6243006759388016
33	0x3fcddae933d376fb	0.23324313192909316
34	0x3fe181b944f89800	0.5470854136553953
35	0x3fd3c2cee3acd139	0.30876514657872495
36	0x3fe152965c44df3a	0.5413314630631938
37	0x3fc173783fa7d5d8	0.13633635624107288
38	0x3fe146465d5f91c2	0.5398284743974318
39	0x3fc4aca4dc705443	0.16151867641079506
40	0x3fc5ad9244f4f430	0.16935947768243542
41	0x3fd05ebc398e6deb	0.25578218098391287
42	0x3fd4695d2ecb42b2	0.3189309079144024
43	0x3f94b25e1d104b90	0.02021166851416073
44	0x3fe6efb7ac2414fb	0.7167623865249476
45	0x3fe022f1d5488716	0.5042657056512521
46	0x3fcb2d734e361c02	0.21232453650392819
47	0x3fe3a79e825e4a30	0.614211325288414
48	0x3fcb79efee7220da	0.21465872900831223
49	0x3febff585a877926	0.8749200599811828
50	0x3fdf540478f6f12f	0.48950301945639557
51	0x3fe335697b748c20	0.6002700244174584
52	0x3fdd6084575f1b3b	0.45901592762350035
53	0x3fe25193bdc7eb93	0.5724581438693
54	0x3fdcccffc453e68d	0.4500121514571241
55	0x3fe10cd1d232515e	0.5328148942376563
56	0x3fd7e124640c480c	0.3731165864020347
57	0x3fd257362133b940	0.2865729641188359
58	0x3fd824002a559dc6	0.37719730505201843
59	0x3fd73ba7c4d57b08	0.36301607343732245
60	0x3fe6e974e14ff057	0.7159981155996417
61	0x3fd54d2b1068a5e0	0.3328349743120196
62	0x3fe0c0bef620be4d	0.5235285575090046
63	0x3fde9cf227e4cbf3	0.47832921882508045
64	0x3fe27929e6cadb46	0.5772904880203462
65	0x3fe34585dff3a294	0.6022366880470877
66	0x3fd7d89f17a3c586	0.3725965243202939
67	0x3fd62940f80a1e52	0.34626793120012167
68	0x3fe2e06684bf43be	0.5898926346509297
69	0x3fe658ec746a3249	0.698354937908854
70	0x3fe1e00c23a92905	0.5585995384692813
71	0x3fd65a202251117b	0.3492508254169235
72	0x3fd8fe7c302a3058	0.3905325384482743
73	0x3fe76869b36a9f3f	0.7314957145908706
74	0x3fe6c12734e19214	0.7110782654604599
75	0x3fd898476974a90a	0.3842943696823943
76	0x3fe27dc53b54bbce	0.577852836495248
77	0x3fdcb3696ddbfdea	0.448450429234042
78	0x3fede242be8cca5b	0.9338697168044051
79	0x3fd874c18756e5c0	0.3821262189554453
80	0x3fda410a3140edc5	0.4102197152130567
81	0x3fe2893cc7694205	0.5792526144742288
82	0x3fe504abca06a47f	0.6568201967067039
83	0x3fdbb8da72bd6868	0.43315755086007934
84	0x3fdefc52580d0461	0.48415049170222885
85	0x3fc772dc6f190207	0.1831927816838432
86	0x3fd0b5b893ebf532	0.2610913700626326
87	0x3fc7ca63e51e43c9	0.18586395919240165
88	0x3fb3b741745ff4b7	0.07701500979597396
89	0x3fd751513603a5cc	0.3643382098658463
90	0x3ff08989f7955ccc	1.0335788413265616
91	0x3fe7ef867eda81d0	0.7479889371498363
92	0x3fd7fbb711b7d24e	0.3747384713199481
93	0x3fe4eab7d24e60da	0.6536521060507099
94	0x3fcf7cf69f501f87	0.24600107935861734
95	0x3ff06eec50423f7a	1.0270808348759304
96	0x3fe3f025aeaf940e	0.62306484335261
97	0x3fe75b49ce6b1de3	0.7298935920343265
98	0x3fc3d8c188aa1a8f	0.15505236790723528
99	0x3fd9cb4169da7ef7	0.4030307325101456
100	0x3fe5fe2e9d5efe8e	0.6872780870107407
101	0x3fd418c38f8c2ed8	0.3140114690620357
102	0x3fe8d89f077bf2ba	0.7764430185485118
103	0x3feaf2d6b0a43e45	0.8421433877974286
104	0x3fd5cb5b28f5dabf	0.3405368709567646
105	0x3fd321f32aae2b22	0.2989471356201411
106	0x3feb2fe45fb32d78	0.8495962018145482
107	0x3fe101cc82b6d3fc	0.5314695885668921
108	0x3fd4bd7fae008b43	0.3240660857429029
109	0x3fd08043e8228cc6	0.2578286902373289
110	0x3fdf3071b08c6059	0.4873317932228978
111	0x3fe77ee73675a3bc	0.7342411101973236
112	0x3fcea569dedddb20	0.23942302114638725
113	0x3fd4805780301a39	0.320333361800667
114	0x3faf99c89170c4d0	0.061720149759261766
115	0x3fd527405faabf8e	0.33052071897963564
116	0x3fed6bdb27c9ff36	0.9194160248880283
117	0x3fdb65f662f89a9e	0.4280982939257373
118	0x3ff17693599a1d5d	1.0914491176680123
119	0x3fdb79f4384a89c6	0.42931848046478327
120	0x3fe0d400c78d9716	0.5258792779465888
121	0x3fe002a69925b582	0.5003235808523387
122	0x3fe75da542c7c494	0.730181341581686
123	0x3fd0015c3529f134	0.25008301917820863
124	0x3fd403c46a51dccf	0.312729934528261
125	0x3fdfefede889bcd5	0.49901912411492094
126	0x3fd913100473d51d	0.391788486812702
127	0x3fe6df8860fcdfe3	0.7147867101948545
128	0x3fd9f75619d580d1	0.4057212116513372
129	0x3fe22f53d80bae42	0.5682772845879713
130	0x3f99dc99acee8506	0.02525558584205092
131	0x3fe7c8bdb9aaeac1	0.7432545305558379
132	0x3fc7d9483df39053	0.1863184263703511
133	0x3fe10d15e6e4559d	0.5328473577125582
134	0x3fd948f0d1aae833	0.3950769469771586
135	0x3feb5d8a196da545	0.8551683899542374
136	0x3fe3d3dcc9ffd266	0.6196121163653288
137	0x3fdb657964ff6a0b	0.4280684934907703
138	0x3fc1818f2524fa3a	0.13676633180325998
139	0x3fe66b9acf9addf4	0.7006353430542149
140	0x3fea4dc777c240b0	0.8219945277251295
141	0x3fe74a17556444bb	0.7277943294340256
142	0x3fe72a4aac946e17	0.7239125605296434
143	0x3fde5b6d3e057465	0.47433024460571566
144	0x3fe74a2c98ffa864	0.7278044689421788
145	0x3fe0216f020f273c	0.5040812530726053
146	0x3fe65c722efe5fef	0.6987849157185319
147	0x3fdc9afd32ecf17f	0.4469597813911363
148	0x3fe089aa3641ccc7	0.51680479619099
149	0x3fd7ae7148a1c5ab	0.37002212613068747
150	0x3febc63b59b6b9cb	0.8679482223722571
151	0x3fc50fca2b95737c	0.1645443642436496
152	0x3fd55d8e6ddde353	0.33383522729086684
153	0x3fe3e676d33b16b1	0.6218828321077209
154	0x3fc322bccd0b083e	0.1494976044833169
155	0x3fea667731af09d7	0.8250080080400107
156	0x3fa41d8b5f00adf4	0.039287906023982716
157	0x3fdab3eab86d5c21	0.4172312546774624
158	0x3fdf908c035fb8e8	0.4931974442432776
159	0x3fe87d6705f67b81	0.7653079143964164
160	0x3fc7d101dfb84459	0.1860658972150613
161	0x3fc859cdb87dc8c8	0.1902405882679601
162	0x3fe47cbe8ea10080	0.6402275834771132
163	0x3fd1f1e83231b235	0.28038983251352373
164	0x3fdb4c7c092567ca	0.4265432442967919
165	0x3ff10688934dde58	1.0640950922078414
166	0x3fe858fd7cd13184	0.7608630597911064
167	0x3fdada54be67ab2c	0.419575868551578
168	0x3fcd4f3def80881a	0.22898077196538297
169	0x3fea0fd0b973af2e	0.8144305822474729
170	0x3fec3821233042b5	0.8818517386699428
171	0x3fed67518abd7bf8	0.9188621244210244
172	0x3fe046277215e3ce	0.5085637310249866
173	0xbfa60be9f18eac99	-0.04305964540193336
174	0x3fe2967860876676	0.5808679471330851
175	0x3fd09a37682b7954	0.2594126241000556
176	0x3ff172bd4876b840	1.0905125456443017
177	0x3ff006623fc074a4	1.0015585413268946
178	0x3fe68fee6e8795b8	0.7050697478086283
179	0x3fc656e36dad0f35	0.17452662329935156
180	0x3fbdc2e48f17f82f	0.11625507825371593
181	0x3fe34c4d4bdd7b0d	0.6030642015210518
182	0x3fdc99bec983f42a	0.4468838661121618
183	0x3fe9a56c7c51222b	0.8014433315339081
184	0x3fecdcedb2e2fd09	0.9019688123588888
185	0xbfcdebcb8510511c	-0.23375839230778517
186	0x3fe61c7d88de8faf	0.690977828333862
187	0x3fdaf208fb3b0fed	0.4210226491379661
188	0x3fecec1c9cb0e14a	0.9038222370500446
189	0x3fd56677f5d63a58	0.33437918670180045
190	0x3fd1b5e30e7d6760	0.2767264977934385
191	0x3fb7f7caead9757c	0.09362476571683048
192	0x3fd36088d05ce2d3	0.30276699397977075
193	0x3ff096d4c3ad81a3	1.0368240016615367
194	0x3fe579031b06dab8	0.6710219886652657
195	0xbfc5b479577a8b87	-0.16957012912197575
196	0x3fe6a3f36d9aab3d	0.707513536520629
197	0x3fe7b977ec956e48	0.7413901921058335
198	0x3fe458612a297279	0.6357885192370097
199	0x3fd5bf1e05435df4	0.33978987230281565
200	0x3fef074124a50b8a	0.9696355548588695
201	0x3fd08d88f2c2ec6f	0.2586386080471987
202	0x3fd38216725f5b80	0.304814922038922
203	0x3fdd4f5f813599f2	0.45796954744437735
204	0x3fdf0b3d577a16c9	0.4850610117212964
205	0x3fe5a3aa5169eedd	0.6762286748994161
206	0xbfaf9a9cdf677d9f	-0.06172647692778387
207	0x3f928b9c17cbe967	0.018110693886208475
208	0x3fdcc77755860b6e	0.4496744475547335
209	0x3fe5ed8626372aac	0.6852446314236054
210	0x3ff009ffd5c5c09a	1.0024412489401926
211	0x3fc81e379518a018	0.18842215328300038
212	0x3fdbb646166a0458	0.43300010861282123
213	0x3fecad2351330eb0	0.8961350046087855
214	0x3fdc59ec59382059	0.4429884787828136
215	0xbfd715faa296c1b2	-0.3607164943487319
216	0x3fe44dfd80f10927	0.6345202940358704
217	0x3fe1cb484d6064c4	0.556064749837923
218	0x3fe477913467c317	0.6395956061879556
219	0x3fd006d542e34b74	0.250417056389032
220	0x3fec07a141707480	0.8759313848601238
221	0x3fe5aac0e2a435c2	0.6770939280119637
222	0x3fe8a743724afe47	0.7704179031642945
223	0x3fcb9652702781e5	0.21552496410642089
224	0x3fcc6c2ae3f16dfb	0.22205101137193126
225	0x3fd4365ed3a8e97f	0.3158185069074974
226	0x3fe0c101a40d0e6f	0.5235603527184604
227	0x3fc7c3de129ba59e	0.18566490086167858
228	0x3fe838d4a032d3e7	0.7569373253705834
229	0x3fda37a7b9fdbf7f	0.4096469227142662
230	0x3fe4b0dcc583a41c	0.6465896470737138
231	0x3feecbcd83407882	0.9623782695305325
232	0x3fce73ee5b1b6030	0.2379129357202614
233	0x3fc21255ad16dd8a	0.14118452979685642
234	0x3fe4deacf659f285	0.6521820842313707
235	0x3fd36faf0104bf26	0.30369162654368365
236	0x3ff4ae8e90a41d7f	1.2926164293329234
237	0x3fcc76f29ed4d04d	0.2223799968284105
238	0x3fea4532939b54a8	0.8209469683594266
239	0x3fe16b3f7485f0ca	0.5443417812198501
240	0x3fdaf323f217d88e	0.42109011308583255
241	0x3fe3850b2ffc7ce7	0.6099906861526535
242	0x3fd70ac7690ac893	0.36003289468784166
243	0x3fe3cc6e0d31e39f	0.6187048204147806
244	0xbf85d45cf7b92a99	-0.010658956823268272
245	0x3fb3543123dcf43b	0.07550341725887304
246	0x3fcfa926725e9231	0.24734955391353844
247	0x3fda0e465b59f171	0.4071212665656026
248	0x3fd792f37a418d01	0.3683441823870482
249	0x3fedbdcb80cb2e21	0.9294183269025248
250	0x3fcd6b22a1b4f727	0.2298320092758612
251	0x3ff2a6a93276f5dc	1.165688702705089
252	0x3fcb6ec1cdb56a8a	0.2143175367771913
253	0x3ff19a7c90997a85	1.1002164505404448
254	0x3feb3801f17b631c	0.8505868641323988
255	0x3fce2cf9fb7bbeac	0.23574757365667176

weight f8 [50, 4]
0	0xbfb4e85bf340800a	-0.08167051972168352
1	0xbfc2ad8817c29f41	-0.14592076454322903
2	0x3fdfb20af16810aa	0.4952418668256181
3	0x3f8f1c08eb483fed	0.015190190963977524
4	0xbfda3ea5e9668a01	-0.41007373612424664
5	0x3fa1b55a0d2d51d1	0.03458672915317929
6	0x3f8e582ba6746d14	0.014816609399125137
7	0xbfd4d369b0ff8128	-0.3254036167618488
8	0xbfb619095c1d7d5a	-0.08631952761560538
9	0x3fd1203632138f9c	0.2675910462405626
10	0xbfa0fb950f996efa	-0.03316942038938282
11	0xbfc3d22653c91bf4	-0.15485076037495527
12	0x3fdc91b62474a63b	0.446393523789627
13	0xbfb548dac9151677	-0.08314292344319961
14	0x3fba891c7e3e41ff	0.10365465242490045
15	0xbfd5ace9d2435427	-0.3386787942266118
16	0xbfd5e0dc20c4b5d4	-0.3418493576053525
17	0x3fdc00eba9655dd8	0.43755618612837344
18	0x3fd3ac791d82687a	0.3074019230058479
19	0x3fd8c7a8179a10f4	0.38718607239594793
20	0x3fbb20e34af882cd	0.10597057895985103
21	0x3fd3f6e6c5ab99fc	0.3119446688055232
22	0xbfbfb3082fbc959b	-0.12382556119390246
23	0x3fb895b23084e33e	0.09603418049381404
24	0xbfbb5eed8c3b904f	-0.10691723512314975
25	0x3fbe5a74821c709f	0.11856773544826858
26	0xbfd9b80f84846d77	-0.40185916844503516
27	0xbfc57f541edbfa47	-0.1679482603721729
28	0xbfd3ac559f0842f8	-0.3073934605645685
29	0x3fc44e9a0d0c785a	0.15864873540062058
30	0x3fd5e401d5b43c28	0.34204145307097855
31	0x3fb4de7dca60db96	0.08151994887235356
32	0xbfda3799d231ce44	-0.4096436073952854
33	0x3f95ee8edae25fa5	0.021417839154849756
34	0x3fb11f101b894bd8	0.06688023254655151
35	0x3fdb065d1d674178	0.4222634112493533
36	0x3fb71fa4b643e8f7	0.09032659005962161
37	0xbfd82b6d96b1444b	-0.377650639687151
38	0xbfd1eafd40ea7d09	-0.27996760692072137
39	0xbf90278ee4d80fbf	-0.01577590247872229
40	0xbfcea698bce01988	-0.23945912573271877
41	0xbfa8bc9293f59fb5	-0.04831369453569271
42	0x3fcefc1c36d738c7	0.24206879308480309
43	0x3fdf2f6968653873	0.4872687835203415
44	0xbf5b31de218c13ff	-0.0016598386047814715
45	0xbfc1d69db2e19387	-0.13936206087523947
46	0xbfd1f7bb24875d17	-0.2807453018881047
47	0x3fb0700049a0d1e7	0.06420900151790186
48	0xbfbfd7db31f0b55e	-0.12438745469326792
49	0x3fc1cde5adf6c153	0.13909598345117988
50	0x3fd6547157634659	0.34890397581066207
51	0xbfa149877f8dc84f	-0.03376410896352466
52	0xbfd59e8e39867e4f	-0.3378024637004033
53	0x3fda853088b90945	0.41437924720607483
54	0x3fc586f728e65cc4	0.16818131920874724
55	0xbfb3af48c7040f56	-0.07689337595735188
56	0xbfce39f6290b3c8e	-0.23614384655090642
57	0x3fd29cee37790abd	0.2908282796599158
58	0x3fcb97a75f5f92d0	0.21556560665989943
59	0xbfcf1cc032ac480f	-0.2430649039675363
60	0xbfabebb54780af1f	-0.05453268525920251
61	0xbfd9556bf64f07dd	-0.3958387284620793
62	0xbfd6db9a057cbca9	-0.3571534207903349
63	0x3fdabdc1a9cbe07b	0.41783181745223147
64	0xbfc7d91b18586c0b	-0.18631304444065253
65	0x3fa2e3ef181fdade	0.03689524812209809
66	0x3fc82d723bdef1cc	0.18888690875418346
67	0xbfce719b415af86a	-0.23784199420146318
68	0x3fb048a3edc2df73	0.06360840372769676
69	0xbfd34c1f41f0c19b	-0.3015211242627857
70	0x3fb60fcb2988d5b1	0.08617849124933376
71	0xbfe03066a8d7b530	-0.5059083268840023
72	0x3fb3b11cef8413f1	0.07692128036076419
73	0xbfd359826a4467b2	-0.30233822229058227
74	0xbfcd3d74c75e5f29	-0.22843799338147022
75	0xbfd1843005f18dad	-0.273693090252176
76	0xbfc7770cee0c7ddd	-0.18332063315845817
77	0xbfb76b94db4578bb	-0.09148531297020927
78	0x3f91715d562ce81a	0.01703401411507608
79	0x3fbe612b7a72561c	0.11867019404811469
80	0xbfe1d975690cbd84	-0.5577952434304483
81	0xbfd479ff1ae43e4c	-0.3199460756886523
82	0xbfdc2ffbb4855748	-0.44042866353025945
83	0xbfcfc3b39dfdee02	-0.24815983976792216
84	0x3fcf815ab14d2466	0.24613507897655323
85	0xbfd1d8a9dadda8da	-0.27884909032458227
86	0x3fce50127e776f03	0.23681861090778264
87	0x3fa6476d535cdc24	0.043513695169558525
88	0x3fcda244614d7058	0.23151449919794476
89	0x3fd357d4c6386774	0.3022357879395863
90	0xbfba8d16efeb5082	-0.10371535642053867
91	0xbfe3c9c7fb43e3f9	-0.6183814914248834
92	0xbfd90a59c75c5692	-0.3912567564851567
93	0xbfa43e9155da221f	-0.039539853792181605
94	0x3fddbec56b402a37	0.46476874803252904
95	0x3fc21ba1c99c2577	0.14146826118693998
96	0x3fce57bcf834cd1b	0.2370525562233546
97	0x3fa8b4f91989e8af	0.0482557147669963
98	0x3fb57a5a9c31a1f7	0.08389822305037585
99	0xbfcbaed480a34a9b	-0.21627289086480492
100	0xbfb2cf668893cb1a	-0.07347718080908941
101	0x3fd9ff8d5c307429	0.4062226677213539
102	0x3fdda0cfb16320c8	0.4629401428505955
103	0xbfc0812889c5c281	-0.12894160010502634
104	0xbfbd654e5f7d89cf	-0.11482705909069256
105	0x3fad70cf0fde2cf0	0.05750128811549782
106	0x3fd092214193fe31	0.25891906169997286
107	0xbfa3be494dff5cbd	-0.03856114461057689
108	0x3fd585f2ee06f927	0.3363005947575339
109	0x3fcad531502acbfd	0.20963112272656295
110	0x3fd8cb742810eb59	0.3874178305883809
111	0xbfd2fb614c493526	-0.29659302186776626
112	0xbfd33dd015a0956a	-0.3006477557376771
113	0xbfb825dcea8afc0a	-0.09432774282593939
114	0xbfd091e3a16bc55b	-0.2589043690087089
115	0xbfc43648216383c6	-0.1579065478354364
116	0x3fd48e2023768e40	0.32117465460962435
117	0x3fc67054d6b8c501	0.1753030823179316
118	0xbfd0765af67659f5	-0.25722383564553236
119	0x3fb637eefafaea2e	0.0867909777397606
120	0x3fd996ab947620f3	0.39982118128001715
121	0x3fd8f4930f59d6ab	0.3899276399527973
122	0x3fddb15ae201d331	0.4639498908139102
123	0xbfb9392912ef519e	-0.09852844917560907
124	0xbfcd1ae046575abf	-0.22738269266729635
125	0xbfdd796124b4e081	-0.4605334146940621
126	0xbfd22744385fc9a3	-0.2836466360596665
127	0x3fd17bd67802d599	0.27318345756369805
128	0xbfd1a70c8eec33b3	-0.2758208652238025
129	0x3fc4b323cd660681	0.1617169144556563
130	0x3fd59889be28a77c	0.33743518419452534
131	0xbfb9976884492999	-0.09996655683168
132	0xbfaadc29d203e89f	-0.05246096314108794
133	0x3fd417c76b58d005	0.31395135386560497
134	0xbfc50d7d9aa34d3b	-0.16447420168570112
135	0xbf9fa9db788ebcff	-0.03092139170956631
136	0xbfcd9545c010821b	-0.23111793401859945
137	0xbfd532c5098df059	-0.33122373517085674
138	0xbfc319007f1550c9	-0.14920049863088128
139	0x3fceb5b4b30c8867	0.23992022268891164
140	0xbfc70e0041e0ae0d	-0.180114776770424
141	0x3fcc25169766cca3	0.21988184349684045
142	0x3fe1b7f8360ebd25	0.5537072234928117
143	0xbfadf386d91d757b	-0.0584985866578149
144	0xbfd748a3f113128e	-0.3638086179965193
145	0x3f800f59e817b540	0.007841780085949268
146	0x3fd89f1fea6f2697	0.38471219915354865
147	0x3fcd1632da05d4e1	0.22723994870799571
148	0x3fd273ff564a8aee	0.28832992007134706
149	0xbfc3ebcf6610f08c	-0.15563385471057634
150	0xbfc84eb4d95e9703	-0.1899019299864265
151	0xbfe31072003832b3	-0.5957574848449297
152	0x3fc765c9e6c860c9	0.18279384392440637
153	0x3fcef404e6a5b25d	0.24182187330315488
154	0x3fbcaa616d6b1a8b	0.1119748012671186
155	0x3fd59460e7fa6bf6	0.3371813073551374
156	0x3fa642564ea41566	0.04347486219379952
157	0xbfb84e209aaacdd7	-0.09494212890677232
158	0x3fcdf3e1a68e8f67	0.23400517113361305
159	0x3fe25a3e4d3a36a0	0.5735160358760432
160	0xbfe1b6bd6eec92d9	-0.5535571257101665
161	0xbfcbb682630c1475	-0.21650724254883227
162	0xbfcafa474fd911cd	-0.21076289557289699
163	0x3fc0ceef6e6b2025	0.1313151635315545
164	0x3fa3d5a5705d69b1	0.038739366499345514
165	0x3fccbb31230fa981	0.22446264469119728
166	0x3fc96d8a0c5359fa	0.1986553726371339
167	0xbfaf4ef07b02a528	-0.061149134651098
168	0xbfa58887e5734bdc	-0.042057272681311736
169	0xbfc3aa54fd9acd89	-0.15363561995546274
170	0x3fdf79b695a03105	0.4918037854374833
171	0x3fce4af95ae6ecd1	0.23666302622391425
172	0xbfd5b17ca85b102e	-0.33895794335353713
173	0xbfd89634db130fda	-0.384167875232604
174	0x3fc6298014af850e	0.1731414891246818
175	0x3fc1fa927e54a4f8	0.1404593579148139
176	0xbfe0e93a43ed6d43	-0.5284701658924081
177	0x3fd386e72d6c8234	0.3051088279335403
178	0xbfcfb0e40a4e6bd8	-0.2475857782672779
179	0xbfbcf308ec853d39	-0.11308341764855791
180	0x3fcd2a1df09363e8	0.22784780737745725
181	0x3f8215433e4b1512	0.008829617823162415
182	0x3fdc51f0f824638d	0.4425012992156148
183	0x3fd7c5b928b2c81c	0.3714430711216907
184	0xbfc78d70981d75d1	-0.1840039007901582
185	0xbfc136f381f49717	-0.13448947759132387
186	0xbfd2c07c4198a7c2	-0.2929983749951327
187	0x3fdecb37b9615966	0.48115342238943126
188	0xbf7839e251899e6d	-0.005914577538170468
189	0x3fdc828d22038441	0.44546821900991423
190	0x3fc5d001ea8ef949	0.17041038468409855
191	0x3fdb7ec3d90b3cd7	0.42961212344830585
192	0xbfab014cda5f635c	-0.05274429479295037
193	0xbfcf1a0e978c4e83	-0.24298269653137447
194	0xbfcbb1573e83ac48	-0.21634951164682747
195	0xbfa0ce7664bf7aa3	-0.03282518367608602
196	0xbfe253930c2a07c3	-0.5727019536573085
197	0xbfdb221930310bde	-0.4239562006588907
198	0xbf975e01be8f909c	-0.022819545036228392
199	0xbfcd23b8618776fb	-0.2276525951592062

bias f8 [50]
0	0x3f980e3b58888cc8	0.023491790083551206
1	0x3f9edd2d63706314	0.03014059943606913
2	0x3fdb8f672a4fae60	0.43062762386282394
3	0xbfc80fd8e24bdc14	-0.18798361825585685
4	0x3fd40cbabd5b0d02	0.3132769440819204
5	0x3fcead55a110277d	0.23966474880608848
6	0xbfcf0faa401145c8	-0.24266555908483967
7	0x3fbb34305db18112	0.10626508986888819
8	0xbfbf781011987635	-0.1229257624586005
9	0xbfdf663cedf618fc	-0.4906151126709941
10	0xbf9ff7ff129ae462	-0.031219468603670093
11	0xbfc3f1b68c19c6c4	-0.15581399765829052
12	0xbfa36f189bc6abd5	-0.03795697118342615
13	0x3fbc012b2aa46900	0.10939283171720504
14	0xbfa6d9ab61b71eac	-0.04462943618596901
15	0xbfdf31fa1ed86342	-0.4874253560279166
16	0xbfd8f970b7d01fc0	-0.3902246279762913
17	0x3fdb46049b891f7b	0.42614855946566593
18	0x3fd879eba9f38e1d	0.3824414405519024
19	0x3fbda831c981f301	0.11584769410724151
20	0xbfc457bb39647a53	-0.15892734815948248
21	0x3fd3d6c5074349bf	0.3099834986616336
22	0xbfc869a9f712e1fe	-0.19072460712574463
23	0x3f8f42bb1e43bb4e	0.015263997899152362
24	0xbfd3ade9577fc48e	-0.3074897150500612
25	0x3f9105d94cad135b	0.016623874001442256
26	0x3fd563e3179ceaa2	0.3342216234774843
27	0xbfb4690f532667b2	-0.07972808628110675
28	0x3fc6824e926354c6	0.1758516516480652
29	0x3fd7c6add520a087	0.3715014058420895
30	0x3fdefda0396c99ba	0.4842300949843793
31	0xbfda7b83437bb934	-0.4137886199013281
32	0xbf789fa022b6db6b	-0.006011605767915688
33	0xbfdf4c8ae2073c58	-0.48904678414414127
34	0x3fc258e3299f8b76	0.14333762676605105
35	0xbfba8aac2bd6a558	-0.10367847509646333
36	0xbfd618af76eb5637	-0.3452566777535568
37	0x3fc980f953d46bfa	0.19924847214937796
38	0x3fd009d693719bfb	0.2506004752999044
39	0xbfd09a6240a8be55	-0.25942283930178195
40	0x3fc59c630275f5e8	0.16883504505305713
41	0x3faa4cf1f2a2d6f0	0.05136829459062919
42	0x3fd86415aed86309	0.3811086852524999
43	0xbfa0625718a90aad	-0.03200027633694922
44	0xbfa40956c7f86899	-0.03913375083011878
45	0x3fd80bb679c46d50	0.3757148923047753
46	0xbf85d55d9ba9d44f	-0.010660868943185657
47	0xbfdc15a875c0e6dd	-0.438821902269053
48	0x3fd3a3512df21a90	0.30684308516394143
49	0xbfd77dc0fa404596	-0.3670504039629007

weight f8 [50, 50]
0	0xbfcc064d3daaa1e1	-0.21894231329976235
1	0x3fba7abfcf928df5	0.1034355050820109
2	0x3fbfe2d9b6cafc41	0.12455521309583252
3	0xbfb4eada26c690dc	-0.08170855948134509
4	0x3fb57b36412318bf	0.08391131487141744
5	0xbf9f67426424c243	-0.03066734062412225
6	0x3f9e66a49ffd0591	0.02968842722407811
7	0xbf9603d910962b96	-0.021499053609243278
8	0x3fa17fc0dd1cf24b	0.034177805892316636
9	0x3fb836bd9c4e0c0a	0.09458527627980132
10	0xbfb0eaa0ffe0fc10	-0.06608015296022551
11	0xbfbca16d3d635333	-0.11183817623834784
12	0xbfa51c9e3bd57e90	-0.04123396377940225
13	0x3f865ce06f9214b0	0.010919335751405107
14	0x3fb132c077d5086f	0.0671806614455208
15	0xbf914ab9dc867fce	-0.0168866196487441
16	0x3fa5f78af1668325	0.042904226272418
17	0xbfbf1350abf154f4	-0.12138847539729963
18	0xbfae43cb6dac4a28	-0.059110982072656804
19	0x3fbd90079c9f1ab1	0.11547896932379832
20	0x3f8e49e6fc11ffd6	0.01478939491994417
21	0xbfc3801bce024c1f	-0.1523470645812219
22	0x3fc5b0271f26c4c9	0.16943825741831223
23	0xbfbc41fc3c9ef5a8	-0.11038185577395743
24	0xbfb350cdd6f7f02c	-0.07545172212843515
25	0x3fbb5e3a488bae03	0.1069065501321163
26	0x3fa55bdb9d5ce4c8	0.041716444930395336
27	0xbfba08e302a8731f	-0.1016981011857294
28	0xbfa8f348818ac6d6	-0.04873110371899052
29	0xbfb18afc58c7f6bd	-0.06852700393207108
30	0x3fc20f4b0cd7716e	0.14109171034841544
31	0x3f9ca849b85e0bc7	0.027985717656985345
32	0x3faf74a88910bb26	0.06143690751229362
33	0x3fb744caa7e6c566	0.0908934268870972
34	0x3fc389ccd164a8fc	0.15264282440450205
35	0xbfc2149e33f9cfc2	-0.14125421083337925
36	0xbfb064c06f60af32	-0.06403734893018223
37	0x3fadbc6e08eb8412	0.05807823046576045
38	0xbf8ee529301bfc27	-0.015085527210883921
39	0x3fbffcf9bd0f5730	0.1249538504192429
40	0xbfb7b726e0188fab	-0.09263842555134143
41	0xbf914ce75f0d9411	-0.016894927193238433
42	0xbfb41df2615894a3	-0.07858195187198418
43	0x3fa229b8b6ce5a1e	0.03547456008452719
44	0xbfb3db3b129959bb	-0.07756394580915231
45	0x3f79af29268a5da5	0.006270561928111294
46	0x3fb889bcf4aefd7b	0.09585171674460995
47	0x3fb49d394fdc7c38	0.0805240459417157
48	0xbf93dac5e1e11285	-0.01938924018056067
49	0x3fbbe45230088264	0.10895265267073168
50	0x3f9615a0f68f14b5	0.021566882179986552
51	0x3fa092c733808943	0.03236982825935055
52	0x3fb98a2b60ccdeb2	0.09976454842842022
53	0x3f849b7458bd6516	0.010062130888103964
54	0xbfbae536cae1cda7	-0.10506002858328732
55	0xbfac2f55ac41263e	-0.05504863479343357
56	0x3fc103e57c02ae0c	0.1329314094085564
57	0x3fb9afe2b6645415	0.10034005120208207
58	0x3fa5d15ec706e20f	0.04261299304511478
59	0xbf80bd5303363bdd	-0.008173607383268272
60	0xbfba603a4ddbb45d	-0.10303081894717665
61	0xbfc0330dec8fbdb1	-0.1265580563626663
62	0x3f8100478eaa1975	0.008301314393304374
63	0x3fb93315f01d737b	0.09843575584586788
64	0xbfa8ef2ac68f9252	-0.04869970010603154
65	0xbf857aa4739a7ac1	-0.01048782804292381
66	0xbf5aa8efe3622d0d	-0.0016271917971007494
67	0x3fa1b9f4310e1c12	0.03462184046571094
68	0xbfb6d1013bfb3cfa	-0.08912666048421505
69	0x3f9e50df0bb0a86a	0.029605374420647847
70	0x3fba0abf9a33ab20	0.10172650828068841
71	0xbfaa96a33bfb5357	-0.05193052394103031
72	0x3fc8a242deb1e818	0.19245181916977638
73	0x3fa96e4785232ea5	0.049669489862563844
74	0x3fba10bcd2b0a80b	0.10181789535332102
75	0x3fa2f6d935e3597e	0.037039554432044305
76	0x3fa6079394422e01	0.043026553962672416
77	0x3fb456371065cf8f	0.0794405379327243
78	0xbfb344ca9916fdad	-0.07526842343849323
79	0xbfa2fedb9a695af7	-0.037100660895410024
80	0x3fbee1326e9d8c0e	0.12062373352596031
81	0xbfc07baf8afa307d	-0.12877458845139592
82	0x3fa8f711e725331e	0.04875999399755514
83	0xbfa15bd10fe056af	-0.03390363043596999
84	0x3fbf00e2f864885c	0.12110727848315278
85	0xbfac925daaaee422	-0.05580418308768055
86	0xbfa2e1d26bbcf77b	-0.03687913479960422
87	0x3fa2292fbf5dc238	0.035470478162896446
88	0xbfbecfae35370259	-0.12035645293418308
89	0x3f8dc85efa119bb9	0.014542333609098056
90	0x3fb01886bb3c7236	0.0628742415542057
91	0x3fb1149595097d19	0.06672034157371733
92	0xbfb52b8ced296edd	-0.08269577779850175
93	0xbfb118ef33239033	-0.06678671835430876
94	0x3f903ea959ead19a	0.015864034760583935
95	0x3fa78287983a0d73	0.045917737324112994
96	0xbf77b4e539a9c16b	-0.005787749682540126
97	0xbfc88872854190e8	-0.19166404253622393
98	0x3f9246ac06ddffdf	0.0178477172080419
99	0x3facd88a5b12bf1e	0.05633957254155873
100	0x3fb04a2a448eadb3	0.06363166974795469
101	0x3f98c4aa13fe577f	0.024187715025241637
102	0xbf9289dbeae48183	-0.01810401555224096
103	0x3fb4a71f797935ef	0.08067509380017389
104	0x3f85ca11a4c80e47	0.010639322129470176
105	0xbf983eec3e59e829	-0.02367753153382793
106	0x3f9866bdbe117d63	0.02382942650399168
107	0xbfbd58b33c7a545a	-0.11463470675001144
108	0x3fade55c19e77dbe	0.058390501176968965
109	0xbfc04922e1838d81	-0.12723194133205243
110	0x3faab335e5ba89c7	0.052148517888116745
111	0x3fa182bcee947963	0.034200576900036216
112	0xbf91340fac38dd0b	-0.016800160299877336
113	0xbf393a5abb448f6f	-0.0003849479210364858
114	0xbf83ab7eaf30a4ad	-0.009604444238066579
115	0xbf8bdbc421ca7dc6	-0.013602764397829935
116	0xbf9ec3127e4c8bdc	-0.03004101653926826
117	0xbfb7583b9b694993	-0.09119007629604985
118	0x3fb05873c7565ab4	0.06384967438348604
119	0x3faf7c547462552e	0.06149543686584945
120	0x3fc25db9d20b77e0	0.14348528629392288
121	0x3fb489fed11c06a8	0.08023064236842947
122	0x3fa635a407dbbd9f	0.04337799640586159
123	0xbf9001f44c5f2ec7	-0.0156324550260212
124	0x3fbb9d0d68d81b3c	0.10786517915412913
125	0x3fbee2bc9cf8b2d0	0.12064722854911314
126	0x3fc07efd469234ea	0.1288754076562449
127	0x3fb5c0735675b3bb	0.08496781216463394
128	0xbfb7d949bbf9d593	-0.09315930213218442
129	0x3fb7bdb53092359b	0.09273846088236441
130	0xbf6e1f67bd929dd1	-0.0036770845586777475
131	0xbfb859dd331ecf22	-0.09512121675544141
132	0x3fc028fa290878aa	0.12625052455490976
133	0xbfac6c513c38d610	-0.055513895608253816
134	0x3f954c627daaf880	0.02079919712081635
135	0x3f935b3fc9bf3b1e	0.01890277546754781
136	0xbfad78878a145085	-0.05756019173182473
137	0x3f9eadf620e27233	0.02996048522673984
138	0x3fb328d3e8237edf	0.07484173219153999
139	0xbf95df96a8970b49	-0.021360734977643934
140	0x3fbcd70dcece6985	0.11265646265966296
141	0xbfbf311eaca76a24	-0.12184325900253917
142	0x3fa2c52dc1f85c1f	0.03666060440826179
143	0x3fc3012492aca647	0.14847237741314442
144	0x3f85ff2ff78e3ab2	0.010740637533470963
145	0x3fc27cb205cd7cbd	0.14443040164312562
146	0xbfb075b2abef1642	-0.0642959279785709
147	0xbfbcbda7293fc25f	-0.11226887471253509
148	0x3fa390aa3835c9d7	0.03821308075102408
149	0x3fb6e3597a02eef8	0.08940657833857901
150	0x3f97373fcdde2f78	0.02267169660585419
151	0xbfb8ead0a84bb5cb	-0.09733299359114438
152	0x3fc3df1ac1c88d3a	0.15524610960083313
153	0x3f817bd904192e6f	0.008537002027103583
154	0x3facb3dc333cc4be	0.05605972409683478
155	0x3f830b74a7c3ac08	0.009299193734895198
156	0xbfb5080c27ce9f0e	-0.08215404483655339
157	0xbfbf926597496b8a	-0.12332758849644967
158	0xbfb4389eee1b94a4	-0.07898896516015214
159	0xbf91669a3e627e8d	-0.0169929600311876
160	0xbf85e4c4092e3408	-0.010690242319265422
161	0x3fc18d6604c0cbf8	0.13712764007649958
162	0x3fa10e80981c6b27	0.03331376892875531
163	0x3fbf4aa6e22917af	0.1222328474187566
164	0x3fb2fd6a78898e04	0.07417931978994124
165	0x3f6e75e1322ae700	0.0037183187826855812
166	0x3fa6c33e1b476e56	0.044458332853278534
167	0xbfb577147afcab15	-0.083848266626472
168	0xbfb20f2be9fea63c	-0.07054399931680505
169	0x3f9bf32f18bbbff0	0.0272948607297962
170	0x3fc15e0e07f0b5d9	0.13568282497128228
171	0x3fa9771c9c6e7b53	0.04973687562527709
172	0x3fcba4c1936cc806	0.21596545885546464
173	0x3fa8276966f283bf	0.04717568761521517
174	0xbfb1130e467841f5	-0.0666970178647331
175	0xbfa54fbb5471c03a	-0.041623930032870196
176	0xbfacf3f3ddf7fdcc	-0.05654871067599351
177	0xbfb27cdb0b5ac9a8	-0.07221764590466384
178	0x3f91ed1e500b6336	0.01750609744599104
179	0x3fc19e2dcd70cb7a	0.13763973742751628
180	0xbf9190e01361dd8b	-0.017154217894554995
181	0x3fc1bcde1177960a	0.138576277283548
182	0x3fb1d094fcc3d368	0.06958895846385149
183	0x3fa7480948d9a1f8	0.04547146810802255
184	0x3f8bc099fab1f9c9	0.01355095192252244
185	0x3fb022001146134d	0.06301880284997914
186	0xbfb69bc977ed990c	-0.08831462076122792
187	0x3fadc9d9cbb223bd	0.05818062411805822
188	0x3fbe381ba0bee678	0.1180436389394347
189	0xbfa829d83cbb6292	-0.04719424954754915
190	0xbfaf5f7cd8f8f987	-0.06127538822737493
191	0x3fc16876ead2e75a	0.13600050416953985
192	0x3fa8f0a6598b8db3	0.04871101229744159
193	0x3fb68425e7d37d1d	0.08795391950433325
194	0x3fb16f553fa7b81a	0.06810505680161363
195	0xbfc30d4784b67735	-0.14884275417437612
196	0x3fccbb22bb73b0b9	0.22446092751431992
197	0x3f937e1915dd9cee	0.01903571315724844
198	0xbf7559e3aa79ccbc	-0.00521267826080701
199	0x3fbb766faaaf0a54	0.10727594296535276
200	0x3fbc2aa8489d5e9e	0.11002589962788042
201	0x3fb3228d285ee28d	0.07474596248256145
202	0x3fb75f8071d25be2	0.0913009908566518
203	0xbfb094d802b7612f	-0.06477117601696557
204	0x3fc11a79f2d13937	0.1336204944258925
205	0xbfc19a5ffd856aad	-0.13752364996874658
206	0x3f614263080e1819	0.0021068510254194203
207	0xbfb05e862d6130c0	-0.06394232376004805
208	0xbfa114c4b86efe8e	-0.03336157561670659
209	0x3fb85384e43f9521	0.09502440044851258
210	0x3fc2d3c3d4b516e5	0.14708755384543007
211	0x3fb1d7a89f678801	0.06969694034299324
212	0xbfaa1831284f6294	-0.05096582047526002
213	0xbfbd30a64d536c6c	-0.11402358424986553
214	0x3f9bf700c172bc74	0.02730942898477591
215	0x3fc11afd308867d6	0.1336361395813685
216	0x3fb9cf17769aab42	0.1008162178574539
217	0xbfb299f93050ae41	-0.07266194753236112
218	0x3fb8eaada8598787	0.0973309074411458
219	0x3fb9a83277544ba7	0.10022273457825169
220	0xbfaa61239355672d	-0.05152236150270393
221	0x3fb714d9d1a367d2	0.09016190879938726
222	0x3f648e02117be073	0.0025091209789672108
223	0x3f8ae0f8ed63c324	0.013124413246687512
224	0x3fb07a7e7c32dc07	0.06436911136812294
225	0x3fbc35a13e91872b	0.11019332673597819
226	0xbfa50e745f1a7210	-0.04112590466431609
227	0x3f9e80600d68e2cb	0.029786587542022496
228	0x3fb905f3572c35aa	0.09774704817046734
229	0xbfbba2379751f56f	-0.10794398731555586
230	0x3fb3fa52bcf460e5	0.07803837884091853
231	0x3fc04b642ac734d9	0.12730075920845854
232	0x3fa80c54f73e8cc0	0.046969084912484416
233	0x3fb6f0054ee2dfb7	0.08959992576535468
234	0x3fa03521a863dfef	0.031655360989986885
235	0xbf9f1a442d4044b9	-0.030373635541825126
236	0xbfac0ada23f2d635	-0.05477029503655865
237	0xbfb1f67cfb09c2f2	-0.07016736153469674
238	0xbf94eacfdd33dc07	-0.02042698657620792
239	0x3f6d2deb59bf3bcd	0.0035619351092246233
240	0x3fbcad15dcf010ad	0.11201607364643236
241	0x3fb6d48f70fcce0d	0.08918091305240967
242	0x3fc168b7e418f38a	0.1360082496411475
243	0x3f4eecacb39e18f2	0.0009437411565478544
244	0xbfac88de3a8dc2f0	-0.05573172058837439
245	0xbface9f73faa298f	-0.05647251751095716
246	0x3f75f5185b83cc87	0.005360694071202882
247	0x3fa93dc10785f683	0.04929927079045362
248	0x3fc22be490b3ccf6	0.1419645029596734
249	0x3fb0de6761e9187d	0.06589361324685857
250	0x3f917a1ba1b92e72	0.017067367311297273
251	0x3fb852db42dfdb04	0.09501428969074871
252	0xbfbc9bc69e0b7a1d	-0.111751950822033
253	0x3fbab498326b8bcf	0.10431815367660068
254	0x3f9b71f8ead81b56	0.026801957448721346
255	0xbfa2947d10ad38d8	-0.03628912762234088

bias f8 [50]
0	0x3fbe60955ffa08ce	0.11866124718838764
1	0x3f9d4e0fcad0da78	0.028618094209571926
2	0xbf91ed0c43b2829e	-0.017505828506389258
3	0xbfb2303374deefbf	-0.07104798892299778
4	0x3fc15b6424f9fda0	0.1356015377568669
5	0x3fbba4c68f3a76c6	0.10798302647387023
6	0x3fa664ce5a2a880d	0.04373783922825689
7	0xbfafac059c8c9a06	-0.06185929809571537
8	0xbfb1da792b7fa76e	-0.06973988830546116
9	0x3fa830f101c48100	0.04724839350297039
10	0x3f91e4e4f826988b	0.01747472538559029
11	0xbfa6531b66d42490	-0.04360280637963243
12	0x3fb2fb7fa19d16fb	0.07415006347317991
13	0x3fb0f00aba53e3f5	0.0661627488042454
14	0x3fa6bff3f2731c96	0.044433234544663566
15	0x3fc77bf5f26dbfee	0.18347048127498006
16	0x3fbb9780099c7ce4	0.10778045878076942
17	0xbfb8cc35ab5df1d9	-0.09686599191440538
18	0x3fc11aac0181b983	0.1336264617306818
19	0xbfb2986ef162361b	-0.07263844864993312
20	0x3fa39ad6d5322ec8	0.038290704274087484
21	0xbfb1517f8a3f13ca	-0.06764981389194627
22	0x3fa1546ed53b2d56	0.03384729721946182
23	0xbfc4b20bf71b1e54	-0.16168355527610123
24	0x3fb8ef19c870f6ba	0.09739838737092557
25	0x3fb4f6760efd1752	0.08188569894727252
26	0xbfc16d0279a04bdf	-0.13613921107079727
27	0xbfb81c9ed717122a	-0.09418671370719581
28	0x3faee72dbd828fd4	0.06035750330309467
29	0x3fb68fe94899a7f8	0.08813341162172594
30	0xbfabe0e84405d531	-0.05445028143268827
31	0xbfb12bb0fcd7d569	-0.06707292721678972
32	0x3fac0c47ab44dc99	0.05478118863759924
33	0x3fad64e60e7e2b35	0.05741042067446359
34	0xbfb6fffbe89011ab	-0.08984350612451546
35	0xbfac3b58a7f87148	-0.05514027643605118
36	0x3fc023b531991fdf	0.1260897152117186
37	0x3fa2e1e18d299b0b	0.03687958572554891
38	0x3f6a333dd1ece2b8	0.003198261968830298
39	0xbf941706aa6944f7	-0.019619087363314382
40	0x3fb3259c41913e18	0.07479263878598663
41	0xbfa5321bd94943ee	-0.04139792468470903
42	0x3fb825bc0c7158ee	0.09432578376558684
43	0x3fb287860df1a6ba	0.07238042679241632
44	0x3fc14bd21ebaa60c	0.13512636661953115
45	0x3fbe66c66788c962	0.11875572231000356
46	0x3fc0602221f1e22d	0.12793375642265073
47	0x3fbcafe234ae2c26	0.11205877100125913
48	0x3f9e49b0d13d6264	0.029577982684119056
49	0xbfabb3f774822393	-0.05410741135808119
