lasa_models/3/skel_model_Line.pt (torch, 99247 bytes, 18 tensors)

R f8 [20, 20]
0.47755691191220984 0.4673456103055422 -0.11375594141245525 0.5523926461565006 0.812797190048867 0.39103139562038414 0.24279428425461172 0.3378087724973234
0.37407791957743874 0.6633003594127915 0.5908763129424752 -0.07105456456198858 0.5540363462574254 0.5682047078171587 1.1025571458893204 -0.06358017791991684
-0.039953997234211155 1.040276460622791 0.3022727007290119 0.3402508384360045 0.5158566682306068 0.5039014823755721 0.32806275147392266 0.501877783474936
0.06696759796163057 0.16752360518212855 0.8985011744076965 0.4677429668171093 0.9824230960621511 0.3605041127859227 0.7796602589257849 0.6231832414289767
0.05543619701784213 0.6939416423958975 0.4045188850454914 0.23984823300664343 0.6944555874516489 0.5518852729730568 0.029392944058260942 0.3052869796829528
0.33506727394771957 0.7858416073538741 0.6029715054276944 0.42446684496990206 1.096486708279363 0.3823063825275876 0.513490506683634 0.37079735616221665
0.9083500573463991 0.3615408790034252 1.0215118238422403 0.34286687020898127 0.24804277923592258 0.4794974811565453 0.03385077671382057 0.7900769894249903
0.32801161774259247 0.19056834022214408 0.6478947599570907 0.40849536706710426 0.1325489158158669 0.11895584314731161 0.14180100368080395 0.27786552643473184
0.12575073285014987 0.4809612502140959 0.07876998502678326 0.2536056017567629 0.21452881141537053 0.7636858535883868 0.5940220592269597 0.7147479802706465
0.26757841773236285 0.24053960365209726 0.8825527937303468 0.7242286450278878 0.351809363004866 0.6362749820760337 0.6435707447376686 0.5907709918041594
0.23956218224363424 0.96283691925469 0.16468638047579331 0.702006678421901 0.49320995405446977 0.13588063954716464 0.6656657973060855 1.0105276463583046
0.7001885466551379 0.7169014886034071 0.8102887612228854 0.386376392489113 0.4054910073664367 0.7503279122924058 1.276188759368274 1.1898904249225464
0.5524061546750912 1.1041332691544077 0.046457755604326516 0.8010101780239067 0.30351335778818667 0.16552457858613828 0.21984496342491347 0.5475161526118365
0.968492775145529 0.5018290256436214 0.08075520409243904 0.17374219611290986 0.20234819616791183 0.6358255913936117 0.24002348171304297 1.068719984393794
0.35908607810332005 -0.032237421189139845 -0.09644531562269838 0.4739404699623035 0.8661623823536032 -0.18012778496670603 0.953048928012259 -0.0018113390742674409
0.7122614943329117 0.09022731675094894 0.7991328752783305 0.07837289472003706 0.6690219687832419 -0.0033220506060247157 0.13384605929227955 0.8528490801829339
0.5624037794424764 0.7502563810078319 0.504800984374474 0.4878510625146355 0.7989320317613394 0.15739703827948415 0.7426136754030614 0.9171258450821768
0.3415409787778695 0.6673732183215806 0.1249543956148828 -0.059256986759529166 0.6628521351726654 0.9727823596355901 0.17568745508778447 0.5337206950187453
0.8823865696331815 0.2973576396524775 0.2543697537424486 0.7920765517378647 0.31201310317624364 0.29647796788069647 0.763240787165221 0.6364904073200387
0.9574389809832703 0.07899875499153527 -0.1965668090691905 0.45231686328509246 0.7384273131672482 -0.04867738661572162 0.5300052153365203 0.5027859061389897
0.05463064226995531 0.1370875352994164 0.43315762071103875 0.568805914855979 0.8328772062714048 0.4230093441260289 0.41123143129853357 0.2186693239704611
0.5210240774302172 0.3898034314688107 0.8611166973415934 0.9903675106553604 0.3844340811744649 0.11449112086961478 0.29212456444372464 0.7409262268297444
0.5140485249761835 0.9128093311489285 0.7974630014059312 -0.03987829069881374 0.7828036331784444 0.3881744221823898 0.524586157402866 0.2245835142071034
0.29532963640390025 0.4040179025005533 0.38984519101215453 0.07189999482604514 0.44777172117096653 0.6051968548670342 0.36993550683213006 0.14397701503191546
0.9667464102265858 0.007941893408460654 0.5398179723600839 0.3567288154298492 0.8834670395567636 0.523437112128033 0.4659885501373451 0.8488271374521723
0.5714172974911742 0.40087147966065034 0.545415565410387 0.5536919852084948 0.6914547963527816 0.34875687565811836 0.05384524930359403 0.22794557100794607
1.0476064490385184 0.17170103579791687 0.8753384721270159 1.002899044847951 0.3320582734166461 0.5876725138891983 -0.025738338391755985 0.6665640087631883
0.7552955676657477 0.2296792214156017 0.4295975863575271 0.6391709415880672 0.32295229016818394 0.497808011133351 0.06136174399451148 0.5360243664471498
1.0153188559032422 0.31161508963271983 0.8719186937380252 0.7733820806250651 0.10363410641131693 0.7230741504903375 0.4210597663864439 0.639210497986934
0.8354687216352016 1.018932997194994 0.4730313152407728 0.5954785873770444 0.30539764710910805 0.3319797692214287 0.16491427429063427 0.3556979412179838
0.8012812693184561 0.8166137323660603 0.23931858162356728 0.16538542444286983 0.8674041402464964 0.15350887097841143 0.9530743261958935 0.8595737386261711
0.0711846105069638 0.333867756171459 0.7568741745826725 0.989055261504563 0.2587998591013866 0.5120347256685162 0.07872953836994193 0.7723395511051684
00000000: 8411 a9dd 4a90 de3f f440 0c90 fde8 dd3f
00000010: 9799 1700 1c1f bdbf d560 b957 33ad e13f
00000020: 6f4c b140 6f02 ea3f bc85 f98b a806 d93f
00000030: 9dbf 4313 e213 cf3f d962 8baf a89e d53f
00000040: 8e69 af83 e4f0 d73f a84b e3ac c139 e53f
00000050: 3035 0271 75e8 e23f 8a77 06c7 a130 b2bf
00000060: 3812 7f6e aaba e13f fb40 b0a3 bb2e e23f
00000070: 3d0d 39f6 12a4 f13f f503 d760 ca46 b0bf
00000080: 664a eeae d974 a4bf bcc6 12ee f8a4 f03f
00000090: 6eb3 0699 6f58 d33f e33a e173 abc6 d53f
000000a0: d52a efd7 e581 e03f 26b0 6600 f61f e03f
000000b0: 0771 27e9 fafe d43f 68a4 53ff 610f e03f
000000c0: 8a0a 23db c924 b13f 625a c8da 6971 c53f
000000d0: eef4 ef88 85c0 ec3f bf76 5a32 80ef dd3f
000000e0: 1181 8d8f 0270 ef3f 534c 9fd7 7f12 d73f
000000f0: eb77 4212 faf2 e83f 8b49 2bfb 1df1 e33f
00000100: e798 691a 2262 ac3f 7488 6d1a c534 e63f
00000110: 0ea0 782d a3e3 d93f 7a2a 62ce 58b3 ce3f
00000120: 3a23 94ec fa38 e63f a606 d24d 0ba9 e13f
00000130: 7482 da15 2f19 9e3f 6a81 6866 d289 d33f
00000140: 572e e401 be71 d53f 8678 6d4c 9d25 e93f
00000150: 2f6b 07e6 8a4b e33f 3473 58fc 762a db3f
00000160: d9ef 88a5 358b f13f f783 8030 b577 d83f
00000170: db67 a0a4 836e e03f 303d 8ad5 24bb d73f
00000180: 97eb b323 3411 ed3f cd27 df5a 7c23 d73f
00000190: 6513 3ec8 1c58 f03f 217c 9be2 87f1 d53f
000001a0: d9e2 69a4 ddbf cf3f 333b 0534 16b0 de3f
000001b0: 8630 dc95 e354 a13f 0be1 dc89 4f48 e93f
000001c0: 3466 ba70 24fe d43f 301c 741a 8b64 c83f
000001d0: c57e a8ca 8dbb e43f 03ba 87c0 c924 da3f
000001e0: eb52 46e5 5cf7 c03f fc5d fcdf e373 be3f
000001f0: f8ac ac08 8926 c23f 9445 2e7d 8cc8 d13f
00000200: ee0b 859a 9918 c03f 2905 14b2 11c8 de3f
00000210: 8ab0 980d 452a b43f 2f2c 68fd 123b d03f
00000220: 1115 8a1a ae75 cb3f 148f b250 1d70 e83f
00000230: 8d6f af8c 3a02 e33f 949f 0428 37df e63f
00000240: c1a8 513a 0120 d13f 400e 8a71 00ca ce3f
00000250: b816 425b df3d ec3f d513 278d e12c e73f
00000260: 5814 226b 0b84 d63f 15f2 e859 5d5c e43f
00000270: daf0 a9ac 2198 e43f dd2d 2791 98e7 e23f
00000280: 7022 0c3d f9a9 ce3f b491 f25e 8fcf ee3f
00000290: 14bd 1e7d 7114 c53f 32a9 acb5 d676 e63f
000002a0: 6670 ae7b c090 df3f 9bdf 816b 8964 c13f
000002b0: 56da af5b 224d e53f 1d01 8d09 1f2b f03f
000002c0: e05c 9dcf f167 e63f d42b 0064 dbf0 e63f
000002d0: bf98 38b2 e2ed e93f 17fb 6b0c 64ba d83f
000002e0: 0d80 dd8d 90f3 d93f 824c 92ae af02 e83f
000002f0: 1e27 90e7 446b f43f a5da cd8a ca09 f33f
00000300: 4b09 0eac 4fad e13f 9619 97a5 87aa f13f
00000310: 4faa ee99 4fc9 a73f b206 cc18 e0a1 e93f
00000320: b65c 664a c36c d33f 3617 dbcd e82f c53f
00000330: 45d7 0c38 e123 cc3f 95fc 2f98 4085 e13f
00000340: cc31 758f e4fd ee3f 3155 aabe fb0e e03f
00000350: 8d0f 8f80 5fac b43f c4bd 1e2d 2f3d c63f
00000360: 1e0f 79b2 8be6 c93f 7eda 1fe9 ae58 e43f
00000370: ab62 1de6 16b9 ce3f fdd8 5820 7a19 f13f
00000380: 34c5 792c 44fb d63f 7ef1 6d5b 6c81 a0bf
00000390: e5ae 73e4 a3b0 b8bf 2f4b af68 0a55 de3f
000003a0: 597e 272c 9ab7 eb3f d136 c460 6d0e c7bf
000003b0: c99d 2977 607f ee3f dd21 8085 4ead 5dbf
000003c0: ac84 0b9e d8ca e63f 56b2 a62e 2319 b73f
000003d0: f552 8f1b 7f92 e93f 2025 b7fb 3e10 b43f
000003e0: 8858 87c2 a068 e53f ae4d ac56 d836 6bbf
000003f0: bced ad1f de21 c13f 77e6 7927 8a4a eb3f
00000400: 7f45 fb35 36ff e13f 1168 81ab 1902 e83f
00000410: 2910 dc64 5427 e03f f46d b4a9 f338 df3f
00000420: 8389 84e8 d990 e93f 04e6 f20d 9625 c43f
00000430: 6c64 2dc1 7dc3 e73f cd37 de4c 1859 ed3f
00000440: de10 86b1 cedb d53f ce5b 5d14 1f5b e53f
00000450: 3b49 a8e2 02fd bf3f 3f24 6288 ee56 aebf
00000460: d3cf 54ae 1536 e53f 9756 9878 0821 ef3f
00000470: 47b2 f530 ed7c c63f 8fb9 496c 3d14 e13f
00000480: ed21 60c2 823c ec3f 307b 6156 e807 d33f
00000490: c195 5a13 9847 d03f 0690 b4ec b058 e93f
000004a0: 2c30 84ce 05f8 d33f 6a0e 02ba 7ef9 d23f
000004b0: 2b22 7bf1 776c e83f 7b08 7521 215e e43f
000004c0: 87a3 e712 57a3 ee3f 3605 1d2d 4339 b43f
000004d0: 2e33 37e8 1929 c9bf 1848 cf6d c2f2 dc3f
000004e0: efd8 1051 32a1 e73f af77 230f 3eec a8bf
000004f0: a98d 527f cdf5 e03f c636 f877 d216 e03f
00000500: b35f d12b 8cf8 ab3f 3b6e 6698 158c c13f
00000510: b3e4 bdbd dab8 db3f 427d 4276 a833 e23f
00000520: fd9f 5019 eea6 ea3f f71d bbc8 9512 db3f
00000530: 1eed 20a3 9d51 da3f 37b8 8b3d 5bfd cb3f
00000540: 2db9 9faf 3aac e03f 52bc 8117 8af2 d83f
00000550: c0e4 a39a 448e eb3f 7e24 a934 17b1 ef3f
00000560: 3d2d 8767 919a d83f b93f d143 4a4f bd3f
00000570: fb37 a93a 2bb2 d23f 1170 1feb aab5 e73f
00000580: 4a8d 6ae4 1573 e03f c495 18ea bb35 ed3f
00000590: 0adf d920 d184 e93f bc5a be64 ed6a a4bf
000005a0: f11f 7634 ba0c e93f 21b1 1a88 d9d7 d83f
000005b0: 0759 bfe8 68c9 e03f dbc0 5e10 27bf cc3f
000005c0: 953c 7946 aee6 d23f d541 8fe7 6ddb d93f
000005d0: dc9a 793e 39f3 d83f 5845 5cbe 0968 b23f
000005e0: 0a30 a0b8 4aa8 dc3f 9778 69cb c55d e33f
000005f0: a248 def9 05ad d73f 1609 78bd d66d c23f
00000600: d15a ee2a 96ef ee3f cd47 a9e3 d643 803f
00000610: 058c 2257 3046 e13f 2df8 f318 a5d4 d63f
00000620: 08b0 3fab 5c45 ec3f 6448 c32f ffbf e03f
00000630: 649f c9a3 c1d2 dd3f 600f 6a87 9729 eb3f
00000640: 48fc a2ed 0c49 e23f f1a9 c2d9 e0a7 d93f
00000650: bf57 0558 0b74 e13f bfe3 1041 d8b7 e13f
00000660: d3eb 1fcf 6520 e63f 813b cd5b 0852 d63f
00000670: 3199 9bc1 9a91 ab3f 67a3 5f0a 522d cd3f
00000680: a02f dbfa fec2 f03f 157f b8ae 4cfa c53f
00000690: a0ea d6d3 c502 ec3f 42fc 6cde df0b f03f
000006a0: c734 2c58 7140 d53f d830 7d96 36ce e23f
000006b0: ff79 95a6 265b 9abf 7e83 4a0b 7e54 e53f
000006c0: 4105 3e9c 612b e83f 0c7f 46f4 2066 cd3f
000006d0: be26 f6df 867e db3f a993 559e 1674 e43f
000006e0: a633 1c15 40ab d43f 7d4a e021 16dc df3f
000006f0: b628 5d77 ce6a af3f f4fc 7792 1c27 e13f
00000700: 70dd 11fc be3e f03f b368 ba6a 80f1 d33f
00000710: 0807 4c08 c2e6 eb3f 5c1b f3c6 8bbf e83f
00000720: 146b c9c9 c387 ba3f 240c 9e66 6c23 e73f
00000730: a3a2 92a9 a4f2 da3f e2a3 0393 6974 e43f
00000740: bd21 88e6 28bc ea3f be48 bcaf 8c4d f03f
00000750: e059 3c23 2546 de3f fd15 481c 290e e33f
00000760: 55f9 a692 a28b d33f a656 ef12 283f d53f
00000770: 8265 5c33 e91b c53f 124a 324c c1c3 d63f
00000780: 2ad8 d39d 18a4 e93f 5641 3f1f b321 ea3f
00000790: 6afc b2c4 fda1 ce3f 5fcd 9b7e 592b c53f
000007a0: 25c2 d853 c6c1 eb3f bac3 3fbe 2da6 c33f
000007b0: 2965 b5ba 957f ee3f a1cb fcc8 a081 eb3f
000007c0: c11c 1b96 2739 b23f 1980 7cdd 165e d53f
000007d0: 57a0 6030 5038 e83f 9529 4338 57a6 ef3f
000007e0: f630 c348 2d90 d03f 1734 25a6 9662 e03f
000007f0: 1a30 8778 9e27 b43f b9ed 2c6f 01b7 e83f

L f8 [40, 40]
0.7484129183022853 0.6355428709043622 0.7321358358584324 0.8301281123969966 0.6237460379899654 0.8560962549842888 0.457060066770965 0.6409595189727859
-0.06690154340867548 0.5387405236788655 0.7935227588915965 0.7318466542637907 0.4327358664720947 0.607335444423786 0.6345763660857247 0.8175031338995664
0.6605665276088293 1.061889147362044 0.362957061734174 -0.1066535846385648 0.3076017445889378 0.2762281009988673 0.9935189173495196 0.5058802225829718
0.8042420646055565 0.6596240816720096 0.780097721805823 0.7659004091406426 0.1408041580155306 0.5693786832400054 0.5694161737909254 0.8148059235654687
0.36807412184436034 0.4947227603555247 1.3696961510866876 0.10891212196468432 0.6632116104028198 0.0316863059140692 0.381261910204423 0.1364927658163808
0.5576538361509269 0.039675141180659006 0.5971974234487034 0.3777579961527967 0.7090191286373926 -0.07381927311361738 1.209035757402292 0.3138586233068992
0.2114024199526406 0.3958661298091184 0.06587222736238744 -0.15794166734443232 0.6569425539814187 0.41572865626603583 0.7869828665018916 0.3097315126727459
0.39332986123019886 0.6689560247714208 0.331741080612564 0.9435559274279774 0.1469663409738794 0.7676177814424273 0.6386368399689296 0.3927161249507139
0.9124404391777501 0.7100232656303105 0.7917611329198809 0.6167992654195489 0.3785258197208092 0.4499152137622368 0.2866558346807636 0.8315780186823206
0.552814916879317 0.7444765752488858 0.22312781679015506 0.49710527981157704 0.39963124533836614 0.3051711393191605 0.47571267820174445 0.7604041442657538
0.47606876375745505 0.32682078574005413 0.4465707123812818 0.3247637908760832 0.6819282921451595 0.8329604911403627 0.4969959881745666 0.6273491936857042
0.7803875407855649 -0.1419924178323451 0.41235052307986425 0.864060451733684 0.502185865936262 0.21672684814826262 0.6164591397914889 0.675919843833344
0.5927608483593254 0.4588422642912074 0.7141651759640193 0.4314391296280845 0.67623557488616 0.1256729062629112 0.352817039502478 0.46024560141149545
0.13335494523691163 0.7643165992415052 0.24586912617001858 0.6978894163764505 0.14895158620962398 0.23918688195301716 0.2887214058861831 0.4270840910546156
0.47817145802948097 0.4505583913496984 -0.1565433759641369 0.43332170552118926 0.5216336320192118 -0.027222038379417893 0.033476343320645155 0.6134649318286914
0.3058712512728364 0.8671502825143912 0.6991561515091981 0.5868378963668683 0.6028360139382761 0.3233778564161679 0.6153036298581457 0.4281134856820629
0.48145744281342956 0.7806625301859372 0.6485351409730162 0.2152394965696484 0.5601442763532205 0.5887950804693827 0.5199390708555974 0.08930090169165816
0.4116918138781604 0.9558931704943986 0.3633156284667787 0.7828818477513217 0.09347671554669881 0.7095937158706156 0.4743452569188121 0.4481475305349636
0.7527982457059403 0.7291932931681527 0.7700237992285225 0.5136012628850256 0.8498423969083161 0.5511901448063691 0.7155351966943101 0.7199381691713125
0.6838261705413787 0.2354228015342463 0.7319606895512705 0.4336988037359331 0.39108823769177364 0.6829864764933478 1.0394289054009305 0.15807978389709354
0.31218647476934264 -0.2786431293517478 0.24172278387894675 0.5224064512614338 0.7211120994733623 -0.02508273960749995 0.6827627973096467 0.14169804533166608
0.7300018452303738 0.45794874003263797 -0.40597293601404294 0.8055775560146509 0.6706370570307411 0.39605959542724023 0.6165894256014774 1.401768968852468
1.0531963577800403 0.3226365782290773 0.2903733824044343 0.23865524849251504 0.2771095556785462 0.08509229697906212 0.7699638250300719 -0.1357358281374909
0.7479892026677926 0.37911147316754723 0.35147850694229665 0.1519136790393344 0.12268081784027372 0.5290843750378761 0.5185546361481191 0.05365628870694201
0.4830249363933668 0.9821294019658164 0.3849832695995382 -0.10618239253785663 0.31140407752147226 0.6276165727704864 0.597409956923367 0.8300534712298564
0.8874824759608463 0.16661705686288186 1.3033236192167228 0.6879475985651793 0.10055417252883654 0.7214869939568181 0.25590026136740596 0.09013001859419958
0.7518397068085153 0.8395731996447807 0.19653197207372974 0.7817024928306998 0.6264821122117262 0.10088513466065596 0.6978086949517371 0.2571566185513899
0.8255060086204833 0.6531521144288643 0.05217709893635699 0.18406026595063377 0.702188299925927 0.5086568275481603 0.5336733815256948 0.17274217058033117
-0.007193183491881667 0.35703270618388566 0.586841878126628 0.3224890696787304 0.8493159979133564 0.7946929397156484 0.31496323469968535 0.5398966025512367
0.7443210832310639 0.7132077694435309 0.9657031211850192 0.5040969139058988 0.5137774670419332 0.6872569870481897 0.6630182688985803 0.8743261193200359
0.057269644223148654 0.6276251619177239 0.1660061105768859 0.7978127243534762 1.0440324457346484 0.8646641758416685 0.26632535989698547 0.6584962192575923
1.1665585574815216 -0.0052687449643350395 0.4798487169024543 0.928086020516805 0.7694787290604472 0.1328531589868356 0.6228148401489683 0.35475429717671614
00000000: 3b64 00a6 fff2 e73f 9aaf b700 5e56 e43f
00000010: 1ebb e721 a86d e73f ae87 c7d4 6890 ea3f
00000020: afa5 4540 baf5 e33f d056 2cf9 2365 eb3f
00000030: 10b0 c5dd 7840 dd3f 4689 8189 bd82 e43f
00000040: dfff fda4 7520 b1bf 6961 47c4 5c3d e13f
00000050: 7446 42d7 8964 e93f 0000 b8ac 496b e73f
00000060: 9a72 93c6 f1b1 db3f a20e f0bd 4a6f e33f
00000070: 02e3 6418 734e e43f 983c 0f55 fc28 ea3f
00000080: c430 1d6a 5c23 e53f 5b5b 7e79 7ffd f03f
00000090: b108 8041 b03a d73f 0118 063a a64d bbbf
000000a0: 1bee 4c3a bfaf d33f 3aaf 01a1 b8ad d13f
000000b0: 0627 3f2f e8ca ef3f 6ffc 75b8 2b30 e03f
000000c0: 5d8c b1da 59bc e93f 18ee 4df6 a31b e53f
000000d0: 3be2 5a7f 8ff6 e83f 0911 2893 4182 e83f
000000e0: 80a4 e8e2 de05 c23f 90c5 f1a4 5938 e23f
000000f0: f2da 8744 a838 e23f db9f 49df e312 ea3f
00000100: 1fd4 f4c2 868e d73f b115 14a7 89a9 df3f
00000110: 89fd e582 46ea f53f a5ed f931 aae1 bb3f
00000120: 4c3e 208e 0739 e53f b392 43ff 2f39 a03f
00000130: 8c76 e25a 9866 d83f 6835 a94e 9878 c13f
00000140: c43a 98db 4cd8 e13f f793 abd3 4c50 a43f
00000150: f2f6 5ec5 3d1c e33f 22d7 d1df 2f2d d83f
00000160: 768d 37e2 48b0 e63f 0265 d6e3 d1e5 b2bf
00000170: 88cc dbe0 3558 f33f 00ed aa7a 4216 d43f
00000180: ebf4 fe07 3c0f cb3f c8f3 47e4 de55 d93f
00000190: 0b73 3c96 00dd b03f 22c4 f5bb 6e37 c4bf
000001a0: d66d 1664 ac05 e53f b00c ab5d 4c9b da3f
000001b0: 286a 44b1 f62e e93f 5a15 5e1f a4d2 d33f
000001c0: f287 a102 512c d93f 965f 1b77 1668 e53f
000001d0: 541f fef0 3e3b d53f ec00 4833 9c31 ee3f
000001e0: 843c 0c06 cbcf c23f 15f2 632a 5390 e83f
000001f0: adfe b586 b66f e43f 519c 51d0 4222 d93f
00000200: 3e1f ba4a b632 ed3f 7200 29b6 82b8 e63f
00000210: 4350 8471 1b56 e93f a88f 25d0 d1bc e33f
00000220: 2f1e 195c c439 d83f db39 452e 69cb dc3f
00000230: 6655 cab6 9158 d23f 7504 4a81 499c ea3f
00000240: a09a 97e8 a8b0 e13f 22a0 ea89 c0d2 e73f
00000250: 3586 f8c9 738f cc3f f26a dda9 92d0 df3f
00000260: c408 4cee 8e93 d93f 44c4 c387 ec87 d33f
00000270: f4d1 ca96 1372 de3f 2ba8 6b12 3b55 e83f
00000280: 1d11 bf1e e977 de3f 0205 9aba a1ea d43f
00000290: 97db 4153 9d94 dc3f 7837 2f11 eec8 d43f
000002a0: 0661 1f48 5bd2 e53f c6da 89c2 9ca7 ea3f
000002b0: 66fd dc42 c8ce df3f 8daa c19d 3e13 e43f
000002c0: e027 bc4a eff8 e83f 8958 6fbb ce2c c2bf
000002d0: e774 c772 f363 da3f 33d2 be1a 62a6 eb3f
000002e0: bfb5 d617 e811 e03f 0d21 7b92 b4bd cb3f
000002f0: 0c31 9784 08ba e33f 9869 ffa6 22a1 e53f
00000300: 3aae 4199 e5f7 e23f 11d0 c9f1 ab5d dd3f
00000310: 3ca4 56ed 70da e63f b2e8 fddd b29c db3f
00000320: dfe3 d0c9 b8a3 e53f b13c 32bf 0c16 c03f
00000330: a69e 88eb 8d94 d63f a32c 8cf7 a974 dd3f
00000340: 41b5 465c c611 c13f cf07 b115 4875 e83f
00000350: a987 ffb7 a378 cf3f d7f6 712f 1c55 e63f
00000360: 9794 ba77 d810 c33f f769 cffd ac9d ce3f
00000370: 50ec fb58 697a d23f 672c ee82 5855 db3f
00000380: 2581 8775 5c9a de3f bf42 f2dc f2d5 dc3f
00000390: 73f0 1504 9d09 c4bf 9f11 77f6 8abb db3f
000003a0: d184 c003 39b1 e03f f1bc 4712 18e0 9bbf
000003b0: 0af1 80af cf23 a13f a34e 6e35 81a1 e33f
000003c0: 3538 4003 6593 d33f 21ba 03f3 b1bf eb3f
000003d0: 6def b0b8 7c5f e63f 545f 9e44 60c7 e23f
000003e0: 9fe8 96c0 6e4a e33f aeb6 6309 39b2 d43f
000003f0: f539 eb3c 91b0 e33f 1bc9 fe1a 3666 db3f
00000400: 852a d3e0 32d0 de3f 0f8f 8bfc 2ffb e83f
00000410: b825 99c4 ccc0 e43f 8d7d 49c3 f78c cb3f
00000420: 4051 7fb0 b3ec e13f 8a2c d5c7 68d7 e23f
00000430: ed98 2743 57a3 e03f 10dc 4484 6cdc b63f
00000440: bbce 289f 2859 da3f 3fc8 3746 ad96 ee3f
00000450: f8fd 9831 9040 d73f d42a 973b 5e0d e93f
00000460: aae7 350c 17ee b73f ac90 63e1 fdb4 e63f
00000470: 31a8 5e35 ac5b de3f b892 dbfa 72ae dc3f
00000480: c861 b958 ec16 e83f 0bd5 532c 8d55 e73f
00000490: 6780 5af3 08a4 e83f c3d0 68ea 6b6f e03f
000004a0: 0b37 afae e831 eb3f 7b44 ba83 59a3 e13f
000004b0: 330c 9e11 aae5 e63f f073 77c5 bb09 e73f
000004c0: f5f8 d36b e7e1 e53f af40 a998 5522 ce3f
000004d0: f291 f2d2 386c e73f c90c 97a0 b8c1 db3f
000004e0: df21 aff5 9607 d93f 42c6 8474 06db e53f
000004f0: d96c 3334 80a1 f03f f895 ff56 f53b c43f
00000500: a1d2 d8fa dcfa d33f e188 f4fd 49d5 d1bf
00000510: bca4 baad c5f0 ce3f 9164 ecbb 8db7 e03f
00000520: 9d9d 7fae 5913 e73f fdb1 3b29 4aaf 99bf
00000530: 65da ab5d 31d9 e53f 18a6 4d5b 2923 c23f
00000540: 6c17 69d4 2c5c e73f 42d0 6b3b 084f dd3f
00000550: 5873 cfe8 75fb d9bf 612f 2f95 4ac7 e93f
00000560: d7d8 6dd8 db75 e53f 9220 6858 0a59 d93f
00000570: 9491 40bf 19bb e33f cb4d 5c4c a56d f63f
00000580: c9e7 8e6c e4d9 f03f d22e ffe3 13a6 d43f
00000590: a394 433d 7a95 d23f 3fa5 a553 418c ce3f
000005a0: c219 c3b7 29bc d13f bca5 aad8 9bc8 b53f
000005b0: 636e f32c 8ba3 e83f ee7c 5fa7 ca5f c1bf
000005c0: 6204 670d 87ef e73f 76c0 b2c4 5c43 d83f
000005d0: c619 24b5 9f7e d63f 5cfd a44d e871 c33f
000005e0: 4773 7894 0268 bf3f c597 f35a 42ee e03f
000005f0: 5140 6ee4 ff97 e03f 792d 714a d678 ab3f
00000600: 4191 3d6c e1e9 de3f 5643 bca3 9a6d ef3f
00000610: 8efa 1bde 90a3 d83f ee72 5cef c42e bbbf
00000620: eeed 325e 0bee d33f 4d42 cf59 6f15 e43f
00000630: d74c 697c fb1d e33f e0a1 1b4c cc8f ea3f
00000640: 51cc 40a6 4166 ec3f dc46 172d b553 c53f
00000650: 2f3e 0ade 69da f43f b25f a6ae aa03 e63f
00000660: 8dd9 7c12 ebbd b93f 9315 71e4 6b16 e73f
00000670: 5818 677d ab60 d03f 52fd 3fca c212 b73f
00000680: 2975 1225 120f e83f 3351 629d c8dd ea3f
00000690: 3068 56ac f527 c93f df1a 3df2 b403 e93f
000006a0: c74e ef36 240c e43f 8823 05b2 9bd3 b93f
000006b0: 2fd4 75e6 7254 e63f e133 a808 4175 d03f
000006c0: a4a5 b593 8b6a ea3f 8a20 5943 9fe6 e43f
000006d0: 5b49 10eb f4b6 aa3f e521 606b 498f c73f
000006e0: 2e1a fa98 5378 e63f 539b e6ae ea46 e03f
000006f0: 3fc1 0c33 da13 e13f 712b a45a 6a1c c63f
00000700: e1cd a07d 9976 7dbf ed60 2ab5 9fd9 d63f
00000710: 4844 4f9e 68c7 e23f 719b e531 a9a3 d43f
00000720: 323d 60be 982d eb3f 1c1b 4ee3 1f6e e93f
00000730: b48f 1e8e 5b28 d43f f5ba 653d d546 e13f
00000740: 3f6c c672 7ad1 e73f 196b a019 99d2 e63f
00000750: 2350 643b 0ae7 ee3f 0eb1 e7d9 8f21 e03f
00000760: ffbc 4b71 dd70 e03f 1a39 6a5d 02fe e53f
00000770: eb3c b216 7237 e53f ab94 10c5 7afa eb3f
00000780: a5e4 fb61 7252 ad3f a1aa 125d 8115 e43f
00000790: c693 ee2f b03f c53f 77c9 ed8c ae87 e93f
000007a0: 964a a65d 5bb4 f03f 8768 a834 54ab eb3f
000007b0: 4497 b685 790b d13f 3a08 c8a9 6612 e53f
000007c0: 7c08 544e 39aa f23f 7629 01f5 ad94 75bf
000007d0: 1fe9 8764 d7b5 de3f a3d2 3f74 e1b2 ed3f
000007e0: 5208 09db 919f e83f 5166 8212 5501 c13f
000007f0: b9e7 3c63 19ee e33f 5453 1f5e 4bb4 d63f

weight f8 [50, 4]
-0.23568296192125382 -0.20183075126246094 -0.17321778656036463 0.14668607734145303 0.04629604954559736 0.03202735057491146 -0.35393696051598694 -0.33776833926081634
-0.10567115788573754 0.32592862226681174 0.050888057792343046 0.4252368125294953 0.11499761087736907 -0.19698660129529014 0.44427577780706184 -0.46596710109939404
-0.020273114898378266 0.40148422092487235 -0.095616747654264 0.0017616130432865922 0.06999785241855679 0.441545316820918 -0.017956551713479693 -0.23245091536469922
0.059058607059561556 -0.3577918121076183 0.4197375871048437 -0.15415179213717697 0.13894250665608543 -0.30150210919691256 -0.2553926995449487 0.19000083974822188
-0.4663047272367266 -0.4847861205429163 -0.39073396336021043 -0.2654195451358507 -0.5491015649955862 -0.5585003950052534 0.11159458472014833 0.20823949445677684
-0.4896042634873687 0.49616057123591123 0.3622327679200425 0.37493190824900774 0.49792811994181724 -0.11892187321602532 0.49038495150403716 -0.3476712187375106
0.27802174561451853 -0.0119686223276147 0.19831683604304556 0.14948068061102698 0.24850333476367414 -0.38072120995542685 0.194679403577808 0.210935159217686
-0.2639683436382791 -0.21694141009749776 -0.1572968164479351 -0.2773743338745925 -0.01269049780410833 0.4925092326719062 0.3080660895227299 0.10188713339954228
-0.6422313481362307 -0.07674182462695102 0.3152456427947819 0.8207106148161769 -0.1543167144589501 -0.13579265757669953 0.12279283441055809 0.42742050861758224
-0.19941152952585664 -0.0099894068948124 -0.0017793465860285343 -0.07797550379407667 0.08313730356230378 -0.6270526342558874 -0.21870883376156686 0.4692515536673634
0.0022363390674509705 0.26584639273269134 0.062012940833484596 0.1024121491193799 0.015071333525078728 0.09095074025149325 0.05210320195162302 -0.24044147631677618
0.13191948234067336 0.1928871356844936 0.2446657147473079 -0.23847675168865434 0.2855506350078558 -0.04643297030805089 -0.5062094849102765 -0.33914635732964027
0.5133385708227625 -0.4028131988990037 0.40132192040661957 -0.47529979639369857 0.1101273519587545 -0.6904804759685347 -0.027666129706517335 0.3960088371768009
-0.021091993125032394 0.38288427538871606 0.29889197649583576 -0.1121841738580006 -0.09620380904326019 0.26324866189298296 0.1263846064431748 0.24643803967741304
-0.08694614572576712 -0.22806012742209675 -0.18799838390836995 -0.022382141969939522 -0.9018208978485625 -0.2246345204489034 0.6060745410697259 0.4255650570767738
0.49598937084274675 0.4767667767600475 0.33894723652777653 -0.1706570981420885 0.252578146320038 0.3239465481039082 0.04475932943064342 0.5207197263783775
0.023059878872831337 -0.41295745638212805 0.21945399104001292 -0.17569528212210125 -0.18104372939087893 0.3826749466018796 -0.2653993324705625 -0.512275858036649
-0.4671049748648067 -0.2926887440509424 0.2289176939679156 -0.3607856928799929 0.32699495261928563 -0.400584974264289 0.013416713743629625 0.474039031373009
-0.38829864539807174 -0.11495793830707289 0.39569871313883126 -0.17886423433448737 0.4707041658842129 -0.20558722918198963 -0.6252207118685108 2.1318844417094382
0.017976620434738074 0.3152080579287913 -0.27616868375738324 -0.1621862983431584 -0.0446777168921064 -0.28202396308073496 -0.040926123646925515 -0.37007956005067594
-0.2821466490376275 0.16688497873221625 -0.2828597057145043 0.46425298166052376 -0.01930521299510057 0.2799161523577626 0.16927547143794827 0.006683480225144977
-0.3271684476211543 0.3674970141182027 0.31238614749710936 0.03235241570538706 0.057572049438295844 0.5332989263537992 0.3029442295190937 -0.500388865269807
0.37880095607501335 -0.10060009600490737 0.3869453665957308 -0.38118082866591024 -0.3930675825804024 -0.4869341740921722 -0.1852866185105456 -0.2871972557005591
-0.09166612519819677 0.4547849526723436 -0.09993219302189783 -0.2503696450536976 0.11886933840835189 -0.1548244829090871 -0.028170170577147543 -0.16290975448068332
-0.33272751381062454 -0.07321536771844671 0.41529107225975587 -0.1671025211964929 -0.0014900264681705353 -0.24326668116698077 -0.008324296833565057 0.40848768947729314
00000000: ac8d d6fa db2a cebf b3eb ff0d 97d5 c9bf
00000010: 025f 2e1c 002c c6bf 7de3 7a00 9cc6 c23f
00000020: c9f4 76a5 1db4 a73f 70f2 978e e365 a03f
00000030: 73c1 9035 e7a6 d6bf cff6 af18 ff9d d5bf
00000040: 07ec 3fd7 430d bbbf c2d7 5db9 03dc d43f
00000050: 8d3c f3df ff0d aa3f 52a5 b776 1437 db3f
00000060: 8a20 d6c1 7b70 bd3f 891f 2861 db36 c9bf
00000070: d485 05ac 036f dc3f f5f6 0ead 67d2 ddbf
00000080: e705 e8b5 79c2 94bf 14df aedf eab1 d93f
00000090: a2fc 1fd4 567a b8bf 0212 2f9a bddc 5c3f
000000a0: 358d ed16 61eb b13f c8a8 dc49 4742 dc3f
000000b0: 8ced 6ec9 3363 92bf b154 b59b f3c0 cdbf
000000c0: bf7b bc03 ee3c ae3f d1d7 f1a0 0fe6 d6bf
000000d0: b51a 610a fbdc da3f e3aa ecf4 3ebb c3bf
000000e0: e85a 0e39 dec8 c13f a83f ab80 cf4b d3bf
000000f0: 80b1 0b9f 5a58 d0bf eb2f 7790 f251 c83f
00000100: 9bec 5cc8 efd7 ddbf a956 525d bc06 dfbf
00000110: 6363 8406 c901 d9bf 9ff8 8442 a2fc d0bf
00000120: acd4 fa71 3d92 e1bf 7c38 6b38 3cdf e1bf
00000130: 14a3 c873 7691 bc3f 05b6 367d 97a7 ca3f
00000140: 3f44 ea1e ad55 dfbf 7977 c144 18c1 df3f
00000150: 9b64 f058 d22e d73f d101 0a67 e2fe d73f
00000160: ef2a bae7 0dde df3f 50ec 3df4 a971 bebf
00000170: c243 4a90 7762 df3f 8c3c 8fc8 3e40 d6bf
00000180: a26f 3fb8 1bcb d13f e15f cd4b 0183 88bf
00000190: 9e89 8632 7262 c93f ead8 4dd5 2e22 c33f
000001a0: c4e2 e00f f5ce cf3f 23bc 697e bc5d d8bf
000001b0: f425 c933 41eb c83f 5750 355d ecff ca3f
000001c0: c3c3 c67a dbe4 d0bf 0729 c272 bcc4 cbbf
000001d0: 6f53 3455 4d22 c4bf 296f 2f47 80c0 d1bf
000001e0: 3010 4fc8 79fd 89bf f772 d371 4585 df3f
000001f0: 516e e0d4 5ab7 d33f aa8f d571 4615 ba3f
00000200: 58c1 96c1 288d e4bf 4914 022b 5aa5 b3bf
00000210: 41a5 800f fc2c d43f 72b2 43e8 4243 ea3f
00000220: f7e6 e96c a6c0 c3bf cb17 aa5f a761 c1bf
00000230: 47fb f9e7 596f bf3f adbd 898c db5a db3f
00000240: 6523 e126 5186 c9bf b274 5b7f 5375 84bf
00000250: 49a4 4bd9 1e27 5dbf 6647 afde 33f6 b3bf
00000260: 32b2 e07f 7c48 b53f 6dfd 9faf d010 e4bf
00000270: e215 2dac a6fe cbbf 104e 26ab 3708 de3f
00000280: 8cfc 0965 f151 623f 8df9 a296 a003 d13f
00000290: bb00 9e01 29c0 af3f b049 2ebf ae37 ba3f
000002a0: 8350 c724 b8dd 8e3f fc59 ed36 8c48 b73f
000002b0: 6457 cc58 45ad aa3f 29f6 b04a c9c6 cebf
000002c0: 6ae1 2dd3 bce2 c03f fdc0 ca91 86b0 c83f
000002d0: 3f65 a5c5 3451 cf3f 70f6 adfc 6786 cebf
000002e0: 507d ad2b 7646 d23f 69c2 dbf1 0fc6 a7bf
000002f0: 28ab d33b de32 e0bf 1474 52ec 92b4 d5bf
00000300: 50b1 ae02 456d e03f 7ac6 ea02 b1c7 d9bf
00000310: 3f1e d422 42af d93f f69b 53d6 4f6b debf
00000320: a4d4 0e5f 4e31 bc3f bff6 d982 6a18 e6bf
00000330: d27f 2f89 8254 9cbf 807c 2673 3558 d93f
00000340: 3dc7 b7b2 2399 95bf d09e 3c0c 2d81 d83f
00000350: d487 05d0 0b21 d33f e750 d91d 1ab8 bcbf
00000360: 0f68 9715 d0a0 b8bf aff3 62ea 10d9 d03f
00000370: 0715 b2eb 5e2d c03f c7d1 731c 488b cf3f
00000380: 9ac9 6744 1a42 b6bf f655 6602 1331 cdbf
00000390: b32c 4bbf 5410 c8bf 4bed 191f 58eb 96bf
000003a0: 607c e37f b7db ecbf 3bba 70ef d2c0 ccbf
000003b0: 54a5 9a6f f664 e33f 79c4 9d38 753c db3f
000003c0: c4b9 bb33 4abe df3f 393d 80cc 5883 de3f
000003d0: 4735 fdbf 4fb1 d53f 3fde ac7f 17d8 c5bf
000003e0: 573f 8887 3d2a d03f 3e89 704d 8abb d43f
000003f0: dfe5 30e0 b1ea a63f 9fab 656a bca9 e03f
00000400: ff22 6f46 029d 973f cf3c 731c e56d dabf
00000410: 132c 3f81 1117 cc3f 4b51 63d9 2e7d c6bf
00000420: fa99 70e0 702c c7bf e6d4 290f bf7d d83f
00000430: cfd7 557b 4dfc d0bf 2387 1957 9064 e0bf
00000440: c1f7 b543 0ce5 ddbf 8bca e691 69bb d2bf
00000450: 0fb2 88cc 2c4d cd3f 7931 f2df 1c17 d7bf
00000460: df3d dd3c 7ced d43f dffb ee28 2fa3 d9bf
00000470: 7f4d fdd5 387a 8b3f e992 31ce a756 de3f
00000480: 6136 c48f e2d9 d8bf 5fc8 7129 e26d bdbf
00000490: 4509 00b2 2053 d93f 9302 72f2 05e5 c6bf
000004a0: e512 a45d 0420 de3f 6aec e7ac ae50 cabf
000004b0: 1b3a c8dd ce01 e4bf 30f2 1f6e 190e 0140
000004c0: cf70 7093 7668 923f 6959 0f6b 5e2c d43f
000004d0: 7eb5 3a6a bfac d1bf 0220 9f47 85c2 c4bf
000004e0: ddb5 d269 ffdf a6bf 32af 873c ae0c d2bf
000004f0: 932f 3bd5 44f4 a4bf 757c d52d 62af d7bf
00000500: f5b9 92d1 b00e d2bf 729c ecaa 7c5c c53f
00000510: 4799 5998 5f1a d2bf 225b 5323 52b6 dd3f
00000520: bf38 d3e9 bec4 93bf 6beb ff6f 25ea d13f
00000530: e7a4 eb92 d1aa c53f ffec d80f 2360 7b3f
00000540: 7938 b4ed 53f0 d4bf 2efb 4032 1285 d73f
00000550: 1a4e ce77 22fe d33f 916e cdee 7e90 a03f
00000560: 1e9a 006b 157a ad3f afce f5e8 c810 e13f
00000570: a2f8 9231 7063 d33f 50b9 7382 2f03 e0bf
00000580: 2749 825d 463e d83f 0fc7 508a edc0 b9bf
00000590: 6583 b77f b6c3 d83f 69dd 3e46 4465 d8bf
000005a0: 283d 13ef 0428 d9bf 2cf6 41f4 ed29 dfbf
000005b0: 03d2 71cf 78b7 c7bf cc07 2f99 7061 d2bf
000005c0: 8396 e061 6e77 b7bf 2d33 9c58 321b dd3f
000005d0: 79bb d8fc 2795 b9bf 2fac 5a67 0e06 d0bf
000005e0: ef05 f690 386e be3f 5379 5be5 49d1 c3bf
000005f0: 3f07 6825 a4d8 9cbf 83d2 d811 3ada c4bf
00000600: 01f2 9257 684b d5bf e753 ea09 3ebe b2bf
00000610: 894a 6b01 2194 da3f 5f1d cf8b 9d63 c5bf
00000620: ffa3 dcbc 9f69 58bf 3fc9 e8d3 5c23 cfbf
00000630: 7f82 4c35 540c 81bf b1e8 c78c a924 da3f

bias f8 [50]
0.12927332927459187 0.262343939072044 0.33627544073753407 0.4429987378241912 -0.42401599288472774 -0.10407327099505707 -0.0667152465188584 0.29728076856394914
-0.15691874052040733 0.16601229836754355 -0.4787734065789122 0.023997158564552274 0.25336067875206353 0.09504846252590735 -0.16507755678618774 0.07179957930720067
0.12406655205005085 -0.2709769316938233 0.2233284143238678 0.09117622868871067 0.028605733485150785 -0.2669050253417884 0.2778276511530398 0.31321435641767265
0.13649895881294963 0.1507137736999025 0.2747540235131981 -0.4433975533620519 0.31376281729296995 0.10882655707724688 -0.24505463651093756 0.21215160352119425
-0.41746039242854327 -0.17646692839641995 -0.09817233362424171 -0.21280778354287466 -0.08513341218231207 -0.16755404276907052 0.10931610016280785 0.39872222707696536
0.3603280246183945 -0.3084797757627753 0.33424759557182643 0.2749286787721483 -0.4102444239202313 0.09543226356261661 0.3418295011581025 -0.2963924262677188
-0.4130304362897683 -0.10924527393479011
00000000: 5b5d bd48 078c c03f 5691 a73b 3eca d03f
00000010: bf9a 1a6d 8985 d53f 8ef2 c760 175a dc3f
00000020: 9bef 9af9 1323 dbbf 7bbf 4fbf 8ba4 babf
00000030: 586d f119 4014 b1bf e08f adea a506 d33f
00000040: 9013 55cd e915 c4bf 6677 1c18 e43f c53f
00000050: 30dc dc36 39a4 debf 153d ed0c b692 983f
00000060: 4547 55b5 0f37 d03f 6e77 1596 1855 b83f
00000070: 18a2 d9e9 4221 c5bf 35b1 fd0c 7561 b23f
00000080: 741b 9557 d3c2 bf3f fc1a e6a0 af57 d1bf
00000090: 36ef e485 0696 cc3f 4800 6448 5357 b73f
000000a0: 33f0 2f47 d24a 9d3f 3cc9 bed0 f814 d1bf
000000b0: 891d e8a0 edc7 d13f e1e6 5c3a b40b d43f
000000c0: e513 0542 cc78 c13f 9185 8cc4 964a c33f
000000d0: 1ec0 5be6 9195 d13f 5a40 b421 a060 dcbf
000000e0: 2258 bea3 b014 d43f f142 95a7 0edc bb3f
000000f0: 3619 c648 f35d cfbf 3d70 75a3 c827 cb3f
00000100: 62c7 36cb abb7 dabf a7e3 24e3 7796 c6bf
00000110: 30c2 4972 d221 b9bf 7c50 5313 493d cbbf
00000120: f8b2 1ea5 4dcb b5bf 31bc 002f 6972 c5bf
00000130: 1422 20d3 23fc bb3f 6ef7 5e3b aa84 d93f
00000140: d25e 6446 9d0f d73f e439 18f5 21be d3bf
00000150: 27d9 ef06 5064 d53f 78c4 0375 6e98 d13f
00000160: e6a3 06d4 7141 dabf b214 fcb2 3f6e b83f
00000170: 040d 12d8 88e0 d53f 3e86 66f0 17f8 d2bf
00000180: a87f 0736 176f dabf 48e0 ca8e 7ff7 bbbf

weight f8 [50, 50]
-0.0455297929466534 -0.053673751903256316 0.050077899306245253 -0.13240893659880298 0.1178882163253132 -0.03299699182248331 0.05589338663971708 0.08149695235811583
0.12803024439425695 0.056601445112960634 0.0661477921511044 0.047844952970829 0.05506642826719452 0.09590108105756634 -0.0938015257912322 0.004748726740889216
0.2378334352679117 -0.06668030067304856 -0.1373514477271621 0.0927971483709097 0.12142835607145488 0.038773371401620745 0.05348908054711486 -0.0072563833325315795
-0.031592881121973636 -0.18617704336703322 0.1260501723872246 -0.02967285170954769 0.0706315114998547 0.0729509068405719 0.11399986447033524 0.04614730482992879
-0.08968392197776946 0.024545613721551986 0.10506472435559434 -0.042995335012899136 0.12949031279408438 0.05387726265771853 0.07783225248104948 -0.1191533698537807
0.07538978043684451 0.09700910329613271 -0.07864656212361623 0.025920673114247332 -0.05664318662530237 0.028702083170093526 0.042140420098162275 -0.004867761916417917
0.11878637958728032 0.049714292518078025 0.045525214410515 -0.13791568626436027 0.05665617436451587 -0.05247698686198017 0.10460424256555069 -0.13344226086349323
0.009235147474474093 -0.1435323337116013 -0.01876187208730105 -0.01199254042630396 0.0822639787688071 0.09187107804888713 0.10309502774861545 0.11482498393273494
0.08718185234566275 -0.0186775760869264 0.042917479422552834 -0.025261636561332814 -0.017043340837013345 0.12351046250615062 -0.1110494684608439 -0.044344177090310626
-0.05199835689659762 0.02593402479680989 0.015927228545167434 -0.07806171970255153 0.09682775384622604 -0.021795180589628958 0.013980174707780419 -0.0007868867725907932
0.028215150764629618 0.01874581596742442 -0.026323230026738826 -0.030727716458810977 -0.10240502444770787 0.018261029572153867 0.03842119477297281 -0.06077740784714605
0.04467232749046371 -0.03900694775502405 0.09744159143306709 0.0971270586293688 0.06363283973394744 -0.12477974595482899 0.11212464587001118 -0.10065230576082289
-0.028271223255465168 -0.09629224364342501 0.045215941546082064 0.035579873942454744 -0.038001307751835856 -0.10228870533746866 0.03057331256465701 0.08269796842817179
0.07456841033861618 -0.03063099431331529 -0.020532596159938597 0.09391581676477818 0.021380912574805355 -0.043050657485534764 -0.12325063638817271 0.11066731817199131
0.0023733113691346694 0.07241553746309624 0.0974397681367488 0.06585359854612464 0.026555023912797494 0.0643968247872488 0.1018515977909757 -0.0572008924017221
0.12196555720635432 0.06817495009158378 -0.12184740962641441 -0.09658657139991379 -0.12427154236532215 0.11975248631498685 -0.08206426732626312 -0.06032360652438601
-0.03187256205093373 -0.03385752288378448 -0.05319453408772114 -0.1374462668420081 0.01272051168073106 0.045895170713029364 0.07474848190957076 0.13750833034364593
0.11183544724830177 -0.07362592648280857 -0.1043455266417512 -0.017164768913394836 -0.057216857152753035 0.001960768214914316 0.03177861413910354 -0.09302749149881759
0.05787610759154916 -0.09481711875807876 -0.12834068940414997 0.019874491633702907 -0.09518384907579158 -0.11479141126659882 0.07686020039751408 -0.017097066595662475
0.17961657709792325 -0.002257407981775643 -0.0330956342457567 0.11041066994108854 -0.0077287024050796006 0.15912395888901226 -0.06930372226446944 -0.1607896863979783
0.0026384749142967477 0.237714426681908 0.18064973471694024 0.03530395796782576 -0.07316868521894335 -0.05626574998647446 -0.05859536698068226 -0.030256817018691658
-0.11949771444551066 -0.03757646162451437 -0.10924303313510407 0.0845073773889337 0.10337606089249685 0.04722432775945408 0.04706121929800571 -0.04330837522344232
0.043869959822449296 0.10573782341955335 -0.00827747027675241 -0.00216154266001534 0.07482450958510597 0.16222536934073298 -0.14010440050619197 -0.020897763130239982
0.012646963732620814 0.01856961530915976 -0.10651441482461807 0.005328559512941252 -0.10664188818421062 -0.10929992427436937 0.0871758468487683 0.08119501996860753
0.005842968033118076 -0.0034984151206712342 0.06936281967687638 0.005212051207881738 0.12474155669947158 0.10553426977485404 -0.0680166400802997 0.09952543688952717
-0.09254026563422701 -0.15847029252773995 -0.10816179499260854 -0.1580451216012216 -0.07114825082837728 0.07675785702188795 -0.0036115591703698986 -0.13308866507647674
0.09443695022670329 -0.07774025776427657 0.06572741342118482 0.08187789776924373 0.03139340651917058 -0.10495461379606386 0.12389804437029649 -0.08816502466474202
0.03822743178235443 -0.06680596574061856 0.07656396170696315 0.05278252547716123 -0.08768362689076825 0.10386490108408211 0.0071615445761329865 -0.12252629804999295
-0.044614070679656496 0.07348183129635553 -0.018672820662380327 -0.07807819936581524 0.12672820517400488 0.04167088034579022 -0.09581193413069568 -0.001918397012444065
-0.01191277026969179 0.09380882089246924 0.08219800678815228 -0.1382424548709333 0.05494753411445292 -0.11081387245639221 0.08309112674275748 -0.026392959093389737
0.042739822224059774 -0.068426324512195 0.09480890884339283 0.061646827968937154 -0.12368825995524894 -0.0006829220683837368 -0.03677841806319477 0.03728288559329751
0.10801267781659067 0.03206821368539793 0.11537528745563506 0.01860504317810022 -0.016425891398919 0.12847405132921774 0.05893357253068341 -0.003874983258530903
00000000: 8328 6657 ae4f a7bf 33fd 2742 207b abbf
00000010: eb9f 8b77 cfa3 a93f 66eb 31aa c6f2 c0bf
00000020: 4f74 b311 ec2d be3f 64e6 7c51 fbe4 a0bf
00000030: 1d4c 5cd7 0e9e ac3f 180e 1af9 fbdc b43f
00000040: 893e 4988 4b63 c03f 2340 5557 ddfa ac3f
00000050: 6dd9 fdcb 0fef b03f 0ca5 9338 227f a83f
00000060: 2cbf 07b9 aa31 ac3f 3815 cb26 f98c b83f
00000070: 1597 9675 6003 b8bf fcd0 cba0 6673 733f
00000080: 617d 2f75 5371 ce3f e29d adce f511 b1bf
00000090: ebf0 0574 bb94 c1bf 1945 6acd 8dc1 b73f
000000a0: 024a 22c2 ed15 bf3f a151 4074 1ada a33f
000000b0: 1e33 49b7 eb62 ab3f b37e 9b91 deb8 7dbf
000000c0: 1b1c 692e f12c a0bf 3c81 433c a6d4 c7bf
000000d0: 1c76 077c 6922 c03f beae af5e 8f62 9ebf
000000e0: 087c f51f e814 b23f 3603 181f e9ac b23f
000000f0: 8d05 a659 182f bd3f 800f 169a 9ea0 a73f
00000100: f31c df87 86f5 b6bf 6afa c640 7c22 993f
00000110: 690e 1293 85e5 ba3f 469d 850b 7c03 a6bf
00000120: 3bb9 4c79 2393 c03f 70ce 39f2 cc95 ab3f
00000130: 4de9 fa82 d0ec b33f 1aed bad2 d580 bebf
00000140: 47ca 6da1 be4c b33f 9438 12ae 96d5 b83f
00000150: 0a86 435c 2e22 b4bf 2e95 43ed f28a 9a3f
00000160: a79c 31f4 5500 adbf 8ca5 2b32 1464 9d3f
00000170: f996 52dc 6d93 a53f 068c c5e3 37f0 73bf
00000180: dfa0 89bf c868 be3f 8191 04d9 2674 a93f
00000190: a9b6 12b6 144f a73f 792f 0ea1 38a7 c1bf
000001a0: f12d 06c0 0902 ad3f 8aca ba7c 43de aabf
000001b0: 3186 d7f8 57c7 ba3f 8510 28d1 a214 c1bf
000001c0: 8d48 0383 e0e9 823f 8add 9a7b 445f c2bf
000001d0: 7b55 1bec 4f36 93bf 105c 6a87 8b8f 88bf
000001e0: e16b 738a 400f b53f 5d11 abeb dc84 b73f
000001f0: f87d 8f8c 6f64 ba3f 043c c18e 2b65 bd3f
00000200: 461b a1c4 8c51 b63f 75fc d8e9 3620 93bf
00000210: 3cde 17a5 47f9 a53f d758 7fbb 2fde 99bf
00000220: 6ac8 093e cf73 91bf 1981 2db5 619e bf3f
00000230: c40a 47eb bc6d bcbf c7e8 bdac 47b4 a6bf
00000240: 631c a254 879f aabf 8e7e 6cf1 728e 9a3f
00000250: 32a1 de36 3a4f 903f 7325 3155 dafb b3bf
00000260: 9b5b 1d24 b4c9 b83f 6919 5fcf 7951 96bf
00000270: 2a5b 4c49 a3a1 8c3f 5975 1a7a e2c8 49bf
00000280: 14a7 24b7 6ee4 9c3f 2154 116a 1a32 933f
00000290: 3516 5c10 7af4 9abf d8dd 1525 1677 9fbf
000002a0: bbf0 f236 3737 babf 71fa 36f3 04b3 923f
000002b0: 33dc 0b5e f1ab a33f f40a 1466 371e afbf
000002c0: 242a 3793 4adf a63f 5766 d9f9 b7f8 a3bf
000002d0: d1a7 79a0 eef1 b83f 1aac 5ea4 51dd b83f
000002e0: c3e1 9be5 3d4a b03f 1045 14c0 90f1 bfbf
000002f0: f357 1667 33b4 bc3f 737d 8279 59c4 b9bf
00000300: 4257 33ad 21f3 9cbf de95 4ec5 9ba6 b8bf
00000310: aa83 653c 8b26 a73f 0d11 f575 8637 a23f
00000320: f0ac ff4b e874 a3bf 25b3 2cb4 972f babf
00000330: c1e1 6146 9c4e 9f3f 383a d8ad b12b b53f
00000340: a114 b853 ea16 b33f a152 473b bb5d 9fbf
00000350: 1620 0934 7f06 95bf 2df4 94f1 dd0a b83f
00000360: a3d7 11c1 e0e4 953f a77e f15b bc0a a6bf
00000370: 7296 7f8c 5a8d bfbf 03e4 4880 b154 bc3f
00000380: 1e4a d6d6 3171 633f a752 201d d389 b23f
00000390: 1727 7a09 d0f1 b83f 535b 140c c8db b03f
000003a0: 5af6 ff7c 3d31 9b3f 0d6f 6d70 4f7c b03f
000003b0: fdbd 8e41 f212 ba3f f0b6 5574 6f49 adbf
000003c0: c490 707f 2239 bf3f aebe 0cdd e973 b13f
000003d0: c2a0 724f 6431 bfbf d938 65c5 e5b9 b8bf
000003e0: 5a54 4882 42d0 bfbf 136a 5654 19a8 be3f
000003f0: f624 56f0 2902 b5bf a8e4 655a bce2 aebf
00000400: 0507 4cb7 9951 a0bf 7ad3 04f3 c555 a1bf
00000410: 0227 7760 503c abbf 6c98 85da d697 c1bf
00000420: 39cb 412d 360d 8a3f 0b7b 8362 927f a73f
00000430: 522d 3a6d b722 b33f 7773 e07a df99 c13f
00000440: 8a09 7774 3fa1 bc3f 03a1 6112 26d9 b2bf
00000450: 0e04 6970 63b6 babf 6a76 8124 a493 91bf
00000460: 2f80 8024 874b adbf 0d80 756b 0710 603f
00000470: 2f1a e158 4945 a03f 6ec8 9d51 a6d0 b7bf
00000480: 71a5 a6ea efa1 ad3f b9b9 2a48 ef45 b8bf
00000490: 5353 debb 776d c0bf 9d92 5d8e fa59 943f
000004a0: 084f e3fe f75d b8bf 3d71 404d f862 bdbf
000004b0: a142 122f 1cad b33f 852a 8bb7 e481 91bf
000004c0: d93e 3a0e adfd c63f f017 93ae 207e 62bf
000004d0: 83a9 7335 e9f1 a0bf d3c3 86a8 df43 bc3f
000004e0: f215 20c1 21a8 7fbf 0e1c b883 2c5e c43f
000004f0: 4ff1 9d84 e3bd b1bf 5084 4ea6 c194 c4bf
00000500: 78aa fb6e 489d 653f 806e 3124 6d6d ce3f
00000510: 78f6 51cf 871f c73f 7847 c841 5c13 a23f
00000520: 664f 1bd6 2ebb b2bf fc54 2748 ddce acbf
00000530: c31f c241 3600 aebf 422b 4e9e a4fb 9ebf
00000540: bc7e 7df7 6697 bebf 15aa 8dd3 383d a3bf
00000550: d790 a1f6 59f7 bbbf bbfc 2786 46a2 b53f
00000560: e8fa b880 da76 ba3f 72d9 9a7e c92d a83f
00000570: 77f2 967b 6818 a83f 8f85 74ee 832c a6bf
00000580: a9b2 6d95 1f76 a63f 3c86 894d a211 bb3f
00000590: 41e0 0e41 c7f3 80bf 08dd 1361 15b5 61bf
000005a0: f675 9bf5 b227 b33f 3132 f307 cdc3 c43f
000005b0: 6792 19e5 f0ee c1bf 6bd4 d024 3966 95bf
000005c0: a39f 00bd a6e6 893f 57fe cec9 e903 933f
000005d0: 866c 3958 8744 bbbf bc67 7c4d 66d3 753f
000005e0: 1187 22fe e14c bbbf 95b4 3670 14fb bbbf
000005f0: c670 3703 2851 b63f 0efd 5c63 32c9 b43f
00000600: 4930 d2c9 cbee 773f 8fe4 fe50 b5a8 6cbf
00000610: 360e 1202 c3c1 b13f 2414 ba57 3b59 753f
00000620: bdf2 790a 10ef bf3f 214d 4a3d 4b04 bb3f
00000630: 6e8b badc 8969 b1bf 8685 8fc0 7f7a b93f
00000640: f84f 7606 b8b0 b7bf 39a8 e529 c148 c4bf
00000650: 3d7f 2bcc 7db0 bbbf 53e8 4892 d23a c4bf
00000660: 68b9 7992 c536 b2bf c6bb 9e25 67a6 b33f
00000670: bf20 c710 fd95 6dbf cb62 fca3 0c09 c1bf
00000680: b0f6 c11c 052d b83f 2420 ae18 c9e6 b3bf
00000690: a83b 1803 83d3 b03f 5a23 2f2d f3f5 b43f
000006a0: 64a7 9eec cb12 a03f f882 d139 4ede babf
000006b0: 07d9 9b40 c8b7 bf3f ac0a 96a9 fb91 b6bf
000006c0: cf6c a1c2 8b92 a33f 7e9d 081e 321a b1bf
000006d0: 0367 951f b299 b33f 210b 73a9 4f06 ab3f
000006e0: d8f8 e325 6f72 b6bf 9ac0 5be1 e396 ba3f
000006f0: b7b5 e47b 6c55 7d3f a950 062b e25d bfbf
00000700: bf67 05cd a7d7 a6bf 079e 448e b4cf b23f
00000710: 09a7 46c8 f71e 93bf cd86 ced0 eefc b3bf
00000720: 2100 5a3c a138 c03f acb7 8fb8 e255 a53f
00000730: 7968 a883 2187 b8bf 0edf 771b 576e 5fbf
00000740: 2267 b4f5 b865 88bf e139 cfd9 da03 b83f
00000750: 8295 f3b6 ed0a b53f ef71 4bc3 edb1 c1bf
00000760: 39eb 084c 1522 ac3f 9ab0 2446 4c5e bcbf
00000770: d4ab f2c7 7545 b53f b164 9a80 c106 9bbf
00000780: 9bdd 6075 fee1 a53f e121 f739 6384 b1bf
00000790: b410 da8a 6545 b83f ceb4 0e4c 2c90 af3f
000007a0: 432d 68a7 08aa bfbf afc0 86f9 c360 46bf
000007b0: 0961 8fed 9ed4 a2bf f0be a50c be16 a33f
000007c0: 7390 c606 b8a6 bb3f 7233 0ab2 3e6b a03f
000007d0: 1f78 631e 3c89 bd3f 0962 f64f 330d 933f
000007e0: f6c9 76e9 f2d1 90bf 98fb 6b74 d671 c03f
000007f0: bdbb 4f8d 8a2c ae3f 5f25 c6cb 6dbe 6fbf

bias f8 [50]
0.01921767444545168 -0.07584255296168871 0.036792432375251975 -0.06237810165761708 0.027942872746584614 0.08151423846457921 -0.06621419208196004 0.07188139965513864
0.005284465627846412 0.07402291002771366 -0.10421126992413267 -0.006462200158941074 0.06513022145289464 -0.05096644660750707 0.13248679182936826 0.009451132676649812
-0.03970258793820552 -0.06241104676490318 0.1427344427462581 0.1246670580345545 -0.05799943133155474 0.011541481004182804 0.08549625786023246 0.04534831972680999
0.024295675888436587 0.09605314793744854 0.09896887256033207 0.06153146595916146 0.05373831062360584 -0.1269480110660216 -0.08578123597832171 -0.06325640383258761
-0.13655044953824216 0.08839945896761406 0.06987037746014767 -0.007775760527122945 -0.046382251726526005 0.12181986848533577 -0.15654688618471616 -0.09144970504598025
-0.02858890283819232 -0.062510097944375 0.1088210463925031 0.09132488574551839 0.04836382547771872 -0.04127354809805899 -0.09581137007310592 0.03186493453726058
0.026851355667607924 -0.07721173707660954
00000000: ec59 fe4c ccad 933f 0698 9de4 6a6a b3bf
00000010: df80 952b 75d6 a23f 6649 36c5 05f0 afbf
00000020: ea56 6972 0e9d 9c3f 4b1c 5dfc 1dde b43f
00000030: 9be8 85cd 69f3 b0bf 81a3 b5c4 d166 b23f
00000040: 4c65 c6f0 29a5 753f b049 b959 2af3 b23f
00000050: 21e3 32fc 96ad babf 9558 7ca5 1b78 7abf
00000060: 6315 1fcb 5fac b03f e4c1 be2a 4618 aabf
00000070: 7b90 07c3 53f5 c03f 9b0a 0d8e 1d5b 833f
00000080: 57b6 85c9 e553 a4bf 925d 8739 57f4 afbf
00000090: bbd1 cd49 1f45 c23f 3a9e 2529 2eea bf3f
000000a0: 53e1 82f9 19b2 adbf abd6 ae5b 0fa3 873f
000000b0: 2ca9 702f 15e3 b53f 7376 4f1c e537 a73f
000000c0: 570d 8035 f7e0 983f 86b6 1169 f096 b83f
000000d0: 5af7 f726 0656 b93f fd66 f063 0d81 af3f
000000e0: e762 577d 9683 ab3f 4410 e919 d53f c0bf
000000f0: 6429 2353 c2f5 b5bf 7339 b959 9231 b0bf
00000100: 29ab 8231 7c7a c1bf c2ff 3fd1 58a1 b63f
00000110: cf87 266a 06e3 b13f 1bf9 a5d2 79d9 7fbf
00000120: 627f 8f1c 6abf a7bf 10c5 253f 962f bf3f
00000130: 591c 3a76 ba09 c4bf a7bd 6674 3f69 b7bf
00000140: 90cd dfca 6846 9dbf c741 576a a900 b0bf
00000150: 074f 5f33 b2db bb3f 1c83 9655 1161 b73f
00000160: 37f6 78b1 24c3 a83f 97c6 8a76 ce21 a5bf
00000170: 8887 0c0d 1887 b8bf 0014 74c7 9950 a03f
00000180: ed55 c8f9 eb7e 9b3f f783 9cfd 25c4 b3bf
