lasa_models/4/skel_model_Worm.pt (torch, 99247 bytes, 18 tensors)

R f8 [20, 20]
00000000: 6a98 599f e1d0 db3f 36bd c5f0 f5d1 c03f
00000010: ef6a 284e c638 d23f fd35 634b 32dd da3f
00000020: 7998 64c7 aa85 e73f 5165 0ed0 1f30 cc3f
00000030: a2b4 ff17 e006 e23f eef0 b9f1 33f0 eb3f
00000040: c21a db27 bc2d 9f3f 29f0 6b7b 8b72 c83f
00000050: f57e 00b2 5727 c33f d89e 2a94 c143 eb3f
00000060: d55a 5425 9993 da3f 0855 bfa8 9054 cb3f
00000070: 74ef fdc7 6c78 e63f 634a 1c40 812d e63f
00000080: 10e8 cb4a a0cd ed3f c8c1 e411 7f18 af3f
00000090: 87cc 6f59 50d5 e53f ab46 8410 fff7 c63f
000000a0: e830 d240 af3d e23f 80ec 69ce 8261 cf3f
000000b0: 5911 9c83 2965 b53f 1ed3 b66c 1bb7 a93f
000000c0: 5af6 1887 c170 e03f 6267 4bc6 6f08 ee3f
000000d0: ed6c 08c3 d086 d43f d8d2 e05e 5d7c e33f
000000e0: c257 87c7 a39f e83f 2756 2943 d153 e43f
000000f0: 2eed a90c 4a08 db3f 0cce 847e b903 df3f
00000100: fbca 2c6d 0e93 cf3f b71e d1f3 6140 eb3f
00000110: 91bd ae36 a94f d83f 53c9 1881 f4cf ec3f
00000120: f690 3c8a 2093 ea3f d863 8777 86ff de3f
00000130: 6936 ea95 1d3e ec3f 7560 3fa5 cc2c e33f
00000140: 0f5b f6de b7d0 d13f 1e1b 3c0d c38f d63f
00000150: 10d7 00b8 8d7c a93f 373d d3cf 0273 ab3f
00000160: cc6f f980 8cb0 c2bf 96e0 52f7 9c3b ef3f
00000170: 3b72 8706 776a d93f 99f0 4785 2617 e13f
00000180: ee0a 0fbb 40a5 f43f 6b36 7952 e1a9 d33f
00000190: 03bb 6fcd 99ed ec3f a7cd 8070 dd6b f23f
000001a0: a923 6c4f 4412 b0bf 497f fb9b 6d6c c2bf
000001b0: 8e66 fe40 6a9b ce3f 5ba7 2c2e a1d1 e83f
000001c0: 9335 b4c2 9268 c33f 331e b841 113c e73f
000001d0: 3533 1d1f da14 ee3f 3f0d 5848 851d db3f
000001e0: 0332 a6aa d490 d33f da2f 5475 80f2 d73f
000001f0: a755 1d7f 955b e53f 0ec5 41ce 6bdf d73f
00000200: 9dbc 97a9 8a88 d53f 99cc 307c 658e 98bf
00000210: b5a3 9cf4 c7cf e63f 4728 d838 047f e13f
00000220: 5058 eb48 2094 d93f 4651 6484 2e91 e53f
00000230: 064c 6f32 f1af d43f 82eb a468 ada4 f13f
00000240: a6d0 a33c 17de df3f 96c5 9d79 d713 d63f
00000250: e1c8 397e 1f5d d03f 3cd1 567d d41a d43f
00000260: 3d1a fdfb d266 cd3f 78dd 5144 6e26 e73f
00000270: f2d6 92a7 5f2d f13f 87b4 8823 2644 e83f
00000280: b07c 370f 3ece e73f ea2e d1f3 a678 d73f
00000290: 3eda ca3f cd6d d23f a45f ac87 d2af e73f
000002a0: fba5 ead5 75e2 eb3f c9ec 7856 d9cc ec3f
000002b0: 7a3b 2184 7975 de3f ad67 3d23 cd2e d33f
000002c0: c8b7 3f09 0e2b bb3f c8f0 cd40 adaa d43f
000002d0: dabc d6b4 f500 eb3f 6cd3 5996 6cfc bf3f
000002e0: 4855 2952 a516 f03f 0ba0 cb21 f29b ef3f
000002f0: a698 9911 b6d3 e43f dc26 4d98 e3ee ee3f
00000300: 519d f12b 7718 d43f 2812 785c 3ec8 e43f
00000310: 44db 237b 449b f03f 6342 7a5d 61e3 d13f
00000320: 9d7e f393 41b8 ca3f 9bba 3885 486a ec3f
00000330: 4ee5 f2a6 c84b e93f 01f4 2117 ed03 e23f
00000340: 39ee 1656 2108 e43f 80e0 248c ecd4 db3f
00000350: 4efc a238 f466 e83f 7b93 0d23 8fa1 acbf
00000360: 8348 221f 8819 e83f ad1d 8342 21c9 e63f
00000370: e5b8 a305 c168 9f3f 6ab8 b71d 494a d23f
00000380: c697 0583 5f40 cd3f 6305 5fbe d63e eb3f
00000390: 6f39 aedd 941a d13f f982 22ab 9edf e63f
000003a0: 5345 d877 d87b b93f 974f 20f9 77da e43f
000003b0: 3a0e 8d05 8a51 ea3f 8688 0eaa 7906 ea3f
000003c0: 81d5 5f72 0bdf e13f 69dc 7ce0 393f e33f
000003d0: 48ec 6916 a823 ec3f ffc8 2095 74e4 e33f
000003e0: 48a6 4b33 9f6c df3f 9340 7fa9 b41c a4bf
000003f0: 7c92 90e5 c820 dd3f 853f f9b4 a2ca 86bf
00000400: 3132 a33b becb d73f b6ff 4440 a336 ee3f
00000410: 3d91 9ca6 fabd d63f e901 9e3b f0b2 e53f
00000420: 0a15 f4ce 85b0 d93f 6ec7 060d 9ea3 e23f
00000430: 5ee4 81f9 2f80 cf3f f450 f4f9 c481 d83f
00000440: b655 a933 8510 e83f 4f68 3a8a 0dfa d33f
00000450: 3115 28cb 4c9f da3f 63ef 883f f73d dd3f
00000460: 101c e7d1 84d6 80bf 8fc1 4b06 8ec5 a63f
00000470: eb31 9945 d06d ed3f 3d58 8958 af87 e13f
00000480: b581 d364 c240 ee3f f5d5 cd0d e6e7 b23f
00000490: abe8 a524 cd00 e93f 3c7b 73fb 7e2e c63f
000004a0: 5c87 7e7d 7d6c ef3f 930b 028e 3fda d83f
000004b0: 0307 465c e2cd b93f 83cb 4f94 8e98 c03f
000004c0: 39f3 905a 474e bd3f d4bf afc3 0f7d c33f
000004d0: 88e5 1b97 e724 f03f 478a bbfa 317c b0bf
000004e0: 5c8a 1941 8514 d63f 4d51 8aaa 2e64 b83f
000004f0: 4368 6f82 74d3 e93f 1d6c 0dd6 f12b e93f
00000500: 3c13 3504 aff7 b33f f5ab 11ad 7dcd e93f
00000510: 8b8c f283 ca6e e43f 6442 21fc a9f5 ce3f
00000520: c696 3f6a 4e61 d83f c8e6 dae0 ac67 ba3f
00000530: 2639 f0cd e948 e83f 1843 de4d 2ab0 e93f
00000540: 2b13 a0d5 a657 ea3f fc12 dd46 dab8 b4bf
00000550: ec04 5037 387e df3f ab48 9917 51f5 e83f
00000560: 72b5 cd42 e81d d83f e82e bff8 0dba c0bf
00000570: 156c 7bc5 e086 b93f 5a46 30ab 5a07 ea3f
00000580: dc7e df2d b03d d63f 223e 9d4c cbbf d13f
00000590: bf36 2df3 81fc d13f 8d85 9603 e379 dd3f
000005a0: 10de b1ec 7e55 d83f 6ec9 1b29 4da0 d73f
000005b0: f210 b1c3 7a68 cf3f 93b3 4368 4e7d c33f
000005c0: 8108 d394 1e8c cd3f 5355 fea7 db00 e23f
000005d0: 4a38 d825 eeac c93f fc0d 6ee5 1039 963f
000005e0: 025c 832b 1b8c e03f 888c 24b2 9b16 c83f
000005f0: 37af 8e86 a5b1 e73f b4ce d7e7 49c8 e83f
00000600: ef13 890d a6b9 e93f 5922 d7bf 02cc d63f
00000610: 6453 187f 403e e53f 9cdc a07f 90db ee3f
00000620: 74df bed0 0fbd ca3f 1839 fac9 0a3d c83f
00000630: b9c1 4b16 b0b0 ed3f 5fb8 1ce4 6121 d43f
00000640: 8453 29e9 a830 e63f c850 8a8c d825 da3f
00000650: 0fb3 b43b 7336 b0bf cd20 f6dc 3b9d d93f
00000660: 713a 3162 1e65 96bf 2a39 0a81 68c9 ec3f
00000670: 5327 8314 ed82 d73f af4c c75a 0451 f13f
00000680: 0ddf a1ec ed72 e53f cf65 91a2 3203 e03f
00000690: 186c 50ee 05bd c53f 1961 0f03 8ad4 df3f
000006a0: 435b 1743 093c ec3f 655e 8860 05bd b8bf
000006b0: 0e56 f00f a27f a2bf a6dc ccef f279 e33f
000006c0: 5f78 705c e290 d03f 46a9 eaaa 40fd db3f
000006d0: 8d95 054b 4290 e73f 70ee 0746 4b4c e93f
000006e0: fd82 deb4 2f3a ee3f afce bd0e c4d7 e43f
000006f0: 0c36 e9ee 1c39 e73f eaee 47df 8897 cd3f
00000700: ecdb b57a c1d6 e73f db23 0e90 3678 e03f
00000710: 5dca e01a fec1 e53f 135e 673e 49a8 da3f
00000720: bba3 de46 0305 b5bf b794 99a5 e135 e43f
00000730: 3a03 c6ca e220 ed3f ca70 3615 46cf e23f
00000740: c5d0 7e95 884c ec3f ef1a 7fa2 69c4 dd3f
00000750: 9cad fbe3 d8d9 e33f fa61 14ae 87b5 e33f
00000760: 3eba 64af 3c4f dd3f 13ee 4fe9 36ae d13f
00000770: 2ea0 6500 5cbd 893f c959 e98e a162 ed3f
00000780: 2504 7c91 2867 de3f 6c0e 9590 9ed2 da3f
00000790: 52ed 0411 4394 d33f aa5b 83d8 2663 e63f
000007a0: 38a7 7c04 7032 e73f 0c8c 1d30 c594 e03f
000007b0: de4b 939d 0cb1 e33f 32a7 f13d c55a d03f
000007c0: fd19 5bf9 36e2 e43f 1f59 bc6c 0fe6 e13f
000007d0: 38d4 187c cc37 d93f 6fab 2314 e023 ec3f
000007e0: 9429 9c6d 5dd6 dd3f 4bc7 1783 ff74 e53f
000007f0: e731 9943 4773 a13f 28d0 3394 56a4 e93f
0.43462410508653326 0.13140749222245923 0.2847152484188617 0.4197507606703253 0.7350667852777085 0.22021863612170958 0.563339278099779 0.8730716439454491
0.030447902615174945 0.1909956314701742 0.14963813964367714 0.8520210164906201 0.4152586807771688 0.21351822127932274 0.7022003084270936 0.6930547954710388
0.9313508473271686 0.06073376744678033 0.6822892901240188 0.17944324785689977 0.5700298563038162 0.2451632984046661 0.08357486212850541 0.05022512151791701
0.5137641562102531 0.9385298607769352 0.32072848364050693 0.608931241330164 0.7694872757954203 0.6352316200015523 0.42238093601891336 0.4846023307356695
0.24667530375298682 0.8516092073486651 0.3798621210107394 0.9003851434156708 0.8304598522122706 0.484346024253282 0.8825824668908356 0.5992186763278499
0.27836415074982396 0.35252453129253236 0.04977839347013291 0.053611839169770574 -0.1460128431089046 0.9760269957105432 0.397123104454099 0.5340759852547478
1.2903449351294358 0.30724366239596773 0.9040040028029072 1.1513342280057743 -0.0627787298109427 -0.14393396488503132 0.23911789105914177 0.7755895521015462
0.1516288233473629 0.7260824473932587 0.9400454147049461 0.42367679657782625 0.3057147661682224 0.37417613466163646 0.6674296839434434 0.3730115427234332
0.3364588409594463 -0.023980699257844938 0.7128639009071011 0.5467549429170128 0.39966590043093664 0.6739723764208427 0.3232386581923382 1.1027044379868305
0.49793034479012943 0.3449610412272589 0.255683778064066 0.31413757553243093 0.22970044426092953 0.7234412512179196 1.0735775514453363 0.7583189672492531
0.7439260766222073 0.36673902330652075 0.28795176725126115 0.7402126932020008 0.8713940790232181 0.9000059784806577 0.47592008498479965 0.29973152581589596
0.10612571454814124 0.3229172833305367 0.843867161942309 0.12494543715167844 1.0055287560874877 0.9877863559786432 0.6508436530828206 0.966661260093328
0.3139932564867723 0.6494437986407933 1.0379071054610032 0.2795031941286991 0.2087480518739441 0.8879740335449527 0.7905009518355344 0.5629792644318742
0.6259924584805453 0.434870850428986 0.762567625635606 -0.05592009833234265 0.7531166656574587 0.7120519923272944 0.030673042267999846 0.2857840337954999
0.22852701089430932 0.8514207571208029 0.2672474064683205 0.7147973387219216 0.09954598356150272 0.651668535780561 0.8224535091798721 0.8132904359265616
0.5584771379350714 0.6014680275465142 0.8793526113289625 0.6216376221330221 0.49100475320173986 -0.039281507196961794 0.4551260225146405 -0.01112868418491054
0.371810491790515 0.9441696410431095 0.35534540434516143 0.6780930675886881 0.4013990899114367 0.5824728254722069 0.2460994690225417 0.3829204979858922
0.7520166405690165 0.3121370172390287 0.41597289886006467 0.4569070930917773 -0.008221662193035356 0.044475973385377114 0.9196549758285618 0.5478131036022728
0.9454051942121199 0.07385099255574075 0.7813478198798028 0.17329394605527593 0.9819934321460368 0.38832081668822943 0.1007977938916405 0.12965566865713293
0.11447568856324332 0.15225407652860545 1.009009924191874 -0.06439506884957168 0.34500247342490353 0.0952786604269182 0.8070623920023156 0.7866143398963491
0.07799810269086732 0.8063343410734648 0.6385243012522478 0.24187207041770187 0.3809391057569481 0.10314445962549279 0.758900549147971 0.8027545472014905
0.8231996700638765 -0.08094562749927187 0.49207883264177954 0.7799458943284397 0.37682539485725564 -0.13067793508377368 0.09971432515469332 0.8133977263953043
0.3475151489237598 0.2773311851678689 0.28103684184757677 0.46056437826526847 0.38021824946142235 0.3691590215159043 0.24537596278435775 0.15226154414213208
0.23083860651792423 0.5626047402499047 0.20058991287118239 0.0217020645172976 0.5171027994027784 0.18818994711282166 0.7404353740762194 0.774449303453784
0.8039121879925214 0.3562018273774235 0.663849113686052 0.9643023007146385 0.20889470760971174 0.18936285841159228 0.9278183398692398 0.31453749920445334
0.6934399179395858 0.40855993008268543 -0.06333084304487734 0.4002217920137923 -0.021870112174207926 0.8995859642325617 0.3673660946193326 1.0822795434985826
0.670279466793518 0.5003903556018318 0.16983102928574634 0.49734735773883326 0.8823286352515897 -0.0966342316318048 -0.03613001293721761 0.6086363490675424
0.258843031189718 0.43733231249884275 0.7363597359914579 0.7905632369797342 0.9446028263665479 0.6513386047285702 0.7257218042593094 0.2311869707335668
0.7449653050124403 0.5146744550303269 0.6799307370150235 0.41652136892432273 -0.0821077392598814 0.6315773233769936 0.9102643928928054 0.5878019728002297
0.8843424720603471 0.4651130759124688 0.6203426792903204 0.6159094238274172 0.4579612458063912 0.27625820907971493 0.012568205606569984 0.9182899276009319
0.47504629332985565 0.4191051876007126 0.305924193020208 0.6996034840366196 0.7249069297442707 0.5181604327921163 0.6153624608654089 0.25554019021238894
0.6526141042930359 0.5593335269684622 0.3940306865582133 0.8793793099733714 0.46620879844763263 0.6705319939048676 0.03408262920547483 0.8013108152940775

L f8 [40, 40]
00000000: e1a4 6e7f b434 db3f 7463 73a9 7db2 d83f
00000010: d0da 96e8 05c1 a7bf cee6 0b44 7c3a e73f
00000020: 0750 038f 4acc ea3f 2c4e b09e 406e d23f
00000030: 4cd1 dcd5 17ab dd3f 867c 94d6 06b3 db3f
00000040: 1f0e 2fd2 f3d0 d73f 819a 662b 50f1 c03f
00000050: b25c f57e 93c4 e13f 6a3c 082b 26b0 c63f
00000060: 4804 4962 a9e2 c23f 17db 2f30 f93d e23f
00000070: e4f5 85b9 c170 ca3f 3d79 958b ab79 e43f
00000080: 0fbd 4ca6 dcfb c53f e0ce e7c8 4ddc e73f
00000090: 3547 e918 1c91 e73f 652b 1692 4251 bf3f
000000a0: 60f6 f1d9 f947 e43f d2ae 5193 cd0e e23f
000000b0: a3fb fbba 84d2 ec3f cf6e 319f 5a48 db3f
000000c0: 86cc 031c 2b07 d23f 5987 bed1 ddbc d83f
000000d0: b7d1 4265 7b5a e13f 3aa8 be14 3119 d73f
000000e0: 2ccb fc2f f91e cf3f 9ede 9243 0c08 ea3f
000000f0: 8375 760e 310b e83f a113 3b66 81f4 e43f
00000100: 666d 4e6a 9846 e53f feec 02b0 1c11 d83f
00000110: 98af edeb 1b80 90bf 1ae4 73cc 9d37 d63f
00000120: 8030 a614 8a9f e73f f659 ff5d 76f1 d93f
00000130: 4882 6041 b915 d53f d898 f3c1 bf61 e23f
00000140: 9cd2 863c f2d6 e43f 08ac ac8a faad e83f
00000150: 7d9e 8148 fe8c cb3f 2366 5baa a714 ec3f
00000160: bbd2 762f 6730 d83f 5efd 57e2 8947 e33f
00000170: 9f27 6534 3986 e13f 4c8e 8c21 4541 e63f
00000180: 8055 f3bc c64a b93f b5bf 8179 3553 bc3f
00000190: 95a0 f525 2b9f cb3f 89e7 93cc d0a7 b43f
000001a0: c8ac 6047 379c d43f 13c1 24a2 37c0 c83f
000001b0: 4335 65c0 8c12 d53f f415 6c13 979d eb3f
000001c0: beec f0e3 13d2 e13f 5cc0 193c ae38 ce3f
000001d0: d2f4 0add 6d86 d83f 3e35 64c5 a067 ea3f
000001e0: 6940 7881 732d db3f c7e4 3c96 bd8d ea3f
000001f0: a6b1 3cdd 3e88 e13f 6163 7c5d 62e5 b93f
00000200: 1f77 27e7 87c6 e93f fe1b 10df 2217 c73f
00000210: c5bd 6175 ab34 ce3f 02f4 d794 8c86 d93f
00000220: b27d 1dc5 850a d23f 8a29 8a8f 8e3c d63f
00000230: b60f ce9f e862 e13f 4478 ebbc 59ea d73f
00000240: 1c69 2029 8790 e33f 3a92 1515 11ad 91bf
00000250: 72a0 7d11 8951 d63f b0ba 4ce3 d757 e03f
00000260: 53ae 50aa 5e28 ea3f b363 870e 4e0f e53f
00000270: 3ca0 b40f 737c e53f 359d b274 f6d4 dd3f
00000280: ec83 5a76 3123 c53f 320b dd3a b11e d43f
00000290: 1f0d fa7a d84b c63f 2e6e 5c3e 828a d53f
000002a0: 3dd4 62f5 4ec0 da3f ebb5 b595 2fb4 e73f
000002b0: 00c1 3994 cd4a d73f 086f b835 d508 ee3f
000002c0: 8e61 6fdc f16e d8bf afbc c37f 4c8d cf3f
000002d0: 9cad 6485 2b17 c3bf 40f5 0f58 b4ae b23f
000002e0: a033 2eb3 b855 dd3f d223 51e0 4a7e fa3f
000002f0: e182 81fe 07ad e23f a360 5ded c6e5 e33f
00000300: d73e 2da8 36fe dc3f 3095 e7de 7f78 c93f
00000310: 0169 f441 3d8b ea3f 87bb b888 83ca e33f
00000320: 8b56 c90e 36a9 d73f 57f0 b138 c127 c73f
00000330: aeae 143b ec9b ef3f 5348 101b aa7c df3f
00000340: 7a58 44b9 f6f4 dd3f 680d c349 b352 f13f
00000350: 5dc8 88aa 14fb b9bf 848f e465 d1fb d43f
00000360: 5278 2efb 1d69 f13f 6ea6 b743 5039 d6bf
00000370: 3f8b fe2b 98b8 ed3f 3c3e 9f01 e554 f03f
00000380: 7e92 0a5e 1376 df3f a490 1e5e c308 e83f
00000390: 897c 6b7d acc7 da3f 7adb d2cd 921a e23f
000003a0: 8512 fc09 55ff de3f c824 4a60 6815 db3f
000003b0: 3fc6 63f4 a665 ed3f 6eca ddc2 c12c ef3f
000003c0: 6fda ce73 b65f ca3f 6547 59e0 894c da3f
000003d0: 20f3 0210 caa4 cf3f ba24 03af 02c5 da3f
000003e0: 6313 e3a4 4718 dd3f d4a9 a76f 2a1e e03f
000003f0: 0d83 9909 1fd8 e73f b966 f6c5 b204 ed3f
00000400: 4d68 7081 d354 df3f b689 e2a4 5a8b e13f
00000410: c155 d7a7 d67d d13f 9a2d 3d54 7591 e83f
00000420: d068 9d09 5466 d63f 0d04 83e6 6336 e53f
00000430: 057c 23bd ee5f d63f 1f55 f0ba 0f7a e23f
00000440: 0872 31bd 9b71 dc3f f04d 404c 03a7 dc3f
00000450: 9ce7 064c 76db d53f c5e5 f0c2 89cd cc3f
00000460: a484 c332 c2b9 e73f 00a4 9a8b 870e d73f
00000470: 6c22 51ca 093a e33f acaf 73fb 7668 d63f
00000480: fb8d 1dd1 3472 d83f b1ea 8cb5 d2cc e23f
00000490: 7042 7b46 acfb d43f 5b78 be36 951f d53f
000004a0: c31a 92f3 ae7f d83f ad64 95b6 3310 c43f
000004b0: ed2f a9e9 a8b0 d43f b813 c8c4 0c40 df3f
000004c0: 2edc c84d e1db e23f 88f0 6482 5c89 e43f
000004d0: eb90 2b71 be5b e03f e386 e191 ab4d d73f
000004e0: b832 efd2 71be dc3f e74a b60e 3671 dd3f
000004f0: 4a0f 67a9 fef6 e63f 5c1a 39e3 8ae0 d93f
00000500: e056 174c 5bb7 5cbf 4263 612f 0fbd d23f
00000510: 2a92 a909 e27b f03f c351 8a9c 1ab6 f03f
00000520: 2178 01cd cee5 e53f 4e84 b7ae 182e c8bf
00000530: 25ce 318f c73f e43f eccb 90cf 622e d13f
00000540: 9ffa c991 6624 e03f 0f61 8ff7 f0d4 d83f
00000550: b2fe f472 4e73 9abf 35db 213e d9b7 e93f
00000560: a28f a3b8 ba71 ca3f d9cf 2c1c 2906 e63f
00000570: 3f9f ab28 4240 eb3f 71cd 5b94 66c1 b43f
00000580: 11ea f801 c880 d93f dbf8 386a e724 e23f
00000590: 9c79 7c7b d129 e43f a273 8523 676c e73f
000005a0: fa95 4dc2 ec79 e23f 8352 8cb2 40f3 e63f
000005b0: 6b0e b681 4bfb d13f b3a0 e715 f093 e23f
000005c0: b4cb 8a92 773d e43f f20b 0983 16af d23f
000005d0: d2f1 05f0 37d1 e53f d716 ff96 05d3 e63f
000005e0: 352d 8665 4fcf a23f 107a cbdc c0f7 ef3f
000005f0: d746 36ff e0eb e23f 2620 c139 7175 a83f
00000600: add3 e589 63fe e83f 4e2a c47e 470e c3bf
00000610: 3595 20b4 ddfb dd3f b4b7 4a9a e4e0 e93f
00000620: 21b6 3e54 ff5d ef3f 88f3 5a61 a592 c43f
00000630: 095c b08a e649 993f 5f50 f8a1 c5c9 e63f
00000640: 738a 0403 8622 ee3f e364 45fa 6322 d33f
00000650: bd59 d7c9 afe2 d73f a84d 218f b11d d23f
00000660: 9d83 1fe4 e290 e73f e793 7d79 6429 a9bf
00000670: 815d 8bc7 734c f03f fa14 5e76 8dee d43f
00000680: 45a3 d32d 98f8 cd3f c375 4a87 8a91 f03f
00000690: 651c 68a5 84b4 98bf bd8e 602e 98d8 e83f
000006a0: 96a6 f13f b313 d93f 45a6 fec4 91f3 e03f
000006b0: 9e66 deb4 e5bf d93f c42e 331e df88 e13f
000006c0: 3f8c 88fa cb5a e23f b7fc e66d fdf2 d23f
000006d0: 64d9 48c5 d3fc e73f dee8 b188 45b5 b73f
000006e0: 776d 1e32 3819 db3f 860b 1c3c 6656 ed3f
000006f0: 2abe 8352 87b7 e93f 8ae1 ae41 9046 e33f
00000700: 8b14 78ec 3255 a3bf 4597 b737 477f ed3f
00000710: 5f63 279e fd86 df3f 1bf8 0c56 6fdc c83f
00000720: aa3e 0e66 2d73 e63f 8bdd 9f77 d009 c23f
00000730: 699c 1846 9094 c63f 6e63 6275 a49b c53f
00000740: 4112 91dd 3f40 e83f 73c7 c776 528f f03f
00000750: 8723 6a2e 8a73 ef3f 7c66 f7f5 4ba5 e23f
00000760: c4a1 3804 a43c d93f 6297 4264 e60e a73f
00000770: da93 dff5 2b57 e43f 0112 524d 2969 e13f
00000780: e41a abd9 9ca8 ee3f 39b1 9368 a816 de3f
00000790: be0d 7b1f 7671 f03f e019 cc17 90d8 e63f
000007a0: 7b0a 3fdc 581c e73f a5d0 7c5c 1c7f cb3f
000007b0: 28a5 114b 2e1b e43f 5cb0 fe9f 028b d93f
000007c0: 73ad 2810 7e17 e03f c546 abab c8ad e63f
000007d0: 3bb4 6770 2616 e63f a846 b35d aa33 e93f
000007e0: a7e3 83cd 60cf f13f 2c05 167d 0e0f e93f
000007f0: d3f8 300c bc1e e03f fcb6 ffcd 6db4 e43f
0.425091862149726 0.3858942179481837 -0.046394524233098644 0.7258893326790827 0.8374378960820658 0.28797927376692445 0.46356769452110735 0.432801923323446
0.372128443963648 0.13236429328135915 0.5552461127907888 0.17725064374141947 0.14754216479380688 0.5700651112700567 0.2065660625338942 0.639852306961792
0.1717487155924364 0.7456425594268374 0.7364635931537352 0.1223336798340547 0.6337861305943981 0.5643070103955898 0.9006980564152979 0.42629113718224415
0.28168752418350385 0.3865274952205389 0.5422951677087927 0.3609125807366841 0.2431327328027576 0.8134824104117404 0.7513661653971869 0.6548468586630528
0.6648675991340667 0.3760444372998818 -0.016113697314196068 0.34714455572208325 0.7382250216774224 0.40536269359054644 0.3294509066054485 0.5744322574726324
0.6512385542069583 0.7712376316534355 0.21524027386043434 0.8775213553701103 0.3779542888180846 0.602482740476187 0.5476346991865632 0.6954675345663843
0.0987972461037625 0.11064466682887437 0.21579493859758672 0.08068566317152039 0.3220346638724547 0.19336600701490933 0.3292571905957013 0.8629870776500739
0.5568942501044132 0.2361047547779006 0.38320490442476995 0.8251499038030159 0.4246491207459316 0.8298023161252325 0.5478815384899931 0.10115637571688076
0.8054847254495349 0.18039356128448952 0.23598235351117416 0.39883722815994826 0.28189224481135533 0.347446098494992 0.5433238145055757 0.37367862176131816
0.6113925746206266 -0.017261759673959022 0.3487265272910981 0.5107230605552413 0.8174279524295777 0.6581182750479598 0.6714415842770971 0.4661232127786719
0.1651365116022413 0.3143733095968627 0.1741896248314356 0.3365789040560426 0.4179875751827387 0.7407453464526815 0.36394061541706435 0.9385782288768221
-0.3817715313612319 0.24649959791665796 -0.1491445924124094 0.07297827863654494 0.4583570241746262 1.6558331262951822 0.5836219759767937 0.6217989574461352
0.4530159609175661 0.19898985275282532 0.8294969833544031 0.618470923456571 0.3697028297805011 0.18090071934045923 0.9877835420533836 0.49198391573839223
0.4680764016387752 1.082690513737214 -0.10148743785319554 0.3278697485968609 1.0881633579042682 -0.34724814045930585 0.9287834986938391 1.0207262099610395
0.4915817659732865 0.7510697210568833 0.4184371208957108 0.5657438297265422 0.48433423972191064 0.42318162349017685 0.9186587117421324 0.9742134862884322
0.20604591993988516 0.4109215441613883 0.24721647054493534 0.4182745656112946 0.45460692503211514 0.5036823445091678 0.7451319873326568 0.9068235269980597
0.4895523799947384 0.5482609959038232 0.2733055724214318 0.7677561421673318 0.34999562205269985 0.662889433115312 0.34960525961463446 0.5774000788830199
0.4444341037358588 0.4476936573639412 0.3415199034167189 0.22502252596477326 0.7414256087760305 0.3602618087120959 0.6008347465040749 0.3501260238251642
0.3819706003325504 0.5875028177172991 0.3278608978553512 0.3300526651963815 0.3827931765194245 0.15674444594586615 0.32328245943494843 0.4882842942900498
0.5893408316832216 0.6417677447093562 0.5111992082934455 0.3641156124705118 0.44912381743487684 0.4600348609612141 0.717650729050072 0.40432998838187983
-0.0017527000021479375 0.292789264936392 1.0302448632657026 1.044458972440325 0.6843027118700357 -0.18890675097557835 0.6327855870026197 0.26845617551879175
0.5044434401932739 0.38799690414227056 -0.02583048416749873 0.8036924565811662 0.20659574523517416 0.6882520246786 0.8515940470069622 0.08107606050525874
0.3984851855526879 0.5670048784884573 0.6301047717895929 0.731982774140864 0.5773834032995062 0.7171939360874408 0.2809628264151118 0.5805588176563304
0.6325033056403897 0.29193651958865907 0.6817893684342897 0.7132595013760817 0.03673790087040133 0.9989933311842965 0.5912938103303657 0.04777101354608275
0.781053323108258 -0.14887326898345282 0.46849768248133056 0.8087027562630653 0.9802242894563201 0.1607252812736102 0.024695970740221927 0.7121303714252568
0.9417142924251735 0.29897403183492893 0.373210856543121 0.283062352920036 0.7364363151101433 -0.04914392455138011 1.0186651034071874 0.3270600944454852
0.2341490005267365 1.03553250167839 -0.02412612208902622 0.7764397531322725 0.3918274044468516 0.5297325942567076 0.40233748114551726 0.5479579534380368
0.5735835927229188 0.29608093006749975 0.7496126988615228 0.09260973536757741 0.42341427702350337 0.9167967962279 0.8036533938993149 0.6023637087701428
-0.03775939117989776 0.9217868889070152 0.4926141781302728 0.1942271394891016 0.7015597337030688 0.14092450943983822 0.17640880034125253 0.1688123295941994
0.7578429534410774 1.034990753160369 0.9828539759192702 0.5826778224975011 0.3943262139532886 0.04503555272940109 0.635641079160105 0.544087077156803
0.9580826045356301 0.4701329251536382 1.027700541469002 0.7139358963766504 0.7222103406605379 0.21481661334985805 0.6283179727735488 0.3991095125627504
0.502867728767724 0.7087138512526613 0.6902038760578145 0.787556822784798 1.1131294277131276 0.7830879633985766 0.503751777468802 0.6470250152030697

weight f8 [50, 4]
00000000: 2c00 6611 4852 d1bf 5cd9 c223 7083 a53f
00000010: 4e2e 1008 cf02 8c3f eb9a aadb 6bb9 c93f
00000020: 1e94 0812 eae4 dabf 6b13 c650 fe84 843f
00000030: 4b0d 1009 08ae cd3f 88d6 10f7 b139 903f
00000040: 9a37 3014 99af cf3f 6d31 3ac6 5511 d3bf
00000050: 99f8 4b99 f348 d63f 9b66 9d90 f353 ba3f
00000060: 5727 d221 4069 d43f b75b f818 cf34 d3bf
00000070: d603 d4f5 619d b5bf 96ef 7fb6 a905 df3f
00000080: 8d83 5ab2 a661 e0bf ad2b 9899 6209 ccbf
00000090: eef2 e476 67b9 99bf ff4a 2809 b75c c9bf
000000a0: 5258 1f3b e7f3 dabf 1863 030d 5f23 c7bf
000000b0: f994 be0b 5e56 b33f 4aef 54e4 b615 d5bf
000000c0: 3638 fe38 e6fd a23f 7ac5 479b a6b4 a0bf
000000d0: 6580 1248 2d34 bfbf 49d1 c306 afb3 d1bf
000000e0: 69b1 d2f1 1b0b d4bf 6506 2772 fff9 de3f
000000f0: aa71 f76c f65d d33f 1407 bf79 0d4f b1bf
00000100: 418f 34d8 e8a9 d4bf 510d af55 7199 d23f
00000110: 1649 7888 48ac d73f 8da1 185b 9898 b0bf
00000120: 438f bd20 6193 c3bf b2f0 6baf d823 cabf
00000130: ebdd bd76 992a d13f fc72 01d5 e382 b4bf
00000140: 6c57 63be 03b8 ca3f 6a30 ef46 f7d0 c9bf
00000150: 6335 6ef0 51e1 cebf 6573 975b e458 c7bf
00000160: 1b80 be91 1251 d73f 53c4 564e a218 c23f
00000170: cb22 bc53 40db ccbf 5fc2 5b36 6ba7 b8bf
00000180: f30e 6463 b501 d9bf a805 af5c 8d8c dd3f
00000190: 0c0f b83f 7816 ad3f 9a9c a80e 7742 d8bf
000001a0: d7d4 5361 c70f ddbf bd5e 1984 a356 e03f
000001b0: 57e0 7b53 943c e1bf 9384 6a89 d390 d8bf
000001c0: eeba ad74 1021 d6bf 7177 2e1f c29a d23f
000001d0: 71c7 6d2c 4e20 c5bf 334a cc2b f2dd ccbf
000001e0: af0e e32f a553 c03f e337 5b1f 5a43 d73f
000001f0: fe67 122a a0a4 ce3f 0c47 411c 8873 c6bf
00000200: 89b3 2b1b 7487 b9bf 9cd7 4361 d7f1 b2bf
00000210: 632c a9b9 0ffd d03f 78e1 ef1a e5f5 8e3f
00000220: 1588 91ba de62 d23f cf98 3723 28e6 a73f
00000230: b7f1 3b24 61f3 bbbf cf24 a3ff 75a2 d03f
00000240: b851 0e29 bb05 d2bf 898b e941 4435 ddbf
00000250: e31f 6700 71e3 d93f e1da 0cb1 8846 cfbf
00000260: f801 e942 b26d a9bf a860 0fd3 cdac c93f
00000270: 925e 470a 0aa2 7abf 918b c644 f828 e1bf
00000280: da1a e081 76d0 d23f e6a9 ae8b bd05 dc3f
00000290: 70bf 6d93 d1b9 dc3f f59a ba6d b375 d3bf
000002a0: 135e fee3 3e60 d73f 49f0 9e51 9ca0 da3f
000002b0: c739 4560 3bc7 dcbf 2763 ea47 f988 b93f
000002c0: 736a 7c0b 9cd8 99bf 4d5f 8ee1 5d73 dcbf
000002d0: 6362 d37a 4046 d8bf 958a 9e23 2264 d33f
000002e0: e5f0 593e c587 d0bf f6e2 0572 8990 cf3f
000002f0: d6cb 49b0 e585 d13f 6e6e 5a76 e8c4 ca3f
00000300: 6e6c f7cc aec8 92bf a35c 0afb 91a1 cbbf
00000310: d2f6 d6f1 d173 b0bf 2b1e 01e8 26e2 b3bf
00000320: b7d1 02d9 efc8 d13f db6e 1e7e b279 c4bf
00000330: ddbd 0224 b9e5 bc3f 0d73 a984 2465 ca3f
00000340: 55f8 7b13 266a d63f 2942 4e73 2516 d0bf
00000350: 3fc6 691e b297 debf 476d 0952 c5b9 bf3f
00000360: b34c 1219 0242 debf 6452 a610 8fd0 d23f
00000370: 3795 0e75 c683 cc3f 2389 9a9a cfb0 c43f
00000380: e0fd 8703 4544 d6bf cf12 faf6 12e0 ecbf
00000390: fb24 c79b bb77 edbf e286 0e0d 151d e2bf
000003a0: ffb7 a372 fdc4 693f fff6 ab88 8e99 ae3f
000003b0: df1c 09dc 27bb d0bf ff41 f1b9 2772 6c3f
000003c0: 5e52 234e c9de d1bf e502 a600 e499 d33f
000003d0: 7ae9 ce3d cccd ccbf 4db9 8188 ff94 dcbf
000003e0: 1902 1e1f 0301 d7bf 5f5b 81d8 61f9 d83f
000003f0: dc0a ddf2 7b00 d93f f503 1526 f298 debf
00000400: 0f1f 81b8 0d05 aabf c764 169a 8695 ccbf
00000410: b7e2 d27e 5b32 ce3f c5d8 7319 d114 d1bf
00000420: d761 3a54 f926 d43f 8565 db63 13cd d7bf
00000430: dc69 e64c efdc d93f bacd 6f1a 0183 d13f
00000440: d2de 54fb 930c c83f c01f 4716 9d75 d8bf
00000450: 2a25 1e74 7129 da3f c8ec 057c 52f2 bdbf
00000460: 0ef0 c475 f710 c43f e4ab 3e23 bc7e cabf
00000470: 1e9c 3a37 752e 853f 6516 9ddd db3c dc3f
00000480: db0c 3f25 18e1 d5bf c8c1 d932 8db9 b2bf
00000490: 8866 ec60 bd2c 9b3f c6f3 f89d c0f1 a63f
000004a0: 2ef3 466d a84c afbf ba1d 0f97 9d39 a83f
000004b0: 9e7a 857e f746 dabf 5de0 aadf 7e6f c03f
000004c0: 6474 5b9b 70a6 dfbf c5c9 06f7 bfbf e0bf
000004d0: e553 77c1 f6fb c83f 85ba 653e 84d9 84bf
000004e0: af3c 6696 fa14 ac3f 3f14 1b19 cc4a dabf
000004f0: 4348 301d 89a0 c03f 914d 2e08 0ae4 d33f
00000500: 55c9 207a 949d d6bf 7689 57df f505 d13f
00000510: 9a77 32d0 d9b5 edbf faf6 3ee1 9489 c0bf
00000520: a7af 8291 acb9 8f3f 0ebe dd6b 72e4 d3bf
00000530: aad1 c334 7225 d03f 1b8b d901 98a0 d93f
00000540: 8528 8bf0 da7b d63f f38b 8bf2 eec4 d3bf
00000550: 9c9b 8fff 5d7c c13f cbcc 76be 549d d1bf
00000560: 943e a859 b548 c9bf 7f4e 045c ba54 b8bf
00000570: 3047 d6b7 f5fd e03f 0a7b aa84 c119 d73f
00000580: e454 5fd2 4e5f d03f 0056 7bc8 7112 f8bf
00000590: 7079 5b77 afbc e9bf 3e87 3ed4 a951 e6bf
000005a0: baff cb3e a841 d63f edf6 300c 7f62 843f
000005b0: 1f97 f7ea d1b3 a73f 685a f839 a1a7 cf3f
000005c0: 80c9 e889 3649 e0bf 83c3 648c 188d bd3f
000005d0: 2325 c472 2c25 d33f c603 3b71 99c3 ae3f
000005e0: eaea 7166 04f1 aabf b097 c8e8 aa39 d0bf
000005f0: 7df5 dad1 653a dc3f ad4b 9354 6063 b93f
00000600: f3d6 0658 8348 dabf 5327 e585 dc8b b8bf
00000610: 5bfa b8f6 5f9d c2bf 6b8e 506e a26b d13f
00000620: 83f2 f423 231a cc3f 37ef f6d5 e15b c8bf
00000630: b145 0acc c0fd d53f ff91 8327 4047 95bf
-0.27064706515375536 0.04201841770684453 0.013677232202119385 0.2009711096372578 -0.4202218223675248 0.010019289817827922 0.23187351648821627 0.015845089630792702
0.24754632459410858 -0.29793304784904856 0.3482026097334568 0.1028434970916358 0.31892398169349206 -0.3000982040261379 -0.08443271876968991 0.4847206384872548
-0.5119203074901734 -0.21903641223647466 -0.025121323234304542 -0.19814193675173183 -0.4211366727225868 -0.18076694617664013 0.07553661143045422 -0.3294503431131842
0.03709334798541912 -0.03262825627815409 -0.12188990602089829 -0.2765920225204082 -0.3131780492356229 0.48400865695666645 0.30261002198474307 -0.0676124975425661
-0.32287045587348834 0.29061540000494285 0.36989034011016153 -0.06482841705349625 -0.15293516253142955 -0.20421894612798536 0.268225065191898 -0.08012222242673411
0.20874068065921436 -0.20168963397589162 -0.24125122298975574 -0.18240026924368205 0.3643232749254836 0.1413767702593157 -0.22544101799601032 -0.09630460812673779
-0.3907292814840126 0.46170362521305686 0.05681205537623954 -0.379056705775335 -0.4540880632842578 0.5105760173855384 -0.5386449461502804 -0.3838394967988929
-0.34576808351896104 0.2906956963068899 -0.16504838151336856 -0.2255232538087327 0.1275526508162463 0.3634858423437192 0.2393989758900829 -0.17540074710500908
-0.09972310698840493 -0.07400270580896379 0.265445643720062 0.015117444881966632 0.2872845479925002 0.04667783193490182 -0.10918242582915282 0.25991582836702504
-0.28159979829186055 -0.45637613713022823 0.40450692214335343 -0.24434002537755986 -0.04966504160666213 0.20058605962436116 -0.006502188891736831 -0.5362511962197108
0.29397356684823495 0.4378503669819608 0.4488414706929609 -0.30405889239993594 0.3652493692875122 0.4160528943136837 -0.44966015244872576 0.09974630361319879
-0.025240362359094392 -0.44454142596213303 -0.3792878341169283 0.3029866550297496 -0.25828677262303606 0.2465984160187628 0.2737974378171065 0.20913415698020138
-0.01834366918579316 -0.2158682323249411 -0.06426727442063943 -0.07766955532235247 0.27788921539766015 -0.1599639049353446 0.11288029793899264 0.20621162870056545
0.3502288046146352 -0.2513517023117254 -0.47800877542531234 0.12392838719226972 -0.47277882049929615 0.29397942186304804 0.22277146068260276 0.16164584206587404
-0.34791684479566065 -0.9023527930990783 -0.9208658258950487 -0.5660500769629062 0.0031456899788429023 0.05976529520374462 -0.26142307746745347 0.003472402182105094
-0.27922279959356 0.30626773894623077 -0.22503045099240265 -0.4465941269944736 -0.3594367793921563 0.3902210821446967 0.3906545516694402 -0.4780850765128542
-0.050819805881984086 -0.22331316493799688 0.23591178600852 -0.26689555631254464 0.3148787806071857 -0.37189182998334785 0.4041097880341604 0.27362086850845524
0.18788385173842542 -0.3821785657460133 0.40877949084877463 -0.11697879341038508 0.15676778078511727 -0.2069926426023293 0.010342517612413057 0.44121452943759315
-0.34186366689045905 -0.07314379207105681 0.02653785614083984 0.044813174518345586 -0.0611317284960705 0.04731457203848373 -0.41058146815877616 0.12840257569564786
-0.4945336835060685 -0.523406965707459 0.1951893276842888 -0.010180504945961797 0.05484755598001222 -0.4108152623342142 0.12989915776467073 0.3107934074298209
-0.35336791922158756 0.2659887963365216 -0.9284485880232183 -0.12919865606630038 0.015490863981845694 -0.3108182958012272 0.25228552964042683 0.4004268663467642
0.3513095234926669 -0.3088948601345571 0.13660788515627764 -0.2752277240753755 -0.19753138425629813 -0.09504284616951429 0.5310009565894003 0.36094701724680134
0.25581713241747495 -1.5045030433005877 -0.8042828875730219 -0.6974686761279612 0.3477573979616825 0.009953491744564025 0.046293792660249126 0.2473031552369378
-0.5089371388951776 0.11543420245722129 0.29914389808307557 0.06008605487068723 -0.05262006521748737 -0.25351975186128595 0.44106431478197533 0.09917261185482458
-0.41067584606513136 -0.09588411587642769 -0.14542769953728193 0.27219448826710985 0.2195476461000859 -0.19030402133454924 0.3436128609256129 -0.02077961198019018

bias f8 [50]
00000000: a716 d794 22a7 c4bf 9be8 b924 f7ab 9bbf
00000010: c5d8 2de6 c793 d33f 9a66 e050 dab5 d83f
00000020: f4fa 8dff e852 c03f 30b1 d82e 4840 b8bf
00000030: 3337 5e30 ba65 b63f c8e8 2065 09ba 94bf
00000040: f035 62e5 cf20 c0bf 21f1 2bc5 899e d13f
00000050: 2e8a efae 38fb d03f 4c0c 5b60 95f9 d7bf
00000060: 8e0d 65c5 7d45 a03f 0c71 99eb 4d1d d3bf
00000070: 0043 34f5 65b8 a9bf f4c7 10cb fdc7 cb3f
00000080: 474d e434 cd37 80bf 14b3 9d24 717e cebf
00000090: c081 425e af77 c53f a696 7328 ad05 cfbf
000000a0: 2a4c bcd5 ae12 bdbf cc6f 4a94 27e0 dabf
000000b0: 8e1c 3ffe 562c d13f bc94 357d f896 d4bf
000000c0: 735c 3c61 5860 d03f 4d29 e488 2612 de3f
000000d0: 6044 8322 fa4b b8bf b17d 13b7 80ab d53f
000000e0: e7ef fa3b e113 c5bf f812 f8be db85 c2bf
000000f0: a4f7 2f96 89c2 ca3f d870 1ea4 d201 da3f
00000100: d421 b231 a500 dabf 61e9 50df 2b34 ca3f
00000110: 6a59 38b9 cb04 d63f 49c3 f60b f63b d0bf
00000120: 2000 0fab 6b15 db3f bd7e 9ef1 1d81 d73f
00000130: 160a 53c7 408c cb3f 309d b60f a65d dbbf
00000140: 1a23 2a92 3051 d2bf 80ae 9f7e b3d3 b23f
00000150: 78bb 7c39 ef7f de3f 8772 2a9a 6317 de3f
00000160: 030c 6147 2d0a b13f ac9f 2567 7e6a d33f
00000170: 08d5 bd59 a470 dc3f cc97 a99b 921e d03f
00000180: a4f7 dd64 fb92 c4bf 3857 07b0 1552 d5bf
-0.16135055797183392 -0.027023183456983273 0.3058948276369729 0.3860994138536654 0.12753021696331468 -0.09473086494171379 0.08748973542080023 -0.020240923688313456
-0.12600134563801602 0.27530140166324385 0.26533333858074826 -0.3746083680127341 0.03178017649272667 -0.2986635971808631 -0.05023497217383088 0.21704075255689725
-0.007918933083181158 -0.23823370254412934 0.16771499731568262 -0.24236072993442298 -0.11356632917549861 -0.41993131143112516 0.26833128765833514 -0.32171451785536553
0.2558804463928432 0.4698578202084221 -0.09490931837650995 0.33859269979981393 -0.16466918400499184 -0.14471003365192536 0.20906181176536365 0.40636125590550654
-0.40628938534839887 0.20471714405159516 0.3440427120962314 -0.25365973633147526 0.4231824083799456 0.36725567432038614 0.2152176831496752 -0.4275908616495654
-0.2862054278744367 0.073542803205493 0.4765585004233155 0.4701775556111802 0.06656153671887925 0.30337486336656627 0.44437512172528715 0.2518660087720235
-0.16073553490781223 -0.33313505354213957

weight f8 [50, 50]
00000000: 5dc3 527f c3d1 b0bf 6358 cc8d ad47 c13f
00000010: a9d9 dd53 bd66 b1bf 7d65 b8f7 c4b2 bc3f
00000020: be01 0cca 7153 b5bf 3ab7 2429 cf02 b33f
00000030: b8f2 c205 8b44 82bf 37c4 7719 b10c c63f
00000040: 7eb9 4613 25d3 b53f 6c8b c0ca 1eb8 c13f
00000050: 1877 535c a16c d1bf e955 12ac adbc c13f
00000060: 32e4 6ebe 4651 b2bf 4c9e edcc 3262 bfbf
00000070: 64d1 33c1 7d48 a93f 5908 385c fab2 b1bf
00000080: c70d 3b12 8f8b babf cd14 06c8 392e a0bf
00000090: cdc3 4f8a 97c9 b6bf 95df c768 a8a1 bebf
000000a0: 94d6 c5e1 d36a b13f 6c72 968f 9477 c03f
000000b0: 5e3c 7a13 503e ac3f c46a ee82 78c6 ab3f
000000c0: 37b5 8f92 78a7 c1bf 0be6 edc6 b99f bd3f
000000d0: b565 2af1 acf2 bbbf cf7f 60ee 3a95 a3bf
000000e0: 33fe 1fb9 eef7 aa3f 6b96 f0d6 7953 b9bf
000000f0: 64f5 4dd3 b2a4 ac3f 313f 4451 879c b7bf
00000100: 5809 a06a 61c6 b3bf d69e 675a ed6a a1bf
00000110: 3247 4c52 bab8 9a3f e52d 8bd3 424d b5bf
00000120: 0858 6576 7527 acbf 3976 5a1d 4bda a6bf
00000130: 31cf 6c94 ec3c 923f 981c aa28 f176 823f
00000140: f4db dcfe d41b cdbf 1079 380c b9ef 703f
00000150: d36f 975c 1988 bd3f 5b06 dd38 fd3c 90bf
00000160: 53be a701 2415 c73f e98b b0a1 a6ec c43f
00000170: 9a54 fc10 c292 923f 98ae be00 59de bcbf
00000180: db14 a1ce 4999 b83f 0bba f15f f321 82bf
00000190: ae57 074d 6614 b9bf 3bb7 0a88 fc24 b53f
000001a0: 457f 5b46 53eb a73f f23e 4fea d6ea 9e3f
000001b0: 68a9 af4a 0992 b8bf 58ff 4f98 4f52 b03f
000001c0: 6a4c 0fd1 1028 c0bf 8809 bc3b e24c 83bf
000001d0: e7ee 62d8 19d0 be3f 09ce 17f1 3fd0 98bf
000001e0: dc3e c5d0 8550 c03f 1d7f 3cdf cbd5 aebf
000001f0: b873 bbb4 5676 bdbf 8a9e 2652 1c22 b93f
00000200: 6da6 6163 282c c13f 4a97 aeb5 04fd b6bf
00000210: 9c3a c9dc 573c bcbf c7e0 5c52 421e b73f
00000220: c345 e6b2 b5c0 b9bf 1905 ad82 278c b9bf
00000230: 2324 1b04 2008 c13f 7538 0aea eda6 c03f
00000240: 109a f984 f70c b3bf 04b8 d9cb 47c1 72bf
00000250: eb8a 7728 3c5b 923f 5156 a495 4836 aebf
00000260: 6e94 29b3 bd7d a13f 9c06 94d6 b551 b7bf
00000270: 1a99 4467 0c6e 99bf ed64 2ebb fd64 c13f
00000280: c8ea d59a b7e2 a9bf aa8a 9c46 e8fb b6bf
00000290: 2c7d e90a 07bc 7e3f 444b 8d0e a4aa b4bf
000002a0: 30e6 d389 09a8 b8bf cad0 2f83 f03a a83f
000002b0: 6952 a930 6608 9abf 1b20 3431 9bcb ba3f
000002c0: c842 378b 1a01 b9bf f2ae a493 747b ac3f
000002d0: 7673 6306 9113 c03f c02a a2f9 0310 83bf
000002e0: 838b fcf4 b8c1 c0bf a43a 3a45 d42b c03f
000002f0: 164e ad68 344f 9dbf 505f fbb4 f38d b1bf
00000300: 25a1 f7f2 d56d aabf 9eee 2c68 dbb0 b63f
00000310: 216f c793 e8fa 9c3f a609 c7cd 32e0 a8bf
00000320: 56c5 e16d 7b9a a0bf 757c d618 377f a13f
00000330: 012f ad69 f4db bcbf b3e4 b640 97cf b3bf
00000340: c2be ceb7 d9a5 babf 7228 5573 edaf 983f
00000350: b2be 54f3 8869 b03f e506 347c 8aa4 b3bf
00000360: 8ace 9190 8ebc a93f 7e12 8796 b647 af3f
00000370: 7dba a1b8 be8f acbf 7eee c139 7520 ba3f
00000380: 15f0 c23d 84e3 613f 2e3e df11 c984 89bf
00000390: d8c4 7a88 9bcd b3bf 6f5d e504 52f5 bb3f
000003a0: 9079 ad6a b7a2 b3bf b941 84d0 3a4d a4bf
000003b0: 0c28 3842 4f29 a6bf e502 55ef 200c b5bf
000003c0: c9cf 2712 c267 bc3f 21c5 7fd2 7a6e bebf
000003d0: c766 3177 9f5f c13f 284a 20c0 c0d3 b53f
000003e0: 2f67 b7d0 975f a6bf 4fc3 547f a30a ba3f
000003f0: 4e83 08d6 36ff a8bf c9f0 936b 321a bdbf
00000400: 432c ceaa 1628 b13f 02d4 0112 14c4 b73f
00000410: da92 aae5 72de bfbf e098 2523 872e bdbf
00000420: 17cf dc13 0526 c1bf b218 1d52 1780 c03f
00000430: 3e30 07b4 85e1 bb3f 660a 9bd9 258e afbf
00000440: b867 d07a d492 963f b970 177a 1de7 ae3f
00000450: b654 1cea e26b 87bf 185c e239 8b92 bfbf
00000460: 57bd c95d bbc8 b6bf ab54 8315 1244 bb3f
00000470: faf3 44d6 4b86 b4bf b810 aefe b8ee a2bf
00000480: dce8 8673 511b a83f 80e0 615c 7f38 b1bf
00000490: 8bd1 d3cb 9fd3 913f 14a8 7b92 4ff8 95bf
000004a0: d15d 5460 63c6 b63f 5fdd 681a d421 b33f
000004b0: 77f3 ef6e c544 bc3f 2ea1 8456 1f62 bd3f
000004c0: 651c 8d86 fcc0 bbbf 4214 5c78 7a17 c1bf
000004d0: 146c 8521 ded9 9cbf 986a 428d b022 bebf
000004e0: 8f2d ea52 61cb acbf bbac b778 f8e6 ae3f
000004f0: 0b35 0bdb 3029 b1bf a3b8 c2cf 12ba b1bf
00000500: 6bd4 54ec d56a a2bf 46ad 7477 04e3 a1bf
00000510: b4ef 80d1 8223 a73f 22ba 932f d637 bdbf
00000520: 83ab 7bd5 d330 b2bf c53f e847 7ce2 c03f
00000530: b30e 932f e8a0 bb3f 83fd 34d5 be5c babf
00000540: 0ab2 c5dc 3e16 c23f 7c87 acdf 5395 c1bf
00000550: d1c7 6209 5017 9d3f e777 36ec 02eb ba3f
00000560: 2c70 8866 ddf2 babf 91bf 6ce8 6770 c1bf
00000570: f69e aef9 1b7e b93f 6b45 1681 bc1e b9bf
00000580: 0b8c 5b67 7274 85bf fddf d7df 707e b4bf
00000590: 9962 a06e 7846 bfbf 6f15 9a19 8fa5 9fbf
000005a0: fdaf 251c 767c b4bf c71f d331 802b 963f
000005b0: be13 4355 3fe7 b5bf 0e2b 9358 e0d7 b0bf
000005c0: bf6a 1b51 3368 b0bf 2ab5 164b ce8e afbf
000005d0: 5f29 c1c7 a5ef afbf 0ecf b187 c207 953f
000005e0: 9225 5c9b eeb6 a4bf 6655 e59d 41de a63f
000005f0: 475b e22c 02d9 ba3f 678f 0607 68de b4bf
00000600: 0dc2 b3f6 d66a af3f bca2 b2c2 9840 c1bf
00000610: bff2 3183 7d5b bcbf 8fd5 003a 5d9f a6bf
00000620: eea9 15b2 42d7 b3bf 2ea3 df38 561f b43f
00000630: e019 dbf7 d3eb babf 7501 1cf4 4538 93bf
00000640: 5d3d e884 a8b7 b13f 0692 c02d 8ac1 a5bf
00000650: 899d c741 87a6 af3f 0c43 5f8f b826 883f
00000660: cba8 b643 1f80 b63f a139 e05e e396 b0bf
00000670: 1280 35c8 154c 92bf 934c 4079 7990 b23f
00000680: 1649 5f06 44d4 9dbf ec75 4650 9541 b5bf
00000690: e719 dd06 d5db 9c3f fe6a d698 10b6 c03f
000006a0: bcbc 4d0d 9f6c c03f f24d 6322 a944 c83f
000006b0: 50dd 222a 0ce3 c63f 4f43 c362 baaf c43f
000006c0: 115f 0472 f4b3 b93f 1d11 1e0d b577 b13f
000006d0: 6ff9 9c80 ed75 a5bf a84d a293 7a13 c33f
000006e0: 4467 6475 2d68 aa3f bf6a 69e6 0511 a8bf
000006f0: 27c0 7f2e 0ee9 92bf 6a29 a85c 37d6 bd3f
00000700: 8f87 bf50 2525 a33f cb99 d80a 58bc b9bf
00000710: 695c 1c3c db88 b1bf f156 c431 ac31 ba3f
00000720: a907 05eb f7dc c0bf 61f5 967e 747e bfbf
00000730: 0c6e b60a 3db2 b13f 6642 9f11 7af5 6e3f
00000740: 611c a4be ff98 b8bf 321a b41c bbfc b73f
00000750: 5aa7 82d6 8800 c03f 1549 1ead a330 b83f
00000760: d941 3ae0 8883 833f d39e 6611 9bad c63f
00000770: 6e25 9991 bbd7 91bf 50b5 77cf bee7 a5bf
00000780: 5ebe 8b75 980a d93f f7fd e3ab 0b1c 923f
00000790: 8d08 e183 2a4c 80bf 59bf 9e70 974d babf
000007a0: c7c7 8c0f a24d 913f e1ed e8db a866 89bf
000007b0: 242b f81c 0ace 99bf a98f 0f48 47c9 a0bf
000007c0: b863 eee6 19c0 84bf 7743 4a9d a077 b13f
000007d0: fa85 6635 7383 b6bf 9156 1448 9cd3 b03f
000007e0: 3fe0 e165 cc33 a93f 3cc3 2285 a8de bbbf
000007f0: 1a85 e361 dde1 61bf 336a cd0e 1479 ad3f
-0.06570073946455808 0.13499993728391066 -0.06797393128895259 0.11210280464037754 -0.08330451185975726 0.07426161531904266 -0.00891979800541641 0.1722623228411366
0.08525306435215005 0.13843140506750318 -0.2722552682515569 0.13857050802168594 -0.0715526785778742 -0.1225921392739277 0.04938118918826964 -0.06913723708569942
-0.1036919993885511 -0.0316026741666434 -0.08901354910609811 -0.11965420301555547 0.06803631078750022 0.12864930163495403 0.05516290891420604 0.054248586638285384
-0.13792330890957213 0.11571847063705591 -0.1091716851027716 -0.03824791107058411 0.052672824953330276 -0.09892999169877618 0.05594405011559436 -0.09223218664214695
-0.07724579671051879 -0.034018914495218475 0.026095305703228884 -0.0832101599182163 -0.05498854704153194 -0.04463419659917318 0.017810532149453443 0.009015926412088413
-0.22741186565846727 0.004134867518159405 0.11535795698676958 -0.01585765513960378 0.18033266144583368 0.16347201247216894 0.01813796261474874 -0.11276775615868428
0.09608899397524644 -0.008853818288312906 -0.09796752338965461 0.08259561845144685 0.04671726449828254 0.030192716647262814 -0.09597833703415903 0.06375596493307734
-0.12622270782466966 -0.00942398781581201 0.12036286862251765 -0.024231909837864083 0.12745735830184557 -0.06022488689472836 -0.11508695518882817 0.09817673688541553
0.13416008808717397 -0.08979825435252767 -0.11029576435360372 0.09030546675501504 -0.10059676759399054 -0.09979483547524061 0.13306045723428025 0.1300942795537058
-0.074416608776666 -0.00457885785509227 0.017926158876330794 -0.05900790049251426 0.03416245281258844 -0.09109055031515328 -0.02483386402413954 0.1358945049258077
-0.05055784001429725 -0.08978130077279425 0.007503535757307927 -0.08072877269050333 -0.09631404509482233 0.047324672712336716 -0.025422665329033842 0.10466928435573701
-0.09767309092354559 0.05562938978468236 0.12559712230622794 -0.009307890945156827 -0.13091194116813307 0.12633756046530664 -0.02862245453736819 -0.06857226532463057
-0.05161923018369156 0.08863612454745826 0.02830088998767544 -0.04858549844677222 -0.03242860523540496 0.03417370012470481 -0.11273124294273985 -0.07738633470480032
-0.10409317719927016 0.024108610309931007 0.0641103357381734 -0.07672944576554704 0.05026669993176565 0.061094003558115326 -0.05578418735318722 0.10205776844116518
0.0021836836659456884 -0.012460299356376128 -0.0773560722543779 0.10921204204111289 -0.07670160631594158 -0.039651716188135074 -0.04328391726819811 -0.08221631854122398
0.110958222801684 -0.11887328757417893 0.13573067970246752 0.08526234331683524 -0.04369806692893829 0.10172483309430656 -0.04882212984762778 -0.1136809837952938
0.06701795263340764 0.09283566894175979 -0.12448804957473261 -0.11399120910718663 -0.13397277326441134 0.1289090300508114 0.10890994687287134 -0.06163137704199499
0.022044486995674822 0.06035701861739668 -0.01143624569844302 -0.12332983172596845 -0.08900042571780396 0.10650742554874408 -0.08017419797120331 -0.03697755917440432
0.04708342108956895 -0.06726833348682426 0.01740884477199382 -0.021455043140044053 0.08896466352268041 0.07473493237272553 0.11042436560087575 0.11477847921617432
-0.10841348919812928 -0.13352900387704564 -0.02817484931561516 -0.11771682213513157 -0.056239167567663555 0.060355915771503864 -0.06703477237461557 -0.06924550602227213
-0.03597134122757314 -0.034935130674365086 0.04519280249993987 -0.11413324986981668 -0.07105754816045189 0.13191178809256435 0.10792399560437609 -0.1029776831173788
0.1413038804997913 -0.13736961766795364 0.028409243176333924 0.10514848963654765 -0.10526832345243581 -0.1362428555380544 0.09958052488093103 -0.09812524940050131
-0.01047601106569653 -0.0800543352596605 -0.12216904354898829 -0.03090499490510495 -0.08002412974536806 0.02165031723123414 -0.08555980521766934 -0.06579401171181251
-0.06408997278360128 -0.061636397043324756 -0.06237524093065149 0.020537414104594247 -0.04045816084369415 0.04466443111838707 0.10487378688627046 -0.08151865169071258
0.061361997237217115 -0.13478383547523787 -0.11077103093152639 -0.04418460209891883 -0.07750336501855035 0.07860316170230128 -0.10516094971817536 -0.018769352936034395
0.0692086529236255 -0.042492216191281115 0.06181738546348032 0.011792604327554489 0.08789248850976887 -0.06480237070375107 -0.017868366570269308 0.07251700601800541
-0.02913004197018506 -0.0830319710716691 0.028182343048024718 0.13055617773792244 0.12831485890953853 0.18959535769555164 0.17880394036704184 0.1616127950897188
0.1004021433221818 0.06823283739328585 -0.041915342283107 0.1490319462651375 0.05157606180200827 -0.0470048755421053 -0.018467160785746863 0.1165499306881991
0.037392774683907885 -0.10053015007779391 -0.06849451272533859 0.10232044425023525 -0.13174342132157094 -0.12302330103462601 0.06912595283068174 0.0037791618496856747
-0.09608457950899797 0.09370011759538313 0.12501631235255212 0.09449217773934422 0.00952822622574072 0.1771730265584127 -0.017424517404184874 -0.04278370173038104
0.391271700659649 0.01768511044156004 -0.007957775258663946 -0.10274645328058564 0.016897709082691195 -0.012402838908307014 -0.025200040834572182 -0.03278563265465035
-0.01013202892299768 0.06823161926355491 -0.08794326833460522 0.06572891959907624 0.04922331565552484 -0.1088662457502893 -0.002182896029908077 0.057564379507955364

bias f8 [50]
00000000: a789 2af5 0a83 c33f a6eb fe5c c5d3 c1bf
00000010: 2b5d d934 a038 8fbf cf2c fdd9 5815 b33f
00000020: 263e b0a1 7715 a1bf 4b0b 6e0f 0541 b3bf
00000030: 0fbc 9271 7c80 8abf 255b c2f7 2f6e 8abf
00000040: 1900 3eb1 f0a2 bbbf 7b6d 5f83 85bc a73f
00000050: 5a63 93bc bb8a c23f 0aec c107 39bf c0bf
00000060: e1c1 25dd 9b0f bf3f e291 e434 cfde 8cbf
00000070: f438 3bc0 0ca8 a53f 976d b84f 0909 533f
00000080: 3fef 26c8 f314 b2bf 2f5b 75b6 05cb 863f
00000090: c539 2c2d 2aa0 bc3f ec7d ff33 f86c c33f
000000a0: ef50 121b 06b7 abbf 57bf b3ed f208 85bf
000000b0: b2fc 33be d491 973f 983f aeb9 8b1e b73f
000000c0: cbac c176 5a84 b63f cfe1 bb11 4fb8 c0bf
000000d0: 992a 18f3 b3ca b5bf 4c1d 81ec 60a5 c33f
000000e0: 5694 483d 7dc5 b73f b8e3 b666 b948 a33f
000000f0: 230b 382a 6685 bdbf bf5a 69f1 873d a5bf
00000100: 509e 8025 87b6 b4bf 5d63 3ceb d3ac bc3f
00000110: 8121 24c9 8ff6 c03f 5c20 c1ea ee2a c3bf
00000120: e5a6 baaf c844 a93f 20f9 ba9f 34be 503f
00000130: cfc5 094a 0b07 acbf a32b a7a2 3b0e b1bf
00000140: d7e5 113e 2c8b a03f a3e3 dd2f 6f48 a93f
00000150: 033f 9e35 5feb 963f 181d 9554 e8df babf
00000160: ea04 094e 8f08 a3bf 35f4 c632 b42a 90bf
00000170: ea56 a202 708a c23f abd5 db32 7a1f c03f
00000180: 1e2a 8b13 abe0 aabf ae43 539c a525 aa3f
0.15243660899166153 -0.13927523651895263 -0.01524472390444361 0.07454448053356376 -0.03336690758453313 -0.07521087290483057 -0.012940380302408653 -0.012905478237639276
-0.10795502021028404 0.0463601801745552 0.1448588057308154 -0.13083565596375052 0.12133192204579003 -0.014096850206052506 0.042297743287791706 0.001161822407886292
-0.07063220631146992 0.011129421835602919 0.11181892016268254 0.15176298655477127 -0.054130736164695985 -0.01027097499760969 0.02301723872096479 0.09030984194964586
0.0879570522244421 -0.13062466016687188 -0.08512425122186541 0.15348445461334348 0.0928571962945893 0.03766421679342308 -0.11531675844893789 -0.04148506948393082
-0.08091015496813125 0.11201214306892156 0.1325244648107962 -0.1497477194081992 0.04935290475016333 0.0010219110398988554 -0.054741242206442935 -0.06662342759152166
0.032311804367917744 0.04938075503645869 0.022382247588722325 -0.10497905793191753 -0.037174680972848 -0.015787902449791075 0.1448497784482961 0.12596061213814144
-0.05249533284730411 0.05106847317950468
