lasa_models/4/skel_model_PShape.pt (torch, 99247 bytes, 18 tensors)

R f8 [20, 20]
000000 ca 35 b7 37 96 44 e6 3f 64 96 08 a4 b7 12 e0 3f
       0.6958724106022427 0.5022848323612377
000010 bf 86 92 ce fc 9a d0 3f 7c 46 f8 7a e4 1a c4 3f
       0.2594596879299437 0.15707069401155482
000020 72 c9 85 e8 9c 67 e0 3f 9d 47 31 18 ae 54 e1 3f
       0.5126480618912821 0.5415869209775682
000030 07 ae d1 a9 bb 46 79 bf 1b d1 64 c0 f1 d7 d8 3f
       -0.00617097192762684 0.38818019665201725
000040 ca 2d 71 7f 54 0b e3 3f 91 9c 38 ec 86 19 c5 3f
       0.5951330651382076 0.1648415234969645
000050 eb 57 71 49 61 19 ed 3f 25 67 5d ab bf e2 a1 3f
       0.9093481478146236 0.03493308035713331
000060 19 ff 71 8d 5a 71 de 3f 38 08 2c 4d 96 69 b5 3f
       0.4756685620595689 0.08364238151628534
000070 eb b6 04 8d f3 f0 c9 3f 42 32 82 83 75 ee e9 3f
       0.20266575227417802 0.8103587692763272
000080 bd ca 50 e1 8a 28 ef 3f 1c c8 0d fa 9d 3d ee 3f
       0.9736990357108294 0.9450216182579001
000090 e0 e5 5e df 90 06 cd 3f 85 96 9f f5 c3 53 ed 3f
       0.22676287562153075 0.9164752766925665
0000a0 22 a1 4f 86 5d 0d e9 3f a2 ff 27 54 22 49 d5 3f
       0.7828815100920432 0.33258875101454966
0000b0 44 fc f4 42 81 fb e3 3f 03 53 54 1b 77 e2 d8 3f
       0.6244512851479915 0.3888223425758925
0000c0 94 93 60 c4 66 4f ef 3f 73 2d e6 4a 7c ab 91 3f
       0.9784425578587723 0.017255727836113132
0000d0 07 40 c0 f4 56 9e b0 3f d8 32 0b f8 6d 91 e0 3f
       0.06491607165685319 0.5177526325802217
0000e0 aa 87 70 3b de 5f e6 3f 05 f2 6a 84 10 50 c2 3f
       0.699202648251448 0.14306837526045527
0000f0 ea 75 6e fc 37 dd e7 3f 0e aa 29 ab ce 6f cc 3f
       0.7457542352964854 0.22216208798938947
000100 92 b6 93 81 cd e3 d6 3f 29 fa 11 80 98 67 e9 3f
       0.3576539769554553 0.7938959599849272
000110 2e df ba 7a dc 5e dc 3f a8 5d 41 0f 3d 7b ea 3f
       0.4432898710760921 0.8275437639194267
000120 a2 12 d1 d6 80 2b cb 3f e4 5a 65 13 4c 4f ca 3f
       0.21226511468025416 0.20554495760980906
000130 d0 75 a9 d9 d7 e5 b8 3f d2 77 1e 1f 05 84 d2 3f
       0.09725712837231204 0.28930786169973743
000140 31 19 60 93 c3 15 e7 3f 02 81 68 8d 43 ba d6 3f
       0.7214067343163945 0.35511864480396593
000150 9e ac 04 25 b0 56 dd 3f 9d 0c cf 44 45 8e d9 3f
       0.4584160195833621 0.39930850715263394
000160 04 0d 6a c9 78 aa d8 3f a8 ac a4 04 86 29 ae 3f
       0.3854047743736404 0.05891054922752775
000170 cf 35 4a 36 be 73 df 3f 59 de 94 14 ff 8e de 3f
       0.4914393930601734 0.477477808093203
000180 55 22 59 9d 13 b9 c8 3f d7 d7 64 e4 c3 9b e6 3f
       0.19314809020058257 0.7065143071001739
000190 9b 0a 73 55 04 15 d0 3f 90 16 43 c9 24 19 ef 3f
       0.2512827715365035 0.9718192988300007
0001a0 64 9c 47 4a 54 ee ce 3f ec 0c 1f 2b bd 4d c4 3f
       0.241648231763267 0.15862240415126594
0001b0 ed 13 c6 d8 7c 6e ba 3f de ce aa f7 0a 31 ea 3f
       0.10324840824439692 0.8184866750002262
0001c0 61 ee 8e 35 a5 65 e1 3f 8a 14 76 0e a2 91 ec 3f
       0.5436578794537575 0.8927774698683077
0001d0 c3 f0 23 65 d5 e2 d3 3f b3 f5 39 57 6d 51 df 3f
       0.31071982266417936 0.48934491651729245
0001e0 73 20 7d 02 d5 1a de 3f 49 95 1f 20 cc 79 c6 bf
       0.47038769953770226 -0.17559196060680396
0001f0 d3 3f 58 4d a1 b3 cb bf 8f f6 f3 ed 8f 43 e6 3f
       -0.21641937519643636 0.6957473418730887
000200 62 8f bc 72 a1 c4 e9 3f 07 5d 07 62 77 cf eb 3f
       0.8052527657459729 0.8690754809021265
000210 61 23 32 59 ad 17 ea 3f dc be 75 1e 34 d6 e2 3f
       0.8153902761560908 0.5886478991432926
000220 35 da 82 09 ab ec e1 3f ea 0b 58 d7 16 01 d3 3f
       0.5601401506199354 0.2969414809196552
000230 64 9a 05 87 64 23 d5 3f 3b 6e 1b cc 17 7a d5 3f
       0.33028519807559165 0.33557696277941645
000240 a7 b2 af d4 a9 9e 71 3f 7d 2a 42 b7 d3 bb d9 3f
       0.004301703836045923 0.402089051211682
000250 ce 60 5d 32 19 27 ec 3f 6c 6d 0b d6 72 ba de 3f
       0.879772756928128 0.4801299181251213
000260 8e 07 b8 52 c5 b1 c1 3f b2 5f c2 87 4b 64 a1 3f
       0.1382376340771398 0.0339683154317635
000270 42 45 cb de af 5a b7 3f 3f 5e 99 f5 07 21 c9 3f
       0.09122752370173706 0.19632052890914228
000280 d4 85 d8 d7 80 6e d3 3f 03 3a 6a c3 80 5a b6 3f
       0.3036195857876838 0.0873184659087443
000290 8c e9 e2 0a 79 a8 d5 3f 86 71 c0 86 cb 76 e0 3f
       0.33840776503679915 0.5145013458127756
0002a0 1c 01 b7 0d 55 11 d2 3f ee f6 a1 bd 32 9f cc 3f
       0.282307876008433 0.22360834369094768
0002b0 e0 b8 4a 07 c1 7c ee 3f cf 3e c9 0f 9a 15 b8 bf
       0.9527287619037246 -0.09407961736109914
0002c0 6f 70 33 ac cd 7a f1 3f cb 9e cf 4c 73 e0 e8 3f
       1.0924813009833334 0.7773987293448611
0002d0 20 65 47 55 c8 4b f3 3f 89 49 d4 cd 84 4c dc 3f
       1.206001599426891 0.4421703348208657
0002e0 23 f7 c8 fc d9 a5 e1 3f 84 e5 7b f5 37 da e3 3f
       0.5514955460746233 0.6203880114182287
0002f0 2d 4e 7d c5 e1 f1 d7 3f 07 cb 42 87 c1 a0 ed 3f
       0.37413830076295335 0.9258735315146119
000300 1f 18 7e c0 58 2a f2 3f 9e 7d bb c9 ec 0e dc 3f
       1.1353385466804935 0.43841094685009263
000310 c5 91 46 57 c0 f6 be 3f b5 09 78 77 04 19 dd 3f
       0.12095262652162038 0.4546519438446482
000320 dd 73 c0 8d ea f7 ed 3f 4a 6c 7f 2b cd a6 d9 3f
       0.9365132111157625 0.4008057522566487
000330 42 f8 d3 2c 96 15 d8 3f 7b 01 32 44 7a ff b9 bf
       0.37631754281745 -0.10155452885556386
000340 65 a5 da 8c e4 02 e5 3f 08 3c ae af c7 7e ba 3f
       0.6566031218582508 0.1034970096500133
000350 dd 34 0d c7 4f c7 e6 3f b8 b5 d2 e9 59 d5 dc 3f
       0.7118300330854727 0.45052192529950785
000360 fd e8 25 85 4f bc cf 3f ed 43 c2 98 a4 96 e5 3f
       0.2479342842232838 0.6746390327044743
000370 85 3e fa 0e 66 62 d0 3f 3f d7 51 8f bf 90 eb 3f
       0.25600577795646756 0.8614194678509434
000380 9f a4 35 f1 02 40 f0 3f 4d 27 9a 15 a2 2e db 3f
       1.0156278059242039 0.42472126111589575
000390 a5 02 91 70 af 5d e9 3f f7 93 9e 7f 5f 88 9a bf
       0.7926861952365313 -0.02591084686686781
0003a0 e8 52 c3 1d b9 fb ee 3f d7 6b 3a ca 45 6c e0 3f
       0.968227918749645 0.5132168721933067
0003b0 7d 79 eb 86 20 f3 d8 3f 9b 72 a4 b0 b0 4a e3 3f
       0.3898392980171577 0.6028674554869043
0003c0 c2 16 e3 65 7d 72 ef 3f 31 6f 79 c0 48 c1 e7 3f
       0.9827258100492247 0.7423442610993104
0003d0 15 01 89 70 46 e0 de 3f a3 f7 ea 97 3d 5d ec 3f
       0.48243866910708394 0.8863819090981803
0003e0 e0 15 4d f8 e9 0c ec 3f 44 d6 b7 7b 22 8f f3 3f
       0.8765764093047288 1.2224449951876446
0003f0 26 a8 b9 a7 6f 5a e8 3f d0 98 28 b1 ca 8c e0 3f
       0.7610395694621317 0.5171864948395299
000400 0a e0 fd bd e3 a2 cf 3f ed 86 57 47 e5 46 d3 3f
       0.24715849663675754 0.3012021252344386
000410 ca 90 c9 40 df c6 df 3f d6 76 35 8c 14 b0 ee 3f
       0.49651318861857574 0.9589941729024882
000420 23 24 5a 57 df 73 e5 3f 77 62 94 29 b9 a8 e3 3f
       0.6703945833297705 0.614346104822359
000430 95 a9 dc ec 35 6b e7 3f ec 7a fe b1 53 90 e1 3f
       0.7318372369966705 0.5488680340239092
000440 1b 8d 98 2b 2d 5e c4 3f 8a d6 01 a9 83 71 d7 3f
       0.15912403706270414 0.3663033628903142
000450 db dd 41 0e cf 7c e5 3f 36 b0 33 df f9 77 e3 3f
       0.6714854505980229 0.6083955153858429
000460 f7 3e b2 3d f3 11 dc 3f 40 d9 16 74 99 e8 95 bf
       0.43859559083010374 -0.021395108900571502
000470 7d b4 8e 2e f0 b1 e4 3f 71 31 e8 4c 1f f1 8a 3f
       0.6467209729504614 0.013155216726794735
000480 f3 04 b8 4c 40 c5 d4 3f f2 bc 18 2a 46 ba c0 3f
       0.3245392560202866 0.1306846337842909
000490 79 27 a6 00 41 c4 d6 3f 65 97 81 19 fd 6d ea 3f
       0.355728388437107 0.8259263513725555
0004a0 a0 d3 b6 a0 33 98 d7 3f 27 df cb c0 ce 9f e1 3f
       0.36866465277426563 0.5507577672533203
0004b0 0d 57 9f cb 72 8e d3 3f 04 38 e1 be 8a d6 cc 3f
       0.3055693615436759 0.22529730148602323
0004c0 cf 79 d2 e7 6d 7a c3 3f 07 66 f7 b7 06 20 d2 3f
       0.15217374629442168 0.2832047268435364
0004d0 eb 92 40 10 b6 ae e5 3f fc 0c 43 34 10 31 a2 3f
       0.6775770490099523 0.035530573253277326
0004e0 6d 61 c1 aa 2c 16 eb 3f bd 33 3e 42 32 85 bc 3f
       0.8464568457666651 0.11140741460094623
0004f0 37 07 18 31 4b e5 db 3f 40 69 c0 90 ef 0d e5 3f
       0.4358699778969028 0.6579511477641873
000500 46 e6 d7 fe 8c 64 e1 3f e9 fb 1b 21 00 0c de 3f
       0.543524263134892 0.46948245271045025
000510 05 e9 7e 05 54 a1 e6 3f 19 7a 0d d2 27 e1 ea 3f
       0.7071933848704083 0.8399848082152089
000520 0e 22 54 4c 28 d6 e0 3f 58 a5 3c 62 ed e0 dc 3f
       0.5261422625345078 0.4512284716934878
000530 7f 56 ba 11 d1 0d e8 3f 9e 70 4c c6 e2 e6 c3 3f
       0.7516866060493185 0.15548357660816675
000540 0a 0f 80 9e e1 5b d9 3f 40 f5 9e 58 36 de d3 3f
       0.39623299101388965 0.3104377618254439
000550 b1 4e 1f 9f 18 f1 d0 3f a6 28 92 12 75 08 cb 3f
       0.2647153428963334 0.2111955967596419
000560 05 7d b2 08 13 5d ee 3f 3f bd 75 9e a3 1e ef 3f
       0.9488616151683408 0.9724901289863864
000570 7a 81 49 3e b6 36 a2 bf 2c 6c 19 ad b3 9a af 3f
       -0.03557366857853857 0.06172715652493141
000580 d2 f5 b7 2b 82 22 d9 3f 64 db e4 98 af b5 e4 3f
       0.39273123044389735 0.647178457852402
000590 66 67 bd 71 1b fe e0 3f 22 64 2a 88 95 be cb 3f
       0.5310189458352681 0.21675366543493718
0005a0 29 41 e2 77 17 61 d1 3f 32 a6 50 8e c4 d2 e0 3f
       0.2715510054340649 0.5257284907904192
0005b0 97 9e 09 1a 4a 1f cc 3f 3a 48 3f 94 73 b0 e9 3f
       0.21970487853399298 0.8027894874051136
0005c0 1f b2 d2 34 f0 2a c0 3f 1d 33 5c 52 22 ef d8 3f
       0.12631037310838253 0.389595585279311
0005d0 9f 52 be a0 40 52 be 3f 51 0c 7f e2 94 f7 d4 3f
       0.11844257282639113 0.32761118048455723
0005e0 3b fe 12 69 4c 8c e4 3f 4a a3 a5 33 7f 5b dd 3f
       0.642126279089957 0.4587095264783342
0005f0 b0 00 f3 08 b0 ed e2 3f 70 7f 10 39 4c ba eb 3f
       0.5915146040715822 0.8664914240398343
000600 d9 43 ac 17 f1 25 e1 3f 1f 7a 81 5a 50 a7 e1 3f
       0.5358815634118584 0.5516740577402891
000610 6e 13 1f c8 fc 46 c4 3f 87 d8 68 b3 fe a3 e2 3f
       0.158416364398501 0.582518911752019
000620 27 3d 81 ca f9 8e ec 3f b8 d3 0b 46 e5 ce e6 3f
       0.8924530940220493 0.7127558105554419
000630 8a 4e 95 58 1c 0b ef 3f 7f bf f5 08 21 da e5 3f
       0.9701062898770527 0.6828770804404342
000640 9d ca aa 4b a6 cb ea 3f b7 f6 f2 a3 a8 86 8d 3f
       0.8373595693468193 0.0144169974358833
000650 d2 4c 88 7f 4e a7 c2 3f 0d 74 b5 77 d4 e0 e0 3f
       0.14573079325837185 0.5274450624525585
000660 e9 ab ce 1f 9b c2 e5 3f 36 21 18 3a 8f 95 bb bf
       0.6800056096302544 -0.10775084656063857
000670 b6 60 ac 30 20 01 f2 3f 2d 98 da 26 ca f3 df 3f
       1.1252748395254861 0.4992547397072283
000680 4b ef 11 f2 6f 42 d2 3f 0e 47 f6 dc 45 f1 e8 3f
       0.2853050102200895 0.7794522586502539
000690 dd df e7 fa 87 c9 e9 3f cf 9f d7 57 72 8b f0 3f
       0.8058509731772535 1.0340445929850721
0006a0 8d 09 16 84 17 f4 84 3f 15 e5 1e b3 c8 e3 cf 3f
       0.010231193273970951 0.249138915501853
0006b0 20 ad a7 25 e1 d2 dc 3f c9 a6 a9 7b 8a 88 e3 3f
       0.4503710620617358 0.6104175963675625
0006c0 78 09 85 e7 27 6c ec 3f 90 b0 c4 85 48 ad e1 3f
       0.8882026216381709 0.5524027455008014
0006d0 b3 a7 d6 4d 1b 93 e5 3f d6 fb 40 31 40 93 d6 3f
       0.6742073555262692 0.3527374726290281
0006e0 31 a1 d0 40 b5 da ad 3f eb 28 e9 28 2b 7d f0 3f
       0.05830923477361905 1.0305587385251396
0006f0 9c f0 0c e4 15 4c e0 3f 88 a2 78 ca 7b 24 ec 3f
       0.5092877821075663 0.8794535593525135
000700 b5 0a 0b ba 2a c4 d4 3f 11 92 74 c9 bd 37 e6 3f
       0.32447307747149107 0.6943043646502379
000710 34 67 f7 77 6a 87 e1 3f f7 75 93 0e 4e e9 ea 3f
       0.547780260381137 0.8409796032607905
000720 e7 45 04 47 d1 fd e3 3f 9e 9b 17 50 c9 43 ca 3f
       0.6247335803074606 0.20519367609742017
000730 99 af e1 14 63 9e dd 3f 73 9a 97 e9 e9 48 eb 3f
       0.46279217757432317 0.8526506006572404
000740 b8 46 15 01 09 49 b3 3f 3e 63 3f 87 3b 17 b7 bf
       0.07533317829554675 -0.09019825031226689
000750 f1 37 ed 87 9a 39 d2 3f d6 de bf d0 ff e8 e0 3f
       0.28476584695897517 0.5284422948015741
000760 29 42 23 21 6d c9 ed 3f 70 9c bb 51 27 b8 dd 3f
       0.930838169786573 0.46436484319423865
000770 4a 0a 3b a1 80 de db 3f 25 94 d2 c9 45 73 c5 bf
       0.4354554724233465 -0.16758034090631316
000780 28 93 f4 e3 74 d2 d5 3f ac 46 38 f1 63 45 c0 3f
       0.34097025166765826 0.12711762693702633
000790 88 7b 31 fb e5 4a c8 3f b1 58 00 28 9e 9e e3 3f
       0.18978571667954847 0.6131125241543228
0007a0 32 4e cc 6c cc 40 e2 3f 82 8f a0 e6 b9 79 ec 3f
       0.5704099774324674 0.8898591522633839
0007b0 dd 55 ef 84 72 cf e7 3f a0 fa 0e 5c 0a 01 d7 3f
       0.7440731617340891 0.3594385050782112
0007c0 a4 e2 64 ed 2f 35 e9 3f 13 62 32 a9 ef f8 eb 3f
       0.7877425800898732 0.8741377167344261
0007d0 b5 c7 63 49 64 38 e0 3f f1 3e 6a 62 b8 6d da 3f
       0.506883757914912 0.4129467927059372
0007e0 76 2f b1 b6 12 32 e2 3f ba 5d f2 d2 d8 41 a7 3f
       0.5686124389844582 0.04542424750359993
0007f0 88 43 df 58 a3 7e c8 3f da 5a 34 9e 30 6d bb 3f
       0.19136468734225454 0.10713485586561991

L f8 [40, 40]
000000 22 55 df 98 38 b3 8e 3f 6e 0f b3 f1 b1 08 c5 3f
       0.014990274586959066 0.16432785321932947
000010 ee bd 00 82 22 68 dd 3f 6a 75 e3 e2 95 78 cf 3f
       0.4594808835563232 0.24586747721233887
000020 cd 73 ab 80 3d 81 d1 3f e8 c9 c3 7e 8a 23 d4 3f
       0.27351319852260475 0.31466925029158554
000030 67 cc da bb 36 b0 d8 3f 08 66 d4 a8 34 63 e2 3f
       0.38575523705657705 0.5746100709395146
000040 b5 0a 33 33 9a d2 c3 3f f8 84 34 76 d1 c4 d2 3f
       0.154864573478411 0.29326283019516053
000050 2e d9 b4 2c 34 b9 e7 3f c5 02 91 0b ea 15 ea 3f
       0.7413578866169581 0.8151750780017087
000060 ef f4 b2 69 e8 0a ad 3f 3e 3d e0 8f 2b ae cb 3f
       0.056723845389095355 0.21625275159065355
000070 ec 59 ce 00 15 ae eb 3f da e1 8d 0b 28 50 e4 3f
       0.8650002494567253 0.6347847200077539
000080 88 bd d9 54 b1 56 da 3f 74 76 a0 d1 86 9c e4 3f
       0.41154130254923205 0.6441072553895553
000090 11 08 ca a9 a3 56 e8 3f d3 24 43 d1 0c 3f cd 3f
       0.76057608758879 0.2284866353786926
0000a0 a0 6f 75 54 90 af ef 3f 20 94 af 3d da da dc 3f
       0.9901811265549334 0.45085769676217247
0000b0 9f 66 c2 d6 97 2d e7 3f ea 48 56 d3 89 b2 cc 3f
       0.724315566493903 0.22419855899040125
0000c0 c9 7f 07 df 67 4b dc 3f 72 fe fa 77 6b e8 ea 3f
       0.4421024015446134 0.8408715575569217
0000d0 9b 8b d1 8d 26 c3 e1 3f 51 8a ea 54 26 49 e1 3f
       0.5550720949071207 0.5401794107932095
0000e0 cb ad eb 12 28 01 cb 3f 17 4b b9 64 2b 5e e1 3f
       0.21097279476030759 0.542745300985504
0000f0 5b 8d e9 13 63 e8 c8 3f 62 7a 38 08 3c 05 d2 3f
       0.1945918891170589 0.28156948855204267
000100 6b 72 45 0a f9 e8 d3 3f cd 43 e9 29 33 cd e3 3f
       0.31109453204206855 0.6187988108232446
000110 69 e9 5d 22 ba 96 d3 3f ec 10 ec d3 fb 75 e7 3f
       0.3060746512998294 0.7331523074249424
000120 5d d7 1a c1 10 17 d5 3f f7 d0 3a f6 7a 69 ee 3f
       0.32953280313392047 0.9503760155844522
000130 07 24 69 88 08 c9 d0 3f 6a dc ef 4b 00 f0 d5 3f
       0.2622701007972527 0.3427735082218023
000140 f2 60 59 f4 b9 bb d5 3f b8 f0 5a 82 51 9a f0 3f
       0.3395829092237498 1.0376753894807234
000150 ba b9 30 c7 ce 41 d1 3f 2d 0c 52 5d d9 1a a4 bf
       0.2696415848939996 -0.03926734222570647
000160 8c d2 bc c0 0e e2 dd 3f 5b 2c c7 f5 bf cb e9 3f
       0.4669224626734738 0.8061218071319546
000170 d2 3b ff 0a 3c 76 eb 3f ff eb e6 97 3d 0b d8 3f
       0.8581829275880131 0.3756860717218728
000180 2d 57 d3 8c b2 3c db 3f da 96 21 00 97 01 9d 3f
       0.4255796790360929 0.02832637728024321
000190 92 1c 9f 4a f3 16 c6 3f 78 80 48 fd bc 39 e0 3f
       0.17257538932446842 0.5070481249749852
0001a0 6b 3b ab aa fe c8 d3 3f 61 64 fa b4 c7 15 9b bf
       0.30914274851686824 -0.02645027200796724
0001b0 d4 26 cb 4d d6 5a 94 bf 1a 3a 26 51 1a 22 e9 3f
       -0.019877766130582966 0.7854129395435081
0001c0 2c d5 9d ae 88 40 e8 3f cb f0 92 af 3e 34 d8 3f
       0.7578776751021556 0.37818877359292163
0001d0 70 a8 5c 3c c8 67 c7 bf 81 17 48 de 89 72 e8 3f
       -0.18285468051300624 0.7639817563474339
0001e0 73 80 27 b8 2c b9 c9 3f de 59 9c 1b 15 a4 d2 3f
       0.20096358291539537 0.29126479812967243
0001f0 44 9b 7a 3c 13 23 e9 3f 9d 77 09 69 f7 66 a3 3f
       0.7855316334942946 0.037894946643731255
000200 57 77 ea f5 4a f5 b7 3f 33 e2 98 1e 66 44 d2 3f
       0.09358662132077931 0.28542473781593286
000210 01 a6 d3 44 b4 e6 de 3f 8e 2d 02 79 67 4e d9 3f
       0.48283106538164594 0.3954104119991023
000220 b5 9f 25 1e d0 bb aa bf 73 21 6c 51 06 81 e1 3f
       -0.052214149169969394 0.5470000829964604
000230 1b 86 28 e8 33 0c d5 3f 7c be cf ea b8 ef df 3f
       0.3288697974367964 0.4990064900475557
000240 0e b5 fb 5d b5 0e d7 3f de a3 e0 6d fd 61 e3 3f
       0.36027273347902244 0.6057116647763185
000250 ca 1c 2d e2 cc 32 c1 3f 17 22 50 98 83 37 9a 3f
       0.13436280292282837 0.0256023942675104
000260 48 13 2e d7 40 f0 81 bf a3 c3 6c ed 4d 91 ea 3f
       -0.008759028021594908 0.8302373540119458
000270 a2 d4 78 75 ea 64 d7 3f eb ff e1 88 00 69 c9 3f
       0.36553441497683015 0.1985169094441511
000280 93 46 8e d0 30 6a cd 3f 4f ac 0e 3e f7 d8 c7 3f
       0.22980318244349415 0.18630877046720903
000290 82 8d 2c 71 92 35 ce 3f d1 47 db 3b 9b a0 c7 3f
       0.2360098888976659 0.1845888178127653
0002a0 1a 25 17 44 19 a5 cb 3f 53 4a e7 1e 26 94 e1 3f
       0.21597591232993169 0.5493345836242248
0002b0 f8 e5 84 32 b7 17 94 3f 47 aa 83 71 95 92 b6 3f
       0.019621717890208473 0.08817419072480802
0002c0 de d6 e7 56 3c 2b d4 3f 09 06 3c 7a c5 c7 e6 3f
       0.31513889777066406 0.7118861567871032
0002d0 85 6a c5 3b 39 01 ee 3f a9 df f5 40 5d 7e d7 3f
       0.9376493613629725 0.36708766311448443
0002e0 27 d3 aa 35 65 08 90 3f 97 35 fa 7c f0 75 ec 3f
       0.015657025719252673 0.8893969002689798
0002f0 16 c0 46 fc 1e 88 e0 3f 2e 2e c4 ea f3 a4 df 3f
       0.5166163375161001 0.49444291998290424
000300 2d 91 11 0d e6 9b e4 3f a2 d1 6f 81 e7 8d e7 3f
       0.6440305953260911 0.7360723045408586
000310 4d e0 c9 9d fa 1a e2 3f 3a 7f 71 c8 5c 38 d7 3f
       0.5657933313186817 0.36281508993669187
000320 53 86 11 45 c0 62 e6 3f c4 7e ef f4 9d 8e dc 3f
       0.6995545720093993 0.44620465201840553
000330 96 43 d8 93 60 82 db 3f bb 61 b9 23 7e 26 ca 3f
       0.4298325961872761 0.2042997049745859
000340 03 69 60 0b 70 dc be 3f b5 b3 ea 76 5a 7f e2 3f
       0.12055111196278649 0.5780460665315476
000350 bc 36 df 40 01 16 e4 3f 40 bf 6a 34 eb ad e2 3f
       0.627686144545542 0.5837303184289127
000360 78 ad 18 73 ae 35 d1 3f a9 b1 bc d3 d7 1b eb 3f
       0.2689014553058864 0.8471488128175696
000370 9b dc 7f 33 e3 59 db 3f f8 e2 1f 5a 1c df b5 3f
       0.42736129788631566 0.08543564987474983
000380 f1 c9 a0 ce 0c 38 e8 3f 5d de 24 93 80 db b0 bf
       0.7568420444206919 -0.06584933845885517
000390 24 1e 0e 19 b1 6b dd 3f f8 19 89 f2 a3 7e ee 3f
       0.45969798514167537 0.9529590355894575
0003a0 1d 83 06 8f 1d ec e8 3f 26 e9 59 4c 93 84 e2 3f
       0.7788226884332264 0.5786835185274739
0003b0 34 19 22 e0 6f 59 cf 3f ff 07 71 93 5c c8 e7 3f
       0.2449169010544182 0.7432082061498021
0003c0 dd 50 0b 29 54 ec f9 3f 80 52 fb 95 96 25 e2 3f
       1.620197449044148 0.5670884064989679
0003d0 70 02 69 b2 f5 61 e1 3f 65 d9 da 60 93 ca dc 3f
       0.5432079777311412 0.44986423929676383
0003e0 b6 ff f5 51 0b a7 e2 3f 4b 5c 61 7c e3 2c e1 3f
       0.5828911400603747 0.5367295674613016
0003f0 b7 c7 f4 62 fe 8d da 3f de 53 5c d6 61 9e e4 3f
       0.41491660751045906 0.6443337618571794
000400 23 3e e6 fa 9e 38 c8 3f d6 65 3c 33 d0 3a e8 3f
       0.18922793627687992 0.7571793556882607
000410 52 cf bf aa 2f a3 eb 3f 38 23 c5 7d 66 7d ea 3f
       0.8636701903292112 0.827807660717645
000420 41 8f 6a da 68 b9 eb 3f e2 5e 80 98 24 0d f2 3f
       0.8663830057089187 1.1282087285125546
000430 8f b9 a4 e1 21 51 f0 3f f2 5c fb ab 95 64 d6 3f
       1.0198077024648204 0.3498892001638999
000440 d3 8b 37 72 2c 04 d3 3f 66 55 63 3f 6d 27 e3 3f
       0.29712973741532983 0.5985628355071355
000450 f1 a0 b3 71 9e d0 f1 3f 40 18 d9 b2 15 a6 ec 3f
       1.1134323541137372 0.8952740185857309
000460 7d 99 01 4c b2 71 e7 3f a6 36 f1 47 b8 2a e0 3f
       0.7326289638993299 0.505214825164974
000470 26 06 a5 64 8f 25 a3 bf aa bc 37 85 0e 92 db 3f
       -0.03739593604633411 0.43078959474127976
000480 84 a9 20 51 da 6b e6 3f c6 1d c3 e5 32 fb e4 3f
       0.7006656250498939 0.6556639182608073
000490 85 5c ae 47 8e a4 d9 3f 28 f7 a7 ef 57 35 b1 3f
       0.4006686878214583 0.06722020722369548
0004a0 1a 94 c6 7d b1 88 f6 3f e1 73 5d 97 f9 c1 e8 3f
       1.408372393904989 0.7736785847042676
0004b0 b2 aa c5 cc 51 09 e9 3f 31 d3 91 18 3a 32 e0 3f
       0.78238763804014 0.5061312179446756
0004c0 19 6c 6a 04 fc 10 ed 3f 10 33 5d 1f f3 d6 d1 3f
       0.9083232961887716 0.27874448836227916
0004d0 9f d9 d6 8b b8 f3 e8 3f fe 5f 3d af 83 58 e0 3f
       0.7797510844455252 0.5108049795771874
0004e0 bd 6b 42 bd 5b 86 d2 3f cf f0 83 34 5a 54 9c 3f
       0.2894505832898025 0.027665528731618146
0004f0 e5 4a 9a 83 c1 14 b0 3f fd 4b 56 8b a5 cf da 3f
       0.06281671011883423 0.41892374617708567
000500 f6 ed 30 2b 34 d7 d9 3f 2b 0b 58 27 28 9d d4 3f
       0.4037599965847386 0.3220920929162953
000510 16 ab 57 98 3f 70 f1 3f ea f5 e3 c9 9c a9 ae bf
       1.0899043990018007 -0.0598877903412179
000520 e8 cd ab dd eb 92 a4 bf b8 be 06 d6 b0 1a e5 3f
       -0.04018342095323729 0.659508150119982
000530 bf 65 7c 54 e1 da cf 3f 31 9e ab f3 3c e1 ed 3f
       0.2488671934632247 0.9337448844134483
000540 bd 90 ac 86 e1 62 ef 3f 27 88 1d 9d 48 18 e2 bf
       0.9808204298356241 -0.5654643124255515
000550 e7 52 73 a0 ef 42 f5 3f e6 fd 9f 5b a7 91 d3 3f
       1.3288418071362516 0.305764998891361
000560 a6 93 a3 b3 14 86 ef 3f 72 bc 5a a7 24 cc e1 3f
       0.9851172932218233 0.5561698216096274
000570 e4 8e bf 13 8d ec d0 3f 7d 33 1a 18 b5 c3 d4 3f
       0.2644379322866668 0.3244450316786283
000580 e7 71 b4 dd cd 9c dd 3f 6e 43 d5 9c ab 6c dd 3f
       0.46269556666245965 0.4597577125141957
000590 29 6d cb 2f e0 9b cb 3f 51 b0 0e 70 7c 58 f1 3f
       0.21569444974634536 1.084103048061497
0005a0 a7 dd ca c7 d4 87 d6 3f 93 18 d1 f7 a6 1b df 3f
       0.35204047690373347 0.4860627575002436
0005b0 3d 93 33 fc 7d 78 ec 3f 15 e5 d1 ec cc 7b eb 3f
       0.8897085119066116 0.8588623643292147
0005c0 41 1f 94 16 cc d8 e2 3f 8d 18 1b 20 50 a6 d6 3f
       0.5889645043361967 0.35390093932472483
0005d0 e8 05 e4 86 cb df f3 3f cf bf 48 0c 7d e3 e8 3f
       1.2421374577683029 0.7777695884633377
0005e0 d6 8f 1d ec 05 a9 ed 3f 57 17 61 97 64 21 e2 3f
       0.9268827067976371 0.5665762859941691
0005f0 30 0a 11 3a db 5c df 3f 5b be 26 74 59 33 b7 bf
       0.490042502122523 -0.09062728009916425
000600 a9 63 ef 0f 37 d7 dd 3f 22 b0 c6 e6 95 9d e8 3f
       0.4662606864563324 0.7692365176531022
000610 81 8b 37 ab e7 ba e6 3f 4e 05 27 84 55 b8 f3 3f
       0.710315546425008 1.2325034296230402
000620 84 b1 a7 2b 4d 0e e8 3f a5 ff f1 c1 78 9a d6 3f
       0.7517457821500533 0.3531782049176349
000630 2e 78 c0 dd 21 86 c4 3f 91 af e9 d6 30 ad e2 3f
       0.16034339263654956 0.5836414525524437
000640 8e 15 a2 ba 33 8d eb 3f d7 20 04 d0 25 cb f0 3f
       0.8609865803888839 1.0495966077451635
000650 1e b4 64 e8 8f ca b7 3f 12 a1 6e 32 84 3e e3 3f
       0.09293460296312658 0.6013813958170735
000660 af f2 b2 17 df 99 e5 3f f6 8a 17 db 4c cd b6 3f
       0.6750331366416357 0.08907013272213846
000670 c5 85 4d 13 75 89 e7 3f 58 e2 75 f6 72 9a ec 3f
       0.7355294587143183 0.893853646629462
000680 13 4d 40 b1 19 12 df 3f df e2 45 ff a1 ad f1 3f
       0.4854797583549992 1.1048908206559458
000690 bd 22 99 40 12 4b da 3f c8 38 c7 b4 7d 5a dc 3f
       0.410831988414923 0.4430231347477158
0006a0 5b 55 e8 d2 0f 5f d2 3f ed e1 49 cf 54 b5 a6 3f
       0.28705211254540125 0.044352197936806316
0006b0 86 7d 48 f0 e0 d6 d6 3f 22 c2 da c4 dc 6e dc 3f
       0.3568651529803549 0.44426650260996514
0006c0 f1 41 52 df f5 bf c1 3f 66 d0 70 14 27 b5 e8 3f
       0.13867066768990768 0.7721133612854032
0006d0 15 f4 7c 75 61 5f e6 3f e9 b7 63 2d 53 2b e5 3f
       0.6991431517304841 0.6615386854662094
0006e0 46 52 16 16 11 a3 b5 3f 61 3d 24 62 b8 de 9e 3f
       0.08451945103872402 0.030146485319219155
0006f0 09 72 45 fb 8b 01 bc 3f 92 18 31 e2 00 da d3 3f
       0.1093986023383381 0.310180874720012
000700 c2 db ba 39 e4 53 ec 3f 0a c1 03 a2 d8 08 e8 3f
       0.8852406623399178 0.7510798611020004
000710 32 21 e6 85 e0 65 e1 3f 90 39 28 41 b5 4c d6 3f
       0.5436861624921561 0.3484318863201219
000720 21 e5 ea d4 d5 84 da 3f 8e a7 ec 04 7a 54 c9 3f
       0.4143576220772776 0.1978905223889424
000730 cd c3 76 f9 20 9e cd 3f f5 71 f5 9d ff 4c e9 3f
       0.23138820820670816 0.7906492314464787
000740 1b 1e c4 34 87 39 9b 3f 9d db ae 5f 17 1a f0 3f
       0.02658663997229214 1.0063699472063725
000750 93 28 e5 88 3a a7 d8 3f ee 7e 60 8c 6b 3e e7 3f
       0.3852068268648818 0.7263696424233481
000760 57 4e a2 91 70 82 b5 3f 64 87 6e d7 d2 6e c6 3f
       0.08402160220639963 0.17525706786278328
000770 b9 19 e1 eb 51 a1 ca 3f fd 4a 16 6a 73 d3 e4 3f
       0.20804809587043652 0.6508118698132815
000780 55 5f 9a 28 e7 7f dd 3f c0 e3 ab 27 c4 f2 d6 3f
       0.46093157735002893 0.3585672748009152
000790 f9 b7 54 89 ce 98 e6 3f 01 5a 32 72 99 0c d2 3f
       0.7061531717533845 0.282019006271554
0007a0 e6 17 1e 10 f5 84 e5 3f 24 6a 61 c9 0c 01 dd 3f
       0.6724801363750401 0.453189083729429
0007b0 54 4f 9c b0 9a 05 a9 3f 30 b7 34 2b 1d 26 d0 3f
       0.0488708820904821 0.2523262903149428
0007c0 f7 dd 54 93 33 88 f0 3f 22 b0 31 da f3 c3 c8 3f
       1.0332523112427887 0.19347999719627845
0007d0 00 1e a9 8a 9e 02 ea 3f 78 05 9a ce b1 ba b2 3f
       0.8128197391715162 0.07316123289094445
0007e0 38 16 43 77 4c 33 e7 3f c6 6e 7b cf 93 8d e0 3f
       0.7250120477044169 0.5172823955903929
0007f0 11 94 89 e3 e1 29 83 bf 63 0e 39 34 62 48 db 3f
       -0.009357228046789986 0.4262929449070951

weight f8 [50, 4]
000000 03 4e cc 6f 20 60 c5 bf a6 dd 02 33 04 d8 d8 bf
       -0.16699605425729666 -0.3881845949321935
000010 83 c8 7b 4a 7e 06 e4 bf 4d b0 95 ae ca 91 d8 3f
       -0.6257926420933163 0.3838984208039207
000020 6d 15 99 fa 01 dd a6 bf 76 55 0d b7 62 ac e3 bf
       -0.0446549051671735 -0.6147931647525826
000030 3d 21 48 0e 91 ca e0 bf f0 bc a0 8a eb a1 ca bf
       -0.5247273711147852 -0.20806640881480787
000040 1c 64 b4 0f dd 52 e0 bf a5 52 d2 da af 4c cb bf
       -0.5101151758891578 -0.21327779945990702
000050 d2 27 d2 c6 0a fb be bf 27 9e 8d 95 e4 8c c4 3f
       -0.12101809839273805 0.16054971029665063
000060 fc ca 12 b4 35 5a db bf e3 02 66 68 0c ff da 3f
       -0.427380967953624 0.42181692309536184
000070 46 bb af 5d 1e 71 b8 3f 9f d0 be 19 e9 ef d7 bf
       0.09547605311648252 -0.3740179778499257
000080 e9 23 1b fc 54 6f 95 3f 05 24 33 81 6b 7e d7 3f
       0.020932510268526192 0.3670910608021248
000090 64 e3 41 39 78 35 7d 3f 07 9f 1b 61 29 3a cc 3f
       0.007131070731809828 0.22052495233150912
0000a0 a1 56 20 1d c3 9f d5 3f 82 0f 0b 86 1a 3e d3 bf
       0.33787610859267586 -0.3006655034080198
0000b0 72 c7 f0 5e 1f ca db 3f fd a6 af 97 54 b7 dc bf
       0.43421158095872336 -0.44868960202312264
0000c0 11 1a 1f 83 d4 64 df bf 42 33 2e 5f 51 c9 b6 bf
       -0.4905291824801746 -0.08900936673871931
0000d0 bf 8a 64 43 15 ac d1 3f 28 57 7d ab 6b 74 d8 3f
       0.2761281164295432 0.38210574862511004
0000e0 5e 21 c7 ef 90 9a d3 bf c3 11 52 5b c7 c8 62 bf
       -0.3063089696484179 -0.002293004387470017
0000f0 9c 6d cf 25 65 ee 9d bf 60 3f d2 db b3 a1 d4 3f
       -0.029229717667346486 0.3223695418064292
000100 bb b2 5f 48 77 23 cb 3f 07 f7 b6 08 42 d2 c5 bf
       0.21201983484151818 -0.17047906327746196
000110 57 88 ec d4 09 56 b7 3f 2f 15 32 da aa ba a5 3f
       0.09115659187639956 0.042439784178933564
000120 ea 87 38 58 f6 e0 cb bf ae 4f 31 50 bf 84 c9 3f
       -0.2178028040662519 0.19936362662940382
000130 af c6 18 79 e5 77 d7 3f c4 7e c7 0b 8c a8 ba bf
       0.36669289422853074 -0.10413432395534544
000140 9b 17 60 43 d0 94 c4 bf 5b 82 fa ee 19 7f ca 3f
       -0.16079142846882352 0.20700382393717373
000150 6d b4 b9 e7 77 a0 d0 3f 5b d8 16 2b 7e ea d6 bf
       0.2597942126220179 -0.35806230743344764
000160 9c 92 a6 34 30 37 d3 3f f7 fa 7c 37 91 7d c5 bf
       0.3002434267203087 -0.16789450845131856
000170 e2 00 3b f1 f4 1b ca 3f b3 18 d0 4f dc 44 d4 3f
       0.20397817400772228 0.3167029170439363
000180 24 d0 98 9a 40 5f d3 3f b2 99 5b 9f 47 97 e0 bf
       0.3026887426124196 -0.5184667694527916
000190 4e 3d 08 d9 06 fb c5 3f 9e e8 aa 8b 1e 3b dc bf
       0.17172322842859916 -0.441108356851723
0001a0 db 95 75 0d 5a 32 db bf b4 d4 0d d8 47 03 d8 3f
       -0.4249482280195857 0.37520023440385875
0001b0 ca 29 db b8 bc 35 de bf a4 3b 5b b6 16 86 a3 3f
       -0.47202985813478604 0.038132390747356554
0001c0 55 46 dd 6e 1b 0c d0 bf 4e ac 2a 02 ca 56 cf bf
       -0.25073896242711174 -0.24483609300418369
0001d0 b4 2b 49 1a 45 55 df 3f 63 7e d1 66 58 c4 6b 3f
       0.48957946364378846 0.0033895231813827905
0001e0 e7 17 ec c8 c6 41 d5 bf a8 12 8e 8e c1 d3 7e 3f
       -0.3321396791583297 0.007526165086237192
0001f0 f9 a6 08 51 13 a3 dc bf ba 5b 24 77 fb 80 cc 3f
       -0.44745333589035813 0.2226862270115058
000200 88 8f 9d c0 fe 11 d5 3f c1 03 65 31 63 7a cb bf
       0.3292233353624785 -0.2146724692520632
000210 78 3f d0 cb f2 e9 c6 3f 72 4e f1 46 92 52 dc bf
       0.17901453925923838 -0.4425397579954967
000220 6f 92 77 82 10 99 d3 3f 4d 42 c7 b4 b6 1b dc bf
       0.30621731511045075 -0.4391915097631099
000230 b8 27 2d 35 68 2c af bf 02 20 d8 0c 45 a8 e0 3f
       -0.06088567399144956 0.5205407381881744
000240 8c 5a 61 f4 17 2c df 3f 08 1a 55 f3 f2 71 b8 3f
       0.48706625809919823 0.09548872414334408
000250 41 f0 7e a1 56 1f c5 bf dd 90 f4 cd 6a db c9 3f
       -0.1650188721231434 0.202008581699494
000260 e9 33 79 04 3d 69 c6 bf 91 cd d8 2d 75 ad d2 3f
       -0.1750866195528993 0.29183701970324544
000270 84 a4 95 da 80 27 bd bf 1d f0 c6 40 27 48 d4 3f
       -0.11388402306114825 0.31690388990296176
000280 4a b5 25 dd a8 1c db bf fd 6a 55 1c 17 a5 d0 bf
       -0.42362424465575954 -0.26007631079635
000290 bd 7b 3c 0a 31 05 a6 3f 36 d3 3c ff 4f 73 dc bf
       0.04300835847811111 -0.44453811574503577
0002a0 ff 40 ab 70 71 ef cf 3f a6 dd 14 21 37 8a d7 3f
       0.24949472428716743 0.36781099539390494
0002b0 24 6f 88 1a be 98 d2 3f ce 2c 24 06 6f 73 d0 3f
       0.29057266799076076 0.25704551315056967
0002c0 2a f3 61 e5 65 cf cb bf 7b 77 6b 5b ec 99 aa 3f
       -0.21726678562472418 0.05195559135402924
0002d0 f8 3c 8f db a0 32 d5 bf 77 9b 64 c6 d6 e0 ce 3f
       -0.3312151092658975 0.24123654067190234
0002e0 87 a0 a9 74 0a 18 d0 bf 6c ef 2d 8b 2f 96 c3 bf
       -0.2514673365863093 -0.15302080436583354
0002f0 d9 27 e2 58 1c 5b be bf fe 5a c4 fa e7 c5 d4 3f
       -0.11857773942952522 0.32457923401800304
000300 ad 56 3b ea 98 e2 cd 3f d3 4d af 3f 0f d9 b3 3f
       0.2334777015409392 0.07753081612400274
000310 03 dc da f6 5e 56 dd bf 6d 19 fe 96 58 1d c2 bf
       -0.45839666468549484 -0.14152057049450253
000320 22 8e 43 70 9e 6e b7 bf 9c 44 0a 78 7c 03 d6 bf
       -0.0915316604692227 -0.34396278116862233
000330 d5 48 04 f9 7a 51 d6 3f 5a a7 20 dc 25 32 c8 bf
       0.3487231666378084 -0.18903039215484335
000340 56 f5 55 8a ac 97 ce 3f 7a eb 29 22 d8 83 b2 bf
       0.2390037227122927 -0.07232428392482673
000350 bb 14 a8 23 3a c3 a2 3f c8 ef 45 19 32 48 dc 3f
       0.03664571461926288 0.4419064757164475
000360 1a 30 37 7c ff 01 de bf 5a 30 ae e1 85 cf 91 bf
       -0.46887194757869255 -0.017393199824752827
000370 10 64 c7 92 d2 68 d8 3f 2b f1 4b bb b2 d8 d0 3f
       0.381397860850087 0.26322620669067714
000380 42 ca df 47 30 6b c2 bf d5 93 c1 c4 9b 76 e0 3f
       -0.1438961363742966 0.5144785731214322
000390 6b d8 82 41 66 ee c5 bf ed 69 0f 6c 0c 43 c3 3f
       -0.17133787344727422 0.15048365856530613
0003a0 79 4e 19 fc 3e 0d bd bf 70 0a 54 1c d0 86 db bf
       -0.11348336844212693 -0.43010332838472376
0003b0 2e 45 da 7b b1 49 dc bf d3 05 0c f3 f4 42 d5 3f
       -0.44199788184149014 0.3322117208009249
0003c0 9d 2a e0 5e 4e 04 d8 3f 22 3d 96 0c 91 34 cc 3f
       0.37526282563400476 0.2203542052707031
0003d0 25 31 50 7d 69 a1 c2 3f 5a f2 8a 2a 71 19 e0 3f
       0.1455509054070571 0.5031057196534434
0003e0 4f db ed b0 be 92 bc bf b7 00 0d 45 fa 4f c7 bf
       -0.11161414928015499 -0.18212822314854346
0003f0 7f 00 0a 6d 67 c9 96 bf cf 37 ab 38 ae b1 b8 bf
       -0.022252670316902808 -0.09646119006649133
000400 7f 76 28 39 dd b9 da bf 33 b4 08 ca d7 03 e1 bf
       -0.4175942476448213 -0.531719107244163
000410 06 ca 99 4a b4 92 b3 3f 4e c9 6b 14 72 52 d2 bf
       0.07645727940852262 -0.2862820815490935
000420 cc 89 7a 8a 83 16 d9 bf 63 16 b7 f6 01 63 d6 3f
       -0.3919991352396692 0.3497929486587507
000430 a9 5e b8 e4 36 91 b3 3f 05 df 03 04 0f 59 d3 3f
       0.07643454631795045 0.30231070892431006
000440 7b 5f e7 ce 9b 4b c2 bf f6 2d bf b9 81 07 9e bf
       -0.14293239214634554 -0.029325510942539844
000450 9d c0 7b 6c a4 81 d3 bf a2 7c ef da 05 72 a8 3f
       -0.3047877368362693 0.047744925475620606
000460 ef 39 e0 ec b4 60 9a 3f 1e 4a 0b 5a 76 1b ac 3f
       0.025759531934506027 0.05489702080889834
000470 b0 ce 93 74 5b 32 e0 bf 40 91 0b 55 08 0a d6 bf
       -0.506147124948674 -0.34436233811563355
000480 6d 23 31 c6 e6 ef a0 bf 8d 1d 03 7f 65 84 dc bf
       -0.03308030289969719 -0.4455808391907901
000490 5e 9c 33 f7 d8 d3 d0 3f c1 47 a5 a8 21 88 d3 bf
       0.2629301466062709 -0.3051838061265891
0004a0 a0 32 8d 11 c4 db cb 3f 25 f7 45 79 06 22 df bf
       0.21764422280320606 -0.4864517387685388
0004b0 91 07 d3 65 b2 5f b8 3f 95 5b b9 e3 6f 72 d5 3f
       0.09521021829553279 0.33510968435933225
0004c0 98 d7 a8 41 6d 85 d0 3f eb d0 87 a3 e6 8d ce 3f
       0.25814372455658363 0.23870547280205953
0004d0 eb a5 e7 9c 82 d8 b9 bf 2a f2 a3 c3 00 5e d9 bf
       -0.10095993357358395 -0.39636248689183395
0004e0 ff 96 94 80 b4 1c da 3f d3 fd 5d 8d df 66 d6 bf
       0.4080020194690945 -0.35002888493906176
0004f0 d7 1d a5 4c a1 84 d3 3f 07 25 e6 bf 49 9e cc bf
       0.3049700973974416 -0.22358056898182374
000500 3a cb b1 a8 9b 2e d2 3f 62 78 c0 20 e2 c2 c6 3f
       0.28409472917626355 0.177822366706951
000510 31 de a2 5f a5 51 d6 3f da 41 85 72 73 a5 d8 bf
       0.34873327578995644 -0.3850983255734072
000520 44 67 8a 9f eb 01 ca 3f 14 fa cb ab ad 78 bc bf
       0.2031836060530684 -0.11121640629060209
000530 53 4c 44 31 5b 55 cb 3f d8 ed e1 87 7a 12 c4 3f
       0.2135423651276108 0.15681392321481158
000540 72 e5 9a ad fc 91 b2 3f 08 17 fa cd e1 54 da 3f
       0.07254008520512459 0.41143078913624764
000550 60 7b 83 84 69 96 bf bf 07 64 4b 0d 68 22 d2 3f
       -0.1233888577003035 0.2833500032261899
000560 5c 8e 76 39 a7 f9 dc bf 00 cf e9 0f 0c ec b6 bf
       -0.45273762332565126 -0.08953929317959464
000570 6f b1 97 b7 4c 9f cf bf 76 9c 52 d2 f1 52 bc 3f
       -0.24704894031982458 0.11064063439208546
000580 09 75 70 f3 10 6d d9 bf f6 dd 34 a6 08 ee c2 bf
       -0.39728187344901805 -0.14788921466400468
000590 29 e6 59 d5 64 8f e0 3f c6 de b5 8c 60 1c d2 bf
       0.5175041358008389 -0.28298200360539416
0005a0 d6 8c 1a 15 77 d3 9e bf 0a db f5 3e 5e d0 c9 bf
       -0.030103550589626625 -0.20167139124142636
0005b0 98 cc 61 95 e7 df d8 3f 6b 7b c7 26 e8 d2 c4 3f
       0.3886660536583775 0.16268636601941053
0005c0 d6 c6 78 c9 6b 31 bc 3f a6 1b 74 80 b0 18 df 3f
       0.11012910526985861 0.4858819250516099
0005d0 52 d4 1b 38 73 3a a4 3f cd 23 ee 4a 9c 5f d6 3f
       0.03950843868180044 0.3495856029263081
0005e0 fc 5e c3 eb 9b d7 d0 3f c0 f6 c3 d1 40 35 db bf
       0.26315973304507145 -0.425125317429643
0005f0 4b 6c c5 65 8b 9f bd 3f fb 78 1d d9 4c 51 be 3f
       0.11571570620201148 0.11842804241812026
000600 9b f7 be a7 f1 10 c7 bf 18 0d 17 b5 fe fe c1 3f
       -0.18020458880158405 0.1405943283299187
000610 82 ea d3 f9 64 e3 dc bf a3 06 c3 a9 d8 b2 ca bf
       -0.4513790549969273 -0.20858295716430061
000620 d8 20 1e 43 68 65 c6 3f 1c 80 7e c1 cb 57 c3 bf
       0.17496970441084758 -0.1511168188853852
000630 af 93 bf cb f2 71 da 3f 19 6e f2 c5 6a 9f b5 3f
       0.4132048597078279 0.08446376164140935

bias f8 [50]
000000 38 e4 b5 7a 30 61 d4 bf 87 38 a3 71 b3 b1 d4 bf
       -0.3184319685311183 -0.32334600541515396
000010 62 ca e5 a8 99 2e d5 3f d3 52 4e 2e 69 f7 c6 3f
       0.33096925252826825 0.17942538033516672
000020 45 ac 06 81 ca 04 9a 3f b5 40 86 d5 10 d0 cb 3f
       0.025408901333929163 0.21728716302869136
000030 ba 41 05 db f4 6f c3 bf 7e b7 1a 30 c8 c2 d3 bf
       -0.15185414022790927 -0.3087635488289989
000040 58 cb 37 71 6f a7 c0 bf 32 56 78 0c 28 49 d9 bf
       -0.13010972049922986 -0.3950901147630673
000050 78 32 c9 22 82 54 de bf 49 e4 ec bd 6a a7 c8 3f
       -0.4739079799372017 0.19260916017245425
000060 8d 52 a2 4b bb 85 b7 3f da cc b7 c2 34 b0 df 3f
       0.0918843326238152 0.495129766611354
000070 63 9d 9a 62 56 e2 bf 3f 82 58 11 be 56 06 b5 3f
       0.1245473852856001 0.08212797298742383
000080 fc 58 d7 93 f8 ce d2 3f 20 a2 aa 2e d4 75 a7 bf
       0.29388250768296564 -0.04582083768520229
000090 2f c2 8f 06 c5 26 94 3f 43 77 f0 a0 97 38 9a bf
       0.01967914440678181 -0.025606507490116625
0000a0 76 9a 26 3c 22 98 d6 3f f9 f0 11 1f 33 83 bc bf
       0.35303550600148215 -0.11137694843813851
0000b0 43 e0 08 51 cf 2e c5 bf c1 92 03 0d fd bb cc 3f
       -0.16549102265139667 0.2244869531197278
0000c0 25 40 64 40 84 a9 9b bf d9 7e 3d 5b a9 d8 d2 3f
       -0.02701384203925285 0.2944739714639418
0000d0 a3 fd 84 6f 1f bc d6 3f cc 32 33 4d 8a 6d b1 bf
       0.35523210421157553 -0.06807770142331576
0000e0 0b bd 48 97 15 49 d5 bf ea 5d 37 72 83 f9 b5 bf
       -0.33258571409074084 -0.08583852327807731
0000f0 6e 75 3c 3d 1c 14 da 3f e4 e0 6b b6 3d 5a d9 bf
       0.4074774358758394 -0.3961328774889934
000100 1c d6 b0 2d 90 61 cd 3f c3 ff e4 b4 c4 75 d7 bf
       0.22953989249224171 -0.3665630117939111
000110 eb 49 c5 dd 82 d3 97 3f 68 a0 57 a0 88 e3 c5 bf
       0.023267788682753403 -0.1710062773629517
000120 bf 13 82 44 11 55 ac 3f ef 98 71 fa 43 d1 a6 3f
       0.05533651315003096 0.0445653193681198
000130 e5 cd 51 32 05 5e c1 bf 18 2f 8b cb b5 21 d5 bf
       -0.13568177182206323 -0.3301825034838983
000140 0b 20 77 06 8e ca c5 bf b4 16 8f 1a f1 fd c0 bf
       -0.17024398151102135 -0.132749689071877
000150 27 9f 6c 74 49 d1 a3 bf cb b5 75 75 bf 32 b6 bf
       -0.03870610758013831 -0.08671185128851915
000160 0f d2 32 96 80 b3 c6 3f d5 bc 01 c0 5a db ca 3f
       0.17735297521507262 0.20981916785556246
000170 39 00 7a c3 15 8c dc 3f bb cf 14 bc 75 94 d1 3f
       0.44605011071689976 0.2746862732631105
000180 4f 19 e8 c3 ea e7 d5 3f 40 a2 fd af c6 6d df 3f
       0.34228009349353256 0.491075202814077
