lasa_models/4/skel_model_heee.pt (torch, 99247 bytes, 18 tensors)

R f8 [20, 20]
000000 40 b4 1a 7b 0c 49 95 3f 91 07 3c 6f 2a ec c6 3f
       0.020786471379939053 0.17908220702525715
000010 65 55 db 9a 53 b0 a0 3f 7c 60 57 55 b0 a5 d0 3f
       0.0325952650579591 0.260112841931466
000020 d6 f9 82 95 72 b8 9a 3f 83 0d 64 9c 61 ad d6 3f
       0.02609423673197305 0.3543323542837344
000030 88 c8 6f fa 77 a1 bb 3f dc 7b bf 6b d3 14 b3 3f
       0.10793256630111803 0.07453652744833
000040 c9 88 2c 21 fd 67 e0 3f 9b a2 bf 4f 89 f0 b1 bf
       0.5126939437798451 -0.07007654377924626
000050 e1 ee dd 8a ea 99 d0 3f 99 98 dd e3 ed e0 e3 3f
       0.25939429818366305 0.6212071848392667
000060 7d 70 5b 5a 46 4e e2 3f 36 02 91 b6 98 c5 e1 3f
       0.5720550312794469 0.5553706708670407
000070 85 23 46 ab d0 46 e9 3f 60 a7 50 57 1b 1d e7 3f
       0.7898944230265533 0.7223030763027332
000080 94 eb 80 02 87 a2 e1 3f 90 bb 91 fd 9b 41 db 3f
       0.5510897683046658 0.42587947619079447
000090 ea 49 f2 43 7d eb e2 3f 2e 4e 2f 43 5c 87 e4 3f
       0.5912462546423829 0.6415234863474717
0000a0 00 ee 71 e8 47 d4 df 3f 00 33 b6 22 02 02 db 3f
       0.4973315973254273 0.42199757947746264
0000b0 07 60 3c 76 78 84 c0 3f bb 02 38 e0 84 e3 ca 3f
       0.12904268048509968 0.21006833027060687
0000c0 4e ca a4 49 9a ef ec 3f 8e d6 e3 0d 0b 30 ee 3f
       0.9042483747819661 0.9433646460808676
0000d0 ec ad a5 58 dc bf e2 3f d1 26 27 94 a5 97 df 3f
       0.585920498980554 0.4936307856374756
0000e0 2c 05 8f 24 c7 8e e7 3f 90 bd d2 a3 32 16 d1 3f
       0.7361789430653167 0.26697984693870414
0000f0 5d b9 93 9b 61 82 e2 3f 49 f2 00 7c 8e b0 e2 3f
       0.578415683614178 0.5840523168513495
000100 93 a3 c3 30 2f 98 e5 3f 99 75 b0 65 ca 14 d8 3f
       0.6748271896768635 0.376268958383514
000110 37 b5 82 bf 48 66 e5 3f c8 64 3e 39 ec f7 ea 3f
       0.668735860866639 0.8427640073815832
000120 fa 72 7e 9d e5 6c ae 3f 37 a7 89 70 10 b1 ec 3f
       0.059424567675909715 0.8966142843248467
000130 9c 62 97 aa 24 63 ea 3f 1f 2e 78 56 c1 ab df 3f
       0.8246024448263429 0.4948581070354709
000140 f0 aa a1 90 28 03 d1 3f a5 cd 23 9a b2 87 c9 3f
       0.26581777691050856 0.1994536640773791
000150 4c 5a 58 de c7 fd c2 3f eb 62 19 a7 d4 02 e2 3f
       0.14836977345176405 0.5628455413489893
000160 ba c3 82 70 c7 8a c1 bf a3 0f 10 be db e0 df 3f
       -0.13704770082179413 0.4980992656785423
000170 84 3d b1 d9 f6 0c f1 3f cf 56 19 bf 60 b6 be 3f
       1.0656651023490165 0.11997036614897215
000180 12 b3 f0 db 57 2d c2 3f a3 9f c5 68 e9 df b0 bf
       0.14200876464146767 -0.0659166222372947
000190 fc a9 9d a4 b9 2b e6 3f 91 d0 3e 50 a9 b0 e9 3f
       0.6928375449327286 0.8028151099483855
0001a0 94 af 88 18 9b 75 e9 3f 9b 8d 26 a4 48 b5 d9 3f
       0.7956061820200255 0.4016896822961031
0001b0 4b 95 da 61 d6 cb e4 3f 29 6e e9 03 af 65 c2 3f
       0.6498824988563369 0.14372813883788751
0001c0 35 44 da cb 42 47 ef 3f e3 48 3c 1e cd 5c d1 3f
       0.977448843145004 0.27128913834270757
0001d0 cd ec 05 db 74 25 e8 3f 92 ab 05 11 22 0a c5 3f
       0.7545723226352493 0.16437173682365064
0001e0 e5 42 f6 d6 e0 b9 d9 3f d9 dd 92 03 33 bf c4 3f
       0.40197010986689313 0.16208493875977473
0001f0 ea ca 13 37 66 6d de 3f 00 cb c9 c3 5f fa 86 3f
       0.47542720202106514 0.011219738161547976
000200 b9 49 19 a1 08 c6 ec 3f fe 66 63 59 7d ed d6 3f
       0.8991740366421289 0.35824521760297035
000210 9c e6 82 96 d4 3f e9 3f 69 ac 8b 8e 6e 14 db 3f
       0.7890417995142402 0.4231220619246359
000220 b4 3b dc 32 5c 67 e3 3f 2c cf da 21 4b 2f e9 3f
       0.6063672059407197 0.7870231305337021
000230 17 b0 54 9f 1e 0d d2 3f 23 5d a8 fb 8c 16 e3 3f
       0.282050757977005 0.5965027728260889
000240 25 e9 2c 70 27 42 cf 3f 32 b0 a7 e3 f8 5d e8 3f
       0.24420636155429878 0.7614712187182759
000250 b9 da 31 5a 55 f3 eb 3f 41 2d d3 ed b0 b0 a8 3f
       0.8734537850967491 0.048223046332703585
000260 fe 7f 15 69 9a 90 d5 3f aa 5c 1a 60 7a 82 ba 3f
       0.3369508768282684 0.10355343672050546
000270 9d a5 74 88 ff 91 e2 3f e7 5f 91 60 0f cb c4 3f
       0.5803220429563002 0.16244690146663673
000280 a8 4a 7b e6 de fc e8 3f 7b c5 ca 77 aa 6d d7 3f
       0.7808680059045701 0.36606847475476173
000290 12 ba 3e 55 52 90 d3 3f 16 80 d6 08 68 ee d2 3f
       0.3056836922141041 0.29580117095065483
0002a0 0b 5a 5a 8e 18 7f e9 3f c2 f2 4e 1f bd f4 e5 3f
       0.7967646389323034 0.6861253367893243
0002b0 83 ee bc 5a 07 e2 d0 3f 0d 56 4d 83 6c 02 c4 3f
       0.2637956987489149 0.15632397090182373
0002c0 75 bd 82 43 d1 2d e3 3f a2 66 ef af c5 64 e2 3f
       0.5993429487770486 0.574801295874938
0002d0 11 25 13 8a 54 47 d0 3f d3 0f 98 69 14 43 e9 3f
       0.25435365184655817 0.7894384443648
0002e0 3a ba e9 9c 04 4a c2 3f 3a b9 a3 68 aa 10 d5 3f
       0.14288385068671677 0.3291421911116178
0002f0 69 6e d6 b8 38 de d2 3f de 69 a0 b2 f5 2c ea 3f
       0.2948133282713799 0.8179882515717585
000300 94 bd 40 8b bf bb e0 3f b7 ff 35 24 53 3d d9 3f
       0.522918483713442 0.3943679669973749
000310 b8 51 5c 71 29 57 d6 3f 43 60 b3 68 3b fd e2 3f
       0.34906993933079944 0.5934121174750618
000320 8a e0 65 12 fd 95 e4 3f d4 83 f8 ea e7 39 e8 3f
       0.6433091506323916 0.7570685948631941
000330 37 9a 77 9c b7 9e db 3f 00 d8 e4 a3 a2 09 f0 3f
       0.43156233100890823 1.0023523714166913
000340 9e 7b f4 f6 40 0d e2 3f 50 ed 8a 34 9c 73 c1 3f
       0.5641178916301788 0.1363406426006386
000350 d3 e0 90 38 c2 3e e6 3f ff 2c 57 67 02 cb ea 3f
       0.6951609711459475 0.837281419598554
000360 31 78 c7 c9 df 66 ea 3f 65 18 68 b6 62 80 d2 3f
       0.8250578824042859 0.289086034900157
000370 7a ae d0 96 09 4d d9 3f 3b cc fa e5 be 2d ef 3f
       0.39532699325602716 0.9743341914930918
000380 44 86 f9 41 bf 8e f1 3f 92 c1 e5 ac 96 ca ec 3f
       1.097350366319362 0.899730050745392
000390 5a 67 40 f0 69 9d c6 3f 27 a5 0b 33 24 46 dd 3f
       0.17667888861688646 0.4574060915461637
0003a0 e7 71 89 e4 a2 57 b0 3f cf 03 d8 0e 8b d7 c1 3f
       0.0638372238112833 0.13939035630030935
0003b0 b3 8c ab 60 36 cf e5 3f 4c fb a3 41 7c 0c e8 3f
       0.681544483956165 0.7515240938226753
0003c0 7c 58 52 c5 15 7e e3 3f 2f 63 f2 ea 91 f2 e8 3f
       0.6091412404955601 0.7796105946355051
0003d0 d2 22 2f ae bb 5a d4 3f d8 fb 2f 2c 39 2f ed 3f
       0.3180379105583998 0.912014566711032
0003e0 7d 41 e3 4f 65 99 c1 3f 92 63 db 0b a0 94 d8 3f
       0.13749376679198724 0.3840713611403369
0003f0 bc 85 9a 41 1c cb cf 3f 18 8d 16 79 ef 7f d1 3f
       0.2483859367685407 0.2734335596562274
000400 18 f6 bf 18 aa 56 df 3f 32 8e 75 c0 33 d5 eb 3f
       0.4896645776460402 0.8697756537407655
000410 2e 76 41 a2 b9 29 cc 3f 0d 9c e8 38 fa bc e0 3f
       0.22002334997789447 0.5230685340401365
000420 26 83 e3 4a 5b ab aa 3f 02 4f 89 71 3b 89 73 3f
       0.05208859719437546 0.004769546700646778
000430 58 64 90 3c 1d cf d5 3f 4e 68 37 90 e3 14 dc 3f
       0.34076624788719334 0.4387749584544779
000440 08 8d a7 3c 09 47 df 3f 16 3b bb 2e 90 d4 e7 3f
       0.488710698349863 0.7446976578447415
000450 c7 4d 00 d0 a1 b3 d2 3f b7 42 56 f5 51 fd e3 3f
       0.29221387207618615 0.6246728698480045
000460 81 a2 50 47 7d e5 ab 3f 69 48 70 67 16 d1 d7 3f
       0.054485239940111015 0.37213668919969806
000470 64 07 56 f7 e2 62 d3 3f b9 54 05 21 77 7f e3 3f
       0.3029105582610241 0.6093097348154038
000480 ea 47 af 4b 23 5d ea 3f 8b 9a f1 b3 0c f3 ea 3f
       0.8238693693367598 0.8421691431547783
000490 cf 20 18 75 34 af e2 3f 92 9c 41 2d f5 4f d1 3f
       0.5838873183247645 0.27050523204383936
0004a0 d9 79 27 5b 26 1d da 3f 66 1e 5a 44 aa 68 d5 3f
       0.4080291643312229 0.3345132510662324
0004b0 7d 57 04 87 be ff ef 3f cd 41 41 a3 47 68 d0 3f
       0.9999687802362441 0.2563647360120996
0004c0 17 2e 6c b4 6a ff c9 3f 71 0f dc 99 d7 5d e6 3f
       0.20310720262237744 0.698955345637371
0004d0 19 ad 78 3f 2c 3b e5 3f 9c 93 05 8f 26 11 ac 3f
       0.66347324749714 0.05481834884520895
0004e0 25 8a 33 a9 25 62 db 3f 3a 06 36 a0 c6 27 e0 3f
       0.42786542438094194 0.5048554543611268
0004f0 c3 0a 66 4f 9c cf e1 3f 3b a7 20 26 ff 71 e5 3f
       0.5565930891756 0.6701656098059411
000500 d4 d2 00 13 b8 50 c8 3f cc 4b 82 04 92 2b e3 3f
       0.18996334960833983 0.599068650061207
000510 d5 ea 01 9a f3 41 dc 3f 5e b6 1c 30 9f c9 dc 3f
       0.4415253643016233 0.44980601976826573
000520 21 a9 da 92 42 13 e6 3f 36 b7 8e 16 af c5 c4 3f
       0.6898510807270989 0.162282835020443
000530 02 d8 01 2f a0 93 dd 3f 91 c9 05 66 91 ac e3 3f
       0.4621353587202749 0.6148154251698533
000540 77 00 4e e3 01 80 e3 3f a8 3c 9e 59 fe 14 c3 3f
       0.609375900225145 0.14907817245373178
000550 e2 5b 70 ba a8 de ec 3f 98 44 b2 5f 90 9c c3 3f
       0.9021800652870946 0.1532154528872851
000560 cb 85 9f 14 92 08 ca 3f 48 cc 7a 5f de e1 d2 3f
       0.20338655478467013 0.29503592800319156
000570 de 43 de 54 53 02 db 3f 62 51 61 29 12 92 e8 3f
       0.42201693809425744 0.7678309257703797
000580 61 f7 55 16 68 8a b0 3f 64 f1 a5 fe 4f 41 8c 3f
       0.06461191697414172 0.013796448668238433
000590 93 e5 a0 7a c9 2a c7 3f e0 5d c8 bb 2c e9 d5 3f
       0.18099325645179629 0.3423568567099817
0005a0 e2 fb 56 e2 f6 67 e2 3f 30 4b 73 90 d6 48 e8 3f
       0.575190965719113 0.758891374711629
0005b0 ac d9 27 5f cb 83 d4 3f 91 91 0f 20 60 9e be 3f
       0.3205440930609267 0.11960411818251361
0005c0 d0 13 53 37 2f 76 e5 3f 2d 17 70 75 bf 94 d2 3f
       0.6706768112713863 0.2903288504461326
0005d0 23 fb 92 b5 23 34 dc 3f 66 0f e3 02 4a 4d e9 3f
       0.44068234187936833 0.7906847053895774
0005e0 17 74 cb e9 0c 96 d8 3f 5e 70 6e 8b 13 97 ec 3f
       0.38415835219876854 0.8934419368047306
0005f0 67 7b 66 14 1a 2b ed 3f 45 4a 77 81 e2 ea b7 3f
       0.9115114592021712 0.093427807433991
000600 41 ce d7 60 ad 46 e4 3f ae 8e 87 83 78 df d2 3f
       0.6336275950874964 0.2948895725696542
000610 47 14 90 8c 5e 45 d5 3f ff bf bd 5b 9f 94 eb 3f
       0.3323589680370031 0.8618923942394757
000620 df 43 3c a0 40 02 e5 3f 85 7f 10 ec 76 73 e9 3f
       0.6565249566648353 0.7953447924264628
000630 68 5f 41 24 84 a4 ef 3f 85 e2 a8 5c 05 93 eb 3f
       0.988832541285757 0.8616968927154437
000640 e7 56 35 ec ab d0 c0 3f 2e 43 06 0c 64 04 f1 3f
       0.1313681510316009 1.0635719747262544
000650 dd 77 16 26 1c ba e0 3f 70 e0 19 6a cd de ba 3f
       0.5227185005094231 0.10496219482763691
000660 cf f3 56 b0 42 cd e3 3f da e2 39 18 c6 e3 e7 3f
       0.6188062137731495 0.7465544198194849
000670 6a fe da ca ed 13 ad bf e2 cd a9 40 0b 16 da 3f
       -0.056792670261981495 0.4075954562642591
000680 ec 33 14 2a 16 c8 d2 3f 19 4d f1 89 15 72 e6 3f
       0.2934623156477858 0.7014262861434047
000690 d4 f6 49 5e 3c 00 c3 3f 65 9f 9a 27 64 6d e1 3f
       0.1484446964640741 0.5446034215465089
0006a0 16 75 bb 5e 35 a4 c3 3f 81 1c d2 23 03 71 ec 3f
       0.15344874501799016 0.8887954425453161
0006b0 0e 28 d9 0f 76 a7 e9 3f d1 54 a7 e3 b2 80 d9 3f
       0.8016920384918664 0.3984801505260523
0006c0 04 cc bc 70 5f ab e8 3f d8 73 86 21 08 dd b4 bf
       0.7709195329574645 -0.0814976770256658
0006d0 9d e3 0e 58 5f 24 e0 3f 7d cb 74 f3 79 eb f5 3f
       0.504439994801135 1.3699893484124168
0006e0 4d da 62 40 ea 9c e4 3f de 33 3c 14 09 be d8 3f
       0.6441546685735574 0.3865988443001792
0006f0 39 19 fc 3c ec 2b ec 3f e2 ed b4 c5 9b d6 cc 3f
       0.8803616705998031 0.22529933122301232
000700 f3 18 49 5a 71 03 c6 3f 5d 01 03 f8 1a ae e6 3f
       0.1719800654265736 0.7087530940989769
000710 e7 eb 61 2f a1 51 e3 3f 39 2f aa 46 1a 5a eb 3f
       0.6037145543517654 0.8547488575145287
000720 6a ce 70 e8 25 77 ef 3f 9f 52 6e 37 54 46 ec 3f
       0.983294443116802 0.8835850794444758
000730 3a cc 69 5f b0 ef eb 3f 46 cd 8b 09 3b 9c e5 3f
       0.8730089057484129 0.6753211199233327
000740 38 db 60 62 30 92 e6 3f f6 e7 3a 09 cc 44 e5 3f
       0.7053453370525409 0.664648073222678
000750 8a fe 49 52 0f 13 e5 3f 74 e5 15 68 93 ff a6 3f
       0.6585766417701546 0.044918638664010496
000760 77 ce 23 5f cb 59 dd 3f 63 d4 d7 0b 90 fd f3 3f
       0.4586056164837155 1.2494049513454903
000770 11 dd 86 98 93 7b b6 3f 18 cb 37 b4 f7 0b d5 3f
       0.087823128450385 0.3288554439488265
000780 ed fe cf e4 6c e1 e0 3f 86 70 57 35 c6 0d d6 3f
       0.5275177449220486 0.3445907135881118
000790 13 00 e3 d1 f5 51 a2 3f 5c b1 d9 61 75 70 ed 3f
       0.03578155696004628 0.9199778472080129
0007a0 10 94 90 76 31 f0 e8 3f da dc a4 b1 6d a9 c3 3f
       0.7793204608648256 0.1536080472376174
0007b0 49 14 53 4e 3b 44 e1 3f 6c f5 17 38 5f 50 df 3f
       0.5395790605331366 0.48928051450624
0007c0 f2 2f ae 73 f7 50 ed 3f c7 0a 7e 96 e3 4e bd 3f
       0.9161336192496476 0.11448500084047018
0007d0 bf 3b 82 35 ed fe d5 3f 6d e6 ea 42 0a 28 ec 3f
       0.3436844847246298 0.8798877055152851
0007e0 75 dc 45 87 c2 d1 ec 3f 76 f2 3e db 43 a1 e0 3f
       0.9006054536865934 0.5196856767793878
0007f0 57 3f 37 3c 4a 5f e7 3f 1b 59 57 8f 32 f0 dc 3f
       0.7303820777978939 0.45216049192585367

L f8 [40, 40]
000000 77 36 c5 38 d1 79 c5 3f a8 b3 41 c4 54 e8 ea 3f
       0.1677800681304011 0.8408607323777817
000010 55 8d 1f fa 22 00 c9 3f 45 92 91 72 51 80 e3 3f
       0.19531666958855945 0.6094138372105325
000020 f7 71 3e f8 ff e4 ba 3f af a3 61 04 f1 bb d0 3f
       0.1050567608894609 0.2614710371768138
000030 9d 02 bf 95 5b 2d d5 3f 3e 0f 50 48 7b 7f cd 3f
       0.33089341758390295 0.2304529288377299
000040 f6 e0 3c f3 0c 31 ea 3f 7c 9e 85 c9 65 3c e5 3f
       0.8184876204241209 0.6636227546668603
000050 af d8 b3 0c 90 93 e0 3f e1 a6 f6 1b 06 e4 de 3f
       0.518013024148578 0.4826674721794984
000060 03 0d 26 4a a6 38 a2 3f a5 ce dc 00 f5 82 e0 3f
       0.035588451911303685 0.5159859673353436
000070 b6 66 30 56 ab 49 bd 3f 17 38 4e 1d 56 18 e5 3f
       0.1144053540632751 0.6592207500814337
000080 a4 ac a0 ae 78 7a c3 3f ac f8 25 62 ac 68 f0 3f
       0.15217503096332508 1.0255550226134273
000090 be 41 cc a1 9a 1c c7 3f fb 69 ac e4 29 45 c8 3f
       0.18056042576109904 0.1896107069558893
0000a0 9b bc b7 17 f6 f8 e4 3f 52 43 b8 c4 bb a4 e0 3f
       0.6553907836186171 0.5201090662177228
0000b0 4e f4 29 4c 59 b2 e3 3f 89 17 f6 fa fd a7 ec 3f
       0.6155210959983692 0.8955068494403672
0000c0 3e 98 7b 53 2e 5e e0 3f 57 5e 2d ef 8d bb ef 3f
       0.5114966993830945 0.9916448279790967
0000d0 65 16 97 c5 5e c1 e4 3f 06 f7 af 73 f8 c9 e6 3f
       0.6486047610457716 0.71215460391224
0000e0 e2 17 34 ac e6 75 ee 3f 8b 1b 62 ab 7f 69 e2 3f
       0.951892219862881 0.575378260357739
0000f0 2b 75 29 c9 e2 2f d3 3f 07 d9 c7 0f af 95 e2 3f
       0.29979772228928664 0.5807719524589466
000100 02 a4 d7 d3 19 2d d3 3f ac 36 55 6f 82 67 e4 3f
       0.2996277397892869 0.6376354383916882
000110 65 a6 79 53 c8 39 ce 3f ea be 56 54 03 b9 e0 3f
       0.23613838268220202 0.5225845954173256
000120 88 9a b0 e7 ec 8e d2 3f 24 a0 8c c6 e3 e5 af 3f
       0.289973474750163 0.062300794589021075
000130 82 45 84 93 b1 51 e7 3f ec ac 62 3c 8c 4c e0 3f
       0.7287223702607408 0.509344213428816
000140 2b a4 19 de ee 5e d2 3f cc 1d 29 93 a7 a9 d8 3f
       0.2870442551562202 0.385354894362959
000150 37 06 7b 6b 0d 91 e4 3f fb 38 ee ca 6b 49 e3 3f
       0.642706594393707 0.6027125323760453
000160 38 22 00 c3 c9 05 e5 3f 1c d0 49 44 63 c1 e2 3f
       0.6569565590480755 0.586106904388092
000170 ed bb b1 b1 1a 83 d9 3f 39 30 dc 68 cb 47 e1 3f
       0.3986269698424952 0.540013985447792
000180 33 f5 a3 22 93 a6 cd 3f d0 aa d7 38 8e b2 ad 3f
       0.23164595786503525 0.05800289577367368
000190 0e 7e 8d 8d 84 86 d1 3f 87 d9 94 4b 3e 49 ed 3f
       0.2738353140211708 0.915190837497719
0001a0 b7 88 30 91 55 d7 de 3f 79 d7 a5 f7 00 ab de 3f
       0.48189295939131277 0.4791872423587545
0001b0 ee 58 4d 07 5e e0 e2 3f 08 20 51 89 aa 18 dd 3f
       0.5898885862941634 0.45463050279477146
0001c0 f0 68 cb 33 82 72 a5 bf 9a a5 42 93 23 55 ca 3f
       -0.04188925630815443 0.20572323503919848
0001d0 67 e8 06 93 3c 23 a8 3f 57 90 5d 3d 1c 7c d6 3f
       0.047143834064130634 0.3513250922462751
0001e0 22 2a 23 40 51 c4 d4 3f 23 40 31 13 c6 b3 c5 3f
       0.32448226226248 0.1695487588608567
0001f0 23 3c cb 60 e7 d4 dc 3f d0 78 2b 1b 7f 31 b9 3f
       0.4504946179631039 0.09841150677991384
000200 ab 12 42 cf 83 0e d1 3f e9 41 4e 2b 86 42 eb 3f
       0.26651091804550714 0.8518706174673386
000210 3d ed 87 a2 67 dc ea 3f 29 30 79 74 d0 06 ed 3f
       0.8394048857148061 0.9070818209525032
000220 0d b8 a7 6a d8 70 e3 3f a0 ce 34 43 c4 6a d6 3f
       0.6075250704868737 0.3502665191947276
000230 d0 80 a8 d9 14 26 e5 3f 5c a0 20 df 12 38 c3 3f
       0.6608986140381834 0.15014873404402607
000240 cd ec 3e 1b 3b 04 e4 3f e1 6d 45 0b 3b 36 f0 3f
       0.6255164653915927 1.0132399025231893
000250 b9 86 63 33 ce dd bd 3f 89 29 ab 3d 6b f8 e8 3f
       0.11666573290451766 0.7803245739426511
000260 06 d2 c4 82 39 2c d8 3f ce ba b9 38 b7 8d ed 3f
       0.37769925852197195 0.923549280921941
000270 be 6d 0c ce 96 60 d3 3f 1f dc 09 f9 b4 21 e7 3f
       0.3027703296845309 0.7228646148713586
000280 50 c2 96 4a 59 f8 cc 3f 73 47 1b 70 7e 98 ec 3f
       0.22632900373493436 0.8936149777966719
000290 aa a3 85 aa 18 3c f0 3f b0 c8 95 11 e3 63 e6 3f
       1.0146719609276524 0.6996932357272012
0002a0 a2 a6 ae 56 72 09 82 3f c2 8d dc 91 f6 48 e8 3f
       0.00880708052666829 0.7589066361292043
0002b0 89 b1 7e 56 a5 90 d9 3f 6e 0b 97 72 c5 7b e7 3f
       0.39945348212020143 0.7338587987982075
0002c0 07 52 cf ad ef 1e e2 3f c2 0d 38 80 a4 eb e6 3f
       0.566276397201876 0.7162649635578691
0002d0 4f f2 1f a4 9a bb e2 3f ae fe 58 dd e0 b3 d6 3f
       0.5854008870661093 0.3547289048765191
0002e0 06 84 f9 99 82 2a 98 bf da ae 24 99 c1 86 d4 3f
       -0.023599663398616876 0.32072486834907254
0002f0 85 77 58 4a 71 ee a1 3f 29 65 86 53 bf c2 f0 3f
       0.0350222972158312 1.0475457441992353
000300 63 b1 fe 7e 63 16 e8 3f 0c d1 66 2c b9 5f d2 3f
       0.7527329903000858 0.28709248863312165
000310 ff 62 61 f2 45 f0 c3 3f 67 e6 e6 2e 23 ab b5 bf
       0.15577005705815591 -0.08464260001246658
000320 78 c9 fd 18 14 74 eb 3f 0a f9 e0 82 0d 6b da bf
       0.857919739543191 -0.41278398305065933
000330 c7 fd e6 66 1a 18 87 3f 4d 2e 88 28 91 fb e3 3f
       0.011276441827134399 0.6244588653220916
000340 6a 00 33 e0 fe 09 d0 3f 59 9a bf 38 65 72 e7 3f
       0.2506100835271413 0.7327142818802016
000350 46 ab 75 49 67 78 ba 3f 74 a7 a6 71 d0 bd e4 3f
       0.10339971106956822 0.6481706828828764
000360 74 49 e2 ea 93 43 da 3f 4e 2c 77 67 ee 80 e7 3f
       0.41037462175258743 0.7344886799632009
000370 e8 37 f5 74 96 91 ca 3f 47 ac de 25 ab 8e db 3f
       0.2075679846843166 0.43058279703354113
000380 ec 7f 98 b0 01 8e e7 3f 2e b3 03 f3 94 87 d0 3f
       0.7360847901472858 0.2582752583683029
000390 41 fa 80 ea 70 f9 a9 3f 68 01 76 ba 94 f8 d7 3f
       0.05073120939822618 0.3745471783550074
0003a0 cf 9b 23 87 84 89 f3 3f 8b af 01 1c cc f5 e6 bf
       1.2210736540671296 -0.7175045535091028
0003b0 eb 46 ef 24 f1 3e 8c bf 8c 62 37 7f 19 96 d0 bf
       -0.013791927280098778 -0.2591613523814338
0003c0 d2 6e a8 fd 43 6e e0 3f ca 92 80 01 ec 4f ca 3f
       0.513460154939333 0.20556402276374391
0003d0 0f fd cb 98 22 78 d8 3f b6 41 d0 c8 7b 7a e4 3f
       0.38233246728482667 0.6399516031397556
0003e0 98 6d 29 f4 86 52 db 3f 17 f8 47 2a 25 49 df 3f
       0.42691205829552237 0.48883942727104696
0003f0 a0 6d 4e 83 5a 7e d7 3f 8d 70 58 f1 95 ae ea 3f
       0.3670870096481966 0.8338117326525364
000400 3d fa fc 88 1b 8e ef 3f da a8 a8 88 e6 66 d8 3f
       0.9860971141386653 0.38128054948414347
000410 f4 3e 63 9d d0 69 c1 3f 54 f1 40 ab 91 82 ca 3f
       0.13604171452470093 0.20710965024944505
000420 86 fb 8e 77 0d 47 ce 3f 13 26 44 5e ea 54 ed 3f
       0.23654335344141603 0.9166156617295108
000430 8a f0 cb de b1 c3 e6 3f 72 9e 1a 6a 45 8c dd 3f
       0.711388526105581 0.46168647157399
000440 c1 20 bc 00 e3 9e e1 3f 3c 8e 71 73 e8 88 e3 3f
       0.5506453527787231 0.610462403751121
000450 8f a8 65 5e 48 f2 c0 3f 6a c3 43 61 47 9e e9 3f
       0.13239388093217427 0.8005711459828551
000460 e8 ef 3d 77 53 75 e1 3f bd 28 94 e8 35 66 ed 3f
       0.5455720261520556 0.918726877456059
000470 1f 00 92 1d 83 e6 e6 3f fb e4 a1 fd b0 d8 e4 3f
       0.7156386926217272 0.6514515832670037
000480 47 dd c5 5e 41 30 e8 3f 01 fe fa a0 0e a9 c8 3f
       0.75589054594358 0.19265921459553684
000490 59 bd ff 42 0b 60 de 3f b0 85 27 4c 25 25 bd bf
       0.47461206000203543 -0.11384804829824335
0004a0 9d eb b2 ee aa 61 e5 3f 6e 66 83 4b c0 66 d2 3f
       0.668172327240757 0.28752143263191143
0004b0 f6 bc df 40 e2 2b ed 3f 9e cb 63 b7 f0 4a d3 3f
       0.9116069094724526 0.301448992816569
0004c0 ff 59 5e fb 23 23 d5 3f c0 33 69 f0 f5 7e e2 3f
       0.3302698092242337 0.577998132279042
0004d0 7c f5 a6 6e 16 99 e9 3f 71 58 15 15 0e 38 e9 3f
       0.7999374543357329 0.7880926524910717
0004e0 8c aa b1 03 1d b8 d7 3f e0 25 7e 62 8f fd e7 3f
       0.37061238632910753 0.7497021602331948
0004f0 1a 32 c1 1f 73 9b 7f bf d5 9c 65 cf 2b 5f e2 3f
       -0.007716607764518569 0.5741175699921778
000500 e1 d9 39 8b 02 f1 ee 3f 75 b9 67 11 e4 03 cf 3f
       0.9669201583154142 0.24230624055730812
000510 d6 4e ac 22 db fb d2 3f bb bd 2e 09 f0 25 dc 3f
       0.29662207017939346 0.4398155297921808
000520 ed eb 62 d6 40 db e7 3f 0a 8e 38 00 e3 65 ea 3f
       0.7455143153414362 0.8249373440089027
000530 f6 71 a2 35 8a f6 d8 3f da 1b 9a 14 b1 1b d3 3f
       0.3900476001524845 0.298565168494347
000540 96 3f ea 6f 53 29 cb 3f 5b c8 7f e5 08 c7 a4 3f
       0.21219866718865593 0.040581014647515366
000550 b2 d0 a8 48 97 e7 f0 3f 46 85 d2 9c 23 ec d7 3f
       1.0565407598742635 0.3737877875774597
000560 11 93 3e c8 74 31 d7 3f 61 93 57 29 d0 0d b0 bf
       0.36239356570358533 -0.0627107716496318
000570 23 6c 21 3f 84 27 d7 3f dc 8f a4 a1 c2 39 ed 3f
       0.3617869011411036 0.9133008153044062
000580 90 08 1d 84 00 7e e3 3f 9b 14 78 9e 62 3d ce 3f
       0.6091311054554058 0.2362483285689095
000590 61 88 88 9b a1 8e e5 3f 16 3e 29 c2 c3 4d e3 3f
       0.6736610448608752 0.6032427589615874
0005a0 af c6 7d b2 c3 70 d3 3f 57 dc a9 c0 3b 73 d1 3f
       0.3037575953559139 0.27265828909680095
0005b0 c5 77 5c ef bf d4 bd 3f 72 c6 21 ac 4c ce e5 3f
       0.11652755349902495 0.6814330446197359
0005c0 43 85 b8 de 62 f7 dd 3f 17 73 6f c2 c2 ee ed 3f
       0.4682242560393954 0.9353956029477527
0005d0 ef 03 a3 b3 a2 b9 da 3f 2b ba 7f df 36 7f e8 3f
       0.41758029501585175 0.7655290951932491
0005e0 54 4d 56 2a 3a b3 d8 3f 59 fa 3c e3 1b 05 5c bf
       0.3859391606758511 -0.00171020244029276
0005f0 09 05 54 b7 1a 9d d2 3f b8 0c e2 79 2e a2 cb 3f
       0.29083888915199957 0.21588688803976708
000600 04 b5 21 de 72 d0 e4 3f fa 20 04 89 dc 88 e4 3f
       0.6504453981885097 0.6417067218872312
000610 90 04 7e d8 6d ab d2 bf 15 77 83 e0 99 80 e0 3f
       -0.29171320096799835 0.5156983742742535
000620 de 48 25 7f ec ea ea 3f fa fa 7b 9d 45 ff e5 3f
       0.8411772235215513 0.6874111247887804
000630 20 96 5d 23 cd 07 c1 3f ff 1e ab 68 f6 a3 c5 3f
       0.13305057741961068 0.1690662394596458
000640 02 0d 2a 91 33 b7 d2 3f 40 13 eb aa 13 fd e5 3f
       0.29243172813603746 0.6871431673285784
000650 60 3f 0b c3 39 6c d9 3f 2b b4 a7 35 60 96 f0 3f
       0.3972305683828292 1.036712846365172
000660 80 0c 57 47 7c bd e4 3f 67 6c 05 9c 8a a4 ea 3f
       0.6481305497512864 0.8325856253899361
000670 5b 75 0d 46 93 a8 e8 3f 96 d9 3f d8 49 8f e4 3f
       0.7705780380453392 0.6424912665959706
000680 c9 f0 5f 78 79 8d c0 3f 72 07 7f 7c 2c 66 ee 3f
       0.12931745889353 0.9499723846022177
000690 a1 5c 4c 6a f7 c2 ab 3f 88 7d d1 b7 46 d4 ea 3f
       0.054221851087441715 0.8384126272393795
0006a0 b6 b3 0c 12 04 07 b0 bf e4 4b c0 47 df a6 e5 3f
       -0.06260705414452059 0.6766201402082257
0006b0 64 d4 e2 a0 f1 f5 dc 3f a4 f0 16 be b4 c5 ce 3f
       0.4525112219956269 0.24040850908011635
0006c0 e0 20 4b 8a 6a a5 c5 3f 23 41 16 b0 4e f7 c3 3f
       0.16911060097323283 0.15598472211832712
0006d0 25 5f 52 68 d5 31 d7 3f 13 aa b1 eb c0 ee b7 3f
       0.36241660297081274 0.09348684076545792
0006e0 e7 c8 33 77 9e 00 e1 3f 77 ce 67 33 85 63 a9 bf
       0.5313255623025527 -0.04958740475185846
0006f0 90 1e 17 ec 39 d5 e7 3f e2 90 20 a4 17 c1 bf 3f
       0.7447785960329885 0.12404010540973645
000700 03 5e f4 cc 0a 02 e9 3f e2 d8 89 2e 0c 6e ec 3f
       0.7814992907541981 0.8884335431055457
000710 61 9f ed e3 99 4b e8 3f f2 9b 4c 13 2f 01 ca 3f
       0.7592286540720857 0.2031611294016496
000720 a9 60 c5 9e 70 36 bc 3f b8 25 a3 09 e1 50 e8 3f
       0.1102056872963454 0.7598729313114552
000730 2c 6c 1b 5e 5c d5 db 3f a4 16 f5 af 5b a8 ee 3f
       0.434897510434612 0.9580515324275507
000740 f7 cf 81 e3 87 f6 d9 3f 85 61 a8 80 e9 e5 e4 3f
       0.4056720468281578 0.653065444264073
000750 f5 da 12 ae 1a 95 ba 3f 3b eb 4d e7 7a 2d c2 3f
       0.10383764982075745 0.14201294225844116
000760 40 6f 82 10 54 9a e8 3f 7e 4e 36 c2 38 13 ad 3f
       0.7688389131976479 0.05678727503541568
000770 a7 ef 74 a7 16 55 cc 3f 7c 2a 51 a5 9c 07 ed 3f
       0.2213466947231357 0.9071791867111894
000780 04 9e be e6 02 4d dd 3f 07 c9 1d 6b ec be ec 3f
       0.4578253987660619 0.8983060924640832
000790 52 df 54 2b d1 de c5 3f 82 02 7e 2b 4a fa ec 3f
       0.17086233726308336 0.9055529450852904
0007a0 68 44 68 cd 3c fa f0 3f b6 9e 98 e8 01 f7 dc 3f
       1.0610931419107832 0.4525761386343946
0007b0 45 49 4b cb 7b 6f e6 3f 79 4d 1a 29 44 c7 ea 3f
       0.7011088343227035 0.8368244936740857
0007c0 28 12 d2 26 06 be d0 3f 96 7e e5 db 0e 1b ec 3f
       0.261598146353466 0.8783029837467946
0007d0 88 c9 95 a6 55 8e ec 3f 87 1d a3 0c f5 7a da 3f
       0.8923748258223876 0.41375471338366093
0007e0 46 a3 75 6b e1 82 ed 3f 67 4e 44 ac 0e e9 d6 3f
       0.9222266291445542 0.357974689702337
0007f0 14 54 63 c8 0f 99 e5 3f c8 d6 92 95 73 e8 d3 3f
       0.6749342836216123 0.31106271368785743

weight f8 [50, 4]
000000 c7 08 f5 8c 9d b3 d5 3f da 9b 5b b1 f9 76 d3 3f
       0.33908785596225893 0.30413667984106285
000010 6a 59 64 22 c3 52 cb bf de 68 38 b8 dd 9d db 3f
       -0.21346320323273044 0.43151038160580224
000020 f1 c1 c5 23 ab 05 dc 3f 9f 9c 62 d3 84 7d 95 bf
       0.4378459786740044 -0.020986628915718893
000030 87 e1 9b 7b e9 f9 b8 bf 87 2f a8 06 cb d0 b5 bf
       -0.09756335513873725 -0.08521717941783723
000040 34 c3 96 e0 98 b0 b0 bf c4 7f a8 8c 40 6d de 3f
       -0.06519465907218774 0.47541822181846904
000050 9b 72 ff e7 1f a2 d6 3f 91 f4 ce 54 c8 39 c1 bf
       0.3536453023532801 -0.13457588330303286
000060 8f 93 06 2a 3d c9 c7 3f 83 76 8c 31 73 2e dc 3f
       0.18582882453952407 0.440335081469904
000070 ff 6f da 41 ec 89 54 3f 97 45 05 76 89 56 b6 bf
       0.0012535865020373291 -0.08725794917451989
000080 33 2b 52 0f ce 10 d0 3f fa 3a 8e 50 b1 38 cc 3f
       0.2510256909960617 0.22048012193086902
000090 8e 75 27 b3 bc a2 d4 bf 95 bd 74 20 46 ca df bf
       -0.3224326848556637 -0.49672082109005916
0000a0 fb a3 24 4f d7 1e d3 3f 2f 7f 94 24 32 a5 bb bf
       0.29875738838978777 -0.1079894389445115
0000b0 a7 cf 23 38 ae 2b c7 bf df 68 c4 ae eb a4 91 3f
       -0.181020524417929 0.017230684797234438
0000c0 c8 ca 3f 7b 73 b2 d9 3f d2 57 68 f7 82 af d5 bf
       0.4015167907338477 -0.33883737717530693
0000d0 7d e8 02 14 91 63 b2 3f 61 7a 6d 12 78 ea be bf
       0.07183176744993776 -0.12076521348851933
0000e0 ec 30 c5 e2 a2 bc d7 bf 65 8e ee 4d 0d 7f da bf
       -0.37088844438109336 -0.41400463686497907
0000f0 ee bf 23 cf e3 7b a2 3f d5 c5 56 f2 13 d1 a6 bf
       0.03610145476875447 -0.04456388791312419
000100 e7 ff 78 5f dd 48 a7 3f 92 07 d4 88 4e 6b db 3f
       0.04547778883397751 0.42842448579914916
000110 1f 46 8e 00 ef b1 c5 3f 81 e4 b9 3f 73 bc e4 bf
       0.16949260260712237 -0.6480041737223844
000120 18 a4 a7 37 8c dc db bf 3a a6 6e a9 5d 81 d2 3f
       -0.4353361648086902 0.28914586588016145
000130 be 16 5a a9 69 48 db 3f f7 ee 46 4d a4 27 d4 bf
       0.42629472292206205 -0.3149195437106153
000140 02 36 0d 56 74 69 bd 3f 2f 7f ae 0b 1d 3f cd 3f
       0.1148903570258071 0.22848856993095398
000150 a1 16 c5 a9 fa 15 d2 bf da ca 81 ba fc 78 d0 3f
       -0.2825915010365439 0.25738447393011443
000160 6b e8 83 9d de ae d2 bf 3b 40 17 50 75 96 dd 3f
       -0.29192319280958284 0.46230824300164713
000170 a4 cb b7 56 f3 d3 d8 3f 10 f0 bc e3 74 56 c0 bf
       0.3879364344458571 -0.12763844604512586
000180 fa a0 94 79 86 d5 ba 3f f3 d4 66 81 7e ac d1 3f
       0.1048206374003974 0.27615320813067895
000190 81 77 fb 19 37 64 ba bf 24 d4 cd 0f 8b dc d2 bf
       -0.10309166321118647 -0.2947108892761341
0001a0 b2 c6 60 bd 85 bd cf 3f ab cd 4a 61 80 58 cf bf
       0.24797126528715335 -0.24488835096927394
0001b0 5d 83 38 99 e6 40 d7 3f e4 b1 e6 f9 56 cc e2 3f
       0.3633362289711409 0.5874438172227738
0001c0 a5 bf 48 25 55 53 8a 3f 8d e0 6a 10 03 39 d0 3f
       0.012854256820986463 0.2534797344519653
0001d0 19 97 b6 a1 fc 17 cd bf c5 d7 bc 08 ec b9 d1 bf
       -0.22729452034143874 -0.27697277882850485
0001e0 f1 1e 4d 22 c7 2e ca 3f fb 28 98 eb f7 79 d4 3f
       0.2045525472151364 0.31994436270964827
0001f0 85 95 7b a2 a8 f2 d3 3f a8 f9 d8 33 80 f3 da bf
       0.31168571345764234 -0.42111210883367756
000200 2f 16 f2 b8 34 c1 c4 bf d6 cb f0 e9 ca 3f b9 bf
       -0.16214617758321156 -0.098629648317725
000210 f1 68 0f b4 f7 0a 86 bf 28 cb f3 28 40 10 d5 3f
       -0.010763106520176953 0.32911685942888136
000220 da 99 02 2b ef a3 ca bf fb f8 d1 f8 72 d1 de bf
       -0.20812787628274415 -0.4815337591061419
000230 60 38 4b 2d 12 74 d9 3f 00 2d 2b 4a da 2a b6 3f
       0.39770941184258923 0.08659138022192181
000240 53 27 5a 68 ac f2 df 3f ff be dd cd e4 b5 91 bf
       0.49918661299363015 -0.01729543215282003
000250 93 66 ef db 60 a5 c1 bf cf c3 6c d9 24 b7 b1 3f
       -0.1378594468977111 0.06920080478882017
000260 68 cd 7f 0d 98 7e a6 bf 2d 11 de c4 64 7b be bf
       -0.0439345852354574 -0.11907033735594004
000270 c2 c6 2d 7e 85 b0 c4 bf 09 a0 4f 1a 33 a4 ce bf
       -0.16163700734209924 -0.23938597473829784
000280 cb b7 7d 29 3c 24 d7 3f 8e 7b 1d 78 52 bf b6 3f
       0.36158660938133086 0.08885684425830062
000290 ee 32 53 fd a4 de cd bf 74 c5 f5 58 82 ce d0 bf
       -0.23335707063088001 -0.26260431945328055
0002a0 b9 f7 15 9c f7 f3 cf 3f 56 92 e6 02 ff 55 db 3f
       0.24963278886201382 0.42712378772038073
0002b0 9c 76 cb 2e 52 83 d9 bf 1f 95 43 bf 47 85 98 bf
       -0.39864019937327 -0.023945923851802605
0002c0 49 2d 1c dd 46 8b d7 3f 71 99 05 2e 52 1f da bf
       0.36787578194408305 -0.4081616830284452
0002d0 1e 79 57 8a c3 3f cc 3f 67 7e 16 77 69 38 d5 bf
       0.22069591765370772 -0.33156811361002386
0002e0 1e 05 95 cb 4b af db 3f ab 78 c2 74 23 23 e0 3f
       0.4325742233377968 0.5042893677198398
0002f0 69 8f 69 bd c5 d6 e0 bf 08 39 ac ed 70 a5 dd bf
       -0.5262173366031507 -0.4632227250121024
000300 1a 44 14 43 a7 c1 ca 3f ea e2 2b 0e ec ed b7 3f
       0.2090348317656499 0.09347415300352294
000310 02 25 d5 33 0b c4 d5 3f c4 29 a5 38 81 c3 c3 3f
       0.3400905615022368 0.15440383211018915
000320 b0 6b 89 2d 60 2a d3 bf e2 97 6f fc ce ef b6 3f
       -0.29946140715554304 0.08959668791757694
000330 c0 04 d9 a7 a6 f2 cb bf 30 9c 01 9f 8a 38 e2 3f
       -0.21834262080850486 0.5694020372001258
000340 3f dc 06 5d 8f 5e d0 bf cc 98 67 21 16 35 d2 3f
       -0.2557714851822687 0.2844901396005184
000350 e5 3a 07 40 c2 6a d6 3f d7 95 42 fd 4d 8e a5 bf
       0.35026603939779327 -0.04210132328561727
000360 c1 df 70 ee 24 e2 b7 3f e3 2a f6 2c d8 c4 dd bf
       0.09329443761168844 -0.46513943091183146
000370 c5 b9 93 80 43 ba e7 bf 9b f6 7d 6a ef ce d1 3f
       -0.7414872657080244 0.27825532340635
000380 57 19 6a 1a 05 7a bd bf 20 c3 06 f2 bf 47 b1 bf
       -0.11514312643894208 -0.06750106486175556
000390 ad 14 ac a8 21 99 dc 3f 5a 81 81 8d f4 a0 e1 bf
       0.44684640380757906 -0.5508978618418425
0003a0 41 79 e5 1d a4 1d d4 bf 7f 42 54 18 63 9c df bf
       -0.3143091480213976 -0.49392011047260803
0003b0 28 77 e6 28 c3 4c c1 3f db 99 87 6d 63 7f ce 3f
       0.1351551007946281 0.23826258514527762
0003c0 62 1b 1d ae 0d 83 dc bf 3d 15 fb c0 1c 39 dc bf
       -0.4454988670662968 -0.44098585935383366
0003d0 21 09 dd 08 7a 45 ce bf a5 f6 e8 33 a3 5c ac 3f
       -0.23649526055130202 0.05539426811854512
0003e0 b3 e7 b9 6d e0 72 cd 3f 0b d8 7f c9 0e 01 cb bf
       0.23006825788234905 -0.2109697803386442
0003f0 97 24 bc f3 6e 65 d7 bf 9f 3d 76 b5 94 b0 d5 bf
       -0.3655660038207968 -0.3389026424492502
000400 98 68 79 0f df 16 90 3f 5f e6 c0 ce 7b 60 d0 bf
       0.015712247199510004 -0.25588889303944556
000410 c3 9f ed 09 ba c5 a9 bf 84 c8 84 61 56 9e d4 bf
       -0.050336660110417174 -0.3221641495066552
000420 f2 b6 a8 2a 3e b6 d3 3f 9e 8c 24 8d fa 5d dc bf
       0.3079982201187327 -0.44323600562547394
000430 dc 1d d7 db 59 94 d9 bf 7c a8 c7 f2 db c9 d9 bf
       -0.39967962712077365 -0.4029455061814884
000440 e7 7a 80 7e 7d 9c b3 3f 93 34 8c d1 6d 57 ce 3f
       0.07660660112785998 0.23704312068767716
000450 4f c3 06 ce 8f a4 bc bf c9 55 22 d7 52 1a d9 bf
       -0.11188601283971632 -0.39223166474525023
000460 18 35 6e ed 73 09 d5 bf b2 5c c7 38 13 0f d8 bf
       -0.32870195566722904 -0.37592011017609217
000470 7b e0 f8 f3 3a 11 d1 3f 57 8a ee a6 d4 4d cf 3f
       0.2666766531506323 0.2445627036186859
000480 5c 7a d2 af d7 4a d8 3f 0c 3b 35 ee 74 6b 80 bf
       0.3795680253041718 -0.008017457503823454
000490 7a 81 9d 73 54 96 d3 3f a2 84 d1 30 ec 3a ca bf
       0.30605040827324326 -0.20492317565643697
0004a0 f9 8e 33 e9 f0 12 b7 bf 59 ba ce 18 2e 06 d7 bf
       -0.09013276761430324 -0.35975220129595226
0004b0 5e 45 be 57 f0 42 c5 3f 1c 11 98 30 f2 7f c9 3f
       0.16610531124437505 0.19921710369829604
0004c0 0d 47 fb dd 2c 0e db bf 3f 0b 17 a0 d6 91 e0 3f
       -0.42274018934141183 0.517802536655246
0004d0 cf d6 ce b0 05 d7 b3 3f 07 e7 08 37 78 16 c0 3f
       0.07749972883797372 0.12568571746106036
0004e0 6e e2 8c 93 62 5f bf bf a4 c6 5e 80 15 6d dc 3f
       -0.1225492105703638 0.44415795837549354
0004f0 8d 76 c9 20 1a 05 c1 3f 65 c0 08 e1 0d dd a8 bf
       0.13296820259977374 -0.04856150981902444
000500 30 41 e8 79 a2 4b d6 3f 48 76 96 8a cd 6c da 3f
       0.34836637406353343 0.4128908017536088
000510 3c 4f 85 b4 71 68 d9 3f 52 65 39 9c ce 47 cf bf
       0.3969997656724791 -0.2443788779080856
000520 98 88 26 51 f6 d2 ce 3f 76 4f d8 8c 00 1c dc bf
       0.24081305468013592 -0.4392091155470931
000530 9a d2 47 82 81 32 bd bf 92 88 ab e2 8c 44 d7 3f
       -0.11405190878560703 0.36355898032901124
000540 12 14 f5 e6 8a f1 db 3f a8 8e 75 28 96 f5 ce 3f
       0.4366175895159482 0.2418697068743445
000550 93 6b e3 54 51 4f b2 3f 6f 7b 75 02 1f 99 d0 3f
       0.07152279207677585 0.2593457721722449
000560 3b b6 6a 78 ea 7d cb bf df 65 f9 85 ce 37 97 bf
       -0.21478014831284206 -0.022673823287140734
000570 b7 d0 b5 b2 7b 02 c2 3f 2f 63 bf ab 1d 81 b0 3f
       0.14070078111729398 0.06447015231186691
000580 af 54 15 c5 52 0d dc 3f ff ea 8b cd 2c c1 a4 bf
       0.4383131909028845 -0.0405363083754846
000590 5f f2 ec 0f 15 1f ab 3f 65 57 9c b5 3b 7a d1 3f
       0.05297151393321963 0.27308552489681964
0005a0 9b d2 67 66 8b 75 df bf 89 81 7d 48 b0 4c ac bf
       -0.49154934883635243 -0.055272587632091925
0005b0 28 ae a7 3a 9d e2 d9 3f ed 6e 54 15 e0 a7 e0 3f
       0.40445643165614564 0.5204925934408188
0005c0 f4 d1 8c c5 f3 ea d7 bf ba 81 5c 57 1f 40 d6 bf
       -0.3737153462600695 -0.3476637223375537
0005d0 e5 48 fa f5 80 ad b2 bf 06 e2 63 6e 83 c9 df bf
       -0.0729599571734841 -0.4966744020489674
0005e0 b7 d1 e2 dd 8e e7 8b 3f 8e f5 2c 59 70 0e 85 3f
       0.013625255724357339 0.01028144619123841
0005f0 43 ac 35 3a 27 20 db 3f 83 e7 fc 9b 02 f2 c3 bf
       0.42383747753655515 -0.15582306496235895
000600 9b ce 36 79 67 08 c9 3f f7 53 c1 c2 98 04 9f bf
       0.19556897562653294 -0.030290972601807877
000610 ce 60 9e aa e7 80 d7 3f 4e 7a d4 4d a4 0e e2 3f
       0.3672427335927865 0.5642873306386009
000620 07 35 50 2a 35 1f de 3f 83 fc 98 ac af b7 c6 bf
       0.4706547654357824 -0.1774806587945684
000630 2b 8d d6 21 8e 19 d5 3f 93 f0 ac fc 6b 0f d0 bf
       0.32968476585866097 -0.2509412734541538

bias f8 [50]
000000 60 cb 37 bc f1 af d0 bf 90 0e 27 c2 a2 fc b0 bf
       -0.26073878651293647 -0.06635491600087051
000010 63 2c 52 58 da ea d9 bf e8 89 d0 72 0c 98 dc bf
       -0.40495928406807574 -0.4467803117023821
000020 1e 1e 91 6f e4 66 75 bf 4c 39 17 d6 7e 5c c2 bf
       -0.00522507889497306 -0.14344773725174276
000030 08 1a 1e 44 87 42 b1 3f 83 19 dd a7 ad 92 c3 3f
       0.06742139256503077 0.1529137677809552
000040 3d f5 9c 9e a2 34 b5 3f 52 36 e3 c5 08 56 d8 3f
       0.08283439991369775 0.38025111508327314
000050 13 7f 7b f6 ac 85 dc 3f 19 f4 6a b4 9c b0 d0 bf
       0.44565891333148605 -0.26077954882549786
000060 26 01 0c 9a 06 19 ca 3f 40 6d 08 01 43 f8 a9 3f
       0.20388872644253658 0.05072221171959734
000070 bc c9 57 ab b5 65 d0 bf 55 95 3d 5d 49 38 d6 3f
       -0.2562078641195986 0.3471854601433127
000080 13 a9 53 5a cf 31 c7 3f bc b9 c9 4b 50 12 d7 bf
       0.18120757971275533 -0.3604927768818944
000090 d8 98 ee 1a f6 d5 c0 bf 7d 16 fb 74 ab 0b c0 bf
       -0.13152958216705346 -0.12535613262132364
0000a0 5c 8f 9f c2 31 a3 d9 3f ba 08 96 55 16 72 e0 3f
       0.40058559423618134 0.5139266654589598
0000b0 ae 0c 6f 45 fd e6 c6 3f fb ef cc 2b 6d 4e b7 bf
       0.1789242352516331 -0.0910404426512627
0000c0 80 02 51 b1 37 b2 da 3f b0 df c7 d8 a4 90 d7 3f
       0.4171275359731581 0.36820336503978535
0000d0 a8 83 af cf 43 9c c8 bf fa 70 7c b8 0f 37 da 3f
       -0.192268825921045 0.4096106816885051
0000e0 0a c1 d7 e8 59 29 af bf 28 3c 0d b3 18 bf 6c 3f
       -0.060862359688942005 0.0035090906534729523
0000f0 e6 c9 d3 02 93 57 86 bf e0 b0 04 54 cc 73 de bf
       -0.01090922214868768 -0.47581775860704845
000100 b6 5b c4 c3 59 68 d7 bf 41 c9 fc 33 ad 67 ca 3f
       -0.3657440578257892 0.20628895796250826
000110 6e ef 29 61 c6 aa de bf 16 89 7e ac 2d fd de 3f
       -0.4791732739320115 0.48420278401512584
000120 63 15 ad 52 c8 3c d8 3f b1 f8 85 90 0d 48 cb bf
       0.3787098700889457 -0.21313638264468218
000130 2d fd af 61 0d cb d9 bf ae e1 2e 7e ee cd d2 bf
       -0.4030183271388122 -0.2938190681702747
000140 0b 52 0f 0f c8 6a d8 bf 27 3f 22 67 f9 99 dd bf
       -0.3815174243038945 -0.4625228411832602
000150 d0 bb c5 ad ab cb d2 3f ae f5 a1 83 29 3f d1 bf
       0.2936810681339326 -0.26948011259795634
000160 0e c5 e4 91 c3 5f d9 bf 08 f6 5c ef be ee d0 bf
       -0.3964699673407076 -0.264571889641815
000170 85 6e 56 a0 7a 4a d7 bf 33 a8 e9 64 99 56 d3 3f
       -0.3639208379551991 0.3021605954623993
000180 6e f9 5b bd 92 e7 df 3f 80 8c ad 1a 1d 9b d7 bf
       0.4985091065608661 -0.36884238820329784
