lasa_models/7/skel_model_Worm.pt (torch, 99247 bytes, 18 tensors)

R f8 [20, 20]
0.9852346291812047 0.43548746623650764 0.38589771920246 0.4600632321842483 0.039688476822160715 0.37738410610711526 0.20275484715942876 0.9237287557637088
0.7703419839174924 0.5930383818346805 0.7591144500319456 0.8344026365216736 0.8183164746429443 0.6592906126400687 0.9237994980303261 0.7966752127627302
0.10619014143626083 0.731782914792763 0.7764868093303211 0.07566852297636922 0.4976220753117588 0.20678504262698416 0.12461836929686117 0.7282465398438722
0.0749721128193833 0.8615747338411246 -0.008926103710878677 0.8596391479807638 0.7132190077916035 0.7133702534597552 0.1718510835429668 0.4154452996364567
0.636857404010427 0.6803467791697649 -0.06409451936904335 0.3040611704303145 1.0323983376713086 0.8631046318019379 0.7210582313970414 0.90946123532212
0.003610048341962855 0.5255461124774785 0.7260563193678272 0.8769277473911486 0.17276321596005667 0.7958957779286217 0.4371275313110314 0.1412233014031092
0.2605806425922071 0.5970788271447727 0.5870285509362522 0.3030442845992814 0.5411528808268071 0.7491972665199097 0.31431340114223044 0.5633283563134442
0.6099498305321651 0.6840912059162257 1.1766547784107053 0.2472705888314506 0.13127563867301992 0.481307589144008 0.11118632080478727 0.8905435485462273
0.8649800674210681 0.6941493940147853 0.6573899017080105 0.24938226040163547 0.41493969562614985 0.47250710506058885 0.2595269375502256 0.18569383412849383
0.21639613322352252 0.30930357791801116 0.40737959437410726 0.30994357520541976 0.5795110776097828 0.3107890291935439 0.5113666272190887 0.7593915055347725
0.8272247976096604 0.6710780298330021 0.24438031417855222 0.6039563252173168 0.7871597209943273 -0.022646314433975866 0.4678527916485714 0.16232720057122338
0.8254330998194709 0.2783569418681438 0.6236366645996015 0.08403549086205502 0.019563622282315278 -0.03940964242023389 0.24254637210246519 0.23383181954135773
0.29129376751172686 0.5187042904018602 0.5363912298043881 0.6097605359604072 0.20606447470053285 0.7850632168653363 0.24862225182145978 0.40468917905717655
0.6747820826528844 0.9747618447047635 0.21371661454630692 0.8846071248598647 0.6143980293997663 0.21150478454347657 0.7249259518230805 0.25943589015254204
0.12691128188358836 0.1385827104600158 0.4417465226874748 0.4269800926537458 0.7292108307920117 0.6771930423323786 0.0014722279625468747 0.5108917072602608
0.06714652197707906 0.6979787988726432 0.3267524586512895 0.3906188528479825 0.7816892610267443 0.7018789462589955 0.28551633409819477 -0.06551057626534856
0.3482381975974785 1.0780240635042104 -0.12775861574128655 0.896819276245002 0.5168034604617393 0.1037415489995544 1.0128858139595167 0.9251940760218493
0.9297282688510446 0.4605600442469939 0.9143901250151876 0.33937154640556866 0.15652785407919526 0.6761392798882787 0.5854160152283601 0.6722745443596522
0.622693078964899 0.8507106815236646 0.9006151397101695 0.9394032712851218 0.23712303667116424 0.2234951203860368 0.9739183850298393 0.4606840524653844
0.9175091434457735 0.5509383983413689 0.6234437726104608 0.9477083669304973 0.5812922612384719 0.1758996797870016 0.47134741352572307 0.2379927986458966
0.18725825117886355 0.4450221201529607 -0.013907977483038096 0.47198379753099085 0.48425738295829307 0.20043959969868125 0.6106787254533214 0.6250269150687442
0.28441174680365267 0.622525116114355 0.42481408659439746 1.0146320626640586 0.7579371535088683 0.5929635223443732 0.46301265513150025 0.34811769999349645
0.05845936292417465 -0.09415141642733323 1.0317587966841921 0.801419905757446 -0.0072851000193096885 0.4238986631332875 0.6597312818131691 0.15098704477411415
0.9877500548515962 0.5968644392616972 0.043937488520548046 0.037983435946865846 0.9278909096573011 0.5938718056300967 0.5552612479726081 0.4590058090451601
0.029736449376124772 -0.10693961329579754 0.7534075671149059 0.6323709466307498 0.5455875050482315 0.8761413624596902 0.6602797873088572 0.5184698849992372
0.6874271696741407 0.2210276074582247 0.6160183958000208 0.5703827920465366 0.4022467897305701 1.089346652399478 0.619099150095754 0.8253823630381903
0.4485337210653436 0.11578451231474733 0.3895093884265548 -0.02883985640586411 0.7843296341521376 0.4286703022625409 0.9323911532776938 0.6167323409221485
0.8023000229625887 0.32007418013045 0.7867520484930349 0.7692911335713849 0.1572896864447687 0.2191065702019729 0.13502570836392014 0.9496703276974169
1.005451101454767 0.32709073059492016 0.25749011243167935 0.4197582866338245 0.5079920960674281 0.7891750644696108 0.3796388982297281 0.2046257131541872
0.6549259370799896 0.49124311402073073 0.30164338038004407 0.48068082728122946 0.5893396675743012 0.555539800906416 0.6427159443387496 0.5778111022869578
0.34515259882285904 1.1562393414855265 0.4617986332566913 0.5409334902454439 1.0264767727605653 0.2861092775086427 0.35118539734277315 0.07556668167085856
0.06395653468843046 0.7410028198820062 0.1957816785759922 0.9326242050676976 0.31475184038443516 1.0699115567449082 0.8838289634829842 0.6757783516563202
00000000: ed09 e7c5 0a87 ef3f e56f 53d2 06df db3f
00000010: edd5 e458 8cb2 d83f 9bb2 140e ad71 dd3f
00000020: 325e f54b 0c52 a43f 00a8 70aa 0f27 d83f
00000030: 6ade d3ee def3 c93f 2628 8c9b 2f8f ed3f
00000040: 172a 753b a4a6 e83f 3a16 e8a0 2bfa e23f
00000050: 0add 1963 aa4a e83f 01d1 7128 6db3 ea3f
00000060: 9cd2 0b08 a62f ea3f 2f2a 7ba0 e818 e53f
00000070: 383f 03f7 c38f ed3f 4d31 0b04 5d7e e93f
00000080: c958 a0f0 462f bb3f 9ece d900 c46a e73f
00000090: f72b 7bdd fad8 e83f 4427 8527 035f b33f
000000a0: 67d3 ce42 0ad9 df3f 3043 b1a9 ee77 ca3f
000000b0: ed61 9c4c fde6 bf3f 38bf 01b0 cb4d e73f
000000c0: 97d8 ab54 5f31 b33f 860a 1d2d 0592 eb3f
000000d0: cec3 265c d947 82bf b509 5ef5 2982 eb3f
000000e0: 5937 2bab b0d2 e63f 6c90 91da edd3 e63f
000000f0: cab2 cc5f 37ff c53f caca cde1 a796 da3f
00000100: 7916 4ec7 2261 e43f 6d23 cf9b 66c5 e53f
00000110: 2bfa 8a98 7f68 b0bf e5d3 befb bc75 d33f
00000120: 79e3 8b1e b484 f03f b9b1 d39a 8d9e eb3f
00000130: a194 4bb6 e812 e73f 4506 d672 4e1a ed3f
00000140: c84a 1af2 d192 6d3f c22e b414 46d1 e03f
00000150: 79a5 5776 da3b e73f 73ff 7fc7 ca0f ec3f
00000160: 7e07 40e5 1a1d c63f 074b 276c fa77 e93f
00000170: c75f cac0 e5f9 db3f 0fd1 7aea 9a13 c23f
00000180: 51de 796e 5aad d03f 1611 770e 451b e33f
00000190: f7dc 8219 f0c8 e23f 09fe e5da 1365 d33f
000001a0: be31 a9d8 1f51 e13f 5794 be8b 6cf9 e73f
000001b0: 196d a6f4 b51d d43f 5bd2 6830 c906 e23f
000001c0: b8c3 ca81 b584 e33f 4786 9c3d 13e4 e53f
000001d0: 364c fff5 93d3 f23f 6099 250a 90a6 cf3f
000001e0: 635a 6edf a3cd c03f e92a ac58 becd de3f
000001f0: 067f 9eeb b476 bc3f 496f 152f 557f ec3f
00000200: da7d a8ad eaad eb3f 759d 3aca 7836 e63f
00000210: 56cf 118c 5609 e53f 8c54 5006 c2eb cf3f
00000220: 4eb2 a139 5f8e da3f 2f39 d770 8e3d de3f
00000230: 6864 4ddf 169c d03f 1c4b 53c8 d0c4 c73f
00000240: 8283 9655 deb2 cb3f b164 ec3b a1cb d33f
00000250: 1540 b9dc 8112 da3f bf34 c793 1dd6 d33f
00000260: 991e c0d0 5a8b e23f 0ae1 15ab f7e3 d33f
00000270: 767f 858b 1d5d e03f c339 246a ef4c e83f
00000280: 098f 8523 a078 ea3f a64c e6a1 7879 e53f
00000290: 646f 97a8 da47 cf3f b4a9 2037 9c53 e33f
000002a0: 98c5 4c95 6930 e93f 33b6 796f 9830 97bf
000002b0: 4244 ded5 4cf1 dd3f 8b31 da40 23c7 c43f
000002c0: 4556 18ad f269 ea3f 4d0c 7ca2 99d0 d13f
000002d0: 8156 e1e0 d4f4 e33f 7bb1 f494 5983 b53f
000002e0: 0e4b 9377 7c08 943f 3b15 af2a 802d a4bf
000002f0: bfc5 f86f c20b cf3f fede d878 33ee cd3f
00000300: a474 3f9d 8ea4 d23f 9e44 72bd 3999 e03f
00000310: c9df bbf0 1d2a e13f 98ec 0a87 2883 e33f
00000320: 0665 da19 5260 ca3f 6755 37e5 3c1f e93f
00000330: 1fc6 509c dad2 cf3f 511f 4671 6de6 d93f
00000340: 1378 1d98 d097 e53f aca8 8cc0 3f31 ef3f
00000350: fe4a 0be7 105b cb3f 599d e299 b34e ec3f
00000360: 85f6 5f0e 26a9 e33f b1e7 47ba 9612 cb3f
00000370: f741 e3e8 9732 e73f c548 e7fd 989a d03f
00000380: 447b 97fe a03e c03f 44c0 9b08 14bd c13f
00000390: 8f1f 0435 9345 dc3f b66a 7f4f a453 db3f
000003a0: 7380 c4f3 b155 e73f 92ae 3cbe 90ab e53f
000003b0: 1eaa e3bc f81e 583f a65f cf90 3959 e03f
000003c0: e183 eeb3 8330 b13f 1db3 4ea2 d755 e63f
000003d0: 53df f224 83e9 d43f 42b8 8b37 e6ff d83f
000003e0: 18d1 7732 9903 e93f d1dd fdd5 ca75 e63f
000003f0: 503c 5b4d e645 d23f a40e 9a16 4dc5 b0bf
00000400: c58b 79dd 8849 d63f 66d3 1029 963f f13f
00000410: 240e 32f2 645a c0bf 2aa1 bc56 beb2 ec3f
00000420: d091 2469 a789 e03f f480 3060 ce8e ba3f
00000430: 8d9d 58c1 c734 f03f deef 5e9b 309b ed3f
00000440: ca38 9c7f 55c0 ed3f 54a6 f8d5 d079 dd3f
00000450: f837 5714 af42 ed3f b04f 406f 43b8 d53f
00000460: 3973 17cf 1a09 c43f 1f28 d5d7 eea2 e53f
00000470: f6bb fe5d babb e23f ffa7 bee7 4583 e53f
00000480: 7431 3309 1aed e33f 7910 709b 0539 eb3f
00000490: 05ce 6ad7 d6d1 ec3f b799 fd72 970f ee3f
000004a0: febf d033 0c5a ce3f 7cd2 6ff4 7c9b cc3f
000004b0: 37a4 95e3 562a ef3f 2d2a c8f6 d87b dd3f
000004c0: a12d 9c22 3c5c ed3f de93 5f90 49a1 e13f
000004d0: 9f37 c85a 40f3 e33f f295 437f a053 ee3f
000004e0: eefc 6d3a f299 e23f 10f1 0776 e183 c63f
000004f0: 366b 8957 8e2a de3f cb0e 6f4b 8c76 ce3f
00000500: 6514 5c10 14f8 c73f 586d 030f 3e7b dc3f
00000510: cf93 8b23 c97b 8cbf a8cc a887 fb34 de3f
00000520: 31c1 a9ad 12fe de3f c2bb c33a 01a8 c93f
00000530: 57eb 451c ae8a e33f 7ee1 ea71 3800 e43f
00000540: c8ac c753 cd33 d23f d0ca d4ca b9eb e33f
00000550: 2865 336c 2730 db3f acd7 69d4 ee3b f03f
00000560: 33ce d76a 0541 e83f e014 06a3 8ef9 e23f
00000570: 8221 dbd4 ffa1 dd3f 235f 2876 8f47 d63f
00000580: b103 cfb7 62ee ad3f e56e 6da6 4e1a b8bf
00000590: 17e7 1183 1582 f03f a8ee b25b 3ba5 e93f
000005a0: e8df 4b25 fbd6 7dbf 1470 bedb 2721 db3f
000005b0: a024 f1c6 841c e53f 4756 b621 8b53 c33f
000005c0: c7b6 c600 a69b ef3f 9fc7 d873 8319 e33f
000005d0: f43b 8778 f97e a63f 84ed 5c9e 9072 a33f
000005e0: 487b e746 48b1 ed3f d653 e671 ff00 e33f
000005f0: 75e9 983c b3c4 e13f 9078 a1e6 5960 dd3f
00000600: 4949 4756 3b73 9e3f 2c99 c0fd 6460 bbbf
00000610: 8428 aa2f ea1b e83f 3907 d7fe 613c e43f
00000620: 7c3a 69ed 7375 e13f f7fd 4d9c 5909 ec3f
00000630: af71 9613 0321 e53f 190b 0128 4e97 e03f
00000640: 9e3b 8443 67ff e53f e8e9 c5f4 a14a cc3f
00000650: 5141 f635 6cb6 e33f 3b50 c169 9340 e23f
00000660: 1715 b451 69be d93f 6201 61c1 f66d f13f
00000670: a990 5405 a9cf e33f 1b37 fe45 8869 ea3f
00000680: de3e c8c7 c6b4 dc3f 2b70 c6c5 0da4 bd3f
00000690: 98ba 31c9 b8ed d83f 0e8d 5600 3288 9dbf
000006a0: 49f2 fe75 3a19 e93f a4fa 3e90 556f db3f
000006b0: 9209 cdf8 25d6 ed3f 43ad 5476 45bc e33f
000006c0: 2e8a 0619 71ac e93f 2f13 fd69 187c d43f
000006d0: bdd5 caa1 122d e93f f756 7970 089e e83f
000006e0: d4a1 a385 1122 c43f 0598 ad20 af0b cc3f
000006f0: 2069 c5bc 8548 c13f ef24 ee06 b363 ee3f
00000700: 3f9b e7e4 5316 f03f 27b7 aef5 0def d43f
00000710: c9fe fbce b77a d03f 274e 54dc 51dd da3f
00000720: 158e e7a3 7841 e03f c5e6 9610 ec40 e93f
00000730: f4e9 0bf3 004c d83f 1c7e f5e4 2c31 ca3f
00000740: 54f1 213d 27f5 e43f d4ab 46f5 8670 df3f
00000750: 1d61 7209 204e d33f bb2c 3f84 79c3 de3f
00000760: c6f2 cedc dedb e23f fd9e 9067 fbc6 e13f
00000770: 9aaf 3107 2191 e43f 7dd2 72b5 6d7d e23f
00000780: a9b5 04ed fa16 d63f 6d76 e0d2 f47f f23f
00000790: fd32 cbda 1b8e dd3f 464a 3dc0 534f e13f
000007a0: 97c3 91e8 726c f03f f4d5 7e49 9d4f d23f
000007b0: e3e0 1a51 d279 d63f 788e 718a 5658 b33f
000007c0: 3a30 da98 745f b03f 4462 b48b 4bb6 e73f
000007d0: 46e7 51c1 5f0f c93f 0829 87b7 0ed8 ed3f
000007e0: 40a5 33e7 e424 d43f 2c4f 9d94 5b1e f13f
000007f0: 0758 adad 5348 ec3f 87ad f6eb f99f e53f

L f8 [40, 40]
1.0133419362845335 0.528732039567572 1.0663250524777965 0.48919763190112026 0.7923499769044783 0.26178300248912934 0.5731144576718579 0.8372448270399289
0.11853143594021993 1.039645303345491 0.5720975417598706 0.5597626519015104 0.4701839147805451 0.5633679808317124 0.0270597215415717 0.4584921148533918
0.19696743029908365 0.3847501035993078 0.5353315404359106 0.40567130498190457 0.4105512233341247 0.9961927154181694 0.2562415824892104 0.06782174738877897
0.5516654086477701 0.8027632054272167 0.8438347145185459 0.5141563114154755 0.6351266016099871 0.46864260189330637 0.7051980514105994 0.7814397316566588
0.2944916683242329 0.8914448372500373 1.0173450019391086 0.1460666206179178 0.35491008638844984 0.9733010842181378 0.5936896585370443 0.6253238107965742
0.5577841789516809 0.4704640407074064 0.245788115649314 0.6359808751287402 0.6837244866312222 0.44758685735716064 0.602544374420164 0.37564500066640577
-0.034237398839996276 0.8265765699197425 0.06078497527113573 0.07292597253530886 0.4470315999869338 0.4521796068503896 0.5141575564980531 0.5979763195495132
0.4000079891349729 0.12530033001415772 0.37362505970482995 0.22184852850373815 0.14423854149602905 0.3623968288436865 0.357407953987907 0.22473116504637955
0.20903783181149332 0.10582961544743362 0.13463553731137076 0.28334234823323345 0.1434682218280699 0.38144403101687635 0.3541932582847552 0.6940945260732927
0.5257935711044623 0.1080675382385509 0.4056945989383473 0.3034370478146276 0.358997812103721 0.05739108993874553 0.6132777129333455 0.3246614015926622
0.11721739259904322 0.12897481204179137 0.1453860102460554 0.443537073101051 0.8307527417569108 0.17333576126965775 0.8438908283067668 0.3909145849373333
0.0917645230751826 0.12771398468935957 0.5517056716111298 0.4418261950971383 0.726297369653046 0.7142777484157127 0.4715610275636043 0.19602024919677746
-0.02290177535733719 0.3958115638542603 0.2680846509679485 0.6757681669378528 0.20565837504048598 0.4067896137568463 0.677658858648124 0.30214078289698704
0.14247260881197357 0.12870992538361906 0.11642269200428393 0.4419459976815918 0.4424803171064423 0.7566672780289743 0.2605856849098101 0.2857022011510129
0.2205887785474743 0.19234941474197817 0.5060412126324669 -0.05312092540435077 -0.08069919250904489 0.42536704952318993 0.4551569726595891 0.19517189927447867
0.7339574238800111 0.23429188816390706 0.4648512996753126 0.18249494039245373 0.24376616534564247 0.3877117508092885 0.23562959571890477 0.4511757163911299
0.3409469718044756 0.5565859881942252 0.4766051943531615 0.6916792367270581 0.1674875051163943 0.38814606118357137 0.18890487318068325 0.6581203933260775
0.46732449731808 0.6165447929757876 0.1879961387154576 0.3142661947617406 0.3641901183233657 -0.02383708738586759 0.6688812384865862 0.31948531595465396
0.3013658263373671 0.5014535705935079 0.8376875698772299 0.31869430375726115 0.15103581332207863 0.35751206904803373 0.5316142996819211 0.09923645100319277
0.15674116402647567 0.3050458675187186 0.6587251989553161 0.8061470930746638 0.5673760619833599 0.3119828866155396 0.4393750523753202 0.5272162799136688
0.2165680811814043 0.4228935935508681 0.8467613860435966 0.8556931817554777 0.04986873587591667 0.4375952277263884 0.016456586781031658 1.0554473465127576
1.083736497757473 0.42040421102856435 0.5636138330470649 0.022874109836128816 0.5721441047967301 0.6416196050020461 0.6784904624788266 0.5223981001412005
0.13992140604154044 1.401137770084093 0.30803894001509696 0.6869163689418527 0.849373526304334 0.5016704400506413 0.49730760131909324 0.994996026051554
0.4542150744597634 0.5866024158322812 1.1525484553723797 0.7897946504811563 0.6668093474911779 0.4256351653933565 0.30921771464598663 0.32549604725778836
-0.03651249628358071 0.6399366657410075 1.2194893303527639 0.6686500025426194 0.24570791827611185 0.6318234958398541 0.7309069731996369 0.6173759110342439
0.6102789857218517 -0.008130626954654373 0.512773808331481 0.039009625094913486 0.40496381971633083 1.1890009367366685 0.40607259421602193 1.0570017590112708
0.1648035823792233 1.159152264804087 0.3425378265126829 -0.18151881039470386 -0.23547333385053879 0.5265577671620442 0.684292364137122 0.7996104948826848
0.5388973033338483 0.46307652723598264 0.3220658975113195 0.22623511296555732 0.6663032649910602 0.9991735056037752 0.9756081346492761 0.4715046869007962
-0.25178858258496656 0.7523211305056111 0.28620016395620035 0.633180886745737 0.5878020439746231 0.04811863509912433 0.9231276275041126 1.0923908935102298
0.7119168379800356 0.6902465857077663 0.9039116809586966 0.17239463647368247 0.6805515885885628 0.14721393154327805 0.46222786836206237 -0.039736505078448225
0.8959413647533749 0.19561281113379125 -0.4035591009927679 0.029957317552035505 0.07403232341724171 0.07446880838468393 -0.005022010187236988 0.011866734725047724
0.9808504693383834 0.6215373004710876 0.6612291953294487 1.1698087059648212 0.767372635432325 0.9664414010836032 0.7483706669409006 0.9181519446825882
00000000: 421e c008 a636 f03f 7f48 4974 5feb e03f
00000010: 0dc3 b4db aa0f f13f f9f0 9295 034f df3f
00000020: 9b50 b956 ee5a e93f 52ba 957e 0dc1 d03f
00000030: ce17 9221 f456 e23f a636 dca9 b5ca ea3f
00000040: 0542 e980 1358 be3f 30f1 141d 63a2 f03f
00000050: 6461 ff80 9f4e e23f 160e 6e5d 93e9 e13f
00000060: c09c 4546 7e17 de3f f124 a949 1c07 e23f
00000070: ec5a 3d2c 8bb5 9b3f 783a b14f ef57 dd3f
00000080: 2a80 c18f 3a36 c93f 69dd 05e6 be9f d83f
00000090: b110 569c 6f21 e13f c1aa f4c6 84f6 d93f
000000a0: 0562 63a3 7846 da3f cd80 a78b cfe0 ef3f
000000b0: 09a7 2a18 4366 d03f 8e0c fe1a c45c b13f
000000c0: b440 0f37 3ea7 e13f acbe 3776 3cb0 e93f
000000d0: d8c5 c2a8 b100 eb3f 78f7 d1ef f773 e03f
000000e0: 2781 d705 f552 e43f e938 298a 3dfe dd3f
000000f0: cf5d 0081 fb90 e63f ea54 68e5 8d01 e93f
00000100: 6c69 1995 f3d8 d23f 99a9 c552 b786 ec3f
00000110: 8e3d 818d 0b47 f03f 52ac 4b9f 4fb2 c23f
00000120: 75c5 83cb d8b6 d63f 921a bc50 4825 ef3f
00000130: fb7a 6c74 81ff e23f 0c01 9914 a702 e43f
00000140: 985b da34 5ed9 e13f 9511 3235 151c de3f
00000150: 57c9 3a27 fc75 cf3f 99e6 7190 f459 e43f
00000160: 90c6 b12c 12e1 e53f a0fa 9d58 43a5 dc3f
00000170: 8ebf d023 0b48 e33f bb28 3154 910a d83f
00000180: c9c2 a278 9087 a1bf ae3e eeb4 5073 ea3f
00000190: 7661 c151 351f af3f 0072 11cb 46ab b23f
000001a0: 5f3c 8e6d 2a9c dc3f c0cb d5bb 82f0 dc3f
000001b0: 29d0 448c fa73 e03f 61ec 073c 9f22 e33f
000001c0: b54c de1b bb99 d93f 475e cb59 d709 c03f
000001d0: 9e7d 1915 79e9 d73f 806d 4b57 8865 cc3f
000001e0: e22a 4695 6876 c23f 10b2 0378 8231 d73f
000001f0: 5555 6d9c c5df d63f 2312 22a6 fdc3 cc3f
00000200: 0ee9 a06d c0c1 ca3f 0f84 4b51 a617 bb3f
00000210: 5fdc d0be bc3b c13f fef2 cef1 4722 d23f
00000220: 9a27 62ac 2a5d c23f 8133 9e39 9469 d83f
00000230: 35fd 3233 1aab d63f 3c28 3ab9 0536 e63f
00000240: 26e7 0a0a 4dd3 e03f 0b6a 7e6e 50aa bb3f
00000250: 8fa8 a67a e6f6 d93f 218d 3039 836b d33f
00000260: d58b 94f5 d1f9 d63f 20c7 bc6c 5d62 ad3f
00000270: ba42 0d95 f89f e33f e24b 879d 40c7 d43f
00000280: 833b bc83 f501 be3f 3b16 dd23 3f82 c03f
00000290: d2bf a63f 029c c23f b715 e251 e962 dc3f
000002a0: 8310 1dc6 8695 ea3f 5fb2 f0c0 dd2f c63f
000002b0: ec19 9f56 2701 eb3f e974 759b be04 d93f
000002c0: 7a7b 8a39 e17d b73f 48c7 bd8d ee58 c03f
000002d0: f3cc 12a7 92a7 e13f 3055 9d60 e146 dc3f
000002e0: bb94 3afb d33d e73f 9197 3602 5ddb e63f
000002f0: a20b dd4d 0e2e de3f f6b3 d307 3117 c93f
00000300: a56c b820 9073 97bf 907d 8806 fa54 d93f
00000310: e9e1 1d86 4c28 d13f 5aa1 1590 e49f e53f
00000320: 1344 797d 0353 ca3f 440a dc4d d708 da3f
00000330: cea0 77a1 61af e53f 3325 554b 4656 d33f
00000340: 552c b6dd 8a3c c23f 39bc 181c 9179 c03f
00000350: b2b1 aba6 e0cd bd3f 6cfe a8dd d748 dc3f
00000360: e222 c6f6 9851 dc3f 20cf a24b 9e36 e83f
00000370: c993 9f94 6fad d03f 21af 95e2 f148 d23f
00000380: 31ed dcca 403c cc3f 4f5b dcd6 e79e c83f
00000390: 78e8 5557 7d31 e03f 419c b07a aa32 abbf
000003a0: 28d4 a3c8 b3a8 b4bf 16e1 9fb7 3639 db3f
000003b0: a2a2 07b6 4a21 dd3f 31b5 3d8e 64fb c83f
000003c0: e612 8747 947c e73f aee7 b0ce 46fd cd3f
000003d0: b2f2 66aa 1fc0 dd3f 3ce5 5584 fe5b c73f
000003e0: 51f3 03ce ba33 cf3f 090d 80f2 44d0 d83f
000003f0: 018c ca4f 1c29 ce3f b58d a91c 10e0 dc3f
00000400: 5d82 643f 13d2 d53f e097 166b 8dcf e13f
00000410: 746f b612 b380 de3f 2014 a27e 3c22 e63f
00000420: 7b55 7b06 3b70 c53f a7b2 b693 62d7 d83f
00000430: 1fdb 2eee 082e c83f 2e51 c57f 520f e53f
00000440: 6673 2602 a5e8 dd3f 0134 4b25 bcba e33f
00000450: 5751 c7e9 4110 c83f db5c 2ff5 ef1c d43f
00000460: 1a6a ee11 e44e d73f cf4b 04db bf68 98bf
00000470: d3a6 86a0 7967 e53f 33f5 e489 7272 d43f
00000480: 8010 10e4 9349 d33f 5e2b c55b e80b e03f
00000490: ea6d 9c29 56ce ea3f 74c5 03cb 7c65 d43f
000004a0: 891d 5f3b 2455 c33f 6f24 1f4d 7ae1 d63f
000004b0: 8e08 e7fd fb02 e13f d73b a15f 8f67 b93f
000004c0: ad20 b72e 1810 c43f 4b76 311a df85 d33f
000004d0: bb0d 52de 4614 e53f 41ad 10fd f4cb e93f
000004e0: be0e d8d7 f127 e23f 0f3a bb11 87f7 d33f
000004f0: a156 288a b81e dc3f 54bc 04ad f4de e03f
00000500: 9e0b 04bd 80b8 cb3f 0e4a 7f4a b010 db3f
00000510: 0555 9255 ab18 eb3f 4799 e1aa d661 eb3f
00000520: 001f 5c1b 6588 a93f d91c fe69 8f01 dc3f
00000530: 1aff 1cd8 fed9 903f a2c1 bec1 1ce3 f03f
00000540: 4a99 f514 fc56 f13f b7f9 5d10 e7e7 da3f
00000550: c554 90e0 1f09 e23f 6265 af86 4f6c 973f
00000560: d76f 5627 014f e23f 6799 7ed6 2588 e43f
00000570: bed2 5fa1 31b6 e53f eb2a 7338 7cb7 e03f
00000580: 6bb8 7ad3 f1e8 c13f 8939 3b70 0f6b f63f
00000590: 2599 50f5 e8b6 d33f 8c27 7609 38fb e53f
000005a0: 0617 b263 112e eb3f da65 ac2a af0d e03f
000005b0: feee ed42 e3d3 df3f 0e53 f1e7 01d7 ef3f
000005c0: b2e9 891a dc11 dd3f bd22 f86d 72c5 e23f
000005d0: 3213 2ea6 d670 f23f 05ea 4b6e ff45 e93f
000005e0: e188 848e 8056 e53f cf16 d946 9b3d db3f
000005f0: 57e5 ef18 39ca d33f 24c4 7c5f edd4 d43f
00000600: 97d9 dd12 c4b1 a2bf 1ece 5b75 5c7a e43f
00000610: 1bfa 7a3e 0783 f33f fc81 acb0 9465 e53f
00000620: 2d9c ae68 5b73 cf3f 0640 6fe8 e537 e43f
00000630: fcf1 4905 9763 e73f 7b5e 6720 8bc1 e33f
00000640: 9f90 a3cb 6787 e33f f902 ee46 caa6 80bf
00000650: 40ee 209e a468 e03f 6414 06d0 11f9 a33f
00000660: 21ac 6f5e edea d93f 5f28 a3d8 2506 f33f
00000670: 9c6b fde7 17fd d93f 3e49 2cad 7ae9 f03f
00000680: 478c 4aa6 4818 c53f a9af c63e e38b f23f
00000690: 09f4 a0c6 23ec d53f a085 2025 023c c7bf
000006a0: 77ec fb7d fd23 cebf ed4d adac 8fd9 e03f
000006b0: 05e3 9b19 b9e5 e53f 7ae7 a1bf 6896 e93f
000006c0: 4916 b78e a53e e13f eb85 01bb 0ba3 dd3f
000006d0: cbf3 3d48 ba9c d43f 706c b2ad 45f5 cc3f
000006e0: 1759 8b39 5b52 e53f e421 33b7 3af9 ef3f
000006f0: 71f7 008d 2e38 ef3f b193 89fe 212d de3f
00000700: 235a eddb 4d1d d0bf 2990 73c3 0313 e83f
00000710: 5b4f 137e 1a51 d23f 9bce 2090 0443 e43f
00000720: 2193 6c3b 46cf e23f 2665 2878 01a3 a83f
00000730: 6741 45f3 428a ed3f ca31 a1df 6e7a f13f
00000740: 4c12 13d2 05c8 e63f eb4b f901 8016 e63f
00000750: 6114 8630 d8ec ec3f e483 d406 0711 c63f
00000760: b551 0720 14c7 e53f 263a bff6 e7d7 c23f
00000770: eb8c 7a32 2495 dd3f 28de 89db 5758 a4bf
00000780: b2fa 9739 8dab ec3f ecc6 3f31 d709 c93f
00000790: 2818 318d e9d3 d9bf aec3 a58c 21ad 9e3f
000007a0: dd87 ec47 c8f3 b23f 3795 9548 6310 b33f
000007b0: 56d3 3a98 f591 74bf ba62 6f2c 964d 883f
000007c0: 2f63 0286 2063 ef3f ec8e 5831 a2e3 e33f
000007d0: 4c36 2321 ca28 e53f ab1e 6b55 89b7 f23f
000007e0: 8dde a00e 518e e83f 9ff1 6484 16ed ee3f
000007f0: 0380 790a a7f2 e73f e174 e52f 8061 ed3f

weight f8 [50, 4]
0.12729803620073543 -0.24181649928537588 -0.12925085595935537 0.03190490024180739 0.32316621196637557 0.068514523869716 0.011329926387405485 0.10702697211149124
-0.3302584420727625 0.4763267456236563 0.31817689889914 -0.4191807984235615 0.2653711431107324 0.21914785575609644 -0.5892082101612661 -0.5521316888792549
-0.19532894858729763 0.12455671883952289 -0.21689749903734376 -0.33054807209524845 -0.057655227686264736 -0.007429838921040432 0.16019551846705568 0.04866884951103622
-0.3605904140631871 -0.00948196074743757 -0.0569080146862796 0.15097331600252245 -0.509411165634653 0.39522737376747635 -0.36967356298011206 0.3425329006710013
0.2189230985510242 0.4504153700211993 0.034113842610416875 -0.22747338696265987 0.11959923266142956 0.42814171678097984 -0.31396576614550065 -0.4295839806179283
0.32046329812888336 -0.1112973023688396 0.004679870178166067 -0.07566554675594582 -0.4172834764341393 -0.051929140151134714 -0.26401031784275647 0.028446617494048653
0.07162079049978545 0.1308129533867566 0.2544180963564072 -0.22724286787113346 -0.053566104344938664 0.29473999896469116 0.0566533395080636 -0.13429035766323755
-0.0022418453004007235 -0.13195369253830397 0.061263285384888955 -0.2478661775045087 0.39493677109403286 0.5166675767477528 -0.463354381227353 -0.317007132803392
-0.5377114173196638 -0.16725388998124 -0.3448769938092148 0.31520736637590624 -0.23299811175393834 0.12697886649196308 -0.16280592096085053 -0.38119422561230704
0.3370257633384549 0.005239812336078796 -0.01632043734438712 -0.5236072704463886 0.42700261495839437 -0.1658442069585385 -0.05217996243281497 0.38848634196547854
0.014813820198788203 0.04748804996665472 0.2730646098512958 0.48367393542351894 -0.1397833353309121 -0.040428035860067824 0.31707564626418366 -0.10528962410198014
0.16250105031377882 -0.005998177499900418 0.024706685626920622 -0.13831789914767054 -0.26809119296216494 -0.2619507136290984 -0.0406950099249051 0.4409783192221452
-0.43315436260022605 -0.2505968439962062 0.10222855608299662 -0.1869132299378926 -0.40942773464002097 0.028827395044988612 0.36065366168399954 0.14315027058480861
0.4429015228480892 0.5355904694269379 -0.18869463347854762 0.08924500088336919 -0.17884154835597632 -0.1847420817283978 0.11082746457444417 -0.12422947343783185
0.029064988616868674 0.12817496326916056 0.5055334961895005 -0.4682345888438928 0.3577980326174807 -0.1516952424237539 -0.5004387504365435 0.3963658463934477
0.11436244745372036 -0.1492851987570528 0.3823520927540001 0.040377314756757356 0.08247506126426676 -0.12996284938330266 0.172291562336916 0.5058658950899575
0.06516195477555999 0.16568879026426106 -0.11391861545344839 0.35538849814471185 0.19754510844111411 0.11086316784841316 -0.15172169818647815 0.015187425064691501
0.36273677396111514 -0.004178893755331911 -0.21585577772826745 -0.38175434648533585 0.08467791038215891 0.3995829369280497 0.2751716689324981 -0.4157425453304489
-0.0496969146422409 0.1494764580958727 -0.469187300094079 0.3400290338578143 -0.30143251012576516 0.29418547927034944 0.3366559559912688 -0.09775559096412151
-0.33944005178656256 0.3243303310788871 0.05321424078820159 -0.11730992835460269 -0.13963699453121958 -0.36955084246738656 0.4270814292246203 0.2980845823405662
-0.3082643606459753 0.3859653683466343 0.08014237248232502 -0.5428878168252931 0.12048399874895875 -0.44201632637053717 -0.3928962449181888 0.2103951422358302
-0.2514429899374067 -0.4435512121761642 -0.03023088939453824 0.4505744112789064 -0.39372970715413014 -0.19881913469006254 0.4100827079489471 -0.25469943059456285
0.22986319793134521 -0.2302646352552706 -0.059632422371306275 -0.28321501748288863 -0.12654533948425237 -0.18279775646140334 -0.30631714570815777 0.30819466189138506
-0.4948088625074766 -0.18187702807207023 0.06690602282730321 0.0881202736510023 -0.09543373946659683 -0.4699116736234247 0.07038941837790984 -0.29082069910268993
-0.2063614134887075 0.27797905907508114 -0.23849895238196606 -0.4966921110628256 0.4194519424638388 0.29327791742744413 0.08644887343548258 0.14409645033294624
00000000: 20e1 2953 4d4b c03f c52d 08d2 d7f3 cebf
00000010: f4a7 a9c3 4a8b c0bf 13cd 3dce d655 a03f
00000020: 9f56 e455 c1ae d43f ff49 52f7 2a8a b13f
00000030: 3f63 66fa 2434 873f 073e 02a1 1e66 bb3f
00000040: 178c fb4d f422 d5bf 4e7a aa2c 237c de3f
00000050: 0c54 c7a3 025d d43f 8ac8 15b3 dbd3 dabf
00000060: 649d 3d3f d7fb d03f b900 bb74 090d cc3f
00000070: b6ac 252d cbda e2bf ee4a 5a13 10ab e1bf
00000080: 437f 12fb 8900 c9bf 6fae e9f9 f2e2 bf3f
00000090: ef8b 7918 4cc3 cbbf 93ea d919 b327 d5bf
000000a0: df3d b66a fc84 adbf 7ffc e232 c06e 7ebf
000000b0: fb10 6468 4981 c43f afba f799 1feb a83f
000000c0: 59c2 e9d0 e913 d7bf c162 7f3a 476b 83bf
000000d0: 716c ea1b 0c23 adbf 4256 66f7 1753 c33f
000000e0: 43c7 13a5 184d e0bf 892d 34c1 674b d93f
000000f0: 1181 cc4d bba8 d7bf e2e6 8b1d 0fec d53f
00000100: 18cd 4e0e ac05 cc3f a5d5 f6fc 9ad3 dc3f
00000110: 268c b49c 5e77 a13f 5d84 db12 d91d cdbf
00000120: 3754 e828 0e9e be3f a52a e883 ac66 db3f
00000130: 0425 6ade 0318 d4bf 91ed e8ce 4d7e dbbf
00000140: dd09 427e 7882 d43f f7a3 cee1 fa7d bcbf
00000150: ff02 d615 332b 733f e730 c038 d15e b3bf
00000160: 3c88 1cc1 c5b4 dabf 122a 51cd 7496 aabf
00000170: b13c 3c88 8be5 d0bf 2369 462f 1c21 9d3f
00000180: e205 e978 bd55 b23f b93a 5896 7abe c03f
00000190: 4a20 d7d6 6248 d03f fcbc e056 4b16 cdbf
000001a0: 5cd8 ab34 046d abbf 4e17 1828 05dd d23f
000001b0: 2eea caa0 aa01 ad3f ba76 2a2b 6d30 c1bf
000001c0: fee5 ee87 7d5d 62bf 16ec 04cd dbe3 c0bf
000001d0: c8e3 58be e65d af3f 754c 1533 14ba cfbf
000001e0: a58c f5e0 a446 d93f 1920 2171 8a88 e03f
000001f0: 671b 7522 99a7 ddbf a650 ff48 d849 d4bf
00000200: 465c 0293 ee34 e1bf 1392 cc51 9368 c5bf
00000210: 736a 63f4 7612 d6bf 5bbd 8284 5b2c d43f
00000220: 4fa7 01d3 e1d2 cdbf 67dd 6eef d740 c03f
00000230: 279e 0f0d d3d6 c4bf 2b73 1b77 7c65 d8bf
00000240: aaad dc81 d491 d53f cb1f ee69 5776 753f
00000250: 572c 9a02 4eb6 90bf 6c7b d008 64c1 e0bf
00000260: d160 a3c6 0254 db3f eb19 8f0a 623a c5bf
00000270: ff96 4f00 55b7 aabf 41cd 6bd1 f5dc d83f
00000280: 0ace 424a b556 8e3f 367d 1d8b 5a50 a83f
00000290: 7767 40fc e379 d13f 9595 a485 83f4 de3f
000002a0: 27d3 e29a 6be4 c1bf 5094 b8c7 fbb2 a4bf
000002b0: d303 c4a6 f74a d43f 964a 20c4 42f4 babf
000002c0: 04e8 549c d5cc c43f 9ead 2983 8b91 78bf
000002d0: ed6b 0a9b b54c 993f b734 a5a2 66b4 c1bf
000002e0: 578f 87f6 6728 d1bf 8cda 0ced ccc3 d0bf
000002f0: 28c9 79f1 f9d5 a4bf 6377 d320 fd38 dc3f
00000300: 6b36 5f13 cdb8 dbbf 0273 5c58 c709 d0bf
00000310: 7701 1891 a62b ba3f e8f0 e2d0 c5ec c7bf
00000320: 23ac 9662 1034 dabf 33d4 c9bb ed84 9d3f
00000330: 2563 8718 f314 d73f 8ea3 4981 bf52 c23f
00000340: ffca fea0 7f58 dc3f 959d c79f 8e23 e13f
00000350: fb4b dc4f 2527 c8bf d124 20a8 c2d8 b63f
00000360: 0c6e ada4 47e4 c6bf 70f5 9be7 a0a5 c7bf
00000370: ba88 d84f 305f bc3f c762 9db5 80cd bfbf
00000380: 5eb2 455e 36c3 9d3f 141a b485 0968 c03f
00000390: 8553 2595 542d e03f 9431 7c35 8ef7 ddbf
000003a0: fb92 2ab8 29e6 d63f b99b 95ec bf6a c3bf
000003b0: 7cd5 5820 9803 e0bf c9b7 e0da 0e5e d93f
000003c0: 8f49 b47b db46 bd3f 8b1d 3803 c71b c3bf
000003d0: b1e0 7be9 7478 d83f 35da c2dc 55ac a43f
000003e0: 6a99 ddea 151d b53f ceeb e565 9fa2 c0bf
000003f0: fc90 ce60 a60d c63f 1e57 72ac 0d30 e03f
00000400: 9157 b430 74ae b03f d3d8 bf4f 4a35 c53f
00000410: 9035 c737 c529 bdbf 72fd 3966 afbe d63f
00000420: 4ea3 1e7a 2849 c93f a469 3d50 8761 bc3f
00000430: 0ffa e6d9 9d6b c3bf fdd6 b4af 951a 8f3f
00000440: d80c 4e4d 1437 d73f b0a5 3340 e31d 71bf
00000450: 4f6e ff80 29a1 cbbf e7a9 50c8 a96e d8bf
00000460: 32f5 c897 73ad b53f 9451 894f c492 d93f
00000470: d073 b6a1 699c d13f 3d01 f09e 869b dabf
00000480: 6f78 33be df71 a9bf 8f97 8569 0b22 c33f
00000490: 1d91 662b 2a07 debf c906 0723 09c3 d53f
000004a0: 153f 3c95 ab4a d3bf b226 1b55 efd3 d23f
000004b0: 811c 3f6c c58b d53f 842a 31aa 8206 b9bf
000004c0: a40d 58c4 62b9 d5bf 466b 4501 d4c1 d43f
000004d0: 91cc bb9f e53e ab3f 8474 c701 0608 bebf
000004e0: 8462 6902 a0df c1bf bcd3 a693 b8a6 d7bf
000004f0: 6bea cf58 4d55 db3f 1f0d 265b d113 d33f
00000500: cacb df70 9aba d3bf 2afe 9b16 a8b3 d83f
00000510: 27df d5e4 3584 b43f c82a 5545 565f e1bf
00000520: df6d 5112 0ad8 be3f 2bcf 83d8 fe49 dcbf
00000530: d944 a94a 3625 d9bf bbf0 915f 3aee ca3f
00000540: 51bc a556 a417 d0bf 4475 999f 2463 dcbf
00000550: 4638 1da5 d8f4 9ebf eede 360e 36d6 dc3f
00000560: 8c33 ec15 de32 d9bf 110b a8c8 e772 c9bf
00000570: 28ef d28a cb3e da3f 7ba9 2dd7 fe4c d0bf
00000580: 27a5 d542 286c cd3f 7f62 ecc2 4f79 cdbf
00000590: df66 bb0f 2488 aebf 07ce 74e1 3120 d2bf
000005a0: ffe5 453f a332 c0bf d656 e4b8 ea65 c7bf
000005b0: 9551 c13a b39a d3bf 8704 681a 76b9 d33f
000005c0: 8a65 8fca f2aa dfbf a64a bb17 bf47 c7bf
000005d0: cadd f2cb c020 b13f 8214 72dd 0c8f b63f
000005e0: 28ab f175 586e b8bf b628 8e69 0813 debf
000005f0: cbe6 ea79 0a05 b23f 9656 e96b ce9c d2bf
00000600: 0090 0b01 0d6a cabf 22d2 ecad 68ca d13f
00000610: e02e 4e38 2287 cebf da8b 4cb5 cdc9 dfbf
00000620: 1d0e c8f5 4cd8 da3f e259 ffbd 10c5 d23f
00000630: e872 2e6c 8321 b63f 1f29 d3a2 c071 c23f

bias f8 [50]
0.3087816882423325 -0.35795149257305214 -0.05737556312696571 0.4084248596927817 -0.4154701428419677 -0.2574036448258862 0.024826132622952957 0.2183433901908444
-0.4578887303724632 0.5230804682295144 -0.44622998718895146 -0.12527464470472657 0.2695423609069008 -0.18312137140983525 0.33310079580328983 0.22527279679923543
0.32965305439827364 -0.46544815437638354 -0.12544594930684994 -0.38699041531889977 0.12133542619604805 -0.006037773239892395 0.3035955133320069 0.14556682559771433
0.0002576176123394682 0.4709206529492239 0.4180660983105207 0.011825773314578045 0.009664075024092153 0.31778263261017664 0.18317524486189488 0.05725205769187616
-0.04688518523624545 0.31134325676693553 0.11078806483132177 -0.12066829766009175 -0.46805119908522963 -0.2259807688607736 0.4211272836368072 0.39018846854499695
0.4290696697321218 -0.12505923259252805 -0.062436082153872044 0.2170146554951693 -0.38101197775889295 0.20735970284107863 -0.00254539469723908 0.32940039739574234
0.3161222864078498 0.05138070127696852
00000000: e5af 2645 14c3 d33f 1af6 8960 ade8 d6bf
00000010: e596 706e 5460 adbf ab3f d005 a223 da3f
00000020: f21f fe14 1097 dabf 127f 1923 4d79 d0bf
00000030: 5d95 ce8e 056c 993f cd6e 151c adf2 cb3f
00000040: 3b07 8a88 0c4e ddbf b31b 0740 13bd e03f
00000050: 9c25 5e38 088f dcbf 4f2d 03e3 ff08 c0bf
00000060: 49d5 3e9a 2e40 d13f 62b3 b366 8570 c7bf
00000070: ffc9 0f00 8651 d53f 9130 772f bdd5 cc3f
00000080: acb1 ea1f 0919 d53f 98ed 410e e7c9 ddbf
00000090: dc23 d8e4 9c0e c0bf 9a3f 6a72 73c4 d8bf
000000a0: 25b6 5ba7 d60f bf3f f12e b269 10bb 78bf
000000b0: 934a 3ee0 1b6e d33f 6290 a909 efa1 c23f
000000c0: b281 4938 1be2 303f 6e62 db60 9023 de3f
000000d0: 29d7 f34e 98c1 da3f d292 166d 1c38 883f
000000e0: f882 6531 c2ca 833f 1b0a 93f7 8c56 d43f
000000f0: 492f 0f53 4972 c73f f4a3 d446 2450 ad3f
00000100: f65d 83c2 5501 a8bf 3e39 6944 0ced d33f
00000110: f1d6 3c4b 9b5c bc3f d534 1d18 1ee4 bebf
00000120: 682d 3b04 8df4 ddbf 3117 e415 f0ec ccbf
00000130: 0819 abd9 bff3 da3f 6355 eb0d d9f8 d83f
00000140: 761e cda1 e075 db3f 2c1d 06e1 f001 c0bf
00000150: 7aeb e145 9ff7 afbf e85e 0de0 22c7 cb3f
00000160: 58f5 f60f 8062 d8bf 94f8 1a43 c38a ca3f
00000170: 8499 5c5f 14da 64bf daa9 8667 e514 d53f
00000180: 3624 6af8 583b d43f c69f 423f 924e aa3f

weight f8 [50, 50]
0.11119215908450421 0.07452866772344562 -0.05695805382834266 0.178759265329105 0.14071649570271047 -0.10362823048195952 -0.027536075635146137 -0.10789682782890998
0.007921741921719362 0.003807852368867141 0.01835182846912753 0.15121409894555915 0.16985392746063008 -0.02171500595607148 0.1798965908801807 0.16036729101735456
-0.012451752568335726 0.09622623981583527 0.27454956529809854 -0.02236108876806926 0.015253320789658806 -0.06254743983630713 -0.03419835404078529 0.03109786688371925
-0.0689694090035197 0.08955556565509737 0.10301369111986008 0.003115250634886 0.13565273547235118 -0.08750093988971214 0.061509252046712856 -0.06830453034632215
0.013442718955875808 0.05774635372231636 0.09422293407017025 0.2797586983428013 0.14141572769897137 -0.025432576570197925 0.008703598336541768 -0.10491412774011924
-0.07890504431514775 -0.03001583733441528 -0.045275837017034457 -0.04021146876843504 0.02069654132129982 -0.011838464741874558 0.040438654866249216 0.17825453379877793
0.13478252546097924 0.029839440829317384 -0.04496669182405745 -0.09053661176068496 -0.09397654492916668 -0.10365462483782834 -0.060761022045441815 0.09943330685464474
-0.03964451215773361 -0.030877658254680918 0.0990995831866807 -0.039237110241239284 -0.07099554388116555 0.10621351230943986 0.018771546564393476 0.0120933099106985
-0.06943311955261952 -0.11327251173517469 -0.08541907558800287 0.1339587814363706 -0.12258293856207794 0.03045627780959025 0.10000507333781918 -0.09021179390308691
-0.0056059295548917115 0.11733828377546897 0.07506595697298815 0.07814695377080313 0.038580332705967064 0.03548956449198956 0.050586704858658724 0.016762971048777813
-0.16098245976477374 0.026705743394310442 0.037182017272111643 -0.06207543913009834 0.2123596430915092 -0.05774362580988283 -0.020373252842647446 0.03793912148543236
0.13623439852830915 0.012389786533252036 0.18056224318627206 -0.051183313785579845 -0.1165848420874515 -0.06454998575216793 -0.07342447709410777 -0.014758724199589877
0.012249080229412158 0.10818727435822671 0.021779339615478406 -0.14014235253221854 0.03554391850288539 -0.01544588123465712 -0.12736543852651108 0.10130500287418578
0.07583215110742114 0.10678593242948907 -0.06264272439967114 0.028042593389137765 -0.07092747252076835 -0.10194575315998458 -0.07253160164592862 -0.0025145006000715773
0.07304478486989113 0.14436593909076229 -0.03546835408185332 -0.05660463867910523 0.039195993331323585 -0.09270139401064316 -0.1671022931629584 0.06641309267903994
0.0314619421050604 0.05658280373064011 0.05609675859707492 0.0547629710504205 0.08342557379372906 -0.10920880139335731 0.13006976965720943 -0.12717953180741537
-0.037893836213370335 -0.2065440939414117 0.09739575696766224 -0.11217794099495443 0.0858952514458417 0.0953829874016809 -0.06066606641521064 0.09298365792155153
0.10170050648474593 -0.01752044602197388 0.00885226095988551 0.07459323632791245 0.10525875417395439 0.08141257817126964 -0.021894165744561395 0.06659237924180474
0.11084026778981712 0.01099141603719298 -0.019039624194513997 0.13192093085843587 -0.13644704446068615 0.03918293929243969 0.14313619008166517 -0.01112160890933443
0.01751765662812874 0.18816219325789543 0.07309464244309792 0.1123657917134487 -0.03909996739935724 -0.060114073059352895 0.09976255842729119 0.11464790855908435
0.119141802004513 0.012790395762933364 -0.0910574049988275 -0.06741137026633309 -0.024373746921819026 -0.09791357257989487 -0.0008200710868278779 -0.1133109413054894
-0.18705951136623306 -0.07437619376944325 0.04215013339138484 -0.010689185531078957 0.12193584993971836 -0.1262149401527056 -0.006336204134635405 0.044255009785731735
-0.03980047103026695 -0.10393582198055847 -0.005401431085776447 0.06674261844418623 -0.07613290866400067 -0.031179637965834842 -0.006809015084202531 -0.061698924726214036
-0.037711822902534914 0.03933108574849185 -0.12084460671691075 -0.09667852282618247 0.08947436457973726 0.1210298198453027 0.07202709326783133 -0.10783785282922391
0.127288496073464 -0.09599613981009865 0.09032764658491542 -0.005527325458991092 -0.10400095928323395 -0.05048390488929699 0.19885614592268208 0.04469151290221064
-0.13687120943479175 -0.011939491587559588 0.13141165011918352 -0.07861223093490638 -0.12646724568524723 -0.08681654961248855 0.05234928504712346 -0.1306099356969719
0.02716812621862326 0.1345375293877837 -0.024725114223718387 -0.15494052590504118 -0.11994068557662459 0.019301988690212435 -0.028378365452623268 0.03958292199964719
-0.05748538652163533 -0.02567973547397121 0.047273136408146385 -0.05934095575548112 -0.02303240810846735 -0.1073571956242074 -0.022578830125594036 0.09949031796900343
0.05951139308520839 -0.05699028558034431 0.08240761189205854 -0.05302848505324639 0.01985509363747149 0.008208694525174523 0.0641194140088022 0.10040623977731519
0.10605239292318745 -0.08933231412635945 0.1281047812476366 0.10819796826773406 -0.025091447900916383 0.003947624897205887 -0.09167780369265001 0.03706968456542525
-0.1151236911314765 0.09097475094027066 0.0534175757683992 -0.026033265054066532 0.07549363715839143 -0.018116990942427406 0.06791985420119381 -0.12159126171695331
0.03525855783213547 0.01789103379897868 -0.08070622981158443 -0.13768957207559318 0.0705158689150946 -0.10975699047251104 -0.11146333473719415 -0.05551518779702068
00000000: 61ee d6de 1677 bc3f 1395 7c8e 4f14 b33f
00000010: 1582 df24 9b29 adbf e705 3967 95e1 c63f
00000020: c782 8685 ff02 c23f 0cc4 dc34 6187 babf
00000030: 7ca6 40c1 6a32 9cbf 1908 de62 209f bbbf
00000040: 475e d933 4639 803f d58f 8d2c a531 6f3f
00000050: 8006 635c d2ca 923f 0c28 d5cc fb5a c33f
00000060: 2731 c503 c6bd c53f e8b3 a761 753c 96bf
00000070: a302 3ffb d906 c73f 6f42 2257 ea86 c43f
00000080: 3299 78f0 4d80 89bf 3bac 0669 48a2 b83f
00000090: c186 0557 3892 d13f d3e4 d843 d3e5 96bf
000000a0: 056b 930f 223d 8f3f b5a3 8be8 1b03 b0bf
000000b0: 9e49 5d58 7282 a1bf d3b7 f684 1ed8 9f3f
000000c0: 6a35 18ac faa7 b1bf 28d6 a911 1ded b63f
000000d0: 5469 66f2 1a5f ba3f 95cc 0f73 2785 693f
000000e0: 6abc 3b9f 115d c13f 3c11 322b 7666 b6bf
000000f0: be54 e203 247e af3f 538f 01dc 677c b1bf
00000100: 4c48 4732 db87 8b3f 9ab4 6619 ee90 ad3f
00000110: d952 5d84 fe1e b83f dcd8 0907 91e7 d13f
00000120: 38b6 cd1a e919 c23f bff1 7c52 ff0a 9abf
00000130: fd27 b431 31d3 813f da3c 88fb a6db babf
00000140: 7eaf d2f8 1e33 b4bf 857d dabe 78bc 9ebf
00000150: 760a 93fe 642e a7bf 0cb1 91fe 9896 a4bf
00000160: fc0f 7660 7931 953f 82a8 35d7 c33e 88bf
00000170: 821f 4a18 60b4 a43f eec5 8368 0bd1 c63f
00000180: 44ae 76c5 8d40 c13f 6fac f8f9 3a8e 9e3f
00000190: a257 96cd df05 a7bf 8150 9a4a 682d b7bf
000001a0: 1cd5 0fcb d80e b8bf 84f3 c107 1c89 babf
000001b0: c808 1d95 111c afbf a4e6 1211 7674 b93f
000001c0: c6de 5d16 494c a4bf a00f 8691 649e 9fbf
000001d0: ab82 d51c 975e b93f 8a24 8df2 e216 a4bf
000001e0: 6e9f 2193 c32c b2bf 8f28 c309 cf30 bb3f
000001f0: 988e 5b2a d938 933f d8e4 8894 60c4 883f
00000200: c6dd bc71 5ec6 b1bf ce37 7065 6dff bcbf
00000210: dfe2 1a48 06de b5bf 23ff a3b4 8f25 c13f
00000220: aaf4 2b70 9861 bfbf bdae 9934 ee2f 9f3f
00000230: 1986 6bb7 ee99 b93f e3f9 86c0 1e18 b7bf
00000240: 908b a141 3ef6 76bf 7968 62bb e109 be3f
00000250: f2ee 3dc6 8537 b33f 8645 ba52 7001 b43f
00000260: e15a 7b26 cdc0 a33f 2c4c af2d b02b a23f
00000270: 96ef f525 80e6 a93f 8bd0 c0f1 4f2a 913f
00000280: e7ac f5bf 129b c4bf 26c9 f919 c058 9b3f
00000290: abb5 5d78 8509 a33f 59b0 e519 5ac8 afbf
000002a0: e3bc 08cd 992e cb3f 35d3 cf90 9290 adbf
000002b0: fc71 b0da b9dc 94bf a5ad 09ac c16c a33f
000002c0: 0679 22f7 2070 c13f eec8 b7ff d05f 893f
000002d0: de4f b0e0 a91c c73f 92b4 9e05 b334 aabf
000002e0: eb94 f913 81d8 bdbf a548 c30d 5986 b0bf
000002f0: 1458 d84f f2cb b2bf 72b4 246e d239 8ebf
00000300: f465 eeb7 0b16 893f 3743 3645 29b2 bb3f
00000310: 0201 82bd 524d 963f 6187 7442 2ff0 c1bf
00000320: 3d4a 15ff cf32 a23f 5f05 1616 17a2 8fbf
00000330: 1958 8ebc 824d c0bf 620c 44ea 1fef b93f
00000340: 50e0 fd60 bc69 b33f 1f20 75a7 5256 bb3f
00000350: 7a01 a184 5a09 b0bf cb67 0196 32b7 9c3f
00000360: f758 dd86 4d28 b2bf f2c8 c9eb 1d19 babf
00000370: 56ea fe58 6e91 b2bf 7d82 fa3a 4a99 64bf
00000380: 7cd7 2822 10b3 b23f 268c 8645 957a c23f
00000390: ee25 a679 e828 a2bf 7c78 db7f 48fb acbf
000003a0: ab0a fc4a 7f11 a43f 21bf 914f 47bb b7bf
000003b0: 775a 1ca2 9b63 c5bf 682b 15cd 7200 b13f
000003c0: c4db d198 c71b a03f 1703 14d7 6bf8 ac3f
000003d0: e90d 2cdf b6b8 ac3f e1fe 6263 e409 ac3f
000003e0: 0017 18df 605b b53f e879 6ba6 1bf5 bbbf
000003f0: b51f 704f 20a6 c03f 30ae ea3c 6b47 c0bf
00000400: a847 8326 d266 a3bf 3485 5470 0970 cabf
00000410: 71fd f1a6 edee b83f 24ec e78b b1b7 bcbf
00000420: 3c72 d72f 3bfd b53f ed28 7cfb 046b b83f
00000430: 0de9 7566 9f0f afbf 52e4 d5e9 c6cd b73f
00000440: c8af 565d 0b09 ba3f 9ded b33a e1f0 91bf
00000450: 6303 8c5a 2221 823f 9efb 87d6 8a18 b33f
00000460: 7a7a cbda 3cf2 ba3f 9588 ba68 74d7 b43f
00000470: a566 6297 6c6b 96bf 29a2 01bb 320c b13f
00000480: a6b5 3c1d 0760 bc3f 33f0 54e3 aa82 863f
00000490: e169 f98c 1f7f 93bf 26f1 d8f9 c8e2 c03f
000004a0: bd18 ccc4 1877 c1bf 05f5 a445 c90f a43f
000004b0: 5e2c a363 4952 c23f 771f 5b14 edc6 86bf
000004c0: 390f 4809 26f0 913f 0972 31e1 b215 c83f
000004d0: b750 ce9a 54b6 b23f 6531 9928 01c4 bc3f
000004e0: fa82 8232 e904 a4bf 0f78 a393 45c7 aebf
000004f0: 3f7d cffd 098a b93f b0e9 d0b9 9059 bd3f
00000500: e325 32bf 1380 be3f ef9d 09dc d931 8a3f
00000510: be51 87c0 894f b7bf 8425 ac1e df41 b1bf
00000520: bc09 a477 6ef5 98bf 09af 1028 dd10 b9bf
00000530: cafa c83f 41df 4abf 23a1 2f23 f201 bdbf
00000540: 92a2 dce9 90f1 c7bf 4739 d777 510a b3bf
00000550: 2f46 e0c8 b394 a53f a502 3732 36e4 85bf
00000560: 4578 b317 3037 bf3f d379 1ca8 cf27 c0bf
00000570: 68e7 9fd8 fdf3 79bf 6381 6db7 97a8 a63f
00000580: 0f7b e132 ba60 a4bf 9514 4abc 899b babf
00000590: 3812 d79d cf1f 76bf 8599 7753 0b16 b13f
000005a0: 177a dc40 727d b3bf 3120 7515 8eed 9fbf
000005b0: 9b86 ac11 c5e3 7bbf 3a7f cb5f 0097 afbf
000005c0: ccee 13cc f64e a3bf 1d0b 033e 3423 a43f
000005d0: d642 bf11 acef bebf 5698 c375 ecbf b8bf
000005e0: 4a4a b3bd cae7 b63f 788b 136e cffb be3f
000005f0: 12e3 021a 5e70 b23f f320 2cf3 429b bbbf
00000600: 5b72 e54b fd4a c03f 65d0 06f9 3393 b8bf
00000610: 6fc1 0170 b61f b73f bd9b 4a21 d2a3 76bf
00000620: 29c6 df8e ce9f babf b0a3 f2c0 06d9 a9bf
00000630: e05a ac41 1e74 c93f 72c3 a554 cee1 a63f
00000640: aaa8 24ec fe84 c1bf 440b 326f bb73 88bf
00000650: 07a3 c9d1 18d2 c03f 7c57 ee60 ee1f b4bf
00000660: e3dd 1d26 1430 c0bf ba52 5601 9c39 b6bf
00000670: 2325 7e86 86cd aa3f b9f2 2c8d d3b7 c0bf
00000680: 940c 6916 f6d1 9b3f cf0f 6798 8638 c13f
00000690: c545 ec53 8a51 99bf 2129 cb55 17d5 c3bf
000006a0: 85ec 02ca 6eb4 bebf 905b b088 e6c3 933f
000006b0: 7abe 21de 370f 9dbf d0ec ef76 3644 a43f
000006c0: ba78 377e b96e adbf 6a5f 1fe0 c94b 9abf
000006d0: 5665 b43d 2f34 a83f 3cfc 9010 f061 aebf
000006e0: b0c4 4bbe ce95 97bf 1e3d 32dc c27b bbbf
000006f0: c2ad e2a3 e71e 97bf 000d f28d 3278 b93f
00000700: 74ab 14fe 4678 ae3f 19ba 83a9 d42d adbf
00000710: f591 044e aa18 b53f cbc7 1eb2 8c26 abbf
00000720: baec 53c7 e454 943f 1b53 3a54 b8cf 803f
00000730: 82dc 3442 216a b03f 566c 282c 39b4 b93f
00000740: 8783 44e7 3f26 bb3f 0812 a687 7bde b6bf
00000750: 19bd f5ca bc65 c03f be1c 34af dcb2 bb3f
00000760: 4f2c 9390 92b1 99bf ed36 497d 622b 703f
00000770: c108 a150 3278 b7bf df58 c335 ccfa a23f
00000780: 1a8d 6708 bf78 bdbf 6ada 0c0c 1f4a b73f
00000790: bceb e969 8c59 ab3f d9ae 0fd8 76a8 9abf
000007a0: f1c0 a60e 8d53 b33f ae0b 66ae 428d 92bf
000007b0: 2e10 8b10 3263 b13f b6be 8ddc 9a20 bfbf
000007c0: 4c17 96e1 680d a23f 55a4 3bf4 0652 923f
000007d0: 94cc 9fd9 29a9 b4bf e44e 88d8 cf9f c1bf
000007e0: eddf d6f6 530d b23f bd39 96bc 0819 bcbf
000007f0: c73b 6671 dc88 bcbf 2efc 0998 7c6c acbf

bias f8 [50]
0.06811837032140601 -0.055989112360129864 0.03465703939780125 0.05951422422170289 0.06199881328075061 -0.08428233159467252 0.05832090413882606 -0.10055258052711469
-0.1457237872288185 -0.11911525495684844 -0.04329304324851698 0.09028746429504297 -0.05733990538280143 -0.05059940600529911 0.06522933253589609 0.13188929323551
0.12778639047996482 0.15967487486675472 -0.047491684317743005 -0.056946886958945946 0.12112275871463023 0.03638912589687785 0.016206127272722463 -0.028309705353487532
-0.07560748887399589 0.04830714902045835 0.15072248566922594 0.07814699712996756 -0.056350318436844925 -0.10502351556012841 -0.015508407066784385 0.016507793292390237
-0.1289785366984037 0.03432702997693183 0.10777439386161855 0.13128899298151167 0.08744944629167982 0.06950682440030255 -0.13579593440482524 -0.07896372204349567
0.08780390482837519 -0.04074309905304938 0.10044401626097406 0.12413924004960425 -0.0038608163301636633 -0.13019141727955388 -0.04033733298039147 0.020740147418563473
-0.1523966995655086 -0.138654881692445
00000000: 9989 c99c 3470 b13f b6a3 09dd 9aaa acbf
00000010: ca58 9445 91be a13f 29a9 5bfd a578 ae3f
00000020: 2dff dcf6 4ebe af3f 3c6a d4e1 8693 b5bf
00000030: ef18 e6cf 3cdc ad3f f871 e45c d0bd b9bf
00000040: 24d2 32ba 13a7 c2bf c48e 7e5c 567e bebf
00000050: 7b1b cb79 812a a6bf 68cf 624a 141d b73f
00000060: 81ee bff4 a75b adbf 30c5 fa53 2ae8 a9bf
00000070: fd48 fb99 deb2 b03f 07cd 9194 bfe1 c03f
00000080: 721f feef 4d5b c03f 59d6 c5ee 3970 c43f
00000090: 140d f47d d450 a8bf 5703 3272 2428 adbf
000000a0: f30a 7baf e601 bf3f a571 5073 98a1 a23f
000000b0: ee4d 86ca 5698 903f bf49 9c2a 38fd 9cbf
000000c0: 2de7 0b2c 035b b3bf 6867 69f2 b6bb a83f
000000d0: c74e 5cd9 df4a c33f 522d f40c 7101 b43f
000000e0: f361 9ced f2d9 acbf 5d46 a434 d2e2 babf
000000f0: 10b4 5129 dfc2 8fbf 769f 4741 6be7 903f
00000100: d6b6 8062 5e82 c0bf c14d 3dfe 4f93 a13f
00000110: 265c fb48 1a97 bb3f 3d16 97e5 13ce c03f
00000120: 5746 e03f 1663 b63f d1ea a501 33cb b13f
00000130: fa67 99dc c261 c1bf a84b bf6b f736 b4bf
00000140: 90ef b213 517a b63f 0dea f08b 47dc a4bf
00000150: 6d76 ebf4 b2b6 b93f e4d0 29d8 96c7 bf3f
00000160: 001e f7fb b7a0 6fbf ddc0 b7c3 1caa c0bf
00000170: 55d3 ea4b 18a7 a4bf e7fe 81bb e73c 953f
00000180: 307b 532c bc81 c3bf dc5f 2673 71bf c1bf
