lasa_models/7/skel_model_Zshape.pt (torch, 99247 bytes, 18 tensors)

R f8 [20, 20]
0.21063848344857639 0.5287448602294231 0.683218471774737 0.5313702207217066 0.34855559940234215 0.49149779006224453 0.618789323600292 0.6592261532666961
0.2419409978593975 0.7074961434095794 0.6717902556915798 0.7323997473043024 0.9091437017255732 0.3363687743363421 0.5113928232374572 0.48736315121454477
0.2741047929951335 0.5209617364486966 0.2015352637807782 0.8201418332634388 0.46274897609354504 0.9392552778479117 0.21931728595082922 0.7161767915772986
0.5615808648969005 0.2076804410536718 0.8863987547180999 0.06257771365803727 0.6852084175569663 0.34095041911569424 0.004338854833286694 0.33614857550751975
0.0613193618831786 0.3883576767314135 0.2438673040895307 0.03509954812866553 0.19027968928502081 -0.11313976528200205 0.6137719131722904 1.1603498268292072
0.3811039599467081 0.4491195488621498 0.04006831825369317 0.3582258040143206 0.15144018561139264 0.5684922123913642 0.48319796640587037 0.8380180155892325
0.48481797018780615 -0.5542433432161837 0.5727353345285002 0.6988975604136461 0.1370982941852363 0.43412323700858135 0.8506346824698995 0.9077247915936096
0.8902114091807317 0.9655170518074314 0.5696819311005618 0.19274023739430393 0.31953651743788525 0.6251946727506087 0.18280820794027938 0.9584633226140995
0.3318741277261423 0.30461835909680973 0.7337466415588046 0.1128488052645361 0.4648916824106037 0.714181089943318 0.2795256928654214 0.28442422577225057
0.7622480970175406 0.5919134155393878 0.24679221168909032 0.3452862341954382 0.6048637063703752 0.33009229374611365 0.19635200401439354 -0.1161581462426763
0.47761192307510736 0.7281113933174777 0.15901821647259926 0.9691191215707142 0.35701993909310237 0.6348452420018867 0.6929045556913328 0.0677282660431081
0.9299808831794604 0.6974165135878518 0.5519407525502281 0.4578861895614644 0.3727588550937131 0.9141502880488892 0.31202984237806297 0.7839792915464854
0.1837294080634856 0.9995743933874778 0.4323160601602735 0.3317670494907294 0.832751526785558 0.15770834444005669 0.9498766450906136 0.15916149704483198
0.844510710234386 0.43275449952046185 -0.014718717379511713 0.523333243230568 0.7500399767937024 0.34536026388127616 0.1650508524973057 0.4811909901800527
0.5965913263234885 0.3280751275494221 0.7148877850049519 0.9700316343525978 0.6855444173113956 0.0746387006646258 0.7172045195750886 0.47709774640100744
0.2034256401124041 0.618209541775535 0.6083564303812525 0.9229386428859813 0.625277673883302 0.5967060131681965 0.6908473768639819 0.9409853390238572
0.8395018469481386 0.3069154104084179 -0.0614587387589961 0.8439975823903723 0.6919722584191906 0.7230328752542785 0.1713700337411232 0.06434704236009099
0.40856503555205814 0.3536431348436691 0.7611238822316645 0.776605911647419 0.23896405349740132 0.6287802464957434 0.2034984264345089 0.43726527676799937
0.2689045784730783 0.2999552034203464 0.1719180824703498 0.6659129761098191 0.48612374700117145 0.5183801878845641 0.1650231386881048 0.21026829328789107
0.8219102771283927 0.04978714209651749 0.6854848458182056 0.6833429435870947 0.9693495423320889 0.26154751795655085 0.0018803081103095634 0.9015126162658464
0.756905794384877 0.20670988736951176 0.6849223349060691 0.7240473909366852 0.3745570409680163 0.5195777046783574 -0.11171306387127389 0.7456062020099573
0.998038921616337 1.19025438005191 0.9504357562981027 1.2785798236717805 0.6582605440434658 0.4498452188394235 0.730675654149687 0.6159096759212636
1.1823684490972624 0.019403030794767167 0.9704572162764059 -0.17402716398315535 0.9110070965765085 0.7208366780952411 1.1891731902439713 0.524205402653392
0.4367297292836333 0.8413488396499776 0.3773248675313683 0.5295849455464539 0.35133509528555906 0.6595647182028602 0.6570472587029504 0.24041781982659619
-0.18067807991116758 0.8514233501285057 0.9680938080746065 -0.38646443091625804 0.5138547138579121 1.0825154788165934 0.3602277717645353 0.22650820561896798
0.05778833550256659 0.2797672159608215 0.21334960090290472 0.7331234846284076 1.050448377598793 0.8940321787248313 0.7835715845252273 0.906331973745258
0.7493214544250164 0.7586269753425509 0.9238475507798515 0.7794456544259457 0.3550442883152139 0.587983708227415 0.026050353352898098 0.06402805211588083
0.21913716611971762 0.6708034843868063 0.42103319862258276 0.806854194975167 0.973525681131454 0.30307267280488537 0.28274981396532206 0.20963244410020282
0.26391139302441935 0.20324640329433882 0.7151837823664879 0.7303289498323889 -0.2307182708008733 0.48851665016320706 0.7900568885591684 0.9952938629338189
0.580559347251632 0.6253935240343315 0.3139875579314701 0.9566991245215328 0.23214721898426188 0.6953427363834287 0.09720755861716478 0.6131032282788543
0.15082845323372587 0.249201907851159 0.0564572076956426 0.764663101312447 0.12281991347257865 0.4677406458091574 0.7266165193809763 0.1366033793619002
0.9684289983426011 0.29861838742159486 0.9399944627387733 0.6294104925039444 0.6997992914032477 0.6154904112068073 0.5723692946349764 0.32598852272384826
00000000: f867 d8aa 33f6 ca3f 7ea1 5357 7aeb e03f
00000010: 8375 09fc ecdc e53f 502d 021f fc00 e13f
00000020: c053 1125 bc4e d63f 4be9 9725 b374 df3f
00000030: 5945 7f44 1fcd e33f d458 1e72 6118 e53f
00000040: 6411 af30 ecf7 ce3f 4ab0 bff3 cea3 e63f
00000050: 22f0 3e47 4e7f e53f 1ba9 4898 d16f e73f
00000060: aad2 4888 b417 ed3f 73e4 4ae5 1087 d53f
00000070: fcd8 667b 545d e03f 7a7c ef36 f530 df3f
00000080: 19d2 65d4 ee8a d13f f976 90f2 b7ab e03f
00000090: 3bef 7653 e8cb c93f a555 fe15 9a3e ea3f
000000a0: a012 a5e1 ad9d dd3f 3678 9e15 610e ee3f
000000b0: f89a 4dbd 9612 cc3f 8f51 3f97 ebea e63f
000000c0: a454 196f 78f8 e13f 8514 2ccf 4595 ca3f
000000d0: f556 d7eb 605d ec3f 24a6 9ed1 1705 b03f
000000e0: 113c 0b34 3aed e53f 9c33 eab4 21d2 d53f
000000f0: a1e4 c679 9ec5 713f d4b6 9950 7583 d53f
00000100: f8b7 cc5b 4065 af3f c690 2d28 dada d83f
00000110: 8f69 d037 0b37 cf3f 5c4d a266 91f8 a13f
00000120: 0c3e 49b9 155b c83f 9d68 c347 baf6 bcbf
00000130: 27e8 c8fe 04a4 e33f 4d69 e2fa ca90 f23f
00000140: 9c38 16dd 0164 d83f 7cdc 96eb 5fbe dc3f
00000150: e0ba 02a9 d583 a43f bac9 34ec 2bed d63f
00000160: 1524 405a 6462 c33f 110d 8894 1631 e23f
00000170: 2d3e cd29 b7ec de3f 2c44 4d28 0bd1 ea3f
00000180: 1010 9ef3 4107 df3f 6e74 2489 5cbc e1bf
00000190: 6c08 620d d953 e23f ab62 a76a 5e5d e63f
000001a0: 0776 eed8 6f8c c13f 42ac 58d4 acc8 db3f
000001b0: 67a6 c139 6638 eb3f 0b37 b5dc 140c ed3f
000001c0: 57a2 1ea3 9c7c ec3f c0c8 2704 84e5 ee3f
000001d0: 855e e699 d53a e23f 01ac 1d4c b6ab c83f
000001e0: 3880 114b 4973 d43f f91c 2342 9801 e43f
000001f0: 739d 4565 4266 c73f b460 2146 bbab ee3f
00000200: 4b3a 3efb 6c3d d53f 313f 8500 de7e d33f
00000210: d36f a13c da7a e73f a7fc 00c8 a8e3 bc3f
00000220: 97b3 080b c9c0 dd3f 4b4d 174d 92da e63f
00000230: 1eeb 4fbb bfe3 d13f a671 f8aa 0134 d23f
00000240: 431d 041f 5664 e83f 41c5 3967 f4f0 e23f
00000250: fe5a 0e1f e396 cf3f c537 e86e 2b19 d63f
00000260: 4ebd ac21 0b5b e33f 9746 936d 3b20 d53f
00000270: 0779 dffd 0f22 c93f 49ba 464f 8abc bdbf
00000280: 5e62 7299 3191 de3f 0a98 c443 b04c e73f
00000290: 77e9 9b7b b55a c43f 0662 a21a 0603 ef3f
000002a0: b42f 9b28 6ad9 d63f fb6a 0df8 a650 e43f
000002b0: ab32 be2c 462c e63f f780 abbf a356 b13f
000002c0: bd26 e544 67c2 ed3f f09a b16f 3c51 e63f
000002d0: 2d0d 31a7 7fa9 e13f 0d38 5de0 014e dd3f
000002e0: 6c00 fbf4 47db d73f 1291 d91a b840 ed3f
000002f0: bcf2 1804 4cf8 d33f 72de 3dbd 5b16 e93f
00000300: 1c1a 79fb 7184 c73f 8d95 3070 83fc ef3f
00000310: e321 fbfa 10ab db3f 87ff dcdc ab3b d53f
00000320: 059e a787 e6a5 ea3f 8992 d67a c92f c43f
00000330: 91bf bcb4 6365 ee3f 9d83 4b68 675f c43f
00000340: 6b82 3253 3b06 eb3f 66c8 a8ed 3fb2 db3f
00000350: 4cc6 45ce d824 8ebf 86b7 925b 25bf e03f
00000360: 8bb0 60d6 5300 e83f 0e50 adef 611a d63f
00000370: 8590 d3e6 6220 c53f f500 7d4b d5cb de3f
00000380: 6a5f 74b1 4617 e33f c52b ddd1 2eff d43f
00000390: 29ff 1c59 5ce0 e63f a127 34c8 7f0a ef3f
000003a0: aad9 89d8 faef e53f 2cd9 5e9a 851b b33f
000003b0: e9c9 83e4 56f3 e63f 8268 72fc c488 de3f
000003c0: 9eae b9f3 d909 ca3f c108 8060 5fc8 e33f
000003d0: 9c8f 99e7 a777 e33f 011e ed9e b688 ed3f
000003e0: 73ed 0753 4602 e43f 5049 7c35 3718 e33f
000003f0: e30f 45f5 6b1b e63f 1eef 2349 8d1c ee3f
00000400: 005d 32fa 32dd ea3f b7ec 9588 80a4 d33f
00000410: 70ed 0b12 8577 afbf 80a1 c837 0702 eb3f
00000420: 37ca 7401 a324 e63f 96cc 24d7 1523 e73f
00000430: 7e5d 3709 74ef c53f 35ea 873a 0c79 b03f
00000440: fa0c 7ff6 ed25 da3f 49f1 a6d0 16a2 d63f
00000450: 3b77 cc78 205b e83f 61fd 0ca4 f4d9 e83f
00000460: 7f70 58c5 5f96 ce3f bd3d 62c0 f71e e43f
00000470: 456e 2987 3c0c ca3f cb46 d97f 27fc db3f
00000480: 9f56 928c bb35 d13f 8525 3d4f 7732 d33f
00000490: 2c8d e666 6901 c63f 5ff5 cbba 284f e53f
000004a0: e474 cbc6 a61c df3f 2579 3b0c 9296 e03f
000004b0: d4d4 df6b 7a1f c53f 4353 8749 12ea ca3f
000004c0: 6568 10c8 164d ea3f c3b6 2146 b37d a93f
000004d0: 612b 56ea 7def e53f 1316 5505 f2dd e53f
000004e0: 39af d654 e904 ef3f 824b fecc 31bd d03f
000004f0: 7c8f c575 95ce 5e3f f661 79fc 30d9 ec3f
00000500: 7b26 2180 9238 e83f d385 0137 7875 ca3f
00000510: be16 973e e2ea e53f 5778 1a6f 652b e73f
00000520: 276d 5c18 bef8 d73f 9860 2a6c 61a0 e03f
00000530: d8f2 dc33 3a99 bcbf 2d7b aa89 01dc e73f
00000540: d645 0f52 efef ef3f 3be6 432d 480b f33f
00000550: e6fa 473f f869 ee3f 91ee ff1d 1075 f43f
00000560: 493e 9d6a 7810 e53f ac58 cb99 43ca dc3f
00000570: 50cd d1e8 b161 e73f abe5 6b35 88b5 e33f
00000580: a61e cb2d fbea f23f ebc4 d35a 63de 933f
00000590: 2d61 c24a fc0d ef3f 152e f6a8 8546 c6bf
000005a0: 620a c75a f826 ed3f 94a4 c514 1811 e73f
000005b0: a50b 9677 da06 f33f f20c 9968 4ac6 e03f
000005c0: 72b4 1d40 61f3 db3f dd5f da66 54ec ea3f
000005d0: d0f1 8033 1726 d83f 446e b220 5cf2 e03f
000005e0: b610 0c32 467c d63f 0fdb c877 271b e53f
000005f0: abc7 01f9 8706 e53f edf2 c3d8 02c6 ce3f
00000600: f848 2996 7520 c7bf 3b49 7b2e dc3e eb3f
00000610: 457f a4dd 9ffa ee3f aa90 f64e d5bb d8bf
00000620: 1449 dd70 7f71 e03f 94e5 2ec0 fb51 f13f
00000630: 85bc b5c8 f80d d73f bf5d b48b 38fe cc3f
00000640: 03c9 25c6 6e96 ad3f 53dc c2c0 b4e7 d13f
00000650: 6e0e 3f2b 0a4f cb3f 0013 cd61 bf75 e73f
00000660: eac4 3ef5 a2ce f03f 9e3b 265f e99b ec3f
00000670: 468b 33b7 0413 e93f acc2 51e9 ab00 ed3f
00000680: 8c4a 9efc 70fa e73f 7db5 1e14 ac46 e83f
00000690: 69da 22bd 2890 ed3f a399 5803 38f1 e83f
000006a0: 1182 bcad 0bb9 d63f 995c ad35 c3d0 e23f
000006b0: 68bd cc9e f1ac 9a3f 3a42 dd75 2464 b03f
000006c0: 5641 e9c8 af0c cc3f 667e 6fde 3877 e53f
000006d0: 1f50 a73a 35f2 da3f 47e1 81e3 bfd1 e93f
000006e0: b1d2 4854 1f27 ef3f d887 80ec 8a65 d33f
000006f0: d697 fbac 9218 d23f 3ea3 cb65 3cd5 ca3f
00000700: 4e3a 859c ece3 d03f 4fe3 9667 fa03 ca3f
00000710: c298 7c19 c9e2 e63f b144 5bd1 da5e e73f
00000720: 51f7 d621 2d88 cdbf 1928 0057 db43 df3f
00000730: a9ea 4a62 2548 e93f 71ba e683 72d9 ef3f
00000740: d9a6 3a32 f193 e23f d171 9b47 3903 e43f
00000750: 13a9 2a45 5f18 d43f 6ed1 7d7b 479d ee3f
00000760: 5687 b204 00b7 cd3f 2de5 0869 3f40 e63f
00000770: 2f4a 2f35 98e2 b83f 51f3 50a9 8a9e e33f
00000780: a1f9 f8c4 584e c33f 0328 291e d9e5 cf3f
00000790: 573f 5a89 f5e7 ac3f 6009 93c0 1e78 e83f
000007a0: dc8a a937 2071 bf3f f2a7 3076 76ef dd3f
000007b0: 4730 6f49 7140 e73f e2f3 7033 387c c13f
000007c0: f224 8ccf 5efd ee3f c470 fd4b 901c d33f
000007d0: ba4a 7c44 6f14 ee3f c909 2279 2124 e43f
000007e0: d7e8 ca7b c164 e63f 8550 64f2 18b2 e33f
000007f0: 5323 3669 d950 e23f 1619 fef6 fedc d43f

L f8 [40, 40]
0.8986581502989149 0.47618303114771476 0.3683646262258551 0.5234115580919078 -0.3298236495134565 0.3730589150256278 0.3929957506017194 0.5251547374511836
0.5101604923504701 0.7241742771784128 0.5261063568017201 0.40354229048169304 -0.1895111487036649 0.5009297860060491 0.5645161068458436 0.526994628838041
0.11450785929297382 0.2799388871808129 0.41816805071540886 0.29298945673622445 0.2614488863751049 -0.013535284096998479 0.37882033163364953 0.3070824204700678
0.36712559960351004 0.6825450342725319 0.29436738404712415 0.5650886035204776 0.29703459794815623 0.16392577858209695 0.3734256931703367 0.28976724145928257
0.771179946679269 0.8876457367231924 0.27466852719177776 0.8224690143125033 0.26732365062581176 0.14409064780317213 0.18650183705504292 0.5339705759034928
-0.09943105534471898 0.4483259300044233 0.5823534662219263 0.5918276279135122 0.1420458247787827 0.3765105818589079 0.5671192631761098 0.758659661940781
0.10031127588067784 0.8644101992579567 0.7528774211883202 0.2394537927798083 0.7675131419410657 0.39317571518564765 0.7853013441296852 0.5854881651404041
0.7236250893479043 0.8978536973786716 0.739619022306031 0.044467894266106374 0.5916049491718784 0.7229481381486753 0.3559479573012999 0.6944319903499765
0.5669496763584841 0.7107026769423963 0.28516618263506716 0.2979925625906104 0.4526170024107152 0.630507645510644 -0.03114249265370891 0.2316816241492033
0.7416764671902155 0.9363488931594922 0.10123818463257302 0.6864093110828765 0.2310933869812089 0.4122162691717672 0.5090386050911694 0.05704465986415968
0.6933240127067634 1.069909419535588 0.23622925133619263 -0.09148057085911596 0.22968205557480625 0.08969383334450416 0.39463331950276137 0.5902815955248459
0.5540871813533385 0.24088096769439438 0.09135769303706434 0.6694802823847894 0.3023711881865466 0.01046999951853861 0.5914398083308223 0.5550369601276648
0.5097286881793589 0.6558172102352956 0.7150004882136752 0.122112078560871 0.1846038293547115 0.6184676374708793 0.8063682481056157 0.07406056862600617
0.1650136204320232 0.4911232688318542 0.4926738185243963 -0.10609190528754786 -0.007091476471165444 0.5863380659407609 0.8274860772166428 0.6001299590514826
0.47737030832870003 0.650417781711943 0.5516874268465175 0.5238921893193028 0.36488698352108373 0.3341842409611917 0.77803456048404 0.27684617050795335
0.22430036056405722 0.2958678997210183 0.9411037656163085 0.3195240682171383 0.48946280281682597 0.4422613183459213 0.8067574532683296 0.2539955696317463
0.26569591064009096 0.8203884978307562 0.6453041073890523 0.6800017266428352 0.8687814464773965 0.8787179049515327 0.671418962440907 0.2378255224427258
0.5196997958644312 0.9062333093519768 0.2811167068363895 0.797015144485028 0.6915612773095916 0.3973887463960862 0.21814454155143406 0.2670949209117744
0.22948384203301236 0.4497950817884319 0.45023021385346296 -0.016722223379161818 0.8280852262152598 0.7768858088093648 0.5069990624267012 0.07402775676875835
0.0760052487349359 0.1864454956724368 0.7460175542082987 0.5389104522494194 0.4095455636273051 0.5071730101012627 0.05262317134912869 0.5468671363993319
0.939165072616183 0.8523453995543341 0.6790021876536386 0.3862773339745049 0.7846622730416634 1.358914566131733 0.9640390907188774 0.2519754870255284
0.45231186049166183 0.7645181601033044 0.021438458091782797 0.6179897032829238 0.35207017824974496 1.2174511653438098 0.8525059181943511 0.46978900004164426
0.9077203996802183 -0.0003194155898484016 0.2502971297359398 0.07955764534256551 0.4405954790824247 0.6833746991549071 0.6431015470397962 0.49473456188485626
0.5668310500843702 1.0038310693006867 0.12052397981971537 0.4701824009552159 0.32083016849117707 0.4908615438080708 0.7963594823793766 0.6528943549094077
0.29921015930757255 0.46037321627020006 0.2531224284578532 0.5546108714732517 0.6795608207906926 -0.2309720518666951 0.07977313116217347 0.12781619069126884
0.02503283878625597 0.3660343240522582 0.460390438588394 0.03361403691186814 0.09400822494155364 0.6651197068385147 0.15041449101692153 0.5987412359997824
0.3605299283480097 0.8400670622761464 0.07789849071778536 0.5816563133033704 0.22004466402419015 -0.08446203315376405 0.407546054609384 0.39058898040475937
0.47541364133521774 1.0750841514543434 0.9452340907958366 0.5247019690357753 0.36589877062011816 0.14924510737167743 0.44188772768137125 0.49979719561985037
0.6578072474092541 0.6505195201025836 0.5236666098777011 0.5528803123457777 0.5035296541898302 -0.10227330433402805 0.9061078925896642 -0.028033075640252206
0.7712281532202507 0.9737636809398407 0.31690121926191295 0.7359463890719121 0.08428807826366624 0.6102151915632605 0.11434934318093454 0.8044979900377306
0.8143230699221301 0.14425573823676646 1.0063867553252517 0.8831415992833567 0.16905913229037425 1.1606769404539354 0.2938140373838273 0.36054789258641773
0.8635119419396264 0.5732593550908947 0.5506454656506444 0.2764419079186608 0.7318643233734231 0.800079009317608 0.9964122048368487 0.06874288487611138
00000000: 892a babc cec1 ec3f 2622 6c64 c879 de3f
00000010: 042c a939 4993 d73f fd4c 8b98 c9bf e03f
00000020: efe3 06a7 d41b d5bf 4c0b e17f 32e0 d73f
00000030: 6f49 13a6 d726 d93f 5227 d64e 11ce e03f
00000040: ac68 cb18 3c53 e03f 3cbe a288 6f2c e73f
00000050: 88cb 95ff dcd5 e03f d5fe 0a0b a3d3 d93f
00000060: df6e f4bc e641 c8bf d29f 0fe7 9d07 e03f
00000070: 01fb 1e15 8410 e23f 8ddd 00d7 23dd e03f
00000080: e15c cc16 6350 bd3f 917e 54cb 84ea d13f
00000090: 0881 83ed 43c3 da3f 2250 b0d9 56c0 d23f
000000a0: e6a0 231c 94bb d03f 1336 4f14 63b8 8bbf
000000b0: 1f4a dba1 973e d83f 0d1c 4606 3da7 d33f
000000c0: e792 f45e fc7e d73f 5aed 07af 68d7 e53f
000000d0: 4074 df4b ead6 d23f f2ce eeb1 3415 e23f
000000e0: 16f1 fd66 9d02 d33f f29f fd18 85fb c43f
000000f0: 46c6 e9e0 34e6 d73f a643 61e6 8b8b d23f
00000100: 0631 4a91 81ad e83f 351e 3508 9867 ec3f
00000110: f5dd 614d 2b94 d13f 0242 ce89 aa51 ea3f
00000120: faa6 38a8 d41b d13f 9bae fcf5 8f71 c23f
00000130: 62cd 65cd 4adf c73f 6704 1176 4916 e13f
00000140: b98e e94a 5074 b9bf 8f56 d43d 5fb1 dc3f
00000150: 5055 84bc a3a2 e23f d43f 587e 40f0 e23f
00000160: e4a6 fabd 8e2e c23f e9a4 ebd6 bf18 d83f
00000170: 7dbc 084c d725 e23f f08f 9aa0 f046 e83f
00000180: fcd9 53f1 ffad b93f 5c89 0494 3fa9 eb3f
00000190: 26d2 bc63 9217 e83f 653b 7200 6ca6 ce3f
000001a0: fc62 7cb8 778f e83f ec70 9379 ca29 d93f
000001b0: c056 d148 3021 e93f 7f23 2fad 51bc e23f
000001c0: f70e aacd ef27 e73f bfb0 5aad 37bb ec3f
000001d0: 88b9 0983 f5aa e73f 6998 30ef 7ec4 a63f
000001e0: ea09 9b80 6dee e23f 50af 4122 6422 e73f
000001f0: 3ef9 ebf0 d9c7 d63f c42d fb6f c938 e63f
00000200: c9ff cda5 7324 e23f 3cb6 548a 13be e63f
00000210: 0df0 15a9 2940 d23f 31c9 b165 4f12 d33f
00000220: bfec bd4d adf7 dc3f e213 ab5e 1e2d e43f
00000230: f7b9 da4d d1e3 9fbf fa09 6753 bea7 cd3f
00000240: f16e 5949 d0bb e73f 9381 38f4 91f6 ed3f
00000250: 9572 1ae4 beea b93f c3aa d8a8 10f7 e53f
00000260: 32fd b3d5 7794 cd3f 2b33 be58 c061 da3f
00000270: b793 2854 0b4a e03f 4757 0e29 f534 ad3f
00000280: d96c 03d7 b52f e63f 3267 e956 591e f13f
00000290: 437b 6c96 c23c ce3f 2e2f 0f4c 456b b7bf
000002a0: 18ff 95ba 3866 cd3f c515 ded0 2cf6 b63f
000002b0: 2848 4b1c ac41 d93f 9cb7 863a 96e3 e23f
000002c0: ff73 610a 15bb e13f f8f5 3c03 30d5 ce3f
000002d0: f20a d5bf 3763 b73f c01a c5e9 616c e53f
000002e0: 66e3 20af 0c5a d33f e189 2b8c 4b71 853f
000002f0: 22ab 4a2d 13ed e23f f839 fade dcc2 e13f
00000300: c906 b289 b24f e03f 67aa c35f 74fc e43f
00000310: 7d0e 30b4 48e1 e63f f692 ddb7 bc42 bf3f
00000320: abbd e528 19a1 c73f 464c 92a4 7cca e33f
00000330: 95af c4c8 c4cd e93f 07ff 2b28 a2f5 b23f
00000340: 6136 9393 2a1f c53f dafe 7b4a 906e df3f
00000350: 1a18 8ac4 f787 df3f a891 94cf d628 bbbf
00000360: 5557 62b8 f30b 7dbf d8b1 330c 48c3 e23f
00000370: 544e f114 c47a ea3f e03a 6fbe 4334 e33f
00000380: e19a 9631 3c8d de3f b611 a6f3 38d0 e43f
00000390: 2872 fd63 6ca7 e13f 2b33 788d b9c3 e03f
000003a0: a462 3def 4e5a d73f ec14 714c 4663 d53f
000003b0: 54f9 0dbc a8e5 e83f 1eb0 1600 d9b7 d13f
000003c0: e043 8dcc dfb5 cc3f 153b 4fea 7fef d23f
000003d0: 23dd eea4 851d ee3f 44c2 d113 1573 d43f
000003e0: a03b adca 5b53 df3f 8e38 a56a 024e dc3f
000003f0: 67ef b201 f5d0 e93f 666c 39a2 7641 d03f
00000400: 0954 b86b 2901 d13f 4553 0661 9f40 ea3f
00000410: 05bc a6cc 54a6 e43f bdf1 24fb 92c2 e53f
00000420: 67be 7fbf 0ecd eb3f a3a5 0503 751e ec3f
00000430: 6422 b39e 437c e53f ecd6 8514 1171 ce3f
00000440: 2e38 5f77 61a1 e03f 8ccd 46ff dcff ec3f
00000450: 432d 8eed d0fd d13f 6c5b 7fe7 2581 e93f
00000460: 9a30 a71d 4521 e63f c974 6435 d16e d93f
00000470: 51d5 e10b 29ec cb3f 0d9a 8f4b 1518 d13f
00000480: 0201 3ffe b95f cd3f 9fb5 8b4f 71c9 dc3f
00000490: 4afd 0a63 92d0 dc3f d79f 1e6a a11f 91bf
000004a0: 52a6 9c96 ac7f ea3f e301 b2a0 3fdc e83f
000004b0: 0536 0719 5639 e03f 5d6c 51aa 7bf3 b23f
000004c0: b311 a479 1475 b33f ee26 332d 72dd c73f
000004d0: 2e21 b234 60df e73f 4d48 fc21 c13e e13f
000004e0: 0c13 8098 fe35 da3f c78f 79e4 c23a e03f
000004f0: b7a1 e99f 6cf1 aa3f 23f4 4282 ef7f e13f
00000500: b5d2 0de9 a30d ee3f df6b ffdb 6946 eb3f
00000510: 8d50 bccb 62ba e53f 04d2 2691 c4b8 d83f
00000520: 93ce 230e f41b e93f 4c80 3933 1dbe f53f
00000530: 4080 d681 68d9 ee3f b4c5 0acb 5d20 d03f
00000540: 00e5 1972 adf2 dc3f e6ef dac9 ee76 e83f
00000550: c003 8691 f6f3 953f 46ad 9b57 92c6 e33f
00000560: deb0 5e5b 5188 d63f 5e0f ba12 ae7a f33f
00000570: 6c51 c97d ba47 eb3f 0cc3 cce1 0511 de3f
00000580: 1a3c d1a6 0b0c ed3f 6b99 2183 e7ee 34bf
00000590: ede7 9f40 de04 d03f 42a1 e4cc e35d b43f
000005a0: 742a 5b61 b732 dc3f e117 f99d 34de e53f
000005b0: af5f 11b2 4994 e43f 21c4 df26 bba9 df3f
000005c0: d907 cfde 7a23 e23f bbae d52a b10f f03f
000005d0: f59d b5d7 a8da be3f 6e79 d0ec 7717 de3f
000005e0: 7a58 4f42 7b88 d43f 5843 6189 466a df3f
000005f0: a3b9 95e1 c67b e93f 8a86 c2b3 82e4 e43f
00000600: aad8 365e 4226 d33f 176e f538 c176 dd3f
00000610: bb13 076a 2833 d03f 457a 5f4c 5fbf e13f
00000620: cf0b 9e55 f6be e53f 375b 8700 7e90 cdbf
00000630: e2e8 700d 036c b43f d58a 75eb 475c c03f
00000640: 05ec a65f 35a2 993f 8625 c13a 1b6d d73f
00000650: 3a35 4875 0977 dd3f 6f2e 72ea db35 a13f
00000660: ecd1 ad4b ec10 b83f 297d 991f a948 e53f
00000670: 958e e133 c840 c33f 8457 6c61 e328 e33f
00000680: a0f8 de1e ec12 d73f f087 dd51 d4e1 ea3f
00000690: e367 0ace 27f1 b33f 07cc 64b3 ed9c e23f
000006a0: 8654 d26d 6c2a cc3f 642a 26c6 4d9f b5bf
000006b0: 0650 0a0c 3c15 da3f 210d 41ec 68ff d83f
000006c0: a5d9 6656 2d6d de3f eb1b 6f70 8b33 f13f
000006d0: 8709 6190 5b3f ee3f 86f9 a4c8 5bca e03f
000006e0: db70 5dad e26a d73f 21eb 9fb3 761a c33f
000006f0: ab4b b976 e347 dc3f 2477 7460 adfc df3f
00000700: 9139 d6c8 c10c e53f bb01 0850 0ed1 e43f
00000710: 43d2 6d7a e0c1 e03f 8013 840d 32b1 e13f
00000720: e4f7 a938 ea1c e03f 6156 5e51 952e babf
00000730: 2a3e aafa d5fe ec3f 3120 53dc b3b4 9cbf
00000740: 0abc faa9 e6ad e83f 0a6a 7573 1229 ef3f
00000750: 5cb7 320d 1c48 d43f 7b8a 1571 df8c e73f
00000760: 68cb 954b e793 b53f a82b 6902 e286 e33f
00000770: 5cfc 47a1 ff45 bd3f f91c 9d91 72be e93f
00000780: 2f34 3641 ef0e ea3f 2a5e fed6 f876 c23f
00000790: fefd 93ff 281a f03f ca17 d52b b242 ec3f
000007a0: 677e 23ca baa3 c53f 2f89 c7fb 2192 f23f
000007b0: 26d5 6a64 d9cd d23f 8239 d377 3713 d73f
000007c0: b6c1 cacb e3a1 eb3f e8b9 c700 2458 e23f
000007d0: 6f20 553d e39e e13f 9749 7066 39b1 d13f
000007e0: c9ef bfba 6e6b e73f ce86 674b 3f9a e93f
000007f0: 2c81 23d9 9be2 ef3f c226 603a 2299 b13f

weight f8 [50, 4]
0.08349708839081106 0.032929630695586284 0.20228308991351648 -0.1375489989328667 0.019978751875063535 -0.13837846542718252 0.5912988517284138 0.5199941811692369
-0.2233710203622855 -0.10285225782543372 0.26874433029822864 0.3312988832056612 0.23415694799248896 -0.14863108751655582 -0.25413231877510695 0.1455426393691078
-0.1348916291842199 -0.2084658850341404 0.4042463000949034 -0.28362213954729243 -0.49316912353190884 0.10734096657040952 0.2407748221906666 0.41130193473472126
-0.5287912691213833 0.17420251993352867 0.39263230823724443 -0.2509157007328308 0.02708653035029505 0.38499459492910143 -0.2958139702663832 0.15599111243529803
-0.10911950647724236 -0.17209476136074822 -0.2520324924103709 -0.3955950145719263 -0.46579684906720825 0.08360125319578977 -0.48249325529695136 0.3172985844927646
-0.17087097145474725 -0.003904601021753829 -0.24225340545353508 0.0390603751990786 0.2688326537417082 -0.452844409949463 0.06084493146934488 -0.12473381793155268
-0.003528738339258044 -0.13491967572789504 -0.02147806865632698 -0.10909104800972425 -0.522539571178275 -0.054992282148457874 -0.3126505929041241 0.26653473328561406
0.35675504646801043 -0.09632461901617749 0.037779559570859204 -0.02596259862737804 0.35045557484509615 -0.2608104437840312 -0.014435433772759519 -0.15470663724858572
-0.45521541623533157 -0.3493862328306344 -0.4094683205743881 -0.31864622336651494 0.15994539316159254 0.2967529599568271 -0.3136994135410216 -0.21080696943478222
0.4102915461066021 0.1777031365937989 -0.37808372056850625 -0.020638827106433694 -0.4180650631478327 -0.3558230665424715 0.2164090023920511 0.2527339652754106
-0.4295895639368659 0.21140336469025517 -0.12980032219080437 0.4494474153605836 -0.39220534920725203 -0.37323568209769414 -0.3457414775409259 -0.2498669934090542
0.32427765679549264 -0.27413499899320043 -0.29415576489703826 -0.2907707958980385 0.48088879076074614 0.31952500774393433 -0.2631597861878 -0.026546552401146083
0.4517740897295342 -0.443570297141161 -0.33758960641173535 0.49715533614666413 0.30005244111073315 0.025047636445156708 0.4477008882065409 0.20558177019437152
-0.4817233349473508 -0.16439252573829868 -0.04372585652471355 0.2742579735436438 0.253591155453495 0.5633340089916746 0.35400046286173464 0.2658823662741832
0.3102273243518515 0.5029584097754168 0.2495781322164876 0.0632518408989003 0.08023471302932138 0.36990641466035995 -0.26495515630562344 0.20952756678641923
-0.3099989215561529 0.0001259465355096934 -0.30235452169435306 0.0038271502258902263 -0.3510037023616797 0.5035883808213895 -0.22152727999185148 -0.2518667725745219
-0.4567097450966954 0.31399254017106887 -0.014132345289561386 -0.11999601681413989 0.35755910614482633 -0.031767666878788986 -0.36325911776086556 0.7733737876659609
-0.4255905519746341 -0.17615473619412458 -0.3585160366567051 -0.3714941506668981 -0.22732967430127593 0.22465992697848755 -0.060740494008408176 -0.1404657730208646
-0.3712160351140934 0.0857622271565148 0.0009106618320870761 -0.3596484290185058 -0.03718228726149833 0.9692613810554721 -0.21368549300555736 0.6004512403760931
-0.7728784692240795 -0.2104431716624682 0.4045586558870978 0.7940780285685528 -0.12574998568989137 0.21059619954123268 -0.14840472023601106 0.33271576260743635
-0.03257162476122707 -0.28897116529903855 -0.3169894379988411 0.16699608002940622 -0.3355122180429748 0.01647132563243425 -0.025561581366299747 0.02928810617355096
-0.232075211344352 0.36253419008215876 0.3971206017935676 -0.4667056550690339 0.185751993821996 -0.11041272886395691 0.4448636805304584 -0.15711274997830868
-0.2673969996747641 -0.006191493681951822 0.07656643844661326 -0.4114244892610258 -0.17291727086173342 0.29504245300156007 -0.13385973081403563 -0.43622673417159497
0.14202730510811398 -0.12613314332006584 -0.4675257131256855 0.48447659546123617 0.06552402121221679 -0.4966964723944848 0.2094512428501144 -0.2703222445388588
0.2094801927976195 0.21522863173820794 0.316105050433584 -0.05510624606502439 0.040949864152375906 0.37065110509507804 0.03421684985783363 0.4518597496694973
00000000: 2123 f3af 1060 b53f 4e55 d00d 27dc a03f
00000010: 4b2f db8b 69e4 c93f 5ad1 01a2 349b c1bf
00000020: ef55 ac57 4f75 943f 427e bdb3 62b6 c1bf
00000030: 9dbf ca91 ebeb e23f f36d 47d6 caa3 e03f
00000040: e442 aaed 6b97 ccbf 5814 ae8b 8654 babf
00000050: b071 676b 1b33 d13f f574 243b 0034 d53f
00000060: 0f24 e1d8 daf8 cd3f 03b9 06ee 5706 c3bf
00000070: 0fba 7f33 b443 d0bf 83c5 2126 24a1 c23f
00000080: 5fd9 ecff 2044 c1bf 7bd3 4697 02af cabf
00000090: 73f1 9bdf 2bdf d93f 24bd 7179 dd26 d2bf
000000a0: abdb 3d3a 1590 dfbf 53e1 f094 b27a bb3f
000000b0: 1c2b 8199 b5d1 ce3f dbe5 9d59 c552 da3f
000000c0: 732c e9aa dbeb e0bf c965 ffa6 444c c63f
000000d0: 5fd8 ce42 e320 d93f dfd3 2cba 000f d0bf
000000e0: 1b07 1148 92bc 9b3f 51dd 965e c0a3 d83f
000000f0: 399e ffb7 9dee d2bf 6b29 304b 84f7 c33f
00000100: 12e8 ac87 41ef bbbf 41bd ed7d 3307 c6bf
00000110: 6fa4 1be4 4c21 d0bf 2503 83c0 6d51 d9bf
00000120: 59b4 5496 9dcf ddbf 956a 6148 e466 b53f
00000130: 7f9f 0264 2be1 debf 42aa ddb8 9e4e d43f
00000140: 13f0 1d99 19df c5bf 01d2 27b6 8afc 6fbf
00000150: 723f e2da 2802 cfbf 455c 19b4 b8ff a33f
00000160: cbb8 fadf 8d34 d13f f732 ba1e 67fb dcbf
00000170: 9f8e 931d 1127 af3f ffa2 b834 8eee bfbf
00000180: 0595 6cf8 4ce8 6cbf 424b 6b45 0c45 c1bf
00000190: 0736 d7c9 58fe 95bf 30f6 7c13 64ed bbbf
000001a0: 2473 22e8 a4b8 e0bf 0256 b8ca f227 acbf
000001b0: 4849 e6a1 7702 d4bf 486d adb2 e70e d13f
000001c0: 0fd6 501e 13d5 d63f 5f61 79f0 baa8 b8bf
000001d0: dfd4 a0a9 d757 a33f 5f55 1880 f095 9abf
000001e0: c046 2a38 dd6d d63f 827d a049 1eb1 d0bf
000001f0: 9f1d a91f 5390 8dbf c978 ba55 6dcd c3bf
00000200: e268 57d7 3f22 ddbf aa88 eb12 585c d6bf
00000210: d45c 679d ba34 dabf 1299 1621 b364 d4bf
00000220: fd2f 6334 1779 c43f 895e 8020 00fe d23f
00000230: 60b7 7bb4 a613 d4bf a6e1 be07 b9fb cabf
00000240: b899 1679 3742 da3f 0993 08f4 f9be c63f
00000250: 9e78 bf0f 8632 d8bf b8ba cc3d 5822 95bf
00000260: c97c 74f7 93c1 dabf 1797 7d1c cec5 d6bf
00000270: 71bb ea49 4ab3 cb3f fc8f dc14 cb2c d03f
00000280: 8df3 f339 657e dbbf f2f3 cdf4 430f cb3f
00000290: 27ee 6805 4c9d c0bf 33b5 8f17 bfc3 dc3f
000002a0: 7e54 0a77 e419 d9bf 91d4 13ea 17e3 d7bf
000002b0: fa2c badc a020 d6bf 9557 8542 a4fb cfbf
000002c0: 59a6 b012 f7c0 d43f b358 d785 6d8b d1bf
000002d0: c368 8ab3 72d3 d2bf d3e4 c01c fd9b d2bf
000002e0: 2325 55c7 e1c6 de3f 06eb a004 1973 d43f
000002f0: 0e22 d324 9cd7 d0bf 36b3 89f9 042f 9bbf
00000300: 9d62 24df dde9 dc3f c3b0 ecab 7463 dcbf
00000310: af81 c06f 119b d5bf 2909 729d 64d1 df3f
00000320: c6f4 6927 0f34 d33f da05 7f6d 16a6 993f
00000330: 072f 4fa0 21a7 dc3f 14be d1e1 8050 ca3f
00000340: 4769 541c 8ed4 debf c55c e074 d00a c5bf
00000350: 77c6 8647 3c63 a6bf 3661 c250 718d d13f
00000360: 3691 ce65 d63a d03f 8300 2b0b d506 e23f
00000370: 0da4 b08e f1a7 d63f f5c3 ee78 3704 d13f
00000380: a2ac 1ab5 c3da d33f 8179 273c 3c18 e03f
00000390: 7052 d51d 2df2 cf3f 1594 12cc 4531 b03f
000003a0: 6702 771c 438a b43f c5ff 62f4 8bac d73f
000003b0: 654f cf78 06f5 d0bf e3a3 7a9f ccd1 ca3f
000003c0: a740 78b7 05d7 d3bf edc1 8a80 1082 203f
000003d0: e465 9ec7 c659 d3bf 4494 d3a1 1d5a 6f3f
000003e0: f5c5 9a3b d876 d6bf 32c0 4861 651d e03f
000003f0: af50 5e83 015b ccbf 6906 cacf 951e d0bf
00000400: 7e1b bd82 bb3a ddbf d540 ce2a 7418 d43f
00000410: ecf1 ac46 6bf1 8cbf 83f3 dd17 0fb8 bebf
00000420: 7edb d196 3fe2 d63f 0416 a104 da43 a0bf
00000430: 456e b02b a33f d7bf 857c b362 7abf e83f
00000440: d7ed 8d27 e03c dbbf 7ca0 7e07 3d8c c6bf
00000450: b10d 223f edf1 d6bf 8541 f166 8fc6 d7bf
00000460: 5464 4486 2319 cdbf bb13 8c0f a8c1 cc3f
00000470: dd34 9ec6 6019 afbf 147e aa4e c8fa c1bf
00000480: 6036 a4e6 00c2 d7bf fe8d de68 83f4 b53f
00000490: 1dff ac64 2fd7 4d3f fc4d 2cd8 7a04 d7bf
000004a0: 54a6 8e87 8e09 a3bf e916 9d71 3004 ef3f
000004b0: 2754 0bd6 0b5a cbbf 2a41 0885 e536 e33f
000004c0: e832 a3a0 6bbb e8bf e978 fa45 cdef cabf
000004d0: c952 16fd 49e4 d93f 2192 6553 1669 e93f
000004e0: c059 0156 9318 c0bf 9182 d8f6 d0f4 ca3f
000004f0: 512b fe05 edfe c2bf 13cf d00d 374b d53f
00000500: 3b0d 415e 3aad a0bf 8091 1cea 807e d2bf
00000510: ef79 5811 8e49 d4bf fbab 24a7 2060 c53f
00000520: b8ca f93c 0879 d5bf 3ffc a6f3 dbdd 903f
00000530: 0a5b 02b0 d02c 9abf e86d b588 b3fd 9d3f
00000540: 06d8 77f9 a3b4 cdbf 0b6c 859a c233 d73f
00000550: 895b 5187 6c6a d93f f14d 5865 81de ddbf
00000560: 1fee 50a9 b8c6 c73f 3f66 8833 0244 bcbf
00000570: df9d c383 a578 dc3f c781 7845 451c c4bf
00000580: 61b4 294e 081d d1bf 01b9 096e 405c 79bf
00000590: 5872 19ad db99 b33f 3293 8961 c754 dabf
000005a0: 4ee2 a133 2722 c6bf 3cb1 a4bd f9e1 d23f
000005b0: ae7f 0ccf 5022 c1bf ce1a 3a89 23eb dbbf
000005c0: cf07 4a63 f32d c23f af2c c07e 2125 c0bf
000005d0: 4b7d faf7 f0eb ddbf 57bd 4b1f aa01 df3f
000005e0: 4079 35a8 2ec6 b03f a643 3e00 e0c9 dfbf
000005f0: f4ea 125f 4ccf ca3f e23e ebab f54c d1bf
00000600: d7de 9c38 3fd0 ca3f 383d 3d9f 9c8c cb3f
00000610: 739c 6dad 103b d43f d728 4fc9 e236 acbf
00000620: 12c5 9e6e 61f7 a43f 0004 a769 bfb8 d73f
00000630: 781b 39f6 de84 a13f 2764 cd27 45eb dc3f

bias f8 [50]
0.2721243704315747 -0.07262953929372347 -0.008850376048454364 -0.48981618126704984 0.33733092844726376 0.34328512641015196 -0.2449791344606103 0.4187329314281526
-0.15909000598491152 0.4105363474198951 0.4772299496946313 -0.4106658997712779 0.30965935735511835 0.2288804799482104 -0.05337555320447007 0.22428115053670875
-0.3671307450372636 -0.0815493606356578 -0.0905797430495072 0.5093181207209192 0.12955125409876872 0.48737200594880076 -0.21945303504687874 -0.0528594719681505
-0.21645938777164964 0.45863493421548107 0.3707357856463721 0.4596115624473638 -0.012644803197935072 -0.4314675489984906 0.15331648465541242 0.10082707855673587
-4.388348545279106e-06 0.17997949597516852 -0.2074047928074713 0.23343228097472501 0.031220702699341633 -0.8135597260460071 -0.5419056109039532 0.12886694292599818
-0.023075574340895685 0.28723110417154574 -0.19717780443327154 -0.46920463666305534 -0.05008890271535289 0.250949891798559 -0.37418727128661233 0.3873329829407501
0.028857571967268902 0.42312616683593157
00000000: 5baf dc55 7c6a d13f 7d76 fd77 d997 b2bf
00000010: ebb9 7b5d 2520 82bf 54fd e5f7 2559 dfbf
00000020: 620f 6776 d496 d53f 08a1 c82d 62f8 d53f
00000030: 79f8 5aed 795b cfbf fe7e 8f35 85cc da3f
00000040: 8cae 69b2 0f5d c4bf 3037 7f3e 3a46 da3f
00000050: f80c a77c ef8a de3f 4267 46a0 5948 dabf
00000060: 2966 2f7b 75d1 d33f 2501 09a0 f44b cd3f
00000070: 3095 d65e 0a54 abbf 9d0b 55a7 3eb5 cc3f
00000080: 64a2 d2f3 117f d7bf ab9a f03c 6be0 b4bf
00000090: 3ee5 13ea 3b30 b7bf 7a35 f883 554c e03f
000000a0: 9a47 c1af 2295 c03f 194e a25a 1a31 df3f
000000b0: 7c63 447c 0917 ccbf 7929 c68e 6510 abbf
000000c0: f819 b2f3 f0b4 cbbf f28c d056 465a dd3f
000000d0: d6b6 b396 22ba d73f fcca 649d 466a dd3f
000000e0: d38c 98c1 84e5 89bf 7ef6 0e11 2a9d dbbf
000000f0: ee2e c4e3 df9f c33f b6d0 f3ac cdcf b93f
00000100: d229 2510 f467 d2be 15fb 9470 9109 c73f
00000110: b524 1281 3d8c cabf 04fe 4ee6 1be1 cd3f
00000120: 010e 35e4 51f8 9f3f f1ba 1668 ae08 eabf
00000130: 813e 8b6f 4a57 e1bf 638a b344 b67e c03f
00000140: 7fb2 8594 1fa1 97bf 76e3 b391 fe61 d23f
00000150: b2dc c44e 1f3d c9bf 545c 66e2 7207 debf
00000160: 8a24 1cae 40a5 a9bf 4269 8d22 900f d03f
00000170: c859 302b aff2 d7bf 2321 9947 10ca d83f
00000180: 6094 5ddf d68c 9d3f 3f19 29c6 7f14 db3f

weight f8 [50, 50]
0.09173567926714381 0.1584460219050887 -0.021384666781750515 -0.0329781748398088 -0.10403497479181491 -0.11792607749674221 0.037971759770725956 0.12307277715133888
0.024383561476324804 0.1414563311145662 0.13189872915814552 -0.05996177536225743 -0.10269269469492778 -0.04219427287336915 0.030669056239598366 0.12808426468985926
-0.1373622710986804 -0.1278258943790842 0.18951001549561225 -0.09068282096659898 -0.06270125912467353 -0.15426714132174882 0.06729637069211156 0.0251293391621989
0.13567748706821903 0.031110178102582712 0.03159283139112243 0.16011280703192937 0.09814294655486021 0.026145361598958725 0.08254072236393024 0.06512342495787676
0.08365735799612983 0.41940626883123083 -0.11406213605731289 -0.07399149832770802 0.03411510961293427 0.10975541470945738 0.15300015217310023 0.11256677885756261
-0.029002926591546088 0.0030661112462515945 0.11622389923971747 -0.07494601561894763 0.07947921304475433 0.07605441224856015 -0.04934113540209581 -0.0502169088338468
0.1255455578171581 0.1050407424183012 -0.0757620496638252 0.10574924836402558 -0.08999870411140627 -0.004067860960893179 -0.12044223768743106 0.11012185739155825
-0.03074792405201368 -0.06610330532795693 0.12448929987209624 0.01060213853848358 -0.03236216344215438 -0.05273475764425606 0.05409353865387416 0.0867576306547494
0.011605497038322903 -0.12496953127161875 -0.008348123471871837 0.0859202781932434 0.040227376030285075 0.023435559841619102 -0.044433070669523636 -0.12390344165776716
-0.11420749999707895 0.027287531922273737 0.08234706968036862 -0.10629356105648007 -0.11876974880793047 -0.12688257543814918 -0.02134005161067636 0.07190861248500882
-0.07475763028710476 -0.06878358376043896 -0.12155173365186478 0.10355554145142672 0.08253924266471468 0.1308160203910952 -0.05040667718355027 -0.0472167448359867
0.09190464183592334 0.014080583875485348 -0.10098416432985322 -0.12574713874454801 -0.09276616234859336 0.10264245024116012 -0.11107234759180319 0.11195023078401937
0.008047773190883305 0.12094077905306737 0.11587343068927612 0.04572747957666852 0.045566274803342986 -0.008545376164642363 -0.021581663761620042 -0.008454784325668051
0.08341063237501875 -0.0709775839044584 0.09474686504781521 0.191232636439883 -0.09449169890436399 -0.021192207296923223 0.14627651485904203 0.015249371352203951
-0.058576749672816494 0.029957650692911147 0.029856430125679605 0.0011252305924521482 -0.07568385698178721 0.059045026462259946 -0.1817122229632439 0.07515862777540705
0.03318626073369702 -0.004481545741700067 -0.03749155342502251 0.11682389123496156 0.030581139098677396 -0.013866307533803773 -0.024362671639930125 0.15172767537760984
0.17917346753706767 -0.08573913117668389 0.10572522761755367 -0.11463089266924062 -0.08609246665769872 0.14808540331530204 -0.1018895629474051 -0.053937940624543886
0.05513206324355466 -0.1692671988236555 0.24805700165501274 0.15986673444779131 0.006757041086972818 0.1259250463000858 0.015611808842472577 0.06979949573871733
-0.058804445452663494 0.05071783640871972 -0.002159198074289316 -0.2865196554872713 0.005436749701787079 0.18137355742068584 -0.043452064759213975 0.00941955847612629
-1.5733876809996783 -0.053110936149219336 -0.033889589088717975 0.043752540796673116 0.041269913983936285 0.08475109714811083 0.031877477119454545 0.06534682592686944
-0.09043363909687553 0.033690875944166684 0.08582792655174029 -0.04350436798552124 0.07899840519105644 -0.22157485527421472 0.020278112965990136 -0.07208003117770409
0.03267642824224931 -0.04138044787970839 0.1460665274876236 0.12111834876838264 0.11142870476509874 0.08329260591597079 -0.005654249519064562 -0.022225018391722497
-0.12155696921146864 -0.08454145427115219 0.09096142013863395 -0.058752012821039507 -0.08426431213129189 0.09399613778877687 -0.028039407785272308 0.08806293759938581
0.06916061260056457 -0.14393517912937323 -0.09235973103277444 -0.18723452753488398 0.1271104952749636 -0.032644281294136754 -0.017578706101735744 0.023241589097084004
-0.2708991350424376 -0.08888479077651891 0.07293458851657918 0.10484400700640878 0.027091463450794 -0.005266838877891695 0.1865677962837298 -0.05071581789938509
-0.12676999815586842 -0.13401367034605777 0.027183852244454545 -0.053751019856855126 -0.10601515647391864 -0.072739126821362 -0.10900313644664242 0.02557334055588459
0.06344764059529091 0.0698752622108772 -0.07681674806062226 0.1205021838971999 -0.1133861532546594 0.045406769690556716 -0.022483675734813267 0.06570139122994874
-0.04361056470294455 -0.05976696503579234 -0.0340028562172151 -0.05512391558736377 0.056941104134612626 -0.014013476935565742 0.014671551743145205 -0.06440185670483675
-0.0574563327694849 -0.07457177814956713 -0.13708738633763032 -0.10032389936694128 0.07615168657153099 -0.1293330454515182 0.018059818028890427 0.0013803577355526713
0.060957649681684184 -0.03909438807073151 -0.06309442470019672 -0.08026443984133463 0.10109639649648217 -0.11733903274295766 0.0592054540011343 -0.010956894523120918
0.06567237623635007 -0.005507151773962484 0.0007696230404249478 -0.017570873342225114 0.05105615158780931 0.03243864734402959 0.006724708647864322 -0.04920986407109461
-0.06839912221685271 0.06058478244550992 -0.09867039703429177 -0.13502412459204877 -0.07573176780418725 0.13846067422662015 -0.023903522980104935 -0.026397025431502158
00000000: 8327 544e fd7b b73f 77bf 2191 f547 c43f
00000010: 7699 dab1 dce5 95bf 3f66 d6ec 83e2 a0bf
00000020: c9fb 5e3e 09a2 babf 87ae 3146 6730 bebf
00000030: 6d0f c6d4 0871 a33f de94 e490 b281 bf3f
00000040: 7e3d 671c 01f8 983f af7f f9b5 3d1b c23f
00000050: 1121 0fbc 0ee2 c03f fec9 6150 4fb3 aebf
00000060: 4eb9 4085 114a babf 4ba5 23dc 7c9a a5bf
00000070: ff6a 3186 b567 9f3f d1d1 fcaf 1065 c03f
00000080: f15b 093f 1695 c1bf c055 f851 995c c0bf
00000090: c2b7 683b dd41 c83f 094e 5c46 fd36 b7bf
000000a0: 4ac6 5b91 300d b0bf 5d83 6993 06bf c3bf
000000b0: c619 43bf 553a b13f 72a8 7c67 81bb 993f
000000c0: a477 e140 e15d c13f 51e3 17b6 58db 9f3f
000000d0: bccf 3983 ef2c a03f 0abb ef92 937e c43f
000000e0: 6f44 c969 e51f b93f 59da 0984 d9c5 9a3f
000000f0: fd2b 2487 6321 b53f 84c8 65c4 edab b03f
00000100: a8c3 a990 916a b53f 7585 1764 8dd7 da3f
00000110: d2fb 1318 2d33 bdbf 28e2 7f59 1bf1 b2bf
00000120: 4d8c 2c20 8977 a13f e86c bc4c ee18 bc3f
00000130: 1be9 ee4c 8295 c33f 002e cf29 2dd1 bc3f
00000140: 34c1 cb74 f1b2 9dbf 56de e9f0 191e 693f
00000150: 1b89 3f76 d9c0 bd3f bf83 0c7e a92f b3bf
00000160: 7e31 bdec bf58 b43f 19f6 524d 4d78 b33f
00000170: 7c8c ccc5 3d43 a9bf 5490 4bda 07b6 a9bf
00000180: 72cb 7d78 e011 c03f 5925 6f39 f3e3 ba3f
00000190: c384 9545 2465 b3bf 7ad1 4cfb 6112 bb3f
000001a0: 4d43 d7b2 270a b7bf 82d9 aa1c 76a9 70bf
000001b0: f4b0 ec6f 4dd5 bebf 0a4f 1230 f230 bc3f
000001c0: 48a6 e440 627c 9fbf 0f84 8a6e 25ec b0bf
000001d0: 2910 a7df 87de bf3f 83d6 52f2 92b6 853f
000001e0: b245 3903 c691 a0bf 209e e3d6 0c00 abbf
000001f0: 66f8 e2f6 25b2 ab3f 4831 5782 bf35 b63f
00000200: 360c de71 9fc4 873f 7cdc ced1 00fe bfbf
00000210: 7376 5b2a d218 81bf 4538 e710 dffe b53f
00000220: 966e e8c0 ae98 a43f b033 55cc 7dff 973f
00000230: 32de c572 eebf a6bf 232e c8cd 22b8 bfbf
00000240: 0b04 72e5 b33c bdbf 2165 c744 43f1 9b3f
00000250: 86d8 3293 b214 b53f 6b51 8308 0e36 bbbf
00000260: b15a e2ba b167 bebf 8c34 f82f b03d c0bf
00000270: 4d1d 0d9f 2ada 95bf 7281 ec52 9a68 b23f
00000280: a5a6 35e9 5023 b3bf 03b5 c00a cd9b b1bf
00000290: 808e ceb0 031e bfbf b57b daaf 9d82 ba3f
000002a0: c0ad e1b3 4a21 b53f 1cb2 af50 94be c03f
000002b0: bcba 016c e7ce a9bf b0cc c90d cb2c a8bf
000002c0: b42f 0907 1087 b73f 6ac5 07fa 47d6 8c3f
000002d0: 7eea 3523 19da b9bf a498 3c74 7b18 c0bf
000002e0: 406f 76f1 85bf b7bf 3693 f78e c646 ba3f
000002f0: b190 65c4 3c6f bcbf 6b3c ff33 c5a8 bc3f
00000300: 29a4 48d5 597b 803f bb22 c992 f9f5 be3f
00000310: cf27 4993 e1a9 bd3f 8adf 9e9a 9769 a73f
00000320: a36c 2978 7654 a73f 08f4 45f9 3c80 81bf
00000330: d79c 32f0 8019 96bf 4648 63f1 bd50 81bf
00000340: 7e7b 3032 665a b53f 0f66 9e41 962b b2bf
00000350: 7465 c79e 5441 b83f b5f4 b79f 4f7a c83f
00000360: 2ca8 89a4 9b30 b8bf 6fd3 14f5 68b3 95bf
00000370: 6408 bf57 30b9 c23f 042e f0f9 0f3b 8f3f
00000380: e62b 4d90 c5fd adbf 88d4 f6e7 37ad 9e3f
00000390: fb43 dc1b af92 9e3f 8225 1526 8f6f 523f
000003a0: 2d69 926a 0460 b3bf 5f31 4b53 263b ae3f
000003b0: 4e8e 749b 5842 c7bf 90bf 4e88 983d b33f
000003c0: 4136 0e21 cafd a03f 418c 56c6 3d5b 72bf
000003d0: 0d65 acc7 1732 a3bf 04e1 3ea8 2be8 bd3f
000003e0: 3586 3681 a950 9f3f b0e1 fd4a f065 8cbf
000003f0: c42a bf37 87f2 98bf 5a8d d2fd cf6b c33f
00000400: cdf9 b0fb 27ef c63f fa2c 64ec fff2 b5bf
00000410: b9c3 fafa ce10 bb3f 362c 203f 7358 bdbf
00000420: ad0e bae8 270a b6bf 5f89 2066 76f4 c23f
00000430: c5af a934 6f15 babf 79f4 fdf5 c09d abbf
00000440: ec23 2f11 453a ac3f 35d7 9d2d 8caa c5bf
00000450: ef77 d3f2 54c0 cf3f 58f6 155e 8376 c43f
00000460: eac9 c767 45ad 7b3f 7796 cdd9 4f1e c03f
00000470: 7551 4783 15f9 8f3f fe9e 7937 61de b13f
00000480: ff3e 28c4 9d1b aebf 7d0e 6631 b0f7 a93f
00000490: ea48 aba3 2ab0 61bf 38a8 7e89 5656 d2bf
000004a0: f2c2 a662 d844 763f 3092 bdac 3f37 c73f
000004b0: 5743 2b5a 593f a6bf 7a22 c8bc 8f4a 833f
000004c0: 982a 9d8f 982c f9bf 4d45 a44b 5b31 abbf
000004d0: 3031 9fe9 f959 a1bf 2f5f ada7 bb66 a63f
000004e0: 7c4e bd85 5421 a53f 0a1f 8d76 3fb2 b53f
000004f0: e001 6aa3 3e52 a03f ded8 40d0 91ba b03f
00000500: e91c 61b2 a826 b7bf d623 b534 ee3f a13f
00000510: fe8a 9fa9 d1f8 b53f cd40 765b 3446 a6bf
00000520: 9453 bb4e 3d39 b43f 4864 829a 905c ccbf
00000530: 80d8 0d20 c9c3 943f 9e57 9a40 d673 b2bf
00000540: 1815 4dfd f6ba a03f dea2 ac6c d12f a5bf
00000550: a0c0 4cd7 4eb2 c23f 9ddd e7b2 9c01 bf3f
00000560: bb3e cd72 9786 bc3f ba5f 680a aa52 b53f
00000570: f8ee 480c e928 77bf f7ef 94bc 27c2 96bf
00000580: 1038 5d87 5b1e bfbf 8d39 403d 82a4 b5bf
00000590: 3072 b164 3f49 b73f 84f4 476b be14 aebf
000005a0: d5e6 d290 5892 b5bf 95cb c081 2110 b83f
000005b0: 7070 bfcd 5cb6 9cbf 13a3 faec 4a8b b63f
000005c0: 9d6e 4a89 82b4 b13f 3762 8dcb 776c c2bf
000005d0: a3cc 4028 e3a4 b7bf 13e0 380e 4df7 c7bf
000005e0: 2a98 171e 2845 c03f 7e96 1e51 c0b6 a0bf
000005f0: 2476 40ff 2600 92bf 6df1 50a4 a4cc 973f
00000600: bf67 6153 6956 d1bf 3138 7f55 27c1 b6bf
00000610: 6709 6d58 d7ab b23f c42c 468d 0ed7 ba3f
00000620: 5177 1656 ddbd 9b3f 7bd5 bd4b ae92 75bf
00000630: a140 c31b 74e1 c73f 9416 8976 6cf7 a9bf
00000640: 7cc2 18d2 ff39 c0bf 1237 ad25 5c27 c1bf
00000650: 0717 7a71 15d6 9b3f 9cdc d2f0 4085 abbf
00000660: cd90 ef2d cf23 bbbf 525c d60a 089f b2bf
00000670: 2223 332a a1e7 bbbf 2815 59d5 e52f 9a3f
00000680: 9579 5dc5 1a3e b03f a4c1 fe5d 58e3 b13f
00000690: fb97 b42c 43aa b3bf 875f ef2a 3bd9 be3f
000006a0: 204a 0cfc df06 bdbf 2507 ad5d 8e3f a73f
000006b0: 064a e6ef f505 97bf 8563 a26e ced1 b03f
000006c0: bf87 51ba 1f54 a6bf 7b78 6b90 c699 aebf
000006d0: cfd8 d886 d268 a1bf c5b2 59ad 3339 acbf
000006e0: 41d2 1c68 6227 ad3f 75cd 2109 19b3 8cbf
000006f0: d9d7 5857 1e0c 8e3f ee54 59dc a37c b0bf
00000700: edd4 629c ea6a adbf 9d61 5bd4 2217 b3bf
00000710: 99d2 8158 148c c1bf fec7 c9ba d3ae b9bf
00000720: dc26 5c4b ad7e b33f 26d0 4038 fc8d c0bf
00000730: 7922 39df 457e 923f f8c3 2ed5 a39d 563f
00000740: c4d0 a54f d735 af3f 001d 71fc 2d04 a4bf
00000750: 1cb4 a5ca f426 b0bf 8479 26d8 358c b4bf
00000760: 9022 b214 74e1 b93f e9de 2c4c ee09 bebf
00000770: 2f02 5c61 2d50 ae3f 99e4 237d 9170 86bf
00000780: 138c 2fa4 e7cf b03f 3562 36cc aa8e 76bf
00000790: 58cc f9e4 1038 493f cdd2 7759 19fe 91bf
000007a0: b294 a82a 0824 aa3f d32b f062 cc9b a03f
000007b0: eab8 7b3b 5e8b 7b3f cee3 a609 0932 a9bf
000007c0: ee19 ffd8 9a82 b1bf 213c 7af6 f704 af3f
000007d0: 757a 5890 7642 b9bf d29d a573 7848 c1bf
000007e0: 6abc fc39 2863 b3bf d1ef ca51 14b9 c13f
000007f0: abbe d545 2a7a 98bf a88a c263 d207 9bbf

bias f8 [50]
-0.022326226247126272 0.0680833549024344 -0.053852247458468366 0.017774969809700003 -0.045871410629963916 -0.06501303852725586 -0.0936357982751684 0.0013132697097162944
0.008905141030393016 -0.034131711839685684 0.05297623214037967 0.1240697472619872 -0.0012950906866009294 -0.1483317423861085 -0.08510429830545042 -0.12462100524727347
0.0680858916300546 -0.1207475094297833 -0.0960804643980008 -0.031045415118762937 0.14642614168922988 0.11728558283714444 -0.05899434968376292 -0.07740728509326526
0.025838998989395606 -0.0339592876708549 0.039568550286985193 -0.04236277310944691 -0.05054577082143513 0.12112882651086698 0.08458039933560751 -0.062445205562570376
-0.01955412035503123 0.05969339210338359 -0.08877254769005978 0.124074586461228 0.11571241556415335 -0.0203729493740231 -0.010047371732499347 0.037134574888103636
-0.0445774337926051 0.05741992574100708 0.04841415766514549 -0.02199165122709639 -0.07788857192977215 -0.055642837994555355 -0.10096943612918677 0.038098221515469106
-0.004868763673693897 -0.09876173798401289
00000000: d14a 4cae afdc 96bf 0d3a b526 e96d b13f
00000010: bce9 4c93 8592 abbf b087 1408 9a33 923f
00000020: 1044 f420 757c a7bf 53c4 49ca b1a4 b0bf
00000030: b5a2 5303 84f8 b7bf 0d4d 0f9d 4084 553f
00000040: da37 efcb db3c 823f b344 3734 b679 a1bf
00000050: 5937 0461 b31f ab3f d3c8 e9f2 08c3 bf3f
00000060: c84b 3c09 0138 55bf 75e6 40d7 88fc c2bf
00000070: 618f f831 65c9 b5bf d782 ee85 29e7 bfbf
00000080: debd deb5 136e b13f f809 130c 4fe9 bebf
00000090: 4ab8 5fb4 ba98 b8bf c8d9 808a 5eca 9fbf
000000a0: 99d7 ea80 17be c23f f2ec 938e 6d06 be3f
000000b0: eec2 14e5 8134 aebf f39d f2bd f6d0 b3bf
000000c0: 2bbb 7bde 8975 9a3f b330 e29b 1c63 a1bf
000000d0: 288f dd3a 5442 a43f bf58 25ca 92b0 a5bf
000000e0: 3823 42a1 22e1 a9bf 608f 777c 4c02 bf3f
000000f0: 1c70 07a1 0fa7 b53f 3fd1 5d67 d1f8 afbf
00000100: 1f27 b5cd fe05 94bf e81f bedd 2190 ae3f
00000110: 2d85 1c35 ccb9 b6bf 6d9e 1d23 5ac3 bf3f
00000120: d0d5 9630 549f bd3f 1a52 237d a5dc 94bf
00000130: 75c4 0368 b793 84bf 2afa 6391 4d03 a33f
00000140: a9c4 8e78 dad2 a6bf 218b 64fe 2466 ad3f
00000150: b59d ab8f bdc9 a83f 4ebf 38bb fa84 96bf
00000160: dfa6 2b65 81f0 b3bf 8cf0 e2d2 377d acbf
00000170: ea06 120a 22d9 b9bf 29b0 e32e 9c81 a33f
00000180: d7ea 01cc 44f1 73bf f0c9 bc02 7348 b9bf
