lasa_models/7/skel_model_Leaf_1.pt (torch, 99247 bytes, 18 tensors)

R f8 [20, 20]
0	0x3fe2f99dbb67befd	0.5929707203158326
1	0x3fe898908c920034	0.7686236138833977
2	0x3fd9e80ec4e98469	0.40478867749886277
3	0x3fd85a1d304932ea	0.3805001231710735
4	0x3fd8eb7c00b4ae32	0.38937282627987024
5	0x3fee93d6d85c9e4f	0.9555467820945952
6	0x3fdaf57e2cfc75bc	0.42123369591885385
7	0x3ff10da54e14e61e	1.0658314752639693
8	0x3fd8bb2528ca5fe3	0.3864224336953141
9	0x3fda8a12674f2a4e	0.4146772393111505
10	0x3fec296a3d6feaa5	0.8800555419869239
11	0x3fc925fa23f672de	0.19647146945944532
12	0x3fcd7a98cb81a275	0.230303859108307
13	0x3fd6d01192d33e27	0.3564495023574374
14	0x3fe72eaa0d00360e	0.7244463209078178
15	0x3fd24eae173522ee	0.28605224863399215
16	0x3fd1f808f0cc5e73	0.2807638503595406
17	0x3fe53f8c3e0e857e	0.6640073024793052
18	0x3fe4d8ef01666a73	0.6514811541886288
19	0x3feba227b3eeab90	0.8635443224242056
20	0x3febc1b1e817cc22	0.8673944027963254
21	0x3fe6b334647d0cb0	0.7093755686440968
22	0x3fcf1076452b9ff0	0.24268988015614879
23	0x3febb66710886fe0	0.8660159418973272
24	0x3fddd368b3bdd63b	0.4660283808983398
25	0x3fb54cd15e2ba781	0.08320339726529193
26	0x3fd5d6c1e0771100	0.3412327472726844
27	0x3fea71085305af3e	0.8262979146506735
28	0x3fe99c688e090fd6	0.800342824375998
29	0x3fe353ff9cadbadb	0.6040037212495365
30	0x3fc5b52bf69a6b1b	0.16959142247363776
31	0x3ff25d6fc4c421f9	1.147811668985126
32	0x3fe2bd375bcd4108	0.5855976861003294
33	0x3fe04ed0aca167cc	0.5096209880532512
34	0x3fb55b3d46679739	0.08342345208037906
35	0x3fd84a5d5bc14794	0.37953885994385783
36	0x3fc276c609eb6ba8	0.1442496822772601
37	0x3fd733b16b1d18e5	0.3625300928146216
38	0x3fd092128164c4c6	0.25891554485413015
39	0x3fca22416e88c2c0	0.20417039773157875
40	0x3fdeaf8ac9c8f82b	0.47946424203462595
41	0x3fb151b730117fb1	0.06765313075584235
42	0x3fec5caa2f80b6ff	0.8863116195477402
43	0x3fc1ea5f2c35bb0e	0.1399649587505895
44	0x3fc98cca136ea931	0.19960905026284473
45	0x3fdbfb00825e8286	0.43719494563450956
46	0x3fd4812ba875eb8d	0.3203839440463348
47	0x3fe35eda381e0a0d	0.605328664402181
48	0x3fbae9052fa9df35	0.10511810697232422
49	0xbf95c349b09dbeb4	-0.021252776531979392
50	0x3ff077102450ba1b	1.0290681284492453
51	0x3fc95efaf0ed341d	0.19821106685631742
52	0x3fde262535ededf8	0.47107820765060593
53	0x3feddfa325ce0221	0.9335494745610654
54	0x3fe7b391f9a9e952	0.7406701923603498
55	0x3fce456b8e44ec6b	0.23649353453388086
56	0x3fe4100f91c0b67e	0.6269605490430903
57	0x3fe5225ad95a7624	0.6604437108214296
58	0x3fd2573ab2b12a79	0.286574053291282
59	0xbfb4652acf46a75e	-0.07966868935059554
60	0x3fcf17a7c68ebbed	0.24290940470879666
61	0x3fecc2fd5af5a789	0.8988024498514601
62	0x3fe100fd7412ee2e	0.5313708560055994
63	0x3fcac3770a1513b0	0.20909011833478308
64	0x3fe616710f465584	0.6902394579253017
65	0x3fd6a2e66ff8d526	0.3536926358677469
66	0x3fe702a8f340e3d8	0.7190747023624864
67	0x3fea834e6a89c391	0.8285286026785902
68	0x3fe6e71cacd8b7b4	0.7157119155797234
69	0x3fe48aa5213709c7	0.641924443123849
70	0x3fd636ecc4d0095e	0.3471023485182253
71	0x3fc0050a399f170d	0.12515380681559699
72	0x3fe996cab9a5c30b	0.7996572137763861
73	0x3fc9cc16b19a23c4	0.20154079124429647
74	0x3fe69f2b6b51e7a9	0.7069298835842704
75	0x3fe04d4324133cd0	0.5094314293472966
76	0x3fe8eab7a655eeef	0.7786520241492932
77	0x3fd32eefc14f1480	0.2997397792608538
78	0x3fd5df2982380123	0.34174573628117083
79	0x3fd2a260ea519b04	0.2911608017224554
80	0x3fe52a5b2d1f6c8d	0.6614204293540681
81	0x3fd9d82bdd1cb575	0.4038190516756324
82	0x3fe8c5695739c932	0.7740980819346872
83	0x3fe43cac3f0cfcdc	0.6324063521823535
84	0x3feffdc12831c05c	0.9997258935018283
85	0x3fca671ef8647569	0.20627200249229397
86	0x3fe3b706b0c649e6	0.6160920574787354
87	0x3ff098ce17a9d06f	1.0373059200619783
88	0x3fdfcd80dc8b6707	0.4969179300074846
89	0x3fe66172acb36aba	0.6993955014289306
90	0x3fee15ffb0fd4cdf	0.9401853997063901
91	0x3f8c4f615edd860a	0.013823281009254468
92	0x3fd2fcee21e16bfe	0.296687634550551
93	0x3fefd26b4734e2c3	0.9944359198335281
94	0x3fe1754f3c1baf81	0.545570008658146
95	0xbf970683ad64ba73	-0.02248578782853845
96	0xbf6167f9c95aff23	-0.0021247748034908405
97	0x3fd3b81e89aa7f3a	0.30811274951883016
98	0x3fc91b1818d1114d	0.19613934718848683
99	0x3fdd69b4841526b5	0.45957672976201575
100	0x3fb2f59045dfd7ff	0.07405950265805926
101	0x3fecfcaceaa6e90c	0.9058441718146084
102	0xbf8f3fe14ac1c146	-0.01525856027021234
103	0x3fe504aed0ec299a	0.6568216400640268
104	0x3fbf6f515271dc60	0.12279232275783292
105	0x3fe788421625f57d	0.7353830750068223
106	0x3fc635faf3434376	0.17352234724105714
107	0x3feb403e5616d3eb	0.8515922242573856
108	0x3fdf272286181d98	0.4867636022103965
109	0x3fd1e7755bb186cb	0.27975210146369694
110	0x3fc32d5a07cd3ab4	0.14982152348462352
111	0x3fe4ef9bd171a360	0.6542491045666843
112	0x3fe1778c5b4f8a26	0.5458432944690841
113	0x3fe774be6c2b1fd0	0.733000956789505
114	0x3fcd96b96c835e9d	0.2311622409676958
115	0x3fe62310036ac067	0.6917800966966866
116	0x3fea0c7e7b1f5b5b	0.8140251545654381
117	0x3fed6b17431bd859	0.9193226156919635
118	0x3fe46e7be5353a2b	0.6384868122784771
119	0x3fe8164325eb565f	0.752717565594775
120	0x3fe9bf23efcfd315	0.8045825656723503
121	0xbfb0b02887e6789f	-0.06518796270254022
122	0x3fe8eb68e4120edc	0.7787365393164367
123	0x3fe1b17568a5dd68	0.552912430181931
124	0x3fe10d0509203b42	0.5328393152466122
125	0x3fe7745dde9c7f94	0.7329549167516114
126	0x3fed64d8f9ad5f82	0.9185604931362692
127	0x3fe7092bf2daac93	0.7198695891614925
128	0x3fd8a538d50cd4f7	0.38508435064007024
129	0x3fcb960dab36988f	0.2155167661669037
130	0x3fee9358a22106e6	0.9554865995962387
131	0x3fdf6af55e74badc	0.49090322708336287
132	0x3fdf18273da50fdb	0.48584919948575384
133	0xbfa10e517441dd5b	-0.03331236404568002
134	0x3fed75158df7d5af	0.9205425045790231
135	0x3fee6d3641a3179c	0.9508315355276298
136	0x3fe83581c57f91c9	0.7565316064251927
137	0x3fc97a6d01ae3bfd	0.19904863912640272
138	0x3fea1eb6eedbdc7d	0.8162493386470399
139	0x3fc7b47e1ba0c02f	0.185195697298242
140	0x3feb58f52a128616	0.8546090909696342
141	0x3fbbf5369091c3da	0.1092104056313156
142	0x3ff09028198641ff	1.0351944920586218
143	0x3fe13eb90e112c74	0.5389066004512544
144	0x3fe9b274865088cc	0.8030340789157662
145	0x3fd056af13237d35	0.25529076451308025
146	0x3fd03f5c218baf4b	0.2538671805948424
147	0x3fd4cbcbc0edd196	0.3249387153694213
148	0x3ff270e0c4ae2354	1.152558105737815
149	0x3fd33a6a9030ae04	0.3004404457194314
150	0x3ff0a8dd940890aa	1.0412269384915285
151	0x3fb1bb75159b70c3	0.06926662232894203
152	0x3fee61b792c828d8	0.9494283549149953
153	0x3fe0ba1cc20e4b46	0.5227187910225914
154	0x3fe3303bc8a5766c	0.5996378821252626
155	0x3feabf267d5e67ae	0.8358337830170421
156	0x3fed78291e786707	0.9209180445788839
157	0x3fd65ce2ff80f239	0.34941935493023696
158	0xbf9b5d859de6ea23	-0.02672394539124857
159	0x3fdc2b6e8fc14ab6	0.44015087164477096
160	0x3fe1bad04ebe548c	0.5540544069250628
161	0x3fd518813f69a61b	0.3296206588043746
162	0x3fe0a9d072476f6d	0.5207292778027132
163	0x3fd7def8cb28f598	0.3729841217026091
164	0x3fef4170e24a73ed	0.9767383975737381
165	0xbfa5b026077bf0a4	-0.04235953179701937
166	0x3fec3e71e63654a2	0.8826226707775684
167	0xbfb38535187a2050	-0.0762513336904942
168	0x3fe7584a6f20b431	0.7295276804412706
169	0x3fc5872dad9c05d5	0.16818781830811128
170	0x3fb116f74735e46f	0.066756682286625
171	0x3fd035c4dc23891f	0.2532817983429982
172	0x3f617918824c0c22	0.0021329382601620464
173	0x3fd8dcb1e8787526	0.3884701509685605
174	0x3fd1006abad6b5c0	0.26565044637649393
175	0x3fe6c70fd50ba9c5	0.7117995415731505
176	0x3fe0054a56891424	0.5006457986970685
177	0x3fd815be16a1e2d1	0.3763270588893138
178	0x3fc529bd735454f6	0.16533630496329693
179	0x3fd6b377de4431a5	0.3547038717813627
180	0x3fe47fc7a57d79c4	0.6405981285313875
181	0x3fe92de499108323	0.7868521680394206
182	0x3fe24d68ebe3963b	0.5719494445044754
183	0x3fec4d67e2f83a49	0.8844489510536927
184	0xbfcc56871623358f	-0.22139061528143286
185	0x3fd9054359a3d64b	0.3909462333097948
186	0x3fe79baf66bfca83	0.7377545363254544
187	0x3fb2e2949e41f874	0.0737698446627933
188	0x3fee81815a782a58	0.95330875081829
189	0x3fb91ed2f13901e8	0.09812658681131092
190	0x3fe84ae7cb662e2e	0.7591437313689704
191	0x3fe17308405f3b16	0.5452920205369505
192	0x3fed756f645d1eb2	0.9205853424291119
193	0x3fdc9df2aa64e144	0.44714037551922936
194	0x3fe092891084aca4	0.5178876230833294
195	0x3fe070380c054aeb	0.5136986002711103
196	0x3fd2497dd1807540	0.2857355638423833
197	0x3fe495bdd09c75b5	0.6432789873539863
198	0x3fe5275eb1ee6f61	0.661055896303406
199	0x3fc908b12336a493	0.19557775706679034
200	0x3feb2b846f432089	0.8490621731844082
201	0x3fe5834ef495dd60	0.6722788598116658
202	0x3fc2c83ee8ecec94	0.1467360150653333
203	0x3fece1c77cb6a203	0.9025609432038099
204	0x3fdd18a9aa3d6c4f	0.4546302950381617
205	0x3fd86ed5a25a3ebe	0.38176480154741543
206	0x3fd73f3fba95c0c7	0.36323540898503065
207	0x3fe8fd57ddd1a530	0.7809256870652117
208	0x3fc95fc6ff2c36e3	0.19823539218525985
209	0x3ff0439c5e92a30f	1.0165065473794959
210	0x3f68c76d5a8e0a00	0.0030247817816768663
211	0x3fe79abbe0eea636	0.7376384156424993
212	0x3fd4b92aa4e9b0bc	0.3238016710736351
213	0x3fdd70032bdbcfba	0.45996169360227734
214	0x3fd4c80fc58f74f6	0.3247107915211268
215	0x3fb4e113ef0a654c	0.08155941568329189
216	0x3feff6a7bad7b7ad	0.998859276701969
217	0x3fdb9ddf32e29993	0.431510734264884
218	0x3fe23837b19e0c8a	0.5693624943818503
219	0x3fed027631d24363	0.9065505002091466
220	0x3fbaddeabdfc3b7e	0.10494868410408562
221	0x3fdd730586bf0175	0.46014536055374516
222	0x3fddb3235b6b5a5c	0.46405872275992066
223	0x3fc1497fd2d12da2	0.1350555209522613
224	0x3fee05b901c48fd0	0.9381985697295878
225	0x3fd6867bd24bcaa1	0.3519582322761981
226	0x3fc682cea3f2668b	0.17586691861361134
227	0x3fcf1d2655c0d732	0.24307707965061237
228	0x3fed4130c7250260	0.9142078294317564
229	0x3fe1d259e2f094da	0.5569276268403442
230	0x3fee07ef470b5464	0.9384685885985502
231	0x3fd7a04cd4e88710	0.369158943098328
232	0x3fb03357de522089	0.06328343560938
233	0x3fd011c0dbde5187	0.2510835787918712
234	0x3fdebd613f83ead5	0.48030883028665744
235	0x3ff047717dd3dcb9	1.017442218317042
236	0xbfae793849f9e463	-0.05951858428029124
237	0xbfd2f604a10f37b0	-0.29626575211011197
238	0x3fd26209e398da4f	0.2872338030460115
239	0x3ff58c604f884485	1.346771536515264
240	0x3fefc6ffbd7bce05	0.9930418682910732
241	0x3fddaf286cc65b33	0.46381579039136794
242	0x3fceba5f77f807cb	0.24006265027861526
243	0x3fead326eb721797	0.8382753943012514
244	0x3fe119f291d03e1e	0.5344174240034965
245	0x3fb75b961dd2da42	0.09124124744526177
246	0x3fe8f3ac5c69ff0f	0.7797452740632894
247	0x3fbdfefa71de7b83	0.1171719100952782
248	0x3fe0aea1a8cfa2f9	0.521317319592611
249	0x3fed02b3cf3562f8	0.9065798804323029
250	0x3fe989dbc6031801	0.7980784289763961
251	0x3fed94342c426242	0.924341284221619
252	0x3fd4ef7e9047e33c	0.32711757745669323
253	0x3fd0e5b3b0064b12	0.264019891642577
254	0x3fb573c1366034d2	0.08379752709898305
255	0x3fea49ef1af3f6a0	0.8215251470971516

L f8 [40, 40]
0	0x3fc1dadca429af5d	0.1394916345192269
1	0x3fdbfec1d038e42e	0.43742413839533156
2	0x3fd7171f898aeed2	0.3607863276663298
3	0x3fb4540841cfbc75	0.07940723044133498
4	0x3feab6d08a1c8a8d	0.8348162362566015
5	0x3fe61bd59952e447	0.6908977503400217
6	0x3fcb2fb31ec703e2	0.2123931789665497
7	0x3fe8f5d80a4057c2	0.7800102424832789
8	0x3fb2932aaa85a2d2	0.07255808509001874
9	0x3fe493dea2fff6f1	0.643050497397523
10	0x3fe68bb2f85f4728	0.7045531130808955
11	0x3ff1e975fb345274	1.119497281329271
12	0xbfa396d0d6798322	-0.03826000803088038
13	0x3fd9434d3d6dbf58	0.3947327709092767
14	0x3fe3a136d0e90cf5	0.6134294586449004
15	0x3fe1261b97eff94d	0.5359018294837284
16	0x3fd779d8ca5dacd7	0.36681194078728424
17	0xbf9523d65aac71d5	-0.020644521030691216
18	0x3fd3b90158c6edd7	0.3081668250049154
19	0x3fe68488d29028f5	0.7036785233078989
20	0x3fef4161a6b0b2da	0.9767311340015923
21	0x3ff1d328462ca202	1.1140520802674705
22	0x3fea0186a03d6ca1	0.8126862649618439
23	0x3fe502d4dfba23c0	0.6565956468267515
24	0x3fd6b334cd307fe8	0.3546878818324317
25	0x3fe8a38d7b40a14b	0.7699649245524055
26	0x3fdc7a201ee04f6f	0.44495394721274456
27	0x3fd6489a4f458409	0.3481813215385619
28	0x3feedbe4b02162b5	0.9643424453780286
29	0x3fdd9f6d9c1dfd58	0.4628557228642953
30	0x3fd61e712eab3365	0.34560803945060165
31	0x3fda5aafcdd696d9	0.4117850790156417
32	0x3fedba63fa18835e	0.9290027508433061
33	0x3fe26c40f34ac220	0.5757145644948345
34	0x3fd94ba9a0581792	0.3952430787907072
35	0x3fe016844311fcbb	0.5027486143079821
36	0x3fdd09e45b8bba72	0.45372876110096805
37	0x3fe28d73a80f4f05	0.5797670633714637
38	0x3ff03146bb95e567	1.0120303466377096
39	0x3fe112025b4baba2	0.5334483893505999
40	0x3fb153a24c809169	0.06768240325670195
41	0x3fd571c311197140	0.3350684802042174
42	0x3fc3f2bf4622642b	0.1558455555394017
43	0x3fd7f6306152c323	0.37440118316867393
44	0x3fe4eaa36825970d	0.6536423715703862
45	0x3fb3e0883073ea58	0.0776448362629848
46	0x3fe1efd1d9edc964	0.5605248695776877
47	0x3fe6c6ed2630622e	0.7117830034140462
48	0x3fddc88a19805987	0.46536495676391393
49	0x3fc8ec43a5912b06	0.19471021255807147
50	0x3fc67f151fdf945b	0.17575325065914424
51	0x3fc9ad59a64f37ab	0.20060272808626442
52	0x3fdc32b8011fc99b	0.4405956278780196
53	0x3fc026a812c1c4ae	0.12617970386376015
54	0x3fdcdc5bf62f1f2a	0.45094965974247947
55	0x3fd926926decc75d	0.3929792474256056
56	0x3fdc4831681bad11	0.4419063107186086
57	0x3fc8f26966208bf8	0.19489781843830634
58	0x3fc67e0a04abec94	0.17572140911201883
59	0x3fe41fdf77c6b1db	0.6288907374742466
60	0x3fbb64bc6c6298f0	0.10700585981485111
61	0x3fd4f7dc1f1319b9	0.3276281646216393
62	0x3fdfca039b66afce	0.49670496154680854
63	0x3fdc4ab116d50b25	0.4420588229151455
64	0x3fe59d921e55db5e	0.6754847137916433
65	0x3fcb8621579cde26	0.21503083017317798
66	0x3fd79ac77875a222	0.36882197154639773
67	0x3fd3813de186178a	0.30476328872497815
68	0x3fe73a3ead2e9455	0.7258599646053293
69	0x3fd20450e7274cea	0.28151342938981705
70	0x3fdcc6cd0fade86d	0.44963385134872774
71	0x3fe364d1cd46f17b	0.6060570725745004
72	0xbf97d9a42f375ee5	-0.023291173345426314
73	0x3fe7d22f5cd02ebd	0.7444073498495168
74	0x3fdfa44953e86453	0.4944022483264849
75	0x3febc2e211d32cc4	0.8675394390242208
76	0x3fc300d7b1149c79	0.14846321245679286
77	0xbf83530f69ea4c5a	-0.009435768527771216
78	0x3fec3e60ef16a209	0.8826145810790545
79	0x3fd5f6ad4e351d93	0.34318096768807854
80	0x3fe27aac9de0ffc5	0.5774748881885833
81	0x3fc0b829cb6b9eee	0.13062021668087404
82	0x3feadf5bc787fd88	0.8397654435247413
83	0xbfad73b0c4c94f32	-0.05752327348878196
84	0x3fd80ed02c2e7e2d	0.3759041243992865
85	0x3fe64eac7996245c	0.697103726838701
86	0x3fc92c99330679ac	0.1966735362193054
87	0x3fd3ef20f6a913bf	0.31147026145873363
88	0x3fd9a815f984221e	0.40088414542018025
89	0x3fe50a52d188084a	0.6575101940545747
90	0x3fb2d6db0b8f0012	0.07359093696777588
91	0x3fe19036cd29058c	0.5488542563472705
92	0x3f94d894d13a164e	0.020357442159840304
93	0x3fc878946c05f7b7	0.1911798026521276
94	0x3fe8b67a32ea6cd5	0.7722750658462255
95	0xbfc5a55a58e9d44c	-0.16910867063021084
96	0x3fe5fd1b83060f8a	0.6871469077163834
97	0x3fdf0125414b49fa	0.4844449174535438
98	0x3fdbb76e685b16fb	0.4330707568263816
99	0x3fe6adfc4a9fe093	0.7087384660253683
100	0x3fd9e827b4d56c37	0.4047946229890757
101	0x3fce4fd49ce14f73	0.23681123409425772
102	0x3fd8a54020eb65a1	0.38508609022900414
103	0x3febc738ea0a1da9	0.8680691310009269
104	0x3fc1d7a372d1f441	0.13939326387836284
105	0x3fe34ee695fa2abe	0.6033814362757182
106	0x3fc63a03f53db371	0.1736454913583674
107	0x3fd40c9d8b7c7251	0.3132699834984907
108	0xbf943e6ed367777b	-0.019769412663542135
109	0x3fe0f4e3b7517e16	0.5298937397419106
110	0x3fe6ea3adcff0f79	0.7160925213179176
111	0x3fe0b5502d3e1e36	0.522132957806156
112	0x3fd55e65780fff12	0.33388649678089266
113	0x3fc99020d5c92785	0.1997109454990175
114	0x3fba9ee720435e76	0.10398716485667045
115	0x3fd846ad14411a61	0.37931372621497955
116	0x3fdbf2a75bd7d892	0.43668540925080734
117	0x3fe7a020161039e5	0.7382965498853166
118	0xbfa1c698e3ff5783	-0.03471830161258451
119	0x3fd68312e7ea45ed	0.3517501129909693
120	0x3fe5ad1581b414de	0.677378419234312
121	0x3fc31efa3db4764b	0.14938285839973484
122	0x3fedfa7380884e96	0.9368226538085362
123	0xbfac01687c58bf9d	-0.05469824331191762
124	0x3fdb3ad96bc0b58e	0.4254668762467525
125	0x3fd3f0421185743b	0.3115391894442074
126	0x3fe30d1894304e33	0.5953486341772475
127	0x3fda2fa3da93dbef	0.40915771813837315
128	0x3ff4f760a91b7f6b	1.31039491708358
129	0x3fdb00d06a83cec3	0.4219246902641595
130	0x3fde6fd13f6cb8a9	0.4755747908956303
131	0x3fd0a4dd05b11bba	0.2600624614319106
132	0x3fb0ddc822fe27fb	0.06588412145916316
133	0xbf7384ca8d875b61	-0.004765311452920113
134	0x3fe205bbda146461	0.5631999263160986
135	0xbfa5e83f3a968ea4	-0.042787528898114574
136	0x3fd774c192100dc1	0.3665012289422656
137	0x3fd1177a99ed1dfb	0.26705803901538133
138	0x3fe26912f40e187c	0.5753264204693234
139	0x3fd7eb80d076be3a	0.3737489734439553
140	0x3f39dcb25e75f495	0.00039462427817922005
141	0x3fd5eddac4455687	0.34264249007296893
142	0x3f963238ede5efc1	0.021675958175805258
143	0x3fe3be9b6c458175	0.6170174708059181
144	0x3fcc03e4a1a2099d	0.21886880771860442
145	0x3fe16830d3385e61	0.5439685941118563
146	0x3fd28441548dfe6b	0.2893222165803084
147	0x3fe2e171075bb169	0.5900197166170474
148	0xbf582c0821132d97	-0.0014753417383869033
149	0x3fe1b7d163e258d3	0.5536887122023252
150	0x3fda823bba43657e	0.41419881047985274
151	0x3ff1037a3b620fd2	1.0633489913607161
152	0x3fe8e8c6d7335b74	0.7784151270997044
153	0x3fde8d3716868f88	0.4773690910317261
154	0x3fd7818029d3394f	0.3672790916870285
155	0x3feba68f19da77c9	0.864081907744315
156	0x3fe9b48bddbef633	0.8032893496489976
157	0x3fd75aa7ede9b3cc	0.3649082015388643
158	0x3fb4be8bdee3f415	0.08103250686322412
159	0x3fd7c390749ce55a	0.37131129634834326
160	0x3feb77de4e70b4fb	0.8583823711429938
161	0x3fe3f023bfdb8305	0.6230639216629191
162	0x3fede196e2680a19	0.9337877676010208
163	0x3fe3a8db8ac736d0	0.6143624983321505
164	0x3fe476392b843d12	0.6394315576489211
165	0x3fe2d902c29add95	0.5889905739667706
166	0x3fc28ba45d62a6a0	0.14488653716880595
167	0x3fdfe6675ab09076	0.49843772751251636
168	0x3fdc51884a4259ae	0.44247634174225936
169	0x3fe47be3234cf0b6	0.6401229562248065
170	0x3fe5bc3df80ae935	0.6792287678320351
171	0x3fc1ea4d388a55c2	0.13996281872520738
172	0x3fdb488446585a7e	0.42630106801644974
173	0x3fd8633c7af85a27	0.3810569001083501
174	0x3fe4e566d677cbca	0.6530031384303296
175	0x3fe2b444016d5691	0.5845050838349427
176	0x3fd43dd777364cb5	0.31627451555068414
177	0x3fe837ec891579d6	0.7568266560954793
178	0x3fd65376653aca26	0.3488441456385395
179	0x3fce8878ba0f50e5	0.23853978238060516
180	0x3fefe6ef81632b76	0.9969403769585898
181	0x3fef998548def051	0.9874903128870846
182	0x3fe5a77cef7f328d	0.6766953160927912
183	0x3fe2af7781ca1dbd	0.5839192900611391
184	0x3fecf01b370f4a1c	0.9043098521600004
185	0x3fd38ac210f24915	0.3053441205494363
186	0x3fe3ebdf6d7fa64d	0.6225430620808737
187	0x3feb498daf423552	0.8527286932964364
188	0x3fa6d56799358234	0.04459689851023932
189	0x3fe09ddae941307b	0.5192694240336232
190	0x3fd0244798f7c52b	0.25221433580653024
191	0xbfde44ee3734eec8	-0.47295718566213596
192	0x3ff0afb133cddef3	1.042893602714625
193	0x3fc1fce5b7609bf6	0.14053031400655386
194	0x3fea653ffdaf8476	0.8248596148297469
195	0xbfd20725bf902bf5	-0.2816862459882821
196	0x3fd3807bd084772b	0.3047170196822317
197	0x3ff0450c0156fd87	1.0168571522079632
198	0x3fe44e55ff779f7a	0.6345624913783319
199	0x3fd5e6d7f9440637	0.3422145780787988
200	0x3fe19233faf146a8	0.5490970517368696
201	0x3fef6ecaf01ce020	0.9822745027258897
202	0x3fd9ad334f74c4e5	0.40119631537807116
203	0x3fea9c28c4b94221	0.831562408662709
204	0x3feabd9e2f8d57c6	0.8356467179062228
205	0x3fbdf99af1eb5b50	0.11708992391809869
206	0x3fd1d10ab25e623b	0.27838389796082524
207	0x3fe9a58b1c3b2c41	0.8014579345120937
208	0x3fe7372b61b02a36	0.7254845531436505
209	0x3fe7f950377ecbe2	0.7491837581532048
210	0x3fbc2eed89faf34e	0.11009106272372302
211	0x3feb6d3b0b9b3b62	0.8570838190733918
212	0x3fd5255c48edb1a0	0.3304053032104779
213	0x3fc05a70fa1d502e	0.12776004994032192
214	0x3fed22cf07d42e35	0.9104991104990804
215	0x3fceb043e3c69ae7	0.23975418683877267
216	0x3fd35dde45a14fee	0.30260426330391865
217	0x3fbdd26c635d0e74	0.11649205613962882
218	0x3fe6654b9cff18ea	0.6998651567780858
219	0x3fd802eb215b3df1	0.37517812974417014
220	0x3fd6a8184938eb83	0.35400969648952
221	0x3fdb9fe16b162a05	0.431633333756196
222	0x3fea65617c281bd2	0.8248755860266732
223	0x3fd3b3af8a96e813	0.30784214529160286
224	0x3fe6422fecc6825f	0.6955794930000357
225	0x3feb5618e0e6f7a4	0.8542599098798189
226	0x3fddc04325607833	0.46485975885468916
227	0x3ff1e3c69fa50c54	1.1181093441125727
228	0x3fd3c303d1e12a2a	0.3087777661900498
229	0x3fe18f5223ef9d97	0.5487452222704857
230	0x3fb68077bd9cd1e7	0.08789776210034682
231	0xbfbdd6e8a3a6dd6b	-0.11656049724012056
232	0x3fd79b4f112a85c1	0.36885430027367866
233	0x3feb9cb7cdb2089f	0.8628806130875722
234	0x3fe85353bdf23fa3	0.7601717672241545
235	0x3f8e97826764043a	0.014937418728097385
236	0x3f9ea4eda05832e6	0.02992602626004528
237	0x3fe73adc9863196f	0.72593526614291
238	0x3feab03c9cec3515	0.8340132775207701
239	0x3fe91d6a7daff22b	0.7848408179120886
240	0xbfbbd2cae1208677	-0.108685188257846
241	0x3fe3b9485e2b9abb	0.6163675154937985
242	0x3fd780606ec7ee6d	0.367210491356423
243	0x3fe68a1fc84a032c	0.7043608581444452
244	0x3fd470fe2c6bb9c7	0.31939653718918887
245	0x3fe68c6829fa46f5	0.7046395130039104
246	0xbfd2af582966be27	-0.29195217173671256
247	0x3fd61fee7fb662bc	0.3456989524070584
248	0x3fcf91c0f147b14d	0.24663554936649704
249	0x3fee908690c5fb4b	0.9551422908406065
250	0x3fe58c7d916e4df7	0.6733997192808933
251	0x3fec48a22c104448	0.8838663921943715
252	0x3fd28e831c8048fe	0.28994825156509296
253	0x3fd2d438a58c81da	0.29420295874481683
254	0x3fe40aeb8389dc66	0.6263330048667626
255	0x3feb49977b13f54c	0.852733364473957

weight f8 [50, 4]
0	0xbfd7b5d3d74b054f	-0.3704728701087178
1	0xbfc73a1aac53013b	-0.1814606992175046
2	0x3fc40fcbc8e7d7ab	0.15673205671163024
3	0x3fcf49bc3fc89a2a	0.24443772425111493
4	0xbfc569a3ea1a9a4f	-0.16728638583045316
5	0xbfd1567b5f5da39f	-0.2709034377390313
6	0xbfc5a1a7627e96ef	-0.16899578389455125
7	0xbfc8d101c64da1db	-0.19387838537956167
8	0x3f8c2b2e157549b8	0.013754234342432933
9	0xbfda2ab6854499c0	-0.4088569928593664
10	0x3fe14f611da8efca	0.5409398631377311
11	0x3f9ace6d374337db	0.026178080079993876
12	0x3fcb1250d4360735	0.2114964519678836
13	0xbfc9a72517a9b2dd	-0.2004133573094781
14	0x3fa9bbf3695405d8	0.05026207600350191
15	0xbfddbc724a95306b	-0.464626858553635
16	0x3fdbc3944ec1e86b	0.4338122147670506
17	0x3f9e44b33eed849f	0.029558945384796528
18	0xbfd2904ae70c9291	-0.29005692065610683
19	0x3faa7e94f0f35d4f	0.05174699250499747
20	0x3fd4fbe3f7222fbe	0.3278741753972517
21	0x3f9711b39e854458	0.02252846388848115
22	0xbfd8273fcc18b8ed	-0.37739558154397806
23	0xbfcb5d43aac41f52	-0.2137837013071882
24	0xbfbf429413f4aec4	-0.12210965621187159
25	0x3fc57b742fc76c3c	0.16783001263579134
26	0xbfcad0538aa6ab9e	-0.20948261518546202
27	0xbfdaf9ac8aa83675	-0.4214888910363251
28	0x3fd9f0603c8eb0a4	0.40529638208205143
29	0x3fdb93f2954be7cd	0.4309050043080987
30	0xbfc912c03ee21a9b	-0.1958847338721242
31	0x3fd3e2eb9239452b	0.3107251098600325
32	0x3fda74b61da7b6ae	0.41337349792488964
33	0x3fd7687e8934390d	0.36575282477214516
34	0x3fc696ab42f0152a	0.17647305267761598
35	0x3fd28925ca71250a	0.2896208264324548
36	0xbfbde61e3585e75e	-0.11679257208552715
37	0xbfbb305fe2336ac2	-0.10620688698274264
38	0xbfd48c116b7a7470	-0.3210490750878483
39	0xbfc159b362e0346d	-0.13554994895858688
40	0x3fccee7830cdd5c0	0.2260275114346495
41	0xbfd4f919f20ffc23	-0.32770393980894336
42	0x3fb662140fa53641	0.08743405706373954
43	0xbfdffa6996a3890b	-0.4996589633066299
44	0x3fd01724d5397463	0.2514125902433248
45	0xbfc06328625babab	-0.128026054407511
46	0x3fb92504a78f7a5f	0.09822110262710158
47	0x3fcd5402808d4673	0.22912627484270195
48	0xbfd5f27b75ab4c79	-0.34292494288565184
49	0xbfd9618d02b8f772	-0.396579029711453
50	0xbf9a597547223180	-0.0257318806330189
51	0x3fc9a2c43f58e35c	0.2002797421753496
52	0xbfd3df7d511d6f11	-0.310515717710346
53	0xbfb5ba981737fb1b	-0.08487845007764998
54	0xbfd7b8522e1f657e	-0.3706250620285444
55	0xbfd11a05198800f8	-0.26721312993323876
56	0x3fd7447d7ee848e5	0.3635553111390791
57	0xbfe07546400f49d3	-0.5143157244841013
58	0xbfc79ab0f54eefcd	-0.1844083020968114
59	0x3fccaabe4b876fc5	0.22396067321721894
60	0x3fa1bf5ac46b787f	0.03466304443075873
61	0xbfb274593ac6ec97	-0.07208783802973283
62	0xbfd1e2a6aa1cd171	-0.2794586812263083
63	0xbfd72e058127a6c1	-0.3621839295652585
64	0xbf9eb0d1b1bf24ac	-0.02997138640765644
65	0x3fbdb7343beac7cc	0.11607672179050538
66	0x3fa0320be9718ce4	0.03163182472851547
67	0xbfbb858da1de2fd7	-0.10750661088803724
68	0x3fa9af0d7aea5ff4	0.05016367078241038
69	0xbfac30a905afbbf1	-0.05505874819197477
70	0xbfd85c790e4b04f4	-0.38064409633450613
71	0xbfd078ccc07a7ea9	-0.2573730353997044
72	0x3fc56f5e7589791e	0.16746121157752553
73	0xbfc04fdafd134100	-0.1274369941443254
74	0xbfcb86b8f7bf4486	-0.21504890534427917
75	0x3fd5104006ff45de	0.3291168278056754
76	0x3fbf3201bd5f8d7c	0.12185679314966608
77	0xbfd5f4504d023d9e	-0.34303672333131796
78	0xbfd3aa3df4ad20ac	-0.30726574796836803
79	0x3fcf2457b8dcd08c	0.24329659010402727
80	0xbfd810738164d2ff	-0.3760041011440051
81	0xbfcc38c9a0399992	-0.22048302005277925
82	0xbfddc07c6fafbc81	-0.46487341791993947
83	0xbfcdc89e5d6bf9c0	-0.2326848941956552
84	0xbfcd0dde227c5f0e	-0.22698570903661913
85	0x3fae64385b6dcaf0	0.05935836902690095
86	0x3fd390619fea011c	0.305687338033765
87	0xbfd9c6f4050c3355	-0.40276813977179887
88	0x3fd7336921eef319	0.3625128585224942
89	0x3fa658286c1fa571	0.043641341398891316
90	0xbfdb267eb3f95b46	-0.42422454429236145
91	0x3fc2896bba997669	0.1448187504892531
92	0xbfe0302c8785b122	-0.5058806082647929
93	0x3fd604a50ba558d9	0.3440334905366292
94	0xbfc8d81c7a2602f9	-0.1940951916149272
95	0xbfdcf57430c15910	-0.4524813152433049
96	0xbfd5ddc380657387	-0.34166038073254196
97	0xbfd503c6666e5dd0	-0.32835540774382554
98	0x3fb56bfa63ac518a	0.08367886479783784
99	0x3fbf2a949f8d2b82	0.12174347777651742
100	0xbfd15fc166810ee7	-0.27146945009393025
101	0x3fd3890cd1f2b929	0.30523987295863947
102	0x3fdb02a097d4d5a4	0.42203535868915254
103	0xbfa227744cbf2cbe	-0.035457262390616404
104	0x3fd1aef0a10766aa	0.2763024876163437
105	0xbfd9cedca655325c	-0.4032508491843936
106	0xbf78f63ee492e737	-0.006094213176021593
107	0xbfc55e1e8aa3fa3c	-0.16693479318196747
108	0xbfd8b760869237b7	-0.3861924471065054
109	0xbfc43e70cb082242	-0.15815553582821634
110	0xbfd8bb6a1dd2f85d	-0.38643887436399443
111	0xbfe3010c8186058c	-0.5938780336147587
112	0xbfd07dc48eb7b9ba	-0.25767625748894896
113	0xbfdd28473316d612	-0.45558338154964517
114	0xbfb4993c13b32a09	-0.08046317559198014
115	0xbfd564f4b5c2e6e5	-0.3342868590367359
116	0x3fc18a04e28d33d9	0.13702450811470504
117	0xbfe0934251e773c5	-0.5179759597482351
118	0xbfc77d46d3fffa99	-0.18351064063604808
119	0x3fd47aab8877a1cc	0.31998718573461526
120	0xbfdbcd873cb7426c	-0.4344194500854772
121	0xbfd71d5df00fa5c6	-0.3611674160334498
122	0x3fd70e48ece3b864	0.36024687894576446
123	0xbfda79514b5ec01d	-0.4136546360050504
124	0xbfd98f8bd58b1c7c	-0.39938636640403735
125	0xbfb1d52bffe68984	-0.06965899465152431
126	0x3fe19225f625a3ef	0.5490903670844299
127	0x3fd800f73c585e54	0.3750589455898752
128	0xbfd7b0ef62de9d4d	-0.37017426161988426
129	0x3fbef81c85ebe248	0.12097337979856448
130	0xbf92c0b3cb8cb591	-0.018313226031002442
131	0x3fcb3c0022e0aa14	0.21276857092864587
132	0x3fd6c841d87b58cb	0.35597273007205094
133	0xbf918ce7bc29005f	-0.01713907323778618
134	0x3fc9efe43908149b	0.20263340744728428
135	0x3fdbb1e28b018feb	0.432732234714648
136	0x3fd6283a8f7cca7b	0.34620536816070285
137	0xbfc330cfc1c2131b	-0.14992711029858516
138	0xbfa53b82009ff1ff	-0.04146963365198885
139	0x3fd0d33dd001c625	0.2628931552236245
140	0xbfdd960652974591	-0.4622817808677491
141	0x3fdf0d064de82584	0.48516996009910707
142	0x3fb8e419eb16dcca	0.09723054875836393
143	0x3fd21bc6e36e97fa	0.28294536790997393
144	0x3fc20b1082c85341	0.1409626616083646
145	0xbfdd649a30ce6f2b	-0.45926527754066865
146	0x3fe21d142ee7efbd	0.5660496631749009
147	0xbfe0795d7049aecd	-0.5148150628205826
148	0xbfc58f0f6a68a6f9	-0.16842835136167603
149	0x3fd97ee4f5794f97	0.3983700177388924
150	0xbfcbb5c9a0230e1e	-0.21648521727739561
151	0xbfa2bceb2daf7071	-0.03659758503610611
152	0x3fd0aaeb175d04ba	0.2604320266874073
153	0x3fd05af430a60224	0.25555138350321926
154	0xbfe80f31d36fa2b1	-0.7518548135386337
155	0xbfdaa6302fe1e153	-0.41639332462320516
156	0x3fc1161b80c978ec	0.13348716534068872
157	0xbfd5693147623cd4	-0.3345454403979151
158	0xbfcb4835e9970434	-0.2131411924911234
159	0x3fd47aeb72e936d7	0.32000242444779076
160	0x3fce94c755b7ff0e	0.23891536412701736
161	0xbfd25ec64be7bed6	-0.28703458225844025
162	0x3fe2ae8fc28c523d	0.5838087844627534
163	0xbf833b4a99e82d87	-0.009390433141581734
164	0xbfd764440f85c482	-0.36549474254486125
165	0x3f9f41634509fc07	0.030522872055822627
166	0xbfc861d5fc32b186	-0.19048571409565457
167	0x3f63bbd6ee0d05cb	0.0024089048241939573
168	0x3fc6e4feb2339bff	0.17886336995363192
169	0xbfb07ed0063275eb	-0.06443500663086581
170	0xbfa97212eba89f33	-0.04969843985264646
171	0xbfc19d76669ebdd5	-0.13761787424799246
172	0x3fdeb7a12075927c	0.47995784921503293
173	0xbfd6c849e61fe4d0	-0.35597465012649554
174	0xbfc3895634344b87	-0.1526286845115374
175	0xbfd0160510ee9ca0	-0.25134398129962143
176	0xbfc597542733f66f	-0.16868068613250695
177	0x3fd7671cc3d85a6c	0.3656684792089553
178	0xbfd912e41813b6c0	-0.3917780146719956
179	0x3fd86c321c1ac99f	0.3816037439784398
180	0x3f756b5860ea847f	0.005229325512716375
181	0xbfcb2f292a2ca7e3	-0.2123767333917491
182	0xbfbb7fe773134f3f	-0.10742041167696657
183	0xbfddbd6155b87641	-0.4646838509669103
184	0x3fdf7d274b31a867	0.49201376288568216
185	0xbfd57b8128f74b0b	-0.3356631183680043
186	0xbf9bcc036bdbfd7f	-0.027145436723910784
187	0x3fbf85db27fd252f	0.12313623167314768
188	0xbfc06c5d81d1cb1d	-0.12830704535334628
189	0x3fdc03f44530bcc7	0.4377413440406141
190	0xbfe0dfedfd64fc27	-0.5273351620779793
191	0x3fde1fa410b90ec9	0.47068120606512004
192	0xbfd46b50e60b61c6	-0.3190500494506775
193	0x3fcdd8cc59673544	0.2331786572016573
194	0x3fd5b16e86a5b2fa	0.3389545740999861
195	0xbfd71f5ee06f46c5	-0.3612897102112636
196	0xbfb9509c0368e502	-0.09888625224347794
197	0xbfaff8c95122b403	-0.06244496455597217
198	0x3fd9c7a4ed51d387	0.4028103177618551
199	0x3fd0c2b4d7d61754	0.2618839366699508

bias f8 [50]
0	0x3fc192b83c661a89	0.13729002904093005
1	0xbfd1c322439b2fe0	-0.277535024663619
2	0x3fde4bcc2ece1da0	0.4733763176995698
3	0xbfc13d91a8b838f9	-0.134691436178805
4	0xbfde32bb9ebc0006	-0.47184648991969913
5	0xbfc5eddbed4b5901	-0.17132138334881833
6	0x3fd8bd73dec37f4c	0.3865632701326731
7	0x3fd36f9972ef9918	0.3036864874287786
8	0x3fcad7ae0f44bb27	0.20970702882319722
9	0x3fc0911e7f768696	0.12942868446139205
10	0xbfb612360482e8f2	-0.08621537790432734
11	0xbfdee6ec7e7c90a4	-0.4828444705219772
12	0x3fe06e9cbbe374c6	0.5135024709412839
13	0x3fd6b0accb3b4ec5	0.35453338476984825
14	0xbfc7a15208d9cb19	-0.18461060936132226
15	0xbfdef26e3f0ef3f8	-0.4835467925839221
16	0x3fdb227311b18f9d	0.42397762992754356
17	0xbfc008c3f992e13b	-0.12526750265329575
18	0x3fc983ad774ffa87	0.19933098150064074
19	0x3fd0b59147fd096f	0.2610820010196652
20	0x3fc343ca63fc4a2c	0.15050630457024405
21	0x3fe08bc186c0e820	0.5170600540070645
22	0x3fe0826a13669d29	0.5159197215006418
23	0x3fd53dc4453416d2	0.33189493902351075
24	0xbfc31057ad1f2e5d	-0.14893623307431172
25	0xbfd570db26186be4	-0.3350131866479258
26	0xbfaf83b562782453	-0.06155173136728167
27	0xbfbacbb951974716	-0.10467108003583933
28	0x3fce73889b5c817c	0.2379008062935205
29	0xbfcdf8483ffe109f	-0.23413947224265017
30	0x3fd4bcfd7bbcd022	0.32403504451508713
31	0x3fc246ba1eda02b9	0.1427834177630041
32	0xbfd2b9fad8ec8dd9	-0.2926013105772803
33	0xbfd5bc313b77446e	-0.3396113472672998
34	0xbfa7dd9406e8f7c0	-0.04661238273955304
35	0x3fc43f9aebaeb53c	0.15819107540066024
36	0x3fd70862ad0170bc	0.3598868073947974
37	0x3fce76109c2cf746	0.23797805429233615
38	0x3fcd8bd54fe0ee59	0.2308298721344382
39	0x3fb0f88276630b7f	0.06629195585541757
40	0xbfc521639178474c	-0.1650814495374625
41	0xbfde8b1fc1f3e7a5	-0.47724145832727977
42	0x3fc657129c6ebd10	0.17453224790867994
43	0xbfc83e00740f36df	-0.18939214388813405
44	0xbfca83c971921c68	-0.20714681668707446
45	0xbfdb31cec2cdc8b2	-0.4249150183087621
46	0xbfcd073921f39f8c	-0.22678293378634995
47	0xbfd5685e32bedeba	-0.3344951148569454
48	0xbfc80a1e81a637c4	-0.18780881243259107
49	0x3fc8894ff4aaf6b3	0.19169043966933472

weight f8 [50, 50]
0	0x3fb0d35a6b61633a	0.06572499391166967
1	0xbfb9eb47cd8953d5	-0.10124634521464711
2	0x3fc30e04aa5afbbf	0.14886530225882486
3	0xbfa62eec083fe6cc	-0.04332673645690263
4	0xbfa06b6426e5523e	-0.032069329975147984
5	0xbfc9f322559f0073	-0.20273236447065165
6	0xbfb8a81227e86411	-0.09631455873785934
7	0x3fb30305e60fca3b	0.0742648779558203
8	0x3fc579fd36850247	0.16778531229103263
9	0xbfb6da6185d314ad	-0.08926972882462066
10	0x3f9fb4f1f75b866b	0.030963688585762855
11	0x3fb708d8a1df6d7f	0.08997873260471144
12	0x3fb9cf10ad1f5237	0.10081581331844168
13	0x3fa54159f9791396	0.04151421709369811
14	0xbfb568edc743a89c	-0.08363233675814502
15	0xbfbc489b5c6d9f9a	-0.11048289305256134
16	0xbfb5f6b0aaff28ba	-0.08579544234013073
17	0xbfb5805d5be53f5e	-0.0839899396280521
18	0x3fc96d1960bf3440	0.19864194129914559
19	0xbf7c187de88fa214	-0.006859294729089988
20	0xbfa5a82ac3e84945	-0.04229863778540958
21	0xbfafac46bee237d2	-0.061861239243725344
22	0xbfa0375312723ef4	-0.03167209243940575
23	0x3fab8424e76696f9	0.05374255490032271
24	0x3fc05f5b9b35db3e	0.1279100902426879
25	0x3fc975067bf409db	0.19888382961660409
26	0x3f8ca72c1526d1f7	0.013990730662819735
27	0x3fb1608cffb1827a	0.0678794979335268
28	0xbfc225f1d2de7599	-0.1417829780229283
29	0xbfb596f379a59f49	-0.08433458061119582
30	0xbfb196b5b46d91b9	-0.06870589880924784
31	0x3fbf6a6ffc6b5c6c	0.12271785652716155
32	0xbfbb0d2ed45dd531	-0.10566990551690904
33	0xbfa8691720bd1ad5	-0.04767677569048138
34	0x3fab9e6f69c85b23	0.05394313970844269
35	0xbfa3e373045f293c	-0.03884467533460387
36	0x3f532a2a95284b5e	0.0011697212072518596
37	0x3faacc50f558ac19	0.05234005923224334
38	0xbf94fef51898ed81	-0.02050383532171685
39	0x3fc2d5a83a2b2c12	0.14714529838815388
40	0x3fba496883234ea6	0.10268262101754519
41	0xbf9861a5954c21de	-0.023809993016614565
42	0x3fb52559ba9aad43	0.08260117345587496
43	0x3fb12b5605a1391b	0.06706750523992293
44	0xbf9a13d525fd9190	-0.025466280406719444
45	0x3fad587a8e163f1c	0.057315664143173545
46	0x3fb00c85423485ae	0.06269104830109626
47	0xbfb675f7918ea487	-0.08773753455774812
48	0x3fb8ea6f21b170f1	0.09732718060098812
49	0x3fbd2354a58c5e29	0.11382035295206862
50	0xbfbce04a64718ff1	-0.11279740288006203
51	0x3fb9877866c2bcb6	0.09972336300664861
52	0xbfb4d9d5ced12066	-0.08144890116921175
53	0xbfc144eb36275585	-0.1349157347128022
54	0xbfb8a507bf7da650	-0.09626816201275656
55	0xbfb59bd34c0342c1	-0.08440895658282967
56	0x3fb9d2e87cb647fd	0.1008744530174965
57	0xbf87fdfd90832212	-0.011714917156852276
58	0xbfbf12513f8b3e74	-0.121373250974324
59	0x3faea62128d7ec14	0.059861217723629206
60	0x3fa8a6325df9ac32	0.048142980548469785
61	0x3fb8369b730846f8	0.0945832401123673
62	0x3fa7698965e93e91	0.04572705620796314
63	0xbf9d0c9516448ff2	-0.028368310436363182
64	0xbfb6b9c39016d722	-0.08877203243067958
65	0xbfbdd7878db2237f	-0.1165699692666191
66	0xbfa12cfcd6278b10	-0.03354635347547774
67	0xbf87a78a3df388ea	-0.011550025954822424
68	0x3fc5464e400ff029	0.16620805862464863
69	0x3fa435be6d3ecf6a	0.03947253306924277
70	0x3fb5c259dac81e03	0.08499681083059589
71	0x3fb3edc209ef72b7	0.0778466486221515
72	0x3fa927d05cfb1441	0.04913188109416256
73	0x3fc7bc9e7f928ffb	0.185443699160828
74	0x3fbc70c1154d222d	0.11109549303103768
75	0xbfbe674ddcd91b3d	-0.11876379625128393
76	0xbfc00dac291970e7	-0.12541725165181747
77	0x3f9d9e1719e3dfc1	0.02892337890168029
78	0x3fa587718d533695	0.042048977376549924
79	0x3f9b58d72e04b3ed	0.02670608728765338
80	0xbfb9822ea7b72d27	-0.0996426734411001
81	0xbfa8204117b965a9	-0.04712108053781645
82	0xbfbb99559dd10e6d	-0.1078084478659151
83	0x3f956c34e39b2510	0.020920587913484445
84	0x3fbda077b262fce2	0.11572979073661174
85	0x3fa88f41704aa04b	0.047967953641376036
86	0xbfb92f553315c298	-0.09837849137489696
87	0x3fb469c629d57dbd	0.0797389843114535
88	0x3fbc18875351ab0e	0.10974927696376488
89	0xbf99123391ed03f6	-0.024483495504004048
90	0x3fcc87de917fd940	0.22289640526259724
91	0xbf9cc95843d2b830	-0.028111819400401028
92	0xbfc053607e5cc61e	-0.1275444619182488
93	0xbfba171fa43294fb	-0.10191533812265512
94	0x3faea5940eb9e517	0.05985701255571934
95	0xbfb7d8db26a3d2a5	-0.09315271085126627
96	0xbfa2714166063e31	-0.036020320610188235
97	0x3fc3a611822ad1f6	0.15350550514052913
98	0xbfb964f88d6964d7	-0.09919694378313025
99	0x3fb24225bb9b5471	0.07132182913058373
100	0x3f9ea86e9a966deb	0.029939392266539782
101	0xbfb0b557bffd1165	-0.06526707112522485
102	0x3f8c66c48a78a146	0.013867888904386515
103	0xbfb39421028c36cb	-0.0764790183277128
104	0xbfb5a5f1d0564b64	-0.08456336342196163
105	0xbf8c96a0043cda55	-0.013959169511150874
106	0xbfc3c2105ad52e0c	-0.1543598598021706
107	0xbf83b468a59d2243	-0.009621446184284404
108	0xbfb6198c035ec78f	-0.08632731516152446
109	0xbfc4fd2b58fed453	-0.16397611470680093
110	0x3fbd1f430f6a1e9c	0.11375826956111229
111	0x3f9ba914ebc21f52	0.027012183084053128
112	0x3fbc347d09174d6f	0.1101759097285162
113	0xbf997456569dbb7a	-0.02485785392439819
114	0xbfa3253a5d713bb5	-0.03739340201047218
115	0xbfbb72f520e141da	-0.10722286274654583
116	0x3fb44f916b962d33	0.07933911205889359
117	0xbfa028f900c5ea2e	-0.03156259664952575
118	0xbfc38fad7dd1da29	-0.1528221954683471
119	0xbf43a718d07b98bd	-0.0005997534908288787
120	0x3fb5afb56d7305dc	0.08471235200979471
121	0xbfb3b60252262541	-0.07699598794547048
122	0x3fb1091fac8b5b30	0.06654546701916497
123	0x3fa4f46f837c1804	0.040927395630248525
124	0x3fbba8ea7fda1a68	0.10804620381723284
125	0x3fb8c097df849df9	0.09668873984320915
126	0xbfb9b838afa57a19	-0.10046724594347047
127	0x3f9cc449a2f8b144	0.028092527935016834
128	0x3f992e6d8a29237b	0.02459117084279992
129	0xbfbf6f05f59f7b0f	-0.12278783079771592
130	0x3fa9f6629ebfb0ce	0.050707895163073155
131	0xbfb1ee2853c0cf2b	-0.07004024548296843
132	0x3fc0c9d452a938ab	0.13115934406454718
133	0x3fba005e7247619b	0.10156812944422315
134	0x3fa5a47ce52479cf	0.04227056786679705
135	0xbfc2cb88ea044d62	-0.14683638979532093
136	0xbfa47dd863a49d53	-0.04002262321801688
137	0xbfb403c38c03db62	-0.0781824318727167
138	0xbfb8d1cf4f282994	-0.09695144350567936
139	0x3f6448aa9a9c9b79	0.0024760563000145145
140	0x3fbf838eff3cf6bd	0.12310117465400601
141	0x3fad047180f11570	0.056674525251348196
142	0xbfc23b790c232344	-0.1424399670852613
143	0x3fbbad8f88c8fb27	0.10811707581977413
144	0xbfbb3c66b24ddd46	-0.10639039853218887
145	0xbfb2c738eee9f8a9	-0.0733523925100338
146	0x3fbdcb2428f2856e	0.11638093948069692
147	0xbfb16e9c3a437bf1	-0.06809402868701377
148	0xbf959a7355889efd	-0.02109699449115875
149	0xbfbb03b8ae7f5fad	-0.1055255342502039
150	0x3faeecda4edb8053	0.06040079319586824
151	0x3fc1904c02d9a41d	0.13721609248321523
152	0x3f8865f3925b16a9	0.011913206962513927
153	0xbf3ff3786da4e0b1	-0.00048753442901584414
154	0xbfa16df2b7b53622	-0.034041962552333396
155	0xbfbdd4fda9efee78	-0.1165312328229734
156	0x3fc5c821e109d0b2	0.1701700543231986
157	0x3fbd4d272c8c9fef	0.11445851171140452
158	0xbfb11db11d92f2a0	-0.06685931179067461
159	0x3fadaaafb88caf70	0.05794285896112583
160	0xbf7f0cbad0de67d7	-0.0075804994102330525
161	0xbfa318369fab8b42	-0.037294108382204275
162	0xbfade3b95c76e41b	-0.058378021752510466
163	0x3fb62bbd4e63ce85	0.08660491145911393
164	0x3fb8bb31e6b4e659	0.09660636789785694
165	0x3fa87b70cb0736bc	0.04781677702304196
166	0x3f9e4e113cc75f9e	0.029594678244250987
167	0xbf8ec04ce0d055e6	-0.015015221224568397
168	0x3fbd118b95433c12	0.11354896921260174
169	0xbf8f8416e8fd5749	-0.01538865946319458
170	0xbf912998b9d58baf	-0.016760240881364016
171	0xbf917dfe29822f7e	-0.01708218696926122
172	0xbf913630bbd88ebc	-0.016808282342153133
173	0xbfb0ac47cd8e22e4	-0.0651287915080832
174	0x3f68a1c4e0c3f363	0.0030068249963037127
175	0xbfb404bf0c5255b0	-0.07819742251225281
176	0xbf7150c8853f7b7f	-0.004227431567385475
177	0x3fafc87ecd1c0ad6	0.062076532876764
178	0x3f9f5914b52db905	0.030613254125847273
179	0x3fa424caa94083dd	0.03934319797577477
180	0xbfa071fa447bca86	-0.032119580135163736
181	0xbfc1170f5ebeaace	-0.1335162365552009
182	0xbfa7b3f8a45d9d4b	-0.04629494673172959
183	0xbfb9e58e9ee4e775	-0.1011590135502994
184	0x3fc09b9db7d4cc1b	0.12974902607092606
185	0x3fbbb813d4aa26ef	0.1082775491905996
186	0x3fc7048de260520b	0.17982648423698352
187	0x3fc2f30e46bcf7b7	0.14804247335444895
188	0xbfa292030d2c44d6	-0.03627023254206001
189	0xbf9e284db131cae7	-0.02945062059411443
190	0xbfb43c5137b8ca94	-0.07904536829372893
191	0x3f9a8c89abf0f63a	0.02592673408456945
192	0x3fc2a50183439c87	0.14566058072452767
193	0x3fb32780a17a8000	0.07482150976511548
194	0x3fb1082c9d147c3d	0.06653097948991245
195	0xbfb1a0441051a421	-0.0688517131653872
196	0x3f9f3a3da5d83569	0.030495608565663277
197	0xbfb3048964bbce94	-0.07428797444645802
198	0x3fbbe8e182a19283	0.1090222305225073
199	0x3fbd716795761be9	0.1150116672416598
200	0x3fbfaeead1625e35	0.12376277553482214
201	0x3fb352525e1a15a6	0.07547488019380086
202	0xbfcc3a5afcccb304	-0.2205308660862998
203	0xbfa25a7d51808012	-0.03584663028618719
204	0xbfb4510ce53d7869	-0.07936173054392416
205	0xbf9b3a7b156ad3d4	-0.026590274030883723
206	0xbfaf97cb69ff1b45	-0.06170497578528126
207	0xbf873a9c56a2dea6	-0.011342259782721808
208	0x3fb9c168efd74248	0.10060745101441981
209	0x3f8f07432b73ca00	0.015150570643958083
210	0xbf96d59f4fcfb869	-0.0222992794478433
211	0xbf88c66feeebce45	-0.012097238997262791
212	0x3f9efa0964d6c837	0.03025068929645888
213	0x3fbd7044eb061471	0.11499434221157558
214	0xbfa4c520d79da879	-0.04056646949796145
215	0x3fc0932e73feea4f	0.12949162162643055
216	0x3fb472c57d2bdec5	0.07987627321187592
217	0xbfc07cafb3136ec8	-0.12880512470188976
218	0x3fc340caa7f577e0	0.1504147834884284
219	0xbf9680947e81120d	-0.0219748689853692
220	0xbfb74ec054e56619	-0.09104539940508295
221	0x3fbcb51a926ee430	0.11213842463520574
222	0x3fbb4706d7f8d425	0.10655253193620291
223	0xbfa61e37622ba8fc	-0.043199282392224675
224	0xbfb133a24c5b92ab	-0.06719412197305512
225	0x3f9534d7e655d3ce	0.02070939391474607
226	0x3fa4b7c1daeb153a	0.04046445653288307
227	0x3f8653043674254e	0.01090052882365691
228	0x3f817d3b9bb57c77	0.008539643945083093
229	0xbfc0c34410f0c730	-0.13095904185461782
230	0xbfaa2f8fca7de2cb	-0.051144116848211484
231	0xbfc009531c6e2a0a	-0.1252845658130613
232	0xbfb5dff4d3cdb3c5	-0.08544855280861359
233	0xbf8d66baeb1df717	-0.014356098461344708
234	0x3fadb4dc4fa67541	0.05802048179905706
235	0xbfb6601fa0e8c344	-0.08740422895858752
236	0xbfaf69d29317bccd	-0.06135423703732954
237	0x3fc4b1314de588b3	0.161657488856752
238	0x3fa52c71527b83a0	0.041354695624028937
239	0xbf8b678cf4c2932f	-0.013381100863918497
240	0xbf9545183464ab68	-0.02077138728888475
241	0xbf9398935d1b8dcb	-0.019136717374647987
242	0xbfabd03a69c28951	-0.05432302990927219
243	0x3f7a777499edf266	0.006461577867295709
244	0xbfa1a7cb7a9693dd	-0.034483298029307476
245	0x3fb077e34278fd87	0.06432934162966407
246	0x3fc06cff2624b40c	0.1283263145682273
247	0x3f592534bacbef63	0.001534749502012788
248	0x3fb8a25270e614b1	0.09622683769528596
249	0x3fb3366aba8cff99	0.07504908613645823
250	0xbfb2cb1a07c8b481	-0.07341158571280638
251	0x3f05df1a537ac8d3	4.171656695230318e-05
252	0xbfb9c51df9eff125	-0.10066401817306721
253	0xbfa4f2e4c1d0668c	-0.040915630968993616
254	0xbfa40031dedc7c04	-0.039063986258263156
255	0x3fc03e0e280d8dfe	0.12689377742491098

bias f8 [50]
0	0x3fc7d8128cc4b9bb	0.18628150819263375
1	0x3fac49a6962706c6	0.05524941046634306
2	0x3fa9f7045f542405	0.050712715756226635
3	0x3fb4e85674dc9f6b	0.08167019227096055
4	0x3fb565ed607cb7df	0.08358653646129664
5	0x3fb85db8177dd1d0	0.09518004010698822
6	0x3fa05a513f100a42	0.03193906683738536
7	0x3fa362e0d46dcd8b	0.03786375611425815
8	0x3fbc9ff24a8fd031	0.11181558914523816
9	0xbfb0ff4023ae842b	-0.06639481421599729
10	0x3fc3e068dcbbce2e	0.1552859380532125
11	0xbfbdce6b0f5316a9	-0.11643094181189419
12	0x3f988661ef227452	0.02395012876569453
13	0x3fb8bc239403768e	0.09662077296840207
14	0x3fa0509e5cc8f7dd	0.03186507113103663
15	0xbfb85db025a69d71	-0.09517956656656225
16	0xbfb3ca0e36f398e1	-0.07730187265005696
17	0xbfb7613130846991	-0.09132678446295574
18	0xbf8ec7e42e5b4a3b	-0.015029699959460454
19	0x3fad7a149918c704	0.05757202500207195
20	0x3fba4f5348a337c8	0.10277290843370601
21	0x3fc6b216b902cb43	0.1773098376630405
22	0x3fc2200481c92735	0.14160209977335972
23	0x3fbd125f57861f66	0.1135615910226285
24	0x3fb42f52286395fe	0.07884706007060768
25	0x3fbab959cb032cfc	0.10439072805745647
26	0xbfb93f480bb0ae2e	-0.09862184796718829
27	0x3fb0c9892231a031	0.06557519039927297
28	0xbfa5df1df1c0bc0a	-0.04271787239155607
29	0xbfad5e4f45943b56	-0.057360150569471344
30	0x3faad267f87eb9ed	0.05238652141939668
31	0xbf9a45cde40d73db	-0.02565690712377831
32	0x3fa4f848a546cea3	0.04095675485168939
33	0x3fb1069aa312abec	0.06650701981804702
34	0xbfb4986eef0baa41	-0.08045094810555843
35	0xbfa47bd6e7d291e4	-0.040007320212030156
36	0x3fc3ff8517dc6c06	0.15623534836854008
37	0x3fb0cfdd4008de06	0.0656717568716588
38	0x3fbef57fe02d0523	0.12093352530520866
39	0xbfbb5da5c448266b	-0.1068976978496267
40	0xbfc1af9f803939c0	-0.13817209015765108
41	0xbfb33a7526c1be2e	-0.07511074253283631
42	0x3fb955075b0f84b0	0.09895368550452832
43	0x3fa42dc316d5e9e7	0.03941163686518561
44	0xbfc26ee7438f57f3	-0.14400950239968288
45	0x3faa6a6ec2f86495	0.051593266773303594
46	0xbfa8336dcbc56772	-0.047267371296313324
47	0x3f82378bba15af49	0.00889500772128539
48	0x3f682fb6e02046b2	0.002952439478584556
49	0x3f93ae8d3152b785	0.019220548758930107
