lasa_models/5/skel_model_Khamesh.pt (torch, 99247 bytes, 18 tensors)

R f8 [20, 20]
00000000: 5acc 2867 1e17 d83f fd50 2d00 c3ba ee3f
00000010: 62b6 4e6b 8bf6 e13f d6f0 93d9 01c4 d43f
00000020: 0380 8dea 5e68 e93f 8452 3d2e 7f92 e93f
00000030: b4bd 617a 8c6f d53f 508c 5f9e c78b 973f
00000040: 3868 23ae 0a6a ec3f d4d5 f20a 4793 eb3f
00000050: 7e01 6842 5ea7 ec3f 88cd 429b e8cc f13f
00000060: b244 c88b c325 c23f ef04 ccd9 ce79 dd3f
00000070: 944b 23af 1fa6 ea3f 683b d907 6a27 e03f
00000080: 1462 ade5 b69f e13f 62bf dce5 195f dd3f
00000090: 7292 b06f 041d c13f a07b 4db7 8914 dd3f
000000a0: 46f0 2875 2b07 da3f b208 eb20 3bb4 d53f
000000b0: 74ed 7f17 5d38 c43f ee92 50b1 579d ca3f
000000c0: e52c fff5 9390 e73f 17c0 d4b2 3cef ec3f
000000d0: 81c8 1021 b8e6 e83f c19a e0cb d329 e83f
000000e0: ec80 a636 1c1a a83f 000a b1ec 9beb e13f
000000f0: cd2c e3a7 902e ea3f 0c4b 8c0f c6ef ea3f
00000100: 12f5 5282 5e4f e03f 6f51 60a1 f046 de3f
00000110: 2aff 46e4 2097 de3f 610a 3ec0 6b2a d43f
00000120: 6a15 8c7a 2feb e93f 7fbf 4fb9 0f67 ec3f
00000130: 141f 25cf 5e1c 963f 8a6b a63c dc30 e93f
00000140: acc4 2c96 0f56 ed3f 7a77 cde8 b9ed d83f
00000150: 77df d6b1 d9e0 e23f 5133 5513 842d dd3f
00000160: 9a14 20f9 31be e13f 50e0 f25a 5745 c13f
00000170: a447 e635 ab76 e63f e3d2 f271 c0cb e43f
00000180: 040c a15a 6ba2 e33f 134f fafb d24a cf3f
00000190: 0f2d b48f ca05 cd3f 04b7 f0e2 f01e ce3f
000001a0: d75b 3bfe 4ba4 db3f 4cd4 f92e 652d f03f
000001b0: 356c 83e7 f2bb e83f 4f76 db48 4ad4 c63f
000001c0: 6443 74f7 c486 e13f 4d7b 03e4 bd65 e83f
000001d0: b8f3 34ae 93a3 e03f 0ba4 0874 4498 c23f
000001e0: 0e37 72da c8e2 ca3f 7230 4603 2a57 d43f
000001f0: b04c 24c1 0d8c f03f 3ac7 e5fe 3119 e03f
00000200: 0c69 dcdc 234b dc3f d1bb 8f40 1de3 e43f
00000210: b545 f571 e9f3 da3f 012e 0da5 5b13 e13f
00000220: 07fe eafd ae9f ee3f 12b7 02bf a578 b03f
00000230: 0f60 f1ef c0fb cf3f d1ba b817 a077 bd3f
00000240: e2fc 2e40 3931 cc3f f3db 340e 5dee d53f
00000250: 2210 4117 8dc4 e23f b47c 4ae0 57e6 f03f
00000260: 1e8c 6fdf af99 b73f 25c0 6fb4 4e32 d33f
00000270: 5422 ebe3 876d 903f b796 607b 809c e43f
00000280: 653b 17f6 43bd e13f d1c3 68d0 a332 eb3f
00000290: 0706 20a2 0357 dc3f b80c 5b8c c297 e03f
000002a0: 4479 d409 ebfe c33f c783 d45a b8c3 ee3f
000002b0: 295c ecc7 e7eb 743f 30a4 5170 fd50 e13f
000002c0: 0773 0811 3145 eb3f ecbd adec b8d1 dd3f
000002d0: 3cea 8f23 316b e73f f8ae 4362 e4e3 bdbf
000002e0: 2672 6a42 8dbc e43f 3256 4728 b0cc e23f
000002f0: 29e1 713b 118a f13f 7c69 5b03 71f6 e13f
00000300: 7446 4a83 26b1 d73f 11d9 e879 4a1d ef3f
00000310: 2d77 0851 5cb0 e83f c4ae a1d3 4ef7 e43f
00000320: 20f6 3a70 20ad f03f 5949 62e6 86fb c03f
00000330: 9060 a194 f327 e23f 3ae4 538e 844d df3f
00000340: db36 6e06 a7bc e53f 3343 5b91 b367 e83f
00000350: 1755 9508 c9e1 cd3f 7b22 a0bb 19e1 e13f
00000360: 897e d771 9132 e43f 0e28 a6aa 5d76 e93f
00000370: d121 7d18 6822 d93f 6bc3 8842 8ad7 ea3f
00000380: 47f7 92f1 b440 a53f 17ae 245a 79ac d83f
00000390: 908e e10a c427 c83f 93a7 fd29 46fe db3f
000003a0: de36 1596 2bfe d23f 5400 05e4 c5c0 d43f
000003b0: c32c 469f 0fdb e73f 8c25 461e 506b ed3f
000003c0: c8b5 af71 f2c6 e53f a61a bc51 f609 c93f
000003d0: a28b 0aeb cfa8 e23f d4e6 1e8a 672a e13f
000003e0: 7c44 85d7 ae2e e13f 2dd1 857e 50b7 dc3f
000003f0: d01e 3c46 9e11 cf3f f2fa fb0e 8f8a d33f
00000400: bede 1408 30c4 d93f 24ac 048d cbe0 e03f
00000410: e00d b864 1ee5 de3f 9464 beca ce0f e63f
00000420: fea8 2253 c798 e53f 9dee ddc4 fd69 e23f
00000430: a2c4 c896 e052 cd3f a134 9d55 570a e63f
00000440: 4c1f 4491 7702 e23f 0a8d 4e38 9028 e13f
00000450: e31a 698c 2b69 b23f aa4a d828 a320 ee3f
00000460: 152f 2afc 47ad dd3f 3575 2b8d b6eb ce3f
00000470: 0b6b a8f9 a2be c73f 3d8b 3f0d 3ecb e33f
00000480: 940f 6186 3238 ea3f ef98 4ff1 8dbd de3f
00000490: 3d11 fbab b361 6e3f 845c ba19 7d22 ca3f
000004a0: 6e1b 172a ccac d83f b33e 5dce af5d cf3f
000004b0: 701c 0017 5d27 e93f c438 09d7 623a d53f
000004c0: 5181 65ba 8ed3 e63f 293b f059 f1bf c43f
000004d0: 96ec ed69 61af db3f 4e0e 3c76 77f8 e33f
000004e0: a026 a49f 5971 da3f 46ff bedd 5f16 e73f
000004f0: 69a1 ea06 99dd ec3f 63b0 6e28 9eb6 e73f
00000500: 235f b7d4 a9a1 e43f 6249 18b5 9e04 ec3f
00000510: 46cf eb42 4b95 e43f be8d 9207 0150 e13f
00000520: 33a5 df7a 8c63 ea3f cd90 6f36 c7b5 f03f
00000530: 4656 83f7 602e d53f 4cc1 175e 72e8 d53f
00000540: 0a80 78e0 639f eb3f 14a3 c218 080b ee3f
00000550: 0cae d624 455f e23f a27d 6b37 a586 e53f
00000560: 6c92 7a4f 1291 d33f 0139 922d 60ea e03f
00000570: 4293 75ac ad96 e03f 9ebb 547b 66a9 e13f
00000580: 261a 1665 fe59 ed3f f0f7 9cb8 3786 e53f
00000590: 66df 0def 6bbc cf3f 0a9e 8c8f 374e cc3f
000005a0: 8e04 ab73 f3e7 e83f f466 f656 f4c1 e33f
000005b0: d582 7571 0d7b da3f 0ad4 26cb 8d74 da3f
000005c0: 8e9f 1a06 c0c3 e43f 0012 9f7e 97a7 d53f
000005d0: 6917 b17d 8f4b be3f 7642 d67d 2c8f eb3f
000005e0: 16b7 5e4a 800f e53f a493 6dd2 38c2 e43f
000005f0: 7924 6c1f fec7 ed3f 4806 7840 e67d f03f
00000600: ef06 b9c7 ceb7 c33f 708e d3dc fd58 d93f
00000610: f272 bbad 8ea3 ee3f 0e7f 8850 44b4 e23f
00000620: 9a46 56a3 91df ea3f 3455 f53f 48be d93f
00000630: 8a07 1587 a381 e33f 6898 be17 4481 ef3f
00000640: 1c67 3946 6205 f03f dd70 2171 b293 e23f
00000650: 2728 1890 723d e63f eba5 00f4 5246 e03f
00000660: 25ea b303 5802 e33f 10cb 20cf 67b4 aabf
00000670: e507 5ba0 eccd e03f 2017 3cee 4bc0 d93f
00000680: b6df 8694 5a82 e83f 9328 b1f1 ac32 e83f
00000690: c065 3ed8 6c0d a83f e6c6 a060 062e e93f
000006a0: ac0f 6ff1 6f86 e43f 2d8b 6798 1aee c33f
000006b0: d96b ff41 ef64 d43f 8318 60bc caa6 b7bf
000006c0: 11b3 d863 7723 e13f 035e f2db 3d4b bd3f
000006d0: bc25 be6b c247 d83f e666 8d6c 1eec e63f
000006e0: 451e 671b 8c7a e83f d67b b5a8 93f5 e23f
000006f0: 6527 0007 1c93 d23f 058d 364a ed61 df3f
00000700: 64e4 b53d 4cf2 ea3f 2bdb 092c 3776 d23f
00000710: 266c 11d3 ba70 e83f faab a02b 19d1 b0bf
00000720: 5693 edaa 06d9 e03f 9c78 8818 7408 e63f
00000730: 6e0f 329c b486 eb3f e433 085b cde6 e13f
00000740: 7449 10c6 1a99 c63f 238c c486 1187 d73f
00000750: dd9b d4b9 9ad4 df3f 4e71 dc2f 9aee e13f
00000760: 77cb 2b98 f94a df3f 26df 800b 8045 db3f
00000770: 8830 3942 7da4 d33f 3c0a 9e9b bc07 d63f
00000780: 9090 d042 54a5 a53f 9c3f 3a62 c584 e33f
00000790: add7 bcb7 d4c9 e93f caa4 a383 5b3d 9d3f
000007a0: a462 763a 8b3c d53f 5827 d22c 7b24 f03f
000007b0: 6ef0 d4fb c089 c83f c422 2d48 c158 e33f
000007c0: ee49 35f2 85a7 c73f 2209 2624 d9d2 a23f
000007d0: 20ef 7537 ff74 ec3f 7fe2 320b 0c85 f13f
000007e0: 9cf8 81c2 cffa df3f f255 eab7 8515 ae3f
000007f0: 4d36 e288 8064 e13f 81c0 61cd 1dbc cd3f
0.3764110572257714 0.9602980617005695 0.5613457771157295 0.32446333167878316 0.7939905720813843 0.7991329100719473 0.3349333949217581 0.022994154969534997
0.8879445458544586 0.861728211769043 0.895430688571693 1.112526518333512 0.14177746129329233 0.4605595709727614 0.832778780046612 0.5048113015453568
0.5507463918575604 0.4589295143841722 0.13369803861236879 0.45437853718424925 0.40668760720632624 0.33912542547853797 0.1579700817818367 0.20792671354242692
0.7363986782669626 0.9042037480157913 0.7781639715015133 0.755105875204059 0.047074205084983806 0.5600108740694054 0.8181842116404369 0.8417692474052685
0.5096886201278343 0.4730798316898221 0.4779741505881129 0.3150891663901004 0.8099591630458864 0.887580739914469 0.02159259929001596 0.787214392144379
0.9167554791548773 0.3895096562827046 0.5899475549149277 0.4559030712887778 0.5544671884278103 0.13492862645012105 0.701985936424752 0.6498720384175524
0.6135765810107618 0.24447095206834799 0.2267392350844166 0.23531924325055098 0.43190288379031244 1.0110828242298053 0.7729429742570405 0.17835358197673876
0.5477013428772861 0.7624196484938267 0.5199678804852885 0.1452718321391163 0.21004591623607677 0.31782007522338696 1.034192804775369 0.5030755976169765
0.4420861870618331 0.6527239094701774 0.421137200629427 0.5336130355512411 0.9569926223120441 0.06434093392701026 0.2498704120250754 0.1151065881647171
0.22025218614542214 0.34267355334617305 0.5864930586035408 1.0562361489644845 0.09218882756208344 0.29994552250627954 0.016042826925316625 0.6441042337143789
0.5543536955318414 0.8499316282742432 0.44281092484024537 0.5185253850289859 0.15621698360423342 0.9613916181589212 0.005107789415681054 0.5411364740113012
0.8521962483096964 0.4659254370990016 0.7318349546979515 -0.11675860785515713 0.6480165764983823 0.5874863421146925 1.0962078401626718 0.5613331857269226
0.37018740483572476 0.9723255520864617 0.7715283949544066 0.6551889546803626 1.04226726379364 0.132675993435053 0.5673768904625991 0.48910631083669254
0.6792788625332052 0.7626588667863871 0.23345292014224903 0.5587280907212312 0.6311728690597685 0.7956989605893356 0.39272501365169626 0.8388110446449962
0.04150929879095471 0.3855269794755442 0.1887135556345254 0.4373946580950527 0.2967633214619648 0.3242659308198246 0.745490847666041 0.9193497267998949
0.6805355282246461 0.19561652174907812 0.5831069555900863 0.5364263246221648 0.5369486054788832 0.4486886249135463 0.24272516660152244 0.3053319593745264
0.4025993422433024 0.5274408106100776 0.4827342971404658 0.6894296607817005 0.6748997329462154 0.5754383893067431 0.2290917145014975 0.6887623474264225
0.5628011548260274 0.5362015819304429 0.07191726854317042 0.941484050536322 0.4637012445971192 0.2415683926873641 0.18550526800466857 0.6185598620180383
0.8193600296585708 0.48031948628921745 0.0037086972441519304 0.20417751079796542 0.38554672346474816 0.2450465924871331 0.7860551308848596 0.331688604351154
0.7133248940045097 0.16210762874148912 0.43257937760035625 0.6240804013509178 0.4131683405872568 0.7214812594392945 0.9020505080307376 0.7410422124571706
0.6447343020072122 0.8755639588364768 0.6432243639996862 0.5410161159419926 0.8246519470095904 1.0443794371031345 0.3309557358855709 0.34231242359876
0.8632068046754295 0.9388466342544199 0.574129650068643 0.6726862032336849 0.3057294632110714 0.5286103143751292 0.5183933609338072 0.5519287499245029
0.9172355627386579 0.6726339917875048 0.2479376713997638 0.22113699445002083 0.7783143290654537 0.6174260805593961 0.413760529327232 0.4133638843443924
0.6488952750414556 0.33835399022453316 0.11834046190878457 0.8612272699120485 0.6581422283686347 0.6487087354586163 0.9306631673545233 1.0307371633829394
0.15404686691368094 0.3960566193111168 0.9574654954154467 0.5845052311815111 0.8397911253143377 0.40223890539103313 0.6095750463793916 0.9845295394668598
1.001314424813649 0.5805294236738764 0.6950009168952008 0.5085844770121047 0.5940361091919085 -0.05215763476771518 0.5251372463173963 0.40236185326681273
0.7659123326220569 0.7561859818026896 0.046977425953808716 0.7868682753816898 0.6414108005051182 0.1557038540041388 0.3186605591305898 -0.09238879298217921
0.5355793905378922 0.11442934627336147 0.3793798496413634 0.7163231010592568 0.7649593863688514 0.5924776358696089 0.2902288502087827 0.49035198447582246
0.8420773701938171 0.28846530247340024 0.7637609598563173 -0.0656905871880297 0.5264924372137141 0.6885319213067933 0.8601935435003563 0.5594240930528227
0.17654738112521395 0.36761892472185503 0.4973513426543244 0.5603762564456163 0.48895110950905213 0.42611695407275574 0.3069146296227321 0.34422221371656625
0.0422769862709923 0.6099574011332041 0.8058875645281113 0.028554372701283616 0.3318203040048877 1.0089065314118297 0.19170391365503597 0.6045843515103901
0.18479990316934852 0.03676489416376884 0.8892818530289084 1.0949821889354607 0.4996833228577857 0.05875795240460126 0.5435183213719 0.23230335739527067

L f8 [40, 40]
00000000: 4525 f714 7930 eb3f 08ff 8381 6e06 ee3f
00000010: 91cc 5113 f95e e63f ee86 3097 e3ea d43f
00000020: e2fc be65 35b8 e93f 8454 c168 fabf b5bf
00000030: db0b cd77 5ea1 dd3f 27fe 1dfe 2c05 c63f
00000040: 10a0 7ab2 2896 d83f 58b9 7eef 21fc b23f
00000050: eab5 b0fb f67a e13f 114a feaf a0e3 d13f
00000060: dd77 dc59 e17b e03f 9cf9 bcb1 7317 d63f
00000070: b93a 404a cbfa db3f 4e12 8da3 1cec db3f
00000080: 3771 e8d0 15d3 d33f cd3b 0685 2d29 e03f
00000090: c7c4 22a3 ced4 ce3f 38d5 ac96 f96b 713f
000000a0: 4e21 2ca4 207c e43f dc93 d453 8821 c93f
000000b0: 90b8 17ed b2cd d03f 4fff 4f02 54a9 ef3f
000000c0: 46f9 88f6 dfa8 e73f 6bb5 9f03 008a e93f
000000d0: 0b3c 7627 0d9e c83f e4f0 6e9c dc7f e03f
000000e0: 9f80 6020 dcf1 e03f e309 a573 71ae a0bf
000000f0: c986 d192 d016 a83f dfb2 d571 a522 c83f
00000100: 9e79 aa99 676b aa3f 0e84 2bec a1c4 e23f
00000110: f5e0 f368 cae1 e33f a8c0 2d62 bd6a ce3f
00000120: 4991 6e44 8536 82bf f586 fddc 6f03 e93f
00000130: 3ffc 9770 3818 df3f 3ac0 cd78 82f4 d83f
00000140: da10 2c7b 2676 9b3f f28a ea49 13c7 ec3f
00000150: d5ed bda2 3243 e33f dc5a c6fc 9959 d83f
00000160: d522 b913 6611 ed3f 33e9 078b 1fbf e73f
00000170: 72d9 3582 98a8 df3f 7923 b4ec 71e0 bf3f
00000180: ffdc 2e9e b765 ca3f b7d1 4524 7c0d de3f
00000190: 4110 0a3c 52df d73f 0cda a0fa 3589 ca3f
000001a0: 9a6e d1e1 24ac c33f a2b7 cf02 3cfe ef3f
000001b0: e067 8ce9 e401 d63f c3ad 712e b8b1 ea3f
000001c0: ecdc 6640 6e76 e53f 2d7e 0b5e 8e76 ad3f
000001d0: b2d7 9f07 045e df3f 0563 e6a8 cb60 e43f
000001e0: b6c2 a669 9fa5 c73f d7af 97a1 9c3f f03f
000001f0: 29fe 8c67 36ab ea3f 6ab6 cd75 0e2c e73f
00000200: a8bc 4dfd f169 d13f e378 0dd2 098f ed3f
00000210: 27c7 4e40 0311 e13f 9431 1195 4a50 c93f
00000220: a9e1 2844 658a e73f 5f0a 104e 8516 d63f
00000230: ebdf 946e 03af e73f b0ab 4ce2 b896 e13f
00000240: eb3c 5254 b84f d43f 10bd ae23 9615 c83f
00000250: 1322 8982 3f63 d53f 6b35 216f 9f4f e13f
00000260: 159d 1a0f 0544 de3f a7bd 33ad 5efd e83f
00000270: df98 6f4c 87c9 b23f d73c 115e b5a6 ed3f
00000280: cdb4 5f01 62d3 da3f d002 c2e8 0d27 e23f
00000290: 0075 7cff 7cd0 ef3f 26e3 227b 0594 e13f
000002a0: aa81 b6ea dd5d e03f c0d1 84d9 8bf0 e23f
000002b0: 42d3 b509 f74b f03f ef69 c0e1 9bec d83f
000002c0: 23eb b2c9 352b e43f d7bf 0be6 f3b5 e03f
000002d0: c403 a534 26c2 d73f 7c38 1e0d 3206 df3f
000002e0: af91 585f 0652 d83f e539 d004 75a7 ec3f
000002f0: 8122 a7e1 c003 de3f 98ef 1d89 70f6 ef3f
00000300: 587c ddc5 5741 e03f 37d3 0b7c 3ff8 c23f
00000310: 8c82 8d41 c5b2 d23f 1a32 ad82 f840 d73f
00000320: a0a2 66eb 45a1 cb3f fe34 74e1 42f8 e03f
00000330: 7785 65b1 f97d d33f d8a7 5d89 e53f d43f
00000340: 8a98 d8a1 aa4a e33f a6ef 2e2a ac41 e93f
00000350: abe4 cdab 3ebf cb3f 3fa8 ffdc f7a0 d13f
00000360: 8e08 107c 57e7 ca3f 1910 bb62 68e4 e33f
00000370: 98b7 67ea bfd3 db3f c4c4 1271 b5a5 e93f
00000380: e10f a0d4 95b3 e43f c9c6 6ec3 da09 c43f
00000390: 2682 03e2 30f2 de3f 83e0 ef46 8708 ea3f
000003a0: 4dd7 1fc6 9332 e83f 414c 2d9d 05a7 c63f
000003b0: 4e9d a559 336b e13f 2543 8f2c 4b34 da3f
000003c0: 293a 7297 b60b c83f 822d 5fd4 785b d63f
000003d0: ee7b a858 a2ef c4bf 15e7 0f59 b6f4 cb3f
000003e0: d8b8 f17a a921 df3f 227b fb4e 946f c83f
000003f0: a91c 4737 4683 95bf 2edf a6ac 8401 af3f
00000400: c3b9 60ef a431 c63f fa6a 04d0 a96d d83f
00000410: bc16 f5b5 09df d33f 9e70 be23 3e8c e33f
00000420: 8065 6176 9512 d03f 0b73 3a05 6209 d03f
00000430: 87bf edea 65ce b0bf 35e4 1191 c61d c63f
00000440: 7087 a6a8 ccec b13f dc33 3acf 3042 b83f
00000450: 60b4 edde 6f54 cf3f f993 0cfb b85c ba3f
00000460: b9db c997 163c d73f b1bf bb59 b9c9 d03f
00000470: a8e0 3b67 c1fc d33f 4ba3 a115 4f5f c83f
00000480: 566e ea98 ca33 e23f b142 2905 db0f d53f
00000490: 363c 5411 8021 e13f 0aa6 ce8b 0c68 d93f
000004a0: ff2c 7d48 e80d d53f 2c58 a0af 67a7 db3f
000004b0: 924a 334e 2562 b23f 4ecc d158 9dae d83f
000004c0: d529 6a47 bd48 d33f 393f 0a0a 9c12 d93f
000004d0: 9713 dec6 88e7 bd3f ed19 9fba 9cbd 963f
000004e0: e669 0491 84b6 a63f 05ea 7ed0 4d18 cf3f
000004f0: 77cd 0618 b007 b3bf fafb 7035 9742 e63f
00000500: a790 f19d db96 e53f 79d3 bc5f fe0c 9c3f
00000510: edeb cb99 64e9 ea3f 3e2b 99d4 5216 d03f
00000520: 5472 3900 338f eb3f f792 99e2 5662 f03f
00000530: 0711 e141 94b0 ee3f 0fa5 f06a bdc0 d23f
00000540: 4cf8 a7ff d65a d83f 3335 386b 6fe7 da3f
00000550: c16d 8137 a6c0 e63f eb39 dae1 4733 e03f
00000560: 08ea 8c14 1e6b d63f 5679 2697 0663 e33f
00000570: a6f4 7988 3dc7 d83f 16a5 dcf1 3fd8 dd3f
00000580: d27d a073 67a7 df3f ba23 b55d e107 e93f
00000590: 894d 26ca 02f4 d33f 7dd5 9374 7df2 e63f
000005a0: 26fa 0d31 db35 e73f b465 8ade 9dc4 da3f
000005b0: dba5 bece 937a d03f 2903 1f7f a263 d63f
000005c0: 9c81 8334 72bc e63f 60ce a596 1fbe e63f
000005d0: 6c5d 2c71 5078 e03f e7a0 9f46 fb44 c63f
000005e0: c2b6 f1dd 6d72 b33f 0740 87fd 6569 e83f
000005f0: 4e3c 432d c489 e63f 1804 f449 e986 f03f
00000600: 4d5c 08d3 63b4 db3f 8a2c 6e7c a6ef db3f
00000610: 1763 1e96 37b3 f13f 149d eb3c ac15 f13f
00000620: 5631 2950 b479 e33f a6c6 111e cefd cc3f
00000630: ba21 beb4 4524 c13f 153e 3be1 4c1c e43f
00000640: 7f71 eaf9 5bee e13f 1439 7946 1136 e23f
00000650: 8e82 363a 3dca ec3f 49d9 95ce ccfc e13f
00000660: 89de bb04 c0ec d03f 5ba6 77f4 4e60 f23f
00000670: 00ee 2ee1 8752 e83f 398d 11f7 6322 bc3f
00000680: c58a ed96 dee4 a8bf 499d f687 63a8 e03f
00000690: e172 5d9b eff0 ee3f 6ad9 b6a3 da2a db3f
000006a0: 4821 a0b5 0780 913f c0c2 10a6 fa1e e03f
000006b0: 45d5 e609 dc1d fa3f 3967 c39b 818c d83f
000006c0: 792c c409 e271 e83f 6530 a1cf d97a e63f
000006d0: 0d8b 4e24 0e4a e13f 5401 9a82 ca0d e63f
000006e0: c01c 9825 1e18 e53f 238b f64d 8230 ec3f
000006f0: a0d3 e6e9 c2c8 e83f c3c5 b7b3 48be c43f
00000700: bc0a 47a6 8ef8 e13f 79e1 a101 28a5 c53f
00000710: fe59 c0d7 88c0 e93f 2399 428b 32d6 a2bf
00000720: 73e0 4a4f 6777 d93f 3d20 f244 9458 e33f
00000730: 7347 6cef b77e c03f 2e53 08f0 926f e63f
00000740: 6cea c5fd a90e b33f d59e a296 8912 bbbf
00000750: 75b3 1a9d a3fb e43f e816 ec64 4082 ed3f
00000760: 3026 45bb 01f2 ef3f 2982 154b aff3 db3f
00000770: 5997 d111 13ec e33f b008 c8cf 2a0d ab3f
00000780: b10a 29dd e752 d53f fd1b 6944 d649 a53f
00000790: 7c4a 7105 5dc3 e33f 5420 05c4 8d40 d13f
000007a0: f21d ec58 0b9c e83f d18f 3a12 1fd0 da3f
000007b0: 4532 80a0 bf39 e33f ee17 f41b 415f e03f
000007c0: 8111 3ed5 d40e e03f 6a90 3097 5347 aa3f
000007d0: 1e54 7f46 bbf2 e23f b6ad 7eb6 b81e d13f
000007e0: 23c9 85f4 5c3a c83f 02c5 76bf 236e e53f
000007f0: 6df7 57eb 7c72 e13f 8824 d03b 912c c63f
0.8496671113472664 0.9382851152040255 0.6990933778128171 0.32683648838620527 0.8037363993861641 -0.08496060426235102 0.46297418307602606 0.17203295143188876
0.3841649764021904 0.07415973755880623 0.5462603488755893 0.27951829134795597 0.5151221041776314 0.34518139226192956 0.4371822571855933 0.43628612491400964
0.3097586193196266 0.5050265882617794 0.24086935964218112 0.004253363566751482 0.6401522833339557 0.1963358315780671 0.26255486634807657 0.9894199414411363
0.739364606393601 0.7980957098749689 0.19232334544037175 0.5156081252421498 0.529523909794097 -0.032580895773680195 0.04704906265466275 0.18855732019746704
0.05160068274311701 0.5865029919333453 0.6213123369080039 0.23763243955500468 -0.008893052245021809 0.7816695514886464 0.4858533000514775 0.3899236850475095
0.026817895191030817 0.8993011897731249 0.6019528559258399 0.38046884236375234 0.9083738694399367 0.7420804706046397 0.4946652671418611 0.12451850918672659
0.20622916435033997 0.46957305471667204 0.3730054460832016 0.20731234300338064 0.15369092012666813 0.9997844748411249 0.3438656121012382 0.834194269858408
0.6707068689201185 0.05754513643273316 0.4901132654625783 0.6368158625437849 0.1847419038654345 1.015530234547432 0.8333999655223511 0.7241279888964531
0.2720913861912302 0.9237107374754284 0.5333267456064491 0.19776279715223366 0.7356439906353006 0.34512455581003637 0.7401139411731469 0.5496487064277655
0.3173657248925809 0.1881587671500502 0.3341826224100554 0.5409695787908907 0.47290159678455385 0.780928934369446 0.07338758102523311 0.9266001546146992
0.41915178426900185 0.567267374615847 0.9942002286876743 0.5493190197949829 0.5114583572613374 0.5918635605253755 1.0185461406046703 0.38944146200233737
0.6302746715003632 0.5222110264858156 0.37122492924759976 0.4847531440835906 0.3800064021218316 0.895441541100635 0.4689790919915496 0.9988329580369166
0.5079764236978788 0.14820092732375098 0.29216128732336055 0.3633404995096342 0.21585916513619896 0.5303053286931172 0.3045639259708745 0.3163999406302742
0.6028645669037058 0.7892666648763125 0.2167738284004249 0.27544972021008 0.21018498952623016 0.6216318062147393 0.4347991742241617 0.8014781197035963
0.6469220307194484 0.15655073683369938 0.4835321623959622 0.8135410676468527 0.7561739797226693 0.1769721047845412 0.5443360091129905 0.40944175101781105
0.18785745997270567 0.3493330072348827 -0.1635630543614463 0.2184055266259796 0.48642956739685195 0.19090513092575018 -0.02100858414067078 0.06055845840040629
0.1733900231206019 0.3816933185022858 0.3104881550719758 0.6108694742320215 0.2511342674311763 0.25057268629625246 -0.06564938531459862 0.17278368075838704
0.0700195228332896 0.09475998934995239 0.24476431260282805 0.10297733430031987 0.3630424959478052 0.26231225741411907 0.3123019703048251 0.1904085975286541
0.5688221918712297 0.329092745819291 0.5353393877466093 0.3969756474785703 0.3289738376522137 0.4320925917721776 0.07181008490742105 0.3856576316240464
0.3013146588715732 0.3917608354613438 0.11681418280757182 0.022207688227149736 0.044361250593471444 0.24292919807869864 -0.07433605753504034 0.6956287425781504
0.674665268405552 0.0273933168347926 0.840990352996753 0.2513625217585974 0.8612303738005473 1.0240086413916154 0.9590550696089232 0.29301391070710364
0.38054442373675523 0.4203756854120286 0.7110167583554629 0.5062598620586959 0.35028793341521736 0.6058381034998017 0.38716066673061744 0.46632383937192523
0.49459253589335817 0.7822119550920583 0.3117682432286633 0.7171008374122462 0.7253242452714559 0.4182505295990169 0.2574815291396512 0.3498312226693537
0.7105036760004171 0.7107084219300752 0.5146867952743555 0.17398014973082995 0.07596480053481527 0.7628660155987753 0.7043171772037427 1.0329373253628145
0.4328851281038098 0.4365020957126907 1.1062541831981372 1.0677912120534687 0.608606487812305 0.22649551838144538 0.13391944241835835 0.628454627900228
0.5603465920608385 0.569100034373863 0.8996873986216813 0.5621093783254675 0.26445007765094225 1.1485127973086466 0.7600745580779744 0.10989975721308988
-0.04862113563901497 0.5205552726301131 0.9669111284707378 0.4244906042835256 0.01708995863012433 0.503781627985596 1.6322899233612855 0.3835758229375759
0.7639017287014119 0.7024964385286806 0.540289946471917 0.6891834784328617 0.6591940626393793 0.880921509048083 0.7745070045844962 0.16205700660024833
0.5615914580924577 0.1691026695223277 0.8047527517217643 -0.03679044675782197 0.3979128145542809 0.6045628878209822 0.128867141633744 0.7011198700080052
0.07444250531799818 -0.1057516091119582 0.6557176655238509 0.922149846185417 0.9982918412799275 0.4367483361475331 0.6225676868459501 0.052834833015383054
0.3331851634758705 0.04157895646181229 0.6175980669307388 0.26956504957752725 0.7690483795894905 0.418952720452805 0.600799382665692 0.511627726170216
0.5018104710475627 0.05132542820527493 0.5921303154851818 0.2675000936676172 0.18928110065059753 0.6696947803049229 0.5452255817942678 0.17323508663711018

weight f8 [50, 4]
00000000: 9ef1 7e2f 86a5 dfbf b1bf 526c b583 b03f
00000010: 4b98 680f 605e c5bf dfa5 6efd a146 d03f
00000020: 377c c651 ea42 c13f 6738 bd7e 99ec d23f
00000030: 5bbd c2d8 c1d1 c93f 4f9e 707c 8c6c c8bf
00000040: 20b4 a64e 404f c73f 8e30 f1fe 7c33 d7bf
00000050: 7776 0704 a94a d33f ad67 34eb ec3b c7bf
00000060: 019d 3088 70c8 d3bf 7696 6368 e768 d2bf
00000070: 4123 0091 77ea bb3f 99ec 633f 33cd b53f
00000080: 4ddf dce4 cf99 de3f af25 9012 bc6e b8bf
00000090: 875a 4a65 419b b53f 0bd4 2ee4 3e14 c6bf
000000a0: cd26 1ed1 06bc d83f 5faa 45b8 13b0 af3f
000000b0: 33df 7a0b af1e c23f b3ee 5265 7e06 ce3f
000000c0: aa4a 47fa c62b e0bf 7140 3db1 6d5d dd3f
000000d0: cbab 273c b7f5 903f 3094 6292 e627 d13f
000000e0: cfa3 a7b6 b8e8 c63f 0350 b19f df28 e33f
000000f0: 29e0 0dab 72a5 c6bf 239c 1f66 d69e dd3f
00000100: b8fc 66bb fa19 cbbf 4d01 30fb add8 dcbf
00000110: a3d0 88a9 9aae d7bf 4dff 3f4e b940 833f
00000120: 3d68 872b 9686 dd3f 0798 4ad9 c5d0 c3bf
00000130: 8823 45b4 0aab d33f c9ac 3da7 7c47 e1bf
00000140: 59c6 9e07 1eec cebf b479 4852 e79c b5bf
00000150: e803 692f 6fd6 c7bf 6d1c 1996 9043 bf3f
00000160: 4bf3 8b53 a1fb d7bf d766 f0cd 49ff debf
00000170: 6b07 53df aab9 b8bf 3847 1add 7ff4 c7bf
00000180: 5fbe ea22 0b09 a93f 0782 1507 795b c13f
00000190: 6f1c 30a5 e906 adbf c180 beab 6408 d7bf
000001a0: a4e3 d257 002a d3bf 4885 a2ca 6232 dabf
000001b0: 3cb7 0497 05f3 833f 978d 835d 8857 c73f
000001c0: 3a9a 2d8d b20b aebf 134a d8ff d917 c73f
000001d0: 33f5 be06 6743 da3f e3ec 4c0a 151d adbf
000001e0: 5485 459e fa36 d4bf c566 90d3 34ea e0bf
000001f0: 9952 42b6 4a01 943f 413e 8736 bc1f b0bf
00000200: 48a8 f700 e35c b43f 7492 85b5 dd4a c33f
00000210: 6e1e 1320 5d3c cdbf 5529 1180 177c c13f
00000220: db31 c44f 66f0 d43f fb97 e6fb 1983 d3bf
00000230: bc0e 7499 91d2 d53f 7a65 fb00 cf31 d23f
00000240: cb5b acbd 6c42 dabf 7253 fd6e ad43 d63f
00000250: a132 15b5 dc62 e63f 4d80 4e88 8300 d93f
00000260: a460 d3ae e09c d93f f61e d969 3bbb c93f
00000270: a67f b1a1 b5c5 933f 8495 2202 b5f3 d13f
00000280: 0492 29d7 5382 dabf ec53 4964 e3b3 c63f
00000290: f883 2840 f1d4 cdbf dad3 63d8 505d a03f
000002a0: 5081 381b 3ecb c3bf 5aa6 80e7 bb01 e1bf
000002b0: 4c27 da60 90dc d43f 45f6 5b3f de72 d7bf
000002c0: 83c0 e9f8 dd00 c13f 378c e5eb 7b39 b0bf
000002d0: b171 d7b5 e62b d9bf b5be 3d62 c6a9 d03f
000002e0: 64ba c2de b9b5 c8bf 1397 b4c8 8f71 a9bf
000002f0: 3f11 6fbf 60a4 d0bf afec e9d0 abf3 d93f
00000300: a77d 1dab 6371 b1bf bd4d 900a 60b3 d23f
00000310: 67d6 a8d2 f68c bf3f bfa2 2dd5 182e 9b3f
00000320: 0d7b 4a6c ffd2 c2bf e051 3883 1aba cbbf
00000330: a685 ae6a e5f5 c13f 74c1 e728 fa54 c63f
00000340: 0f4b 1518 5dff c3bf 91a8 f660 8261 bf3f
00000350: 81de 3fee 8406 c23f 03ab 1e4c 0269 db3f
00000360: 9445 50d6 787d dabf 367a 3761 a788 c7bf
00000370: a48a 5f19 88b4 acbf 5b64 ca3d 1b4a da3f
00000380: dc7f 4c8c 3022 d53f 741e 4bdc de1d d5bf
00000390: f109 e7b3 483b c0bf 912e 1e5d d399 d53f
000003a0: 24c4 1131 f59b c93f 7eec 17ab 290b d6bf
000003b0: ab1f f250 761d dd3f 74b6 dd67 924b d8bf
000003c0: d77d cd45 072a e53f d978 ebf6 2682 d93f
000003d0: 1e40 9539 9947 d5bf 5eb3 15d0 4840 d03f
000003e0: eec2 88b9 bda3 d5bf 14c5 94fe 5f4b c0bf
000003f0: 801d bede c914 b2bf da24 be69 354e da3f
00000400: ffbf 0a37 ab50 babf b273 f24d 600a dabf
00000410: 9465 fef5 58b3 d9bf f870 973d b344 d73f
00000420: 2127 e487 d319 d33f 40e4 e363 f20d 8e3f
00000430: aeda 53a4 d6f8 d03f 4860 4108 5bff ca3f
00000440: 7819 8b79 0f54 d9bf f5c1 59e5 b021 c73f
00000450: 29d5 1895 d915 c03f 4c2f fc09 c96f d43f
00000460: f98f f916 87af bebf 4212 5cc4 e712 a73f
00000470: a3b2 23c5 e7d9 c6bf 4224 ccff 9dc3 d53f
00000480: 7fdd ce54 7f51 b7bf 63cd 2f7f 9f16 d73f
00000490: 7b1a f6e8 3def c0bf 7706 4b64 44f8 c8bf
000004a0: deda 164c a449 c03f 88f5 6380 a9ab ae3f
000004b0: aa3f f507 68a7 e1bf 2fa4 e566 edd0 e4bf
000004c0: 76c5 ac93 97f5 c63f cde0 44df 30d5 bd3f
000004d0: 3f28 acba 2a70 d23f c33f e205 b97e d43f
000004e0: 8958 3a78 9533 c7bf 40ca 5201 c902 d7bf
000004f0: 709d 9610 bb32 dcbf 094e f367 2be7 e03f
00000500: 2308 f5be 5e38 cc3f c116 6398 1d5e ddbf
00000510: 1ba7 aa85 9fda debf bd58 ed36 4ddf dbbf
00000520: 97bf 9f4c 6f9e c5bf 073b a723 aa99 c63f
00000530: 97f7 4b44 f1c3 d8bf 6342 1570 05fa c13f
00000540: 3cca 653c b63c 78bf a741 5027 d47c cc3f
00000550: 73c2 6da3 6c74 e23f 2315 5fe0 f30b d0bf
00000560: bf7b b0af ec0f dd3f e1c0 6b73 6aa8 d2bf
00000570: 1fc8 dbb4 b7f4 d43f dc34 cbc9 ba94 73bf
00000580: 1f06 fac0 459f a6bf 53f5 7fec 0680 ce3f
00000590: d39a aca8 d500 c1bf c783 0652 3fe6 d93f
000005a0: 0d82 044b d6b4 dabf d2c5 15cd bbe8 d6bf
000005b0: b267 d3a9 89e3 d93f a8fa a9fc 0dd1 ca3f
000005c0: b107 b471 f5e3 72bf 07b7 321a 0ea1 9cbf
000005d0: 1894 858c 14ea d13f 6ff3 75da 3e06 8f3f
000005e0: 51a5 cf24 eab0 d5bf b142 de11 b431 ccbf
000005f0: 75d6 1cca da5a dcbf 7bb1 0082 1d90 dfbf
00000600: 0695 f6eb e83b d6bf 3820 bf37 7eed bc3f
00000610: b6d7 3e6e 18a6 d83f aeea 8ecb 9b27 c8bf
00000620: df5a 1bdc 5c32 d23f 0df7 d46d caea d13f
00000630: e5e8 a2b5 0f57 d33f 4328 f5b7 b9f5 c3bf
-0.49447779310482953 0.06450971502886095 -0.1669426036107232 0.25431108235588157 0.13485459320961166 0.29569089295262646 0.20171378215807576 -0.1908126456848884
0.18210605469121877 -0.36251759430593544 0.3014318980548078 -0.1815162800274356 -0.30910886096758367 -0.2876528281616183 0.10904643335392185 0.08516235635390713
0.47813794469719967 -0.09543967679214548 0.08440026019011714 -0.17249284879440582 0.38647623464258346 0.06189023613372479 0.14156139431519818 0.2345731730218766
-0.5053439033748266 0.45882742222330025 0.01656233124405641 0.26806034369866705 0.1789770976895668 0.5987394446369766 -0.17692406990295353 0.4628196713733265
-0.21173032904150602 -0.45072507410079227 -0.3700319915399268 0.009400794697284854 0.4613395142638444 -0.15480874166422628 0.3073145637941299 -0.5399764315056014
-0.2415807282646252 -0.08442540892472189 -0.18623151602699228 0.12212470688347006 -0.3747332874188955 -0.48433156119572857 -0.09658306076292227 -0.1871490316012172
0.048897121441197504 0.13560402723216233 -0.056693364538710316 -0.3598872830571161 -0.2994385583547745 -0.40932531155165863 0.00974087111589094 0.1823587853060473
-0.05868299458852673 0.18041539184976382 0.4103639188650334 -0.056862504489311204 -0.3158556504841574 -0.5285896427260118 0.01953617799206828 -0.06298424083001299
0.07954233907335706 0.15072223056189993 -0.22840465608736643 0.13659948113702094 0.3271728304833041 -0.30487680053408867 0.3409770964210386 0.2842900762166988
-0.4103042461660464 0.34788070525001225 0.6995681320928108 0.39065635977931806 0.4002000529558336 0.20102636974683435 0.019308889383296134 0.28049969872002856
-0.4142045594401511 0.17736475369261429 -0.2330609858773014 0.03196194306830309 -0.15463997201096413 -0.531461670068164 0.3259621568509956 -0.3663859957449385
0.13283896116218238 -0.06337713727184356 -0.39330451734511046 0.26036223977915124 -0.193045839090206 -0.04969453167931994 -0.26003283209526623 0.4054975071118844
-0.06813643386475708 0.29219819099054317 0.12324469225935673 0.02654303361069554 -0.14706414020198402 -0.21661693007685212 0.14031665524548237 0.1744682979329003
-0.15623058010040622 0.12258162371895966 0.1408239520385344 0.42828423913549346 -0.4139082043558002 -0.18385784384641263 -0.056064847085300046 0.41077309641111065
0.3302117700677607 -0.32994815362005814 -0.12680920395185027 0.337513771949241 0.2000719537350345 -0.3444313212236877 0.45492322831023085 -0.37961254256411014
0.6613804210027706 0.3985688601805016 -0.3324950277647093 0.25392360993173735 -0.33811896437241173 -0.12730026179046006 -0.07062970817616154 0.4110234768528024
-0.10279340833471905 -0.406883312339967 -0.40157150290323185 0.3635681249122764 0.2984513117850032 0.014675038979918509 0.26518789336788984 0.21091783431143285
-0.39575564259975904 0.18071566771278894 0.12566680698515967 0.3193228337774954 -0.11986584006223201 0.045066111297306324 -0.17852494359921875 0.3400645254155884
-0.09108730144986586 0.36075580044344785 -0.1323010814196158 -0.19507651230928832 0.12724736895844208 0.0599034280039446 -0.5516853480748882 -0.65050382706716
0.17936987600982562 0.11653428507713955 0.28809612493262543 0.320234542604336 -0.181261714654003 -0.3595449936794104 -0.44059635753588733 0.5282189398080287
0.22047027896957258 -0.45886936074780854 -0.4820936971033107 -0.4355042492292219 -0.16889754525572861 0.17656447163468433 -0.3869593779526154 0.14044254277043242
-0.005917274340719699 0.2225594703636606 0.5767119590728512 -0.25072953139563675 0.45409695775191133 -0.29152928611348555 0.32743637716260027 -0.004780511514309551
-0.044183902556153 0.2382820753845559 -0.13283797012373685 0.40467818270013506 -0.4172874195665209 -0.35795493152462854 0.40451280197668915 0.2095048412047238
-0.004611929670547286 -0.027958126400952767 0.2799121258051982 0.01514863113583839 -0.33892301173053335 -0.22026682732077554 -0.44304532754481524 -0.4931710977132508
-0.34740660708696713 0.11299885617256755 0.38513766065750177 -0.1887087577759607 0.28432389731226054 0.27995548940440146 0.3021888040344847 -0.15593644602114595

bias f8 [50]
00000000: 1f0c b473 4ad5 a73f 86b0 566d e453 dabf
00000010: f73c f9f0 413e b13f 5e65 0b1f 133f c9bf
00000020: 7c7c d468 1820 cebf f8f9 c716 7d2b dbbf
00000030: 00b9 00cf 8657 c23f 9f4c 98c5 dacd e13f
00000040: 7e83 84e8 9ae9 a13f 2e01 adc5 88a1 d33f
00000050: 9a96 a228 281b ae3f 6474 665a a944 b7bf
00000060: e296 45be f1fb dabf d3b7 90b2 f447 d1bf
00000070: b6d0 b4ed f473 c23f d3b6 b575 e4b0 cebf
00000080: de3c af90 6236 dd3f 7973 0a40 f270 d03f
00000090: c1e7 2975 4996 b83f 15eb fe5e cdae dd3f
000000a0: 3f97 e87c 7b8d c63f e917 134a 28a2 c83f
000000b0: 3457 6193 9bfa cabf 10a9 dcab f503 dc3f
000000c0: 5891 8f5d 6ecc bebf 91e6 95bf 1a94 d13f
000000d0: 9c04 f02b c654 de3f a6dd c88a 4ab9 bfbf
000000e0: b3dc be39 d63e da3f 3440 8130 07f4 d33f
000000f0: adbc 37f6 2442 d13f af29 0beb 829b a3bf
00000100: fd1a 517f 90aa ba3f b6c9 4026 e78a da3f
00000110: 604c f4e7 7171 dc3f 3490 0122 19f7 d33f
00000120: b6f9 ae00 2e35 dabf 63d0 5c72 97a6 d13f
00000130: 6726 d146 b8fe c73f 0142 edf2 c1b5 d63f
00000140: 3a4f a89a f11e debf c8d3 ab1a a328 dabf
00000150: f323 4f3e 12ac c43f 2aef 798b c297 de3f
00000160: 0c48 8766 8253 d5bf 33b6 aee5 c907 cf3f
00000170: aa72 21a8 ef05 82bf e450 4619 c926 d8bf
00000180: 53c0 1b0f d9ec b0bf 6023 c3e0 e22f bbbf
0.046549154876651004 -0.4113703792343205 0.06735622532982065 -0.1972373868546055 -0.23535447233823337 -0.4245293352577444 0.14329609973487578 0.5563787326122059
0.034985390552043846 0.3067342691829421 0.058800940475788724 -0.09089144188915693 -0.42162746030076736 -0.2700168365289503 0.14416371924165156 -0.23977332828092432
0.45644439820621396 0.2568936944388081 0.09604319677774155 0.46379408146792517 0.17619269942331958 0.19244865052149798 -0.2107729406004012 0.437741678079548
-0.12030687126349926 0.2746645804360038 0.47392420092371323 -0.1239210690335911 0.4100852550431668 0.31176929222874894 0.2696621326894711 -0.038295832816931046
0.10416510685272935 0.4147279618802274 0.4444241299799554 0.3119566757288823 -0.4094958311724456 0.27579294365137325 0.1874609323297591 0.3548436043102186
-0.4706386576010463 -0.40873029331788446 0.16150119821966732 0.47801269169552774 -0.3332220078710868 0.24242519106830826 -0.00880038482517283 -0.3773672816107718
-0.06611401194436554 -0.10619943606719806

weight f8 [50, 50]
00000000: 7992 7927 9dc6 c0bf e4c7 67be 0504 c1bf
00000010: 0b58 3d89 a072 b0bf a979 4098 5575 b5bf
00000020: e8d5 8d32 312f b5bf f853 505e e51c a23f
00000030: 95f1 91ee d618 b3bf 402f 1b43 df00 bebf
00000040: 57cd afb9 9e56 a53f ed62 8e84 38bd a13f
00000050: 7b39 3151 acc7 a03f b832 ccc9 5bcd b93f
00000060: 121e b5b7 f0ac b53f 0671 51cc d4a5 c13f
00000070: 4fb5 9af5 efe8 a1bf 1de0 5739 57db a2bf
00000080: a0ff 9d02 3b0f a03f d4dd cfe1 0c64 b7bf
00000090: 8d9e 54be 6d0a b13f ca98 ca6e cfbd b33f
000000a0: e536 b9c7 11c9 a83f 7136 0e8d 5d38 963f
000000b0: 81bf 6196 d678 b5bf d7c9 9aff 9be7 b0bf
000000c0: 13a3 75ae 326e c1bf fd44 aa14 ad35 c1bf
000000d0: 01ac b633 247c a43f a367 3bef 9fa7 bbbf
000000e0: 43b1 14e8 c1a8 c0bf 3656 291f 8ffa c1bf
000000f0: 926b ed46 88cb babf f7bf 296a 040f b0bf
00000100: 1d9f e33b 798e 9fbf f5a8 e591 4963 c03f
00000110: 2e1b e9d7 0ab0 973f 71f2 c6d5 b35d b6bf
00000120: 2db5 d9c4 d213 bd3f e7ce 6ce1 38cd b8bf
00000130: c118 b985 0317 c2bf 5b79 64dc 9a12 b8bf
00000140: 10a4 1b68 42c4 af3f 2293 7e0d bc96 b33f
00000150: 26fc cf2e 9589 c13f be4c c161 3208 aabf
00000160: 7107 6a80 5c41 b6bf 0848 45ae 1bbf adbf
00000170: dcfc e45f 8001 a03f 6c18 444c 0a8f a13f
00000180: 9eee eecb f30d bdbf a8c3 1986 246c be3f
00000190: ec4c 6a9f 14dd b9bf c506 5950 4d16 b5bf
000001a0: b8df dc30 8f24 bdbf 10e9 18c4 06d4 94bf
000001b0: 90ee 53ad d911 c1bf 9d20 3de2 af4a ab3f
000001c0: 6378 5cd0 8e09 aebf ed55 33f5 701f 95bf
000001d0: da10 0815 8dd8 c1bf 5021 8c54 3b32 753f
000001e0: d103 7a4f 34b6 85bf 68ba 85e8 c299 b1bf
000001f0: 4d4e 53d3 501d c0bf ea7a 84c6 016c 893f
00000200: d377 d847 d1a1 ad3f a61a f211 3bd8 b73f
00000210: 8802 8691 4867 693f 9d2b 19fc ab8d c23f
00000220: cee0 c9af c6f5 c23f 9edf 33d9 e099 b8bf
00000230: 5cad 5dfb d255 b4bf 4e57 8e8f 7edf a93f
00000240: 9029 17b5 9cf9 c03f 4248 b4ef 0da9 b8bf
00000250: 156f 9108 27ce b5bf d65b c3b4 6637 c23f
00000260: ac47 91bb b434 b03f bcdd 62ba 0da3 b53f
00000270: 9bd2 b9bb 89be c13f cbe6 9e60 4e06 b93f
00000280: c12d 59cc 5e5e bcbf 4501 e911 7f60 babf
00000290: 1d24 078d ce05 ba3f d361 1033 1156 c33f
000002a0: d35b 41c3 ce20 b6bf 234d 63b6 3482 c23f
000002b0: aa1d e734 8847 853f 15d5 37e1 28db 983f
000002c0: 5f99 41bf 7400 8a3f caf9 f6dc cf20 88bf
000002d0: 567e 67ab 4192 893f 82af 48ae fb18 c13f
000002e0: 0c3c 7467 0a60 c13f 2bf9 311d 6055 803f
000002f0: 6523 1577 2307 a4bf b606 0972 ca94 a9bf
00000300: dd0a ad0b f4f5 c33f c674 1a3a 0a06 bcbf
00000310: 461a 4613 d476 be3f b367 eae8 f7c6 a6bf
00000320: c010 df23 5d76 bdbf 668b b0b4 f9b0 adbf
00000330: 6445 d38f 3a56 913f 3064 b27b cd3d 87bf
00000340: 54da 1dc3 d4ae c1bf aaad 4dff bc90 c13f
00000350: 4755 d81c 7d45 c33f b459 1f9b 2279 bbbf
00000360: b0dc d693 6a40 ac3f 83f4 fe21 6699 9a3f
00000370: a5f2 07b7 c370 a0bf 8d1e 44e5 0233 bbbf
00000380: 5d80 172a f147 b8bf d611 332a 05bc b53f
00000390: c3ee e907 dc23 bcbf 4ee0 1d34 4eab b33f
000003a0: ab6d cc2d d5ca 8f3f 4ac6 dc7c dbd6 b7bf
000003b0: 378e e45a 239d a03f 2798 f483 301f b63f
000003c0: db6a e77c 10b0 8ebf 3612 391e 09e1 ae3f
000003d0: b2cd d006 8cba 97bf 8d19 79d7 bd07 64bf
000003e0: 0fb4 7f78 52f6 a03f 297f c97e 5dc4 b83f
000003f0: aad5 ca8e fc59 b93f 6b37 f691 c1ac b23f
00000400: e284 e3ea 1e83 9c3f a925 0f48 4471 a53f
00000410: 8c79 c010 7594 b73f cbb0 8c90 bf04 c83f
00000420: 4390 693f 6bd1 b4bf 1722 73fe d3fd a0bf
00000430: 675e 5f7d c6e1 bc3f 8a06 7574 dbe4 c53f
00000440: 6381 03ba 03d6 babf 3803 8f16 14af adbf
00000450: 5f2a c7cb 0945 6f3f ed6d 19eb 9e4e c33f
00000460: bd1b cd89 1d40 363f fcdb 686a c39a c13f
00000470: 9b8f 448c 8536 b5bf d45b ad21 6e8a a03f
00000480: 63e2 fb85 bb14 b73f aa01 0d9c 7ae0 c13f
00000490: 4961 f24b f7d7 b43f f817 fc54 2ee6 b33f
000004a0: 2e16 0b4b d087 c2bf b22a ab80 2b89 90bf
000004b0: a1f7 b5c4 7376 94bf c863 0583 3a0b b5bf
000004c0: 957b 92be 4684 c13f 5bb8 13fd ffb3 c23f
000004d0: 9512 4f4f 7e39 a8bf d111 6ed7 5c13 be3f
000004e0: bcda aeef 65a8 5ebf 9ab3 be93 1e01 be3f
000004f0: e839 0005 003d 933f e059 dbb3 eb02 95bf
00000500: 5caa 7857 c0ba b8bf ea72 f326 9f31 b43f
00000510: e060 688d 114d bcbf a856 97fc 4b6c aa3f
00000520: 0afd 4586 8deb be3f 5b06 b03c 3736 b23f
00000530: 4428 be57 b4b4 b3bf 888a f406 3018 803f
00000540: 4518 665c 4e5e bc3f 8076 21ca d8e5 973f
00000550: 0be3 5d31 3b5b abbf f07c 17f7 019b 9fbf
00000560: cfa6 944f 37af bfbf fed8 987c bd29 99bf
00000570: 79fc 9aba b51f 823f 80b1 4b78 21a4 b83f
00000580: 0009 a20d ea4f ad3f 382b c8d7 2cfa b23f
00000590: 5bd8 02f9 55c4 8abf 778c 747d 6e46 c1bf
000005a0: 28e3 4be2 a0a7 bcbf fb16 3642 67a1 78bf
000005b0: 5237 07ea 9d86 be3f b547 a80b 6518 92bf
000005c0: 5610 0244 3136 b23f 6ee5 d857 f3bb b73f
000005d0: ffcc 6252 e624 bbbf 3efd 6257 1ceb cdbf
000005e0: 8127 dfcb aa03 a7bf ea80 14ab 8f6e b93f
000005f0: 359d 4350 659a c13f 230b 1896 d5d1 c0bf
00000600: d151 4340 6d8d bbbf 9ced d57b 4e2d ac3f
00000610: 6726 a971 b47f babf d265 0790 fcf1 b03f
00000620: aca6 8acc fb01 a83f c077 c973 e5c4 c4bf
00000630: 80e8 006e 7cc6 b8bf 2826 2f2b f5c0 9e3f
00000640: 15bf 0ef5 77f2 d23f 769a 5b6a 47fc c1bf
00000650: 6062 deb0 b24b b63f 07de 7105 4110 a23f
00000660: 9baf 2124 0e89 b33f 9334 e168 e736 b33f
00000670: de8e c9ae a3c2 923f e223 d815 5fa2 993f
00000680: 6dc8 9eea ed08 adbf 3cc8 f0cf b9bc 7abf
00000690: 6bdf 1fcb 06e4 94bf 812c a329 8cdb a4bf
000006a0: e49a c276 ef1f b53f 7883 b7cd 5580 953f
000006b0: 6a18 2bfe abe7 babf cf7b 8886 d64b a73f
000006c0: 656a b36a 8e04 b23f eb35 a2b9 93ae bb3f
000006d0: 96a3 4d4a 5b3e a1bf d0b2 a052 7242 7dbf
000006e0: 8931 dfcb 0ce4 b0bf 2efb 71e1 dd0b b53f
000006f0: 4f28 ccfb ebaa b23f 9c4c 30b1 b143 b6bf
00000700: c0c4 8d80 35d3 c0bf 1bee 026d 9117 bb3f
00000710: f911 3107 8ffc 76bf f9d9 842f 4541 923f
00000720: bd9e 7e6d b891 b5bf 8739 3856 4af6 bb3f
00000730: 9287 634f 0200 c4bf e277 f2ed 872b b2bf
00000740: b792 12dd e7ca c0bf 5211 acb6 aa5d c1bf
00000750: f1cb 2a2d 45a4 99bf ea68 8741 08d0 bbbf
00000760: 520f 4892 fc7e c0bf a014 4248 7ee5 b83f
00000770: 7317 fc5a 935f ab3f eea4 05df 932e c13f
00000780: c98d 72a9 b7da b53f d0d4 b59d d2f6 b9bf
00000790: 053a c87d 9a80 c0bf 7811 46bb b935 bc3f
000007a0: 4b61 3d76 e742 babf ac51 0a8a d9fd c03f
000007b0: 76bf 5a5a e000 b53f 474c 6f53 f0ba ae3f
000007c0: 3653 9b79 7fc0 c1bf d57a cc3c 8caa a73f
000007d0: 8166 894b 3f94 a9bf 00a8 b3ce e753 8c3f
000007e0: a99c 1c81 c922 7f3f eb1c 5e84 d1b5 bbbf
000007f0: 0784 4ad7 cdaa b3bf 6c39 87f0 32b1 b43f
-0.13106121470913815 -0.13293525502336856 -0.06424907064987921 -0.08382163016401613 -0.08275134548406238 0.03537670875827098 -0.07459777187791013 -0.11720080746016226
0.04167648331340484 0.03464676492803229 0.03277338496319523 0.10078977276516354 0.08467010960622925 0.1378732679030536 -0.03498029587840767 -0.03682968688002595
0.03136619955966968 -0.09137039673793562 0.06656537911168865 0.07711502508991255 0.04840903819113666 0.021699392065377802 -0.08387509509497983 -0.06603407850597108
-0.136175475297272 -0.13445056447066142 0.04000962382573193 -0.108026500612509 -0.13015006858894126 -0.1404589559703468 -0.10466815692545442 -0.06272914497253611
-0.030816931038230345 0.12803001045114795 0.02313248579801124 -0.08736728638809567 0.1135837298004005 -0.09688144210377524 -0.1413273241943838 -0.09403388863254263
0.06204421540116567 0.0765187771745102 0.1370111921860097 -0.05084378665255816 -0.0869348348151371 -0.058098664305944736 0.03126145525538401 0.03429443531972329
-0.11349414566842106 0.11883762620870064 -0.10102967159246007 -0.08237155162444328 -0.11383910124720742 -0.02034006664164517 -0.13335724795603143 0.0533041919393906
-0.05866667073699785 -0.020627751317837385 -0.13942111517838535 0.0051748578632742764 -0.01060143344443701 -0.0687524621659833 -0.12589464491485317 0.012413038130544025
0.057875194568836406 0.09314316928985508 0.0031010072090683106 0.1449484806965672 0.14812549193789554 -0.09609799673842054 -0.07943457257140579 0.05053325178520983
0.13261755792912 -0.09632956602243417 -0.08517688712293776 0.14231571031879636 0.0633042295387713 0.08451925087398754 0.13862725893308867 0.09775247439292938
-0.11081497658704277 -0.10303491770992419 0.10165110533775175 0.15106406205519693 -0.08643810526824262 0.14459856897028897 0.010390342821564886 0.02427352785703814
0.012696182333638615 -0.011781333857354154 0.012485993426650282 0.13357492456395553 0.13574342776743753 0.007975340739218758 -0.039116962706038184 -0.04996330873519865
0.1559433991443119 -0.10946716230906181 0.11900067778160758 -0.04448675840576701 -0.11508733869328847 -0.05799084025081562 0.01693049910392598 -0.011348347985675827
-0.1381479218213878 0.13722956148135995 0.15055812748384254 -0.10731712615174765 0.05517895750693336 0.02597579557890529 -0.03211032494798375 -0.10624712083164863
-0.09484774854308982 0.0849002101923085 -0.10992217248161311 0.07683266422634569 0.015523591480408458 -0.09312221334837392 0.032448868604003804 0.0864134142071583
-0.01498425370384864 0.06031063550884534 -0.023172557750695773 -0.002445097717813377 0.03312928887303467 0.09674629540813541 0.09902933584347431 0.07294854939956756
0.027843936048957192 0.04187978152874489 0.09210902842503382 0.18764490659794428 -0.08132047937539348 -0.0331865547282783 0.11282005844929587 0.17104666887648917
-0.1048281029829972 -0.05797636771558817 0.0038170996979023787 0.15083681563815735 0.00033951493405875636 0.13753550239354684 -0.08286318468577607 0.03230613862131518
0.09016010304538606 0.1396630537001447 0.08142037967843864 0.07773103308508655 -0.1447697035238646 -0.016148261764821377 -0.019983109360957155 -0.08220258425480076
0.1368492537048637 0.14611816270138686 -0.04731363981367057 0.11748295077820294 -0.0018712039443308645 0.11720458132795245 0.01878738432429286 -0.020518954136457768
-0.09659959922343248 0.07888216687156172 -0.11055097296082605 0.05160748918903596 0.12078175094756119 0.07113976699476991 -0.07697608129652261 0.007858634197480244
0.11081399684744138 0.02333773359020208 -0.053430413986410207 -0.030864744859965876 -0.12376733487021883 -0.024573288659859742 0.008849544293637589 0.09625443636804754
0.05725032249849171 0.07412987011063599 -0.013069793378559227 -0.13496190191026233 -0.11193280720534615 -0.0060133012333432 0.11924159015253835 -0.017671183430202315
0.07113941107132979 0.09271164793689987 -0.10603179465651989 -0.23373750941207477 -0.04494985331218882 0.09934328009376583 0.13752428454538693 -0.1314036352997273
-0.10762675112648103 0.05503316175142034 -0.10351112151070084 0.06619242206888679 0.04689013358922742 -0.16225879815732291 -0.09677865682252396 0.030032950173142364
0.296049107851091 -0.1405114430737801 0.08709255998690812 0.03528025809731266 0.07631004697912973 0.07505651770152814 0.018320615332767846 0.02503346033885013
-0.0567087506200473 -0.006527639226122924 -0.020401102206931847 -0.040737514574709095 0.08251854562204702 0.020997372322998115 -0.10509753184587259 0.04550047294855341
0.07038202385903387 0.10813258440085576 -0.03367886812231473 -0.007143446515368537 -0.06597976662960127 0.08221232179674295 0.0729205598583189 -0.08697043014426459
-0.13144558693924147 0.105828370203135 -0.00561195249889978 0.017827111268354987 -0.08425476716240161 0.10922684292765981 -0.15625027538686403 -0.07097672995811835
-0.131192191072065 -0.13567098540819217 -0.025040703660760447 -0.10864307021930455 -0.12887532370234084 0.09725178970446047 0.05346355901387669 0.13423393621204788
0.08536861311818379 -0.10142246580456349 -0.12892466680246187 0.110194786282653 -0.1025833762809089 0.13274687996148538 0.08204462247772235 0.06001997965326971
-0.13868707120732332 0.04622305147335274 -0.04995916173056703 0.013831912036454952 0.007601534963931269 -0.10824307901031076 -0.076825013219164 0.08082884189864153

bias f8 [50]
00000000: 1ac0 faa1 fd1c ad3f 4286 24c8 a5df 8d3f
00000010: e38d 308a d89b b7bf 5053 af88 e9d7 b63f
00000020: 8cdf 431d f600 bf3f 960d fe40 518e bdbf
00000030: 8a83 dce1 41ef 9ebf 7858 8459 148c b6bf
00000040: 4551 2b2a eb09 b33f 8061 3a5d 96b2 9dbf
00000050: 836d 83a3 6ba0 903f dcc4 c574 c044 b53f
00000060: f092 a5d0 e445 99bf eb9d 6664 146b b73f
00000070: ab48 b306 f52f bbbf 82e3 fbbd 736f afbf
00000080: f9b5 2b84 f6e0 8ebf 1370 2c7e cc0e c0bf
00000090: fa27 1ebb 5781 bd3f b30a dfd7 de73 9b3f
000000a0: 0fad e587 ff17 a4bf 6121 e822 473e 813f
000000b0: f2ca 1c7f e7a4 b93f 62b5 359a 3d70 b73f
000000c0: a561 d807 6162 b2bf dbff a9ae 9893 473f
000000d0: f56c da49 4fb9 b0bf 398e f7f5 6372 96bf
000000e0: 8f13 a06f e0ce a83f 2d94 32f7 cee6 b0bf
000000f0: 29d7 8d13 e393 b3bf 44de 2bde f91e acbf
00000100: 5bca f7d4 d19b b83f d982 dfca 9d93 b6bf
00000110: 9311 cab1 158a b6bf 68ed 54de 702c c13f
00000120: 5774 4bf7 f16f bbbf 614b bff6 e472 a9bf
00000130: ad16 d0d5 45ea b6bf 68fd 0141 e3bc b6bf
00000140: b039 ff9e 3e0b 9b3f b6d1 87b6 c2af 8f3f
00000150: 4cc4 afc4 dc22 b73f 6475 df09 86ab b7bf
00000160: cbe5 cc0d 4971 b6bf dcaa bc6c 2002 ad3f
00000170: 7154 cc6e b886 b93f 881f 9118 5163 b03f
00000180: 0491 0c51 62df babf 9789 3421 492a b93f
0.05686180689133398 0.01458673016583412 -0.09222176908274764 0.08923205935509526 0.12110841955643376 -0.11545284115532292 -0.03020956936882472 -0.0880749434039404
0.07437009601136875 -0.029001569214047063 0.016236955504479688 0.08308031893627138 -0.024680686220920955 0.09147765589897687 -0.10620051778394905 -0.06139718717708488
-0.01507752028325181 -0.12545162354297243 0.11525486295991519 0.026809198308692838 -0.039245591486940616 0.008419566872377162 0.10017248967487172 0.09155640616309804
-0.07181364480528048 0.0007194991606667105 -0.06532760193879368 -0.02192074002040398 0.048453343988547386 -0.06602185759636887 -0.0764753267993369 -0.05492382847836244
0.09612761926090611 -0.08818994715648944 -0.08804450598296958 0.13416872840921745 -0.10717689788312278 -0.04970469963122671 -0.08951221914329706 -0.08881969773391563
0.026410082296757842 0.015471955485715987 0.0903757076446407 -0.09246099225079757 -0.08766609751628278 0.05665685012202967 0.09971192078622139 0.06401545381333851
-0.10497107008683676 0.09830147801088739
