lasa_models/5/skel_model_Worm.pt (torch, 99247 bytes, 18 tensors)

R f8 [20, 20]
00000000: 1584 c253 9e36 e03f 8b78 198f d731 b93f
00000010: 7c79 2caf c691 c43f df56 7af8 9c0a b63f
00000020: 9041 68b5 f3a8 e93f 64f1 6e14 9cbf bf3f
00000030: d5c1 3e07 9b1d e93f 7841 7876 ea0e cabf
00000040: d908 de8d c77b d93f b6ee 9fa0 c0cb e93f
00000050: cd12 5239 dfd4 9cbf cd7e edf4 fef7 9cbf
00000060: 67eb 873a 9af2 c03f cd84 9d09 2497 e53f
00000070: f5cb 43ec 5155 d63f 1263 bcad 330b da3f
00000080: 5576 e05c cddd e43f c834 4ffb 21d8 d13f
00000090: 940d fca5 24de e03f cce9 42aa f36c e13f
000000a0: ccbd ce9c f97a e33f 439f f0db 3a54 ef3f
000000b0: 93a9 741b 677f eb3f 3776 20cc d51e a33f
000000c0: 97ff 3639 1f22 e23f 0ac9 0c1e 9ec4 e53f
000000d0: ccf3 3347 cf7f 8bbf 87bb 7bf2 fbd2 d23f
000000e0: b1ec a6cc c83a c43f 81e2 1596 afb3 db3f
000000f0: 2257 f99d ca88 ec3f a143 8d4e fefe c7bf
00000100: 4446 862a 7ffb d43f cea9 a5df 41a9 a73f
00000110: 97ec c472 5687 e23f bb72 63e9 303a d63f
00000120: ecdb 678f df4e d23f 9a9b 4c6b 3a2b c43f
00000130: f97f c056 fbb7 c13f 7bf6 d455 87f0 da3f
00000140: 04a6 8bf5 a461 e23f 6780 36c4 db93 cf3f
00000150: ca33 4252 66a0 e73f 1a21 6dec 0a52 dd3f
00000160: 1734 385d 1d6a ce3f 5aaf a0c3 0f26 db3f
00000170: 419a 450e 9377 e23f f181 94a4 6c2a a03f
00000180: 1974 0c25 22ed e93f 88c7 1d55 61d7 e13f
00000190: b5cf 35ba e074 de3f 105f 142d 135e 94bf
000001a0: 8f20 9fe7 d5ae d83f 2435 b880 0bd5 dd3f
000001b0: 4b0d 4adc 766a ee3f 0724 1fba a3dd ee3f
000001c0: 0d5c ce3d ebf0 ea3f 6949 6711 a037 e33f
000001d0: 8e7c 5e89 c3bb ba3f 5edf cfda 9736 ee3f
000001e0: 0814 35cc 0647 c53f d7bf e16b 773c be3f
000001f0: d023 2993 876a e23f 7464 d886 833b d53f
00000200: 175c d47e 30eb e03f e63f 26af 4228 d03f
00000210: df53 6847 19e2 d43f f2b9 72d2 f288 e33f
00000220: 7c97 2861 6d14 943f 10b9 e8bf f15d de3f
00000230: 2556 ff0c f964 eb3f e420 4629 7a4c ea3f
00000240: 71af 70ab 5ddb e53f ba88 37ed cf08 e23f
00000250: cc85 3556 130f b53f bd5d fd8d 9ca5 dc3f
00000260: d93c fdba 33af d83f a321 683a 5a44 ea3f
00000270: b14d 932f 9aab d03f 7def 69f3 cd05 ed3f
00000280: c83e c963 f2a8 c03f f4a9 f8ba 7cb7 dd3f
00000290: 4e81 abf2 402a df3f cffc 57c7 404c ca3f
000002a0: 00bd e494 d4c9 d43f 9a3a fe53 db58 c03f
000002b0: c298 620b 9f4f ef3f d30d e9be be06 bc3f
000002c0: 7c97 17c6 60ca eb3f 7167 40a4 e8a7 ec3f
000002d0: d7fc 9d9e 94a0 e03f 761d 8f22 7d00 ed3f
000002e0: d6ef b3ab a680 de3f 6d64 8480 06da d23f
000002f0: a30f 770d 4040 d83f f8e7 c065 2dd3 d93f
00000300: 5ffa 9689 99b2 ea3f 0216 6bd2 f790 d63f
00000310: d562 25a8 5d76 dc3f ce75 15ff 9df1 cd3f
00000320: dffa a440 e48c d23f 67e5 f013 8f43 f13f
00000330: 07f4 69c4 6a40 cd3f 2a1f 6021 7017 d63f
00000340: 5836 e3a4 88b3 d53f 4cf5 1a40 1714 d93f
00000350: 3c7d 04b7 b87f d83f f3fe 091e 0177 a0bf
00000360: efa8 f81d 0e5f e03f 3949 7231 839e e13f
00000370: 76d9 e7c3 7b38 f23f 5668 97c7 a0c9 e73f
00000380: 234b 2a4b 6d26 ef3f 8946 6ab1 d5a2 ee3f
00000390: 3ec9 6136 f39b f03f 4a3b e3cc 5597 e63f
000003a0: c407 5792 e312 e03f 0a00 906f 4f56 da3f
000003b0: d341 3b40 c192 d63f 8f97 698d fe06 e13f
000003c0: a129 9918 a573 e53f c9a5 e868 6342 cf3f
000003d0: 9d97 0f29 4910 d93f 8b1f fd22 5b4a ee3f
000003e0: 9eb2 711c dd52 dd3f 9ebd 94d2 0e81 cb3f
000003f0: c546 89b7 d552 ea3f d501 2381 e6b7 e13f
00000400: 2bfc bce7 ee9a e53f c82f ea56 ce4a ee3f
00000410: 6f00 9102 cd33 e03f 2ea5 6103 4a42 e13f
00000420: 3267 5ec6 6657 e63f 6668 8abb 06a1 ca3f
00000430: 0b9b aabb 9961 d83f 3698 1e47 24eb c53f
00000440: 14cf 8e2d d73b e03f 5619 cd49 58fe d73f
00000450: 3120 fbd9 4d83 e23f e21e fc75 b195 e13f
00000460: abb0 9ae3 1f92 ee3f 9b3f 4ec5 708a e23f
00000470: 6081 a1ca 0c5b d93f b8d3 04d6 0898 eb3f
00000480: ca82 cef6 3ad3 d73f f6da 44f6 329f e53f
00000490: be87 8b7f 7c88 d53f c202 cce3 d488 dc3f
000004a0: e819 2f9a afac ea3f 4e45 f25d 5382 b63f
000004b0: 55c5 da28 89ca e33f 8882 67ac 2fbe b83f
000004c0: f534 7ae0 9e1e ce3f 7ba2 79b3 85b1 a73f
000004d0: 4325 93f5 d484 dd3f 20b7 d619 324c c53f
000004e0: 8e41 5ec5 2e11 e73f 5609 96ca 790e e03f
000004f0: 8710 4503 2d0f e73f 3196 11f6 8721 e43f
00000500: 8ead 87e2 779a c53f 60e7 c17c 00d0 a2bf
00000510: 7431 7a00 f346 d63f 509b 8875 a605 c73f
00000520: b93a ea57 9c46 c93f 1d43 d021 f514 e03f
00000530: 4740 1d2d 4ea3 d23f e210 03af 8627 ed3f
00000540: de3c 7a02 8345 d83f 1f5d 816a 5679 d03f
00000550: 0a59 9e75 470a e23f 7858 b78e 35dd e33f
00000560: 2238 35a1 9e21 ec3f d0f2 fa58 ce0c db3f
00000570: b9ca 935d 739f df3f 4e8a 41ad 15ff da3f
00000580: 07bd e074 90e0 9f3f d9a8 67e1 1c20 d33f
00000590: ae5e e30e dd12 e73f 20d4 90a9 f55b e93f
000005a0: 7ef7 d94d a4d1 d83f 6f9a c0dc 126a ee3f
000005b0: e4a6 0250 382a e63f 28fa cfc3 cf32 e73f
000005c0: 17f1 dd68 d6b1 e13f 09e3 8ab8 0968 e33f
000005d0: 3cf6 3bac 4c7b b13f d5a3 3d17 becd d13f
000005e0: 1e2c ecea cbd3 e03f 8293 e503 17d1 dd3f
000005f0: c6aa f108 dbd7 c93f c42e 73d8 7bcd ed3f
00000600: e259 48eb 0e77 b5bf 46e4 4fb9 a4b5 e63f
00000610: e4b2 fa29 4cd5 bc3f 4503 483f 5ea0 e73f
00000620: a561 855a 852b df3f e357 2ebc 3aa8 cf3f
00000630: 6151 f8db 9c98 c13f 48c8 31b3 a5a9 d83f
00000640: c6cb 3724 ba8b e23f fae8 6092 34a2 e93f
00000650: a2db b4a9 8e01 e73f d9e9 ff44 c0af e23f
00000660: 0041 2926 7888 cbbf bf84 c01a c2f8 c03f
00000670: b16c d2ae 4ad4 e73f 8573 3890 9dd0 de3f
00000680: e4ea 1bb8 ce64 de3f 6b9c b153 51c2 e23f
00000690: f7c0 f760 6992 e03f bd94 41c1 5571 c93f
000006a0: 2d0c 5a77 8892 ea3f e65b 5e72 7467 d23f
000006b0: 107a 39af 9ee6 aa3f 5511 8bd6 c186 e43f
000006c0: af9c 13de e62b e93f b7bb 12af 6051 df3f
000006d0: 70f9 500a 0081 e03f 6b4d 6fea f266 acbf
000006e0: d00e 7446 2c62 e53f d957 6f0c ecd5 de3f
000006f0: e75a 915a 7465 da3f fa67 3d74 2c66 e53f
00000700: efcf 3161 2a05 e03f 994e 959a 64eb ee3f
00000710: c6a2 3724 3250 e23f 11ad 8ea7 b4e2 c13f
00000720: b109 3221 d15d c73f c768 de8f 292f db3f
00000730: 27a1 25cd b538 e13f 994e a055 d878 e63f
00000740: ad38 0300 c586 dc3f cf23 39d7 d18b d93f
00000750: 7337 d409 062b dd3f 6db4 5c76 cd56 e93f
00000760: 4f8e 77ef e8e5 d33f def6 ba04 7826 e53f
00000770: 1a07 0cd7 06b2 e53f b3e9 b51e 01ab cc3f
00000780: ee37 6070 fa32 de3f c413 ad2c a75e d73f
00000790: 79a6 abca 8997 d53f 1a49 bad3 cd4e d63f
000007a0: f3b7 0a06 654c e83f 5faa ddcc 12e2 e83f
000007b0: 8ebb a789 1c1b c73f 6701 893c ff10 e33f
000007c0: 6cd3 c389 605f e23f dc66 a63a 35bb e33f
000007d0: fb5b 8d16 4854 e83f cf0a 9adf de05 df3f
000007e0: b8c0 d068 c010 b13f 5336 a74e f1c5 ee3f
000007f0: efc1 4fb3 4b9c e33f 039e fe8b b886 e73f
0.5066672931608333 0.09841677898063687 0.16069873383908007 0.08609944406847657 0.8018740218267784 0.12401748179303734 0.7848639623171559 -0.2035801962342807
0.39817990164023126 0.8061221253587607 -0.02815579211575674 -0.028289779376222058 0.1324036393924317 0.6746998012351014 0.3489575202249278 0.4069337078704375
0.6520754636764631 0.278816695613227 0.5271170846830722 0.5445497823159768 0.6087616026542775 0.9790319724752198 0.8593020950550446 0.03734462849409364
0.5666652791478438 0.6802511774933759 -0.01342737136882901 0.29412745170605387 0.1580439566876968 0.43284215599809533 0.8916981778554354 -0.18746928058183435
0.3278501429823317 0.046213205862688164 0.5790207139574645 0.3473017005142471 0.2860640430876049 0.1575692199632755 0.13842717872557822 0.42093070394535176
0.5744194789705834 0.24669978218753671 0.7383300406087241 0.4581324871874287 0.23761336375938022 0.4241980944086571 0.5770964888332132 0.03157367238077658
0.8101969455343606 0.5575415289333572 0.4758836573084822 -0.01989011728900808 0.3856711160592647 0.46612823076505294 0.9504961302303995 0.9645556101978635
0.8419090468549953 0.6005401935492901 0.10442754844415189 0.9441642068550029 0.16623005839406368 0.118110145414675 0.5755041002495265 0.33175743263706825
0.5287096478595029 0.2524573049968225 0.326299972280422 0.6104673490825105 0.01960917382725523 0.4744839071380662 0.8560757879119519 0.8218355947620037
0.683028063625427 0.5635757096427121 0.08226128439630215 0.4476081263178136 0.3856934858385564 0.8208438053853125 0.2604737724879796 0.9069585565734851
0.1301558482396017 0.4643241716281914 0.48695396135555746 0.20545205815867582 0.3248187498129056 0.12771169282173817 0.9784693930021364 0.109477922066666
0.8684543484675795 0.8954966743506089 0.5196021173468591 0.9063096690160097 0.4766022373948976 0.2945572142649045 0.37892152132939766 0.403514241570178
0.8343017279911001 0.35259814785635524 0.4447244779635587 0.23393607096924857 0.28984934151587355 1.0789938715882614 0.2285283526470325 0.34518054255794317
0.3390828714590035 0.39185124645503744 0.38279550431066744 -0.0321579312485464 0.511603411233663 0.5505996671438772 1.1387899067463798 0.7433627985258322
0.9734407871313561 0.9573772874011449 1.038073742322538 0.7059735299788852 0.5023057802393329 0.4115179624059243 0.35270720741848754 0.5321038019144327
0.6703668098864918 0.24421351072787292 0.3916190052972242 0.9465766604780453 0.45818259980914344 0.2148760345676068 0.8226116738025772 0.5536987802698216
0.6751627470147289 0.9466315934710048 0.5063233423352481 0.5393419328731051 0.6981691240682493 0.20803913266428536 0.3809570629768337 0.17123845551140143
0.5073047532846169 0.3748989792551546 0.5785283334198593 0.5495230965034035 0.9553374715228719 0.5793994763971456 0.3961822489564124 0.8623089008384488
0.3722674761029735 0.6756834802571052 0.33645546393938364 0.44585153814118084 0.8335798274427448 0.08792611163723515 0.6184736059132471 0.09665201148119185
0.23530946694192037 0.04627626243456447 0.4612324140731127 0.16638780843407464 0.7208474974486749 0.5017670590171217 0.7206025184500654 0.6290931516675241
0.16877649842295422 -0.03674317858617715 0.34808039709675787 0.17985993136354717 0.1974673680565127 0.5025582943363563 0.2912173691338506 0.911074964351908
0.37924266092245584 0.25740585709486824 0.5637547776448468 0.6207530772615106 0.8791039608565863 0.42265661897162676 0.49410709513100987 0.4218191329911506
0.031130082257900173 0.2988350106449054 0.7210526743683283 0.7924755393820568 0.3877955208080194 0.9504484473771536 0.6926538050367665 0.7249525856457852
0.5529586837942898 0.6064499477716662 0.06828765110909613 0.2781825282059434 0.52585407145796 0.4658868349127304 0.20189989029616678 0.9313334682023755
-0.08384793514446856 0.7096732730270865 0.11262966179738104 0.7383261905634774 0.487031305694041 0.24732145489241394 0.13746987095567945 0.38535444735964974
0.5795565326101204 0.8010504588085319 0.7189400972919098 0.5839539859437607 -0.21510221350991543 0.1325914984345555 0.7446645178310033 0.48148287853273813
0.4749028013172121 0.586220420326652 0.5178725141431916 0.19877120910965643 0.8303873377884706 0.28756438416297525 0.0525407399079435 0.6414498510644459
0.7866091096338063 0.4893418988894455 0.5157470895281175 -0.05547293769600511 0.6682340026895535 0.4818067666468529 0.4124422916842562 0.6687223692235869
0.5006305597621558 0.9662344950870249 0.5722895343179395 0.13973100835333033 0.18255056496498193 0.4247535614937416 0.538172627141681 0.7022515938173967
0.44572567940930236 0.39915891664400943 0.45575095138416727 0.7918460189590754 0.3109075869126387 0.6609459011449095 0.6779817772041696 0.22396863936940078
0.4718614671154445 0.36515216219805446 0.3373741606907071 0.34855981518298196 0.7593255155568371 0.777596855286287 0.18051487657018267 0.5958248312308968
0.5741427126618937 0.6166025300510358 0.7602882805321082 0.484733312951147 0.06666185912104339 0.9616629158205775 0.6128290655306595 0.7351954206723693

L f8 [40, 40]
00000000: ba1b 077d 03a6 d63f 466d d948 6e4d cf3f
00000010: f4d1 69da 63f3 e13f fe46 1465 d7f9 e43f
00000020: d5ab c8eb dc42 ca3f 0cae 9155 0a66 e33f
00000030: 3be7 afdd 3354 eb3f 06b8 3d14 d418 bb3f
00000040: 6a9a c559 b842 eb3f bde5 f5e5 d8fe e63f
00000050: 0855 62af 5996 683f 45d3 37f1 ae9c e43f
00000060: 66d6 bc8e 48ed cb3f cf90 77fd 5332 9e3f
00000070: 1350 559b 3c71 c53f 2aa3 d0a0 8113 e53f
00000080: 35ae b604 d6a6 c43f 9bf2 a38e 76dc e43f
00000090: beaa 2455 f373 e23f d0ea 08e2 0fb7 ea3f
000000a0: ba6d c81d 76ac e53f 0cb3 4644 5110 d73f
000000b0: cf14 46d7 1ddc d93f 3449 ad87 71fa e93f
000000c0: 0039 d413 d983 e73f b2a9 b379 1c3e d13f
000000d0: 36d0 c73a 084b e53f 60a3 d5af 7f45 f13f
000000e0: ed86 fb4c 9d97 e83f 2935 7bda 213e e93f
000000f0: 59b5 5222 df13 f03f 6639 d9be e098 f03f
00000100: 8de3 7dc3 a047 d33f ee5f 46a2 8cf0 c33f
00000110: 0a64 92b9 bc79 e93f e753 6bd9 e79a e23f
00000120: 8323 2a6d 6a56 e23f 5080 ded1 aba8 e73f
00000130: 14aa cbb6 b58f d93f 8586 572d ddfd b83f
00000140: 85bc b8e6 0fc5 e33f 37ef 69a8 fdf4 d13f
00000150: ca17 a526 eb1c e83f 9d5c e075 cf4e 96bf
00000160: 5e94 d8c2 3475 e43f 3561 e9c0 4b23 c73f
00000170: c810 cfdf 78ac d03f 8895 7bd1 c613 e93f
00000180: eb77 25be 50a9 d43f 3094 1e39 f2db 923f
00000190: 6432 f129 2efa d53f 9709 5e41 75b0 f03f
000001a0: 83eb 214b 4c43 e53f 496b 3741 7716 df3f
000001b0: 3257 46fe 39b0 e13f ecd2 b13f 006e d43f
000001c0: 4dd1 ecff b809 a73f c955 0108 d4bb f03f
000001d0: 5426 ccb5 8cfd ca3f 2723 f9f3 e382 e33f
000001e0: 1094 091f b550 a13f d356 38f5 0b8b d63f
000001f0: 6c9e 3a96 429d d73f c40d 91ef c2c7 db3f
00000200: f8d0 c131 d6c4 f33f 52fb 200e 3c49 e13f
00000210: c9c1 0b1b 4cfe e23f 95a7 af61 ef60 e83f
00000220: cd9d aeb7 6053 ed3f 2ffd 354a e701 c4bf
00000230: f388 ba3d 352e da3f b83f a347 6b45 f53f
00000240: 2d06 d93a ac67 e73f cb37 e006 9c19 df3f
00000250: 1c79 c1df 1f3a d73f 5d3d 04d1 dda2 ec3f
00000260: 96fb c65a b1a3 b23f 14d4 70ce d892 b4bf
00000270: ce9f 9e7b 61d7 e23f 4d04 dfe5 6ff1 d23f
00000280: 2252 8ccc 37b4 df3f 9e1d f870 f866 a13f
00000290: f94a 05b8 5851 e63f 2293 28ed 8d61 d33f
000002a0: a74e df38 f605 e03f b7b1 baf1 4560 cc3f
000002b0: e82e 001a f8d5 d43f dd7b 00e0 7a0b d53f
000002c0: 8ae6 fa85 d124 cc3f 56cd b425 befd e13f
000002d0: 1efd eb52 4d82 e43f d07d cd79 4a02 ea3f
000002e0: fb34 c297 cfd5 eb3f 831e 8abb 7b1a d23f
000002f0: 3824 2a7c 2e8f ea3f 8827 e251 bab0 e13f
00000300: c2da a939 5c59 e33f c5cd 76fb b46e d53f
00000310: 95cb 0257 7432 e53f ae1f a6d5 6c69 e13f
00000320: 31f5 e406 ae9d c5bf e2ae e65c ea5d c13f
00000330: ee01 6e6a 7019 aebf 7eb3 963d e3bf e53f
00000340: ca38 fae8 7288 ee3f 127c fe73 ac7a e73f
00000350: 55b4 1fac 104a f03f bb70 5e63 9ded e93f
00000360: 1cdb a7f4 ec15 d23f 357b f6f2 e27e d23f
00000370: d172 048c bd5c d13f 273d aad8 ba2a d03f
00000380: 132d 6429 0730 d53f 3078 42f4 5a4c d63f
00000390: e3b9 4d17 fcef e83f 5a16 fd28 ea74 d93f
000003a0: dc3b 4d09 28ac bfbf 8ff0 70ab d464 b53f
000003b0: fd55 58fc ee3e e63f ab53 8749 4fc5 e53f
000003c0: 2df8 36da 7c24 e63f 11bf bc90 c99d e23f
000003d0: 89c1 c0d4 d31a db3f 2ebf c2a6 dbe3 d83f
000003e0: f500 3d6c 6318 e53f d605 0b95 9f8a d13f
000003f0: 433a ed9d 3143 e13f 239f 8e35 6e94 e53f
00000400: 55a1 7b35 fe0f d33f 7ae5 9f09 c74b d73f
00000410: 57b2 7a1e 604d d63f 55fd 6e73 fb39 e53f
00000420: 59cb 1eb3 0fa4 e23f 15fc 1537 424a e73f
00000430: 2bdd 7119 6851 e53f 154a 2740 519f ec3f
00000440: b216 95db 9085 e63f 10c5 2e7e 0c9b d83f
00000450: 727f 01f7 3cca ed3f 018a fb4b 20d6 dc3f
00000460: d28c 9a83 d860 e03f 5860 03ae 08d2 d13f
00000470: 174c 0d61 8796 e43f fc6a 44c9 fa18 d33f
00000480: bfd8 cdfe f03c c13f 56b5 6eeb b75f d73f
00000490: d435 da40 fe1c e13f 41f2 8958 c833 d73f
000004a0: 5c1b fca7 fa46 e83f a3e6 1500 0b07 f23f
000004b0: 10c6 70df fdb3 e63f cfae dcda 0ac0 c33f
000004c0: 2087 8a2a 40d5 c23f f4a1 fd99 5fa7 ea3f
000004d0: 0fac dac0 355f df3f 64b4 1295 508e c03f
000004e0: 6762 fb37 d18b ae3f 2966 b5c2 eb78 d93f
000004f0: 8244 aefa 4a14 ca3f 04d8 a901 bddf ce3f
00000500: f743 2ef6 2b74 9a3f 0758 9bc5 0f1c ea3f
00000510: 6496 9a97 41c6 d33f 8f6d 93a6 e4c2 f03f
00000520: b35c ccaf 5b06 e73f ff36 cce6 84fb c53f
00000530: 5cbc 854e 963a cf3f ffa4 4d11 1f94 c0bf
00000540: 9b06 e27b 68b3 c73f e6cf d957 8cbd d13f
00000550: 6ab8 8e4b a4d6 d53f 1d40 3c88 63bc c5bf
00000560: 97d3 44c0 d292 e53f 2495 080c 4a7f ea3f
00000570: 54c3 4efa 5dd4 a8bf 4193 15d5 6e4a eb3f
00000580: de41 5be2 090f cc3f 9989 4756 bc90 e33f
00000590: 913d 6435 12d3 d43f d29e 5d78 b839 d23f
000005a0: 4ee9 eb23 8e65 e93f a4ca 0990 558b cc3f
000005b0: c50b 8880 1380 e23f 8d79 cfc2 8e9b d53f
000005c0: c33b 881a 5497 e33f 3d78 0dd8 76bd da3f
000005d0: 7857 3565 b11e e93f 99fc db92 69ea e23f
000005e0: ac93 02f3 ddc8 ea3f 1749 a2c0 b15b e63f
000005f0: ac97 d384 e727 db3f c205 b96f f1a5 e63f
00000600: 4e2f 57ae 65b0 d63f 57f6 749d b81f e33f
00000610: 0dc1 d3ba 5003 e63f 20b5 7a06 a8f9 e43f
00000620: 9624 f82b bd2c bf3f 2beb 7fde 01cd cd3f
00000630: c81f ee74 73a6 dc3f 3e36 dc18 116c e13f
00000640: 2e18 f2bf da72 f33f 5366 fccf fc54 e93f
00000650: 3e0a d109 759a d03f c04e 7033 d3e6 f13f
00000660: d66c bdb9 0c97 d33f bdc6 2043 3f81 ccbf
00000670: 4278 29cf 4345 e13f c453 037e 8494 e63f
00000680: d2ea ed77 6799 b53f db8c b382 d2f9 e33f
00000690: 6f7a 4ef1 125b c73f fdbb 7236 eebd cf3f
000006a0: cb59 2d49 fa1e ac3f 65a9 5d53 b3af ed3f
000006b0: 59c0 db59 8938 d53f 4526 b9df a048 d33f
000006c0: 15ce 6361 9c6f d23f 34c0 8df5 1b46 de3f
000006d0: a401 6c12 fc13 ea3f 6d73 f604 83de e73f
000006e0: 0be8 00cf c868 e23f a359 8e88 902c e53f
000006f0: 701e feca 910f de3f 4788 c707 89d8 ef3f
00000700: ce3f df58 2d18 e23f 101f 2539 0616 c6bf
00000710: 6716 6923 2f02 e03f 7fed 40eb e209 d93f
00000720: efa9 8ebc d4b0 ea3f eb29 7fba b636 ee3f
00000730: 8d1a 08c2 453c b33f 5113 2b3f 5951 db3f
00000740: 7de3 887c 5611 d93f 6496 5f47 c8d5 e73f
00000750: 11a8 9ea8 ec92 e63f d513 f10d 4b15 f03f
00000760: 79cb 5e64 321c d03f 5f1b 4ec6 fe88 b23f
00000770: 2c4e 4359 caa7 e43f a5ca 0fba 237f d03f
00000780: 5ddc 260f 926a d33f 1efb 02fc 8827 d43f
00000790: 3a69 22c9 d6ee e23f 4844 12bd 7059 e83f
000007a0: a5c6 f28d 30ba e63f 66b7 4fbc 4249 dd3f
000007b0: 1581 692d 1b1a ec3f a884 04b3 73ff de3f
000007c0: 856e 090a 1125 d23f 81a7 0a95 3e7a e33f
000007d0: 74f0 5c41 d50b e13f 5127 2574 57b1 e63f
000007e0: 50d5 ff15 a04f e83f 2537 b8a1 77f3 e23f
000007f0: a433 4bc0 73d8 7fbf 636e 6c5d 6619 a3bf
0.353882667634419 0.2445505004605854 0.5609606996427474 0.6554982160762106 0.2051654959953725 0.6062060996313803 0.8540286378695109 0.10584760183493822
0.85189454587528 0.7186092845360502 0.0030013801252361007 0.6441263877191906 0.21817881555186885 0.029488861413384634 0.16751821121818064 0.6586311474721687
0.1613414309516529 0.6519120012231555 0.5766541159585683 0.8348464407675582 0.6773024160096874 0.3603709379920452 0.4040598490031017 0.8118217134417933
0.734844721535211 0.2694159687513561 0.6654091976220176 1.0794674747978306 0.7685076240124694 0.7888345019543169 1.0048514691109942 1.03732370901306
0.30124682513228934 0.15577848361567653 0.7961104988527279 0.5814093824834544 0.5730487949486903 0.7393397425657984 0.3993963513482026 0.09762365681629077
0.6178054338723916 0.28057805487309245 0.7535300974639025 -0.021785012788396164 0.6393073850237092 0.1807646457625737 0.2605268655427264 0.7836641398868531
0.32283419198017665 0.018417153106970285 0.3433947953788332 1.043080573407314 0.6644650905067099 0.4857462059859939 0.5527620283416808 0.31921392650774183
0.04499605297169982 1.0458565056518287 0.2108627212222013 0.6097278370953959 0.03381887439608289 0.35223673770211156 0.368973395069111 0.4340674724118936
1.2355558341633337 0.5401897693589979 0.5935421493759857 0.7618328960354456 0.9164279544392514 -0.1563080894811519 0.40907031086147966 1.3294480131480508
0.7314053677911879 0.4859380786082254 0.36292263842723727 0.894881160960647 0.07281025377504444 -0.08036570587212594 0.5887916006513423 0.29598615120273025
0.49537463164714 0.03398872736948565 0.69742999974764 0.30282924804696354 0.5007277594363203 0.22168802550494401 0.3255596403039207 0.3288256824034173
0.21987360994335275 0.5622244583559375 0.6409060115401279 0.8127796534499172 0.8698499645267072 0.2828664142075256 0.8299782204713955 0.5528232192311728
0.6046582342376825 0.33488201672591017 0.6624089908058176 0.5441192791777121 -0.16887450539244633 0.1356785729998285 -0.05878783511343842 0.6796737864402613
0.9541563558903132 0.7337248101720226 1.018082306250354 0.8102557125853517 0.28258823291928237 0.2889945385631337 0.2712854258877942 0.25260802420321443
0.3310563949787177 0.3484103570316419 0.7792950110577376 0.397760906246139 -0.12372064807026056 0.08356980500770049 0.6951823166479582 0.6803356586557262
0.691954065514215 0.5817611529255108 0.4235124185243185 0.38890734944560534 0.6592270959881988 0.27408589892374147 0.5394523701195982 0.6743689580953042
0.2978511354727023 0.36400009097959407 0.34847262360088876 0.6633279089509566 0.582527017444913 0.7278147769828843 0.666187333771551 0.8944479229924719
0.7038044251173317 0.38446342775849107 0.9309372734387422 0.4505692235963182 0.5118219919571863 0.27844445222354386 0.643375100664687 0.2983996358395158
0.13467228356939207 0.36521718970728523 0.5347892061851618 0.3625355591428026 0.7586644440606096 1.1267194751111809 0.7094716419289302 0.1542981690084759
0.14713289334491098 0.8329313285476574 0.4901861556379012 0.12934310225446943 0.05966047104238186 0.3980054284525943 0.20374428978223952 0.24120295125220548
0.025833784962347974 0.8159254893787428 0.3089755993372363 1.0475813395376894 0.7195261415062276 0.1717382552091564 0.243975437489527 -0.1295203051079525
0.18516260193796516 0.277194104949784 0.3412256944528794 -0.16981166984669552 0.6741727595568702 0.8280382380513953 -0.04849523239625478 0.8528360521127994
0.21920894196092794 0.6114179310937288 0.3253827592279431 0.28477298502410264 0.793646879348026 0.22300214322202294 0.5781342993144497 0.33761948608835085
0.6122227209287917 0.4178139791382625 0.7849966980672738 0.5911147945734171 0.8370198961534832 0.6986931574231531 0.4243105694898712 0.7077567274174543
0.35451643014379364 0.5976222110109103 0.6879047059028679 0.6554756285237637 0.12177641223401489 0.23281882633440296 0.44765936297380593 0.5444417462874254
1.2155406473043615 0.7916244566178626 0.2594273181786412 1.1188537606548579 0.30609434260050017 -0.22269430902229273 0.5397051855213777 0.7056295834723803
0.08437201192820545 0.6242458870659918 0.18246685774370827 0.24798371943094813 0.05492384093547605 0.9276978138198443 0.33157571578249684 0.3013078865811603
0.2880621863434681 0.4730291269288529 0.8149395332148299 0.7459120842864714 0.5752910655057816 0.6616900126562552 0.46970028708935896 0.9951825286809787
0.5654513107092443 -0.172547128584704 0.500266617928628 0.39122841810213765 0.8340858156928429 0.9441789286150287 0.07513843524075466 0.42684012573981983
0.3916832176360499 0.7448464769374366 0.705435113273099 1.0051985306356432 0.25172099878107407 0.07240288106377822 0.6454822295585863 0.25775998277746687
0.3033795497862622 0.31491303072464116 0.5916551521689037 0.7609180157470599 0.7102282307079874 0.4575964774111213 0.8781867873149475 0.4843415497035246
0.28351236324463286 0.6086724196404562 0.5326944615003542 0.7091481464824289 0.7597198896097925 0.5922201307855387 -0.00777478423397052 -0.037303160576098525

weight f8 [50, 4]
00000000: 141b b1b9 18fa d23f 5227 687b 3314 c0bf
00000010: a686 7c89 5ea0 963f 2970 227b fcab c33f
00000020: 9162 1077 276b d63f 6783 43ea 4380 b7bf
00000030: 1faa 6c20 76d8 94bf 2b8f c85d 24c1 d63f
00000040: eb40 bdbd 25d4 d23f 01ad 19e3 40d5 d7bf
00000050: 0fe5 7d5b 0cc9 bebf 692c c9b3 440e d13f
00000060: a5a2 9a84 d319 bdbf a88c 5fbb 1396 d43f
00000070: 476f 045a 9acb b6bf 77ac 3f9a fb85 a7bf
00000080: f461 34b6 5587 d3bf e831 7eb4 600e cd3f
00000090: 8f85 cb58 2b1a d2bf 48b1 e265 2604 be3f
000000a0: 15da 995f 6974 dbbf c56f dc66 a20c d83f
000000b0: 34bc dd42 0d44 d8bf f0a9 7dac ffb3 a83f
000000c0: 2470 4c74 e30e c53f 84d9 daa3 c27d cbbf
000000d0: 9e7b 8d0a 2080 ddbf 6530 a2bc 462a cabf
000000e0: 3816 c8fb e46e d9bf 18ae d025 6924 ae3f
000000f0: 3595 578a 5db2 c03f eee6 9a32 d60a d9bf
00000100: 17b5 7d62 9712 b9bf 4d37 c6c0 051d b53f
00000110: 9713 c1c2 760c c83f 459f 5456 40fa d5bf
00000120: 1902 44f0 d066 c8bf 4cec 0013 5dd5 d73f
00000130: d96b 2b27 72a8 d43f 177e 602c a268 bdbf
00000140: 156a 573b 3470 d2bf 7ff6 bc59 1852 da3f
00000150: f242 135a 22d3 993f d9a6 0b2b 13c1 c63f
00000160: 71fe 8757 4ed0 d23f 0e7c d9f8 e10c ca3f
00000170: 01d4 fd77 3bcf aebf 3377 640d ba5b d8bf
00000180: cb02 856c 7600 933f d18c 9586 da7b c13f
00000190: 1906 fd2c 0100 de3f 67e0 1d3f 57a2 a2bf
000001a0: fb15 6aff 9a5a c8bf 71f9 e3cc c765 dc3f
000001b0: c3d2 2a8e 32d5 c4bf edea 00b6 0d2b de3f
000001c0: 19b7 2e68 4c45 d6bf 2c7d f71f 9be8 bdbf
000001d0: 4a51 7488 33a6 c3bf 1497 dc59 35f6 d3bf
000001e0: 0749 5400 b091 d83f 464a c0f8 a86e ae3f
000001f0: fc64 84d4 be93 d23f cff5 6d7d 174a c9bf
00000200: bc3b 199f 03d5 c7bf d93e 931b 9bf9 c7bf
00000210: 2e9d 67ad a415 cd3f c792 5e93 6806 dbbf
00000220: e5f5 7351 7e52 d0bf bde5 e44e 8065 c2bf
00000230: 2fd5 9aa0 3b6d c83f b551 2041 ec52 e03f
00000240: 55a0 580e 64a9 debf 4c79 c045 88c9 cbbf
00000250: a157 b5a3 d4c3 dd3f bf0d a0fa 93cb 9d3f
00000260: 9f35 7a17 c362 9b3f 1206 2fe1 86bc a93f
00000270: 246d 1795 3ba4 c73f 583a 4d56 40fb d73f
00000280: 3453 1061 cead 61bf 1fcc 64a3 6ea5 c93f
00000290: 0051 cdf4 6e00 9b3f c554 c8db f75d 86bf
000002a0: 746f 7f3d aeac c0bf 39ab 78b1 ce21 dc3f
000002b0: 003c 85c5 8de4 dc3f 577c e983 6019 d93f
000002c0: 6a6d 1f93 e392 c2bf 39ed df20 8390 d1bf
000002d0: 3a73 7f19 1827 b93f 5774 bdbf 5dc7 d8bf
000002e0: 5eb7 4b85 3224 e1bf bd66 2e5f e33e dabf
000002f0: 55de a6ae 6ff4 b13f 923b c0b6 48eb db3f
00000300: 0fa1 591d 64d0 a2bf 83e6 8cc8 8c10 d0bf
00000310: eaa0 68e1 7190 b8bf aa54 a2d1 1ce4 ddbf
00000320: cafe 5b7f 0eb9 cebf 8474 44a9 6311 7d3f
00000330: 98c4 2e6b 1eac db3f 720f c3ef d5f2 8ebf
00000340: bf8a 0315 5824 d73f 3efb b888 764c d4bf
00000350: 9bd4 735d 2f74 d73f 9765 1504 43b9 d1bf
00000360: e8d5 83c6 cc11 d9bf 5016 6c4d 2a48 b8bf
00000370: 38d8 620e e73f d33f 9a07 65b8 fc0b d83f
00000380: 8295 7ea9 7a31 39bf 0172 d762 c42a c83f
00000390: bbbf 0fa5 781a a2bf daa8 23ff 0cf3 c33f
000003a0: 7b3c b1d5 05b0 c3bf 8f56 8d9d 4a2a a63f
000003b0: 1fe5 a6b5 5032 c3bf 0f7c ba4a ecaa a7bf
000003c0: ad25 8a20 f8a0 c6bf e74a f4ea 4b66 d7bf
000003d0: 6d29 7383 75db d83f 00b5 2705 b5ba cb3f
000003e0: 5e2a b78c da93 c3bf 4419 cbda 8ad3 b43f
000003f0: 9481 080c c919 debf 0ae0 d187 bc50 d93f
00000400: a7c3 da74 1530 b93f cb40 7a80 629f d2bf
00000410: 8f17 7ec0 334c dcbf 3f34 9010 2c8c aabf
00000420: 78c1 152e 1f97 613f 5957 05f0 f482 d93f
00000430: 8848 e791 7f34 ab3f 18f3 3f01 4edd c3bf
00000440: 330c 62a7 c738 d53f 99ff d29b 1714 c13f
00000450: 611d e359 40be cc3f abf4 d86c f30b c93f
00000460: cf05 f0cd 394b ad3f 97fa c7a1 331e d9bf
00000470: 8fc6 9899 1d2c c8bf efc4 c6c1 bd0e b4bf
00000480: 9ff5 d224 2b84 b73f 28d0 b0b8 a688 cf3f
00000490: b4f8 9e9e a58e e7bf 015b fcb7 1206 c6bf
000004a0: 0e3b 10dc 522d c5bf 8989 8f31 3b7f c93f
000004b0: ca98 509b edf0 b5bf ad35 09ad dbd5 a5bf
000004c0: f708 14eb 5b97 d3bf f6ea 7a7d 15f1 e1bf
000004d0: 775e 3b35 70a2 d23f c0e7 baa8 3cdd da3f
000004e0: f96b e291 8ad6 d3bf 3efc d261 6a32 babf
000004f0: f513 558b 5103 d03f 1075 a2ec d395 d63f
00000500: 9a28 b5b6 3e4e ca3f 41e7 37bf 272e f1bf
00000510: f34c bf4e 04ae e3bf 6277 288d d75c e23f
00000520: 9a16 81a3 e2e5 d03f d66e d7c1 3249 da3f
00000530: 0fe6 736a f604 ccbf 1d09 9eeb 4f16 de3f
00000540: 82f6 2f16 1e75 d23f c1e2 c28b 9ec8 c7bf
00000550: 194f b4d2 4066 b63f be68 a905 afdc c63f
00000560: 550e 754f ea29 dd3f 4b28 b317 e44d cabf
00000570: 37f5 e20b c905 b23f 5f85 12e8 e371 a63f
00000580: 7378 82a4 728d e1bf 49bf 36b9 3914 aa3f
00000590: 6257 1969 4885 d4bf 1f22 8dfe 8c6f e0bf
000005a0: 9d01 368c 71f3 d1bf a45c ae27 934a d2bf
000005b0: 76b5 6f09 39b0 cb3f cabb 1740 804a d93f
000005c0: 29b7 6976 4c98 bd3f 5880 ec0e 24a6 cfbf
000005d0: 2a13 31eb 9091 d4bf 28a4 6a85 9117 b33f
000005e0: 4d30 72e4 8313 923f df45 fd38 fb21 bd3f
000005f0: ed0b 9063 f0be 67bf 8ba8 7d4e 05f8 90bf
00000600: 6fbf edc3 1df1 d73f a4fb 389a c99e d1bf
00000610: 758c 2a8e 6326 c03f a011 5122 e193 d63f
00000620: 3116 1972 835c c6bf fd55 defb bc76 d4bf
00000630: cc37 98b5 e994 ce3f 6c55 c450 6d09 e03f
0.2965146840473818 -0.12561648870205971 0.022096135274415694 0.15368610393932272 0.3502901709303297 -0.09180092305497355 -0.020356984833748478 0.3555384555677274
0.2941984513208939 -0.37239095857394494 -0.120255253159389 0.2664958720894846 -0.11367532718089508 0.3216599778954312 -0.08904423425377415 -0.045944082812490565
-0.3051351813642491 0.22700127423412586 -0.2828472487581956 0.1172508238548221 -0.42898020111116014 0.37577114148166074 -0.3791535523404861 0.048248281293883255
0.16451686075822736 -0.21477540016867291 -0.4609451392224687 -0.20441517077086072 -0.3973934611134129 0.05887154184923932 0.13044327979074813 -0.3912864202680869
-0.09793993143621936 0.08247409778979638 0.18788036832316088 -0.3433991282531575 -0.1906377003833917 0.37239767890759334 0.3227811224475637 -0.11487783034726139
-0.28809839053215686 0.4112606884335505 0.025219475505596507 0.17776717759925623 0.2939639906689769 0.20351814890725034 -0.060174806973840596 -0.38059855754714816
0.018556452153691432 0.13659221240513955 0.4687502803172677 -0.036394812063861796 -0.19026505919843814 0.4437121868976624 -0.16275627080690044 0.4713777806643254
-0.3479796426207585 -0.11683053522528003 -0.15350956118403253 -0.3119023683124038 0.3838920596327999 0.05943801914704187 0.2902676654208134 -0.197573601002587
-0.1861881758545375 -0.18730486723369813 0.22722300021198677 -0.42226614371820087 -0.2550349994124573 -0.14372257091762988 0.1908335241511536 0.5101224205014235
-0.4790887966250968 -0.21708777814724056 0.46507755267281864 0.029096901103924596 0.026743934925027465 0.05026647089790627 0.18469948558672755 0.3747101633825074
-0.0021580725520017555 0.20036108949861473 0.026368840877084132 -0.010921417612772885 -0.13026979449102394 0.4395634396666313 0.45144981659990435 0.39217388994251706
-0.14510769542435337 -0.2744453259508251 0.0982527792215934 -0.3871683475934495 -0.5356686213906234 -0.41008838934940767 0.07013605131111807 0.43623559805649237
-0.036746147711541714 -0.25101012787818194 -0.09595405343191357 -0.46704788658218865 -0.24002248018950062 0.007096661855283352 0.4323802992540293 -0.015111609820799041
0.36159326603062064 -0.3171669326001626 0.3664663708326061 -0.27693248175418134 -0.3917114199278715 -0.09485115423384483 0.3007753029336331 0.3757316399315812
-0.0003844189136493413 0.18880514932870088 -0.03535820975218892 0.15585482080434226 -0.15380928930469281 0.04329140828364785 -0.1499730002376873 -0.04622591411793319
-0.17678739155625803 -0.36561868614914633 0.3883947166147184 0.2166353488131918 -0.1529496371352534 0.081352880874964 -0.47032381224746556 0.39555276168494
0.09838995077985989 -0.2909780745185457 -0.4421510104951886 -0.051850678464781634 0.0021472558007006835 0.39861796798264987 0.05313490539596538 -0.15519118367219487
0.33159056993480646 0.1334256659374631 0.22455601109525516 0.19567721190279505 0.057214552296510506 -0.39246836470548757 -0.18884630203097116 -0.07834993344183137
0.09186048172974502 0.24635776537036347 -0.736162957960707 -0.17206033691100944 -0.1654456686523748 0.1991952888484543 -0.08570752183786393 -0.042647232887797905
-0.30611322361814025 -0.5606791926178107 0.291164447769439 0.41975323178814605 -0.30996956106690693 -0.10233178032193366 0.2502025471370069 0.35289476498458416
0.205512847149582 -1.0737683743922875 -0.6149922884018494 0.5738332516664111 0.26403108565532707 0.4107176678642025 -0.2189014453686444 0.4701118279409842
0.2883982865022078 -0.1858099157741631 0.08749776024006585 0.17860973144963127 0.45568330535409035 -0.2055020442697376 0.07040077724646641 0.04383766372599029
-0.5485165799216375 0.050935558184731784 -0.3206349398000069 -0.5136170360283961 -0.2804836148498227 -0.28580168604953315 0.21631539307365316 0.39517217883161193
0.11560514346066654 -0.2472577164526253 -0.32138464897097896 0.07457837588539518 0.017652569597473456 0.11379976407376756 -0.002898664006808263 -0.016571123996449926
0.3740915692678674 -0.27531662045287875 0.1261715358897139 0.35277584410894214 -0.17469828673545032 -0.3197472057011906 0.23891946188854118 0.5011507585028716

bias f8 [50]
00000000: c8eb 7663 c155 d33f 486f fd00 10b4 d3bf
00000010: 2070 c8ac 2edc bfbf 86f3 7373 3e86 a23f
00000020: 7c6d 59a3 04c1 933f e7f4 7b36 68b4 633f
00000030: fa75 30ae 5363 e03f 46fb 6761 de27 cfbf
00000040: 8264 0cf7 853f d03f 7e87 6881 f23b cfbf
00000050: 960c 2231 24ca a93f 9fa7 b932 7e57 ce3f
00000060: 934b c488 f223 d03f 4b56 0415 c582 ddbf
00000070: e619 99d8 510a be3f 67ed 444a da82 a7bf
00000080: 7961 a75e cde5 b0bf d6e1 6122 a7fe d5bf
00000090: fc35 493d a292 cdbf 4343 ff48 f407 d1bf
000000a0: de57 f7b8 b58d dc3f e4e0 2fb8 9277 cd3f
000000b0: 88b3 50e1 6163 cb3f 075a a4eb c43d cfbf
000000c0: 4dcd 9469 a8b8 d83f 00f2 12ca 6daa cb3f
000000d0: f258 bbe3 0ede d53f ea7d e703 2407 d8bf
000000e0: da08 c3cd 4c41 c03f 0233 b93a ec94 d8bf
000000f0: d0d0 84c7 16c7 d7bf d70d 9808 b23b db3f
00000100: 2c79 5630 c951 d6bf 98c7 a694 006f bd3f
00000110: d0f0 04c4 fa59 cabf 5426 38d2 ee20 d2bf
00000120: 4222 ad4c 6a15 c13f 8465 caf6 dc80 a53f
00000130: 4b92 1f79 4622 dbbf c0c5 a88a 2489 91bf
00000140: bf2d 25bd b869 bc3f 959c 9f60 f422 e03f
00000150: bd8b 1b6b e706 a73f 4e5b 22dd e73b d5bf
00000160: 2160 4d23 9c12 db3f b158 4173 0f57 dd3f
00000170: 35dd 3fbc 6254 df3f 1296 9f99 3354 a63f
00000180: a2cb 00e6 af8a cf3f f255 a963 6420 df3f
0.30210909570058364 -0.30786514374425566 -0.12445346563657766 0.03618045005166608 0.019290993185092628 0.0024053607374968536 0.5121248628744859 -0.24340419536744146
0.2538771545965305 -0.24401694601788998 0.050370341298752994 0.23704507328812682 0.25219405513888055 -0.4611065583461353 0.11734496629751553 -0.045920201841421364
-0.06600650368580387 -0.34366777761127076 -0.23103740684966556 -0.2661104882109166 0.44614928305725055 0.23021158212191672 0.21397040845604587 -0.24407254701573342
0.38627062140149776 0.2161385761918524 0.3416783546393979 -0.37543583279872783 0.12699279829946059 -0.38408952460012824 -0.3715264271188632 0.42551852072958013
-0.34874181480872113 0.11497501019655798 -0.20587095805411204 -0.28326006440383833 0.1334660410305038 0.041998772741133755 -0.42396699741792493 -0.017124720538225224
0.11098818414500665 0.5042669188668635 0.0449745481726249 -0.33178135485780025 0.4230108589886204 0.4584387422122616 0.4895254934667322 0.04361115694318242
0.24641989451046437 0.4863520596748848

weight f8 [50, 50]
00000000: f250 2d66 0330 c1bf 3591 ad04 0378 aebf
00000010: 2174 1876 96bb bfbf 5e24 94b9 2978 bcbf
00000020: 959e 8649 3463 93bf 3473 8a2b f509 c0bf
00000030: 44f1 5074 d79f 9bbf d495 4f5f 7250 723f
00000040: 0123 e758 211a a8bf 2df7 7097 221c bcbf
00000050: fc65 c07b 896e 85bf 7203 0dc0 55d4 c23f
00000060: c435 fb2f bf74 7c3f ba88 7b11 938f 863f
00000070: 1d26 772f 1880 bd3f 67d3 8335 b2c3 9b3f
00000080: c7e5 917c 9508 bb3f 3cf2 c57a 1db9 b83f
00000090: 68c2 41cb d1ef b1bf d125 c1dc cd62 cebf
000000a0: cde6 dd68 4f7b b63f 2da0 e939 1438 673f
000000b0: 95fd d421 e273 c43f 2283 e31f 199d 95bf
000000c0: 58f6 c79d f904 be3f e36f a2a7 c73d 8bbf
000000d0: 428d c05b b4f0 aabf 73bc 5ddf 9d8c b3bf
000000e0: 1e00 0a04 21f5 2fbf fc14 6057 d9ed a5bf
000000f0: 8238 4ea4 bed2 bd3f 7332 8553 88f4 a13f
00000100: 35d0 9049 d73f 99bf d3db 9c31 1234 a73f
00000110: f012 bf33 b5a9 bd3f c826 cfed 2f10 c23f
00000120: 9445 827b 7cfa ba3f b284 c22d 5d58 903f
00000130: 2540 2b2d 2d5c a6bf ed74 cf8f 1783 b3bf
00000140: 5a16 1bde 3c17 c2bf 62d5 2f1e a706 c13f
00000150: b4ed bce3 536e c0bf 4c59 07ea 7e62 bebf
00000160: 3676 bd74 c41a c03f 37fd 1178 21dd b8bf
00000170: 8b35 8cc2 d34a babf c21d cda0 d8d4 6abf
00000180: 1ca6 703b ddb6 b03f 845b 64e5 dbac b63f
00000190: 9ee7 858e 76e6 babf 8ea5 ff07 0352 733f
000001a0: f731 f9ee 27ff b13f 734f 10fd 8578 b1bf
000001b0: d212 cb16 37b3 98bf 90d4 c1d1 8b75 8e3f
000001c0: 5301 a403 3a01 98bf cb19 c6dd 988c a9bf
000001d0: cbff 59e2 f65f c13f 9b93 71cd d78e b23f
000001e0: 91e4 066f 4cb1 b1bf 7ee2 191c cfc6 b13f
000001f0: 34b7 7025 f205 adbf a8c1 7a6e 6b20 bcbf
00000200: bfbc d3eb 1bfd a33f 852f a98a 7e19 6ebf
00000210: fa1b 8f2c 73e0 b93f 37bb 8ca9 fa37 7fbf
00000220: f5d0 c387 6073 bd3f 2323 2381 f9e7 943f
00000230: 0779 f083 4e42 c63f 3d2e 53da ab37 c33f
00000240: 3551 071c c308 b0bf 67f2 9404 b061 c33f
00000250: b31c d383 b65e ad3f bbdd 0875 3a13 a83f
00000260: ee54 7a21 e999 b4bf bf32 7723 4abc aebf
00000270: 9c6a ca85 04d2 bdbf ef40 89ee 80ff b53f
00000280: 7023 19c5 cde0 abbf 0bcc 9852 5f54 a73f
00000290: 8e2a eb29 d37a bebf 6ac9 b0ee e5f8 b43f
000002a0: cdfe 1006 5cdd b73f 8d30 8bb1 6293 bbbf
000002b0: fb00 cf3b ee0f c0bf b2f1 7808 366c ab3f
000002c0: 2f81 4f07 b2a0 aa3f 52c1 8ada 3278 abbf
000002d0: bc4c ed75 69e9 babf 05b3 9afd 6c1f 8fbf
000002e0: a814 87cb bf62 a63f eeb0 1668 a7c6 b03f
000002f0: 3d4c 5b63 414c a4bf 44ba 93cf e92b c83f
00000300: 7e04 d370 210f aebf a1e1 ae99 b512 b3bf
00000310: 5c90 2925 349b afbf b51f 5b15 c9e4 c33f
00000320: f2bb 50b5 ac62 c1bf 128e 53a9 77df b43f
00000330: 3d91 09ee 0d06 be3f 915e b545 3352 9bbf
00000340: a7cc 608d 1f6d abbf f39e 9f30 28bc b0bf
00000350: 8bd3 46cd c5a2 b1bf 14bf 9a18 a8e0 4bbf
00000360: 9e22 6c88 b4cc b5bf 7e93 b7cd c5a2 b1bf
00000370: b272 3901 976f a2bf a1f5 daee b8df aebf
00000380: 3cd2 f12f 8797 b83f e82f 4da7 4f36 8a3f
00000390: 44b3 6526 ba4e bf3f 0a90 c29f bea1 b03f
000003a0: 6fec 2077 e91f c03f 4c2e 6570 ff81 b13f
000003b0: 679c 1d78 90c5 b4bf 8514 6bfa 8b3c bd3f
000003c0: bee2 7304 9caa b03f 60e5 6b44 8295 c23f
000003d0: 394a 59f9 5c6f c03f ab2b 3e56 1820 b33f
000003e0: 876a 8cc4 d2cc 933f 4e55 6f48 05a2 a2bf
000003f0: b21c c496 dc84 b8bf d8f3 962b b636 a8bf
00000400: a6b9 a268 f666 a5bf 8670 bc4c d99f b7bf
00000410: 836a a4e7 647a 853f 5b5a 4277 437e b03f
00000420: d824 d6ff 16ff b53f a6bd c6a7 73d9 93bf
00000430: 6962 3e21 d24b b7bf 5ff4 4f73 e3b5 99bf
00000440: 7a79 081c 221c adbf d5af 9846 d1f9 b63f
00000450: b855 03d5 a5cd b6bf 3def 6452 c71e b5bf
00000460: c11b 2018 2d80 c2bf 4848 57fd a656 c0bf
00000470: 43b2 6fc8 3658 943f ac8e 4f66 d003 aabf
00000480: b81d 616c ece6 a23f eeb1 b390 ce09 b53f
00000490: ecc9 8c1b bb24 c5bf 56a3 0d9a 59f5 b2bf
000004a0: 3cd9 d1ad 42b9 b3bf b31b d720 15b0 c23f
000004b0: fc7a 3751 9e19 ca3f d098 3cec 65d5 a4bf
000004c0: d496 6e55 9d6e 843f 6d8a 0a3d abb3 a33f
000004d0: c765 c9a5 fe31 9ebf 31eb 87d0 e972 aebf
000004e0: 9d3d 38e9 f1d2 823f fb10 ee8d 5386 b8bf
000004f0: 633d f000 c059 a93f 8b79 38aa 5cad b13f
00000500: 0d1e b9a7 75bb c3bf ed43 de6f b7d8 c23f
00000510: 4512 8de0 b741 a13f bb44 3593 140e ac3f
00000520: 355d 1a72 28e5 803f 664c 1240 0fbb c63f
00000530: d4b1 7358 9bcf c43f 9662 bef5 97c9 b9bf
00000540: 1040 2c2c 5568 b53f fe15 e10a 58b0 c3bf
00000550: b9b9 16fc bb5c b83f ba86 58a6 5e39 bebf
00000560: b47f aa76 8a93 b13f 7733 608b 001a b23f
00000570: 01b8 5acd 093d d0be 14fe 116b b973 abbf
00000580: 1f27 5b1f ddc5 a93f f52b 6c80 bb6f bbbf
00000590: b071 e1cc 196f c23f 1135 d96d 2ab0 bf3f
000005a0: c0d0 a5c5 a9b6 a73f b8d6 5c74 f0cb b1bf
000005b0: 78d1 83e9 e4a9 be3f c2a0 bd58 b184 a03f
000005c0: cc81 adc8 4224 a9bf 14f2 adf0 a6ba b43f
000005d0: 9fe6 4b59 fa8d b13f 9aed 7b19 092f b4bf
000005e0: 696b f4e3 c035 c03f 469b ee72 4e51 ba3f
000005f0: d79f 53bd 5daa b33f 9497 87a9 1022 bbbf
00000600: 6103 0193 da0c b73f 2150 d8ce 449d b83f
00000610: 03ca 850c 0c2b 9b3f 54ea 2d99 c2e6 bb3f
00000620: 2638 2b8c c295 863f 8c92 4ac2 65d4 a53f
00000630: f296 0af1 fef3 c83f 9528 f19e fae1 a5bf
00000640: 1d41 7ef4 24f3 aebf d96a 743c 64a9 bb3f
00000650: bf87 a95c b6b5 b6bf f072 51f1 9a2c c9bf
00000660: e2d5 85a8 5d9c c2bf 8021 56e4 0a21 c4bf
00000670: b510 3e5a c112 a33f 9e79 749f 9d4e 98bf
00000680: e351 1df6 10be 9fbf 60cc 7a3f fecc b9bf
00000690: e4df 67cf 0991 b13f 9232 ba3f 1195 9c3f
000006a0: 1899 7db2 2828 a8bf 563a 9889 7edd c13f
000006b0: 5c46 d5ac 43f2 b63f f76a e668 db62 d3bf
000006c0: cce9 a06a ff6d 8a3f e443 7e34 6d2c c1bf
000006d0: 79b8 2fc6 4eff c0bf 8322 ac03 27d9 91bf
000006e0: a193 17c5 39bf b5bf 5fd8 cab3 4815 b73f
000006f0: 86c7 60c9 4d23 b2bf e88c 1ff7 8f41 9e3f
00000700: 7737 e0fb f6a1 b2bf 5d2c 53a4 e401 b53f
00000710: 2b80 da92 9488 61bf 65ce d1d2 8ea6 883f
00000720: 7c98 1550 84f2 bc3f 1330 c1cd e937 b7bf
00000730: 8e38 bcbe 5521 c9bf 97f1 8e30 571b a73f
00000740: 7a82 2c7b 8959 a43f 098b 8372 422d a03f
00000750: 6744 efd8 9d1d 913f 4003 7b25 9cf9 b3bf
00000760: bc90 54fb 0676 d53f 708b 17d5 2fcd c0bf
00000770: 1440 86f7 8a41 acbf 74cc 538e b2c6 bc3f
00000780: a845 b027 88c8 afbf cfce e306 f4a0 be3f
00000790: 0b40 a2d8 db62 b5bf 53fb ccb9 7ab0 abbf
000007a0: cdce 81c7 f6ed a2bf 42a1 f9e8 b309 b83f
000007b0: 156b 9a7b d621 ad3f 5257 1bbc 97c6 b3bf
000007c0: 9845 0a75 c2c4 c23f 0cec 1ccb fff3 b9bf
000007d0: b58b f879 ba36 1b3f d308 0828 14bd b23f
000007e0: c8d5 83f7 7f16 a0bf ab5a 094c 66d1 a53f
000007f0: a952 acb0 1987 b5bf 4129 cfdd 32e6 b93f
-0.13427774895774963 -0.05950936729530768 -0.1239561117476602 -0.11120854168633929 -0.018933121669447123 -0.1253038847543394 -0.0269769348853839 0.00447125126536237
-0.04707435808410843 -0.1098043079118411 -0.010464738930795463 0.14710494878275032 0.0069472759493697835 0.011016034098649253 0.11523581656288014 0.027113708988469123
0.10559973040826441 0.09657463309663056 -0.07006560528112404 -0.23739026335742477 0.08781906423783 0.002834357742631985 0.15978647853806352 -0.021107094355900753
0.11726341344907476 -0.013301429560946992 -0.05261767978688649 -0.07636439040446578 -0.00024381664299610943 -0.0428302687796904 0.11649695884099923 0.03506876010451245
-0.024657596459477033 0.04531914573310982 0.11587078584041044 0.14111899482514034 0.10538461699822782 0.01596208183093912 -0.04367200065974001 -0.07621905575748018
-0.14133416028032536 0.13301552747695228 -0.12836693401355392 -0.11869042600242102 0.12581687641334022 -0.09712418729212834 -0.10270427226733696 -0.003275321103874269
0.06529028607533188 0.0885751185454478 -0.10507908801619556 0.004716884461211447 0.07029962143241862 -0.06824529102624215 -0.02412115170115465 0.014872639025478557
-0.02344217917652831 -0.049900796005249846 0.135741100810263 0.07249211087908096 -0.06911161146753587 0.06943983493864356 -0.05668598849329812 -0.10986968467000813
0.03904044393299832 -0.0036742660061345766 0.10108108365885463 -0.0076217452522502815 0.11504176439831666 0.020416162974274187 0.173898519919881 0.15013645325085348
-0.06263369974414419 0.1514186880466639 0.05736322745502189 0.04702170065541674 -0.08047349040346649 -0.06003028567247303 -0.11648586527227639 0.0859299261439934
-0.05444949179633951 0.04556558497679227 -0.11906165860561144 0.08192288472563339 0.09322142742257285 -0.10771767458499167 -0.1254861633333418 0.05355995992110553
0.05200725878944678 -0.05365141790150808 -0.10512408379627208 -0.015196658601178034 0.043722146601376466 0.0655312184450769 -0.039644282701964496 0.18884012828444174
-0.05870918752908326 -0.0745042324259715 -0.06173098519937589 0.15541947882434007 -0.13582381108560032 0.08153484233803734 0.11727988301715171 -0.026680756692569366
-0.05356691933447993 -0.06537104785058627 -0.06888996373784388 -0.0008507557660859277 -0.08515480356812552 -0.06888996384038923 -0.03600761308618895 -0.06030061641420593
0.09606213493845756 0.01279890279115388 0.12229503095086353 0.06496802711859587 0.12597387615992114 0.06838985914253576 -0.0811395924807684 0.11420512069442353
0.06510329350192998 0.1451876482094958 0.12839853453859165 0.07470848184145377 0.019336026426666677 -0.0363923693582061 -0.09577730828106004 -0.047292416401866155
-0.04180116679468719 -0.09228284953536744 0.010487354582939595 0.0644266287002692 0.08592361207969945 -0.01938420020604572 -0.09100068389523987 -0.0251079119807297
-0.05685526458931896 0.08974941228433349 -0.08907543612016056 -0.0825008941800975 -0.14453662565230554 -0.12764441843188679 0.019867759689008457 -0.050810348977191694
0.03691805670728904 0.0821808913494306 -0.165183437778594 -0.07405624400202035 -0.07704560035367519 0.1459986124375213 0.20390681234035657 -0.04069059857128965
0.009976605577161214 0.038480139924350044 -0.029487589711015418 -0.05947046919387445 0.009191408090400805 -0.09579965796553218 0.049512863268428096 0.06905154376770477
-0.15415831269841399 0.14723866426768897 0.03370451561071212 0.05479492470716126 0.008249584180971862 0.1775836050843253 0.16258565730039598 -0.10073232411958552
0.08362324074209959 -0.15381908923352222 0.0951650133563139 -0.11806289254357241 0.06865754506225025 0.0707092609665788 -3.871543602746928e-06 -0.05361728126535695
0.05033770568623041 -0.10717365155521448 0.1440155268090968 0.1237818258461696 0.04631548440639355 -0.0695181163872246 0.11977987957999925 0.032262365419968755
-0.04910477351836881 0.08097308517421481 0.06857266120996507 -0.07884270546121855 0.12664042597392758 0.10280313783605974 0.07681833145363669 -0.10598854197414048
0.09003988350833715 0.09614973115850535 0.026531399025268253 0.10898987045030967 0.011027831938374599 0.042636089293670215 0.19494616288755356 -0.04273970785341522
-0.06044879421745206 0.10805345989175964 -0.08871021044026771 -0.19667374404061588 -0.1453969071259698 -0.15725837849846513 0.0372524664553863 -0.023737395150527633
-0.030998482724799003 -0.10078419732853794 0.06861935914628209 0.027912396921737477 -0.04718138865318816 0.13957196920860565 0.089634160705168 -0.3029087566771262
0.012905116502328527 -0.13416829169412303 -0.1327913730341981 -0.017429933165689093 -0.08494912206476936 0.09016851796590818 -0.07085119406181492 0.029546975572782325
-0.07278388642609267 0.08206013690794252 -0.002140321905997685 0.01203643399114824 0.11307551341232797 -0.09069691918665539 -0.19632980168575326 0.0451304671073302
0.039745613370773605 0.031595303038349405 0.01671454083026838 -0.07802749552776067 0.33532881301858786 -0.1312618055809156 -0.055187552180655214 0.11240688299931084
-0.062076811642451546 0.11964345138749909 -0.08353971518431551 -0.05408080595088074 -0.03697177110089243 0.0938980525767237 0.05689878710582811 -0.07724903433276367
0.14662962641572785 -0.10137938221753034 0.00010381234323424036 0.07319761254624106 -0.03142166038916688 0.04261321714573304 -0.08409271777447692 0.10116880336059798

bias f8 [50]
00000000: 3acd cf85 81f7 933f 0eca 10b4 bdb1 b7bf
00000010: 0f4f e627 9738 94bf 4a79 850b 1156 c33f
00000020: 6074 022b 9346 96bf e8ad b499 b239 babf
00000030: 6fe7 339c 1e8b 8ebf 0362 9d19 d1da be3f
00000040: 8eba e1c7 5e57 c23f d9b8 3043 300a 99bf
00000050: 0f47 af46 9952 bbbf cd1f 7f72 2472 babf
00000060: 5911 3228 6c19 b8bf 1358 8fa6 6b91 bdbf
00000070: 9e08 1075 aecf 303f 392d 7721 ad0a bfbf
00000080: 782b 20ae d0f6 a53f a12a b2e7 85db c13f
00000090: d892 2ae8 7dda c0bf 527b dbd2 1cc1 4e3f
000000a0: f061 1ed1 6620 b6bf 93b1 d67d a603 bbbf
000000b0: da06 e30d 7a5c 94bf d3e6 43db c2fc b83f
000000c0: 7a30 7e3f 6c56 b7bf e840 d17c 4f39 b43f
000000d0: 930b 7eec e932 b33f 9935 d5a9 b951 973f
000000e0: 7f1e f590 1f4c bdbf be02 cfba 67c4 c33f
000000f0: d172 32fd 07db 63bf 1407 4d00 439f bebf
00000100: 3e52 b226 e296 b0bf 7b66 f3e7 563a b73f
00000110: 915a 0b2f 0799 bdbf 4e14 c9e1 5ad3 b33f
00000120: 8471 1664 0f3e 98bf ad5b f5c4 c762 af3f
00000130: 6800 7a51 117f b73f aa10 22e7 5fa9 bd3f
00000140: 244c e200 6ab6 a63f 2201 108e f937 b03f
00000150: bdc4 794d 3757 ad3f 1c7f d4ac 91b5 b6bf
00000160: 0f8f 6e89 8892 bdbf ec1f f660 61b4 72bf
00000170: c701 a07c 2b2f b1bf b7fb 6027 3923 c13f
00000180: 35a8 8be5 f6ef a63f 8741 f363 ced8 c03f
0.01949884776327091 -0.09255586286671066 -0.01974712544468021 0.15106404364173392 -0.021753596782776774 -0.10244289639074788 -0.014913787023477202 0.12052637935028802
0.14329132804728711 -0.02445292863938495 -0.10672910667133471 -0.1033041743786491 -0.09413791638696035 -0.11550019089131096 0.00025651940546834475 -0.12125665728597292
0.04289867520863927 0.13951181233672563 -0.13166784130330345 0.0009385481586966316 -0.0864319096130044 -0.10552445003731341 -0.01988402089842265 0.09760682919650358
-0.09116245794410985 0.07899948880481455 0.07499563239802702 0.02277269457890938 -0.11444279946328527 0.15443131085887346 -0.002423778155913638 -0.11961764104219369
-0.06480229801884094 0.09073393977032566 -0.11561627291244238 0.07744377147999268 -0.023674240573755792 0.06130050925519668 0.09178264846014061 0.11586570160767687
0.04436045895376875 0.06335410803149391 0.05730603047130376 -0.0887080237339401 -0.1155171714331653 -0.004566555391086507 -0.06712600510218812 0.13388742850108112
0.0447995333868935 0.13161640053159493
