lasa_models/5/skel_model_RShape.pt (torch, 99247 bytes, 18 tensors)

R f8 [20, 20]
0	0x3fd6c0598533e26e	0.35549009330819714
1	0x3fdf4ba8b85e773d	0.4889928627470573
2	0x3fe6ea76c419f3d2	0.716121085176946
3	0xbfc048c48bcae3fd	-0.1272206957417267
4	0x3fd8d17432f67087	0.3877840516740964
5	0x3fd917e1aafbb26d	0.3920826120145538
6	0x3fe340b83f7f498a	0.6016503563098905
7	0x3fec0d14d8cff1b0	0.8765968546500087
8	0x3fea401e44847d7a	0.8203269327386089
9	0x3fd181fd375fafb9	0.27355890662760945
10	0x3fe57f6931830b10	0.6718030898121885
11	0x3fdccaa62f55e7dc	0.449868723131315
12	0x3fec2980e66d5842	0.8800663471727221
13	0x3fe4caf892e45b64	0.649776732347942
14	0x3fdf748b90941600	0.49148835295667936
15	0x3fef4df907836621	0.9782681605094617
16	0x3fdbf35e02ea17d4	0.43672895702945635
17	0x3fe0e314e8903094	0.5277199308634573
18	0x3fede717a184d685	0.9344595102945311
19	0x3f941582e9fa9561	0.019613309412894412
20	0x3fd345c354bfa7cb	0.3011329963325095
21	0x3fe9d666dbb831b2	0.807422093524613
22	0x3fe375cc6d11d5b3	0.6081297045008597
23	0x3fc8ce5098efd9df	0.19379622905371627
24	0x3fd88b153d75ab59	0.3834889507476667
25	0x3fe91ea429ac1ad2	0.7849903882896234
26	0x3fb571b3789f84b7	0.08376619048023569
27	0x3fdfbdbf3c56f44c	0.4959562386755507
28	0x3fdb5993a43ddc97	0.42734232939933164
29	0x3fd34cdc14931caa	0.30156614312404406
30	0x3fcd2c1915eabd64	0.22790826387561502
31	0x3fc1fabfbd507dda	0.14046475166195088
32	0x3fd5bb60be2c5070	0.3395616395148471
33	0x3fe75409a370cf7e	0.7290085022163877
34	0x3fe0d1121ed08ae4	0.5255213357780488
35	0x3fe2e72cb332f506	0.5907195568067045
36	0x3fe635f05746017e	0.6940843300399562
37	0x3fe49e172c7ac0d5	0.6442981594791727
38	0x3fe463d40592c506	0.6371860607961544
39	0x3fdb72c3caab8a6c	0.42887968818664635
40	0x3fee95698dffcc24	0.9557388089582486
41	0x3fe7bf0f1db84c9b	0.7420726376025358
42	0x3fe214c970c74289	0.5650374605848622
43	0x3fe0125a082dbedc	0.5022401962032421
44	0xbfb5b2d21c0b1f21	-0.08475983795790089
45	0x3fdaa38fba97167d	0.4162329981012148
46	0x3fec45ff36335a50	0.8835445459943205
47	0x3fe9f5129755dce5	0.8111660915154998
48	0x3fcf3d58689c13a4	0.24405961139578125
49	0x3fd25183ad41978a	0.28622524184753984
50	0x3fe8580ce6330328	0.7607483383254463
51	0x3fed515fa091bd1c	0.9161832939261418
52	0x3fea9f716df930d6	0.8319632671277997
53	0x3fe6b082b73811bd	0.7090467051025865
54	0x3fd4b1329ba258ba	0.3233152885308176
55	0x3fe1a9232310ebd0	0.5518966374287348
56	0x3fcda37618c80187	0.23155094347022162
57	0x3fe8b82ff80c3b81	0.7724838108714353
58	0x3fe24c1a8810f23c	0.5717899949591536
59	0x3fcfecc20763085d	0.24941277847944124
60	0x3fe3d56ce7589cba	0.6198029058913541
61	0x3fd29987daea7e22	0.2906207692958295
62	0x3fe370f524a96b06	0.6075387683916638
63	0x3fe9bd01ac72460e	0.8043220871060741
64	0x3fe30e1caaa1135b	0.5954726536370843
65	0x3fb1b3a82786261e	0.06914759602491258
66	0x3fdd9ebc997c0d46	0.462813520324023
67	0x3fb5865937a10518	0.08408124549989215
68	0x3fd3f5e941b828f3	0.31188422601611804
69	0x3fded4297a816d84	0.48169934237895284
70	0x3fe026adcdf3c298	0.5047215483192131
71	0x3fe89686934e1977	0.7683747174312846
72	0x3fc2e590d4d5e471	0.14763079063758114
73	0x3fd379f860dadf97	0.30431947191709113
74	0x3fb09c98e9f5c34b	0.06488948547281585
75	0x3fe23f1ea4870057	0.5702050412583145
76	0x3fd252add7ee7376	0.28629633032851787
77	0x3fec62ff5de54af0	0.8870846589946648
78	0x3fc02f3dd42bb0b8	0.1264416967382027
79	0x3f7b09a069aedc12	0.0066009775281861294
80	0x3fe02d3f3512f17e	0.5055233036614906
81	0x3fe70f099327fee1	0.7205856203217672
82	0x3fd88da974011baf	0.3836463578085682
83	0x3fe01a5a4172c75d	0.5032168653762984
84	0x3fe1420edf7577c2	0.5393137325697739
85	0x3feb216da8c1355e	0.8478306098929058
86	0xbfd6b3892ee98a5f	-0.3547080000045408
87	0xbfb19002756d60fb	-0.06860366217495432
88	0x3fd03d215b43fd74	0.253731097342061
89	0x3feab701e38097d3	0.8348397677807448
90	0x3feec10e80edda5e	0.9610664861819023
91	0x3fbdeefcd34ad1fa	0.1169279113626728
92	0x3fa886fa928e43f4	0.04790480650911624
93	0x3fdff11b800abce2	0.49909102920623927
94	0x3fc14b499fefc3a8	0.13511009511378558
95	0x3fe787072e655ee1	0.7352329164668526
96	0x3fdcbfaf52be15f1	0.44919951515507167
97	0x3fda365622e1d526	0.4095664349218445
98	0x3fe6e1332845a19e	0.7149902140200088
99	0x3fe13e506c7da4ce	0.5388567084275111
100	0x3fd167f03e639397	0.2719688996569913
101	0x3fe517a4884d4f9a	0.6591360723636968
102	0x3fd786b974895dbd	0.36759792690778764
103	0x3fcfa504c76b5a2c	0.24722347008965195
104	0x3fd13659b021a1cd	0.2689422817261658
105	0x3fec005b98725fb7	0.8750436761356387
106	0x3fe5e88b4eb9b8c4	0.6846367395026154
107	0x3fd917bb3a384858	0.3920734470895062
108	0x3fe3536ef9e64d55	0.6039347534992127
109	0x3fcacf691eebfedb	0.20945467004638982
110	0x3fef20588ffdbc39	0.9726984798743451
111	0x3fdf7007f7f39d24	0.4912128373529916
112	0x3fe7d5244e2a27b4	0.7447682882932356
113	0x3fd6166b90668e66	0.34511841870901205
114	0x3fe3624e68c03d6f	0.6057502790371653
115	0x3fe7eedf1ea4da2d	0.7479091261400918
116	0x3fb599b418f95036	0.08437657937730667
117	0x3fe016b687671bff	0.5027725834451074
118	0x3fe542e4e1815b8e	0.6644157795334296
119	0x3fef8780f7b18aa6	0.985290988708887
120	0x3fedd3213ebb7692	0.932022688411694
121	0x3fa3997b0a03b38a	0.03828033921477132
122	0x3fd6c3a226156363	0.3556905147466322
123	0x3fe76b118c0e2cd6	0.7318198905426481
124	0x3fe498a2a8b942bf	0.6436322493919632
125	0x3fe610d7b5376787	0.6895559825309058
126	0x3fc9f36196ea93f4	0.2027399050613493
127	0x3fe17f8388d2d422	0.5468156502089452
128	0x3fb746e6f988ade3	0.09092563240181266
129	0x3fddf51c60bcd64f	0.46808537909541753
130	0x3fb5bd9a10bfb588	0.08492434414775663
131	0x3fee232377fbaaf2	0.9417893737239338
132	0x3fd7c6d883e7cdf9	0.37151158219714336
133	0x3fd0329b40847ea0	0.25308877277891817
134	0x3febf0308967564f	0.8730700191178559
135	0xbfd6c4325ed28bdf	-0.35572489986424033
136	0x3fe687bea9b48330	0.7040704073479898
137	0xbfb79c958a38084d	-0.09223303436741155
138	0x3fd787bca3116320	0.36765972065545505
139	0x3f9d80f4cfb71478	0.02881224172394467
140	0x3fe39531a48edc16	0.6119621480964976
141	0x3fe1dd3982aaec8c	0.5582549621680228
142	0x3fcccd99d165ed04	0.22502444004553734
143	0x3fdacf7c66b4611d	0.41891393689867745
144	0x3ff288efc1a5cf6e	1.1584317745555057
145	0x3fe23e0fb8d1e05a	0.5700758561861321
146	0x3ff1a07b85bee986	1.1016803001826658
147	0x3fdf2bb7a24755d6	0.48704329345249897
148	0x3fb7873b3c07fd3a	0.09190721717458397
149	0xbfa068f892e07579	-0.032050865105911215
150	0xbfdd4846215594fd	-0.4575362515955275
151	0x3fed15dd61eb28c8	0.9089190399620515
152	0xbfb09029baef24b4	-0.06469975293943514
153	0x3fe5c36d6824d8b7	0.6801058801709335
154	0x3fc451e28316974e	0.15874892617028497
155	0x3fed400ece69e291	0.9140695601955305
156	0x3fbb2c38776b1fb9	0.10614350238313265
157	0xbfbec6246a677999	-0.1202109107757451
158	0x3fe48c5433fcf249	0.6421299949066192
159	0x3fe6b5bc9fc8f278	0.7096846695709038
160	0xbfa6b637f5aad8fe	-0.044358967531865176
161	0x3fc6fcdb374e4ddf	0.1795915622757169
162	0x3fbd5e53dd8432bb	0.11472057493319714
163	0x3f78fd8ac164864a	0.006101171506345768
164	0x3fea59c23c01127b	0.8234568759877016
165	0xbf95f0f668369206	-0.021427011595408295
166	0x3fcc99d8176b1e2e	0.22344494956472388
167	0x3fe8e1d37784e035	0.7775666555744524
168	0x3fe467221a2316a0	0.6375895033349543
169	0x3fece5557d344ad3	0.9029948659320673
170	0x3fcac72f76eb590b	0.209203656259611
171	0x3fe5baea94130acb	0.6790669338300516
172	0x3fc265bb93d374d0	0.143729636364617
173	0x3fd3edf42f6ee83e	0.3113985503401898
174	0x3fdfcfb3aa6715ed	0.49705211296927027
175	0x3feb81957473b249	0.8595683359577119
176	0x3feb3a7afb468ac0	0.8508887202954938
177	0x3ff3afdd8678d668	1.2304358723462432
178	0x3fe05c1a34b192d7	0.511242964665679
179	0x3fe77c27a45e307c	0.7339056215582924
180	0x3fd5344bbf42ecd5	0.33131688764451656
181	0x3fe324c9658bce69	0.5982405646631835
182	0x3fd89d0cbc9355da	0.38458555617884616
183	0x3fee2975e043d9d4	0.9425610904862034
184	0x3fe4a5f0819dfcc1	0.645256283911202
185	0x3fe1fb700aa47e6a	0.5619430740225202
186	0x3fe76adf4a0541ce	0.7317959256852704
187	0x3fc7dd8e7d060689	0.1864488707033625
188	0x3fd7c28560576665	0.37124761970844694
189	0x3feb6896984ae7fa	0.8565171217408072
190	0x3fedc4c12e02924d	0.9302678965219201
191	0x3fdff1214f9fde21	0.499092414625439
192	0x3fe57850f6963fa7	0.6709370437765657
193	0x3fd369897bdda2e2	0.3033164701105716
194	0x3fe40270050d0375	0.6252975557946302
195	0x3fda0e5b6980fb26	0.4071262865362989
196	0x3fd146c3a6dc6f55	0.26994410796190965
197	0x3fec020da4f449a6	0.875250646759288
198	0x3fe57a43d5d030e1	0.6711749244728048
199	0x3fddd908a921bfc8	0.4663716937711766
200	0x3f97c0a5f5e64baf	0.023195832379837075
201	0x3fe89e1eaed52a54	0.7693017401409841
202	0x3fe6913f264a1c84	0.7052303073732138
203	0xbfc0122cf2496edd	-0.12555467443859572
204	0x3fcee56517ee23d7	0.24137557667225337
205	0x3fcedb10c74617cb	0.2410603497521023
206	0x3fca645c9dfa3b7a	0.20618779863113074
207	0x3fe11f231675d3fe	0.5350509108235426
208	0x3fd771f4753ec77b	0.3663302559826815
209	0x3fc9ab507a9fb3b5	0.20054059970371232
210	0x3fef936096037c2c	0.9867403917268169
211	0x3fe4e42f2a36022d	0.6528545212204954
212	0x3feb934b33bfbc36	0.861730195114325
213	0x3fd31d234a9fc55f	0.2986534336806325
214	0x3fd2f9b358439c47	0.29649051303426116
215	0x3fc7cf249a9abccf	0.186009002199603
216	0x3fb6133bd596ba0d	0.08623098339624154
217	0x3fef7242673dc0b5	0.9826976791792023
218	0x3fde071aa5442120	0.46918359889288475
219	0x3fd5f521dc0b9e29	0.3430866860275921
220	0x3fa5389fca459a5d	0.041447633210556424
221	0x3fe13c0891681e45	0.5385783042883722
222	0x3fe26a8e23c9e6f4	0.5755072306630766
223	0x3fe18e5f16af4686	0.5486293261585196
224	0x3ff085324f17f28b	1.032518681487235
225	0x3fdefd6284ffac16	0.4842153834167119
226	0x3fc1520ed0422fbf	0.13531670731424403
227	0x3fd36b4e39f92985	0.3034244123597534
228	0x3fe27b3f19da0a09	0.5775447373310395
229	0x3fc3dfa7af0e9514	0.15526290939048037
230	0x3fdcad2c8c6eb720	0.44806970323667095
231	0x3fe5d7da53d13a8e	0.682599223809875
232	0x3fe725c366541641	0.7233597754099678
233	0x3fe65c39d216a4cb	0.6987580397882537
234	0x3fd97b7e597ca72c	0.39816244830091096
235	0x3fed737e858a7832	0.9203484161587367
236	0x3fae1e7ef3668e04	0.058826415264118054
237	0x3fceb746812fa83a	0.23996812160413744
238	0x3fc5451d068576b5	0.16617167299675875
239	0x3fe168baefc57c9f	0.544034450820522
240	0x3fd69fdaf05d0fad	0.35350678894996684
241	0x3fb3632ce17d3571	0.07573204522232914
242	0x3fda24fa96e84581	0.4085070108131604
243	0x3fde661cb46ab52f	0.4749824296839788
244	0x3fd5110ea840bff6	0.32916609221410853
245	0xbf8bab2df89f3739	-0.013510092878188483
246	0x3ff001bf797ffde1	1.0004267450420843
247	0x3fd2013513db3b7f	0.28132368983363415
248	0x3fce59bd4f4b1d18	0.23711363193272272
249	0x3feaf78fd4bc6b20	0.8427199511528194
250	0x3fd626dbf1099238	0.3461217740898834
251	0x3febebe4f2981adc	0.8725456941764054
252	0x3f6d2509950f1500	0.0035576998857062003
253	0x3fec48345f9511bf	0.8838140360681378
254	0x3fde06f98ec62532	0.46917571013235027
255	0x3fedab722abdddfc	0.9271784624860966

L f8 [40, 40]
0	0x3fe727663ca0c679	0.7235594925061398
1	0x3fe24df4a2d77384	0.5720160656452298
2	0x3fb01d256e34cdb8	0.06294473591406458
3	0x3fd84dfe6ef2050b	0.37976036867628754
4	0x3fc24b4a4233dd9f	0.1429226706747899
5	0x3fe48539f6df8971	0.6412629911176692
6	0x3fd372d3137c77b6	0.3038833322806299
7	0x3fe20bee55f44fac	0.5639564207835881
8	0x3fdbb52abc63f85b	0.43293255231390554
9	0x3fe364ab03796af6	0.6060385768754191
10	0x3fea1521d9122012	0.8150796165145968
11	0x3febc8558df2be2d	0.8682048580576002
12	0x3fe9863c03ec95e9	0.7976360394138143
13	0x3fe70d3c4a6bc81f	0.7203656629119485
14	0x3fc1f388d67b9c62	0.14024458382411625
15	0x3fdb2f89d1a1b59c	0.4247765109238004
16	0x3fe6af6ab97469ba	0.7089131948626382
17	0x3fe6e0691ebcbb52	0.7148938751541698
18	0x3febac096cd88109	0.8647505880253742
19	0x3fdfee701cc4de44	0.4989280968615939
20	0x3fe42d2930cb974c	0.630512805274273
21	0x3fd50fd20c200f4d	0.329090606537865
22	0x3fe20a7a70469e9d	0.5637790863883826
23	0x3fd2595de062774b	0.28670451080858034
24	0x3fa4e3a364cd3382	0.04079924207198983
25	0x3fdd074a2ba3e90c	0.45356992971177656
26	0x3fddf517166161dd	0.46808411775194064
27	0x3fe9600a2a10ca30	0.7929735967248401
28	0x3fe49919228e162b	0.6436887431052062
29	0x3fdd1da0ec50daf0	0.45493338659018345
30	0x3fe3b3c8d823e8f0	0.6156963559617719
31	0x3fe77b2f48359f0e	0.7337871942845327
32	0x3feb4493df4ec071	0.8521212922551183
33	0x3fcb3463666e821c	0.21253626348063015
34	0x3fc470a230341a54	0.15968730310142354
35	0x3fa333bdbcd1ffbf	0.03750412874160202
36	0x3fdddba9c49246f0	0.4665321750299958
37	0x3fde0189b9b05588	0.46884387143776296
38	0x3fc90a0ce1fa4f37	0.19561921152182446
39	0x3fdbafa922ffab3d	0.43259647767870374
40	0x3fda89f91a631c0d	0.41467120720739176
41	0x3fe12a3e058d5506	0.5364065273703609
42	0x3fe2b8c9b6a28499	0.5850571219526898
43	0x3fd5c8f4a6426416	0.3403903602243771
44	0x3fdee0aa32b808cb	0.48246245339408905
45	0x3fe9df6e095df96c	0.8085241492224617
46	0x3fe65328c1605265	0.6976512696151757
47	0x3fe33a08746e216b	0.6008341096904081
48	0x3fd61883ee165bb6	0.3452462983199739
49	0x3fe1bd2e6de77073	0.5543434282840408
50	0x3fe6921008010ee2	0.7053299099283914
51	0x3fe2a225c9b0489d	0.5822934092741608
52	0x3fe4b7c2125f4d7a	0.6474314078172221
53	0x3fe346a54dbeb034	0.60237374481722
54	0x3fdeab9ab92d263e	0.47922390063886044
55	0x3fd863a42c7db485	0.3810816225512286
56	0x3fe731c5a0b990ef	0.7248256816060613
57	0x3fb470d4605adc90	0.07984664299407229
58	0x3fe022287b1848bd	0.5041696933933718
59	0x3fea44faa658e6e1	0.8209203003854918
60	0x3fe4e994370a180e	0.6535130572308405
61	0x3fe406b74b95ad22	0.6258198238623758
62	0x3fe425fa673276f7	0.6296360030716802
63	0x3fd75b0fa636fd6c	0.3649329302970361
64	0x3fe395ee2fbab004	0.6120520527088051
65	0x3fce40158354ddb2	0.23633068955107955
66	0x3fd0277670ee139e	0.2524086096603301
67	0x3fe2a95d41c86d26	0.5831743511984413
68	0x3fe4f2e567b5ce58	0.6546504045094919
69	0x3fe4a8d49005df5b	0.6456091702411685
70	0x3fe26084183ba9e8	0.5742817376424769
71	0x3fc2a4ebf87bf975	0.14565801270505188
72	0x3fd98480d37d49bb	0.39871235516798337
73	0x3fe0784292117bf8	0.5146801808258479
74	0x3fe092a29962d82c	0.5178997989485246
75	0x3fe4acb6a7c7c4fe	0.6460831906280473
76	0x3feeadcf164d73eb	0.9587169108959847
77	0x3fce39616805b247	0.236126113693347
78	0x3fe07e8757b3a848	0.5154453957486647
79	0x3fe6b22a12dd85aa	0.7092485779250428
80	0x3fe25384568a81cc	0.5726949396376368
81	0x3fdea11a727649d3	0.47858296564041075
82	0x3fefda81166ef134	0.9954228819038122
83	0x3fcd371896a08f4a	0.22824389796107375
84	0x3ff2ddbb42fc4afb	1.1791336647626725
85	0x3ff0007b72893840	1.0001177286208218
86	0x3fcb40c8b659df9a	0.2129145517717433
87	0x3fe6bcc4121d3e1d	0.7105427125733886
88	0x3fda78aa787df7d9	0.4136148621254257
89	0x3fe6742c1d26de10	0.701681191384468
90	0x3fea8e2b6363c43f	0.82985467350057
91	0x3fdb3e22cc997c32	0.42566747646737035
92	0x3fee254f87327ec4	0.942054523522494
93	0x3fe96d8e6b41ef42	0.7946235747217332
94	0x3fd296430fb1e663	0.29042126209933466
95	0x3fe13e4a313eaa54	0.5388537370502697
96	0x3fec30adc3d45c45	0.8809422325892987
97	0x3fb4b0a12345ca91	0.08082015143535616
98	0x3feca27b4c01d0bd	0.894834183169699
99	0x3fe4aa5623671d01	0.6457930270634337
100	0x3fd50e6502b848f2	0.3290035749970591
101	0x3fe8ea9986bb1023	0.7786376601657178
102	0x3fed30c1c4e308de	0.9122017713018769
103	0x3fe71f18e28f4d60	0.7225460457797617
104	0x3fe1a175aa5476ef	0.5509594275242459
105	0x3fbea2ca9888e76e	0.11967149948114095
106	0x3fc1412e57c7a7d5	0.13480166708114774
107	0x3fe08e3cc45d7a1e	0.5173629603630763
108	0x3fcc11902cea4f4f	0.219285985881124
109	0x3feadeb551a62ad9	0.8396860689839186
110	0x3fe70c3143193834	0.7202383337514733
111	0x3fe9d7d2d932ac51	0.8075956575534154
112	0x3fdde71c9f8af88e	0.46723094539982746
113	0x3fe71b83fee3c36b	0.722108838874289
114	0x3fdc6fd80325c8c7	0.4443264036882621
115	0x3fe1757157d97a4a	0.5455862727938634
116	0x3fde2a25cd1258e7	0.47132248903780155
117	0x3fc0efcad56668da	0.1323178808205004
118	0x3fd3f9f6d129cba0	0.3121315996751779
119	0x3fc5ffec58e13042	0.17187265720201778
120	0x3fca3a22314859ac	0.2048990955961022
121	0x3fd13bee3b8abca4	0.2692828732933299
122	0x3fd7598fa777e6cd	0.36484137873013084
123	0x3fd689f4922c7b8f	0.3521701266744736
124	0x3fe06851fb8df036	0.5127344048664841
125	0xbfab4d42689b5c97	-0.05332381751002762
126	0x3fe3fb5bfe3d444e	0.6244335141765391
127	0x3fe6377a939f8147	0.6942723162901893
128	0x3fe0337eeb8cc88c	0.5062861061653776
129	0x3fe673fde6fae6a5	0.7016591559724544
130	0x3fd92ea2ef6eb01b	0.39347146398609006
131	0x3fdf341ad6d45cb2	0.4875552270836564
132	0x3fd588f285d0f55c	0.33648360317223136
133	0x3fe247f92b26cbe5	0.5712858050159154
134	0x3fd35d048953931b	0.30255235110080186
135	0x3fd0ddc0ea57c81e	0.26353476414726795
136	0xbfadd8d1a05ae33b	-0.058294821571911425
137	0x3fe6c89e952ebc4b	0.711989680645169
138	0x3fe1dd5bc1ccb82e	0.5582712922239403
139	0x3fe5e7ff3c47c07b	0.6845699479436144
140	0x3fda291a1beb52c6	0.40875866629111746
141	0x3fe44b617f4d207b	0.6342017637589515
142	0x3fe382fcc6a3c562	0.6097396735841978
143	0x3fe93a2f7aa4cc36	0.7883527179132048
144	0x3fd4219516e503f2	0.314549705846786
145	0x3fd1f7efbd75963d	0.2807578420819004
146	0x3fe3d1dc2599a551	0.6193676695230953
147	0x3fdd12b99f917a10	0.4542678888591647
148	0x3fd4373d546d7263	0.3158715557563367
149	0x3fe12c11c5804790	0.5366295678561404
150	0x3fe069633d0262ac	0.5128647033298726
151	0x3fea96ed7f6d27eb	0.830923794631642
152	0x3fe4f9c8537527ee	0.6554910306961099
153	0x3fd6d54e6cc509df	0.3567691862300801
154	0x3fc6ab5816d5259b	0.17710400690911574
155	0x3fe2fdd2ac6db19e	0.5934842460388159
156	0x3fe63d41ef41f9ee	0.6949777291300145
157	0x3fb95418dbf20fd9	0.09893947000278959
158	0x3fe8bac6f3913fca	0.7727999455619223
159	0x3fcdca4832c03bd8	0.2327356574828332
160	0x3fcff51be96a0607	0.24966763398337852
161	0x3ff18bf1686bba5d	1.0966657713830934
162	0xbfb72c66d2f39002	-0.09052126550847109
163	0x3fef1d683086643a	0.9723397205117472
164	0x3fe952f30d5e1381	0.7913756619533246
165	0x3fe761ffb792fe66	0.7307127557214244
166	0x3fc9f9bebed3c6a1	0.20293411557900234
167	0x3fe0102f73d6a631	0.5019757521124061
168	0x3fd84a4c51358127	0.3795347970062885
169	0x3fea3d506fb47626	0.8199846441017982
170	0x3fd7eec472cc5899	0.37394820414318414
171	0x3ff0bf6af07a0349	1.046732844697731
172	0x3fe833cec585a55a	0.7563241823055862
173	0x3fd6195237494f7a	0.3452954807191798
174	0x3fe3836eb3f64a46	0.6097939982303806
175	0x3fe5fa26e6514b9b	0.6867861269368974
176	0x3ff08923182510b8	1.0334807341724126
177	0x3fd45db3b279146d	0.31821911267281316
178	0xbf936cc22d1e5c1a	-0.01896956825620686
179	0x3fe1a667ee47e7e2	0.5515632299350239
180	0x3fe182806d6cf20e	0.5471803796022543
181	0x3fdcd101968bc8a9	0.4502567262817459
182	0x3fc0d40fe500ae25	0.13147162133951543
183	0x3fc48383787bfc48	0.1602634752561889
184	0x3fb30042cfca0743	0.07422273228624214
185	0xbfac312e67162b7c	-0.05506272323972092
186	0xbf9a9b818d62d1e6	-0.025983833555715118
187	0x3feb366f33c79e71	0.8503948222468819
188	0x3fe6df01337d12a1	0.714722252429585
189	0x3fecc2f12bd1714f	0.8987966399977639
190	0x3fe89236b471261a	0.767848350930936
191	0x3faf134e9a0292b8	0.06069417600636967
192	0x3fe6c8c57778dda0	0.7120082219543526
193	0x3fc8b530a2f74449	0.19302947957342756
194	0x3feb81557686b51b	0.8595378222432005
195	0xbfc83e72b0044890	-0.1894057616669369
196	0xbfc0041fb33a8646	-0.12512584926030196
197	0x3fe1f61ccb17af72	0.5612930266047285
198	0x3fbdc56a296378d4	0.11629355917418432
199	0x3fc56e34c08b6401	0.1674257221373239
200	0x3feaca29d8e980db	0.837178157478799
201	0x3fada83687aa4208	0.05792398840015173
202	0x3fd19a7973190f4e	0.27505336990383433
203	0x3fe5768f361f29d9	0.6707225853982052
204	0x3fe1ba191678dc21	0.5539670409115197
205	0x3fe10e23ebd3ea09	0.5329761129390259
206	0x3feb0a865482559a	0.8450347567146992
207	0x3fe7d9bdca10ef1f	0.7453297564129321
208	0x3feb410287a7e948	0.8516857766656267
209	0x3feb0f0be732f37d	0.8455867305379879
210	0x3fe2f89b9700ecac	0.5928476285256656
211	0x3fc80cb5e2a0600a	0.18788789335008033
212	0x3fe1553545753115	0.5416513783070821
213	0x3fd1003c2013fd65	0.26563933498979103
214	0x3fd90232bdf0ee8f	0.3907591681379267
215	0x3fc89b1a975a792b	0.1922333945303277
216	0x3fb644a0f397b0a4	0.08698469111522172
217	0x3fe600734eaf981f	0.6875549828371311
218	0x3fe3bf3c5757e3c5	0.6170942026066021
219	0x3fe7ae035cc2ca65	0.7399918376671165
220	0x3fdbea8d32ea8990	0.436190891001524
221	0x3fe9dfa3faa30613	0.8085498709917281
222	0x3fe9ff91b1836157	0.8124474017195479
223	0x3fe6cd1dcd9a344d	0.7125386253043274
224	0x3fe89f6685577952	0.769458065445898
225	0x3fe387ce9223dd6e	0.6103279928492336
226	0x3fd396b83b384364	0.3060741976087711
227	0x3fba2ad933905113	0.10221631535415936
228	0x3fc9d3f608ca71c1	0.20178103856313892
229	0x3fe8544e290d12ca	0.7602911760119124
230	0xbfa306bc112e101f	-0.03716075620380387
231	0x3fe5f00f37a49731	0.6855541312004104
232	0x3fc1fe798ffbd23e	0.14057845621540993
233	0x3fe329128271c43c	0.5987637088529776
234	0x3fe939ba41d4ac40	0.7882968221432591
235	0x3fd5597ed7227f73	0.3335873700070728
236	0x3fd7e8b9e91ed0f3	0.3735794807974024
237	0x3fea270b98dcefa3	0.8172662721258245
238	0x3fe03b6169c75d52	0.5072485986701543
239	0x3fe07d5894dc6af8	0.5153010280076549
240	0x3fd89a24660aad14	0.38440809216508964
241	0x3fdf67ffaa58a2d7	0.4907225764787148
242	0x3f8020586e3a9ace	0.007874194015426463
243	0x3ff031bbf2a28010	1.01214213160711
244	0x3ff61d72e9a4becf	1.3821896673870702
245	0x3fc64cd72df53680	0.174219987335551
246	0x3fab50ef33360cfa	0.05335185527931148
247	0x3fcd5e80243ea477	0.22944642801056478
248	0xbfb6d7409587b293	-0.08922198916088524
249	0x3fc8cbf92af4205b	0.19372477147431053
250	0x3fe7fb7804ae850e	0.7494468776168632
251	0x3fc7c9e046b894ee	0.18584826901602675
252	0x3fcc447b52380e30	0.22083989634130452
253	0x3fd495767790d9b8	0.3216224830279333
254	0x3fc575397b03a75c	0.16763990885311386
255	0x3fe9ed496d3ddf46	0.8102156766535493

weight f8 [50, 4]
0	0x3fcd5fe2e142a419	0.2294887161163224
1	0xbfc4d2c102facd6c	-0.16268170018666284
2	0x3fd4d63bb59e253e	0.3255757592783829
3	0x3fbe4fa4705e8789	0.11840274566068677
4	0xbfd41009a4da990d	-0.3134788617993685
5	0x3fd04f78b9bc8dd3	0.25485056055387395
6	0xbfc6b745f8c1bdf4	-0.1774680580742679
7	0xbfd765259ed6f030	-0.3655485201995843
8	0x3fdd66bf86e61b29	0.4593962495204545
9	0x3fd6634fd64040a7	0.3498115150732794
10	0xbfd845d239d47807	-0.3792615475412053
11	0xbfc387423254b381	-0.15256526429712028
12	0x3fd6f790af049efb	0.35886017886740235
13	0x3fc33332fb709615	0.14999997403462886
14	0xbfdcc547b8638605	-0.4495410252257844
15	0xbfdd8c1b1c9aa241	-0.46167638581622233
16	0x3fcd85eab7afd387	0.2306493184002216
17	0xbfc0cb1155e4f780	-0.13119713491499496
18	0xbfca0524fb7fc7d3	-0.20328199653846343
19	0xbfd636ed82667e04	-0.3471025250855464
20	0xbfcf5bcd9165149b	-0.2449891052184839
21	0xbfd6d8f6e9d4b3c7	-0.35699246249242517
22	0xbfd62fbd0cec8291	-0.34666372549148955
23	0x3fdb04580b7eabd0	0.4221401321653362
24	0x3fc23b48c03ffbbf	0.14243420970157492
25	0xbfc35553d98f37b5	-0.15104148982066837
26	0x3f9927ea086da0da	0.024566323055666618
27	0xbfd2cc93e73258cf	-0.29373643472480365
28	0x3fb87b7aab82468f	0.09563414275387515
29	0xbfcbeccf858db69b	-0.21816438695116322
30	0x3fb22885f7043847	0.07093083649326203
31	0x3fc017f2b85e8c8f	0.1257308387986069
32	0x3fbe48fc981d90a6	0.11830118860013047
33	0x3fdcbe5d1ac66f97	0.449118877551649
34	0x3fdee41e3f3e7d33	0.4826732270830291
35	0xbfde3b6690748296	-0.4723755274481304
36	0xbfc19cbcec849f5a	-0.1375957636712382
37	0x3fd7b4ad9b0f678e	0.3704027189502249
38	0x3fe0aa50fcfc2f97	0.5207905713191278
39	0x3fc06a74297dccda	0.1282487108797799
40	0x3fdcb45af006cc93	0.4485080093392721
41	0xbfb714c704375347	-0.09016078808720095
42	0xbfcf78af10de634b	-0.24587047885577315
43	0xbfde05a3b16d78f8	-0.469094203251998
44	0xbfe2f955471cdeef	-0.5929361714288158
45	0x3fd5ac86a95e8e77	0.3386551527021093
46	0x3fddb2a5d4b27b1d	0.46402879496774735
47	0xbfd78d12f2c9bac2	-0.3679854746796246
48	0xbfd2eef4abc05b9f	-0.295834701276755
49	0xbfd93fa6fa471599	-0.39451002541712793
50	0x3facf15c77e05a7f	0.056528939851138375
51	0xbfdcea6d4cb1bf35	-0.4518082856147772
52	0xbfdb58a4dcefba5a	-0.4272854001600642
53	0x3f807ab22f6702d8	0.008046524116140416
54	0xbfccd83fe58d1ff3	-0.225349413953381
55	0x3fc10a72b768fa15	0.1331313510472262
56	0x3fe2d7183346b38c	0.5887566567886195
57	0x3fa0ee3b319b665d	0.03306756001047682
58	0x3fa175511de72cc4	0.034098181629440144
59	0x3fd1ed762507b0e3	0.2801184999104988
60	0xbfd30807782c5089	-0.2973650620999782
61	0x3fda9e5938828f64	0.41591482657007917
62	0xbfb27f5bb8d62eb1	-0.07225583326924824
63	0xbfd79f96748e8a73	-0.36911546118259436
64	0x3fd89e4271bd6ceb	0.38465939624229745
65	0x3fd71d3fc9392287	0.36116022730542635
66	0x3fd3928ad1ef1dd0	0.3058192300927347
67	0xbfd307a3e34cfd63	-0.2973413200124552
68	0xbfd3e5247a66e01f	-0.31086074784571055
69	0x3fe0d5decb7c6d14	0.5261072134339053
70	0xbfcb9f212c70c10e	-0.21579374952262537
71	0x3fcb39d4f4471e9a	0.21270238807322955
72	0x3fc9507621d7f90a	0.19776798870584172
73	0xbf9b4cb92a30423a	-0.026659863662702878
74	0xbfbfb5ebfad43a64	-0.12386965631251595
75	0xbfd81494182ff3f3	-0.37625601160090055
76	0x3fbf59d7a7221819	0.12246463613891513
77	0xbfd57ed491b1a57b	-0.3358661101143167
78	0x3fc31362efd718d0	0.14902912817905767
79	0xbfd8c1ea2d8759cc	-0.38683561750567885
80	0xbfd2f34df34e9caa	-0.29610012779671513
81	0x3f9a446e207ed62e	0.025651665433278285
82	0x3fb4f8bc0c56594c	0.08192038823321929
83	0xbfbb691e1842fddd	-0.10707271663976976
84	0x3fbd1c4edd3f33a7	0.1137131967690964
85	0x3fd6b9208e60be9e	0.35504926590054164
86	0x3f7322a9a2341c5e	0.004671728736190676
87	0xbfd295886a12e959	-0.2903767619970004
88	0xbfc73b6225d0340a	-0.18149973722793816
89	0x3fd6f5b461623d78	0.35874661932117347
90	0x3f9df64dcbc8cfc5	0.029259887278570113
91	0xbfd41109fbc43c8b	-0.31353997789933236
92	0x3fd2cdebe344ee67	0.29381844705833376
93	0x3fcc903d3135fea9	0.22315182593228158
94	0xbfb4dd5e701b2de8	-0.08150282132117292
95	0xbf96cd71fa538302	-0.02226808634157163
96	0xbfb4348927c86d05	-0.07892663213026559
97	0x3fe09e123ac9ff21	0.519295801946985
98	0xbfbe7fc6f798af4c	-0.11913722557863798
99	0x3fc5138fe6960491	0.1646594882877577
100	0xbfdb7013d4e9c3cf	-0.4287156657438204
101	0xbfd94ec174161b49	-0.39543186508710854
102	0x3fd83fd3fd530bf3	0.37889575709067386
103	0xbfd7b4d7a22b8353	-0.37041273915206324
104	0x3fd80ddfda59c812	0.3758468277293342
105	0xbfcdd67fa84f10cf	-0.2331084796734388
106	0x3fe18f3783a7fdaa	0.5487325259600102
107	0xbfd047c484c992db	-0.25438034980315444
108	0x3fc233a4f818afab	0.14220106233676452
109	0x3fc993b15f3e3ada	0.1998197283796433
110	0xbfddca1914d1457c	-0.46546008141475403
111	0x3fdb7b8a2b93811e	0.4294152665661545
112	0x3fa78ad9ba25f2ea	0.045981220219777644
113	0xbfd42155c9cff30e	-0.31453461368782676
114	0xbfdd263ca966c71b	-0.4554587988196645
115	0x3fd76a0a067889b7	0.36584711677474097
116	0x3fd8d8f534e062ab	0.38824205554696317
117	0xbfdaa517689ba9f9	-0.41632638183241927
118	0x3fd0138343ddcac4	0.2511909640080996
119	0x3fd350d8608eb861	0.3018094008392663
120	0xbfc5507ac990f617	-0.166518543644927
121	0x3fc45515f24241d6	0.1588466103462582
122	0x3fd6b9b357796aea	0.35508426229868795
123	0xbfaf7fcaf2c90ee9	-0.06152185643852965
124	0x3fc81f884677029f	0.18846229019802238
125	0x3fc1766bfe612e63	0.13642644806747048
126	0xbfc4998fd1aa27e2	-0.1609363340142514
127	0x3fd915ee31be686b	0.39196352823058217
128	0x3fc2d6daedc7da54	0.14718186006912737
129	0x3fcc97b59bce20db	0.2233798037307285
130	0xbfaa5d1cb56e1afa	-0.051491639277676485
131	0xbfb87148a556b3ce	-0.09547857319439787
132	0x3fd777170f56483f	0.3666436815048008
133	0xbfb5252f42de88b7	-0.08259864218283296
134	0x3fdf441fc0e914b9	0.48853296126283
135	0xbfdb03f2a6aad53b	-0.42211595798592655
136	0xbfd8d3e345ecf283	-0.387932604109473
137	0x3fcaa734caf5ed0b	0.20822772894084837
138	0xbfd7e886b9f19ef1	-0.3735672775132875
139	0x3fd6144f4c6e8257	0.3449896093752946
140	0xbf651b96ad326ce7	-0.0025766318227177123
141	0x3fe12a42b356ac20	0.5364087584215476
142	0xbfc2e2c1956e13b9	-0.14754504963289408
143	0x3fca70991f989328	0.20656122248433317
144	0x3fdf7a7ae4e144db	0.49185058929022113
145	0x3fdb09047dd63775	0.4224253872752038
146	0xbfdfece6fdee5f81	-0.4988343696400009
147	0x3fd200fc8c60c7c6	0.28131021221917896
148	0x3fc2810d33b1dc87	0.14456334137114288
149	0x3fd1d9959e085f71	0.27890530045396306
150	0xbfd85509d764f358	-0.38019033465007146
151	0xbfc64e2e836817cc	-0.17426091591204196
152	0x3fc25a18b9e069bf	0.14337452960974237
153	0x3fc00ded96527301	0.12542505111641591
154	0xbfa9ec8cd854fc61	-0.050632859618865884
155	0x3fe7fbb6c6736e35	0.7494768024438999
156	0xbfdba0de98fd9b2d	-0.4316936964082057
157	0xbfa127eb02750f83	-0.033507675218543496
158	0xbfd8b4f69caaa7d8	-0.3860451250026222
159	0x3fcdecb4b194a79f	0.23378618880206845
160	0x3fe1484f3fc24dbc	0.5400768513958876
161	0x3fa00ebcfa860904	0.031362443524829
162	0xbfda7425919907c7	-0.41333903521092136
163	0xbfd43066ed1da443	-0.31545422702635423
164	0x3fd485b10dca7abf	0.3206598887135605
165	0x3fd2a40ebd33f811	0.2912632796941362
166	0x3fdac88841d5da8e	0.4184895174907205
167	0xbfd78335e0a4bd35	-0.3673834508690164
168	0x3fdc8fb1e8303d6b	0.44627044367458407
169	0x3f9675be781a716f	0.02193353279163673
170	0xbfc6ec0b70a64023	-0.1790785121961572
171	0xbfb337ac040e1b9a	-0.07506823634149243
172	0x3fd8a30728de3f81	0.38495043746024044
173	0xbfd66f0d8744e889	-0.350528127764513
174	0x3fd39274874d0073	0.3058139153763541
175	0xbfdb123adc01f877	-0.4229876659882232
176	0x3fd0f1eb4ba95501	0.26476557148755836
177	0xbfa3ba2088e5e062	-0.0385294119941484
178	0x3fc73df495c514b2	0.18157822907429516
179	0xbfe041c7afb1521e	-0.508029788160062
180	0xbf76d4378e873cf1	-0.005573479670103896
181	0x3f61abace2aceec8	0.002157056490799867
182	0xbfd27ab0ee2fabe5	-0.2887384725606224
183	0xbfaa7e25eae309a8	-0.051743683741295954
184	0xbfb80c34554c8fa3	-0.09393622477051493
185	0x3fdc529107a6696e	0.4425394606311305
186	0x3fd9b1e8a8876621	0.4014836927213726
187	0x3fd1657c6830ba11	0.2718192117198735
188	0xbfd1a37dc6319a98	-0.27560371737346534
189	0x3fd4319fa7ef7b9a	0.31552878761243053
190	0xbfd09cd9a904cbd0	-0.2595733786176284
191	0xbfb1afe3e6b6fe4c	-0.06909012205778103
192	0x3fd8b5188c50dad6	0.38605321600645703
193	0xbf9c1be4db4f9f6a	-0.02745015705650592
194	0x3fd7550465ebf77f	0.3645640368775886
195	0xbfda5e4737edee1e	-0.41200428449494264
196	0x3fc223a7db3e9c44	0.14171312527943958
197	0x3fd35623d05e8862	0.3021325621467722
198	0x3fc1bfab49cc96a2	0.1386617765758063
199	0x3fdbb044068f22e0	0.4326334060720409

bias f8 [50]
0	0x3fdcfa0f41089cb4	0.4527624259084846
1	0x3fbb1dfd269a426c	0.1059263438458033
2	0x3fd1d65e2f9296ce	0.2787089790893845
3	0x3fc3c67dde2c12d9	0.15449498508691908
4	0x3fb8215d7caaf56c	0.09425911229751244
5	0x3fd6d6dbe700dec8	0.3568639522450039
6	0x3fd64c3b93572857	0.3484028757926629
7	0xbfbc22313cff7940	-0.10989673365790953
8	0xbfd370f984db62ee	-0.3037704274588994
9	0x3fdac83d9688b70e	0.41847171497907787
10	0xbfb4edd92a012614	-0.08175427699566057
11	0xbfce64f6ff499a95	-0.23745620217524235
12	0xbfd01302d90145aa	-0.25116034690753486
13	0x3fdb23b0a1e344a1	0.42405334290840285
14	0xbfd1b40a6a9b732f	-0.2766138115965075
15	0x3fc44dfeb9f5fc37	0.15863021926995355
16	0x3fbb9aaad2068224	0.1078287852055913
17	0xbfd11fdbcd36010b	-0.2675694946301667
18	0xbfa9709c35a2f2e4	-0.04968727259390507
19	0x3fa681b438206138	0.04395831284654367
20	0x3fdf0b05d8fc7f8a	0.4850477808959047
21	0xbfd59e1550380804	-0.3377736361873078
22	0xbfa44aaaf0a57cfa	-0.03963216960505096
23	0x3fdad917088e569f	0.4195001205019739
24	0xbfd308abc07edffd	-0.2974042301025291
25	0x3fcb8a2b7e74ac7c	0.21515411066625123
26	0x3fc3029d7e036c2b	0.14851730969425722
27	0xbfa7583726061f84	-0.04559490527304802
28	0x3fd08e38a29b7c1b	0.25868049506783714
29	0x3fd739b0072c2e6c	0.36289597225616066
30	0x3fd410aa33dcde61	0.3135171419594141
31	0xbfd669a1f52572f4	-0.35019730510775493
32	0xbfc5c157b719fa0b	-0.1699628490495829
33	0xbfd8b11e24122fbc	-0.3858104088073977
34	0xbfdf4961eb62bf04	-0.4888539122284643
35	0x3fabe950a6fc9e8f	0.05451442755139368
36	0x3fdba6f1f94f9b31	0.4320645270039903
37	0xbfd0d26ef6907dc8	-0.26284383848721093
38	0xbfd0bfc84b6b154d	-0.26170546879832984
39	0x3fdd7c78267461b7	0.4607220054181442
40	0x3fa0a4ab7c5f575d	0.03250633137910939
41	0xbfd14b8e49515c95	-0.2702365604395223
42	0x3fd893c9946a3d4e	0.3840202283253874
43	0xbfd80f27c8a4382c	-0.37592501253027666
44	0xbfd203154da6154d	-0.28143818457495656
45	0x3fd26c1aa6b8fb24	0.28784815103056105
46	0xbfde3b74b0d9ef4a	-0.4723788954795408
47	0x3fc0068d35207709	0.12519993871767834
48	0x3fd239b6f916ddf2	0.28477262807015713
49	0x3fadf2d4f38b506d	0.05849328492118464

weight f8 [50, 50]
0	0x3fbf12aaf1f1ef9a	0.1213785973249614
1	0xbfc1f78f05453db6	-0.14036739117953595
2	0x3fb4f2b66008961e	0.08182849735802519
3	0xbfa98afc7d994c93	-0.049888506252181795
4	0x3f970b0d92052b7a	0.02250310138451137
5	0xbfb75fb60de6a2ec	-0.09130418624284758
6	0x3fba72dd154bec1f	0.10331517953811485
7	0x3fbda9fcbd50e6c6	0.115875049800617
8	0x3fb4504bfff43c5f	0.07935023306730347
9	0xbfbf823ef1b2a076	-0.12308114434074632
10	0x3f91fbca1d80858a	0.017562063265477636
11	0xbfb79a95286cdff3	-0.09220249401994333
12	0x3fa4e7e00b0c7ade	0.04083156714317736
13	0x3f88b82857489a8f	0.012070002711948717
14	0xbfc0f2522c1f8694	-0.1323950496144347
15	0x3fbaa897d0d193c7	0.10413502548324437
16	0x3fae732a921413b9	0.059472399074401
17	0xbfa4c4ff99c0e372	-0.04056547881959362
18	0xbfbc0962ecbcba0b	-0.10951822547642835
19	0xbfa2c113b9226d69	-0.036629310941146916
20	0xbfbd1b62ce983ef7	-0.11369912666145497
21	0xbfb651e3b3940230	-0.08718703397972472
22	0x3fb8e6e51aef30bb	0.09727317721916766
23	0x3fc00a771d61c1a1	0.12531937536870166
24	0x3fbc079a76b12739	0.10949101827386877
25	0xbfbb6013d198992c	-0.10693477503864263
26	0xbfa2b964aa82b1ec	-0.03657068807055794
27	0x3fc0b3f48d888f07	0.13049179945766573
28	0x3f87939282792392	0.011511940581060452
29	0xbfad492c4274ad4f	-0.0571988898394361
30	0xbfb2fff2fc1858f8	-0.0742179742304393
31	0x3f8d711f88caca99	0.014375921594681972
32	0xbfc1687e45cb1278	-0.1360013809954983
33	0xbfb3d1978982dda2	-0.07741686923224347
34	0x3fbff754acfb884c	0.12486771796423674
35	0xbfab4fd0bc97eafa	-0.053343318006190146
36	0xbfb9040799aee480	-0.09771773817091578
37	0xbfb56176b842bc3a	-0.0835184287886798
38	0x3fb958bca2ccded6	0.09901026701561064
39	0xbfabe3afe5be9f49	-0.05447148971080524
40	0x3fb98186461ae409	0.09963263713406446
41	0xbfa7136099165ad0	-0.045069712340752965
42	0xbfb7dd3524e04db7	-0.09321911001489168
43	0xbfb2315b7c93747f	-0.07106563369184647
44	0xbf937fedd457be38	-0.01904269798791189
45	0x3fb0abb75ac6e9f8	0.0651201817153505
46	0xbf72e5f30102b0f2	-0.004613827928704449
47	0xbfc2160091d61b02	-0.1412964546290923
48	0xbfad4687db8cd715	-0.05717873148971201
49	0xbfa51b499aecbcfa	-0.04122381225749368
50	0x3f908a344bfd831a	0.01615220750625488
51	0xbfb9ed82aa3b8674	-0.10128037124698058
52	0x3fb48badf011a5ff	0.08025633917863927
53	0xbfbdd6ef70c187b4	-0.116560902622523
54	0xbfa76775d4c2eb97	-0.045711214277125815
55	0x3fb6b91a182cd774	0.08876193132604532
56	0xbfa4c81e4d20cd47	-0.04058928195481797
57	0xbfb797dbaed0ae66	-0.09216092126796979
58	0x3fa15b07ed7108e9	0.033897636160434015
59	0x3fb126315038abe6	0.0669890232899629
60	0x3fad1138595b57bd	0.05677200403958647
61	0xbf7b9602152e777c	-0.006734855781273082
62	0xbfb70296bfff8e3a	-0.08988325297792069
63	0xbf674e7184d3682c	-0.002845021931176658
64	0xbfb090a2c64eb6f3	-0.06470696774951161
65	0xbf9e9fcbdb4398ab	-0.0299064495638041
66	0xbfc04533b15c5f57	-0.1271118751544644
67	0xbfbed31105dc3956	-0.12040811913559443
68	0xbfc188d028355c2d	-0.13698770488073944
69	0xbfbd817c3b20ad21	-0.11525703853174153
70	0xbf9c1e4909b99387	-0.02745927926880001
71	0x3fbf5ccf4b86fb0e	0.122509914340281
72	0xbfb3beb58d3e4963	-0.0771287412483495
73	0xbfc1e56755d69da6	-0.13981334391904204
74	0x3fa56ed799626da4	0.041861283754055095
75	0xbfc1fcf9888e7b21	-0.1405326763897046
76	0xbf7f0c23e5d3ab90	-0.007579937196377964
77	0xbfb35d7dd7db00d6	-0.07564531822118012
78	0x3faeb50be8728aab	0.0599750252961447
79	0xbf95eefa17697ba9	-0.02141943710227748
80	0xbfb05c41f3339eed	-0.06390773952045566
81	0x3fb1fab94c76bd68	0.07023199192803065
82	0xbfb6d480dec8935c	-0.08918004454660661
83	0xbfa87aa3c6ce50aa	-0.04781066705541666
84	0x3fb5a12dbd5b415f	0.0844906413360653
85	0x3f9e0756c2c8b4f1	0.029324870718643706
86	0xbfb2fef5b9453f06	-0.07420287869649309
87	0xbfa143d4db3c904a	-0.03372063804843657
88	0xbfa59cb41e2c3538	-0.04221117847746786
89	0xbfaed314f532afa8	-0.06020417683734475
90	0x3fb7b914992e64f3	0.09266785373474189
91	0x3fbf2f58e45110ab	0.12181621145379277
92	0xbfad059db11c32b9	-0.05668347155560611
93	0xbfb94998a18de4f8	-0.0987792391223542
94	0x3fa840e7c58c4378	0.047370188584074435
95	0x3fb971e956814157	0.09939440118728747
96	0xbf7f8bf5a63a5f37	-0.00770183522003958
97	0x3f94d7ce99b153d3	0.02035448849740702
98	0x3fc1b4583436117c	0.13831617879271707
99	0x3fbc846cc68f5abb	0.11139564368873327
100	0x3fbf458be08302a1	0.1221549437641536
101	0xbfae92b94ec05f02	-0.059713164199079585
102	0xbfbdd00ff42b76b6	-0.1164560290448787
103	0x3f8a0adbc2f8800a	0.012716023337873156
104	0x3fb91ca707c7b997	0.09809345188089079
105	0xbfa0adec7d529e38	-0.03257693319147531
106	0x3fc1e5c892987aa8	0.13982493551244102
107	0xbfa76f67d26957c2	-0.04577183192729663
108	0xbfb91a7a529c615a	-0.09806026951662741
109	0x3fb50f2d5593b5c4	0.08226283396989859
110	0xbfb4661dcf5d3fbd	-0.07968317329982617
111	0x3fb15e3eef06a951	0.06784432731243341
112	0xbfbad96b870a9c69	-0.10488006636534099
113	0xbfa7c49ad14c5d3a	-0.04642185025130137
114	0x3fa8aa114d3310a0	0.04817251269699452
115	0xbfaaf617a44e235e	-0.052658785635748315
116	0x3fa9d1ccd39e2308	0.050428772766343555
117	0xbfae64d3bd674ef1	-0.059362999792623834
118	0xbfb11a5a1de182c2	-0.0668083498908443
119	0x3f8760dafe8bca65	0.011415205853585417
120	0xbfbd40d0421eae8a	-0.11427022566084069
121	0x3fb78d77b7ca14e9	0.09200237500234078
122	0xbfb4f3f843956725	-0.08184768342962608
123	0xbfa773887bf4d7ab	-0.04580332291736452
124	0x3fb48dd48686af50	0.08028915676430626
125	0x3fbed3a10b8b154a	0.12041670352762882
126	0x3fbcdda964dd0cd6	0.11275728905188784
127	0x3f8d11849652a0f8	0.01419356902836498
128	0xbf8487464bf9dfa0	-0.010023640817266088
129	0xbfbbe9a9b5f29db9	-0.1090341633995341
130	0x3f8bd0359ac057ad	0.013580721650253336
131	0xbfc0e93cde4a8839	-0.13211785177287697
132	0xbf94315b228d3448	-0.01971952818285086
133	0x3facec1ff6f1ed78	0.05648898972955413
134	0xbf940adabd0a393f	-0.019572656429369003
135	0x3f81e7b63d866bb8	0.008742736580463858
136	0xbfa38cdd372814ea	-0.038184082968692426
137	0x3fb9ed9fb727a930	0.10128210279041094
138	0x3fc010b69086f5ad	0.12551004464141383
139	0xbfb940d79efb4630	-0.09864566451440093
140	0xbf99c5b99b807f02	-0.025168323627553064
141	0xbfbbe06085a32f13	-0.10889247191078892
142	0xbfba6e2d184df20d	-0.10324365466471637
143	0xbfb26214d465fc5b	-0.07180910287387247
144	0x3f903c03b1091396	0.015853936844240822
145	0xbfb90df29b53d6bb	-0.09786907474684885
146	0x3fb083da14e61efe	0.0645119000456553
147	0xbfb3ba64cd9dfc22	-0.07706289310407091
148	0xbfbbb66a24b2f11a	-0.10825217624637098
149	0xbfb714211c5fa876	-0.0901508993407861
150	0xbf86bb7a62ceb15b	-0.011099773540842397
151	0x3fbee1e0f36b1368	0.12063413565472347
152	0xbfc030c72e6a8303	-0.1264885880127836
153	0xbfbc6e93f8499aa0	-0.11106228648859906
154	0x3f7b0d0ba8d691b1	0.006604238076225164
155	0x3fbb768357b7c4ac	0.10727711574124282
156	0xbfc28b6f32f59d08	-0.14488019932034768
157	0xbfa976daa0e9046f	-0.04973490919338352
158	0xbfb904628a9852f8	-0.09772315868060477
159	0xbfb8767db4f786d4	-0.09555802982461198
160	0x3fc1b5b11116b6e6	0.1383572896424347
161	0xbf9246350865e5b3	-0.017845944058967066
162	0xbfab89e22811655b	-0.05378634204016449
163	0x3faf4395fc01c364	0.06106251431709245
164	0xbfbab96e167c86c3	-0.10439193772301807
165	0x3fb50875817d1b01	0.08216032420487453
166	0x3f8f23cf9dda80cd	0.015205022816474312
167	0x3fb8f93288933315	0.09755245050764601
168	0x3fb27f7976896327	0.07225760597192431
169	0xbfb1002705e43867	-0.06640857595286463
170	0xbfc031d933693d63	-0.12652125368411324
171	0xbf996ae48d32d8e1	-0.024821826093749947
172	0xbf9312b63c70287e	-0.01862606758008
173	0x3fb29c57e619e8b2	0.07269811027245757
174	0xbfa03a959e27f64f	-0.031696963840641794
175	0x3f94fbb7ecd9d0bb	0.020491479712703802
176	0x3fb22705c965bfd8	0.07090793768816128
177	0x3f70773738268841	0.004019942951716316
178	0xbfbd204800219035	-0.11377382281494948
179	0x3fba5930e8d0ed7e	0.10292344745623969
180	0x3faaee110280cb99	0.05259755282931806
181	0xbfa56aba2fbda7f9	-0.041829889610042366
182	0x3fb6142d341cde42	0.08624537012371383
183	0x3fbd56195841bc95	0.11459501652437816
184	0xbfb1ac8eec79d4c0	-0.0690392806371447
185	0xbfb73ed03599dea6	-0.09080220516795609
186	0xbfbe39017dc20919	-0.11805733986151203
187	0xbf984ef36bf44d1f	-0.023738673652656247
188	0xbfb9186c49aa397f	-0.0980289153905911
189	0x3f910ba3e25dd6f5	0.01664596623546451
190	0xbf9c82c52840a7e3	-0.027842598516293903
191	0x3f9b75e2b24dfeef	0.026816885121205777
192	0xbfbe6ec6c184af69	-0.11887781357353124
193	0x3fad49e6468447d3	0.057204433544157184
194	0xbfab73d9ab0f3b05	-0.05361824238899796
195	0xbf72aa4f3e911d8e	-0.004556951092190243
196	0x3fad2f2dab8c7357	0.05700056761836574
197	0xbfb5882cec410322	-0.0841091229240303
198	0x3f8e8f123882eec8	0.014921324109642767
199	0xbfb91ac1fb8b9f8f	-0.09806454077954484
200	0x3fb3551c3660753c	0.07551742866094896
201	0xbfa39bbfebea4c5d	-0.03829765086006696
202	0xbfa48b8938473d65	-0.04012707530966501
203	0xbf9b62889cab386a	-0.02674306350927972
204	0xbfc004a0c1c43723	-0.12514123402837027
205	0xbfb6c4f3006721f3	-0.08894270667872899
206	0x3f639e9f8dd6f243	0.0023949734010939873
207	0xbfb5aee70599015f	-0.0847000492731289
208	0xbfbb0c1f7464655f	-0.10565373031240231
209	0xbfbb75deb190f653	-0.10726730189431892
210	0x3f6c416dbc3d78f0	0.003449167563231652
211	0xbf85c8a5495a819e	-0.010636607457229993
212	0x3f734b25b78e9038	0.004710337955575787
213	0x3fb68886f2d6d0e6	0.08802073887528969
214	0x3fa9a9b8aed03cc4	0.050122996654061974
215	0xbfb162c994176146	-0.06791362634192408
216	0xbfbb65e798f0ec8f	-0.1070236919776326
217	0xbfc1a39d69a6aafc	-0.1378056302904368
218	0x3f8354d528613b16	0.009439149184030476
219	0xbfa49ac6604569c4	-0.040243338825081604
220	0xbfbe58fdb6445375	-0.11854539584994746
221	0xbfa173d8307fdc70	-0.03408694831880943
222	0x3fb92ff0959b83dc	0.09838775303388964
223	0xbfb1803978b73a78	-0.06836280057107469
224	0x3fc128bde0e8da30	0.1340558384124093
225	0xbfab69d93ea4f910	-0.05354193582251032
226	0xbfc09691d3b7ea3d	-0.1295950206548059
227	0x3fbba95ef53f4a4f	0.10805314528924125
228	0xbfb4d4f861e3bdf7	-0.08137466802485692
229	0xbfbe171715c27f16	-0.11753982812160432
230	0x3fae5117e43f03be	0.059212442981795274
231	0x3fb91a9ddfa4bcb1	0.09806238851591577
232	0xbfad873c48dcbf85	-0.05767238988334981
233	0x3f6a7d85a27bbb21	0.0032336816838020176
234	0xbfa32433e8652769	-0.037385580175920925
235	0x3fb9140c792dfcb8	0.09796216925132029
236	0xbf7f28f75783bfe5	-0.007607427767865692
237	0x3fbad3964d1f5f6b	0.1047910631453967
238	0x3fb9e36ccb7b5cd1	0.1011264797956415
239	0x3fc18e2c9bcc521e	0.13715131385164708
240	0xbfa82cbcfb19c7db	-0.047216325427953364
241	0xbfb7bf5a8d53b20e	-0.09276357603420868
242	0xbfbf78bc31b23292	-0.12293602193148903
243	0x3fc166ae666b1b99	0.1359460830774111
244	0xbfb9112905337a6b	-0.09791809441547066
245	0xbf903e8624cc20b7	-0.015863510127957805
246	0xbfc10d44669bc737	-0.13321738252812462
247	0xbfc20d2da7151cbe	-0.14102717073749277
248	0x3fb2004ff296b2ec	0.07031726524901288
249	0xbfb46e0840f88da4	-0.07980395876125229
250	0x3f93d1d5696b28b4	0.019355139312019445
251	0x3fbc98f7b9b6d311	0.11170910152470649
252	0xbfb9f65c69ffd49f	-0.10141542041658845
253	0x3fa58d8e377499fb	0.04209560801455222
254	0xbfb4edb03ec6cc75	-0.0817518380415992
255	0xbfbdfbfbb83ddeee	-0.11712620971763574

bias f8 [50]
0	0xbfbbefaad7c65c44	-0.10912578361454545
1	0xbfb5ade4d07ad3ab	-0.08468465890730552
2	0xbfb2a67037fe9b87	-0.07285214774183944
3	0x3fb1238c1c842756	0.06694865890690713
4	0x3f8d57d37233e60a	0.014327670977297497
5	0xbfb15786787ae730	-0.06774177972229434
6	0x3fbe5534fefd9b2a	0.11848765588147772
7	0xbfa1415fa3203416	-0.03370188585549998
8	0xbfb76c563a3b3ec5	-0.0914968387762612
9	0xbfbcd6347968dbfd	-0.1126435085687802
10	0x3f77cf6ec274f1f8	0.005813057570148043
11	0x3fa7feceae6654fc	0.046865900792150555
12	0xbfb4ff7535c8316c	-0.08202297747647486
13	0x3fc05a7c026fbc43	0.12776136511772238
14	0x3f86068a4520ab44	0.010754661783797588
15	0x3facbf8d694b532d	0.05614892874078801
16	0x3fa1d5845d51e5f0	0.03483213080557934
17	0x3fc2ffda260305c8	0.14843298774762403
18	0xbf991c56a4608529	-0.024522165091302704
19	0x3fb38e6a835170fd	0.076391846714106
20	0x3fbc79a862132fd0	0.11123134989173811
21	0xbfa018d45d9414ad	-0.03143943445506046
22	0x3fb00e3db925a8ec	0.06271730203812681
23	0xbfb3d39a34d69388	-0.07744754590983238
24	0xbfb5092af51af4b6	-0.08217113956466701
25	0x3fb443d57a4ef479	0.07916006313367231
26	0x3fb3bfa508fba35c	0.07714301556883413
27	0xbfa6f8bef3c6fc14	-0.04486653066441462
28	0xbfac3dfd5011c18a	-0.05516044237527058
29	0xbfbd83a6d9fbcdea	-0.11529009649148461
30	0xbfbf7395a1ec0856	-0.12285742953466303
31	0xbf958c51b2768f5c	-0.021043087499165267
32	0xbfa22935b4dfa984	-0.035470655755335506
33	0x3fb95c43ba5ea65c	0.0990640954975332
34	0xbfbdfba269b51e56	-0.11712088661908501
35	0x3fa330046e74044a	0.03747571800523326
36	0x3fc09679f1002dd8	0.12959217326748163
37	0xbfc007a5bdb68077	-0.12523338092160305
38	0xbfb898d1e2324c36	-0.09608184597372901
39	0xbfb27cd858f99ce4	-0.0722174851631397
40	0xbfb1b6b9aac83645	-0.06919441623195961
41	0xbfb171ae13926693	-0.06814086892918629
42	0x3fb3085883c58a97	0.07434609620171738
43	0xbfc01d385039ca84	-0.12589172284386418
44	0x3fb2f8206c379a20	0.0740986122324121
45	0x3fb74e50e7d9d1b7	0.09103875790044112
46	0xbfbdc7e619c8d889	-0.11633146409517016
47	0x3f9d07658bbce793	0.02834852853195675
48	0x3f954da6579f1b2c	0.02080402288245435
49	0xbfa5bbbdf13571c2	-0.04244798249667127
