lasa_models/5/skel_model_NShape.pt (torch, 99247 bytes, 18 tensors)

R f8 [20, 20]
0	0x3fb239366f089770	0.07118549547939579
1	0x3fee515b81d2c554	0.9474313293086802
2	0x3fe454d4507f2759	0.635355145664316
3	0x3fde646a35f2a017	0.4748788382371471
4	0x3fdb15d50b5092d9	0.4232075319762721
5	0x3fd0d0fff55db520	0.26275633775260765
6	0x3fe7f70c3c24b75e	0.7489072012592535
7	0x3ff18eab25e0d96d	1.0973311881658347
8	0x3fcd81bb7fca3031	0.23052161922203276
9	0x3fc4563ca853cc7f	0.15888174265964847
10	0x3fe6c1eee463b9e6	0.7111734829648497
11	0x3fe2e3a735ce590c	0.590289692964491
12	0x3fdd597dae1c7120	0.4585870933822367
13	0x3fdf7405e0aacec4	0.49145647945554694
14	0x3ff0526716f5826c	1.0201178452336093
15	0x3fe9451d6a79739f	0.7896868781641507
16	0x3fe849b15a2bff13	0.7589957009476812
17	0x3fe51ad5ca6567aa	0.6595257714318354
18	0x3fa1891304c7db59	0.034248918851452266
19	0x3feb161409f47f14	0.8464451021609158
20	0x3fdbc09874bbe794	0.43363009834103505
21	0x3fd5e4b9e0ca2932	0.34208533241384764
22	0x3fe2284d0a1fa8ec	0.5674195478179889
23	0x3fcd01fd6dfa1a13	0.22662322874039428
24	0x3fe42ddaa1bd3fe7	0.6305974158258295
25	0x3fe51c568a1efe5a	0.6597092340161439
26	0x3fe31ce527efe6dc	0.5972772388479046
27	0x3fec17615ce61001	0.8778540434291245
28	0x3fe054e049c7a7c1	0.5103608551992168
29	0x3fc0ef73ae642730	0.13230749144741472
30	0x3fd103e512b42321	0.265862720742506
31	0x3fe607ed56a22544	0.6884676639612413
32	0x3fc04b6dea1e2967	0.12730192119154113
33	0x3fd985ee63183dad	0.398799511692199
34	0x3fd33184157cd2a8	0.29989721392056845
35	0x3fae9634b5573ccd	0.059739730011295934
36	0x3feb8c29875884c1	0.8608596461746388
37	0xbfa835c7ed3239d2	-0.04728531618558275
38	0x3fcfe9b4949eaa80	0.24931962258172646
39	0xbfb93b5322225638	-0.09856147368767487
40	0x3fd2798d6adffb8e	0.2886689704609403
41	0x3fb334998d4689ca	0.07502135943517554
42	0x3fdd631ccb436ba0	0.4591743454927215
43	0x3fc44264c6482610	0.15827617341737765
44	0x3fe2cafe5ff753d5	0.587279498514017
45	0x3fd2421b1cbe7216	0.28528478438400506
46	0x3fe4caaaad7fad26	0.6497395886084731
47	0x3fdea702a7afe943	0.4789435041017393
48	0x3fcf2580cdded83b	0.24333200504560346
49	0x3ff2242a8b5acc13	1.1338296359579132
50	0x3fd2c6fcdbe68e41	0.2933952472178341
51	0x3fe52582b40d8ad6	0.6608289257677267
52	0x3fde4dc4b84b0624	0.4734966087090433
53	0x3fc8cfd04be5dcde	0.19384196954681604
54	0x3fd3fade966aaca5	0.3121868580735259
55	0x3fee6db818dad0b9	0.950893448395184
56	0x3fd851926b52aa2e	0.379978756721047
57	0xbfb266ffabf26e89	-0.07188413570332321
58	0x3fee5edb304956a2	0.9490791266532208
59	0x3fede2481ac961e8	0.9338722727944146
60	0x3fdc440576077a7f	0.44165169264116594
61	0x3fe3c02c43c5ef58	0.6172086070723521
62	0x3fe06004c1ebf75f	0.5117210185560274
63	0x3fd9aa581e371cde	0.40102198553763724
64	0x3fc46570e8e5dc8c	0.159345735282589
65	0x3ff0f77789633b94	1.0604167334274495
66	0x3fe8256737d5775c	0.7545658197884495
67	0x3fe7e433a9106182	0.7466066648512852
68	0x3fd446439cbfe5fc	0.31678858096674367
69	0x3fc1260ecb034e27	0.1339739314340573
70	0x3fe2169fbf0bde3f	0.56526171983473
71	0x3fe1f86369461da6	0.5615708404665625
72	0x3fb632272c3434e5	0.0867027743263012
73	0x3fd91f3c1f4eccfa	0.39253142411617115
74	0x3fd5a7473f9580c4	0.3383348580300771
75	0x3fc24ae4597ed5fb	0.14291052217383524
76	0x3fce5797f4a073e9	0.23704814381281317
77	0x3fe4b221bdaefe6c	0.6467446045644016
78	0x3fd27a1f0d7d5f4b	0.28870369260174716
79	0x3fd2bc020683fb0d	0.2927250922802365
80	0x3fe1d9f819d0ab12	0.5578575615121244
81	0x3fee1eb88ae7158e	0.9412501061384988
82	0x3fd93091e2bd3ee8	0.39358946936134354
83	0x3fbd74e6aecb7259	0.115065019297114
84	0x3fc8f0f64b12b66c	0.19485357919386403
85	0x3fc581bbdce0dc1a	0.16802166256977175
86	0x3ff068310654d933	1.025437378627953
87	0x3fe03c4f1ea95d5d	0.5073619459971429
88	0x3fccaa47c71ebbd7	0.22394654486330864
89	0x3fe0271fef498076	0.504775969846391
90	0x3fe4509088167a17	0.6348345430340626
91	0x3fbd1054e55670d7	0.11353045081199596
92	0x3fc4854886fc3261	0.16031748381682845
93	0x3fd2122c75a1bd74	0.2823592327831286
94	0x3fa45f6dbda43938	0.03979056301078504
95	0x3fe6886365eccaea	0.7041489592287153
96	0x3fe1c27a82f05705	0.5549900586508733
97	0x3feeb3c82588788d	0.9594460232799676
98	0x3fd40b0faf38e667	0.3131751261858881
99	0x3fe6521ebb112960	0.6975244191792562
100	0x3fc1e6254629ed62	0.13983598638501876
101	0x3ff21b0c5e3f7d4a	1.1316035920679774
102	0x3fe4e77a9659eb78	0.6532566963718258
103	0x3fe739b7e9f02cce	0.7257957047562742
104	0xbfb1e6183171a823	-0.06991721350792139
105	0x3fe72f7e8eb500df	0.7245476519820179
106	0x3fef25f957496563	0.973385496599047
107	0x3fbd91436d755203	0.11549779341050485
108	0x3fe596eedb79e539	0.6746744429248458
109	0x3fd236acc06fb2f0	0.2845870856533983
110	0x3fe032a0add02f24	0.5061801333226623
111	0x3fd3083ab0e307c4	0.29737727426629257
112	0x3fc4cb2f3a511e40	0.16245069835189163
113	0x3fc93ea8331c2fec	0.1972246408043924
114	0x3fe5c2216d276c9c	0.6799475795663912
115	0xbfd2207c40796854	-0.2832327489501314
116	0x3fe545c45cffeb95	0.6647664848709264
117	0x3fd83417c798eef6	0.3781794976418803
118	0x3fae4618e932593b	0.05912855002059066
119	0x3fea98a460aed70a	0.831133068880008
120	0x3fe16ff4e8a536c6	0.544916586289866
121	0x3fef3547b68dc3a2	0.9752539220336198
122	0x3fe8457d35501e32	0.7584825555104031
123	0x3fcba3432e1dd19d	0.2159198737314342
124	0x3fed59481d9d337b	0.9171486452483885
125	0xbfa754c31e870e73	-0.045568559147366815
126	0x3fe506d1c6c9080d	0.6570824511075003
127	0x3fdcc229967af378	0.44935073561992267
128	0x3fcbc9eabb60910f	0.2170995154311943
129	0x3fea789246826b50	0.8272181870591826
130	0x3fdb5e3ee9e3caba	0.4276273044662663
131	0x3fe20d37ccf7ade1	0.5641135218879151
132	0x3fef305d4e61dce6	0.9746538668540807
133	0x3fde492b4668f67f	0.4732158839795843
134	0x3fe7d6cb98873677	0.7449701289239802
135	0x3fe5ee904ba719aa	0.6853715398399818
136	0x3fd343b1b5aee69f	0.3010067247629226
137	0x3fd284b427e6d92d	0.28934959313064007
138	0x3fe5e79d186873bf	0.6845231510848108
139	0x3fd05ee6e35c5f38	0.255792352706965
140	0x3fddfa18f19f81bc	0.4683897361374212
141	0x3fea3bbaf9b5470c	0.8197913052665355
142	0x3fd5532d3e802acf	0.33320170501307883
143	0x3fe2a59e66cf5bdb	0.5827171333320352
144	0x3fa3392cc28f55d1	0.037545584440220055
145	0x3fd7075edb726afc	0.3598248618160793
146	0x3fee8417d5be0970	0.9536246466307556
147	0x3fd7a522b76804ac	0.3694540778233868
148	0x3fdc51ac5f0a73de	0.4424849441655264
149	0xbfc05da08e9997c5	-0.1278572746552397
150	0x3fd34595d16f6269	0.30112214520116837
151	0x3fda0a2019acfbae	0.40686800486940455
152	0x3fe744bd953c1850	0.7271411814442761
153	0x3fe08eb320e46acd	0.5174193994929169
154	0x3fda475e5e2a92b4	0.41060599513938745
155	0x3fe2f7108b463476	0.5926592560005151
156	0x3fd729224b3fd7d6	0.3618856177193924
157	0x3fb10270180e4671	0.06644344889925848
158	0x3feff575fad55879	0.9987134837235906
159	0x3ff05163b16bb445	1.0198704653260091
160	0x3fd72856780adbed	0.3618370220460168
161	0x3fcd46d066b3911e	0.2287235738250581
162	0x3fe6017a6bff8a69	0.6876804456081348
163	0x3fe96def90f6a9df	0.7946698981589256
164	0x3fe671c64c1175e7	0.7013885007578978
165	0x3fe6a49302ffa1c3	0.7075896318975129
166	0x3fdb55d87803102b	0.4271145984641886
167	0x3fe7f52fda3d74b2	0.7486800444127282
168	0x3fee582e7cfe38b7	0.948264354826981
169	0x3feaf3f1e565bded	0.8422784309786359
170	0x3fed1b5429fb84b9	0.9095860309572777
171	0x3feb4cfdcc11f929	0.8531483636614087
172	0xbfc3078921dcaa3b	-0.14866747048775317
173	0x3fd16fa923fe4e91	0.2724402286050714
174	0x3fd29846f091f741	0.29054425709897563
175	0x3fea5dafc8b7621a	0.8239363594285039
176	0x3fdf214a45c93648	0.4864068681243663
177	0x3ff2036ba96f08af	1.125835096216672
178	0x3fe9706a48ace477	0.7949725551071783
179	0x3fd09f60a5a28e20	0.25972763228694085
180	0x3fe6d3cbfe1889f0	0.7133541071710265
181	0x3fdf0537567cfccc	0.48469336935154383
182	0x3fe6f0a19916cf8f	0.7168739309331488
183	0x3fe48a4c90089ac7	0.6418822110325316
184	0x3ff0e638f37c1156	1.0562066565626842
185	0x3fd2b5c228dbd4c4	0.29234365453823963
186	0x3ff1232c9c83eb88	1.0710874666098977
187	0x3fd4ba1f1139f082	0.32385994608171853
188	0x3fc0668ce92eb9f9	0.12812959085336198
189	0x3fea596d2344e32e	0.8234162987565463
190	0x3fe5be6c3a4a3d24	0.6794949663616632
191	0x3feb6a4e36a06d10	0.8567267481734309
192	0x3fe6a5645bcf6abd	0.7076894562881858
193	0x3fc3040a0c0fca2e	0.14856076802205237
194	0x3fe4048ad72f55d9	0.6255544855909491
195	0x3fdff20ba08f2420	0.4991482799492264
196	0x3fe3269f53a777ca	0.5984646448011912
197	0x3ff13af3a86607d6	1.0768925264423976
198	0x3fd003fc5f12ecec	0.25024327549517866
199	0x3fdff9fc675abf98	0.4996329316445496
200	0x3fbe3fc5b03bfed4	0.11816058685871705
201	0x3fe4bca3b09d74c3	0.6480272721779773
202	0x3fa9b836ce229e7c	0.05023356691645817
203	0x3fcbbe95329c984b	0.21675362559580189
204	0x3fd4d5f71b435fe0	0.32555940306110465
205	0x3fbcfbb4f0746f37	0.11321574087599805
206	0x3fdcc538ed7504ea	0.4495374983708432
207	0x3fe3aa1fd4030153	0.6145171299795414
208	0x3fc9df3978eacee2	0.20212477115784738
209	0xbfb2f553b1f99a28	-0.07405589194386464
210	0x3fb16326084bbed8	0.06791913702522423
211	0x3fee62f434be58de	0.949579337134107
212	0x3fcaefe282809d19	0.21044570324122772
213	0x3fe871b7f82a79a9	0.7638816687574962
214	0x3fecc48928152287	0.8989911826002562
215	0x3fe4cc0538f6c7d6	0.6499048340394846
216	0x3fdff64dcfc11375	0.4994082001542702
217	0x3ff2b978ad5ac9d7	1.170281102339336
218	0x3fda8eecc13c786b	0.41497343893741484
219	0x3fe6d3e741d3fb29	0.7133671079353451
220	0x3fbba155fc6108c4	0.10793054019544274
221	0x3ff029ece96be956	1.01023570232663
222	0x3fdb3aa5a0166d51	0.4254545272212527
223	0x3fa66a69c853a103	0.04378061838525762
224	0x3fe9bd98d346fd40	0.8043941618451882
225	0x3fd7a905973d8dc2	0.3696912743527855
226	0x3fdd0c7f543ee3d7	0.45388777949443465
227	0x3fe57c33e2c02ed2	0.6714114598011867
228	0x3fd2c68038467410	0.29336553092599704
229	0x3fdf3e1ae2a7cd13	0.48816558965991524
230	0x3fe28e77f38fe5d2	0.5798911816665913
231	0x3fd0db1e692111a2	0.26337394968529726
232	0x3fdfdf1f8068a770	0.4979933504097209
233	0x3fd217872523fa3a	0.28268602969174916
234	0x3fe430fb72a3c1c0	0.6309792746597438
235	0x3fee9e8daa3c18c4	0.9568546605012433
236	0x3fe637158e55c8b5	0.6942241458875943
237	0x3fe635ae5f569268	0.69405287380921
238	0x3fd968a027b79416	0.3970108402120912
239	0x3fe65882682c5c9b	0.6983043703684361
240	0x3fd862272dc8a1b2	0.3809907862764944
241	0x3fd49cf911147136	0.32208086650804846
242	0x3fe41d3083423eeb	0.6285631717346097
243	0x3fd89ba1a0281860	0.38449898376746283
244	0x3fd2e5e8ff6c43de	0.29528260177272425
245	0x3fe83d47ca4956e1	0.7574805212886667
246	0x3fd999cd50540542	0.4000123295264367
247	0x3fe685495d93326c	0.7037703349720466
248	0x3fecb625b0b3df2e	0.8972347689841393
249	0x3fe9801b7dab2818	0.7968881086792434
250	0x3fcb3f5865be5371	0.21287064521734636
251	0x3fd9c74bd7f50c07	0.4027890786130119
252	0x3fe1d048aea05264	0.5566752825421415
253	0x3fe65a21241e3a9d	0.6985021310263907
254	0x3fe3b08d0dd493a9	0.6153016348003933
255	0x3fda350180fc5ea1	0.40948522182723407

L f8 [40, 40]
0	0x3fdb9972eb8137dc	0.4312407779551657
1	0x3feca9fe9b46ea6a	0.8957512886766612
2	0x3fd691bd1937f1c9	0.35264518225428937
3	0x3fa36343df31b8b9	0.03786670779742125
4	0x3feadd3f7cce3a40	0.8395078122719681
5	0x3fe0fce64a15fb32	0.5308715292920623
6	0x3fc8e85f50346f93	0.19459144035579054
7	0x3fbe563cf9cec000	0.11850339030092982
8	0x3ff33db13e36b944	1.202561610243337
9	0x3fe0ef6115a1c6a3	0.5292210981844686
10	0x3fd3a74500890735	0.3070843224742135
11	0x3fd34e848aba0feb	0.30166734263934697
12	0x3fe2986d97f30233	0.5811069457777819
13	0x3fd16471ec13e10f	0.27175567678888596
14	0x3fe39263cd227844	0.6116198545967184
15	0x3fbc846bb58cdc9a	0.11139558012370046
16	0x3fd156d9ae59e852	0.2709259226463746
17	0x3fe1d715fdd71e41	0.5575056035822358
18	0x3fd9eff489628ec5	0.4052707044267943
19	0x3fcb56cfc8a9b1d7	0.2135867814826173
20	0x3fde04972a472c61	0.4690301812049196
21	0x3f8cce2fba30a32a	0.014065144414489323
22	0x3fe0bd7b47c68050	0.523130073725051
23	0x3fa81821bdafadaf	0.04705911102777393
24	0x3fcd1d3d72cce269	0.22745483499035693
25	0x3fea6dd59f493f64	0.8259075270707226
26	0x3fe34a1c8793af31	0.6027968070970698
27	0x3fde91aa5e330245	0.47764071654458845
28	0x3fdc2380ec60ab07	0.439666968190679
29	0x3fcb414310438dfd	0.21292913717398668
30	0x3fef6146756b6639	0.9806244176244895
31	0x3fe068d93c4941f2	0.5127988984550582
32	0x3fe797807ce52413	0.7372438849789681
33	0x3fe8156a46f5e646	0.7526141534755844
34	0x3fcd01f1ebab1a88	0.22662185675854496
35	0x3fdef5fd499fdef9	0.4837640017499179
36	0x3fcdc767e545e66d	0.23264788336728107
37	0x3ff13950fa6e35b0	1.0764932424966496
38	0x3fc3ff1fcddcea6b	0.15622327377225828
39	0x3fd2d8fc9bf5a432	0.2944938204805708
40	0x3fed99c78321a5e8	0.9250218926583189
41	0x3fe4431994159212	0.6331909076948838
42	0x3fd8fcd9eb445fb1	0.3904328153162125
43	0x3fc42b3ab680b111	0.157569254982612
44	0x3fe2b4cee8b4a1ca	0.5845713181525352
45	0x3fda95534e17bf37	0.4153640997528671
46	0x3fe19bae7e34023f	0.5502541031747298
47	0x3fe1a242a0a4ed9a	0.5510571611006754
48	0x3fe7191af836f9a0	0.7218146179146068
49	0x3fd58e796815b768	0.33682093777212296
50	0x3fe111b07c76bb18	0.5334093504842228
51	0x3fe37b353e9cbbaf	0.6087900374312677
52	0x3fc40b9bc7f69e30	0.15660426391444693
53	0x3fe5d7474dea13c1	0.6825291177525444
54	0x3fe7cbc66a4c823c	0.7436248851918843
55	0x3fe45471fddb2a81	0.6353082616927425
56	0x3fd28f16985634c2	0.2899834144271375
57	0x3fe00be1a87e22f8	0.5014503756402453
58	0x3fe0e5285c8fa408	0.5279733474573058
59	0x3fe0d408b473c4c1	0.5258830570657197
60	0xbfcbe11295b95b1d	-0.21780617056602916
61	0x3fe1ecbdd2c46a5f	0.5601491085574927
62	0x3fd1de01052f7f9c	0.2791750479354904
63	0x3fdae13e47f363c5	0.41999775911750376
64	0x3fd9b04103a126ae	0.4013826880878736
65	0x3fdd222fde368b25	0.45521160793775756
66	0x3fe07d2799170752	0.5152776708639328
67	0x3feda899c3f94067	0.926831133614553
68	0x3f7e4c2d46a78102	0.007396866664265868
69	0x3fdd89fe87bcfbe1	0.4615475011414088
70	0x3fdddbf65ab8bf3c	0.4665504346803464
71	0xbf97101f628d50c1	-0.02252244032872919
72	0x3fc087b240cbfca2	0.12914112247378734
73	0x3feaaf99faf065bf	0.833935728183114
74	0x3fe3f8fd572b1ba0	0.6241442396648047
75	0x3fdea7f72bb6f1cb	0.479001801195207
76	0x3fe2489a5a8365f9	0.5713626640164754
77	0x3fce8b4fe5476429	0.23862646765954423
78	0x3fdf3e764cd398fe	0.48818738463013733
79	0x3fe4c87d377bce04	0.6494737704910567
80	0x3fe1fc37f530e807	0.5620384014976033
81	0x3fd6c2a58b3f76fb	0.3556302890627731
82	0x3fee7935dd602838	0.9522961925260978
83	0x3fdd0cc7c9e59733	0.4539050552033245
84	0x3fe36e7040b12a28	0.607231260635051
85	0x3fe52cba2f7a659e	0.6617098738963028
86	0x3fdaf1eb5ad77281	0.4210155856251632
87	0x3fabe4cab818db0b	0.054479918453969566
88	0x3fd8b86fd6df5a3f	0.386257133327863
89	0x3fc5083e25aefcf4	0.16431404914872128
90	0x3fda89098424b3f9	0.41461408524156657
91	0x3fca2ac9e9284aab	0.20443080792081977
92	0x3fc29cf3525bae1b	0.14541474839585153
93	0x3fcaa3d7eaf3f7ce	0.20812510464014483
94	0x3fe7cb4c8dbbd9e9	0.7435667770612869
95	0x3fd14f5e6bf8453b	0.2704692892449036
96	0x3fe287c77a7f5d2e	0.5790746109513856
97	0x3fe864934ca5cdd8	0.7622772690796706
98	0x3fc4164dd8b88fae	0.15693066675259842
99	0x3fd9aeb19ef61414	0.4012874653201959
100	0x3ff3549ba39684c7	1.2081562414316964
101	0x3fe01a5aba5a33e2	0.5032170905775468
102	0x3fe01d0f429aad3a	0.5035473156798738
103	0x3fe3a151f5ca9080	0.6134424019442264
104	0x3fe75f4ce21c6e86	0.7303833404761952
105	0x3fd20a9d6a1b3b31	0.28189788209867844
106	0x3fdb2dfee9e0b8aa	0.42468235816603317
107	0x3fcfa7e368931ce8	0.24731104475197374
108	0x3fd6bd9f2e4f8682	0.3553235962154774
109	0x3fe37104de17c8af	0.6075462663414067
110	0x3fc858131ce665f6	0.19018782530910955
111	0x3fddb6292b6378d4	0.46424321400799085
112	0x3fdc88ca373faa21	0.44584899325733046
113	0x3fe6fda02c9b621f	0.7184601660947613
114	0x3fe05cdb161057ce	0.5113349371847506
115	0x3fd8c30ac273e3cd	0.3869044207527253
116	0x3fdccd97943ce5f9	0.4500483462939822
117	0x3fdaf420b2b7b978	0.4211503739633353
118	0x3fc7066634a144c9	0.17988278932401716
119	0x3fdb019bce20a6e9	0.42197318200724837
120	0x3fdb3c2e6bd650d5	0.4255481770608303
121	0x3fe8e96bfb5b7ec0	0.7784938725780748
122	0x3fda197e31c8e148	0.40780596601282015
123	0x3fdc69df2cda7b1a	0.4439619005224117
124	0x3fe084d94ad7ca7f	0.5162168943191573
125	0x3fd034f4304a4885	0.25323204723202536
126	0x3fe01113379e1665	0.5020843588142269
127	0x3fe455cb0937011d	0.6354727916696309
128	0x3fe4fb8a1867a084	0.6557054974228014
129	0x3fe2d53348c6ae34	0.5885254308136099
130	0x3fe06bb6b6c3ded9	0.5131486482268556
131	0x3fe315647f0d86a0	0.596361396932668
132	0x3fe3da086d17c7df	0.6203653460236146
133	0x3fdbc2bd73af6312	0.43376098916410044
134	0x3fe59cff21480434	0.6754146242166201
135	0x3fd38ccece413f51	0.3054692281921137
136	0x3fdbcae0cf09c81c	0.43425770014357723
137	0x3fdab8608a82d0e3	0.41750348593201475
138	0x3fe45302dc76799c	0.6351332002557686
139	0x3fe59dc55477a93a	0.6755091333155072
140	0x3fc3a0c5f29e1a6e	0.15334390970766115
141	0x3fd234f53854b17f	0.28448229313905665
142	0x3fd66ab7c220fc0b	0.35026353795905213
143	0x3fd67d60c7c1345e	0.3514024687509102
144	0x3fe3d981051ae36c	0.6203007793147726
145	0x3fe6bb2314dc6b72	0.7103438765947045
146	0x3fd7eeca58709ca4	0.3739496101065447
147	0x3fe3c01ff3d5f5a3	0.617202736131436
148	0x3fe1a4d11e9b27be	0.5513692472243219
149	0x3fd313197e5da0b8	0.2980407461204879
150	0x3fd7c8026095161e	0.3715825980364985
151	0x3fe19bebb7da41df	0.550283297621771
152	0x3fdf1b5c81f32786	0.48604500475323
153	0x3fd4c54cd5f0833d	0.32454224483995003
154	0x3fe0ff81cb84b902	0.5311898207635581
155	0x3fd336f5e35ac62d	0.30022952272983866
156	0x3fddc4a8f15494de	0.4651281697027353
157	0x3fdfaee165844e81	0.4950488559127067
158	0x3fcf8e8b9b98d615	0.24653763864050462
159	0x3fe3d8291fc969b1	0.6201367970309574
160	0x3fd1dae77dbf643b	0.2789858558658726
161	0x3fea7b8242aa3f21	0.8275767614413533
162	0x3fe64d77090f8a76	0.6969561745612072
163	0x3feff2d47422f893	0.9983923214238238
164	0x3fed6471845c9b62	0.918511160391841
165	0x3fd57afb6c874a70	0.3356312332008775
166	0x3fd381c4c6eed432	0.3047954504684781
167	0x3ff04b513d2e88e5	1.0183880224145068
168	0x3fe53560560787c8	0.6627656631719612
169	0x3fee6a118a4dfd02	0.9504478169691597
170	0x3fe09975b5580a78	0.5187328855393636
171	0x3fecff079a2d4794	0.9061315547244129
172	0x3febf3f6197358fa	0.8735304352838107
173	0x3fe609f8ab8d274e	0.688717207967082
174	0x3fd4d73a63d7b5e5	0.3256364798570231
175	0x3fe50637554e15d8	0.6570088068116844
176	0x3fe3ef22edb725b6	0.6229414599303513
177	0x3fe535d28ef65b5e	0.6628201286538162
178	0x3fe5ecb4fa832ed9	0.6851448910542458
179	0x3fc2b9c06638bb31	0.14629368773736354
180	0x3fd913eae1fedb0d	0.39184066839099857
181	0x3fbb3a2a1ae618b8	0.1063562694235739
182	0x3fe9639c1a51bcbd	0.7934093965576704
183	0x3fef2a46bf38e46b	0.9739106879052434
184	0x3fecc593abf76fba	0.8991182669374134
185	0x3fe5e99adfe85849	0.6847662327952629
186	0x3fe8910346a01d12	0.7677017573741145
187	0x3fec26f0c981e615	0.8797534881297816
188	0x3feb736533baf95a	0.8578363428457962
189	0x3fcd5970b271857f	0.22929199898775818
190	0x3fec2fdfa9f86de3	0.8808439559683702
191	0x3fc19ec51a7178b0	0.1376577738873883
192	0x3ff07d8bdba96a3c	1.0306509571588682
193	0xbfcadd52ef5adad1	-0.20987927138567966
194	0x3fe266ad5999242b	0.5750338315930369
195	0x3fe881af5259b42e	0.765830670204769
196	0x3fd8025584137bcc	0.37514245889718434
197	0x3fc7f36c6b7050da	0.18711619611770552
198	0x3fc62ee5e71ea9a1	0.17330621514458946
199	0x3fd57371e00db9aa	0.33517119293437736
200	0x3fd8b0eef399175b	0.38579915799015446
201	0x3fe15fbc563a28de	0.5429364856838921
202	0x3fd11218c0ff4cef	0.26672953460111065
203	0x3fb190db7eb07649	0.06861659853935821
204	0x3ff4fa5112bc6e78	1.3111124736668938
205	0x3fd0bf61d6249642	0.26168104088205635
206	0x3fc3e07938290fdc	0.155287887975759
207	0x3fe48d4b519a4f8c	0.6422478288463807
208	0x3fdf8a1116df6181	0.49280192598009626
209	0x3fd648fa99175c8c	0.348204278472118
210	0x3fd4e74213a7a45f	0.32661487502497794
211	0x3fe226ab4314ee89	0.5672203359785765
212	0x3fe24f229f5057d7	0.5721600638960308
213	0x3fe8ed89d463923c	0.7789963863584215
214	0x3fe9f77501f392c9	0.8114571607698845
215	0x3fb654875f129669	0.0872273070441111
216	0x3fe811c6f9890ce6	0.7521700738656392
217	0xbfc534d5c287eb19	-0.1656748962266981
218	0x3fb34da765ed56ae	0.07540365446524319
219	0x3fb43b9c933761da	0.07903460115574693
220	0x3ff02fd5dd9fb542	1.0116785676176083
221	0x3fe8ced4ebe532f4	0.7752480132417916
222	0x3fd5189e3579afd1	0.32962756368828844
223	0x3fd44336d6452e32	0.31660242962672946
224	0x3fda19bf9eb7f764	0.40782156467309094
225	0x3ff19d275b079f95	1.1008676105356916
226	0x3fd40c08b385e71d	0.31323449641750917
227	0x3fe94c7f5f252499	0.7905880792906316
228	0x3fdd145f8378a5c5	0.4543684753321851
229	0x3fe7e1e85ff1c2fc	0.7463266252435399
230	0x3fd2abd3dc804885	0.2917375233965987
231	0x3fea264124dcb367	0.8171697349513182
232	0x3ff7b31b60a9d5df	1.4812272811808425
233	0x3fdbcb016c85032e	0.4342654762040635
234	0x3fe42267fb34abd7	0.6291999727594612
235	0x3fd1080d8e703a3b	0.26611651334761505
236	0x3fdbe012b09f461c	0.4355513310266319
237	0x3fcae4d86b0608b3	0.21010880685577646
238	0x3fe3d698ea030618	0.6199459620040129
239	0x3fe71fcff28a7b18	0.7226333367469548
240	0x3fe6588131e9d470	0.6983037924643565
241	0x3fe1a922fddb7412	0.5518965681218353
242	0x3fd05df9f0646a17	0.2557358596401697
243	0x3fe70e8eccdf9fd3	0.7205270768581563
244	0x3fe467eb8f94350d	0.6376855663562836
245	0x3fd2c834ff07680f	0.2934696665303144
246	0x3fde017226b78721	0.46883825093219583
247	0x3fd1def7bd7b8cc8	0.2792338705459767
248	0x3fddf42ea3cae1e0	0.46802869792329993
249	0x3ff066950df8d13f	1.0250444932726877
250	0x3fc879b607b8c7ed	0.19121432663956686
251	0x3fdf71313d751e6b	0.4912837124033788
252	0x3fc5a2d75cb1a315	0.16903202081746174
253	0x3fb6b0d143899378	0.08863551997053587
254	0x3fe00f973e6a18ea	0.5019031733543475
255	0xbfb8c3fce0dd7570	-0.09674053659315063

weight f8 [50, 4]
0	0x3fd7c088cd31ecd8	0.3711263660295123
1	0xbfc33b57b7962b25	-0.15024849380673647
2	0x3fda1cdfded0fd50	0.4080123592320506
3	0x3fdef84539ebcce1	0.4839032235751813
4	0xbfc0dff940747ac7	-0.1318351330491707
5	0xbfc8cdcc21dd0bbf	-0.19378043797959596
6	0xbfc7df8ed566ddeb	-0.18650994701395915
7	0xbfce027552da44df	-0.23445002122438205
8	0x3fd8aa91dae78489	0.38541075112704754
9	0xbfe0df8017b8f546	-0.5272827590303357
10	0x3fdf4db3ce9bdea8	0.4891175763764104
11	0x3fbd6640ea5d96c1	0.11484151574912983
12	0xbf7d700cbbc0abf5	-0.007186937084081348
13	0xbfa48e3b148af0c7	-0.04014763475194765
14	0x3fbe747cdda387f5	0.11896496211150505
15	0x3fd8d575fcd90ae6	0.38802861873788996
16	0x3fc66a161e93faf7	0.1751125001246334
17	0xbfdc450554df4151	-0.44171269691743925
18	0x3fae4a49ee1601e7	0.05916052848170122
19	0xbfc6dc6ef6abbcd5	-0.17860209507441618
20	0x3fce56c97d3ce380	0.23702353110436647
21	0xbf928d453dca4437	-0.018117029091232886
22	0x3fb3dfc20bcd8d25	0.07763302601010887
23	0x3fcd03f2e207ff0b	0.22668300663644234
24	0x3fb125b79bf82268	0.06698176915973308
25	0x3fe535957fee6ed7	0.6627910135898344
26	0x3fd77f724e4a1a62	0.36715371747451375
27	0xbfc475fe78c2571f	-0.15985089203302835
28	0xbfc6b1e14e6f10c0	-0.17730346994188118
29	0xbfc76f1346e65f91	-0.18307724916371318
30	0x3fb8c82c754245c5	0.09680440771832995
31	0x3fe072d8a3b11da4	0.5140193173510181
32	0xbfb33effb8b8edcb	-0.07518003711532299
33	0x3fd0aacd0c1cdb86	0.26042486365206974
34	0xbfc9eab2b07f03d4	-0.20247491472221546
35	0x3fd71491200b3bd5	0.36063030366216015
36	0x3fd7f409bcd159e7	0.3742698997424711
37	0x3fdbd3d8c362c8e5	0.4348050983491148
38	0xbfd11431e7fd51d3	-0.26685760169246214
39	0xbfd8321c0a2c22af	-0.37805844300650454
40	0x3fd7b81a9fccbd4d	0.3706118164581838
41	0x3fa4c9de2a556676	0.04060262934463037
42	0xbfcd70b314e12aee	-0.23000181693563299
43	0xbfd8b3b49ea67694	-0.38596835606754465
44	0x3fd39cee30aef7bb	0.3064532733368385
45	0xbfe080cb80ba1a82	-0.5157220377157758
46	0x3f8a72f32f427f91	0.012914562110665691
47	0xbfd26de32d4f468c	-0.28795699524662477
48	0x3fd4b557a2bb6b25	0.3235682572537136
49	0x3fc31c7770e5cc47	0.14930623066502077
50	0xbfd3b67c43115d97	-0.3080130248030967
51	0xbfb249c149d91847	-0.07143791249208774
52	0xbfd929999aecc598	-0.3931640637339
53	0x3fc0d5189f8e68de	0.13150317946276052
54	0x3fd3ba39ecd1fa4d	0.30824134947753096
55	0x3fd70daffde7773b	0.3602104167492716
56	0xbfdebd708f6d8afc	-0.4803124809897523
57	0x3fdd47e486c194f0	0.4575129810312566
58	0xbfc820c45af0ab2f	-0.1884999698680416
59	0x3fd0c24310986bbd	0.26185680981296483
60	0xbfc2609bd1aa6fa7	-0.14357326257311095
61	0xbfc8e4914b91a82f	-0.1944753283490299
62	0xbfbd230b4bf3436f	-0.11381598095182509
63	0x3fa45c264f3c71cf	0.03976554600942316
64	0x3fbc02456222e9b7	0.10940965314777072
65	0x3fb09fec0c1f1b0f	0.06494021697936268
66	0xbfbbd98e7e899f37	-0.10878840054794812
67	0x3fcde7fa1782471b	0.23364187381644616
68	0xbfd0ea689980b3df	-0.2643071650552979
69	0xbfd87d7b880df6ea	-0.3826588467271522
70	0x3fd469e56a6e1959	0.31896338838159505
71	0x3fd75adec0719039	0.364921272214136
72	0xbfcd8e3b3ecd90ab	-0.23090305868675406
73	0xbfd7b13ac35744c9	-0.3701922328592216
74	0x3fda7cd852fd7d46	0.41386993507872594
75	0xbfc50a3ce0352c66	-0.1643749327434733
76	0xbfcba3ed99da1c7a	-0.21594018947891752
77	0xbfcccfe8741d0fbf	-0.22509484929662268
78	0xbfd3a40355f20af0	-0.30688556092370245
79	0x3fd33a8307284347	0.30044627856209555
80	0xbfdc785301282404	-0.44484400856941897
81	0xbfd6086a05995577	-0.3442635588338229
82	0x3fd0ef8e5586f9be	0.2646213374354395
83	0xbfac9ee6d7043d30	-0.05589982390130854
84	0xbfcc83206280ff0e	-0.2227516633010897
85	0xbfc220045a68a0ef	-0.14160208143699246
86	0x3fd764e8848cb7a3	0.3655339521818581
87	0xbf6027b3efb3574b	-0.0019720568067026815
88	0xbfcdef94178a5f13	-0.2338738551086342
89	0xbfd5d145b0f05210	-0.34089796332526223
90	0xbfd778ec67cf550b	-0.3667555822151633
91	0x3fd2c4bc6db32867	0.2932578154838041
92	0xbfe0a55e38e1289e	-0.5201865302017443
93	0xbfc1009beb7862ba	-0.1328310870892631
94	0xbfc15b4425dd0887	-0.13559772347258933
95	0xbfd4c09df9440cfd	-0.32425641386380716
96	0xbfd20e6500c84f56	-0.28212857319271245
97	0x3fd786c7382ac8f2	0.3676012085444561
98	0x3fb0f57ba4110895	0.06624577289133733
99	0x3fcb73f076281b2c	0.21447568673485173
100	0x3f82cad629df0080	0.009175942566685302
101	0x3fc367f6b8183270	0.15161022175779548
102	0x3fa80b3c6902d9db	0.04696072370409229
103	0xbfd75d6fde711d3f	-0.36507794115864906
104	0xbfb7705d3f7f054c	-0.0915582923908193
105	0xbfde8129ead0d169	-0.4766335290071511
106	0x3fc3cc7adf4900cf	0.15467773344608424
107	0xbfc35119ad4c70fa	-0.15091248475881242
108	0xbfc7ebfb1be2abfc	-0.18688906537622063
109	0x3fa391a076c4435c	0.03822041940487139
110	0x3fd3e818cb58a449	0.31104106767685785
111	0xbfdeaca2870957ce	-0.4792867964473516
112	0xbfd6f26795e5dca5	-0.3585452045294438
113	0xbfb12ac5f89e311d	-0.06705891914152003
114	0xbfd98ccaf33bf778	-0.39921830895752164
115	0x3fd020a6deda3085	0.2519929100315113
116	0xbf7d5b114adc4492	-0.007166926907090547
117	0xbfd7de431c684537	-0.3729408051886653
118	0x3fa439b45ae0124e	0.03950275048558592
119	0xbfd866ac230a6331	-0.38126662656718496
120	0x3fa9bf2006f34979	0.05028629383891121
121	0x3fda05c7350afc03	0.40660267047854876
122	0x3fe267900a8cdeaa	0.5751419263896953
123	0xbfda5b856a3cab0e	-0.411836007830673
124	0x3fd181aa4aef8f99	0.27353913610408537
125	0x3fbc9ba85cf6d827	0.1117501475299326
126	0x3fc96f1d42490cc7	0.19870343910779395
127	0x3fdf79f9bb332fd3	0.4918197944759843
128	0x3fc290c9e6d31709	0.14504359980326623
129	0xbfddf566193f8f0d	-0.46810295549060826
130	0xbfcd71f09cdf642d	-0.23003966960712444
131	0xbfd3cd63e98c5e50	-0.30941102797939823
132	0x3fd3312579e3d7c4	0.2998746576625957
133	0x3fdf9268b360dfac	0.49331109540389195
134	0x3fc8265ff6ac7cc5	0.18867110771768672
135	0xbfe0af69377dce72	-0.5214124759499568
136	0xbfbfd16c19d386e7	-0.12428928022884699
137	0x3fa520c1aff4c27f	0.04126553795720599
138	0xbf9ffe234aaef53f	-0.031242896493258284
139	0xbfca0d0339c3077b	-0.20352211304094311
140	0x3fd38d2e8964526b	0.3054920522420505
141	0x3fb2f9004380a9ed	0.07411195419323464
142	0x3fe0a71ae2a88903	0.520398562137672
143	0x3fa6b5d079316c06	0.04435588340194134
144	0xbfc20659e3981f3a	-0.1408188210773405
145	0x3fbeb9b56493a4a3	0.12002118783461184
146	0xbfbf7465ed2a9ed5	-0.12286984481999792
147	0x3fa957fca6f1c583	0.049499411944348835
148	0xbfe1792dc34add04	-0.5460423292451257
149	0xbfd36577c8e3a088	-0.3030681096847805
150	0x3fc5319d70fb9e88	0.16557662979834142
151	0x3fbec024f268fcd0	0.1201193897077133
152	0xbfd8e9e2549afee5	-0.3892751528000942
153	0xbfaf2b4aaced9615	-0.060877164468177515
154	0xbfd119c158b55670	-0.2671969763081057
155	0x3fc1b7db2bf6b41d	0.13842334410347315
156	0x3fdfcd5c2aa55547	0.49690918125755384
157	0x3fd025a0f8a0b81f	0.2522966793065979
158	0xbfde3ad35de87f2b	-0.4723404328415081
159	0x3fa29988e540251f	0.036327627167404446
160	0x3fd65769ed5f04d2	0.34908531361368234
161	0x3fe3b503b47fbdad	0.615846493279539
162	0xbfe44decb0eec010	-0.6345122771945189
163	0x3fc31150b7c20095	0.14896592114019272
164	0x3fbee7270572a8f7	0.12071460612301964
165	0x3fbab3f445b74817	0.10430838300752075
166	0xbfd7f067ec759f23	-0.37404821483368006
167	0x3fd3bc0ab8baf951	0.3083521656043518
168	0xbfd814c775b5b34a	-0.37626825804800446
169	0xbfd3164b6238b041	-0.29823574630677646
170	0xbfd68530dd47da69	-0.35187932595673616
171	0x3fb6aca7fae613c8	0.08857202411134246
172	0x3f78f82672c1cd7f	0.006096029461434837
173	0x3f652c944c4445ff	0.0025847336238562497
174	0x3f6c11d870c8f4ff	0.0034264781336604817
175	0xbf7bce2cbf093bff	-0.006788420476893541
176	0x3fe55696b19f9b44	0.6668199032982121
177	0xbfdf070ea2ee8bb8	-0.484805735695939
178	0xbfd2a12f3212fa69	-0.29108791246463867
179	0xbfb0e9c922f548e5	-0.06606728652448941
180	0xbfdd59cf0a353db3	-0.45860649105903945
181	0xbfd8095a86dcff69	-0.3755708996795791
182	0xbf9a99efbd3b9e5a	-0.02597784607396956
183	0xbfd7fd596880a425	-0.3748382111103317
184	0xbfd31526133dd7d6	-0.2981658161073687
185	0xbfe2d0f411dd00b0	-0.5880070065395753
186	0xbf96a9c281a9001a	-0.02213195721037673
187	0xbfe226079f520e32	-0.5671423064927181
188	0xbfc940e3f75a2865	-0.19729280069106206
189	0x3fc9141908e5661a	0.19592583593730312
190	0x3f9e46e8a15102da	0.02956737026784393
191	0xbfda191b1ad50b73	-0.40778234119732487
192	0x3fe3c3a72c11d7d8	0.6176334248291324
193	0x3fc44b25dff3ada5	0.1585433333888037
194	0xbfa7526b809e9ebc	-0.04555068917335123
195	0x3fbfcd7bf03495e1	0.12422918905630055
196	0xbfd602ff05a69f4f	-0.34393287231295216
197	0x3fbdf36075ac1467	0.11699488518577682
198	0xbfc02d57f4f76e87	-0.12638377629524575
199	0xbfa9c96da8b863bf	-0.05036490139554627

bias f8 [50]
0	0x3fcd38bbf7e5cf24	0.22829389194850436
1	0xbfd829f3f1e24b70	-0.3775606023929674
2	0x3fc3aa83dda41c4e	0.15364120790784103
3	0x3fde61fac76db967	0.47473020053339215
4	0x3fcd64ca37cbf2be	0.2296383640713397
5	0x3fd4076030c29334	0.3129501796886871
6	0x3fbb0c3f028cdd52	0.10565561115514768
7	0xbfddb257afd1e736	-0.46401016397395567
8	0x3fc7934a3c13131e	0.18418243344617563
9	0xbfd8e1cadcb619fe	-0.38878127626267645
10	0x3fde0767bea4d5ad	0.4692019807583517
11	0x3fa7b37d153c0c0c	0.04629126438342021
12	0xbfbea992e23ff618	-0.11977499030759764
13	0xbfd3d15c0d4be598	-0.30965329454883195
14	0x3fdd656017182d7e	0.45931246047322094
15	0xbfd5ab5c47a7872a	-0.3385840129613934
16	0xbfdebbc21e530bfa	-0.4802098556648954
17	0x3fa876fdf4ea69d7	0.047782837054189
18	0xbfc8b2acb5ccacc5	-0.19295271756104718
19	0xbfcece55e38d0910	-0.24067185984501593
20	0x3f9657cfe3a5822a	0.021819351453247794
21	0x3fa73fc39b5b830d	0.045408356394324036
22	0xbfb70420984f4105	-0.08990672796722173
23	0xbfd09b9fa0db86d0	-0.25949850758307225
24	0xbfb8e10c6b865943	-0.09718396782986809
25	0x3fdc9b522037cb80	0.44698002954753946
26	0xbfd932b2569d1e22	-0.3937192769849124
27	0xbfd9e84d76bbb04a	-0.4048036250594619
28	0x3fdf5872b7720235	0.4897734443148097
29	0xbfba9f2c07980f5e	-0.10399127183341991
30	0xbfb7c54836729ae3	-0.09285403565682375
31	0xbfdfef1d5809b274	-0.4989693984742083
32	0x3fd7ab9a25e13307	0.3698487634581373
33	0xbfb3f3739fa6f7ef	-0.07793352744826597
34	0xbfdda0cfd78641cc	-0.46294017836865176
35	0x3fc2fcbe68e5107a	0.14833812829795417
36	0x3fb445beec7caae7	0.07918923638923624
37	0xbfdc6119a0319036	-0.4434265198126498
38	0x3fab46df7057531d	0.05327509161330666
39	0xbfcc5a2228b4f384	-0.2215006541026946
40	0x3fd883edc2456cc6	0.38305229160114285
41	0xbfdac0e88022e702	-0.4180241824466152
42	0x3fc0a182528ff15f	0.1299288657318227
43	0xbfcaf7d98bc38548	-0.2106887752952764
44	0x3fc349b58186c832	0.1506869204000068
45	0x3fc61387e5bc2a06	0.17247103421716775
46	0xbfd53cf103fb8757	-0.3318445719615872
47	0xbfdb8c79e5d59182	-0.43044898457289815
48	0x3fc74fc2fe045158	0.18212163355986877
49	0xbfd30499d9712018	-0.2971558211761489

weight f8 [50, 50]
0	0x3fa087d9040ac33e	0.03228643583623246
1	0x3f81081efa7875e2	0.008316270846132793
2	0x3fbf54dc0600d337	0.12238860270083483
3	0x3fb90df14e93f7b0	0.09786899727256926
4	0x3fb3927369e6b84d	0.0764534123943303
5	0x3f85c1b7fcfc3ddd	0.01062339535522388
6	0x3f841b66f4fdb2be	0.009817890502483603
7	0xbf86529488be27bc	-0.010899696753558057
8	0xbfb33dc2fdb45a79	-0.07516115850408224
9	0xbf4b7f8324f8a134	-0.0008391752580268253
10	0x3f899dbf3ebda426	0.012507909872242772
11	0x3fc55005df7731f0	0.1665046063557294
12	0x3faa7c137de925de	0.05172787582393899
13	0xbf71bbacd9bf524b	-0.0043293716407402745
14	0xbfb1499752dfdb2e	-0.06752916119863236
15	0x3fad7a446e9b3092	0.05757345056699238
16	0xbfba6e00ab83ed26	-0.10324100673090139
17	0xbfa2457a59ce76dd	-0.03568632456084029
18	0x3fbece4664e6ec5d	0.12033500636509716
19	0x3faa8f974f329882	0.05187676278846799
20	0x3fa676a6bc14e7a7	0.043873987635790805
21	0x3fc4285fb8185ae5	0.15748211373348578
22	0xbf97eb23ccc7c0a5	-0.02335792481784495
23	0x3fb11600d5864a3d	0.06674199307443814
24	0x3fb07dfe0dcbbc07	0.06442249142467925
25	0x3fc29b8689136ff2	0.14537126248512738
26	0xbf4bd8ea165f9055	-0.0008498328213559873
27	0x3fb9510e33c8eed6	0.09889305843619964
28	0xbfaa6a67c70c221f	-0.051593058631685056
29	0x3fbaf3628104ac2a	0.10527625703677815
30	0x3fabca561f110902	0.054278079311659524
31	0x3fb79e77154726d8	0.09226173657875891
32	0x3f8405c0eb15c4b0	0.0097765990965136
33	0x3fc3250d2023120e	0.14956821507634327
34	0xbfa994a5f69f10f7	-0.049962221484323104
35	0x3fb3f3cc6dd18412	0.07793882065881544
36	0xbfa2e6916feb6fb3	-0.036915345108098484
37	0x3fbf2fe104df1599	0.12182432526522859
38	0x3f600ede1bbca68d	0.001960214429250601
39	0x3fa7fcc4fe23dea3	0.04685035326286637
40	0xbfa1449597e4a60f	-0.03372638205685174
41	0x3f685e0cdc30fb35	0.0029745341467156913
42	0xbfb47352ef5b1cd2	-0.07988470405244932
43	0xbfb138d2491913b1	-0.06727327618234714
44	0xbf93d9805fa84eab	-0.019384389723269873
45	0x3fa966d4a499cb5b	0.04961266049658405
46	0xbf9e50dc71bdc00a	-0.02960533565732252
47	0xbfa92b122e2c5e1a	-0.049156730781927574
48	0xbf9352129907b3f0	-0.01886776980420629
49	0x3fc071806bd0be1b	0.12846379532264582
50	0xbfab01f8a173e189	-0.05274941416604679
51	0xbfb4d0c35ae91f8e	-0.0813104721975135
52	0xbfb13b41387738bf	-0.06731040600354542
53	0x3f959693aded9257	0.02108221768448212
54	0x3fbc2c7c83cc0b6c	0.11005380838109396
55	0x3f9e85fc40ba4c4b	0.02980798859659854
56	0x3fccf923014fb2f4	0.22635304988889227
57	0x3f528c22f31c02b0	0.001132043962968659
58	0x3fbdb965a7daa9c1	0.11611018512727524
59	0x3fbe5b39723cd694	0.11857947386746509
60	0xbfc199a3bd4710db	-0.1375012087065731
61	0x3fa876a458d80080	0.04778016647833372
62	0x3fbdaa148797377f	0.11587646780318826
63	0xbf8fab779956b21b	-0.015463766448044194
64	0x3f6b56686dc574e7	0.0033371009468924242
65	0xbfb95c7ddebab4b7	-0.09906756103255786
66	0xbfb56a3e681bc466	-0.08365240136824212
67	0x3fc151d209146b6d	0.13530946200702534
68	0x3fad065248e27f5f	0.05668885364252562
69	0xbfb41684bdc51c49	-0.07846860535674795
70	0x3fbc594c6ab32a10	0.11073758702256264
71	0x3fbe8f7c0c61d1fc	0.11937690069482437
72	0xbfa21fb1083b64b7	-0.035398037199862946
73	0xbf78f99277462020	-0.006097385532832816
74	0xbfb03e2cde8ec319	-0.06344871934448938
75	0x3fa670bfafaeaba1	0.04382895488318828
76	0x3fc3d2b6e5770bfa	0.15486799434992787
77	0xbfbd6b4cf9c4cb82	-0.11491852853650467
78	0xbfb198919b76e390	-0.06873426480787104
79	0xbfc0e566136330f2	-0.13200069376615137
80	0x3f68bec6f3d18093	0.0030206571378102536
81	0xbfae8d7930aaf3cd	-0.059673106375590736
82	0x3fbb08d3549ae1da	0.10560341659118624
83	0x3fa8c61c27b8ea4e	0.04838645920650163
84	0xbfb4af0d398cf845	-0.08079607634587756
85	0x3fc26a0a246c9040	0.14386107233542766
86	0xbfb3848b50bed602	-0.07624121400188957
87	0x3f9f89f4a6d923e4	0.0307996966205656
88	0xbfb59ed731dcc6e6	-0.08445496527999871
89	0xbfb5738b5f321ddb	-0.08379431795230323
90	0xbf9e5b01882487ca	-0.02964403527688101
91	0xbfbb77d69ba92742	-0.10729733753501328
92	0x3fb5faa61cddbc3a	0.08585584835758278
93	0xbfbbcbb4c2820fc1	-0.10857705830318222
94	0xbfbc0932ec8cdbff	-0.10951536440994401
95	0x3fc160037deb0633	0.13574260376303612
96	0x3f9cab6be74c4081	0.027997671119976978
97	0xbf902763050ac26f	-0.0157752487018023
98	0xbfb74946b04edf63	-0.09096185497662428
99	0x3fae020416cb16f9	0.05860913065184365
100	0xbfb0707e6d03d8ed	-0.06421651994228102
101	0xbfb9391f3d493b87	-0.0985278629898244
102	0xbfa7d79ee54e7446	-0.04656693028594154
103	0x3fba1b56e6a2f28d	0.10197966700338608
104	0xbfaf6a3aded296fe	-0.06135734529497759
105	0xbfbf0b0a87f15aca	-0.12126222437778292
106	0x3fc2a17f39f567de	0.14555349664698175
107	0x3fb0b2c7fe7631b8	0.0652279850239158
108	0xbf9a379aebef5fa4	-0.025602741861660797
109	0xbfbe6562a8151a68	-0.11873451808524182
110	0xbfb9feb4aaf3871d	-0.10154275106063122
111	0x3fb76b7b804c97d7	0.0914838016729783
112	0xbfc11ee95772abff	-0.13375584382933423
113	0x3fc1ecd881214516	0.14004045777486657
114	0x3fc484e6a5ed4864	0.16030581571482394
115	0xbfa2033425de1058	-0.03518069231270776
116	0xbfb8216d0adb8158	-0.09426003947328832
117	0x3fc3eab42bc1f21e	0.1556000913295898
118	0x3fbec0b914be1a82	0.12012821918879449
119	0xbfc4138cbbcbeeea	-0.15684661073452527
120	0xbfb53184c7167d62	-0.08278684483092527
121	0xbf97f882008a08f8	-0.023408919604215733
122	0x3fb0c2c749da0307	0.06547208359735289
123	0x3f9db3b68ebf3906	0.029005863630851024
124	0x3fbbdfab55b4bb2b	0.1088816723101728
125	0x3fbdb88c5fd8f619	0.11609723415400487
126	0x3fa6333b423f7c83	0.043359615170396125
127	0x3fb7f9b0d567e652	0.09365372858146628
128	0xbfb3cb4e3ba1d360	-0.07732094722616756
129	0xbf8219fd5011a99d	-0.00883863354302577
130	0xbf989fa6aadf2031	-0.02404652040402783
131	0x3f91596261098d7a	0.01694253651875275
132	0x3f7537c1b43e66f4	0.00518012681632184
133	0x3fcff56334e01f42	0.2496761329823532
134	0xbf8384ddc405780b	-0.009530766052815684
135	0x3f9d0ef4a7b387b6	0.028377363906549845
136	0xbfb22d6bcc7ac53d	-0.07100557081391386
137	0x3fb27e21b7b62837	0.07223711714883128
138	0x3fb2846f4b2a36f2	0.07233329377251232
139	0x3fb0fca45e90354d	0.06635501202273027
140	0x3f7776b49184f723	0.005728440614175575
141	0xbf964a108b3077f7	-0.021766909118120705
142	0x3f8dadd7297fe816	0.014491730646103245
143	0xbfc09baa5e1a1976	-0.12975053400823428
144	0x3fafc18bbb8af911	0.062023512500205887
145	0xbfa483a46dd1b95e	-0.040066851049106886
146	0x3fb1c88417bf2396	0.06946588115455507
147	0x3faaaadb827d3bb6	0.05208478896985673
148	0x3fbf87d2b0e3f97d	0.12316624468437527
149	0xbfa8afe40bcacda6	-0.048216940345265955
150	0x3fae3cf4a0046845	0.0590588040669933
151	0xbfa0c731b455922b	-0.03276973081918685
152	0xbfc04c61a370737f	-0.12733097534592372
153	0x3fb3255818f2db60	0.07478857621286528
154	0x3f95952db6a32c24	0.021076883575727248
155	0x3fa043a070057269	0.031765950846168796
156	0xbf8b716f385b9887	-0.013399952800181815
157	0x3f9a84a1fa83d3d4	0.02589657870790403
158	0x3f89e166f3d6f505	0.012636951748272294
159	0xbf9f8f63f15793b8	-0.030820428471901556
160	0x3fb69424cf3f3155	0.08819799480187858
161	0x3fc7171bb371cc79	0.18039270650806197
162	0x3fb9476b681a5385	0.09874602595875899
163	0xbfc0b8fc2b4d77a0	-0.13064529528031432
164	0x3faa155f641cde5f	0.0509443101604432
165	0xbfbcbc0a9898bd62	-0.1122442839193716
166	0x3fc01c74d2adef36	0.1258684185703431
167	0xbfa7f889e6c55f51	-0.04681807462719568
168	0x3fb69b64254bddef	0.08830858145289942
169	0x3fa6895e3c7bfd85	0.04401678551038927
170	0x3fb2aabec78511b2	0.07291786547745607
171	0xbf78e2a9bdf66b5d	-0.006075537733887551
172	0xbfa68891fb6c0088	-0.04401069826235565
173	0x3fb679696fa0c944	0.08779009795469955
174	0xbfb9a33ab2e852e2	-0.10014693134173627
175	0x3faffffcdf27cf6c	0.06249990676943082
176	0xbfb19758d2ca6500	-0.06871562143568966
177	0xbfbca3f3ba05a8e0	-0.11187670985751508
178	0x3fc3aaf18e4841bf	0.15365428397536893
179	0x3fc42e24bad0a3c4	0.1576581871206867
180	0xbf63d992bca34865	-0.0024230829195426734
181	0xbfbd5b2b65d53da0	-0.11467238651424916
182	0x3fc2386bf4c925e7	0.14234685375622222
183	0x3fbe908e32cd03d5	0.11939324131255032
184	0xbfb6c18e22d8b0c7	-0.08889091826194138
185	0xbfb9c75da311149f	-0.1006983302223312
186	0x3fc07590abc66cb0	0.12858780276733262
187	0xbfa4bdb987c09490	-0.04050998479969181
188	0xbf9089f9d19064b8	-0.01615133611276029
189	0xbfc023f91472ea1d	-0.12609780786972716
190	0xbfbb688c289ded76	-0.1070640181696286
191	0x3fac11ab3ea75622	0.05482230319800531
192	0x3fb5ae996aadfda1	0.08469542364581752
193	0xbfc11f617eda2ac6	-0.13377016729312724
194	0x3fd9d993f080f643	0.4039049004239567
195	0x3f960b366ecefb9d	0.021527147782531498
196	0x3fc5af40d2f93beb	0.1694108038086307
197	0x3fb948476a78d5f3	0.09875913953222674
198	0xbfc7b0254f7ac915	-0.18506304150430056
199	0xbf4abd6e0b7700ec	-0.0008160388305711564
200	0xbfcbaa8e13b695a9	-0.21614242518005014
201	0x3fa61ea429c8a830	0.04320252428108551
202	0xbfa75ffc5563bcbe	-0.045654187606368066
203	0x3fb55159caf6011b	0.08327256398297715
204	0x3fb7e8900e78314e	0.0933923755002912
205	0x3fc74e208b5a9ea6	0.18207175068277087
206	0xbfd21b85f2724111	-0.2829298846854878
207	0xbff9ccd5c1d3127a	-1.6125085421819265
208	0xbfc0e84320890e4b	-0.1320880802978642
209	0xbfa89441dd14fc2e	-0.04800611327890923
210	0xbfc5760cee5b9bda	-0.16766511572424642
211	0x3fa808a5de99d30d	0.04694097845359666
212	0x3fbaadcf0e3f3060	0.10421461198638005
213	0xbfe00a0e960b588a	-0.5012276583245392
214	0x3fd3403f94b25349	0.3007964088549682
215	0xbfbf03755f8a96fc	-0.12114652235558404
216	0xbfb57b7b0add8cf7	-0.08391541495580045
217	0x3fbb99f4eb702361	0.10781794307707805
218	0x3fab4501eff4b5b1	0.05326086095952166
219	0xbff073fcd492d752	-1.0283172897010968
220	0x3fa3fd7f8dceaefc	0.039043413219898654
221	0x3fc0e3efce22ef24	0.13195607724434766
222	0xbfc1e4f333f950d8	-0.13979949987208928
223	0xbfc153ccb1e11fc2	-0.13536986051098948
224	0xbfe20c31680c170e	-0.5639884025738142
225	0x3fb18e037a237487	0.06857320529839415
226	0x3f9d71be7d674ceb	0.028754211811087876
227	0xbfc05caffb51a1aa	-0.12782859584264133
228	0xbfb9fa072d907fe9	-0.10147137510693906
229	0x3fb0deaeda1b565b	0.06589787316200939
230	0xbfd475e12b874ae7	-0.3196947980006101
231	0x3fa0d2b2bb85b0c3	0.03285749949540808
232	0x3f84f7ef194e9ee8	0.010238521537601256
233	0xbfe3293583679714	-0.5987803999421168
234	0x3fa55dffd9a4e7ae	0.04173278362073006
235	0xbfa4772433acc34f	-0.0399714768485696
236	0xbff54835b12e2cd6	-1.330129329787089
237	0x3fa5cf4a5319cca4	0.04259712471402935
238	0x3fc494a673bbadb9	0.16078644419699886
239	0x3fc0dd26c7659d99	0.13174900757006183
240	0xbf95ab70c411f133	-0.021161806075256705
241	0x3fae01b6a90b8570	0.05860682309663445
242	0x3f86219b11aad793	0.01080628535906295
243	0x3fa54598b49ca830	0.041546604201656456
244	0xbfd39be4ccf5dc02	-0.3063899995390217
245	0x3fa0ec0ef238114a	0.03305098253989287
246	0xbfb951b8f01afe38	-0.09890323507260568
247	0xbfc1c0481dd79886	-0.13868047196519145
248	0xbfec6aa526ffc5b4	-0.8880182038976074
249	0xbf912e9410b005b3	-0.016779244917420843
250	0x3fb9e14305a5c474	0.10109347236518024
251	0xbfb082a564fa0582	-0.06449350085497055
252	0xbfb10b7cb715f898	-0.06658153028363001
253	0xbfb2d7591c489902	-0.07359845104710774
254	0x3fb981f037138520	0.09963895172724735
255	0xbfbb03ccf2681073	-0.10552674215438333

bias f8 [50]
0	0xbfb2a40c11d7aae2	-0.0728156608162567
1	0x3fa20795f460ea91	0.03521412475716546
2	0xbfb0eba932e7e058	-0.06609590046707703
3	0xbfb5535b3a47c31b	-0.08330316708430667
4	0xbfb3d4d4ce9fc294	-0.07746629757435591
5	0xbf8979aed739e598	-0.012439123099499835
6	0xbf9fb076f4ad9002	-0.030946596797903687
7	0xbfbf497b1e3314f3	-0.12221498000424784
8	0x3f9a97fd4614a360	0.025970418360120262
9	0xbfc173c436895215	-0.13634541190062124
10	0x3fbd1b2b43124c3c	0.11369581592070771
11	0x3fc04933f8404142	0.12723397847777035
12	0x3f61d6e7f8e0e7cc	0.002177670546214627
13	0xbfc038a549cda3f2	-0.12672868827510758
14	0xbfbabf93816e69b2	-0.10448572072929244
15	0x3fbe1efe6f9fffcc	0.11766042924136783
16	0xbfc13741e3403f80	-0.13449882122267454
17	0xbfb3a40375c609f9	-0.07672139764148501
18	0x3f89f79a393b7cf7	0.012679295417397969
19	0xbf728b65d09f792a	-0.004527471270163988
20	0xbf80e35e556ff066	-0.008246170980776135
21	0x3f8cee0db2181404	0.01412592601537633
22	0xbfb2e3c3fd196f83	-0.07378792695220508
23	0x3fbaafd851cf0950	0.10424568173678961
24	0x3fbdf45b6a59c3bb	0.11700984331561319
25	0x3fa4b1ab8a07adeb	0.04041801509796613
26	0x3fc226f07551fdbb	0.1418133328297538
27	0xbfc03aee3220f21a	-0.12679841468515535
28	0xbfbc5c963d0f0257	-0.1107877635067863
29	0x3fbfe5f99fb05cc8	0.1246028914323346
30	0x3faf315ddbbf2792	0.06092351252989582
31	0x3fb8be549739295e	0.09665421192145149
32	0x3f98692b32c90c19	0.02383868691891786
33	0x3fa0f0d9f0000dd0	0.033087549731159904
34	0xbfc3168077535ead	-0.14912420107315452
35	0x3fa739dd104be94a	0.045363338698694536
36	0xbfa5ce9d390b8217	-0.04259196587895902
37	0xbfb9b2040886fd9e	-0.10037255485712257
38	0xbfba827e3bcc4403	-0.10355366668615322
39	0x3f91a49d63bb7aca	0.0172295181390563
40	0xbfad71409b3b3494	-0.05750467200196244
41	0xbfb34d899513d754	-0.07540187730395803
42	0x3fc08357ff6a0b4f	0.1290082928790874
43	0xbfa275f07ec9b5de	-0.036056056477587126
44	0x3fb9be852f50d39f	0.10056335835618178
45	0x3f9c0d61d272d92b	0.027394798726811203
46	0x3f7f14cc70a42cd4	0.007588194459695791
47	0x3fb128e910e764e9	0.06703049338047475
48	0xbfbd27355469a121	-0.11387952147345405
49	0xbfa2045ddc414222	-0.03518956483515391
